results/H12/AgentController.onnx (onnx, 657373 bytes, 14 tensors)

83 f4 [116]
000000 0d 0a 83 3e 48 1e 37 3e 4d 3f 42 3e a8 97 80 3e
       0.25593606 0.17882645 0.1896946 0.25115705
000010 7a 84 7c 3e 67 ee 30 3e 36 24 3a 3e c7 eb 7e 3e
       0.24659911 0.17278443 0.18177876 0.2489463
000020 49 3f 86 3e 15 c8 38 3e 77 fa 49 3e 49 56 82 3e
       0.26220158 0.18045075 0.19724451 0.25456455
000030 fb 33 70 3e 2f ba 28 3e 74 09 30 3e b0 31 7d 3e
       0.23457329 0.16477273 0.17191106 0.24725986
000040 9e e3 87 3e 6c 82 36 3e b1 a4 50 3e 76 8a 84 3e
       0.26540846 0.1782319 0.20375325 0.25886887
000050 48 d6 62 3e ac 4a 1e 3e 87 a6 26 3e dd 70 7c 3e
       0.22152054 0.15458173 0.16274463 0.24652429
000060 ce b6 86 3e af b6 2e 3e 82 d7 53 3e 46 cf 86 3e
       0.26311344 0.17061876 0.20687678 0.26330012
000070 cd 09 58 3e f6 50 14 3e f0 93 20 3e e9 b3 7c 3e
       0.21097489 0.14484009 0.15681434 0.24678005
000080 b8 f9 85 3e 35 50 27 3e bd 91 57 3e b6 30 89 3e
       0.26167083 0.1633919 0.21051688 0.26794976
000090 4e e4 4f 3e 22 06 0e 3e 79 e0 1a 3e b8 5f 7c 3e
       0.20301935 0.13869527 0.15124692 0.24645889
0000a0 8a 6e 86 3e 04 5a 1d 3e 4a c4 5f 3e 15 7a 8b 3e
       0.2625621 0.1536637 0.21852222 0.2724158
0000b0 4c b3 4d 3e 5b 2d 0d 3e 95 97 18 3e 3c 22 7c 3e
       0.20087928 0.13786833 0.14901574 0.24622434
0000c0 42 27 8b 3e ed ab 17 3e f9 19 6f 3e 67 5b 8d 3e
       0.2717839 0.14811678 0.23349752 0.27608797
0000d0 f1 64 51 3e e3 2a 10 3e ce 02 1b 3e 3f ce 7b 3e
       0.20448662 0.1407886 0.15137789 0.24590395
0000e0 6d cd 91 3e 64 2d 15 3e fe 4a 80 3e ae 66 8e 3e
       0.2847704 0.14568096 0.25057214 0.27812713
0000f0 c0 2e 56 3e a3 1f 13 3e 5a 18 1f 3e 03 20 7b 3e
       0.20916271 0.14367537 0.15536633 0.2452393
000100 16 f2 96 3e e8 9d 11 3e 45 47 87 3e 2c f6 8d 3e
       0.29481572 0.14220393 0.26421562 0.27726877
000110 c2 34 5a 3e a9 2e 12 3e aa 8c 25 3e a5 5a 7a 3e
       0.21309188 0.14275612 0.1616694 0.2444864
000120 0b b1 99 3e c4 5e 0d 3e 5f 72 8b 3e 68 9c 8c 3e
       0.30017886 0.13805681 0.27235696 0.27463078
000130 c7 09 60 3e 23 49 0d 3e 6e 70 31 3e 71 41 7a 3e
       0.2187873 0.1379743 0.17328045 0.24439026
000140 e9 b3 99 3e ec 57 09 3e aa 55 8c 3e 26 91 8a 3e
       0.30020073 0.13412446 0.27409106 0.27063864
000150 b7 65 69 3e d0 9b 09 3e ff 34 40 3e 8a 07 7b 3e
       0.22792707 0.13438344 0.18770216 0.24514595
000160 64 86 97 3e 5b e3 04 3e 52 c9 8a 3e 72 73 88 3e
       0.2959472 0.12977354 0.2710672 0.26650578
000170 b9 cb 78 3e 1a 25 07 3e 93 e0 54 3e 43 ac 7c 3e
       0.24296464 0.13197747 0.20788793 0.24675088
000180 db 51 95 3e d6 46 03 3e 37 9d 88 3e ec 77 86 3e
       0.29164013 0.1281999 0.26682445 0.26263368
000190 94 19 84 3e 91 a2 05 3e 51 32 68 3e 4e e1 7e 3e
       0.25800765 0.13050295 0.22675444 0.24890634
0001a0 fd b0 90 3e 57 e7 01 3e 66 a1 83 3e 08 01 84 3e
       0.2826003 0.12685905 0.25709075 0.25782037
0001b0 cf de 8a 3e 5d b0 03 3e 13 0c 79 3e 64 5a 81 3e
       0.27123114 0.12860246 0.24321012 0.25264275
0001c0 cf de 8a 3e 5d b0 03 3e 13 0c 79 3e 61 5a 81 3e
       0.27123114 0.12860246 0.24321012 0.25264266

86 f4 [3]
000000 40 64 0e 41 1f 66 80 3b ef c7 05 41
       8.899475 0.003918424 8.361312

action_model._continuous_distribution.log_sigma f4 [1, 2]
000000 e6 6e 92 ba 6e f6 eb bb
       -0.0011171966 -0.0072010076

action_model._continuous_distribution.mu.bias f4 [2]
000000 25 6f 85 3b 53 2e c9 38
       0.0040720874 9.5930554e-05

action_model._continuous_distribution.mu.weight f4 [2, 256]
000000 f8 e3 d0 bb cc 03 95 ba 71 a0 52 bc 5c 05 40 bb
       -0.0063748322 -0.0011368929 -0.012855635 -0.002930007
000010 a9 e9 7b 3c fa f2 c8 3c 7f ea 08 3b 83 4e bc 3a
       0.015375533 0.024529923 0.0020891724 0.001436666
000020 f1 0f 97 3c 47 1e c9 3c c2 fa e6 bb 8c 49 3b 3a
       0.018440219 0.02455057 -0.0070489356 0.0007144443
000030 f3 02 16 bc e6 57 a6 bc 45 b2 8b bb 26 eb d1 bb
       -0.009155977 -0.020305585 -0.0042631947 -0.0064062057
000040 6a c9 61 bc 07 7b ed 38 b0 f0 9f 3c a6 1b 64 3b
       -0.013780931 0.00011323956 0.019523948 0.0034806519
000050 b7 fb 95 3c b8 bd 45 bc e9 52 64 bc 65 86 4e 3c
       0.018308504 -0.012069158 -0.013935783 0.012605284
000060 2e 02 59 bc 46 5b a7 bb 35 fd 17 3c b0 5b 6f 3b
       -0.013245149 -0.005107316 0.009276678 0.0036523156
000070 cc 1a b4 ba fe 83 01 ba ed af 78 bc 6e c2 19 bd
       -0.0013740896 -0.0004940628 -0.015178663 -0.03753894
000080 da 37 76 3c 96 57 eb 3c c4 5d e6 bb 07 49 26 bc
       0.0150279645 0.028728288 -0.0070302207 -0.010149247
000090 52 67 18 ba 58 72 06 bc 87 2d 76 3c 98 d4 99 ba
       -0.0005813736 -0.008205973 0.015025503 -0.0011736332
0000a0 51 0f 8b bc 83 63 95 3c 84 29 aa bc 7d 81 3d 3b
       -0.016975077 0.018235927 -0.02077175 0.0028916292
0000b0 14 5d 4a b8 ba 28 b0 bb 7e e2 79 3c 99 f8 89 3b
       -4.824724e-05 -0.0053759487 0.015251754 0.0042105434
0000c0 3c 60 71 3c 7d 25 d4 3b 53 e3 06 ba 5e 75 9d bc
       0.014732417 0.0064741955 -0.0005145568 -0.019221004
0000d0 b2 d9 0b bc 4c 87 69 3c 7b 63 3c bc a5 68 4e 3c
       -0.008535789 0.014253449 -0.011498327 0.012598191
0000e0 d4 fd b5 bc 39 a4 5d 3c 11 fc 01 bd e5 50 aa bc
       -0.022215761 0.013527923 -0.03173453 -0.020790527
0000f0 82 49 ab 3c b6 6a b2 ba 8a 69 1d bb 4b b1 5c 3c
       0.020909075 -0.0013612125 -0.0024019205 0.013470004
000100 c9 1b 27 3d 3b cc 62 3c 6e 5b c1 bc 1e df 94 bb
       0.040797982 0.013842638 -0.023603167 -0.004543199
000110 26 89 d2 3b af 5a f1 bc 80 d1 7e 3c 4e 27 25 bd
       0.006425041 -0.029462187 0.015552878 -0.040320687
000120 88 ae cf ba 71 c8 34 3c 38 7d 9c ba 8c f4 15 3d
       -0.0015844861 0.011034117 -0.0011939174 0.03661017
000130 8b 99 48 bc b7 d5 83 bc 44 f4 67 3c 1b 75 0f bc
       -0.012243639 -0.016093118 0.014157359 -0.008755947
000140 3c a0 71 bc 32 29 4a bc 15 7b f3 3b f3 ce 26 3c
       -0.0147476755 -0.012338923 0.007430444 0.0101811765
000150 9f d7 a9 bb fd b6 a7 ba 61 3e 6c 3c 91 97 93 3c
       -0.0051831747 -0.0012795624 0.014419169 0.018016608
000160 fb 14 e4 bc 31 71 b4 3c 65 3a d1 bc 5d 07 c5 bc
       -0.027842036 0.02202663 -0.02554054 -0.024051363
000170 a8 62 c3 3b 00 77 b5 3b 0f ab d5 bc 5b 8c 09 bd
       0.0059626885 0.0055378675 -0.026082544 -0.03358112
000180 ba c4 a8 bc c5 c8 c5 bc 0b df d4 ba 11 ac 98 bc
       -0.020601619 -0.024143586 -0.0016240788 -0.018636735
000190 01 7c 4d bd 22 97 1b 3d cb f0 09 3d 65 c2 38 3c
       -0.050167087 0.03798593 0.033676904 0.011276816
0001a0 cc 4e cd 3c e9 b0 a7 bc 27 f8 be bc ed 06 9a 3c
       0.025061987 -0.0204701 -0.023311688 0.01880213
0001b0 fe be 0a 3d 99 ae 9a 3b a4 d8 b4 3c a8 45 45 3c
       0.03387355 0.0047205207 0.022075959 0.012040533
0001c0 25 97 33 3c 42 85 3f bc df 72 02 bc dd ca cb 3b
       0.010961329 -0.011689486 -0.007961958 0.0062192515
0001d0 b5 ad 7b bc 5b ef cc bc 09 5c 03 3b 0e ba 7f 3c
       -0.015361239 -0.025016477 0.002004387 0.015608324
0001e0 ff b8 3a 3b 9b 64 30 3d 79 3b a5 3c e1 d0 c4 bc
       0.0028491614 0.043064695 0.02016996 -0.024025382
0001f0 9d 54 bc 3c a1 ab 1e 3d 54 2c f6 3c a3 0d 1a bd
       0.022989566 0.038737897 0.030050434 -0.03761066
000200 6b 6f 85 3c 28 36 9f bb ac 9a aa bb 7f 9a d2 3b
       0.01628848 -0.004858751 -0.0052064266 0.006427109
000210 2b 8e af 3b 88 5d 13 3d fe 6c e2 bc af 9d bf bc
       0.005357524 0.03597787 -0.027639862 -0.02339062
000220 34 57 b8 bc 30 82 5c 3c cb 27 41 3c 91 e7 41 3c
       -0.02250252 0.0134587735 0.011789273 0.011834995
000230 a0 eb d8 bb fe dc c4 3c 4a bf be bc bf 2a 2d 3d
       -0.0066198856 0.024031159 -0.023284573 0.042277094
000240 79 33 dc bb 1c 32 98 3c 7e 0b 98 bc 4f 88 2e 3c
       -0.006720003 0.018578582 -0.018560167 0.010652616
000250 4b c0 1e bc 1a 5f 03 bd 01 f1 a8 3b 67 a0 20 bc
       -0.009689401 -0.032073118 0.005155683 -0.009803868
000260 c7 d8 0b bd e6 fb bf bc fc 10 93 bc f2 3a ab bc
       -0.03414228 -0.023435544 -0.017952435 -0.02090213
000270 59 a4 ec 3c 27 b4 53 bc 54 51 07 bc 88 f8 00 bc
       0.02888696 -0.01292137 -0.008259136 -0.0078717545
000280 4e 2f 59 bc 8d 25 94 bc c3 4c 22 bd 47 e5 02 bc
       -0.013255907 -0.018084312 -0.039623987 -0.007989234
000290 d0 0c 45 bb f6 98 56 3d e9 03 cd bc 25 0a 08 bd
       -0.0030067451 0.05239197 -0.025026279 -0.0332128
0002a0 e6 99 7b bb 52 a4 0b bc 67 b8 af bb 08 b0 18 bb
       -0.003839129 -0.008523064 -0.0053625586 -0.0023298282
0002b0 94 63 b9 3c e0 d5 80 bc c6 c3 14 3c 25 85 3a bc
       0.02263049 -0.015726984 0.009079879 -0.011384283
0002c0 33 af 4e bc a3 8a a6 3b 61 f8 d3 3b c1 fb 80 bc
       -0.012615013 0.0050824448 0.006468818 -0.015745046
0002d0 f5 94 c2 3b 6b c5 98 3c a9 57 b2 bc d1 c3 d3 bc
       0.005938167 0.018648824 -0.021770315 -0.025850208
0002e0 86 e3 30 3c 0b 30 45 bb e1 5f e4 bc 24 57 89 bc
       0.010796433 -0.003008845 -0.02787775 -0.016765185
0002f0 33 7c da bc 38 61 e5 ba 35 02 71 3b ae 1d e6 3c
       -0.02667055 -0.0017500287 0.0036774997 0.028090324
000300 38 1c 8a bc 49 39 59 3c 94 59 50 3c e8 74 95 bc
       -0.016859159 0.013258287 0.01271667 -0.018244222
000310 94 36 1d bd 10 04 dd bb c2 8a c2 3c 2c f5 cc 3c
       -0.038382128 -0.006744869 0.023747806 0.02501925
000320 8e a0 96 bc 3a 12 4f 3b 70 c6 9f 3b 13 f0 45 3c
       -0.018387105 0.0031596557 0.0048759505 0.012081164
000330 82 3d da bc b6 78 23 bc 0c c9 03 3c 7b 96 04 bb
       -0.026640657 -0.00997751 0.008043539 -0.0020231295
000340 66 7d a4 3c 81 f0 9d bb 43 ae 2c bc ac ec f4 3c
       0.020079326 -0.00481993 -0.010539594 0.02989801
000350 f4 db 4c bc cd b2 19 3a 17 bc e2 bc 33 bb 90 bc
       -0.012503613 0.000586313 -0.027677579 -0.017667389
000360 a5 21 44 bb 97 69 b2 3a b1 12 ad 3c 3e 92 11 3c
       -0.002992728 0.001361179 0.021127077 0.0088849645
000370 12 4c a1 3c 8d 28 39 bc af 4d c3 39 03 fd 5b 3c
       0.019689593 -0.011301172 0.00037251177 0.013427022
000380 35 3c 83 3c b8 3e 70 3c 8b 97 11 3c eb a2 34 3c
       0.01601992 0.014663391 0.008886228 0.011025171
000390 ba 81 90 3c 17 22 0d bd cd b0 8e 3b 56 54 9a ba
       0.017639983 -0.03445634 0.0043545724 -0.0011774402
0003a0 5f ce 74 bc 88 7d 72 3c c9 a8 bf ba df 0d 85 3c
       -0.014941781 0.014800437 -0.0014622445 0.016241966
0003b0 33 8f df 3c 0e 0c 69 bc ae 49 46 bc 1e 8a 0c 3a
       0.027289962 -0.0142240655 -0.012102528 0.0005361157
0003c0 23 11 e9 3c e1 d2 c9 bc c2 38 1c bb ec c4 36 3d
       0.028450554 -0.024636688 -0.0023837541 0.044621393
0003d0 77 e4 da 3c ba 91 97 3c 41 11 36 bc 62 ab 51 bc
       0.026720269 0.018502105 -0.011112512 -0.0127972085
0003e0 18 24 5d bc ef 80 d4 3c bf a7 3e bb 0c 63 7e bc
       -0.013497375 0.025940387 -0.0029091684 -0.015526544
0003f0 6b c1 20 3b 6d fb 2e bc 44 f9 d5 3b 74 69 a1 3c
       0.0024529349 -0.010680062 0.006529959 0.019703604

action_model._discrete_distribution.branches.0.weight f4 [1, 256]
000000 3e 91 b2 bb 2c de 9e b7 02 3a b7 ba 7d 4f 8c 3b
       -0.005449443 -1.8938525e-05 -0.001397908 0.0042819367
000010 3f 40 a4 3b d7 d9 06 3a 7f 5e 9d 3a ad 14 d5 bb
       0.0050125415 0.0005144155 0.0012006311 -0.006502709
000020 cf 40 74 3b 1d 2f 3e bb 22 79 07 bc 27 57 cd bb
       0.0037270074 -0.002901978 -0.008268626 -0.006266493
000030 77 45 54 ba 4d 7f 68 3b 73 6d 69 bb 2b fe 87 bb
       -0.0008097509 0.0035476268 -0.0035618215 -0.004150172
000040 df f8 fd bb b6 54 19 b7 02 45 86 3a b2 ad ba 3a
       -0.007750615 -9.139234e-06 0.0010243955 0.0014242439
000050 93 40 ab bb f8 cd 7f 3b c5 01 7c bb 83 4c 53 bb
       -0.0052262037 0.003903268 -0.0038453203 -0.003224165
000060 2f d1 75 39 14 b8 96 bb 17 e4 0b bc 37 07 22 bc
       0.00023442948 -0.0045995805 -0.008538268 -0.009889415
000070 81 19 cc bb 85 f1 07 ba ff 7a 44 3c 00 f1 d3 3a
       -0.0062286262 -0.00051858305 0.011992215 0.0016169846
000080 db 42 12 3c 25 cd 19 bb d7 03 87 bb 32 07 da 3b
       0.008927072 -0.0023468223 -0.004120331 0.00665369
000090 63 d0 29 3c 56 ff b3 ba bb 08 46 3b 65 a1 e2 ba
       0.010364625 -0.0013732712 0.0030217606 -0.0017290531
0000a0 9b 35 98 3b 27 8d 64 3a ad 25 ab 3b 2b 26 36 3b
       0.004645062 0.0008718543 0.005222997 0.0027793746
0000b0 87 be 18 ba a3 e6 74 38 ef 9e 8c 3b 3f 46 d6 3b
       -0.00058267306 5.838893e-05 0.0042914073 0.0065391357
0000c0 1e b7 93 b8 25 ea 71 3c 8f c9 ea ba 9a 9c 41 bb
       -7.0436145e-05 0.014765297 -0.0017912852 -0.0029542805
0000d0 92 cf e6 b9 97 ad 6e bb 02 d9 c3 ba 92 de e3 3a
       -0.0004402367 -0.0036419386 -0.0014941993 0.0017385057
0000e0 cd 6c 78 bc 3a 3d d8 ba b2 01 26 ba 6f 17 2b bc
       -0.015162659 -0.0016497739 -0.000633265 -0.010442599
0000f0 a2 10 79 3b 17 58 ab 3b 46 49 ac bb aa e3 7b ba
       0.0038004299 0.005229007 -0.0052577583 -0.0009608815
000100 67 4b 9a bb 96 fd 96 3c d5 0f 20 3c 53 e2 25 bb
       -0.0047086957 0.018431466 0.0097694 -0.0025311902
000110 9b 48 ea ba 0f 11 17 3b f3 c4 eb 3a 03 f4 d7 3b
       -0.0017874421 0.002305094 0.0017987773 0.0065903678
000120 96 73 a8 ba e9 c6 a4 3b 0a 6f b3 b9 e7 47 05 3c
       -0.001285183 0.0050285948 -0.0003422427 0.008134819
000130 7d af 3b 3a ef 4f 8c 3b bc fb 16 bc 97 5d ff 3b
       0.00071596337 0.0042819898 -0.009215292 0.007793139
000140 aa 51 3c 3b c2 a3 fe bb 44 d3 02 3b 51 f5 ba 3b
       0.00287352 -0.0077709863 0.001996235 0.0057055135
000150 ec f3 9f bb 83 6e 9d ba e5 fd fe ba e9 e7 a4 3b
       -0.0048813727 -0.0012011084 -0.0019454329 0.0050325287
000160 eb 5f 5c 3b 77 de 35 bb 4c c7 b1 ba f3 3d 10 bc
       0.0033626508 -0.0027751008 -0.0013563423 -0.008803832
000170 22 1e ce 3b 78 c0 59 3b 5b 3e 4f 3b b8 50 44 bb
       0.006290213 0.0033226293 0.003162286 -0.0029955339
000180 7b 08 46 bb 75 f2 e7 3a 71 ae 14 bc 2e ed 18 bb
       -0.0030217457 0.0017696159 -0.009074793 -0.002333473
000190 1f 98 4e 3a c5 44 51 3a 00 0d 79 ba 8e 8d 13 3c
       0.0007880944 0.0007982965 -0.00095005333 0.009005917
0001a0 eb cf d5 bb 04 e8 99 bb d6 d9 ad b9 4c d1 41 3b
       -0.00652503 -0.004696848 -0.00033159432 0.0029574214
0001b0 2b fc 33 ba f8 ee 56 bb b6 f3 48 bc 89 2f 01 3b
       -0.0006865884 -0.0032796245 -0.012265136 0.001971217
0001c0 0f c2 8b bb 0d b9 99 bb 9d 36 4c 3b 2b 42 97 bb
       -0.004265077 -0.004691249 0.0031160482 -0.004616042
0001d0 dd 57 54 3c 84 ca 0e bb 05 1d 9d ba 6c e7 2a 3b
       0.012960401 -0.002178819 -0.0011986798 0.002607788
0001e0 1f 4c af 3b 33 26 b6 bb 85 89 d6 3a 28 25 6c ba
       0.0053496505 -0.005558753 0.0016367888 -0.0009008222
0001f0 1d 9e 15 bc 88 09 80 3b 21 d7 13 bb 78 3d 61 3c
       -0.009131935 0.003907386 -0.0022558647 0.013747565
000200 69 b8 04 bb b3 42 2b 3c 08 ea f0 bb e6 f8 06 3c
       -0.0020251519 0.010452914 -0.0073521174 0.008238053
000210 1f b2 15 bc 87 13 0e bc 31 43 af 39 7c e4 47 3c
       -0.009136706 -0.008671648 0.00033428663 0.012200471
000220 7d e8 54 bc 8b c4 1f 3b 7e 6b 0e 3c ec a5 9e 3a
       -0.012994883 0.0024378623 0.00869262 0.0012103892
000230 e8 da d2 3b d2 9f 76 bb 73 1c 30 3b 40 50 b5 bb
       0.006434787 -0.0037631881 0.0026872426 -0.005533248
000240 26 67 c6 bb 7f 24 71 bb 81 2e 93 bb 3c 4a a2 bb
       -0.0060547767 -0.0036795435 -0.0044916277 -0.004952697
000250 67 41 5d 3b 6b 38 9d 3a bd 00 7c bb 6b 2c 2c 3b
       0.0033760907 0.0011994963 -0.0038452588 0.0026271592
000260 35 40 08 bc ab d2 3d bc 07 0c 1c ba f0 86 f0 ba
       -0.008316089 -0.011585872 -0.000595272 -0.0018350761
000270 4a 2f 53 3c c4 22 06 bb 17 9a b1 3b 0c 3b 35 3a
       0.012889693 -0.00204675 0.0054199803 0.0006913401
000280 b9 0c a6 3b 55 15 59 3b 05 69 a1 3b 05 b6 91 bb
       0.0050674346 0.0033124287 0.0049258494 -0.0044467472
000290 47 2b e9 bb 20 c7 1e 3c 9e ce c9 39 b6 f5 06 bb
       -0.0071157548 0.00969103 0.0003849165 -0.0020593232
0002a0 d3 59 e8 3b 53 8d 24 bb 6f 4a d9 bb 0f 62 8b 3a
       0.007090786 -0.002510865 -0.0066311876 0.0010634082
0002b0 65 91 d3 bb 40 08 81 3b 00 0b 3a 3c 0f d9 d1 36
       -0.0064565414 0.003937751 0.011355162 6.2539543e-06
0002c0 52 77 ad ba 42 1a 08 3c 12 f7 4f bb 4f 5b 8f 3b
       -0.0013234413 0.008307042 -0.0031732959 0.0043748985
0002d0 58 e6 07 bb 6e fc 93 3b 3a 5c b5 bb 85 60 58 bb
       -0.002073666 0.004516176 -0.005534676 -0.0033016514
0002e0 04 7e a9 3b 30 ce 01 bc 2e 5f c2 bb 38 bb e3 bb
       0.005172493 -0.007922694 -0.0059317565 -0.0069498084
0002f0 c4 e5 3d bb a6 c1 4b bb 90 be 32 bc 74 67 4c bc
       -0.0028976062 -0.0031090765 -0.010909691 -0.012475837
000300 d1 a3 a3 bb 0d 48 2f bb 17 12 c7 bb c5 c7 a0 b8
       -0.0049938937 -0.0026745826 -0.0060751545 -7.6666045e-05
000310 15 d8 84 bb a5 13 4d bb 67 3e 36 ba 50 73 f0 3b
       -0.0040540793 -0.0031292227 -0.00069520477 0.007337965
000320 fa 9b f8 3b 72 52 90 bb be 4e 0a bb 53 36 39 ba
       0.007586953 -0.0044043595 -0.0021104063 -0.0007065285
000330 73 4a 50 bb f1 6d 8f ba 16 9d 9c bb 23 6b c5 bb
       -0.0031782656 -0.0010942799 -0.0047794683 -0.0060247346
000340 7e 23 2a bb 5e 0d 05 bb 78 b2 99 bb d5 b4 61 3c
       -0.0025961096 -0.0020302157 -0.0046904646 0.013776024
000350 82 8e 6a bb f3 16 09 3c 37 8b 95 bb 5a 34 7b bb
       -0.0035790508 0.008367288 -0.004563715 -0.0038330765
000360 be ef 42 bc 9d 81 e1 39 75 16 f9 3b 8c 8c 2d 3b
       -0.011897979 0.00043011914 0.007601554 0.0026481478
000370 dd 22 2e bc 12 8d 11 bb 9a 57 94 3b 28 97 a2 bb
       -0.010628429 -0.0022209329 0.0045270445 -0.004961867
000380 47 c7 bf 3a 01 a4 9a 3a 9f 00 ee 3b d8 6e 4e 3b
       0.0014631533 0.0011798145 0.0072632576 0.0031499173
000390 da c4 aa ba 20 3b 29 bc d9 01 87 bc 0a 8e 78 ba
       -0.0013028637 -0.010329038 -0.016480373 -0.00094816147
0003a0 b5 4e ea 3b b3 34 07 bc 83 5e 96 bb 37 b2 73 3b
       0.007150496 -0.008252311 -0.0045889034 0.0037185082
0003b0 f4 c0 a1 bb 5c 8e 0f 3c 65 0d 8b ba a4 42 47 3b
       -0.004936332 0.008761968 -0.001060885 0.003040471
0003c0 1b dc 79 3b 0e 76 27 3b 43 f0 1c bb 57 0d c7 ba
       0.0038125578 0.0025552544 -0.0023946918 -0.0015186471
0003d0 37 cf 94 bb 52 e2 cf bb 83 c4 9e bb 40 7c 20 3c
       -0.0045413035 -0.006344118 -0.0048452034 0.0097952485
0003e0 20 3d 65 3b 2c 4c 9c 3b 3c 6e 88 bb 9a ef 36 3b
       0.003497906 0.0047698226 -0.0041635316 0.002791381
0003f0 35 57 9f ba 1a 66 87 bc 25 e6 cd bb 87 7b b9 ba
       -0.0012156727 -0.016528178 -0.006283539 -0.0014151194

network_body._body_endoder.seq_layers.0.bias f4 [256]
000000 31 4a 2c 3c 72 59 e8 3b 60 ae 14 3b 90 3c aa 3b
       0.0105157355 0.007090741 0.0022686943 0.005195208
000010 d7 91 e5 3b 95 b7 4e 3c a9 b9 92 3c f6 36 fe 3a
       0.007005911 0.012617012 0.017910795 0.0019395042
000020 cb 9a 38 bb 2c dd 3f 3c 07 9c 95 3c fb 80 ea 3b
       -0.0028168436 0.011710446 0.018262876 0.007156489
000030 7d 13 cc 3a 35 91 f8 bb 46 4e 13 3c df 2f 90 3c
       0.0015569773 -0.0075856694 0.00899083 0.017600952
000040 25 56 b7 3a 5d fc b1 ba 16 46 67 3b c6 1d a2 3c
       0.0013987465 -0.0013579238 0.0035289577 0.019789588
000050 41 6b 8c bb 23 45 09 3c 21 6b 96 bb 17 1e 8d 3b
       -0.0042852466 0.0083783 -0.0045904075 0.0043065655
000060 87 6a b8 3b 34 73 88 3b 17 79 7a 3b 97 74 95 bb
       0.0056279334 0.004164124 0.0038219148 -0.0045610177
000070 67 87 c2 39 75 5a e9 bb ea d6 71 3a 4f 85 11 3c
       0.00037103446 -0.007121379 0.0009225445 0.008881881
000080 58 ee 48 3b 50 50 93 bb 32 42 28 bc 54 ef 4a 3c
       0.0030659642 -0.004495658 -0.010269688 0.012386162
000090 5c 86 4c 3c b9 f4 b6 b8 55 46 ed 3b eb 8a 04 3c
       0.012483206 -8.7240194e-05 0.0072410502 0.008089761
0000a0 e7 59 aa 3b af 72 5f bc b1 d7 9b 3b 4f 56 f5 3b
       0.0051987055 -0.013638183 0.004755937 0.0074870954
0000b0 ac 67 9b 3b 7f e1 a0 3b cd f8 c7 3b 8a 4a 07 3c
       0.0047425833 0.0049096937 0.0061026574 0.008257518
0000c0 b8 95 51 bb 0d bd fb 3b de dc 4e 3b fb 93 6b bc
       -0.0031980108 0.0076824487 0.0031564753 -0.014378543
0000d0 f4 49 f4 3a b6 c2 a5 ba d1 69 c2 bb aa b2 b8 3b
       0.0018637762 -0.0012646529 -0.0059330245 0.005636533
0000e0 6e 3c 9f 39 b3 54 27 3c e9 02 b0 3b ce e3 c7 3b
       0.00030371867 0.010213065 0.0053714407 0.0061001545
0000f0 e2 b6 87 3b 88 86 72 3c 37 2d 51 3a 7e 2e 2b 3c
       0.0041416744 0.014802583 0.0007979455 0.010448096
000100 20 9c a2 3b de 8d f0 3b 96 3c 69 3b 4f 7f 77 3c
       0.004962459 0.0073411306 0.003558909 0.015106036
000110 0b 1c 51 3b 11 ca 03 bb e4 30 5d 3c e8 e2 72 3c
       0.0031907584 -0.0020109455 0.013500426 0.0148246065
000120 05 25 76 3c 8b 6e 14 37 e5 11 7a 3c 62 54 a1 bb
       0.015023475 8.847225e-06 0.015263055 -0.0049233893
000130 e1 06 b7 3a 81 aa 9f 3b 72 4d b7 3b f4 5a 48 3c
       0.0013963842 0.0048726206 0.005593949 0.012228716
000140 b4 a2 24 bc 9e b2 a2 3c f3 89 69 3c 01 68 83 ba
       -0.010048557 0.019860562 0.014254081 -0.0010025502
000150 af e3 08 bc 4a b5 5a 3b 41 60 ce 3b ef 15 25 3c
       -0.008355065 0.0033372217 0.0062980955 0.01007603
000160 70 a5 b6 3b 4d ac 44 3c 49 58 48 3c 6e 44 8b 3c
       0.005573921 0.01200397 0.01222808 0.017000403
000170 de 95 0d 3c e8 8e e8 3b 45 d7 83 ba 8a 71 cc 3b
       0.008641688 0.007097114 -0.0010058662 0.006239121
000180 f0 42 ed 3b a8 27 39 3c 6e 57 c2 3b f5 ba 07 bc
       0.0072406456 0.011300959 0.0059308326 -0.00828432
000190 05 59 29 3c 94 26 90 3b cb 14 80 3b be 93 08 bc
       0.010336165 0.00439913 0.0039087287 -0.008336006
0001a0 42 91 46 ba d2 56 df 39 c1 12 47 3c ad 38 d7 b9
       -0.00075747457 0.0004259856 0.012150467 -0.00041050222
0001b0 b0 7a da 3b 52 8e eb 3b 79 67 08 3c bf a8 e4 39
       0.0066674575 0.0071885968 0.008325451 0.00043613274
0001c0 f5 da 8d 3c b9 ee 0d 3c 03 ce ec bb ea 68 06 3c
       0.01731632 0.008662873 -0.007226707 0.008203724
0001d0 df 24 9b 3b 88 be c7 3a 61 ee 39 bb c7 1f 5e 3c
       0.00473462 0.0015239278 -0.0028370845 0.013557381
0001e0 aa 9b c1 3a d0 1e ba 3b bd 48 fa bb d0 c3 b1 3b
       0.0014771123 0.0056799427 -0.0076380656 0.005424954
0001f0 6d c2 a4 3b ed 15 09 3c 3f c7 10 3c 7e 18 bc 3b
       0.00502806 0.008367044 0.0088365665 0.0057402244
000200 bf 13 bc 3b b6 2e d3 bb bd 2d 04 3c a6 b1 b8 3b
       0.0057396586 -0.0064447774 0.0080675455 0.0056364117
000210 44 16 63 bc c3 79 35 3c 57 86 2f 3b 85 e4 b6 ba
       -0.013860289 0.011076394 0.0026782954 -0.0013953602
000220 ca 09 c9 3b 31 5c 10 3c 3f b9 5b 3c 66 2a ba 3b
       0.0061352 0.008811043 0.013410865 0.005681324
000230 07 27 88 3c c2 4b 99 3b 88 f0 c1 3a 2f 8c c8 3a
       0.016620172 0.0046782205 0.0014796415 0.0015300567
000240 a9 c4 d5 3b 40 a4 6e bb b9 bb 01 3b 02 a0 7c 3c
       0.006523688 -0.0036413819 0.001979573 0.015419008
000250 23 06 14 3c cc 2d 2c 3c c1 55 10 3c df 50 c9 3b
       0.009034666 0.010508966 0.008809508 0.006143674
000260 f8 15 1e bb e0 28 f5 3a 1d 39 6d ba 86 7d 34 3c
       -0.002412198 0.0018704198 -0.0009049343 0.011016255
000270 ae b4 a0 bb 67 19 b5 ba 7a d4 a4 3b e7 67 10 bc
       -0.004904351 -0.0013816775 0.005030212 -0.008813835
000280 e2 29 71 3c f6 a0 86 b9 a9 25 08 3c 46 7c 22 bb
       0.014719458 -0.00025678397 0.00830976 -0.002479331
000290 72 36 0b 3c 9d 2a 4d bb cd 24 a6 3a bf d9 18 3b
       0.0084968675 -0.0031305917 0.0012675762 0.0023323146
0002a0 2a 42 8c 3b 8c 45 77 bc b6 e5 94 3b 56 5a 47 3c
       0.0042803483 -0.015092265 0.0045439852 0.012167534
0002b0 e8 8a ae 3c 6a 5e 32 3c e5 43 3f 3b 03 36 01 3c
       0.02130647 0.010886768 0.0029184755 0.007886413
0002c0 f0 c8 d5 3b cf b4 4e 3c 7e a4 25 b8 6c 83 0b bb
       0.0065241978 0.01261635 -3.949226e-05 -0.002128805
0002d0 d9 bd 9b bb 76 26 5d 3c 6c e0 a6 bb f0 8a cd 3b
       -0.004752856 0.013497939 -0.005092671 0.006272666
0002e0 11 93 f2 3b a8 5c 8e bb 37 b6 07 3c fa 98 db 3b
       0.0074027856 -0.0043445416 0.0082831895 0.006701586
0002f0 8d c6 ec 3b f2 e7 3a bb 57 e4 23 3b dc ac 99 3b
       0.0072258175 -0.0028519598 0.0025007927 0.004689796
000300 2d 6b d9 3a 23 0c 0f 3b 00 df cd 3b 96 c7 04 3c
       0.0016587727 0.0021827302 0.006282687 0.008104226
000310 bb 27 4a 3b cd e8 c0 3a ac 1c 28 3c 90 d1 f3 3b
       0.0030846435 0.0014717818 0.010260742 0.0074407533
000320 6c 2c fa 3b 4a fd 84 3c 8e e1 ae 3b 38 33 25 3c
       0.00763469 0.016234059 0.005336947 0.010083012
000330 7b 7b 4e ba 10 a7 01 3c 89 13 cc b9 b4 37 ad 3c
       -0.00078766764 0.007913366 -0.00038924467 0.021144725
000340 77 59 3e 3c 7d cc 1b 3c 63 2d b8 3c 23 a1 40 3b
       0.01161801 0.009509203 0.02248258 0.002939292
000350 e4 10 1d 3c e7 bd 16 3c bf a9 3a 3b 95 db 58 bb
       0.009586547 0.00920055 0.0028482524 -0.0033089865
000360 a8 3c aa 39 79 51 fc bb a7 83 d7 3b 57 a5 2f 3b
       0.0003247012 -0.007700142 0.0065769735 0.002680143
000370 55 b0 d5 bb 28 53 43 3c e0 4b bd bb 0c 19 93 3c
       -0.0065212646 0.011921681 -0.0057768673 0.01795628
000380 6d 64 32 3b 77 78 a0 ba 6a a2 5c 3c 90 fb da 3b
       0.0027220503 -0.0012242933 0.013466457 0.0066828206
000390 95 f3 b5 3a 6e 00 c1 3b a1 62 56 3c 8a 0f 97 3b
       0.0013881797 0.005889944 0.013085038 0.0046100067
0003a0 61 16 4d 3c c9 18 c6 bb 81 19 d0 3b 9c 23 5b bb
       0.012517543 -0.006045435 0.0063506966 -0.0033437973
0003b0 60 b3 ae bb 00 a1 04 3c 55 7d a4 3c ff 78 79 3b
       -0.0053314418 0.008095026 0.020079294 0.0038066504
0003c0 37 ed c8 3b 97 fd af 3a 11 d8 53 3a 2a 1a 59 3c
       0.006131794 0.0013427016 0.00080812076 0.013250867
0003d0 0b 8c 1d bb c6 fc fb ba 8f 12 0c 3c 43 f2 2f 3a
       -0.002403977 -0.0019225113 0.008549347 0.000671182
0003e0 a4 50 17 3c b1 04 dc 3b 68 df 9e ba 63 d7 f1 3a
       0.009235535 0.0067144264 -0.0012121024 0.0018451031
0003f0 e6 74 0b 3c db 15 1f 3c 00 2e 11 3c fb 98 59 ba
       0.0085117575 0.009709801 0.008861065 -0.0008300689

network_body._body_endoder.seq_layers.0.weight f4 [256, 119]
000000 23 d3 15 3e 84 75 ea bd 4c a3 28 3e 0c bf dd bd
       0.14631324 -0.114481956 0.16468543 -0.10827455
000010 f1 df 3a 3d a5 77 e0 bb ca 3b 7d 3c 0b 7c a1 bd
       0.045623723 -0.0068502002 0.015456149 -0.078849874
000020 00 5d 00 be 2f ae 86 ba 9b 3c b2 bc 88 2f 9c bd
       -0.12535477 -0.00102753 -0.021757415 -0.07626253
000030 14 f0 ae bd 9d d9 f1 bd ff 4f 0a be d3 d3 4e be
       -0.08541885 -0.118090846 -0.13507079 -0.20197992
000040 0b a9 a4 3d 14 cb 75 3e 51 a4 1c bc 5e 2e d0 3d
       0.08040055 0.2400325 -0.00956066 0.10165094
000050 e7 50 15 bd 07 d0 16 3b 1c de 12 3d 6a e7 34 be
       -0.036454108 0.0023012178 0.03585635 -0.17666402
000060 38 7a c1 3c 93 2b 47 bd 06 c0 90 3e ec 38 8a bc
       0.023617849 -0.04862554 0.28271502 -0.016872846
000070 45 2b 61 3d 00 87 e3 3d aa a5 4c bd e1 cc e0 bc
       0.054972906 0.111097336 -0.049962677 -0.027441444
000080 fa f4 a6 3d 09 4d 06 bd a9 04 3d 3d 09 86 ef 3d
       0.08152194 -0.03278831 0.046147022 0.11695487
000090 60 b9 21 be 22 26 46 3d e9 1a 0e 3c a2 d9 ee 3c
       -0.15793371 0.04837621 0.008673408 0.02915651
0000a0 6d 11 02 3e 6d 3e 07 be c4 01 a3 bd 97 67 c2 bd
       0.1270196 -0.13207407 -0.07959321 -0.094924144
0000b0 80 b5 f1 3d 69 1c 5d 3a d7 2e 9a bd a7 1c 55 bd
       0.118021965 0.00084347144 -0.07528465 -0.052029278
0000c0 ab 73 50 be 26 69 32 3b 53 62 d5 3d 1b 5b 7b bd
       -0.20356624 0.0027223318 0.104191445 -0.06136618
0000d0 97 8b 21 3e 16 ec 09 bc 70 dc 26 3d 0d b0 16 be
       0.15775906 -0.008418104 0.04073757 -0.14715596
0000e0 11 68 d8 3c 4a bb 54 be 51 d0 01 be a9 26 72 3c
       0.02641681 -0.2077457 -0.12677123 0.014779725
0000f0 ad c4 08 bb 85 cd be 3a 95 66 c6 3d ae 2a bd 3d
       -0.002086918 0.0014557099 0.09687535 0.09236656
000100 e4 9f 4e bd 3d 80 f7 3a 1a f4 ec 3a a0 88 5b 3c
       -0.050445452 0.0018882822 0.0018078119 0.013399273
000110 31 fd 4b 3e 1e 74 cb bd 6a ce 1a b8 43 ba 68 3e
       0.19920804 -0.09934257 -3.69087e-05 0.22727303
000120 ae fa e3 3c 63 46 c1 3d 88 c1 46 be 13 ea b1 3d
       0.027829494 0.09437253 -0.19409764 0.08687224
000130 03 9c f5 3d 8a 4b b0 3c e9 5c 62 bd e8 e2 00 3e
       0.119926475 0.021520395 -0.055264387 0.12586558
000140 e1 f6 da 3b 7f a6 a1 3d 75 49 a3 3d 81 67 94 3c
       0.0066822623 0.07893085 0.07972995 0.01811576
000150 fd 3c 90 3c 0f b2 5e 3e 18 e1 67 3d 57 dd 05 3e
       0.017607206 0.21747611 0.05661115 0.13072716
000160 b9 4d 97 bd de da 28 3d 86 38 08 3e 5a a8 84 bd
       -0.07387871 0.041224353 0.13302812 -0.06477423
000170 b5 84 0d 3d 02 09 1a be 45 b5 7a bd 31 c9 1d be
       0.034550387 -0.15042499 -0.06120803 -0.1540878
000180 93 f0 34 3d 93 85 f8 3d 9b 1e 57 bd 03 64 99 3d
       0.044174742 0.12134852 -0.052519422 0.07489779
000190 0b 62 de bd c7 2f 6c 3d 03 cf 2f bd 30 0a 84 3d
       -0.10858544 0.05766275 -0.04292203 0.064472556
0001a0 20 39 07 3e b7 01 2a 3d d4 d3 47 bd ca b9 73 3b
       0.13205385 0.04150554 -0.048786 0.0037189596
0001b0 02 20 bc bb 79 bf 97 bd d9 1d 91 bb 72 17 36 3d
       -0.0057411203 -0.074095674 -0.004428607 0.044455953
0001c0 96 c5 e1 3d 1a f3 be bd 44 db 23 bb 57 c0 a6 bd
       0.11024015 -0.09323712 -0.0025002519 -0.08142155
0001d0 18 25 e3 3d d2 72 29 3e de 77 d3 3c 6c 57 57 bd
       0.110910594 0.16547707 0.025813993 -0.052573606
0001e0 12 31 fa bc 28 df 2c bd 8c 7e d2 bc aa 6c d5 3d
       -0.030540977 -0.042205006 -0.025695108 0.10421117
0001f0 b5 17 aa bd ac 31 4f 3d 0a 9a e1 bc da bd 05 bd
       -0.08305303 0.05058448 -0.027539272 -0.03265176
000200 d5 b3 3c 3c e2 05 66 3c 13 08 fb bc 79 7b ac 3d
       0.011517485 0.0140394885 -0.030643499 0.08421988
000210 8f 59 bf bc 54 3d ac bd c6 3d 95 3d 14 dd 06 be
       -0.023358135 -0.08410135 0.07287173 -0.13170272
000220 4a 7d 92 3d 56 78 38 bc 5b 77 0c bd 54 5e 81 3d
       0.07152803 -0.011259159 -0.034293514 0.0631682
000230 93 f5 cb 3d 21 d0 67 bd 8a ad 75 bd c2 bf 7c 3d
       0.09958949 -0.05659497 -0.059979953 0.061706312
000240 42 e7 14 bc 1c 03 44 be 2f 86 9a bd 82 a4 e1 bd
       -0.009088339 -0.19141811 -0.07545125 -0.110177055
000250 bb 09 2e bd ea e9 84 3e 76 26 06 be 34 d0 1e be
       -0.04248975 0.25959712 -0.13100609 -0.1550911
000260 21 5a a3 bd e9 cd f3 bd b2 44 dc bd 02 d5 14 bd
       -0.07976175 -0.119045086 -0.1075529 -0.036335953
000270 f0 89 c3 bd be 83 da 3d a0 45 9f bc 61 33 3a 3d
       -0.09547794 0.10669659 -0.01944238 0.045459155
000280 4c 08 96 ba 96 cd 3f bb a6 d9 93 3c 90 d8 0d bd
       -0.0011446564 -0.0029266826 0.018048119 -0.03463036
000290 f6 7f 58 3d a4 31 2d be ed e7 97 3d 55 c8 3e bd
       0.052856408 -0.16913468 0.07417283 -0.04657777
0002a0 57 f5 2d be d4 04 98 3d 83 1e a2 bd 58 05 c5 bb
       -0.16988121 0.07422796 -0.07915976 -0.0060126
0002b0 73 ad f8 bd 7c b7 84 bc d1 5f a6 3d 40 89 c7 3d
       -0.12142458 -0.016200773 0.08123744 0.09742975
0002c0 09 7a 87 3d e8 2e 6e bd 51 92 2b ba ac 7e ed 3c
       0.06615073 -0.058150202 -0.0006544935 0.028991066
0002d0 ef 8d 6f 3d 0a 09 81 bc 98 b7 5a 3d 7d 2d 80 3d
       0.058484968 -0.01575138 0.053397745 0.06258676
0002e0 23 82 05 bc ba d9 c1 3c 92 b4 d8 3b 64 0d c3 bc
       -0.008148703 0.02366339 0.0066133225 -0.023810096
0002f0 f3 1d d8 3d 5c df 1c 3d 99 d6 74 bc d7 e5 cb bc
       0.10552587 0.03829895 -0.014943742 -0.02488987
000300 29 7e 18 bd 5e 7b a7 3d 4c ad 92 bb 43 3c a7 3d
       -0.03722969 0.08177827 -0.004476225 0.08165791
000310 a2 6d 65 3c e1 e8 04 bd 9a 16 57 be 51 46 50 bd
       0.014003189 -0.032448653 -0.21004716 -0.05084831
000320 dc 26 04 be 8e 9d 10 3e 06 08 c8 bc ce c2 2e 3d
       -0.12905449 0.14122602 -0.024417888 0.04266625
000330 9d 97 8f bd aa c6 19 3d 51 d4 77 bd 0e 21 a6 bd
       -0.0701134 0.037542976 -0.060505215 -0.081117734
000340 f5 80 a7 bc 2b 20 bc bd 66 98 12 be b5 04 00 3d
       -0.020447234 -0.09185823 -0.14315948 0.03125449
000350 4c 2e 2b 3c 03 96 09 be 56 ac e6 bc 11 2a a7 3c
       0.01044805 -0.13436131 -0.028158348 0.020405801
000360 a8 ac 2d be b3 77 77 3d 13 a2 93 bc 86 e6 18 3d
       -0.16960394 0.06041689 -0.018021619 0.03732922
000370 f8 18 00 3e 6a 02 d1 3d 48 50 1b be 5b 5c 28 3c
       0.12509525 0.102055386 -0.15167344 0.0102759255
000380 42 23 0a bb 7b 6a 0e 3c e7 ec df 3d 92 89 9d 3c
       -0.0021078144 0.008692379 0.109338574 0.019230638
000390 5a 9e 8d bd 65 74 b4 3c 44 33 0f be 5d 62 0a bd
       -0.06914969 0.022028157 -0.139844 -0.033785213
0003a0 07 f6 36 be 3b f8 b1 3d 8e 18 9a bd d6 35 b2 bc
       -0.1786729 0.08689924 -0.07524215 -0.021754187
0003b0 a4 fd 9b bd 54 d0 07 bd ec a4 f5 3d 21 f4 10 3e
       -0.076167375 -0.03315766 0.11994347 0.14155628
0003c0 e3 95 28 3e b2 ce 63 bc 3a 18 0a 3e 90 db d3 ba
       0.16463427 -0.0139042605 0.13485804 -0.0016163457
0003d0 0f 2b 42 3b 05 3a 39 3d 93 92 9e bd c8 67 5c 3d
       0.0029627716 0.045221347 -0.077428006 0.05380991
0003e0 c0 9f 0e bc 4b 28 39 3d 50 d1 21 be 81 19 b9 3d
       -0.00870508 0.045204442 -0.15802503 0.090380676
0003f0 83 60 04 be 0a c7 ef bc 77 2a 52 bc ca dc 0c 3e
       -0.12927441 -0.029269714 -0.012827507 0.137561

network_body._body_endoder.seq_layers.2.bias f4 [256]
000000 71 ef ff ba 4f 7d 35 3b 0f 7d d7 3b 6b 55 65 3b
       -0.0019526315 0.0027693098 0.0065761874 0.003499354
000010 9d ce 22 3c 7d 35 0b 3b 38 c8 ae 3b 9b 51 c9 bb
       0.009936956 0.0021241598 0.0053339265 -0.0061437613
000020 d8 27 75 bb 8e 2f 71 ba 34 7d fd 3b a0 5e 20 3b
       -0.0037407782 -0.00092005066 0.0077358726 0.0024470463
000030 2d 1a 70 3c 03 5a 9d 3b 01 7e 83 3b e0 1d 11 3b
       0.014654678 0.00480199 0.0040128236 0.002214305
000040 ec 1a 86 bb 78 67 6c 3b 0b b5 79 3b ce f1 b4 3a
       -0.004092565 0.0036072414 0.0038102295 0.0013804974
000050 76 04 dc bb 01 fb 35 3c 9a 91 08 3a 96 03 2a 3b
       -0.006714399 0.011107207 0.00052096846 0.0025942079
000060 1b a2 8c bb cb 0b cf 3c aa f8 16 bb 9e 15 8e 3a
       -0.0042917854 0.025274178 -0.00230364 0.0010840183
000070 bf 0a 3d bb 7e 28 84 bb d0 1f 23 3c d9 e1 71 bb
       -0.0028845516 -0.0040331474 0.009956315 -0.0036908297
000080 44 58 06 bc 48 b6 0b bb 9b e8 48 bb 3c 5e ad 3b
       -0.008199755 -0.0021318365 -0.0030656222 0.0052907746
000090 05 fc ae 3a 4d 13 ab bb e7 a2 b7 3b 9b b2 8a 3b
       0.0013350254 -0.0052208067 0.0056041363 0.004232717
0000a0 cb cc d4 3b cc 86 44 3b c7 bb ff 3b 28 7f 51 3b
       0.00649414 0.0029987572 0.007804367 0.003196666
0000b0 98 42 da ba 4c f6 46 ba 15 03 5e bb 9e 38 21 3c
       -0.0016651927 -0.00075898017 -0.0033876349 0.009840159
0000c0 0f 6d 88 bb 67 7f f6 3b 7f 9f 2e 3c e4 06 82 3c
       -0.0041633914 0.0075225118 0.010658144 0.015872426
0000d0 a4 0f 8a bb 66 b5 5b bb e9 56 70 39 12 61 46 3c
       -0.0042132903 -0.003352487 0.0002292056 0.012108104
0000e0 2c 47 a1 3a 6e e1 99 3b 9d 22 cb 3a 18 63 69 3c
       0.0012304536 0.0046960628 0.0015497986 0.014244817
0000f0 a4 7f 3e 3c ca 8c 12 39 04 36 5d bb c3 ca 06 bb
       0.011627112 0.00013976093 -0.003375412 -0.0020567633
000100 3e 5c 62 3c eb c7 5a 3c b5 94 8a 3b 5d 8e a8 3b
       0.013815938 0.013353328 0.004229153 0.005143924
000110 5b 6b 8b 38 4d 78 c9 3b 05 65 40 3c c3 3a 5c 3c
       6.648033e-05 0.006148374 0.011742835 0.013441744
000120 f0 e3 26 3b 45 37 2d 3a 04 77 ac bb 4e 4d bd 3b
       0.0025465451 0.0006607662 -0.005263211 0.0057770377
000130 59 33 1e 3c af 05 45 3c d9 e4 98 ba 64 c0 c4 3a
       0.009655797 0.012025281 -0.0011664882 0.001501095
000140 2c d7 b4 39 89 37 86 3b dc f5 41 3a 1f 79 df bb
       0.0003449259 0.004095976 0.00073990016 -0.0068198587
000150 82 23 00 3b e4 66 d6 bb 32 c3 c0 3b 40 f1 3d 3c
       0.0019552414 -0.0065430272 0.005882644 0.011593163
000160 81 09 9f 3b 97 20 e8 3b 3d 21 5e 3c 27 09 ec 3b
       0.004853428 0.007083963 0.013557729 0.0072032395
000170 c0 ba 3f 3c 97 55 9c 3b eb fd 5f 3b e9 f0 2b 3c
       0.0117022395 0.0047709453 0.0034178447 0.010494449
000180 d3 e4 bb 3b 85 b9 85 3c 54 e4 f0 3b 62 03 35 3c
       0.005734065 0.016323814 0.0073514376 0.01104817
000190 63 92 6d 3a 5b 78 b1 3b 7e a3 a4 ba 98 84 bd 3b
       0.0009062646 0.005415959 -0.0012560932 0.0057836287
0001a0 7f 91 2a 3c d7 9e 50 3c e9 4c 55 3b c6 cd b7 3b
       0.010410666 0.012733183 0.0032547063 0.005609247
0001b0 1d 59 39 3c bf 0a 70 39 8e ab 42 bb 8f c0 b2 3a
       0.01131275 0.00022892187 -0.0029704305 0.0013637709
0001c0 09 06 19 3b 07 85 f0 3b a1 bf 29 3c e8 a4 2a 3c
       0.0023349544 0.007340077 0.010360629 0.010415293
0001d0 c6 2f e6 3a 91 83 5f 3c 50 29 bf 3b bb 7a cc 3a
       0.0017561845 0.013642208 0.0058337823 0.0015600541
0001e0 e3 dd cd 3b d4 43 80 3b 94 1c 32 bb ee 4b 45 3b
       0.0062825545 0.0039143357 -0.0027177678 0.0030105072
0001f0 5f 70 38 bb 74 5c 2b 3c 2f e0 7b 3a e3 6f 8d 3b
       -0.002814315 0.010459054 0.0009608296 0.0043163165
000200 ab f7 78 bb d3 d1 08 3b f4 4d 8b 3a 13 af 36 bb
       -0.0037989418 0.0020877018 0.001062809 -0.0027875348
000210 e2 ce 1c 3c 2a f0 f3 3b 5c 96 ab 3b fd 16 56 3b
       0.009570809 0.0074444013 0.00523643 0.003266751
000220 5d f9 cd 3b 01 48 c5 3b 01 42 9a ba 47 0e 70 3b
       0.00628583 0.0060205464 -0.0011768938 0.0036629604
000230 75 ca 08 3b ff 34 2c 3c 06 07 01 3c 6c 08 32 3c
       0.0020872627 0.010510682 0.00787521 0.010866266
000240 af 1d 40 3b 60 94 9f 3b ab 27 8c ba e1 4f 9f 3b
       0.0029314568 0.0048699826 -0.0010692974 0.004861817
000250 87 bd a7 bb 83 7c be 3a ff c8 0e bb 0b fa 0c 3c
       -0.005119029 0.0014532957 -0.0021787283 0.008604537
000260 d7 26 07 bb 02 45 6d 3b c6 c4 68 ba 3e 99 46 bb
       -0.0020622516 0.0036204462 -0.0008879419 -0.0030303742
000270 7c 09 19 3b 82 ba 9e 3a ce eb f1 3b a4 b0 55 3b
       0.00233516 0.0012110027 0.0073828464 0.0032606507
000280 d3 94 d9 ba c8 5f 82 3b 26 1d 1d 3c 6c e0 00 3c
       -0.0016600139 0.003978703 0.009589469 0.007866006
000290 b1 9a e6 3b c4 10 38 3c 3a 1f 90 b9 82 1b e1 3b
       0.0070374836 0.011234466 -0.00027489086 0.0068697343
0002a0 d5 85 3d 3b 0c 98 33 3c b3 34 23 3c 1e e9 92 bb
       0.0028918881 0.010961544 0.009961295 -0.004483356
0002b0 65 26 06 3c 28 71 3c 3c fb 74 f8 ba 5f 8d 8a 3c
       0.008187865 0.011501588 -0.0018955761 0.016913114
0002c0 30 a7 ad bb d3 7a 22 bb b7 a4 15 3c 59 db e4 3b
       -0.0052994713 -0.0024792447 0.009133509 0.006984156
0002d0 fa e7 e4 3b 6d 7b c2 3b 33 5b bc ba 03 c2 7a 3c
       0.0069856616 0.0059351237 -0.0014370441 0.015305045
0002e0 47 91 1f 3c ac 28 e8 3b 55 4e 31 3c 3b c3 c3 3b
       0.009739227 0.0070849266 0.0108218985 0.005974201
0002f0 b1 e2 2e 3c 22 f0 a4 3b ae aa aa 3b 2a 33 b7 3b
       0.010674165 0.005033509 0.005208335 0.005590816
000300 3f cf c8 3b df 9b 94 3b a9 86 2e 3c 3b f4 8d 3b
       0.0061282213 0.004535183 0.010652223 0.004332093
000310 36 bf 98 3b a4 a1 62 bc 62 44 63 3c d6 83 d7 3a
       0.004661466 -0.013832483 0.013871284 0.0016442488
000320 c9 9f 25 3b 31 35 44 3c 0a 11 d2 3a d9 ea 42 bb
       0.0025272241 0.011975572 0.0016026807 -0.002974203
000330 17 98 76 3c 27 f5 37 3c ae 3d c8 3b a3 3a 56 3b
       0.0150509095 0.0112278825 0.0061108684 0.0032688759
000340 e1 ed 04 3c 6f 26 89 3c a1 80 1a 3c d3 33 16 3b
       0.008113355 0.01674196 0.009430082 0.0022919073
000350 5d b8 a4 ba 50 be c1 3b 6d 60 38 3b c8 ca dc bb
       -0.0012567152 0.0059125796 0.0028133646 -0.0067380406
000360 3f a6 22 bb 07 c2 6b 3c 2d c7 f0 3b 50 20 1b 3c
       -0.0024818329 0.014389521 0.0073479624 0.009468153
000370 ba 0d 0a 3b bb ac 58 bb c7 e5 cb 3b d4 df 23 3c
       0.002106531 -0.003306194 0.00622246 0.010002095
000380 76 f1 cb ba f4 73 e0 3b bf 1d 4e 3b a6 d7 6d bb
       -0.0015559632 0.00684976 0.0031450836 -0.0036291867
000390 23 ad 2a 3c d5 b4 24 3a 8c 0c 7a 3b 44 2e f0 3b
       0.010417256 0.00062830496 0.0038154451 0.007329734
0003a0 d6 c8 0d bb fc 78 61 3c e4 a7 67 3a 2b 8c 81 3c
       -0.00216346 0.013761755 0.00088369683 0.015813908
0003b0 31 7c e9 3a ff a1 d7 3b 58 19 79 3c d5 99 92 3a
       0.0017813501 0.0065805907 0.015203796 0.0011184762
0003c0 8f c3 da 3b 1b cb ab bb 04 ce 2b 3b 40 7d ae 3b
       0.0066761444 -0.005242718 0.0026215324 0.0053249896
0003d0 d8 a1 be ba 1f 55 df 3b 06 46 63 3a 2a 35 fb ba
       -0.0014544083 0.006815567 0.0008669797 -0.0019165624
0003e0 1c 11 7b 3b db 24 4a 3b d3 38 81 3c 7c 8b 2e 3c
       0.0038309759 0.0030844721 0.015774166 0.010653373
0003f0 90 c1 a2 3a b0 29 ee ba c1 98 1a bb 49 15 8a 3b
       0.0012417305 -0.0018170383 -0.0023589584 0.004213963

network_body._body_endoder.seq_layers.2.weight f4 [256, 256]
000000 ed df 0b 3d 3f 23 d7 bc 1b fa 18 3d 7a 7b 87 bb
       0.0341491 -0.026261924 0.037347894 -0.0041345926
000010 17 b1 70 3c e0 5c ab 3d 7c 55 54 3d cc f6 a7 bc
       0.014690659 0.08367324 0.051839337 -0.020503424
000020 78 8d ab 3d e1 eb c2 3d 69 1c a6 bd 5b 3b be bc
       0.083765924 0.095176466 -0.081108876 -0.023221662
000030 c1 70 4d 3c cc 40 ad bd 66 85 19 3b 23 a3 2c 3d
       0.01253909 -0.08459625 0.002342546 0.042147767
000040 15 bf a8 bd 1f a0 cb 3d 6e 03 cf bd d2 33 51 bc
       -0.08239571 0.0994265 -0.10108076 -0.012768703
000050 fa 99 c1 3d c5 c6 ff bc 7d 64 1f 3c e0 f6 79 3c
       0.09453197 -0.03122271 0.009728548 0.0152566135
000060 7f 5e bd bc 5c 16 a9 bd f8 cb 09 3e 05 55 88 3d
       -0.023116348 -0.08256218 0.13456714 0.06656841
000070 77 05 18 bc 51 a3 08 3d b7 ed 26 bd f1 f4 d6 bc
       -0.009278647 0.033358876 -0.040754046 -0.026239844
000080 e7 6a d6 bd 70 2e b9 bc 48 e0 2f bd 62 30 e8 3d
       -0.10469609 -0.022605151 -0.0429385 0.11337353
000090 b9 2c 2a bd 27 cb 17 bb f1 4f 57 3c c5 8b 01 3d
       -0.041546557 -0.002316186 0.013141618 0.031627435
0000a0 2d 3d 7d 3d 8f ff 62 bd fd 33 9d bd b0 05 d6 bd
       0.06182592 -0.0554195 -0.076759316 -0.104503036
0000b0 14 5b 8e 3d 59 a8 3a 3d 9e b6 9c 3d c5 8d 1d 3c
       0.069509655 0.045570705 0.07652019 0.00961632
0000c0 3c e4 35 3d b7 91 78 3c 3c 6b 77 bd ec 59 d3 3d
       0.044407114 0.01517146 -0.060405 0.103198856
0000d0 9d 2e 0e 3c df 8f 0e bd 79 85 02 be 69 5f d7 bd
       0.008678106 -0.034805175 -0.12746228 -0.10516245
0000e0 89 79 12 3c a3 98 a7 bd 2a d1 4d be 6c 96 32 3e
       0.008940109 -0.0818341 -0.20099321 0.17440194
0000f0 00 21 29 bc dd 13 68 3c 03 75 87 bd 97 be a0 bd
       -0.010322809 0.014164892 -0.06614115 -0.07848852
000100 50 08 06 3c 58 87 b2 bd 26 86 8d 3d 70 d9 ed 3d
       0.008180693 -0.08717221 0.069103524 0.116137385
000110 7f e0 0d bc 8b 35 c6 3c 3a 2c 10 be 84 a5 00 be
       -0.008659481 0.024195453 -0.14079371 -0.12563139
000120 57 16 d1 bd cf 5d 1c bb 5d c3 46 bd 30 dc a8 3d
       -0.10209339 -0.0023859625 -0.048526157 0.082451224
000130 f3 2c f4 3c 1f 22 96 bd 08 bc 05 3c 1e b7 32 3d
       0.02980659 -0.07330727 0.008162506 0.043631665
000140 21 8b 30 3e c1 b3 13 be a4 a8 3d 3e 7f 83 59 3c
       0.17240573 -0.1442404 0.18521363 0.01327598
000150 78 1e c7 bd e5 71 f7 bc 25 80 59 bb 5e 2e 3b bd
       -0.09722608 -0.030205676 -0.0033187952 -0.045698516
000160 7e 86 56 3d 71 86 3a b9 63 0d 8b bd 83 12 73 bd
       0.052374355 -0.00017788426 -0.06789663 -0.059343826
000170 b9 fb e8 3b 7b f1 a8 bd 3d 18 0e bd 4c c2 ec bc
       0.007110086 -0.08249184 -0.034691084 -0.028901242
000180 b4 fc f8 ba 72 df 4a 3d 72 97 cb bd c1 95 5e bd
       -0.001899621 0.0495295 -0.09940995 -0.054342035
000190 e9 21 7e 3c 51 5a 2f be 78 2f d7 3d 12 5f a1 3c
       0.0155110145 -0.17124297 0.10507101 0.019698653
0001a0 63 d4 90 3d 56 79 31 bc 50 23 83 3b 19 d2 4d 3d
       0.070717596 -0.010832151 0.0040020123 0.050249193
0001b0 71 b6 1d 3d 6b 1e a3 3c 97 72 8b 3d 07 43 89 3d
       0.038504068 0.019911965 0.06808966 0.067022376
0001c0 25 70 2a 3c 2b 6e 15 be e7 f7 46 bd 21 81 27 bc
       0.010402714 -0.14592807 -0.04857626 -0.010223658
0001d0 c7 30 52 bd be b8 a1 bc 1d 2b 50 3c 1c fa 14 bd
       -0.05131605 -0.019741412 0.0127055915 -0.036371335
0001e0 df da 54 bd a5 86 c0 3b 65 0d 73 3d d1 56 79 3c
       -0.051966544 0.005875426 0.059338946 0.015218453
0001f0 ef 9f 9a 3d 77 3a 5e bd ed 8a e2 bc c9 67 84 3c
       0.07550036 -0.054254975 -0.027654136 0.01616277
000200 88 88 89 3c 18 bd ed 3d a2 aa 35 bd 84 c1 7d 3d
       0.016788736 0.116083324 -0.04435218 0.06195213
000210 bc 00 6a 3b 3a 35 f1 bc a3 b0 0e bd aa 98 f0 bb
       0.0035706004 -0.029444326 -0.034836423 -0.0073424177
000220 d5 f2 8b bb 68 e6 d0 bc 01 96 6c bc fc 7b a3 3d
       -0.004270891 -0.025500491 -0.014440061 0.079826325
000230 8b 18 b8 bd c7 91 0e 3b 38 c5 98 3c d1 c3 86 3d
       -0.08989056 0.002175437 0.018648729 0.06580318
000240 c1 5c a5 3d fe ad 96 3d a6 cc 0c bb 53 37 7f bd
       0.08074332 0.07357405 -0.0021484285 -0.06230862
000250 fd 08 2e bd 04 e0 a8 bc 98 b7 64 3c 17 97 c5 3d
       -0.04248904 -0.020614631 0.013959788 0.09647959
000260 23 f4 67 bd be 98 4b 3d 73 28 0c 3d 81 74 ce b9
       -0.05662931 0.049706213 0.034218263 -0.00039378184
000270 da 39 89 bd f5 57 11 3d 43 2c f0 3c 14 2d 67 3d
       -0.067004874 0.035484273 0.02931798 0.056439474
000280 2b ce 09 bc a8 93 7b 3d ee bd b1 bc 31 35 c8 bd
       -0.008410971 0.061420113 -0.02169701 -0.097757705
000290 37 7e 3e 3e b6 6a 8c bd 9d 58 31 bd a2 39 8a 3d
       0.18602835 -0.06856291 -0.0432974 0.06749274
0002a0 55 92 90 3d f6 c0 6a 3c 6a 71 8f bd c5 37 66 bc
       0.070591606 0.014328232 -0.07004054 -0.014051382
0002b0 c2 29 76 3d 32 f8 d1 3b d5 31 e4 bd 28 2a 01 bd
       0.060098417 0.006407761 -0.11142317 -0.031534344
0002c0 27 49 1a 3d 27 09 a1 3d 18 df 18 bc 98 51 40 3d
       0.03766742 0.07863074 -0.009330533 0.046952814
0002d0 15 f0 da bd 4f 1f 9b 3a d9 65 05 bd 81 2b 58 3d
       -0.10690323 0.0011834892 -0.032567833 0.052775864
0002e0 0a 0c 89 bb 67 b4 db 3c a4 40 73 3c 98 8e b1 3a
       -0.0041823434 0.026819421 0.0148469545 0.0013546525
0002f0 c5 14 8a 3c 5e fc 63 3d f7 39 87 3d 3b 1d 71 3d
       0.016855607 0.055660598 0.06602853 0.058865767
000300 ba 19 1d bd 32 5d 53 bd 5f e2 fa 3c 91 c3 13 3e
       -0.038354613 -0.05160255 0.03062552 0.14430071
000310 b9 b2 08 3d c8 07 f2 3a 87 58 84 bd 1b 20 0c 3d
       0.03337357 0.0018465454 -0.06462198 0.034210306
000320 e5 cf 44 bc bb 40 ec bc b4 ea 9d bc 17 38 5d bd
       -0.012012457 -0.02883946 -0.019276954 -0.05400857
000330 cd 9a 20 bc 90 e0 d4 3c dc da 88 bd d3 28 2c bd
       -0.009802532 0.025985986 -0.06682369 -0.04203112
000340 cd 83 80 3b ef 10 ef bc 57 bd d4 bb 4b f3 85 3d
       0.003921962 -0.02918288 -0.0064922976 0.06540545
000350 0e 79 6b bc 9a ad 1e 3c 19 81 ac 3c ba 3f d7 bd
       -0.014372123 0.0096849445 0.021057652 -0.10510202
000360 07 50 8b bd b2 d2 57 bc 2b e4 a7 3d 48 7d c9 3d
       -0.068023734 -0.013172792 0.081978165 0.098383486
000370 da 65 35 3d 36 1f ea bd c6 5e e4 3c a0 b8 f5 bd
       0.044286586 -0.11431734 0.027877223 -0.11998105
000380 99 98 9e 3d 4d d0 bf 3d 9f ea af bd 4a d8 44 bc
       0.077439494 0.09365902 -0.08589672 -0.012014458
000390 fd da 92 3b cd 43 f8 bc 44 4b 8c 3d 56 35 11 bd
       0.004481672 -0.030305767 0.06850293 -0.035451256
0003a0 57 6b e4 bd 8b e2 af bd 82 0d be 3c 4e 8e e5 3b
       -0.11153286 -0.085881315 0.0231998 0.0070054894
0003b0 26 4e e1 3c 0f 33 86 bd d2 b2 54 3d 9d 3b a0 bd
       0.027503084 -0.065527074 0.05192835 -0.0782387
0003c0 79 0f fc bd b5 74 83 bd 79 be 9e 3c 03 c7 81 bc
       -0.12307639 -0.064187445 0.019377934 -0.015841966
0003d0 8e ed bd bd 86 e3 97 3c aa df 8f bd ef eb 8c bd
       -0.092738256 0.018541109 -0.070250824 -0.06880938
0003e0 14 2e 15 3e 77 59 b5 bc 75 61 a1 bd 1d 6c ca bd
       0.14568359 -0.022137387 -0.078799166 -0.09883902
0003f0 a0 41 4f 3c 76 df 7c bc 52 a5 3a 3d 2f 02 dd 3c
       0.012649924 -0.015434137 0.045567818 0.02697858
