results/H5/AgentController/AgentController-999973.onnx (onnx, 657373 bytes, 14 tensors)

83 f4 [116]
00000000: 9afa 8d3e 54e3 0c3e fccb 7b3e eb7b 863e
00000010: 0d93 8e3e 8497 103e d84b 7b3e bd9d 863e
00000020: 453c 8c3e 39d6 0d3e b62d 773e 55e7 863e
00000030: e6d3 8c3e 80bd 163e b3bb 733e 9a6d 873e
00000040: d514 8a3e 281e 103e 49cc 703e c3fd 873e
00000050: 790f 883e 663c 1c3e 49a1 643e 51d2 883e
00000060: 5cc6 873e b218 103e 5642 6b3e 6ca6 893e
00000070: a1c6 813e a212 1e3e 9356 533e 4448 8a3e
00000080: 0ee4 853e d144 0f3e 942a 673e 6aaf 8b3e
00000090: 0ea7 793e d87f 1c3e ee8d 473e 815a 8b3e
000000a0: 503d 833e ac9a 0b3e 47d9 623e cf85 8d3e
000000b0: 08c4 723e 3095 183e 206e 413e 1ca1 8b3e
000000c0: 16a1 7e3e e5ab 073e e69f 5b3e c240 8e3e
000000d0: 17e4 6e3e afbb 163e d1b2 3d3e 1b30 8b3e
000000e0: 143e 773e b59a 063e e34c 533e 29b3 8d3e
000000f0: b62d 6e3e 8527 183e c5ac 3b3e b80f 8a3e
00000100: 6b03 733e 607f 053e 52d1 4e3e 2159 8c3e
00000110: d0d0 6c3e fd6d 1a3e ea02 383e 1eef 873e
00000120: 2329 713e 0709 053e 40d8 4c3e 7584 8a3e
00000130: 6e34 6f3e 7834 203e 606b 363e 0e8f 853e
00000140: 0d6a 723e d467 073e e7e7 4c3e c81c 883e
00000150: 1445 753e 27b9 273e f049 383e cc63 833e
00000160: 73dd 733e 2c59 0c3e 0e87 4b3e 6931 853e
00000170: b914 7e3e 0843 2f3e 22ff 3d3e c1b4 813e
00000180: 30fa 783e 61d2 163e 68d5 4a3e 5076 823e
00000190: 6f08 823e 89ba 323e 0969 433e 9b60 803e
000001a0: d854 803e 84a2 253e cec8 493e 427b 803e
000001b0: fafe 823e 0e5b 303e 903b 483e 69cd 7f3e
000001c0: fafe 823e 0e5b 303e 903b 483e 6acd 7f3e
0.27730256 0.13758594 0.24589533 0.26266417 0.27846566 0.14120299 0.24540651 0.2629222
0.27389732 0.1385125 0.24138531 0.26348367 0.27505416 0.14720726 0.2380207 0.26450807
0.2696902 0.14074004 0.23515429 0.26560792 0.26574305 0.15257415 0.2232715 0.2672296
0.26518524 0.1407192 0.22974524 0.26884782 0.25346854 0.15436795 0.20638494 0.2700826
0.26150554 0.13991095 0.22574836 0.27282268 0.24380133 0.15283144 0.19487736 0.27217487
0.25632715 0.13633221 0.22153197 0.2764115 0.23707592 0.1490066 0.18889666 0.27271354
0.24866137 0.13249166 0.21447715 0.2778378 0.23329197 0.14720033 0.18525244 0.2718514
0.24144775 0.13144954 0.20634799 0.2767575 0.23259625 0.14858826 0.18327625 0.26965117
0.23731773 0.13036871 0.20197037 0.2741175 0.2312653 0.1508102 0.17969862 0.2654962
0.23550849 0.12991725 0.20004368 0.27054182 0.23359844 0.15645015 0.17814398 0.26085705
0.23673268 0.13223201 0.20010339 0.26584458 0.23952132 0.16379224 0.17996955 0.25662076
0.23814945 0.13705891 0.19875738 0.2601426 0.24812593 0.17115414 0.18554357 0.25333217
0.24314189 0.1472869 0.1980797 0.2548089 0.2539706 0.1745397 0.19083036 0.25073704
0.2506473 0.16175276 0.19705507 0.25094038 0.25585157 0.17222235 0.19553971 0.24980702
0.25585157 0.17222235 0.19553971 0.24980703

86 f4 [3]
00000000: d798 e740 58ce 6b3b 4835 dc40
7.237407 0.0035981145 6.881504

action_model._continuous_distribution.log_sigma f4 [1, 2]
00000000: 977a c3bb f712 a43b
-0.0059655416 0.0050071436

action_model._continuous_distribution.mu.bias f4 [2]
00000000: 3c5c 20bb 01cf 11ba
-0.0024469038 -0.0005562157

action_model._continuous_distribution.mu.weight f4 [2, 256]
00000000: 25f2 3ebb f306 82bc 730a 42bc c043 c1bc
00000010: d428 fe3c 8a7e 8c3c 44af e3bb f5c6 12bc
00000020: 1e9f 8a3c b4f0 a13c 62df cf3c b237 713c
00000030: c22e 7ebc 1c0d 2ebc 8bd6 33bc ba6e b5bc
00000040: 145a 13bc 1929 443b c7e8 97bc 495f 16bb
00000050: 9c34 e83c 9942 ea3b 1605 2fbc d831 3c3d
00000060: 4225 a13b 0753 363c 1331 99bb d411 96bc
00000070: 956a fe3b 8760 92bc 6286 adbc 8750 88bc
00000080: c1ef 533c 84e5 f73c 9d65 903c b65f 73bc
00000090: 250d 7a3c a381 c7bc 7ce7 98bc ca13 b4bc
000000a0: b237 5bbc 1d17 18bc 5be8 663c 0231 ec3c
000000b0: e8c8 dbbc ade3 05bd 3b87 05bd 61eb 033d
000000c0: 92f9 a23c 96e4 e13c 1b48 d53c f73a 92bc
000000d0: de1d 7f3a 43a4 d9bc 2b6f 1439 72ff 19bb
000000e0: 0cf0 bdb9 3f42 bfbc d3d1 1f3a 78db 1abc
000000f0: 10ab 90bc 49b2 b43c 6181 1f3c 6037 02bc
00000100: 9cf3 4a3c 7892 893c 23fd 083d c6f3 db3c
00000110: b24c 513b 9de2 fe3a 60fc 9b3c efbc 5b3c
00000120: 2a70 e3bb bd46 1c38 c726 5a3c f831 06bc
00000130: 7778 adbc cb23 cdbc a851 553c 6a54 0bbd
00000140: c716 16bc 2de5 053d 292a 2239 6b4c 31bc
00000150: 4f73 c3bb 3b39 6bbb d71d a3bb 4e82 18bc
00000160: 6461 763c 1469 833c 2526 003c c33b 803c
00000170: 28eb 74bc fcf2 5ebc 7d50 c1bb 9556 cabc
00000180: 7170 b83c fb75 1ebc e319 ffbc 143e ebbc
00000190: 2335 8abc a58f 0a3c 7d28 0a3b 5426 e7bc
000001a0: 3c98 893c 892a 2d3c 9a86 2b3c 7d70 20bd
000001b0: d0bd 803c 8d82 d23b ec2e c43b 7c8a 003c
000001c0: f1a3 03bc f6f5 bf3c 2597 f63c bed9 603d
000001d0: 4180 42bc caf8 48bb 3840 5fbc ecc7 23bc
000001e0: f34e 4dbc acae 27bc b241 91bb c2f8 073d
000001f0: c326 c43c c26d 243c 6e43 6d3a b8dd 46bc
00000200: fa3b 003c 0e00 b739 191b 873c 2cbd 8c3b
00000210: e1d8 ee3c 34a9 053c 4154 6dbb 3b3f 1a3c
00000220: f886 3a3b 3b57 933a 02f0 113c 5123 ce3c
00000230: fab9 8ebc 179c 7fbb 38e0 de3c 82c9 ca3c
00000240: 5672 4139 4d46 fb3c 5ca3 613c ec90 e53c
00000250: a508 11bd 2569 be3c 075b 823c 0d7c 5e3c
00000260: 7bd7 cd3b 99d9 11bd ad11 29bc f908 42bc
00000270: e009 60bc 54df a7bc d641 623c 850a a2bc
00000280: b132 1ebd 368d 9a3c d7e0 b6bc 07f5 ea3c
00000290: ec32 afbc e763 df3c 30dd fcbc 05cf 5c3c
000002a0: b232 af3c 2039 56bc 3ad1 993c ef1a 723b
000002b0: 3dca 24bc 7916 39bc 4b43 b13b 657e 393c
000002c0: 548b 493c c158 e53a e5c3 b83c ea94 36bb
000002d0: 1783 cdbc d05d 5538 2598 afbc ef17 7d3b
000002e0: 5f9f a0bc c497 bd3b 0dbd 15bd 1e18 813c
000002f0: b90a 3fbc 319e 91bc fa72 43bc 5215 9f3c
00000300: d4c0 443c 0651 d4bb 3a28 9ebc 9a32 b4bc
00000310: f264 c03c c313 5a3c d254 843c 02ff 99bc
00000320: ac7d 7cbb 0ace 9bbc 3c2f 46bc 7a4d b1bc
00000330: f71b 9d3c d576 c0bc 0698 ae3c f589 5dbc
00000340: 70e7 adbc fca8 c13c 0f74 15bb 3088 f1bb
00000350: 715e 8cbb 5524 98bc 0a68 113c 8cb7 83bc
00000360: 7189 b83c 5692 043d 73d3 d63c 5d19 2e3b
00000370: 609b 99bc 27bf c1bc bc43 e2bc ae38 103c
00000380: 8664 04ba c841 5abc dda0 ecba e23a a23a
00000390: fb4a 7d3c 5831 b93b cf2b aeb9 02a2 ad3c
000003a0: c094 83b8 b9e1 b2bb 42ab 103d 861e 13bc
000003b0: 9a2d 813c 91eb 513c eb98 9fbc b497 ea3b
000003c0: d5ab ecbc 925b 623c 34ef 57bb 9e8f f43b
000003d0: 53aa 543c 780d fc3b c3d4 5fbc 92bc 623c
000003e0: 5c34 bb3c e3d3 b1bc 1c34 1bbc 0e09 eebc
000003f0: 5f7a 96bc cf57 51bb 703e 08bb c109 34bc
-0.0029136029 -0.015872454 -0.011843312 -0.023591876 0.031025328 0.017150182 -0.0069483835 -0.008958568
0.016921576 0.019768097 0.025375072 0.014722751 -0.015514078 -0.010623243 -0.010976444 -0.022147525
-0.008993644 0.0029931723 -0.018543614 -0.0022944978 0.028345399 0.0071490523 -0.010682365 0.045945972
0.0049177716 0.011128194 -0.0046750396 -0.018319048 0.0077641704 -0.017868293 -0.021182243 -0.01663996
0.01293558 0.030260809 0.017626578 -0.014854362 0.015261923 -0.024353808 -0.018665068 -0.021982092
-0.013379978 -0.009282854 0.014093484 0.028831962 -0.026829198 -0.03268783 -0.03259967 0.032206897
0.019894395 0.027574819 0.02603536 -0.017850382 0.00097319286 -0.026567584 0.00014155793 -0.0023498205
-0.00036227738 -0.023347018 0.0006096635 -0.0094517395 -0.017659694 0.02205767 0.009735436 -0.007947773
0.012387183 0.016793475 0.033444535 0.026849639 0.0031936583 0.0019446198 0.01904124 0.0134117445
-0.006940861 3.725918e-05 0.013314909 -0.008190624 -0.021175606 -0.025041481 0.013019957 -0.03401605
-0.009160704 0.032689262 0.0001546523 -0.010821442 -0.0059646736 -0.0035892266 -0.0049779224 -0.009308411
0.015037868 0.016041316 0.007821594 0.015653497 -0.014948644 -0.013607737 -0.0058994875 -0.024699489
0.022514554 -0.009671683 -0.031140273 -0.028716125 -0.01687104 0.008457099 0.0021081262 -0.028216518
0.016796224 0.010569223 0.010469103 -0.039169777 0.01571551 0.0064242543 0.005987039 0.007845517
-0.008034692 0.023432713 0.030101368 0.054895155 -0.011871398 -0.0030665868 -0.013626151 -0.009996396
-0.01253103 -0.010234516 -0.0044328803 0.03319622 0.023944264 0.010035934 0.00090508803 -0.012137823
0.0078267995 0.0003490452 0.016492413 0.004295012 0.02915615 0.008158017 -0.003621355 0.009414489
0.0028461795 0.0011241207 0.00890732 0.025163325 -0.017422665 -0.003900295 0.027206525 0.02475429
0.00018448508 0.03067317 0.013771858 0.028023206 -0.035408635 0.023243496 0.015912546 0.013579381
0.006281791 -0.035607908 -0.010319156 -0.01184296 -0.013674229 -0.020492233 0.013809642 -0.019780407
-0.03862256 0.018866163 -0.022324009 0.028681291 -0.021386586 0.027269317 -0.03086719 0.013477092
0.021386478 -0.013075143 0.018776525 0.0036942323 -0.010057983 -0.011296862 0.0054096333 0.011321639
0.012301285 0.0017497764 0.022554347 -0.0027859756 -0.025086923 5.0870527e-05 -0.021434853 0.0038619002
-0.019607244 0.005785914 -0.036557246 0.01575857 -0.011660271 -0.017775627 -0.011929268 0.019419346
0.012008864 -0.0064793853 -0.01930629 -0.021996785 0.023485634 0.013310376 0.016153727 -0.018798355
-0.0038527055 -0.019019146 -0.0120962225 -0.021643389 0.019178374 -0.023494164 0.021312725 -0.013521661
-0.021228522 0.023640148 -0.0022804772 -0.007370971 -0.004283719 -0.018572012 0.0088749025 -0.016078733
0.022526475 0.03236612 0.026223874 0.002656541 -0.018750846 -0.023650719 -0.027620189 0.008802576
-0.00050503796 -0.013321348 -0.0018053312 0.0012377168 0.015459771 0.005651634 -0.00033220506 0.021195415
-6.2742736e-05 -0.005459037 0.035319574 -0.008979445 0.015768815 0.012812511 -0.019482097 0.0071591977
-0.02889053 0.013815777 -0.0032948973 0.0074634096 0.012980062 0.0076920353 -0.013661566 0.013838904
0.022852115 -0.02170748 -0.009472873 -0.029057052 -0.018368898 -0.0031943207 -0.0020789169 -0.010988654

action_model._discrete_distribution.branches.0.weight f4 [1, 256]
00000000: 038f daba fbf2 39bc 1846 5abb 6f65 a2ba
00000010: 43b5 283c 9d70 20b9 3283 e9bb 4155 0b3c
00000020: 3bc3 e8ba 658f 013c 8972 333c 6ffd e93b
00000030: 4839 4a3b c781 6b3b 85c9 d139 f692 2bbb
00000040: d35d 82b9 f573 67bc 0fbb 113c 65c5 09bc
00000050: cd61 85ba 6773 84bb f4c4 9ebb aaf1 d13b
00000060: c288 9039 992e 453c 3a70 ca3c 9be8 833b
00000070: cf32 00bb 48ee 52bc 5b72 a9bb d01a e6b9
00000080: fed8 10bc a332 f0ba cfdf c83a 8173 1f3a
00000090: 9fa3 5039 de93 913b 8918 313b 02ed e23b
000000a0: 6f08 d73a 03ae 5439 1a16 a63b e465 2bba
000000b0: c720 a43b bbf0 06bc 98ca ad39 8cab 02bb
000000c0: c735 84bb ce6e 263c 5e9a 01bc 4b8c 9a3a
000000d0: 5498 c0b9 0531 d2ba d0d4 92ba 63ae f0bb
000000e0: f880 913a 4734 a8bb 68f0 0fbc 4d9f dbbb
000000f0: ac2c 0cbc 876c f5ba 78d2 a83b 32a6 123b
00000100: 2a7b da3b 1699 36b9 b900 0fbb 3571 43bc
00000110: 85a4 1abc abc2 73bb ed96 eab9 21cc c4bb
00000120: eb58 5b3c adc0 1e3c a3ca 40bc 358a 6a3b
00000130: 33c6 3abc 6fa7 52bc 0a1d 90bb c818 e43a
00000140: 1a48 65bc 9f7b f03b 2a0c 75bc 1f62 93bb
00000150: 88b2 f9ba 1c11 203b 76f3 21bc 0b38 153c
00000160: ddb6 963b 564b b2bb 878d 4a3b 4d06 173b
00000170: 2929 273c 3cf8 22ba 57c6 1dbb 8057 f03b
00000180: f5dd e33b 7f46 8a3b 892f bf3b 7a7b 46bb
00000190: ee14 49bb 4186 0c3a 876e 9bba 5a20 be3a
000001a0: fe1f 9bbb f652 1c3c d126 073c f451 08bc
000001b0: 3f20 fa3b 7f74 4cbc 77b4 873b cca3 20bb
000001c0: aa7f e8bb 0f50 913b a533 553c df10 4d3c
000001d0: bf70 ab3b 8b19 5e3c 9b5e 5fba 44e8 c63b
000001e0: 9e9c b8bb 0d58 d33b d22d 52bb b256 343c
000001f0: bf8c 3bba 579d eebb ff5e 8f3a 7308 1a3a
00000200: cbbb 52bb 31ca c83b 3daf fdbb 6b82 5d3b
00000210: 8c62 343c 1ffa cb3a 65b6 99bb fbd5 cebb
00000220: 0bae 1dba 5c28 903a 0ebd 2e3b 0fdc 3ab8
00000230: e7ee 233c 9cea a3bb 8a44 1e3c 0090 fdbb
00000240: 7bc0 993b 3b41 eebb 4468 c33b 9abe fdb7
00000250: cde0 33bc 84e7 9bbb 521e 1cbc 6a6b e739
00000260: db7a d3bb 12c8 aaba ca1c f43b 3909 a1bb
00000270: 4a6f 14bc 2da9 653b b821 de3b 4353 093c
00000280: cbbf 31bc 74c4 bcbb 5f41 94bb ecd2 803b
00000290: 8fa1 d0b9 86b5 9a39 138d f2bb bbee e6bb
000002a0: feea b7ba 07c0 1bbb cdd9 98bb 2997 373c
000002b0: 2d86 723b 72e1 2d3b 89e7 4abb fb8e f4bb
000002c0: c665 a0bb 96b6 1b3b 231f 103b 5a13 d9bb
000002d0: baaf f2bb 28e1 693c dcba a03b 311f 103c
000002e0: d470 9b3a 14b7 0c3b bb26 a4bb a020 5939
000002f0: cbd0 ec3b 8bef 82bb ca5e 8cb9 7bbd 94b9
00000300: 805f 54bc d306 c33b 3a3b 063b 966b bbbb
00000310: 470c 70bb 012f 91bb f731 843b 6e7c a23a
00000320: 5019 503b 4b0f 9a3a 5a4b 673c 50a0 323b
00000330: c7f9 fb3b c686 423b 7f96 483c 486c 6a3b
00000340: af60 aabb af7d 203b 2db9 033c f8b6 ed38
00000350: ad56 0abc fd24 413c 88cf 43bb af59 6ebb
00000360: ed30 fe3b 8813 3a3b 57ce 96ba 0bdb 263a
00000370: 1b79 23bb 0f07 d83a 7f49 9fbb 0311 c7bb
00000380: 5050 083b e39d 5eba 33a7 86bb 99e3 48bc
00000390: 9df4 f83b 17de 10bc 6f00 44ba a045 433b
000003a0: 60dc 3ebb 5db2 c7b8 0b5c ca3b a528 38bc
000003b0: cd92 e23a 2bd1 0d3c 8793 783a 60ef 183b
000003c0: c2c1 743c 4e7d 98bb 536f 3aba b0f9 95bb
000003d0: 4b39 703c ed9f 7fbc 42b8 25bc 05a7 98bb
000003e0: 0505 53bc 9618 44bb 9751 4c3b 5b0e 673b
000003f0: 1a08 df3b 9b4c e33a c1ba b8ba 7d6e d13b
-0.0016674701 -0.011349435 -0.003330594 -0.0012389849 0.010297122 -0.00015300741 -0.0071262354 0.008504213
-0.0017758379 0.007907723 0.0109526 0.0071408073 0.0030856896 0.0035935508 0.0004001373 -0.0026180125
-0.00024865437 -0.014126767 0.008894696 -0.008408879 -0.0010176242 -0.0040420773 -0.004845256 0.0064069824
0.00027567713 0.0120350355 0.024711717 0.0040255315 -0.0019561534 -0.0128741935 -0.005171103 -0.00043888995
-0.0088407975 -0.0018325638 0.0015325489 0.000608258 0.0001989738 0.004442676 0.002702268 0.006925226
0.0016405712 0.0002028272 0.0050685527 -0.0006538315 0.00500879 -0.008236106 0.00033148075 -0.0019938676
-0.004034731 0.010158254 -0.007910339 0.0011791078 -0.00036734587 -0.0016036337 -0.0011202339 -0.0073450073
0.0011101058 -0.005133185 -0.008785345 -0.0067023397 -0.0085555725 -0.001872436 0.005152043 0.0022376892
0.0066675143 -0.00017413902 -0.00218205 -0.011928846 -0.009438639 -0.0037194889 -0.00044744406 -0.0060057794
0.013387899 0.009689492 -0.011767062 0.0035787944 -0.011399793 -0.012857302 -0.004397993 0.0017402405
-0.013994241 0.0073389555 -0.014956513 -0.004497781 -0.0019050399 0.002442426 -0.009884706 0.0091076
0.0045994357 -0.0054411096 0.003090711 0.0023044527 0.010202684 -0.00062167994 -0.0024074519 0.0073346496
0.0069539496 0.0042198296 0.005834524 -0.0030286 -0.003068264 0.00053605816 -0.0011858501 0.0014505491
-0.0047340384 0.009541264 0.008249001 -0.00832032 0.0076332386 -0.012478947 0.004141386 -0.0024511693
-0.007095297 0.0044345926 0.013012801 0.012516229 0.0052319462 0.013555895 -0.0008520872 0.0060701687
-0.0056339046 0.0064497055 -0.0032070768 0.011006998 -0.00071544567 -0.00728194 0.0010938345 0.0005875893
-0.003215539 0.0061276187 -0.0077418373 0.003379966 0.0110098235 0.0015562213 -0.0046909326 -0.0063121296
-0.0006015009 0.0010998356 0.0026662978 -4.45508e-05 0.010005689 -0.005002333 0.009659896 -0.0077381134
0.004692135 -0.0072709597 0.005963357 -3.0248706e-05 -0.01097889 -0.0047578234 -0.009528713 0.00044139783
-0.0064538545 -0.0013029596 0.007449721 -0.0049144295 -0.0090597365 0.0035043464 0.006778922 0.008381668
-0.01084895 -0.0057607237 -0.0045243944 0.003931394 -0.00039793222 0.00029508414 -0.0074020713 -0.007047502
-0.0014031825 -0.002376558 -0.0046646358 0.011205473 0.0037006245 0.002653208 -0.003096076 -0.0074633337
-0.004894945 0.0023759953 0.0021991215 -0.0066246213 -0.007406202 0.014274873 0.004905088 0.008796499
0.0011859187 0.0021471428 -0.0050095 0.00020706886 0.0072270385 -0.003995841 -0.00026773504 -0.00028369934
-0.012962222 0.0059517412 0.002048208 -0.0057196124 -0.0036628412 -0.004430652 0.0040342766 0.0012396702
0.0031753369 0.0011753825 0.014117086 0.0027256198 0.007689688 0.0029682382 0.012242912 0.0035770107
-0.005199514 0.0024488976 0.008039755 0.00011335121 -0.008443517 0.011788604 -0.0029878337 -0.0036369374
0.0077572973 0.002839299 -0.0011505586 0.00063650374 -0.002494401 0.0016481596 -0.0048610563 -0.006075026
0.0020799823 -0.0008492155 -0.004109287 -0.012261295 0.0075975196 -0.008842013 -0.0007476871 0.0029796138
-0.0029123053 -9.522282e-05 0.006175523 -0.011240159 0.0017286182 0.008655827 0.00094824325 0.0023336038
0.014938774 -0.0046536094 -0.00071119255 -0.004576884 0.014662097 -0.015602094 -0.010114731 -0.004658582
-0.012879615 -0.002992188 0.003117656 0.003525636 0.0068063857 0.0017341556 -0.0014093743 0.006391345

network_body._body_endoder.seq_layers.0.bias f4 [256]
00000000: 2b9d 373c d189 953b 7494 023c 4ff3 a83b
00000010: 4df9 ffba 7c83 ea3b 04ad e839 b7a1 2fba
00000020: 3085 933b 9830 513b e254 4b3c 04e5 de3b
00000030: c83d 3b3b 218a a93b ce86 823c 86c6 823b
00000040: c167 093c 5e73 97bb 8068 353b aee1 05b9
00000050: 2af2 b33b f39d 983c 126c f0bb bc54 a43b
00000060: db49 fe3b 9253 a0bb 952a be3b 2b7a 133b
00000070: 36e8 23bb dfaa c038 a432 033c 6f93 2dbc
00000080: 2ee1 713b cdf7 3bb8 d129 b33a fe1f fb3b
00000090: e2e3 00bc 0bd5 b93b f704 3c3b f9a3 ba3b
000000a0: e40e 523c 50ca 9e3b 8aae 043c 6725 283c
000000b0: 7809 ff3a a8c5 2c3c bdd1 47ba 9cd4 813b
000000c0: d9ee 743c a7c9 233c 6d79 14bb 5001 233a
000000d0: 5d84 8a3c 7004 803b 7981 84bb 0b2a ccbb
000000e0: 1632 daba 3741 1a3a 6f5f 8c3b 8836 6a3b
000000f0: fc11 083b 2f85 f33b 8f0f 053b fd01 053c
00000100: f883 c9ba c38a ffba 09ff 883c 7633 9fbb
00000110: 08c0 2f3b a765 ca3b 0b3e 8e3c ba7c 8c3b
00000120: 7d03 d0bb 9268 4cbb 3bf7 963b 2f49 3c3c
00000130: 20c3 b23a fecf 0a3b e542 383c 4072 ec3b
00000140: 5ac4 b7b9 1796 a03b df38 a93b 9c90 9f3b
00000150: 2f4c fe3b 230f c53a 0114 ae3a aabc e3bb
00000160: 415b a43b 2b44 563c 86e9 a83b 7d6c d0bb
00000170: 3e7c 07bc ac5f 223c b34f c23a 976c 003c
00000180: 585d 2b3b 2689 0e3b 66ac b33b f945 f2ba
00000190: 711b dd3b a2cd e03b f22b 8c3b e4c4 813a
000001a0: 5852 b7bb f86e 1b3b 99c9 3c3b c9fd aa3b
000001b0: 75fa 1bbb 8818 423c 8330 3a3b b0ad 083c
000001c0: 43d1 d33b 3363 753b 10ab 5f3b 713f a639
000001d0: 1e1c 9bbb 6785 bc3b 34e6 713b bfc0 70ba
000001e0: 21b3 9abb 2631 6b3c 02cb 87b9 e253 c23b
000001f0: c4af ab3b 1719 b039 ca77 ee3b 684e 493c
00000200: b5e0 3b3b 46fa 4fbb 9c7c 743b 194e fcbb
00000210: a52c c63b cc30 3b3c 9c59 9e3b 6231 e53a
00000220: e9a4 4e3c 68a3 3f3b bc2f 163c 4f00 1f3b
00000230: 660f acba c8ad 843c 6275 bcba 39ff 513c
00000240: 3aa1 1eb8 c709 3d3b ae4e 6bbb 9399 51ba
00000250: fa1b ffba 8d5c ac3a 3d6f 723c 69cb 323c
00000260: a505 1e3c d314 bd3b 22c6 81b8 e9b5 d33b
00000270: a8b8 943b a324 6e3c 1122 643c 9c22 793b
00000280: 4b39 b03b 66b2 f13b 53e0 913b 9e7f 823c
00000290: 005c 5ebc b48a 663c 886c 383c f5f0 523c
000002a0: b406 813b a75a 3fb8 fdac 013b f767 1d3c
000002b0: c6d6 8d3c 7dc9 923b 7608 b33b 7dd3 7cba
000002c0: d1c1 633b c481 5d3c 0900 d63a 7674 28ba
000002d0: 20e5 8ab9 1236 363c 1d3e 0abc 93ca 90bb
000002e0: be8b c03b 57c2 623b 2414 1a3c e414 6f3b
000002f0: af6b e5bb 177f 8e3b a551 be3b bd64 aeba
00000300: ded7 0b3b 8829 5e3c 8e2e 153c 98b4 f9bb
00000310: 04ad a33b 9f4d ef3a 84d1 063c 95d2 6e3c
00000320: 8295 dbbb 90f0 193c 87d1 b63b aeda 8a3c
00000330: 037a 043c fd31 3e3c b4de 59b9 7fd7 88ba
00000340: cf16 e43b b91d f73b 848d 9c3b b0ce 2fbc
00000350: 54ea 7b3b ac45 5a39 0bd6 1b3c 00c6 2e3b
00000360: 80af a33b b003 8d3c 6b33 593c c811 6e3c
00000370: 1afa 3e3c a717 273c 8ec7 703c 232e 983b
00000380: 9036 883b 1dc3 853b 1788 0e3c a070 a43b
00000390: df5a 983b b492 9a3b c662 753c 1c73 6f3b
000003a0: d215 35bc c60e d63b aa1f bcba 66e9 4b3c
000003b0: 262e e63b 40f4 143b 5897 143b 5f51 963c
000003c0: 7d3e 803b 3ae0 853b 39fa f13b 5da0 d03b
000003d0: 22b2 383c 98e1 bf3b 10ef 073b 8e1f 8a3a
000003e0: 7d5c f73a 9c66 9dba d359 743c 854b 8a3b
000003f0: 27c9 eebb b657 313b b1bb c0bb d2fd f2bb
0.011206905 0.004563548 0.007969964 0.005155958 -0.0019529253 0.0071567874 0.00044379395 -0.00066998176
0.004501961 0.0031919833 0.012410374 0.006802203 0.002857076 0.005173937 0.01593342 0.003990951
0.008386553 -0.004621907 0.0027680695 -0.0001276794 0.0054915147 0.018630004 -0.0073371017 0.005014984
0.007760269 -0.004892775 0.005803416 0.0022503238 -0.0025010235 9.187101e-05 0.008007679 -0.010594233
0.00369079 -4.4815057e-05 0.0013669078 0.007663726 -0.0078668315 0.0056711487 0.0028689483 0.0056958166
0.012820933 0.004845895 0.008098254 0.010262824 0.0019457778 0.010545172 -0.0007622501 0.0039621126
0.014949524 0.009996808 -0.0022655383 0.0006218152 0.016908819 0.003906779 -0.0040437547 -0.006230598
-0.0016647007 0.00058843516 0.0042838375 0.003573807 0.0020762673 0.007431648 0.0020303463 0.00811815
-0.0015374413 -0.001949631 0.016723173 -0.0048584295 0.002681734 0.0061766687 0.017363569 0.0042873295
-0.006348072 -0.0031190258 0.004607109 0.011492058 0.0013638474 0.0021181102 0.011246418 0.007215768
-0.00035050773 0.0049007046 0.0051642503 0.0048695337 0.0077605466 0.0015034418 0.0013281108 -0.0069499807
0.005015761 0.013077776 0.0051547913 -0.006360589 -0.008269368 0.009910505 0.0014824778 0.00783839
0.0026148167 0.0021749227 0.005483198 -0.0018483988 0.006747656 0.006860451 0.0042776996 0.0009900597
-0.005594533 0.0023717266 0.0028806685 0.005218242 -0.0023800407 0.011846669 0.0028410263 0.008342192
0.006464155 0.003744316 0.003412906 0.00031709255 -0.0047335764 0.0057532075 0.0036910893 -0.0009183995
-0.004721061 0.01435498 -0.0002590046 0.0059304098 0.0052394588 0.0003358803 0.0072774636 0.01228676
0.0028667871 -0.0031734868 0.0037305718 -0.0076997397 0.0060478025 0.011425208 0.0048324596 0.0017486031
0.01261256 0.0029241685 0.009166654 0.0024261659 -0.0013127148 0.016196147 -0.0014378245 0.0128171975
-3.782029e-05 0.002884494 -0.003590505 -0.00079956016 -0.0019463294 0.0013150141 0.014797029 0.010912755
0.0096449 0.0057703047 -6.1881045e-05 0.0064608944 0.0045386143 0.014535102 0.013924138 0.0038015014
0.0053779236 0.007376003 0.0044517904 0.015929993 -0.013571739 0.014071155 0.011256345 0.012874831
0.0039375667 -4.5622375e-05 0.0019786947 0.009607307 0.017314326 0.0044795857 0.005463655 -0.00096445513
0.0034752975 0.013519708 0.0016326915 -0.00064260454 -0.00026492123 0.01112129 -0.0084376605 -0.00441868
0.0058760336 0.00346007 0.009404216 0.0036480958 -0.0070013623 0.0043486464 0.0058080726 -0.0013305169
0.0021338384 0.0135597065 0.009105338 -0.0076204054 0.0049949903 0.0018257386 0.008228663 0.014576574
-0.0067011723 0.0093957335 0.005579177 0.016949978 0.0080857305 0.011608598 -0.00020777696 -0.0010440199
0.006960727 0.007541385 0.004777612 -0.0107304305 0.003843923 0.00020816055 0.009511481 0.002666831
0.0049952865 0.017213672 0.013256888 0.014530607 0.011656309 0.01019851 0.014696015 0.004644172
0.004156895 0.004082097 0.008699439 0.0050183088 0.0046495046 0.0047171954 0.014977163 0.0036537116
-0.011052566 0.006532523 -0.0014352698 0.012445783 0.0070245443 0.0022728592 0.0022673216 0.018349348
0.003913699 0.004085568 0.007384565 0.006366773 0.011272939 0.0058557503 0.0020741858 0.0010537968
0.0018872168 -0.0012008729 0.014913994 0.0042204284 -0.007287163 0.0027060336 -0.0058817496 -0.0074155116

network_body._body_endoder.seq_layers.0.weight f4 [256, 119]
00000000: 4934 8d3d 2573 87bd df0a 4a3e 27d2 04be
00000010: 40ad 173e e68f e83c c780 0bbe 41f4 b23b
00000020: ae66 10bd 6d87 743b 5dfc 27be b475 913d
00000030: c3c8 d2bd 5199 413c fdf1 1fbd c2e5 e6bc
00000040: 9e2f 49bd 522b 39be 2b48 3dbd 5f31 4f3d
00000050: 4a4c 5fbc 514a a4bd b119 8bbd dcf9 c6bd
00000060: 2452 8c3d caa2 103e 4b00 46be 63bb 3bbd
00000070: d577 013e 1c15 40be 0bbe dfbd a2b7 683c
00000080: 0f0c 04bd fdce 2bbe a907 803d caf3 533d
00000090: 6fcf 7ebd a692 8abc 0c74 e63d cf2b 323d
000000a0: 284a 33be a813 bfbd 4ce7 c63d 781e 913d
000000b0: 2f3a 0f3d ecf8 73bd 3368 cb3d dcca 58bd
000000c0: f4c4 dc3d d177 173c dab7 263e 5955 b1bc
000000d0: 78be 48bd a72e 123c d346 7a3d cd26 063e
000000e0: b65f cfbd 0a53 173e e36e 45bc 5209 a53d
000000f0: 1f87 6ebd 6dba dbbc f46c ca3d 1afb c0bd
00000100: 6c11 4d3d 6d98 d43d a5fc a73d f78e 263e
00000110: 351e b5bd cdba 95bd 3427 87bd c4d7 debd
00000120: d11b 673d d122 e4bd 646d e93c 3913 203e
00000130: e6f3 133e 7c83 3ebd 5576 1dbd 255b 1f3d
00000140: 1ccc 9f3c 88d8 123d 8098 ebbd 14ae 93bd
00000150: 80f3 1dbd 34e3 2a3b e065 213e b71e 493d
00000160: dedf b93c d718 c33b 881c 133e c8e8 3f3c
00000170: b93c 05be c80c 563d a028 12be 69ec 6ebd
00000180: 95bc 29be d759 55bd 7095 63bd 1820 ad3d
00000190: c8e0 fdbd 2951 e5bd c663 1fbd c2e3 b33c
000001a0: be8e f439 b4c8 c5bd 868a 493e 003f 273d
000001b0: 96dc 9b3c e651 963c 5d7e 863c e1fd e13a
000001c0: c02c fe3c cebc cbbd 5f20 5bbd c3a3 343d
000001d0: 5d1d 1d3d 1c5b 00bd 97cb acbd 116e c0bd
000001e0: b4d9 c8ba 0885 c13d 4faf c83d 580b bfbd
000001f0: 20de 9fbd 3cb7 b83d b236 0b3c f22b f8bc
00000200: 9090 f43a 887c a13b 122b fabd 50a5 05be
00000210: a3f5 eb3d af00 6ebd f2b5 38bd 6574 563d
00000220: 25c0 c43d 6ac3 6fbd acdd 06bc 1139 1cbd
00000230: e278 45bc 9633 c23b 897a 7a3d 6ab5 35be
00000240: 3b9f 7e3d 7195 eb3c e8da 763d fb87 aebd
00000250: 591d 8c3a 10e8 a13c c2c2 19bd 8468 d6bd
00000260: a8f2 693d 9cc9 9c3d 8dac 943d 31c0 01bc
00000270: a41f 3d3e f34f 2bbe eb56 5e3d b532 213b
00000280: 001a cd3d 2422 36be f07d 22bd 58bd d0bd
00000290: a755 44bd 69fb 303e eecc 503d 2e29 29bd
000002a0: a2c5 a93d b3e0 d4bc dffa 783d e98d fa3c
000002b0: 1598 67ba bd5b c0bc cf4f 7f3c bf9c b43d
000002c0: 50ba d8bd f76e eabd 91b5 823d 9a50 b9bd
000002d0: ca41 bf3d 3cbd bcbc c2a2 bbba 53d5 c73d
000002e0: 9c45 bdbb 4916 623e 0ded 3fbe 1d82 c3bd
000002f0: d21a b3bd a63f 003d 38cd af3b c0b8 b5bc
00000300: 8abf 453d 5f19 bb3c 40fe 853e 1243 4c3d
00000310: 9d48 c43c 553f fabd 0bd0 0ebd fd31 02bd
00000320: 3cab dfbd db44 77bd 8b37 273e 33c9 54bc
00000330: 4d69 c9bd f5e0 fbbb 34eb b2bc a91f d03c
00000340: dafa 243d 1778 813d dbf1 5b3d 6e63 7a3d
00000350: d41c 0ebe 3353 23bc a4e5 0cbe 5798 ac3d
00000360: 3a17 543d 2601 e93c 630d bf3d 787c 673c
00000370: d816 113e dd71 6b3d 58cd 793c 6d87 633d
00000380: 97fb b2bc 97e6 7d3e 574c 9d3d a3ef 383d
00000390: 1f25 29bb c63f 07bd af5a 0abe e71b 903c
000003a0: 3ec4 f03c 2adb a5bd c6ec eabd 809b 043e
000003b0: 6f73 833e 33b0 dd3d ec13 313d 2b06 1ebe
000003c0: 2eb4 bc3c e9f9 d73c aa8f 553c 0f7f 1ebe
000003d0: 08a0 ba3d 3e65 223d 9fcd 17be 55fc 0fbe
000003e0: 8bfb 0a3e 0c7c ef3d eec7 c83c 4438 a8bc
000003f0: d0fb f23c 4be2 03bd f4a8 123d 7e55 e3bd
0.06894738 -0.06613759 0.1973071 -0.12970792 0.14812183 0.028388929 -0.13623343 0.0054612462
-0.035254173 0.0037312165 -0.16404863 0.07102528 -0.102921985 0.011816339 -0.039049137 -0.028185729
-0.049117677 -0.18082932 -0.046211403 0.050584193 -0.013629029 -0.08021987 -0.067920096 -0.09715626
0.068516046 0.14124599 -0.1933605 -0.045833003 0.12643369 -0.18758053 -0.1092492 0.014203938
-0.032238062 -0.16778179 0.06251461 0.051746167 -0.062209543 -0.01691563 0.11252603 0.04349881
-0.17508757 -0.09329921 0.09712085 0.070858896 0.034967598 -0.059563562 0.09931984 -0.052927837
0.10779753 0.009244875 0.16281071 -0.021647142 -0.04900977 0.008922256 0.0611027 0.13100739
-0.10125677 0.1477777 -0.012050363 0.08058418 -0.05823433 -0.026822293 0.098840624 -0.09422894
0.050065443 0.103806354 0.08202485 0.16265474 -0.08843652 -0.0731102 -0.06599274 -0.10880998
0.056423012 -0.11139453 0.028494544 0.15632333 0.14448509 -0.046512112 -0.03844293 0.03890528
0.019506507 0.03585103 -0.115036964 -0.07210937 -0.038562298 0.0026075365 0.15761518 0.049101558
0.022689756 0.005953889 0.14366353 0.011713214 -0.13011445 0.052258283 -0.1427331 -0.058330927
-0.16575845 -0.05208763 -0.055562437 0.08453387 -0.12396389 -0.11197121 -0.03891351 0.02195919
0.00046645658 -0.09657422 0.19681749 0.040831566 0.019026082 0.0183496 0.016417677 0.00172418
0.031027198 -0.09948121 -0.05349767 0.044101488 0.03835808 -0.03133689 -0.08437269 -0.093959935
-0.001532367 0.09449202 0.097990625 -0.093283355 -0.07806039 0.09019324 0.008496927 -0.030294392
0.0018658806 0.0049281754 -0.12215246 -0.13051343 0.11521461 -0.05810612 -0.04509539 0.052357096
0.09606961 -0.05853597 -0.008231562 -0.03814036 -0.0120527465 0.0059265597 0.061152015 -0.17744985
0.062163573 0.028757783 0.06026736 -0.0852203 0.0010689899 0.019763976 -0.03753925 -0.104691535
0.05711618 0.076556414 0.07259474 -0.007919357 0.18469101 -0.16729717 0.05428211 0.0024596874
0.10014725 -0.17786461 -0.039670885 -0.101923645 -0.047933247 0.17283405 0.050976686 -0.041299038
0.082896486 -0.025986051 0.060786124 0.030585246 -0.00088346127 -0.023481244 0.015582993 0.088189594
-0.10582411 -0.11446946 0.06382287 -0.09048577 0.0933872 -0.023039453 -0.0014315473 0.09757485
-0.0057761203 0.22078814 -0.18742771 -0.095463015 -0.0874535 0.0313107 0.00536504 -0.022182822
0.04827837 0.022839246 0.2617054 0.04986865 0.023960406 -0.12219111 -0.034866374 -0.031785954
-0.10921332 -0.0603684 0.16329782 -0.012987423 -0.09834538 -0.007686729 -0.02184067 0.025405722
0.040278293 0.063217334 0.05369745 0.06112998 -0.13878185 -0.009968567 -0.13759476 0.08427494
0.051779963 0.02844293 0.09328725 0.014128797 0.1416887 0.057481635 0.015246712 0.055549074
-0.021848483 0.24794994 0.07680576 0.04515041 -0.002580948 -0.033019803 -0.13511156 0.01759143
0.02939045 -0.08098443 -0.11470942 0.12949944 0.25674006 0.10824623 0.04323189 -0.1543204
0.023035135 0.026364284 0.01303474 -0.15478157 0.09112555 0.039647333 -0.14824532 -0.14061101
0.13572519 0.11693582 0.024509396 -0.020534642 0.02966109 -0.03219823 0.035805658 -0.11100291

network_body._body_endoder.seq_layers.2.bias f4 [256]
00000000: b4dc 8d3b e4e6 0c3c f5d7 2e3c c8c6 de3b
00000010: 4f4d 123c 59ed dbba 37cb 19bb 0298 2e3b
00000020: f906 733c cc55 d13b 4c47 d33a 98fd 733b
00000030: 05f8 05bb b66f 833b a7a1 573c 0b17 a13b
00000040: 57a3 d83b fff9 b33b 2e94 21bb 712a 31b9
00000050: e188 5cbb 796b ca39 ac96 a43b 4e10 013c
00000060: 245d 1639 6d75 523b 5407 573b 458f cf3b
00000070: 6ca6 7e3b fdee b53b 1811 6dba 5da5 05bc
00000080: 88fb a6bb 63ce 0d3b 8908 a13b 767e 643b
00000090: 1caa f13b 47a2 023c 31c2 553b 81d7 b839
000000a0: 4d0e 853b b8c5 9b3a a309 813a 82a5 143c
000000b0: ab8f 623b 7ac4 f33b eab3 84b9 cd62 bd3b
000000c0: 9b7c e43a 83ae 4b3c 7430 48ba b9e0 d039
000000d0: 9400 163c 6946 583b 1174 8c3b 82cd 923b
000000e0: b448 b8ba bbd6 6e3c e6b7 793b 42b7 053c
000000f0: 3694 303c 6ef7 8c3a e402 563c 28d5 c43b
00000100: e7f9 31ba a09e ec3a 45a2 c83b 242a 9f3b
00000110: 8f78 f03b cecc 0eba f628 97bb 637e 4e3b
00000120: 8cbe 163c 3e7d 80bb b452 c73b bc51 25bc
00000130: 63fc 47bb f6c3 413c 4dc5 fa3a 44ac 693c
00000140: 882c 133c fba9 3e3b 2fbc be3b 20e8 e53a
00000150: bcb1 02bc ba2b e73b 23e1 1fba 3e7a 3d3b
00000160: 7e1b 6b3b 2be0 05bc 012f ae3b 8a30 3e3c
00000170: 806d 083b 56f2 863b b9c1 32bb 39b4 a03b
00000180: 0b3c b43a 3b70 173c 3eb0 0eba ec0a 013c
00000190: 6182 0b3c f982 283c 77e3 ca3a 1e88 1e3b
000001a0: fb9a 79bb fbe5 ba3b 097e 373b 5ca7 543b
000001b0: aad9 653b b2b0 e93b 5bb8 7a3a 7f7b 2739
000001c0: a7bb 863a 4659 443c be77 2b3b af20 033c
000001d0: 5e09 21bb 0c74 2b3c 1a8a 593c b0c8 683b
000001e0: 5494 ae3b 64ed dd3b ce71 7b39 fdd2 d33b
000001f0: 085d 2c3c 30aa a63b a23c 1bbb e75c e03b
00000200: d4c2 bb3b cdab d93b 025d c83b 301a 833b
00000210: a9dd 263c ea05 db3b 1642 803b ea1c e0bb
00000220: 958a 263c 9611 623b 651d a23b 3fda babb
00000230: aa0c 85bb 8880 e43b 1660 213c 0849 8a3a
00000240: e724 7c3b 2d46 ba3b 7c00 a03b 7600 313c
00000250: 3208 603c 953f ae3a 5df0 c03a 1608 643c
00000260: c243 da3b e774 273c d7d9 f93a 5019 a3bb
00000270: fea1 043c f858 ba3b f324 443b c832 b23a
00000280: e540 943b 482a eebb 625a 51bb 1ab1 e43b
00000290: 671a 433c c85b f03b db76 4d3b 7b31 c3ba
000002a0: 69ac 823b da5d 313c 0a37 47bb f7a4 08bb
000002b0: 34a9 dbb9 2988 023c 8c31 c73b 2421 99bb
000002c0: 978e eb3b 627a 053c 3b89 153c 2271 dcba
000002d0: 8dc4 bc3b dd77 5a3b b893 803b 66d3 a73a
000002e0: 6c4d 1a3c 5c4e 8bba 6311 c63b 35ca 293b
000002f0: 5da5 8abb 2d1d 8e3b 1332 8cb9 117e 263b
00000300: 21f6 25bb 4696 353c df2f d1ba 4c8a 05bb
00000310: 7c81 343b 7bf1 393c c6ef 9a3b 27e4 733c
00000320: 884b 333c 7318 863a fe3f 783b 290f ee3a
00000330: 4777 fd3a dbc9 8a3b 2cfa b9bb eea2 7f3a
00000340: 3fc3 5c3c 9d67 8738 2dde bbba 9609 3d3b
00000350: 3ec9 453b d210 9e3a 44e5 eb3b 269a e23b
00000360: bf73 6d3b 9e7d 8c38 fc65 c63b 1fb7 f43b
00000370: 9c74 ff3b ffb3 413a 3596 423b 478b 1bbb
00000380: fe1e a23b 9ea2 abbb ca3d 913b 8777 ff3b
00000390: f222 6d3a 5730 963b 226b d43b c693 603b
000003a0: 53df 2bbb 3190 5a3c 7ba8 b13a 16b7 293c
000003b0: 269f 333c 5a34 d63b 5024 763b bcc8 0b3c
000003c0: 6532 403b 9421 7e3b 7652 383b db6b 803a
000003d0: 86c2 cf3b 25f5 01bb 6743 143b 9c6d ec3b
000003e0: 2a7e f93b 8185 22ba c42d 453a 3635 de3b
000003f0: ee54 813a c84e bb3b 4288 79ba b1e4 0b3b
0.0043292884 0.0085999705 0.010671605 0.006798599 0.008929565 -0.0016779109 -0.0023467073 0.0026640897
0.014833205 0.0063884016 0.0016119271 0.003723001 -0.002044202 0.0040111197 0.0131610995 0.004916077
0.0066112685 0.0054924483 -0.0024654972 -0.00016895846 -0.0033650922 0.00038608516 0.0050228443 0.0078774225
0.00014339812 0.0032113448 0.0032810764 0.0063342177 0.003885652 0.0055521713 -0.00090433797 -0.008157101
-0.005095903 0.0021637909 0.0049143475 0.0034865416 0.007375015 0.00797326 0.0032616968 0.00035255778
0.0040605427 0.0011884486 0.0009844791 0.009072663 0.0034570496 0.0074391933 -0.00025311048 0.0057796002
0.0017432155 0.012431744 -0.00076366146 0.00039840283 0.009155411 0.0033000952 0.004286297 0.004480065
-0.0014059753 0.014577563 0.0038103997 0.008161368 0.010777524 0.0010754892 0.013062213 0.0060068555
-0.00067892525 0.0018052645 0.0061228597 0.0048573185 0.0073385905 -0.00054473884 -0.004613037 0.0031508438
0.009200703 -0.00392118 0.006082857 -0.010090288 -0.0030515424 0.011826506 0.0019132287 0.014262263
0.008982785 0.0029093015 0.005820773 0.0017540492 -0.0079769455 0.007054773 -0.00060989166 0.0028911973
0.003587454 -0.008171122 0.005315662 0.011608252 0.002081722 0.004118244 -0.0027276112 0.0049042967
0.0013750804 0.009243066 -0.0005443132 0.007876139 0.0085149715 0.010285133 0.0015479167 0.002419002
-0.003808676 0.0057036853 0.0027998707 0.0032448387 0.0035072365 0.0071316594 0.0009564214 0.00015972367
0.0010279313 0.011984175 0.0026163901 0.008003398 -0.0024572234 0.010464679 0.013277555 0.003552001
0.0053277407 0.006772684 0.00023979621 0.0064643607 0.010520227 0.005086206 -0.0023687263 0.0068470123
0.0057300124 0.0066427947 0.006114603 0.0040009245 0.010184684 0.0066840546 0.003914128 -0.0068393843
0.0101648765 0.0034495345 0.0049473518 -0.0057022865 -0.0040603476 0.00697333 0.009849569 0.001055033
0.0038474144 0.005684635 0.0048828702 0.010803333 0.013673829 0.0013294095 0.0014720071 0.013917943
0.0066609094 0.010220743 0.0019062114 -0.0049773827 0.008095263 0.0056868754 0.002992925 0.0013595456
0.0045243376 -0.007268224 -0.0031944741 0.00697912 0.01190815 0.00733516 0.003135136 -0.0014892066
0.003987838 0.010825599 -0.0030397796 -0.002085028 -0.00041897 0.007967033 0.0060789045 -0.00467314
0.007188629 0.008146854 0.009126957 -0.0016818384 0.0057607354 0.0033335604 0.0039238594 0.001280409
0.009417873 -0.0010628211 0.006044553 0.0025907878 -0.0042311386 0.004336974 -0.0002674019 0.0025404731
-0.0025323706 0.011083191 -0.0015959701 -0.002037662 0.0027543 0.011349077 0.0047282903 0.014885939
0.010943301 0.0010230675 0.003787994 0.0018162477 0.0019337916 0.004235489 -0.0056755748 0.00097517564
0.013474285 6.456601e-05 -0.0014333181 0.0028844825 0.0030179764 0.0012059456 0.0071989615 0.0069153486
0.003623232 6.699118e-05 0.006054638 0.007468119 0.0077958833 0.0007389187 0.002969158 -0.0023734139
0.004947542 -0.0052378913 0.0044324147 0.007796231 0.000904604 0.0045833993 0.006482498 0.0034267767
-0.002622564 0.013340042 0.0013554239 0.0103585925 0.010963237 0.0065370025 0.0037558265 0.0085317455
0.0029326912 0.0038777338 0.0028125322 0.0009797768 0.0063403277 -0.0019829955 0.0022623183 0.007215215
0.007613917 -0.0006199703 0.0007521773 0.0067812456 0.000986723 0.0057161786 -0.00095189 0.0021346027

network_body._body_endoder.seq_layers.2.weight f4 [256, 256]
00000000: 5016 b63b d05b 98bb 56b5 b5bc 5228 1d3d
00000010: 17a2 47bb ed71 08be 617d 983c 5c99 31bc
00000020: 68f4 283d e611 a43c b76b c23d d16b 843c
00000030: babe b23d 8e6b 483d ad2d 9b3a 451a 093d
00000040: c888 503d c91e 12bd 3fae 27bd feaf 38bc
00000050: a04d 763b 9191 3c3c 2e71 973d 7d47 c8bd
00000060: f86b 85bc 8110 6e3d 352b febb 9555 1a3d
00000070: f2c2 0dbd f550 59bc 2556 9c3c 25f6 073d
00000080: d446 d4bc a920 2c3d 4d6a 21be dece de3c
00000090: b86f a33d d47a 7d3d 5168 27bd b1ef eebb
000000a0: 1cb5 8ebc 2e33 5bbd 1b4c 8dbd eba1 4b3d
000000b0: e8f4 5bbc 7053 8f3d 343e 223d 111b 843d
000000c0: 0156 4bbd 7915 ba3d 00d7 9ebd fb2d 64bc
000000d0: b313 dd3d cf45 d03b 27ce e93d 054d 8c3d
000000e0: 97cd cebd 1544 b03d 5286 183d 421d e03d
000000f0: 795b 503d 23fa 9c3b 9958 ddbc d940 a73d
00000100: 1ed5 9cbd 4e1c ef3c 780f 3f3d ebba 86bd
00000110: 76f3 42be 3cf7 13bd 5f93 10be 31bb 063d
00000120: 5aa1 c43d f80e 143d c500 9c3c d65c 0d3e
00000130: f0e1 4cbd 4f7c d93b fe1e a63b e23d 9abd
00000140: 8624 d1bc ecb7 5bbd 3571 d1bc 6417 18bd
00000150: d0d0 903d 6f41 0ebc d06d ed3c 0b58 023d
00000160: 6816 ecbd 4b1d 85bd 9d93 943d 1a8e 31bd
00000170: 0ee6 783d 5591 023c d702 c83d 54c8 603d
00000180: 6b93 ebbc 2e06 19bc 6e09 4abd 272f 893c
00000190: 3f62 45bd 021b d43c 270f 32be 6b00 163e
000001a0: 8996 e8bd 56dc 00be f8fd 523d 053f 013d
000001b0: 8b8a 1a3d a05f 83bd d06d 303d 253f 87bd
000001c0: 1983 253e 9e0f cb3c 7d4e 9dbd e2b5 003e
000001d0: f13d a9ba 3c97 2cbd 7ab9 e1bc d4f5 533d
000001e0: 885c 65bd b30a 003d e313 123d f10d b33c
000001f0: e64f 14bc 4a82 97bc 516f 063d fbfb 113c
00000200: ef38 e6bb 4a6e 09bd 8ff1 283d 4f1c 2bbd
00000210: e4f5 1dbd d732 923d 5072 b8bc b818 a9bc
00000220: aab4 4abc 464b 07bd cdec 15bc 120c f53b
00000230: d33b 283d b393 523c dd5f db3c 5e68 583b
00000240: 35b8 203d 2967 2cbd ee79 1c3d c1e6 72bd
00000250: 7ab1 ccbd 721f ae3c 0ace 543d 5ab3 8b3d
00000260: d5c4 713d 23c9 6abc 576d 5d3b c95c d0bc
00000270: bb37 e6bd c811 d9bd 397e a4bd 00de 1dbd
00000280: 07fd b13d dd80 c73d 8cb1 b1bc 4904 653c
00000290: ad1c b2bc ca46 6ebd 2550 abbd c8ca a7bb
000002a0: b42e af3b a91f 48bd a564 943d 6a07 2bbd
000002b0: c528 843c 2fb5 21bd 8211 21bd fe7b 163c
000002c0: d4f9 823c 3d95 913d df44 b1bd 616e afbc
000002d0: 14a8 14bd 9a23 8f3c cf64 a4bd 6d09 a6bb
000002e0: 7263 edbc 8f38 f9bb a311 1dbd d8da 05bc
000002f0: bf6d 0abe 832b 173c f4f7 aebd 3fd0 31bd
00000300: e22f 7d3d 9ddd bebd 42c2 b73c 091b e9bb
00000310: 4d0b e83d f26c 0f3e 0819 aa3c a2e8 693d
00000320: 373b 62bd deec ac3b 937b 473d 3bc4 753d
00000330: 9f90 10bd e195 aa3b f365 ddbc 55e0 633c
00000340: a312 d23d c4d1 0fbc fd8d 1c3d 9970 ee3c
00000350: e923 463c f7e3 63bd 1dbc 113d 27e6 92bd
00000360: 81d3 90bc 4419 89bd 197c 14bd aaf3 a93c
00000370: b315 b0bc b9aa 12bc b689 f43c a2d4 e5bc
00000380: cdfc 0abc b712 793d 4375 823d d172 ed3c
00000390: 5d11 00be ed50 12bc aa1f 8bbc 84e6 2abd
000003a0: 7e98 8bbd 5e78 8fbd 9756 843c 6b93 c03a
000003b0: ab8d 76bd 44d9 2a3d 9b7a 3c3d a444 3e3d
000003c0: 1610 a13d 35aa 133e ef61 31ba 8d60 903c
000003d0: b86d 353d f437 ea3c 1a9c 3c3d 7e5d 96bd
000003e0: 7588 523d 3af8 7fbd b68e 643c ba27 28bd
000003f0: 6eb5 89bd febe 8a3d 5fb2 6f3c 6f4f 053d
0.005556859 -0.004649617 -0.022181194 0.03836853 -0.0030461603 -0.13324709 0.018614473 -0.010839786
0.04124871 0.020028066 0.09493201 0.016164692 0.087277845 0.048930697 0.0011839174 0.03347232
0.050911695 -0.03567389 -0.04093766 -0.011272429 0.003758289 0.011509315 0.07394634 -0.0977926
-0.016286835 0.058121208 -0.0077566155 0.037679274 -0.034609742 -0.013263931 0.019084046 0.033193726
-0.02591268 0.042023335 -0.15763207 0.027198251 0.07980293 0.061884716 -0.04087097 -0.007291757
-0.017420344 -0.053515606 -0.068992816 0.049714964 -0.013425089 0.06998336 0.039610103 0.06450475
-0.049642567 0.09086127 -0.07755852 -0.013926978 0.10794773 0.006355978 0.114162736 0.06850628
-0.10097807 0.086067356 0.037237473 0.109430805 0.050868485 0.004790561 -0.027019786 0.081666656
-0.076578364 0.029188301 0.04664561 -0.065786205 -0.19038185 -0.036124453 -0.14118718 0.032893363
0.09601088 0.036147088 0.019043336 0.13804945 -0.05002016 0.006637133 0.0050696125 -0.075313345
-0.025530111 -0.0536422 -0.025566677 -0.037131682 0.07071078 -0.008682593 0.028983027 0.031822246
-0.11527711 -0.06499728 0.072547175 -0.04334841 0.060766272 0.00796922 0.09766167 0.054878548
-0.028756818 -0.009339852 -0.0493254 0.016746117 -0.048189398 0.025891785 -0.17388593 0.14648597
-0.11356837 -0.12584051 0.051511735 0.03155424 0.03772978 -0.064147234 0.043073475 -0.06603841
0.16163291 0.02478772 -0.07680986 0.12569383 -0.0012912137 -0.042136416 -0.027554262 0.05174811
-0.055996448 0.031260204 0.035663497 0.021857234 -0.009052252 -0.018494744 0.032821003 0.0089101745
-0.00702583 -0.033552445 0.041245993 -0.041775044 -0.038564578 0.07138603 -0.022515446 -0.02064167
-0.012372175 -0.03303077 -0.009150696 0.0074782455 0.041072678 0.012852597 0.02677911 0.0033021192
0.039238174 -0.04209057 0.03820222 -0.059302095 -0.099947885 0.021255229 0.051954307 0.06821318
0.059025604 -0.014330181 0.0033787095 -0.025434868 -0.112410985 -0.10599095 -0.080318876 -0.038541794
0.08690839 0.097413756 -0.021691106 0.013978072 -0.02174219 -0.05817298 -0.08364896 -0.005120609
0.0053461436 -0.04885832 0.07245759 -0.041755117 0.016132722 -0.03947943 -0.039323337 0.0091848355
0.015988268 0.07108543 -0.08655714 -0.021414937 -0.036293104 0.01747303 -0.0802704 -0.0050670416
-0.028978083 -0.0076056193 -0.038346898 -0.008169852 -0.13518427 0.009226683 -0.08543387 -0.04341149
0.061813243 -0.09319613 0.022431497 -0.0071138185 0.113302805 0.14006403 0.020763889 0.05710662
-0.055232253 0.00527726 0.048701834 0.060001593 -0.03529417 0.0052058552 -0.027026152 0.013908465
0.10257461 -0.008778039 0.038221348 0.029106425 0.012093523 -0.055637326 0.03557979 -0.07172804
-0.017678978 -0.06694272 -0.03625116 0.02074607 -0.021494722 -0.008951836 0.029850822 -0.028055493
-0.008483124 0.060808863 0.06370022 0.028985413 -0.12506624 -0.008930427 -0.016982872 -0.041723743
-0.06816195 -0.0700538 0.01615457 0.0014692371 -0.0601937 0.041711107 0.046015363 0.04645218
0.07864396 0.14420398 -0.00067666074 0.017624164 0.04429409 0.028591134 0.046047308 -0.07342051
0.051399667 -0.062492587 0.013950041 -0.04105351 -0.06724058 0.0677471 0.014629929 0.032546457

network_body._body_endoder.seq_layers.4.bias f4 [256]
00000000: 586b da3a f17d 973b 4791 903b 812c a43b
00000010: e104 c93b 65a7 893b 3138 8d3b 0297 6039
00000020: 0f2f 4d39 a174 f53a 36af 6b3b 39c3 eaba
00000030: 34fa 603b efb9 f83b 6091 923b a0bc 2f3a
00000040: 50a6 9d39 6e21 f5ba cf65 c93b 6c56 2e3a
00000050: c73f 993b c7ae 273b 585c 633b c096 2e39
00000060: 73a0 e9b9 7861 293a 658b c239 27f1 e63b
00000070: 2734 393b 7e28 0a3c d173 d83b e20a f13b
00000080: 86fe 4ebb c109 973a 71d1 d83a 81c6 043b
00000090: beb4 103b a46a ad3b cca7 3c3b 7cb4 903b
000000a0: 7dcb 043b 5238 a03b b8a0 0a3b 10dc 8b3b
000000b0: fcde c63b 2466 c13b 1009 a03b c29b 323b
000000c0: 3f84 003b 3ba5 883b f535 9f3b 5794 4f3b
000000d0: b9b8 73bb 4511 c73b 5eb4 e73a fd1d be3b
000000e0: 5a00 173a 1c25 303b 0d20 643b 473c ea3b
000000f0: 0bb6 d03b 967a f139 7cbd b23a 1487 403b
00000100: cb4d afba 6d9c 00ba 7b39 7638 ab8b 923a
00000110: 4980 013a ea75 4fba 8615 ae39 34fa 623b
00000120: 9ff2 853b 317f c93b ec47 af3b 086b 723b
00000130: 16db ee3b c369 a13b 177f a93b a7bb 963b
00000140: 8de5 433b 09d0 743b cad2 293b 59f7 023b
00000150: f039 20ba 1ef6 c63a bb28 1b3b afce 703b
00000160: 522e 813b e77d 85ba 7624 6fba d589 c43a
00000170: 612b 693b 51ef 873b e484 373b ed47 f23b
00000180: 8ed9 66ba e113 b43b 463f a03b cf2f 9f3b
00000190: 918d 793b 0050 c43b f23b 5fba e1b4 ed3b
000001a0: 6004 89ba df88 413b d515 09b9 973a 383b
000001b0: 1c66 8b3b e528 3aba a08f b83b 4fb2 1f3b
000001c0: ce84 b23b 034c d13a df8c 0d3b 77c9 be3b
000001d0: da2b 003b cbf4 8b3b 7e30 963b 42a1 063b
000001e0: bd35 173b 4fa2 4e3b 4669 f13b 8345 393b
000001f0: ea6e 2ab8 b002 523a 3267 b03b aaf1 0e3c
00000200: 4ac4 68b8 7ca8 2c3a 18a9 55bb 346b 463b
00000210: 42d3 e93a b0fe 96bb 50e7 a9ba 3642 8d3b
00000220: a198 6abb 4124 44b8 6269 2cbb 2c86 3639
00000230: 9e4f 683a 44c5 913b c01f 0cbb 3135 2f3b
00000240: 0014 913b 7c24 893b 76d8 813b a21f c93b
00000250: 0cc4 ca3b 0907 3a3b 453c 9839 afd3 d9ba
00000260: 5d5b d33a 12f2 0c3c 0281 ee3b 6750 023b
00000270: 7d92 c83b def9 203c f183 873b f0d9 35b9
00000280: b562 bf3b bc78 303b 34f3 d93b 75ae c53a
00000290: 3083 d23b a6c2 613b 56c0 d93b 8207 1a3b
000002a0: e360 653b a66f af3b 5ae8 933b e8d0 50bb
000002b0: 4366 5a3b 4986 493a 6562 4e3b f7ca b83b
000002c0: 58ab 9c3b 64bb ea3a 8169 1aba 7d0c 493b
000002d0: 1ca3 be3a 4c8b 3c3b c47b 653b 51f0 db3b
000002e0: 314b 893b 448e 91bb 7822 3d3b 4805 303b
000002f0: f5c9 7c39 13e8 fa3b fdfd 9f3b 1feb 273b
00000300: 1845 4b3b 5c6f b53b 77c2 d43b cc4b 003c
00000310: 0123 3a39 5bea 7eba 2409 123b e740 433b
00000320: c8ca 9f3b 3cab 813b 2255 703b eb05 623b
00000330: 7290 fd3a 72e1 993b 6ce9 f1ba 98b5 193c
00000340: 4747 003c ac28 7f3a 6e93 113b 8ff0 813b
00000350: 4549 f93b 4e6f 013c c0f0 cbba 4134 9a3b
00000360: 3806 4cbb 6b70 daba 5e77 2fba ce70 a8bb
00000370: 39ae 313b 4411 983b ed5d d33b 203c 503b
00000380: 7879 e63a b2fc 673b 536c 36b8 d57b e93b
00000390: 7e46 be38 e92a 783b ac23 8f3b 2f7e 9c3b
000003a0: c05a f03b 3437 3f3b d082 053b 089d 2eba
000003b0: 48c5 bd3a 521f 20bb 384f 813b b023 56bb
000003c0: 3dcb 743b 1bc9 aa3a 6d48 abba 2648 58bb
000003d0: e9f5 c53a acd0 43bb 8186 c93b a4aa 1bba
000003e0: 5ca3 4739 e680 783b 56be 783b f2c7 2c3b
000003f0: 98ff 803b 7bf9 8a3b 34c5 493a df62 3abb
0.0016664071 0.0046231677 0.0044118497 0.005010188 0.006134615 0.004200863 0.004309677 0.0002141856
0.00019567854 0.0018726775 0.0035962588 -0.0017910964 0.003432882 0.0075905244 0.0044728965 0.00067038275
0.00030069286 -0.001870198 0.0061461697 0.0006650451 0.0046767923 0.0025586353 0.0034692492 0.00016650092
-0.00044560767 0.00064613624 0.0003710642 0.0070477906 0.0028259845 0.008432506 0.0066056033 0.0073560337
-0.0031584813 0.0011523293 0.0016541911 0.002025992 0.0022080387 0.0052922536 0.0028786538 0.0044160467
0.002026289 0.0048895264 0.0021152925 0.004268177 0.0060690623 0.0059020687 0.004883893 0.0027253483
0.0019610075 0.0041700876 0.004858727 0.003167411 -0.003718896 0.0060750567 0.0017677655 0.0058019147
0.0005760245 0.0026877588 0.0034809143 0.007148299 0.0063693575 0.00046058436 0.0013636793 0.0029377388
-0.0013374625 -0.0004906122 5.8704503e-05 0.001118054 0.00049400755 -0.0007913994 0.00033203902 0.0034633996
0.0040877606 0.0061491956 0.00534915 0.0036990065 0.0072893007 0.004925938 0.005172621 0.0046000066
0.0029891462 0.0037355444 0.0025912994 0.0019983856 -0.0006112149 0.001517955 0.00236754 0.0036744287
0.0039422894 -0.0010184617 -0.00091225596 0.001499469 0.0035578834 0.004148402 0.0028002793 0.007393828
-0.0008806222 0.005495534 0.0048903553 0.004857994 0.0038078765 0.005990982 -0.00085157074 0.0072542285
-0.0010453574 0.0029531044 -0.00013073471 0.0028111094 0.0042541157 -0.00071014307 0.005632356 0.0024367755
0.0054479605 0.0015968088 0.0021598858 0.0058223563 0.0019557388 0.004271125 0.0045834174 0.0020542894
0.0023072802 0.003152985 0.007367286 0.0028270192 -4.0634455e-05 0.0008011265 0.0053833956 0.008724609
-5.549592e-05 0.00065863854 -0.0032602008 0.00302763 0.0017839449 -0.004607998 -0.0012962613 0.0043108715
-0.003579654 -4.6763806e-05 -0.002630793 0.00017406855 0.00088619615 0.0044485647 -0.002138123 0.0026734585
0.004427433 0.0041852575 0.0039625717 0.006137804 0.0061879214 0.002838554 0.00029036604 -0.0016618873
0.0016125251 0.008602636 0.0072785625 0.001988435 0.0061209784 0.009825198 0.0041356017 -0.00017342693
0.005840624 0.0026927432 0.0066513065 0.00150819 0.00642433 0.0034448295 0.0066452427 0.002350301
0.0035000376 0.0053538857 0.0045137824 -0.00318628 0.0033325113 0.00076875516 0.0031491753 0.0056394297
0.004781168 0.001790863 -0.0005890355 0.003067761 0.001454446 0.002876955 0.0035016397 0.0067119976
0.0041898717 -0.004442008 0.0028859656 0.0026858617 0.00024107828 0.00765706 0.0048825727 0.002562232
0.0031016525 0.0055369567 0.0064929086 0.007830571 0.00017751382 -0.0009724253 0.002228328 0.0029793323
0.0048764683 0.0039571803 0.0036671837 0.003448839 0.0019345416 0.0046960646 -0.0018456406 0.009381674
0.007829494 0.00097335386 0.002221312 0.0039654444 0.0076076114 0.007900072 -0.001555942 0.004705936
-0.0031131636 -0.0016665583 -0.00066935073 -0.0051404005 0.0027111901 0.00464073 0.006450406 0.0031774119
0.0017583808 0.003539842 -4.3493066e-05 0.0071253576 9.073036e-05 0.0037867373 0.004368266 0.0047757844
0.007335037 0.002917719 0.002037216 -0.0006660973 0.001447835 -0.002443273 0.003946211 -0.003267508
0.0037352585 0.0013029905 -0.0013067849 -0.0033001988 0.0015103194 -0.0029879017 0.0061500673 -0.0005938208
0.00019038975 0.0037918626 0.0037955246 0.0026364294 0.003936719 0.004241166 0.0007696927 -0.002844028
