results/Run 13/AgentController/AgentController-291510.onnx (onnx, 657373 bytes, 14 tensors)

83 f4 [116]
0.28322557 0.15364312 0.24424776 0.2759089 0.29960278 0.15367447 0.2641198 0.27823186
0.26718277 0.15403539 0.22410938 0.27262396 0.30944705 0.1531533 0.27614093 0.2793921
0.25634792 0.15322825 0.21085183 0.27116665 0.31963927 0.14722821 0.29083472 0.2814768
0.24636127 0.15329194 0.19779868 0.268631 0.32694888 0.14702715 0.29938662 0.28253767
0.23865607 0.15312125 0.18769866 0.2657086 0.3298472 0.1504072 0.30134496 0.2831932
0.2308299 0.14455143 0.18398027 0.26460633 0.3343108 0.159521 0.30265364 0.28517765
0.23052034 0.14641264 0.1821322 0.26291108 0.3333658 0.16713242 0.29800546 0.28713357
0.23171824 0.1473502 0.18295424 0.2616645 0.31882086 0.17067866 0.27847177 0.28741184
0.2387315 0.1562636 0.18524304 0.26003325 0.30325282 0.17549475 0.25614116 0.28637022
0.24773777 0.16749087 0.18810561 0.2587359 0.29366243 0.18596187 0.23638673 0.28306258
0.25898924 0.17845018 0.19433793 0.25898737 0.28358534 0.1908032 0.2185997 0.27889943
0.2627476 0.18465628 0.1940687 0.258461 0.27721947 0.19126755 0.209125 0.27505666
0.27037925 0.19608475 0.19433807 0.2591868 0.27956295 0.1958441 0.2083341 0.27147183
0.27380592 0.2002576 0.19533534 0.26223072 0.27882335 0.20252492 0.20075047 0.26647854
0.27882335 0.20252492 0.20075047 0.26647854
00000000: f102 913e 9f54 1d3e 161c 7a3e ee43 8d3e
00000010: 8965 993e d75c 1d3e b63a 873e 6874 8e3e
00000020: 2ecc 883e 74bb 1d3e ee7c 653e 5e95 8b3e
00000030: d86f 9e3e 38d4 1c3e 5862 8d3e 7b0c 8f3e
00000040: 0940 833e dee7 1c3e 8be9 573e 5bd6 8a3e
00000050: c2a7 a33e fec2 163e 4ae8 943e ba1d 903e
00000060: 2146 7c3e 90f8 1c3e bd8b 4a3e 018a 893e
00000070: d865 a73e 498e 163e 3449 993e c7a8 903e
00000080: 4262 743e d1cb 1c3e 1434 403e f50a 883e
00000090: bbe1 a83e 5804 1a3e e349 9a3e b3fe 903e
000000a0: ac5e 6c3e 4a05 143e 5365 3c3e 7b7a 873e
000000b0: c92a ab3e 7959 233e 6bf5 9a3e ce02 923e
000000c0: 860d 6c3e 32ed 153e dd80 3a3e 489c 863e
000000d0: ecae aa3e c324 2b3e 2c94 983e 2c03 933e
000000e0: 8c47 6d3e f9e2 163e 5b58 3b3e e4f8 853e
000000f0: 7d3c a33e 63c6 2e3e da93 8e3e a527 933e
00000100: 0876 743e 9103 203e 5ab0 3d3e 1423 853e
00000110: f443 9b3e e5b4 333e ef24 833e 1e9f 923e
00000120: f8ae 7d3e ba82 2b3e c29e 403e 0879 843e
00000130: ec5a 963e ca6c 3e3e 5d0f 723e 94ed 903e
00000140: 3d9a 843e a5bb 363e 8600 473e fe99 843e
00000150: 1932 913e ea61 433e 9ad8 5f3e e8cb 8e3e
00000160: da86 863e 8916 3d3e f2b9 463e 0055 843e
00000170: b6ef 8d3e a4db 433e dd24 563e 3ad4 8c3e
00000180: 266f 8a3e 71ca 483e 8f00 473e 22b4 843e
00000190: e022 8f3e 5b8b 483e 8955 553e 5bfe 8a3e
000001a0: 4a30 8c3e 5410 4d3e fd05 483e 1b43 863e
000001b0: efc1 8e3e b162 4f3e 8891 4d3e e06f 883e
000001c0: efc1 8e3e b162 4f3e 8891 4d3e e06f 883e

86 f4 [3]
6.768838 0.0048831496 10.938693
00000000: 529a d840 d402 a03b e304 2f41

action_model._continuous_distribution.log_sigma f4 [1, 2]
0.012505837 0.0022399626
00000000: 48e5 4c3c 56cc 123b

action_model._continuous_distribution.mu.bias f4 [2]
-0.00045795026 0.002698136
00000000: 0b19 f0b9 36d3 303b

action_model._continuous_distribution.mu.weight f4 [2, 256]
-0.022037804 -0.021006584 0.004435306 0.012098945 -0.023362722 -0.012834702 0.008717911 -0.010753481
-0.009411455 -0.0029950717 0.0020264685 0.009692737 0.003549287 0.001673898 -0.0028780566 -0.0033594195
-0.0018788243 0.0037099114 0.00045730238 0.012282352 0.00032470282 0.010903837 0.0016482598 -0.005869064
-0.032894265 -0.0030251348 0.00047476075 -0.010046289 -0.009481619 -0.00013948312 -0.002285024 0.021800019
-0.0019878915 0.015176796 -0.0045921584 0.010277427 -0.00014310583 -0.002525868 0.025442973 -0.013770292
0.0074918126 -0.0074338075 -0.016605454 -0.0026882957 -0.007185673 0.0018595904 0.017923128 0.0061708707
0.017161515 0.002533114 0.0056008 0.002336881 0.026527036 0.016455522 -0.008989671 0.0009778652
0.009250037 -0.006308501 -0.01087096 0.007121794 0.015873658 -0.02297543 0.0034860559 -0.0145392725
-0.0051178816 -0.00495325 0.009167999 0.0020439643 -0.014310687 0.008202259 0.022275755 -0.012840582
-0.0184261 -0.004159041 -0.010994868 -0.0037587816 -0.02098241 0.0017961854 -0.011046998 -0.01465448
-0.022457441 -0.0052466295 -0.016585477 -0.012935125 0.004130215 -0.021820683 0.013863463 0.010905929
0.023917805 0.0151347425 0.017929489 0.007952486 0.009216183 0.028086783 -0.0066765314 0.020179868
-0.003247109 -0.0022200437 -0.004854379 -0.009862589 0.007922478 -0.012156492 0.024300946 0.0050236746
-0.001777725 -0.032702293 -0.00785649 -0.008573372 -0.011553926 -0.009479093 -0.0032482923 0.018754715
0.0072919033 -0.01121944 -0.007215897 0.008647836 0.012875567 -0.014901606 -0.0155979125 -0.015357304
0.010224691 -0.032137033 -0.006372225 0.0004708805 -0.00051267963 0.0037899439 -0.021210467 -0.009793163
-0.0013178793 -0.025362402 -0.00918483 -0.005855083 -0.0036976892 -0.018818641 0.0058398168 0.017247625
0.028678983 -0.008159994 0.009863184 -0.0063642254 -0.013070278 0.013442762 -0.009107965 0.0011688404
-0.028175322 0.0002533436 0.03475148 -0.010856174 -0.008371463 0.022298116 -0.004098872 -0.023628587
-0.004784948 -0.01316888 -0.010952182 0.0008464254 0.013695965 -0.01000632 -0.008262451 -0.015413966
0.012913288 0.015394144 0.013018467 0.008227423 0.014783204 0.0017041536 0.0026926913 0.0032160226
0.005627075 0.0032312202 -0.01356883 0.0077100233 0.0071625886 -0.038855113 0.012662353 0.012536173
0.00058336824 -0.00023226577 0.028510403 0.012825091 -0.013884686 -0.02346324 -0.015562766 -0.027550276
0.02971522 0.0028324446 -0.0028087306 -0.010833271 0.0010392877 -0.020284876 -0.0019941584 0.008657748
0.006469037 0.0011263376 -0.0029644377 0.0055831023 0.021616766 0.014140427 -0.011078769 -0.006019488
0.012531479 -0.019707594 -0.0020034222 0.023380658 0.014285919 -0.013793708 0.0033828889 -0.0093777515
0.0013274337 0.00279949 0.008288284 0.0025836357 0.005823922 -0.008315325 -0.029479016 0.0089754965
0.004501404 -0.0072529004 0.030875208 0.0056578997 0.0053284783 0.036504634 0.010655877 0.008100857
-0.020529114 -0.01419982 0.007449523 -0.006535644 -0.0074409125 -0.023593359 0.02805957 0.01624232
0.014851825 0.016984038 -0.009586695 -0.01438792 0.031269416 -0.023760894 -0.0024704686 -0.009557925
0.02562199 0.015798328 -0.0014569403 -0.025437167 0.011224679 0.016991034 0.006631499 -0.013506677
-0.017128244 -0.0141825015 -0.0074637486 0.02898539 -0.015010661 0.018560566 -0.008580491 0.003468955
00000000: a088 b4bc 0016 acbc 0b56 913b a73a 463c
00000010: 2e63 bfbc a448 52bc 92d5 0e3c 5e2f 30bc
00000020: 8132 1abc f748 44bb 80ce 043b 49ce 1e3c
00000030: 289b 683b b266 db3a c79d 3cbb b529 5cbb
00000040: e242 f6ba fc21 733b 16c2 ef39 eb3b 493c
00000050: e03c aa39 02a6 323c 6c0a d83a 4751 c0bb
00000060: 23bc 06bd 5741 46bb 4fe9 f839 3199 24bc
00000070: cb58 1bbc 3742 12b9 57c0 15bb f495 b23c
00000080: 4947 02bb 19a8 783c d179 96bb a762 283c
00000090: ae0e 16b9 0889 25bb c86d d03c ca9c 61bc
000000a0: e17d f53b 4c97 f3bb 2908 88bc 1e2e 30bb
000000b0: cb75 ebbb 80bd f33a 86d3 923c 0435 ca3b
000000c0: 4e96 8c3c 9a02 263b ea86 b73b 5b26 193b
000000d0: 3a4f d93c bbcd 863c 6a49 13bc b62b 803a
000000e0: 788d 173c 8bb7 cebb 1c1c 32bc f05d e93b
000000f0: 7909 823c f836 bcbc 5076 643b 2136 6ebc
00000100: e7b3 a7bb df4e a2bb 6035 163c 08f4 053b
00000110: 5f77 6abc c562 063c a57b b63c 4e61 52bc
00000120: 55f2 96bc 9148 88bb d223 34bc e455 76bb
00000130: 4ee3 abbc fb6d eb3a 78fe 34bc 5819 70bc
00000140: abf8 b7bc ebeb abbb 44de 87bc d9ed 53bc
00000150: c156 873b 4ac1 b2bc 9423 633c c8ae 323c
00000160: 46ef c33c b6f7 773c dde0 923c 254b 023c
00000170: 79ff 163c 4116 e63c cec6 dabb 4050 a53c
00000180: 73cd 54bb 277e 11bb 7c11 9fbb b296 21bc
00000190: 48cd 013c 062c 47bc c712 c73c a39d a43b
000001a0: 8d02 e9ba d7f2 05bd 82b8 00bc 5477 0cbc
000001b0: ae4c 3dbc 334e 1bbc 4de1 54bb 7da3 993c
000001c0: ebf0 ee3b bed1 37bc 5573 ecbb a7af 0d3c
000001d0: 0bf4 523c de25 74bc 638e 7fbc 349d 7bbc
000001e0: 7685 273c 1fa2 03bd 19ce d0bb 83e0 f639
000001f0: 5965 06ba b560 783b 93c1 adbc 8173 20bc
00000200: b1bc acba d0c4 cfbc f87b 16bc ffdb bfbb
00000210: ee54 72bb 8d29 9abc ef5b bf3b e44a 8d3c
00000220: 30f0 ea3c 7fb1 05bc 3199 213c fe8a d0bb
00000230: b824 56bc 083f 5c3c 9339 15bc c733 993a
00000240: efcf e6bc 34d3 8439 9157 0e3d 18de 31bc
00000250: 7628 09bc 8aaa b63c d54f 86bb bd90 c1bc
00000260: 0ecb 9cbb 49c2 57bc c870 33bc a6e2 5d3a
00000270: 0a65 603c 8cf1 23bc 3b5f 07bc dc8a 7cbc
00000280: 4192 533c b837 7c3c 694b 553c 50cc 063c
00000290: 4035 723c e85d df3a dd77 303b e8c3 523b
000002a0: 5463 b83b e1c2 533b cc4f 5ebc 5da4 fc3b
000002b0: 26b4 ea3b 8a26 1fbd c275 4f3c 8564 4d3c
000002c0: 2eed 183a 5e8c 73b9 a68e e93c 5520 523c
000002d0: 987c 63bc fb35 c0bc f9fa 7ebc 1eb1 e1bc
000002e0: 556d f33c 89a0 393b ae12 38bb 087e 31bc
000002f0: b538 883a 782c a6bc 6db0 02bb 3ad9 0d3c
00000300: 37fa d33b 9ea1 933a 0347 42bb 75f2 b63b
00000310: a515 b13c 40ad 673c ba83 35bc 203f c5bb
00000320: d550 4d3c d271 a1bc d94b 03bb cb88 bf3c
00000330: 7d0f 6a3c 01ff 61bc 75b3 5d3b 24a5 19bc
00000340: 49fd ad3a a677 373b 95cb 073c 3752 293b
00000350: 99d6 be3b 003d 08bc fa7d f1bc f60d 133c
00000360: 8380 933b bda9 edbb 01ee fc3c e765 b93b
00000370: 849a ae3b e285 153d fd95 2e3c 75b9 043c
00000380: ac2c a8bc 5da6 68bc 211b f43b f528 d6bb
00000390: e6d2 f3bb dc46 c1bc 2fdd e53c 9d0e 853c
000003a0: 1255 733c 1c22 8b3c 8311 1dbc 4fbb 6bbc
000003b0: 5c14 003d 35a6 c2bc 96e7 21bb d898 1cbc
000003c0: 35e5 d13c 7f6b 813c cef6 beba 9b61 d0bc
000003d0: b7e7 373c c830 8b3c 0c4d d93b 1c4b 5dbc
000003e0: 8850 8cbc b95d 68bc 7692 f4bb c572 ed3c
000003f0: 47ef 75bc 540c 983c 3095 0cbc 6857 633b

action_model._discrete_distribution.branches.0.weight f4 [1, 256]
-0.0014482122 -0.005426055 0.002530813 -0.0028746177 -0.0049370243 -0.0026139112 0.0064739175 0.004517763
0.004211878 -0.0054848082 0.00607242 -0.0037025195 -0.00994642 -0.0062816623 -0.0029026554 0.001250494
0.005388375 0.0021014765 -0.0049093436 0.0014530364 -0.0024965645 0.00017583712 0.005343241 -0.002317597
0.005541371 -0.005115411 0.003675354 0.00032631084 -0.0024624558 0.0059719216 -0.0034259711 0.0099649085
-0.0019108255 -0.0024910972 0.0020068025 0.004659142 -0.0029485354 0.0026769233 0.0045416476 0.008396463
0.0052469373 0.0052611856 -0.0013616589 -0.0003417269 0.0027841784 0.0013410565 -0.007882643 0.0030056862
0.0033935916 -0.009676381 -0.00084825885 0.005363131 0.00020357338 0.002958996 -0.015334167 -0.002791939
-0.0063244104 -0.0054025776 0.010010732 0.0014936732 0.004991236 -0.006670566 0.008131729 0.0017850259
0.0024215884 -0.00036398854 -0.0022605862 0.0014177385 0.0016766547 -0.0063825003 -0.0027969368 0.004117764
-0.0003141669 0.0036048514 0.00078910415 -0.0031653368 0.0016148066 -0.0119621605 -0.0006733937 -0.0033559643
-0.004657408 -0.007120733 -0.010832074 0.00035587067 -0.0038422563 -0.0010142882 -0.011961565 -0.008654674
-0.0011917104 0.0017638922 0.005056105 -0.011527597 0.003726501 0.0017949019 0.0014947235 -0.0011292787
0.0050460263 0.00030323214 0.0038414157 0.0007179809 0.0036495847 -0.00033761768 -0.015000588 0.0020090647
0.0062305164 0.010686338 -0.0023085324 0.0022660173 -0.012525289 -0.007935684 0.0016696163 0.0018068487
0.0030501832 0.011989575 0.004304554 -0.007336835 -0.0026322075 0.00035022604 0.0037535478 -0.0059540845
-8.660703e-05 -0.0029719314 -0.010588637 -0.00039833944 0.0062348135 0.00736475 0.0037718897 -0.0065791244
-0.003116231 0.004840334 0.00051765575 -0.0016454395 0.003323255 0.010939657 -0.0056688283 -0.0009045588
0.0024554855 0.004643666 -0.0013905074 0.0078001777 -0.00611022 0.00035130544 -0.006766955 -0.0020429827
0.0070263296 0.006092989 -0.00066725 0.011202153 0.0040685544 -0.009966671 -0.0019344114 0.0013650601
0.0011188304 0.0014525935 -0.00045140987 -0.008272885 -0.004561385 0.0026303374 0.0013967854 0.0037940778
0.0023855253 -0.002611849 0.0028976079 -0.001217236 -0.008109068 -0.0011076679 0.000874706 -0.008891312
-0.010164157 0.009194779 -0.0025071811 0.0017091656 0.004027408 0.0036877913 0.0009298958 -0.001902476
0.0035014127 -0.0023258494 0.0069108806 -0.004179433 -0.00012701353 -0.0099443365 -0.001655935 0.0020227127
0.003216654 -0.005209196 -0.0104620205 -0.0030603034 -0.00878081 0.0063708737 0.0031105776 -0.0010926473
0.0020096514 0.008133517 -0.0029822707 0.004543438 0.0038005586 0.015251673 0.0038309407 -0.005957914
-0.008168272 -0.002623466 0.006881506 0.0006970455 0.008419341 -0.0035040092 0.005210627 -0.0054896385
0.0037472069 0.009987962 -0.006664835 -0.00755335 0.0060109026 -0.012278017 -0.0062039667 -0.008491374
-0.00069626793 0.010202139 0.0027874575 0.0013030571 0.0040726084 0.0016457491 5.291257e-05 0.0057398803
-0.003701351 0.014561372 0.004001046 -0.0031126828 0.0019152465 -0.010299309 0.01364014 -0.0027933752
0.004191393 -0.0027062497 -0.0066650803 0.0016057835 0.0051862164 0.0006236287 -0.0090414025 1.4076643e-06
0.0069246213 0.0050690346 0.004411348 -0.004321289 -0.0092319725 0.008130276 0.0068567167 0.00047402355
0.005216272 -0.0106369825 -0.007569635 0.007263796 -0.002594373 0.004913786 -0.0018398011 -0.011394434
00000000: f0d1 bdba 0ccd b1bb ffdb 253b 1564 3cbb
00000010: c3c6 a1bb 274e 2bbb 2823 d43b be09 943b
00000020: cb03 8a3b e8b9 b3bb 27fb c63b f8a5 72bb
00000030: 4ff6 22bc 67d6 cdbb 7a3a 3ebb 9ee7 a33a
00000040: f790 b03b edb8 093b 8fde a0bb d073 be3a
00000050: 679d 23bb eb60 3839 5b16 af3b d3e2 17bb
00000060: 6494 b53b 2d9f a7bb 35de 703b b314 ab39
00000070: 2761 21bb 1cb0 c33b 4286 60bb db43 233c
00000080: aa74 faba ad41 23bb 8f84 033b b7ab 983b
00000090: 373c 41bb 526f 2f3b 1ad2 943b 5191 093c
000000a0: 80ee ab3b 0666 ac3b b179 b2ba cf29 b3b9
000000b0: c376 363b 64c6 af3a 3326 01bc 0cfb 443b
000000c0: 0567 5e3b af89 1ebc b05d 5eba 34bd af3b
000000d0: 5076 5539 b7eb 413b 283c 7bbc f7f8 36bb
000000e0: 003d cfbb 1b08 b1bb 0e04 243c 5bc7 c33a
000000f0: 868d a33b c394 dabb f23a 053c 88f7 e93a
00000100: 83b3 1e3b b7d5 beb9 5826 14bb 69d3 b93a
00000110: 32c3 db3a 4b24 d1bb d04c 37bb 4fee 863b
00000120: c4b6 a4b9 5f3f 6c3b e2db 4e3a 8a71 4fbb
00000130: eba7 d33a f0fc 43bc b086 30ba bdef 5bbb
00000140: 2c9d 98bb 0a55 e9bb 0379 31bc 2794 ba39
00000150: 5dce 7bbb ddf1 84ba 71fa 43bc 55cc 0dbc
00000160: 2a33 9cba 6732 e73a afad a53b 3fde 3cbc
00000170: 5038 743b ea42 eb3a 99ea c33a 4e04 94ba
00000180: 2359 a53b 21fb 9e39 43c0 7b3b e236 3c3a
00000190: df2d 6f3b 4702 b1b9 07c5 75bc 83aa 033b
000001a0: 5c29 cc3b c015 2f3c bf4a 17bb 7681 143b
000001b0: df36 4dbc ac04 02bc 07d7 da3a c8d3 ec3a
000001c0: 95e5 473b ec6f 443c 370d 8d3b d569 f0bb
000001d0: 1d81 2cbb 8b9e b739 15fe 753b 7b1a c3bb
000001e0: cca0 b5b8 bcc4 42bb f67b 2dbc 37d8 d0b9
000001f0: 684d cc3b 0054 f13b cf31 773b b295 d7bb
00000200: ae39 4cbb aa9b 9e3b 4ab3 073a caab d7ba
00000210: f8ca 593b 3f3c 333c 94c1 b9bb ea1f 6dba
00000220: 36ec 203b e529 983b b041 b6ba a298 ff3b
00000230: 3e38 c8bb 6b2f b839 55bd ddbb 90e3 05bb
00000240: 203d e63b b2a7 c73b 64ea 2eba 3c89 373c
00000250: 8251 853b 3f4b 23bc 138c fdba d1eb b23a
00000260: b8a5 923a f364 be3a 35ab ecb9 ff8a 07bc
00000270: ac77 95bb bd61 2c3b 5714 b73a 10a6 783b
00000280: 7956 1c3b 8e2b 2bbb cbe5 3d3b aa8b 9fba
00000290: e5db 04bc 2b2f 91ba 874c 653a deac 11bc
000002a0: 9087 26bc b3a5 163c 854f 24bb 1506 e03a
000002b0: 59f8 833b dfae 713b 40c4 733a 805c f9ba
000002c0: f577 653b 476d 18bb ab74 e23b a0f3 88bb
000002d0: ef2e 05b9 92ed 22bc f50b d9ba 7d8f 043b
000002e0: 80ce 523b e7b1 aabb e568 2bbc 5f8f 48bb
000002f0: 63dd 0fbc c3c2 d03b d5da 4b3b 2937 8fba
00000300: 5bb4 033b 7142 053c 3372 43bb 1fe1 943b
00000310: cb12 793b 27e2 793c 8510 7b3b 9b3a c3bb
00000320: 37d4 05bc 75ee 2bbb 427e e13b efb9 363a
00000330: 47f1 093c 85a3 65bb e8bd aa3b 6de2 b3bb
00000340: b393 753b 8da4 233c b064 dabb 1882 f7bb
00000350: 1bf7 c43b bc29 49bc a54a cbbb 671f 0bbc
00000360: c085 36ba df26 273c c7ad 363b 57cb aa3a
00000370: 8473 853b 2db6 d73a 70ee 5d38 9b15 bc3b
00000380: 5d92 72bb d292 6e3c 351b 833b 27fe 4bbb
00000390: 0209 fb3a 6fbe 28bc e57a 5f3c 0f11 37bb
000003a0: f457 893b 565b 31bb bf66 dabb 2779 d23a
000003b0: 23f1 a93b 037b 233a 6422 14bc faee bc35
000003c0: efe7 e23b 251a a63b 128d 903b 9999 8dbb
000003d0: b341 17bc d934 053c 4fae e03b 5d86 f839
000003e0: 43ed aa3b bd46 2ebc b30a f8bb 2305 ee3b
000003f0: 5b06 2abb d303 a13b 7b25 f1ba b8af 3abc

network_body._body_endoder.seq_layers.0.bias f4 [256]
0.00096212846 0.0048314845 -0.0018971091 0.0034832847 0.010789523 -0.0024375385 0.0024819744 0.007456495
0.0005679026 0.0054776245 0.0020794887 -0.005250818 0.002605903 -0.0017776585 0.008126965 0.0012134713
-0.00045452325 5.405342e-05 -0.00010495643 7.457231e-05 -0.0029584705 0.0039180596 0.00614777 -0.00019186898
-0.0007704653 -0.00026281003 0.0019366777 -0.0041156956 -0.00019099822 0.0049412916 0.003570302 0.0037954992
0.0024102763 0.00152397 -0.0018221473 0.0019945584 0.0022727342 -0.0002829075 0.00030606674 0.00021496798
-0.002659667 0.004504615 -0.00044475397 0.0046491316 -0.0015519849 -0.002455388 -0.005055565 -1.94472e-05
0.0030502267 -0.003319146 0.004359988 -0.002682296 0.0022371209 0.006575582 0.0014259916 0.0064631845
0.002749993 -0.0020276026 -0.00079089165 0.0022949812 -0.00486794 -0.0023870175 0.0024051766 0.00077996246
-0.0019743987 -0.0011820834 -0.0009533213 0.00049850735 0.0009997485 -0.00039593942 -0.0028432258 0.005406627
-0.003375798 -0.0006224754 -0.0014916965 -0.002780308 0.0025526013 -0.00696796 0.0010819356 -0.00040053867
0.0105038965 0.002340841 0.0071433745 -0.0035502824 -0.0026607276 0.0037089663 0.001058604 0.0017199068
-0.0007659387 0.0021642768 0.00015277532 -0.0025480436 7.235651e-05 0.0067559932 0.0041882917 0.004522545
0.00067351846 0.005266633 0.00030833486 -0.000737556 0.0097688995 0.009349643 0.0077860095 0.002747883
0.004919982 -0.0017811313 0.003603507 -0.002431657 0.0011416461 0.00027131042 -0.003914806 0.00046494286
0.007106757 -0.00050916796 -0.0031915875 0.0024216576 -0.0031958465 0.0011876327 0.0020051412 0.0026562943
0.0039911643 4.989654e-05 -9.8116e-05 -0.002178376 -0.0012938459 -0.0025388778 -0.003756503 0.0057803136
-0.0030211944 -0.0004334811 -0.004183917 0.003682807 0.0032033154 -0.001212836 0.004414247 0.0012589431
0.002136559 0.003225452 0.006186747 -0.0019192657 0.000119717806 0.002988294 -0.0054671625 0.00085223507
-9.5670184e-05 0.0006191898 0.0018073379 0.003012239 0.003220559 -0.00043947517 -0.00042949922 -0.0012017644
0.00062017346 0.0001297075 -0.0011185254 0.0076568034 0.007049259 0.0049879453 0.000810039 -0.001217505
-0.0013643902 0.004059038 0.006696269 -0.0047290777 -0.0028284763 0.0021894765 -0.0010758215 0.0010974174
-0.0005856993 0.004522338 0.0012709334 -0.0032242686 0.001661601 -0.005333768 0.0016740173 -0.0006795943
-0.003964963 0.0028780496 0.0030124725 0.0053450777 -0.0011689098 0.012887031 0.0012279933 -0.0011422267
-0.0017027986 -0.0005935021 -0.0039052237 -0.0026716539 -0.0006979448 0.0023616184 -0.003124819 0.0023659398
0.0010086822 -0.0005745329 -0.00016550612 -0.004904509 0.0037883616 0.004166998 -0.0005987251 -0.0040599117
-0.0017534547 0.0047543296 -0.0023789203 -0.0054998584 0.008106962 -0.0034859276 -0.0038188375 0.0022978382
0.0025509156 -0.0005589779 9.603859e-07 0.006841254 0.0020430235 -0.00060807256 -0.00060774555 -0.0019288723
-0.0013242342 -0.0037241208 0.0008852632 0.0028990407 0.0011369099 0.0036461307 0.0020068157 0.0027823097
-0.0027335777 0.0028054153 -0.0041885967 0.0014735084 -0.0008249853 -0.0026239627 -0.0033063148 -0.0024004544
0.0044094888 -0.0008786248 0.005945682 0.000939599 -0.004172507 0.0036283561 0.007167531 0.00010385201
-0.0034944424 0.00640198 0.004883321 -0.0026952494 -0.0015865118 0.004955586 0.0065473123 -0.003157775
0.003885805 -0.0032808804 0.0069501684 -3.4998557e-05 0.0026639435 0.0075473697 -0.0025675998 0.008077388
00000000: 5937 7c3a 6e51 9e3b 6ba8 f8ba d247 643b
00000010: 8ac6 303c 1cbf 1fbb 9fa8 223b 9d55 f43b
00000020: 4cdf 143a a57d b33b 0848 083b 0e0f acbb
00000030: ccc7 2a3b 5200 e9ba f626 053c 570d 9f3a
00000040: 144d eeb9 6bb7 6238 0e1c dcb8 b463 9c38
00000050: e6e2 41bb 1163 803b 3c73 c93b 7030 49b9
00000060: 0df9 49ba c4c9 89b9 1fd8 fd3a f5dc 86bb
00000070: b246 48b9 8fea a13b bafb 693b e9bd 783b
00000080: baf5 1d3b f3bf c73a 1ed5 eeba 23b7 023b
00000090: 27f2 143b 3453 94b9 9577 a039 0769 6139
000000a0: cf4d 2ebb 739b 933b de2d e9b9 be57 983b
000000b0: f96b cbba 93ea 20bb 27a9 a5bb 8b22 a3b7
000000c0: 50e6 473b 0886 59bb 3bde 8e3b 76c9 2fbb
000000d0: a99c 123b fb77 d73b 57e8 ba3a 1fc9 d33b
000000e0: 3a39 343b 87e1 04bb d753 4fba 6567 163b
000000f0: 3e83 9fbb 826f 1cbb 2ba0 1d3b 6576 4c3a
00000100: ea64 01bb 23f0 9aba 4fe8 79ba 43ae 023a
00000110: fe09 833a 1796 cfb9 6a55 3abb 132a b13b
00000120: 7e3c 5dbb 9e2d 23ba 0785 c3ba d435 36bb
00000130: 8b49 273b 7c53 e4bb bccf 8d3a 64ff d1b9
00000140: 8918 2c3c cc68 193b f812 ea3b dbab 68bb
00000150: 9a5f 2ebb 2112 733b dbc0 8a3a 7f6e e13a
00000160: 47c9 48ba 8ad6 0d3b 5032 2039 14fd 26bb
00000170: 1bbe 9738 6161 dd3b f03d 893b db31 943b
00000180: 0f8f 303a b893 ac3b 01a8 a139 8c58 41ba
00000190: bc0d 203c 3f2f 193c c821 ff3b d415 343b
000001a0: cd37 a13b d974 e9ba d128 6c3b 6f5c 1fbb
000001b0: 49a3 953a ab3e 8e39 c647 80bb 93c3 f339
000001c0: ccdf e83b af79 05ba f429 51bb acb4 1e3b
000001d0: 6871 51bb 57aa 9b3a b068 033b 3915 2e3b
000001e0: 50c8 823b 0048 5138 a0c3 cdb8 16c3 0ebb
000001f0: 4496 a9ba 4d63 26bb aa2f 76bb c968 bd3b
00000200: 3bff 45bb d944 e3b9 3d19 89bb 405b 713b
00000210: b7ee 513b 06f8 9eba 63a5 903b 1f03 a53a
00000220: 8305 0c3b 1b62 533b 32ba ca3b df8f fbba
00000230: 0211 fb38 41d7 433b e225 b3bb 8768 5f3a
00000240: 8aa2 c8b8 2051 223a 32e4 ec3a fc68 453b
00000250: 0410 533b 5c69 e6b9 692e e1b9 8684 9dba
00000260: 2393 223a 1802 0839 7c9b 92ba ece5 fa3b
00000270: 78fd e63b eb71 a33b cc58 543a b094 9fba
00000280: 57d5 b2ba ae01 853b 606c db3b 61f6 9abb
00000290: f55d 39bb 527d 0f3b 9402 8dba 38d7 8f3a
000002a0: 9d89 19ba 1f30 943b 7395 a63a 404e 53bb
000002b0: 14ca d93a e4c6 aebb b36a db3a cd26 32ba
000002c0: 85ec 81bb a99d 3c3b e76c 453b c325 af3b
000002d0: 1b36 99ba 2024 533c 9ef4 a03a c5b6 95ba
000002e0: 7130 dfba 4095 1bba c8ee 7fbb ea16 2fbb
000002f0: 48f6 36ba 62c5 1a3b c3c9 4cbb e20d 1b3b
00000300: c235 843a 409c 16ba b68b 2db9 01b6 a0bb
00000310: 2946 783b 508b 883b c3f3 1cba 0209 85bb
00000320: 2dd4 e5ba 35ca 9b3b a9e7 1bbb 2838 b4bb
00000330: 10d3 043c 2974 64bb 7645 7abb 5497 163b
00000340: 432d 273b 5f88 12ba 9ce6 8035 992c e03b
00000350: 3fe4 053b 0f67 1fba 1d51 1fba 37d2 fcba
00000360: ed91 adba 6110 74bb 0211 683a d5fd 3d3b
00000370: 5e04 953a ecf3 6e3b c884 033b 6957 363b
00000380: d325 33bb 0fdb 373b 7f40 89bb bd22 c13a
00000390: d443 58ba caf6 2bbb c2ae 58bb f150 1dbb
000003a0: 797d 903b 8353 66ba ffd3 c23b 6c4f 763a
000003b0: 87b9 88bb b7c9 6d3b 9cdd ea3b 20cb d938
000003c0: 0403 65bb b3c7 d13b 4404 a03b c8a2 30bb
000003d0: 81f2 cfba 7862 a23b d68a d63b acf2 4ebb
000003e0: fda8 7e3b 0a04 57bb 3dbe e33b 6acb 12b8
000003f0: 8e95 2e3b ed4f f73b 2d45 28bb 0557 043c

network_body._body_endoder.seq_layers.0.weight f4 [256, 119]
0.016174505 0.10762216 0.13703583 -0.0061762887 0.06839806 -0.028569609 -0.13704774 0.08793703
0.020305673 -0.2167187 0.07580453 0.14465913 -0.18897262 -0.15503775 -0.17058542 -0.16439575
0.030945793 0.09307223 0.12019086 -0.104450166 0.031424727 0.014186078 -0.022180598 0.07364794
-0.18535744 -0.038922515 -0.18204011 0.047306467 0.03811625 -0.099238336 -0.043683063 -0.03838625
-0.106079906 0.12188531 -0.07266872 0.10307174 -0.013465637 -0.041338116 -0.1266165 -0.01562158
-0.0048290016 0.105054654 -0.032700296 0.016452003 0.023120029 0.06987934 0.06905249 -0.09938575
-0.0053017084 0.006487597 -0.014568349 -0.03190702 -0.15319285 -0.032677725 0.0658455 0.116826616
0.10807445 0.03810272 0.084647335 0.05810181 0.11688703 -0.004259614 -0.03479329 0.070304684
0.14648071 0.024605008 0.14389534 -0.02792502 -0.010403492 -0.042513724 -0.040834017 -0.07084696
-0.0423646 0.046369314 0.023657445 -0.15194902 -0.11399332 -0.0073898435 -0.013791318 -0.012305176
-0.018645529 -0.07306203 0.03202683 0.090668805 -0.19426018 0.01843689 -0.08577981 -0.1780156
-0.01120129 0.20848021 -0.045996018 0.02573351 -0.10973759 0.07514315 -0.04177107 0.030769533
-0.117964886 -0.1153511 0.026297215 -0.08753545 -0.088809706 0.02432124 -0.0128254555 -0.1903448
-0.04158387 -0.07159194 -0.034972 -0.14467216 0.08979433 -0.0072702575 -0.030748315 0.13506186
-0.0025883284 0.09806978 -0.038031664 0.053614914 -0.0235592 -0.15976195 0.08923692 0.047164492
0.25515985 0.09953332 -0.095407024 -0.09846102 -0.10709539 -0.2002605 -0.09050077 -0.03779631
0.046312414 -0.082683936 0.036657777 -0.04147037 0.08232307 -0.051302727 0.043665882 -0.14804429
-0.0828295 -0.075912334 0.019502997 -0.032920975 -0.12955508 0.134086 0.052355833 -0.022951733
0.047168463 -0.033717297 0.097804494 0.055970386 -0.102453955 -0.023549858 -0.010121713 0.03702125
0.025898887 0.0053373706 -0.021881092 0.11403491 0.0526905 0.19253309 0.07431179 0.045957673
-0.0047278437 -0.13945548 0.0069752294 0.045250602 -0.13021207 0.033837583 0.08445026 -0.09801591
0.030346302 -0.0047543775 0.09156922 0.13601145 0.0892577 0.08695535 -0.013934301 0.12756714
-0.010915566 -0.015957357 0.034987684 0.08951991 -0.06303923 -0.025133276 -0.027505135 0.10697777
-0.1993571 -0.031580575 -0.15543114 0.031864405 -0.10572087 0.08895652 0.080551066 -0.033852782
-0.05594712 0.017887436 0.045800433 0.0013683187 0.17438646 0.061374523 -0.06555926 0.065492794
-0.042272624 0.059107717 0.018445168 0.23124523 -0.035389144 0.05686841 -0.13131078 -0.06387746
-0.07908455 0.20080635 0.08315957 -0.0937715 -0.0011618616 -0.039594587 -0.2013114 0.06750683
0.024194451 -0.036701262 -0.2394276 -0.035998907 -0.08503978 0.070630066 0.020211583 -0.043358117
0.012794826 0.032155424 0.09605642 0.008305617 0.014183459 -0.017019644 0.019630738 0.034773987
-0.018541828 -0.047050472 -0.19243358 -0.20057195 0.24672678 0.027906323 -0.18304531 -0.045100566
-0.054536067 -0.036143634 -0.034518827 -0.18660197 0.13044743 -0.07937822 -0.05147105 -0.08660141
-0.042673584 0.025433762 0.01374281 0.17215738 0.11978197 0.11603989 0.011401363 0.007646592
00000000: 6580 843c 0269 dc3d 1f53 0c3e 7762 cabb
00000010: 4814 8c3d d00a eabc 3e56 0cbe 5418 b43d
00000020: 1558 a63c 82eb 5dbe 683f 9b3d 8621 143e
00000030: 0a82 41be 37c2 1ebe f2ad 2ebe 5c57 28be
00000040: 0882 fd3c a79c be3d a026 f63d f8e9 d5bd
00000050: 37b7 003d b96c 683c 16b4 b5bc bbd4 963d
00000060: 57ce 3dbe 376d 1fbd b968 3abe 6dc4 413d
00000070: c91f 1c3d 783d cbbd 03ed 32bd e73a 1dbd
00000080: 6c40 d9bd 019f f93d 56d3 94bd 4717 d33d
00000090: fa9e 5cbc 2852 29bd c1a7 01be a8f1 7fbc
000000a0: 9a3c 9ebb e526 d73d bff0 05bd 5ac6 863c
000000b0: 3766 bd3c e61c 8f3d 646b 8d3d c28a cbbd
000000c0: f4b9 adbb e895 d43b 16b0 6ebc efb0 02bd
000000d0: 96de 1cbe 14d9 05bd 01da 863d cb42 ef3d
000000e0: 2356 dd3d 9911 1c3d 955b ad3d 2afc 6d3d
000000f0: 7862 ef3d 3b94 8bbb 6983 0ebd e7fb 8f3d
00000100: 0aff 153e 7190 c93c 4d59 133e 03c3 e4bc
00000110: 6873 2abc df22 2ebd 9241 27bd 3618 91bd
00000120: 8186 2dbd c0ed 3d3d 42cd c13c 8698 1bbe
00000130: 5475 e9bd 8026 f2bb fbf4 61bc a69b 49bc
00000140: 82be 98bc 8ca1 95bd 912e 033d 91b0 b93d
00000150: 24ec 46be f608 973c 53ad afbd b949 36be
00000160: 9e85 37bc d67b 553e 5266 3cbd 15cf d23c
00000170: 1abe e0bd a7e4 993d 2418 2bbd 6310 fc3c
00000180: 9397 f1bd 333d ecbd 426d d73c c945 b3bd
00000190: dde1 b5bd 563d c73c dc21 52bc bfe9 42be
000001a0: d953 2abd cc9e 92bd cd3e 0fbd f024 14be
000001b0: 17e6 b73d 573b eebb e4e3 fbbc a84d 0a3e
000001c0: f2a0 29bb cfd8 c83d 17c7 1bbd 509b 5b3d
000001d0: 39ff c0bc a398 23be d9c1 b63d 8e2f 413d
000001e0: 50a4 823e 20d8 cb3d c264 c3bd eea5 c9bd
000001f0: d454 dbbd 1711 4dbe 7858 b9bd 4ed0 1abd
00000200: 16b2 3d3d 3256 a9bd 7726 163d d6dc 29bd
00000210: ff98 a83d cf22 52bd ffda 323d ec98 17be
00000220: 83a2 a9bd ed77 9bbd c0c4 9f3c 25d8 06bd
00000230: 16aa 04be d74d 093e 1273 563d 4605 bcbc
00000240: b833 413d 261b 0abd b94d c83d 3441 653d
00000250: 61d3 d1bd a2eb c0bc 8bd5 25bc 98a3 173d
00000260: e729 d43c 1ce5 ae3b fa3f b3bc 238b e93d
00000270: fed1 573d 6527 453e c830 983d 1d3e 3c3d
00000280: 07ec 9abb 6bcd 0ebe 7790 e43b b258 393d
00000290: 5056 05be 4799 0a3d 42f4 ac3d 91bc c8bd
000002a0: cf98 f83c 9cca 9bbb a588 bb3d 9646 0b3e
000002b0: becc b63d a615 b23d b24c 64bc f6a0 023e
000002c0: 34d7 32bc 01b9 82bc 3f4f 0f3d 3756 b73d
000002d0: b61a 81bd 4de4 cdbc 7352 e1bc 2917 db3d
000002e0: 4524 4cbe a25a 01bd 5729 1fbe 4084 023d
000002f0: 2f84 d8bd d62e b63d f5f7 a43d 37a9 0abd
00000300: cf28 65bd ac88 923c 3c99 3b3d 2859 b33a
00000310: 5d92 323e da63 7b3d ef43 86bd 1621 863d
00000320: 0f26 2dbd ef1a 723d 521a 973c 8dcb 6c3e
00000330: 35f4 10bd daee 683d 5576 06be 30d2 82bd
00000340: 15f7 a1bd 2ea0 4d3e 914f aa3d 460b c0bd
00000350: 9b49 98ba ef2d 22bd 9324 4ebe 0541 8a3d
00000360: 7133 c63c 1054 16bd 822c 75be 9773 13bd
00000370: 5629 aebd 7fa6 903d c392 a53c 4898 31bd
00000380: 64a1 513c 68b5 033d 3ab9 c43d 4814 083c
00000390: bd61 683c c86c 8bbc a4d0 a03c 2b6f 0e3d
000003a0: 08e5 97bc ffb7 40bd 4f0d 45be bc62 4dbe
000003b0: f2a5 7c3e cd9b e43c 3b70 3bbe 5fbb 38bd
000003c0: 3661 5fbd 590b 14bd 9d63 0dbd 9614 3fbe
000003d0: 0394 053e 0c91 a2bd 4fd3 52bd 145c b1bd
000003e0: 7fca 2ebd 775a d03c 8629 613c 064a 303e
000003f0: 4050 f53d 52a6 ed3d c8cc 3a3c 4390 fa3b

network_body._body_endoder.seq_layers.2.bias f4 [256]
0.0028025545 -0.00023729935 0.00034781217 0.00079344923 0.0049736635 0.001756464 0.0009079324 -0.0012613734
-0.0034269781 0.0032173847 -0.0019995105 -0.0014337046 -0.0015706234 -0.002460922 -0.00016805003 -0.0009110059
0.0008258781 0.0005784696 -0.0015291545 0.0066272058 -0.0070389947 0.0023384495 -0.001793054 -0.0010646076
0.005533511 0.0027331025 0.0033542456 -0.0010035688 0.000871482 -0.0015612583 0.003434497 -0.004725378
0.00041169152 0.0033551601 0.0012933136 0.0020133175 0.004164008 -0.0029378433 -0.00064513914 0.003278542
-0.0015991811 -0.0012581567 0.004525236 -0.0022514046 0.00063202344 -0.0011368236 0.007965056 0.0019994017
-0.0019478231 0.005814072 -0.00082920585 -0.0057499055 0.0018703855 -0.00052883103 -0.0018098553 -0.0008945981
0.0036291217 0.0042145313 -0.0011132185 0.0021087513 0.0023718216 -0.00020803176 -0.0009014412 0.0015027041
-0.003558032 -0.003225868 0.006656127 0.00024372476 -0.001330667 -0.0023352974 0.0010658827 -0.00492764
-0.00060153834 0.0063342894 -0.0043554693 -0.0027124258 -0.0023333188 0.006952615 0.0016751897 -0.0035134978
0.0067254584 -0.0022174146 -0.0011188313 -0.004437171 0.004832667 -0.005201033 0.0057010925 0.0027804386
-0.0013744152 -0.0057979138 0.002515466 0.00044990116 0.0033499813 -0.0012143167 -0.0047572413 0.004799862
-0.0029752578 0.0022560498 0.0004795685 0.001032469 0.0004761317 -0.001954282 0.00016524232 -0.0008902873
0.00094766123 0.0039774883 0.0038826438 0.0027552366 0.0017850822 0.0031451245 0.0013495889 -0.004143944
-0.0012549844 0.0013657451 0.004082549 0.004130121 0.00529637 0.0058124843 -0.002754491 -0.0004798853
-0.0015801811 0.00019701636 -0.0011304753 0.0053732316 0.0005577523 -0.00031130825 0.005398664 0.0051179235
0.0022902451 0.0017459525 0.00544533 -0.0032777986 -0.00032949416 0.00021049703 0.0029259198 7.761746e-05
0.003022367 -0.0008049208 0.001286089 0.001726872 0.0047464613 -0.0074013867 -0.0012387622 -0.0010420766
0.0020071592 -0.00047275558 -0.0002736876 0.0053582923 -0.0014327037 -0.00451553 -0.0015883067 0.004929779
-0.00069333054 0.0021180045 -0.0006783348 -0.0041794856 0.0004998585 0.0034797492 0.00191777 -0.00011843303
-0.0037450965 0.00055276277 0.00035389894 0.001272895 -0.0038171357 0.0009630611 0.006315495 -0.0021143486
-0.00081059494 -0.0009084661 0.0071319444 -0.0015563768 -0.0017110446 0.0050005307 0.0005095623 -0.0027829309
4.4876866e-05 0.0013332281 0.0039413716 -0.003205747 0.0014961152 0.0072028083 0.0038228706 0.0007612025
-0.0014771441 -0.0008590364 0.0038179506 -0.0041534337 0.002975588 -0.0022479105 -0.001343175 -0.002454283
-0.002358182 0.0021405206 -0.0050487756 -9.056148e-06 0.001234098 0.0093774265 -0.00067622773 0.0026975817
-0.0010407417 -0.0050499514 -0.0026561231 -0.0005160724 -0.0018103659 -0.001690979 0.0020984923 0.004202904
0.0025812367 -0.0046886182 0.007607819 -0.0013723811 0.0015655305 0.000760714 0.00032635246 0.0012613747
-0.0030534226 0.0010492913 -0.0011949176 -0.00044714808 -0.0014192789 -0.0018719907 -0.0027879942 -0.0011767297
-0.0044974363 0.0042182407 -0.0044245906 -0.0039340956 -0.0031540825 -0.0019134128 -0.0027884198 0.0021325997
-0.0043490254 -0.0004184645 0.0057913265 0.0014910904 0.00754595 -0.0033867494 -0.0032379373 0.000543182
-0.00082291086 0.0038234566 -6.2089865e-05 -0.0016465152 -0.0046970313 -0.00032243095 -0.003752884 0.0024041927
0.0018408141 0.0054563503 0.00057205505 6.12205e-05 -0.0011274287 -0.001758231 0.002011817 -0.002675056
00000000: 10ab 373b 8fd3 78b9 8f5a b639 7aff 4f3a
00000010: 1dfa a23b 2739 e63a 5002 6e3a ab54 a5ba
00000020: 2797 60bb c2da 523b 380a 03bb 25eb bbba
00000030: 60dd cdba 6c47 21bb 9636 30b9 92d0 6eba
00000040: be7f 583a 70a4 173a e96d c8ba 0829 d93b
00000050: 5ea7 e6bb ac40 193b e904 ebba 4e8a 8bba
00000060: 7452 b53b da1d 333b e7d2 5b3b 2e8a 83ba
00000070: 2b74 643a 23a3 ccba 4c15 613b 58d7 9abb
00000080: 4dd8 d739 3fe2 5b3b 6784 a93a ddf1 033b
00000090: 3b72 883b d588 40bb 8e1e 29ba cfdc 563b
000000a0: 9d9b d1ba bce8 a4ba 6e48 943b 4d8c 13bb
000000b0: 60ae 253a 7801 95ba de7f 023c 6508 033b
000000c0: 194e ffba f983 be3b 105f 59ba b469 bcbb
000000d0: b927 f53a 40a1 0aba ab38 edba 7683 6aba
000000e0: 8fd6 6d3b 0d1a 8a3b 6ae9 91ba fa32 0a3b
000000f0: 9070 1b3b 1a23 5ab9 b24e 6cba 62f6 c43a
00000100: df2d 69bb 1669 53bb a41b da3b 5e90 7f39
00000110: c669 aeba ca0b 19bb 17b5 8b3a 0a78 a1bb
00000120: 8eb0 1dba df8f cf3b 53b8 8ebb f4c2 31bb
00000130: 98ea 18bb c3d2 e33b 0a92 db3a b642 66bb
00000140: 3c61 dc3b 0b52 11bb c0a5 92ba b065 91bb
00000150: 595b 9e3b 6d6d aabb 3bd0 ba3b 0538 363b
00000160: b925 b4ba 6dfc bdbb 84da 243b b6e0 eb39
00000170: 5c8b 5b3b b529 9fba a2e2 9bbb 2948 9d3b
00000180: 8bfc 42bb 3cda 133b 986e fb39 e953 873a
00000190: 51a1 f939 6913 00bb e644 2d39 2b62 69ba
000001a0: 786c 783a 9755 823b f473 7e3b 3391 343b
000001b0: 6bf9 e93a 6f1e 4e3b b0e4 b03a ecc9 87bb
000001c0: 4a7e a4ba cd02 b33a e7c6 853b f755 873b
000001d0: 2c8d ad3b a776 be3b b184 34bb 1d99 fbb9
000001e0: 141e cfba 2d96 4e39 752c 94ba ef11 b03b
000001f0: 2036 123a 1637 a3b9 47e7 b03b 41b4 a73b
00000200: f017 163b 72d8 e43a bd6e b23b 56d0 56bb
00000210: f5bf acb9 deb8 5c39 cac0 3f3b 8ec6 a238
00000220: e712 463b 5201 53ba fc91 a83a 3658 e23a
00000230: 3488 9b3b 5587 f2bb f65d a2ba 4a96 88ba
00000240: 8b8a 033b 2edc f7b9 ba7d 8fb9 9d94 af3b
00000250: 8fc9 bbba 03f7 93bb bb2e d0ba fc89 a13b
00000260: a0c0 35ba 38ce 0a3b 47d2 31ba 11f4 88bb
00000270: f008 033a 810c 643b af5d fb3a 405f f8b8
00000280: 4b70 75bb 48e7 103a 838b b939 45d7 a63a
00000290: e928 7abb f075 7c3a 36f2 ce3b e290 0abb
000002a0: 1b7e 54ba 2126 6eba 16b3 e93b 57ff cbba
000002b0: 2145 e0ba 7edb a33b 2694 053a d561 36bb
000002c0: 2b3a 3c38 b6bf ae3a 9f26 813b 8317 52bb
000002d0: 4c19 c43a 8905 ec3b 2089 7a3b 6f8b 473a
000002e0: bb9c c1ba f530 61ba 9536 7a3b 8719 88bb
000002f0: 1502 433b ae51 13bb 790d b0ba 09d8 20bb
00000300: bb8b 1abb fa47 0c3b 3370 a5bb dcef 17b7
00000310: 75c1 a13a c7a3 193c e044 31ba e9c9 303b
00000320: 7f69 88ba 107a a5bb 5a12 2ebb 0849 07ba
00000330: cd49 edba d7a3 ddba dc86 093b 84b8 893b
00000340: f729 293b fba2 99bb 034b f93b 78e1 b3ba
00000350: 7d32 cd3a a76a 473a 491a ab39 b654 a53a
00000360: ee1b 48bb 6088 893a c89e 9cba 336f eab9
00000370: 1907 baba 965d f5ba c8b6 36bb 7f3c 9aba
00000380: 3b5f 93bb 2b39 8a3b 28fc 90bb 96e9 80bb
00000390: b9b4 4ebb 7bcb faba ecbd 36bb 16c3 0b3b
000003a0: 4582 8ebb 5b65 dbb9 2bc5 bd3b b170 c33a
000003b0: 0444 f73b 3af4 5dbb 9333 54bb 5464 0e3a
000003c0: 9db8 57ba f592 7a3b 3e36 82b8 e2cf d7ba
000003d0: 8ee9 99bb f30b a9b9 f2f2 75bb a98f 1d3b
000003e0: 7947 f13a 2fcb b23b f7f5 153a 8163 8038
000003f0: 3bc6 93ba 7174 e6ba b0d8 033b fe4f 2fbb

network_body._body_endoder.seq_layers.2.weight f4 [256, 256]
0.03365383 0.082673185 -0.004286055 -0.031788923 0.04862427 0.121113114 0.011661624 0.035947945
0.028232584 0.045703106 0.028333623 0.0038043447 -0.05173625 0.111076064 -0.011183387 0.00049186085
0.09075927 0.07371644 0.07027288 0.011477782 0.045649208 0.004409557 -0.028210737 -0.0073570576
0.055938084 0.06511984 0.0363549 -0.03515604 0.02385153 0.008194625 -0.02855293 -0.12776263
-0.034532618 -0.069690935 -0.10430838 0.08968228 -0.07067824 0.11342304 -0.16412269 0.010717592
0.09816303 -0.0032975145 0.06896674 0.01791518 -0.028176174 -0.042728897 0.07641095 0.108164534
-0.037211467 -0.03590578 0.033770606 -0.008277213 0.070408136 -0.0034803748 0.09961557 -0.04216721
-0.031335555 0.15992106 -0.0377206 -0.03255646 -0.054153554 0.07175692 -0.08801347 -0.09010143
-0.056912597 -0.05282195 -0.08444513 -0.081457935 0.029901652 0.017123489 0.003269337 -0.048260033
0.06769061 0.035255283 -0.0073277527 0.14073059 0.07440028 0.05573261 -0.017710064 0.013373067
0.022789937 0.04104617 -0.060192265 -0.13860734 -0.0068347664 -0.003600932 0.09111964 0.07339957
-0.036071453 -0.060788482 -0.057488486 0.034108557 -0.0118764555 0.06186166 -0.04323481 0.046822388
0.0066207 0.02211278 0.008251575 -0.010337159 -0.0004350004 -0.048288934 -0.031602997 -0.08028027
0.026662247 -0.07189111 -0.033344276 -0.07130051 -0.09262675 -0.0041803583 -0.019181823 -0.08053404
0.019421054 0.06856545 0.04141178 -0.031098388 0.0583151 -0.005282854 0.01174009 -0.076389685
-0.025091073 0.05053192 0.1737691 -0.051230703 0.07662452 -0.123148344 -0.06465142 -0.06958645
-0.025806231 -0.08475099 0.027944548 -0.013852123 -0.005243855 -0.048356913 -0.019123213 -0.08294303
-0.03801637 0.030441076 0.030871727 0.054767374 -0.0022722331 -0.058717474 -0.011300608 0.006732554
-0.07045245 0.03521636 -0.06744535 -0.020384531 -0.05815703 -0.06329465 0.0636176 -0.024442917
-0.04935739 -0.046884663 0.012761236 -0.10647047 0.097647384 0.08730644 0.03298834 -0.011002966
-0.034834776 0.073331304 -0.10180877 0.0431482 -0.02494468 0.09819525 0.033780627 -0.056469377
-0.09715085 0.058504365 -0.031471808 -0.031759348 -0.023129959 0.019054288 -0.02058219 -0.06928751
-0.145728 0.036683854 -0.02877884 -0.1579018 -0.036742546 0.028995605 0.11587034 -0.0026076771
0.054573502 -0.02578902 0.0386446 -0.015581955 -0.07455863 0.016742256 0.000118063246 0.019066116
-0.099792175 -0.04588562 -0.0066562807 -0.09532058 -0.000944141 0.05508946 0.05964762 0.008706999
-0.010975592 -0.034004975 -0.031333134 -0.082187615 0.0026858177 -0.061229404 -0.06353144 0.01948585
-0.013263597 -0.036053386 -0.060992558 0.018040922 -0.12204487 0.038120177 0.0031323456 -0.019130768
-0.08461176 -0.00424823 -0.013435876 -0.08636125 -0.10296029 0.11229736 0.0121185435 0.16665791
0.028383669 0.036572903 -0.11814689 -0.060424976 -0.03821004 -0.06462247 -0.018589273 0.03162669
0.005391735 0.07650762 0.13537665 -0.04715797 -0.11340684 -0.0832852 -0.023865514 -0.104226366
-0.124561295 -0.040591396 0.032311328 0.014984827 0.05223676 -0.0812024 0.0024061878 -0.03275735
0.011532339 0.057234347 0.060808115 0.013181115 -0.069970265 0.12914395 0.13896477 -0.09854968
00000000: 99d8 093d 8f50 a93d 0972 8cbb 1a35 02bd
00000010: 3e2a 473d 270a f83d 6510 3f3c 273e 133d
00000020: 0548 e73c 2e33 3b3d ea1b e83c 5052 793b
00000030: 64e9 53bd d97b e33d 863a 37bc 39f0 003a
00000040: ffdf b93d a5f8 963d 3aeb 8f3d 4f0d 3c3c
00000050: aafa 3a3d 0c7e 903b 341a e7bc 7913 f1bb
00000060: 551f 653d 8d5d 853d e0e8 143d c8ff 0fbd
00000070: 4964 c33c c042 063c d6e7 e9bc 35d4 02be
00000080: 1372 0dbd 1fba 8ebd a29f d5bd 58ab b73d
00000090: c1bf 90bd 574a e83d c70f 28be d798 2f3c
000000a0: b309 c93d 1d1b 58bb 6f3e 8d3d dbc2 923c
000000b0: b8d1 e6bc 7f04 2fbd 587d 9c3d 5e85 dd3d
000000c0: 0d6b 18bd f011 13bd 0c53 0a3d 269d 07bc
000000d0: 2432 903d 0017 64bb 3f03 cc3d 86b7 2cbd
000000e0: b659 00bd 59c2 233e ea80 1abd ec59 05bd
000000f0: 1ed0 5dbd 4bf5 923d 6840 b4bd 1987 b8bd
00000100: 2f1d 69bd d45b 58bd 91f1 acbd 6bd3 a6bd
00000110: 4ff4 f43c 8f46 8c3c 5f42 563b 50ac 45bd
00000120: 60a1 8a3d d867 103d a51d f0bb ae1b 103e
00000130: 2d5f 983d e147 643d b214 91bc b51a 5b3c
00000140: f6b1 ba3c 0720 283d 2a8c 76bd 15ef 0dbe
00000150: 2df6 dfbb 9dfd 6bbb ef9c ba3d 8452 963d
00000160: a9bf 13bd 58fd 78bd 0c79 6bbd 6ab5 0b3d
00000170: 7795 42bc a762 7d3d fc16 31bd d5c8 3f3d
00000180: 75f2 d83b dc25 b53c 9d31 073c 305d 29bc
00000190: c410 e4b9 9eca 45bd 2572 01bd fb69 a4bd
000001a0: c96a da3c a53b 93bd 0294 08bd 0006 92bd
000001b0: 18b3 bdbd 63fb 88bb 3323 9dbc 08ef a4bd
000001c0: e718 9f3c 0b6c 8c3d 669f 293d 0cc2 febc
000001d0: d0db 6e3d cb1b adbb 8259 403c 3272 9cbd
000001e0: cb8b cdbc 8ffa 4e3d 87f0 313e 49d7 51bd
000001f0: 51ed 9c3d 3335 fcbd f767 84bd 5783 8ebd
00000200: 9767 d3bc ed91 adbd f7eb e43c 04f4 62bc
00000210: a5d4 abbb e611 46bd 49a8 9cbc 09de a9bd
00000220: 0eb7 1bbd 905f f93c b4e6 fc3c c153 603d
00000230: bfe9 14bb bc81 70bd 2f26 39bc c29c dc3b
00000240: 6049 90bd 083f 103d ca20 8abd 76fd a6bc
00000250: 1136 6ebd a0a0 81bd f249 823d 833c c8bc
00000260: f92a 4abd 220a 40bd 8114 513c 310d dabd
00000270: 5afb c73d b8cd b23d c81e 073d c945 34bc
00000280: e9ae 0ebd b92e 963d 1e81 d0bd 2bbc 303d
00000290: c958 ccbc 971a c93d 8e5d 0a3d 6f4c 67bd
000002a0: 06f7 c6bd 46a2 6f3d 95e8 00bd 1716 02bd
000002b0: 0a7b bdbc bd17 9c3c fb9b a8bc 9ce6 8dbd
000002c0: b939 15be cf41 163d 9ac1 ebbc 02b1 21be
000002d0: 5a7f 16bd 3188 ed3c 6e4d ed3d 90e5 2abb
000002e0: 7788 5f3d 7f43 d3bc cd49 1e3d 754b 7fbc
000002f0: 32b2 98bd 0e27 893c b998 f738 8b30 9c3c
00000300: d75f ccbd 8ff2 3bbd ee1c dabb 7037 c3bd
00000310: 3b80 77ba 7ca5 613d 1051 743d cda7 0e3c
00000320: f8d2 33bc cd48 0bbd 2c57 00bd fb51 a8bd
00000330: 8b04 303b afcb 7abd c61c 82bd caa0 9f3c
00000340: 8f4f 59bc b7ac 13bd 55d3 79bd 8eca 933c
00000350: a9f2 f9bd e723 1c3d 0a48 4d3b 21b8 9cbc
00000360: ee48 adbd bc34 8bbb 2622 5cbc 2bde b0bd
00000370: d8dc d2bd 29fc e53d db8c 463c 5fa8 2a3e
00000380: de84 e83c 78cd 153d fff6 f1bd 2e80 77bd
00000390: 2282 1cbd c958 84bd 8848 98bc fd8a 013d
000003a0: 27ad b03b 07b0 9c3d 2da0 0a3e b728 41bd
000003b0: d841 e8bd 6e91 aabd 9c81 c3bc a274 d5bd
000003c0: fe19 ffbd 2a43 26bd e258 043d eb82 753c
000003d0: 36f6 553d 724d a6bd 22b1 1d3b 922c 06bd
000003e0: 23f2 3c3c 906e 6a3d ee11 793d 9af5 573c
000003f0: 924c 8fbd 503e 043e c84c 0e3e 6ad4 c9bd

network_body._body_endoder.seq_layers.4.bias f4 [256]
-0.00020144202 0.0018141083 -0.0019846393 0.0015662567 -0.00022136024 -0.0013778213 0.0019221107 0.0013381799
-0.001944332 -0.00132411 0.0017951907 -0.0001766097 -0.0028546804 0.0020030455 -0.0020094786 0.0057818117
0.0040583443 0.0030619877 0.0021136112 0.001441401 0.004395461 0.003203586 -0.0023173806 0.0015899875
0.0056768763 0.0029477316 -0.0032769947 0.00041094032 0.003763303 0.005343144 -0.0025274064 6.648956e-05
-0.002536692 0.0026571476 -0.002125413 8.37108e-05 0.0026033723 -0.002868013 0.0004708819 0.004005623
0.00092329935 0.0015459792 0.0030913227 0.0014918696 0.001979883 0.00395204 -0.0006227249 -0.0026249795
0.0024086917 0.0018586426 0.003257616 -0.0028890434 0.0030303386 -0.000912666 3.2097294e-05 -0.0035059454
0.0015482598 -0.0011319511 -0.00037661527 -0.001769477 -0.00022385061 -0.00046330754 0.0038858005 0.0034393794
0.0025338805 0.0023214433 0.0008643267 -0.0011316959 0.0002878338 0.004232904 0.00051276805 -0.0003839431
0.0022523545 -0.0025827237 0.0015869879 0.0050481567 0.0025523603 0.0042872014 0.002500383 0.004658373
-0.0008952125 0.0016946871 0.0015165556 0.0052908096 -0.0025864288 0.0020003226 -0.00062535406 0.002421748
0.0022770176 0.00025465142 0.003007807 -0.0009230215 0.0018309039 0.0031968101 0.001115585 0.0008238222
0.00016801416 -0.0021718603 0.002511137 0.005156744 0.0022651833 0.00518817 0.000854604 -0.0031150812
-0.002691506 0.00012051228 -0.00073889707 0.0009692527 0.0013242811 0.0038670744 -0.0021567333 -0.00082800107
-0.0014734402 -0.00054867525 0.0042662784 -0.0019775657 -0.001938256 0.0028457968 0.0016882763 -0.0026779044
0.0034813958 0.0046983343 0.0006135656 -0.0066821724 -0.002127166 -0.0014645122 0.002043833 0.0034346331
0.002254199 0.0031513965 0.0035131762 -0.0020931992 0.0048214495 0.0038874764 -0.0013470936 -0.00013752881
0.00023917004 0.0035305591 0.0029025602 0.0011344713 0.0018839408 -0.0009506881 -0.0013596782 0.0070841066
0.0006018716 -0.0020628297 0.00075947156 0.00064319064 -0.001139985 0.0014655377 -0.001647546 0.0048856433
-0.00088158966 -0.00049179123 0.001011819 0.0007649208 0.004041022 0.0029442373 -0.00058541866 0.0052161
-0.00092047406 0.0013763299 0.0003023012 0.0020114884 0.0017335231 -0.0023910785 0.0019074949 0.0023733058
-0.004634665 -0.0019089698 7.002001e-05 0.0034705647 -0.0019143971 0.0028464182 0.005086293 -0.00066947157
-0.002069192 -0.0016547415 0.0010927635 -4.4012108e-05 0.0018658419 0.0015008452 0.0014595389 0.0009140461
0.0029573543 0.0032950523 -0.0001361078 -0.0018349413 0.0038483292 -0.00039279487 -0.00397754 -0.0027062083
-0.0028185856 -0.002903343 -0.0025074163 0.0032141835 -0.0016694573 0.0004532048 0.0020783024 -0.0027057624
-0.0021932002 -0.0006687198 0.003037669 0.0020708158 0.005326031 -0.0011026289 -0.0034667638 0.0028499798
0.004141865 0.0011411118 -0.000737958 -0.0010202272 -0.0021278004 -0.002576517 0.0012796859 -0.0010312098
-0.002588124 0.0046247495 0.00022929267 -6.2032654e-05 0.0047208318 1.601903e-05 -0.0016549273 -0.0021349986
-0.0017810257 -0.00023360547 -0.0011575704 -0.0009057734 -0.0018556147 0.0025148678 0.001988975 0.00033176466
0.0028345229 0.0031875635 0.0046456554 -0.0014518982 -0.00049906404 -0.00033919179 -0.0019047098 0.0013936557
0.00041605835 -0.0016311036 0.005646116 -0.0009794115 -0.0003483442 -0.00097246014 0.0053516524 0.0045476654
0.001601331 -0.0007013571 0.0010916227 -0.00011861978 -0.0007417663 -0.0013306601 0.0029513442 0.006386089
00000000: 2e3a 53b9 60c7 ed3a b910 02bb db4a cd3a
00000010: f01c 68b9 0398 b4ba 55ef fb3a de65 af3a
00000020: f5d8 feba c28d adba 9b4c eb3a 4e30 39b9
00000030: 9715 3bbb 8745 033b 75b1 03bb 5a75 bd3b
00000040: dcfb 843b a1ab 483b 8384 0a3b 64ed bc3a
00000050: cd07 903b 41f3 513b 32df 17bb 2167 d03a
00000060: 1705 ba3b bb2e 413b d9c2 56bb 7a73 d739
00000070: bfa1 763b 8a15 af3b d8a2 25bb 5070 8b38
00000080: a13e 26bb 8a23 2e3b 834a 0bbb e58d af38
00000090: 579d 2a3b 46f5 3bbb b3e0 f639 9a41 833b
000000a0: 9209 723a 74a2 ca3a ca97 4a3b d68a c33a
000000b0: edc0 013b 1d80 813b 5c3e 23ba d907 2cbb
000000c0: 24db 1d3b b29d f33a ba7d 553b 1b56 3dbb
000000d0: a598 463b fa3f 6fba 35a0 0638 01c4 65bb
000000e0: faee ca3a fa5d 94ba 7274 c5b9 cced e7ba
000000f0: 71b9 6ab9 16e8 f2b9 eaa8 7e3b 3667 613b
00000100: 760f 263b 5b23 183b fc93 623a 6a55 94ba
00000110: 66e8 9639 2cb4 8a3b 486b 063a f84b c9b9
00000120: 3d9c 133b ea42 29bb 7a02 d03a 026b a53b
00000130: 8045 273b a77b 8c3b 77dd 233b 44a5 983b
00000140: b2ac 6aba 4320 de3a 29c7 c63a 875e ad3b
00000150: 1381 29bb d817 033b cdee 23ba 30b6 1e3b
00000160: 043a 153b bc82 8539 a11e 453b edf6 71ba
00000170: f1fa ef3a 9381 513b d238 923a c6f5 573a
00000180: f52c 3039 c555 0ebb e391 243b e7f9 a83b
00000190: 7873 143b 8601 aa3b 8107 603a 6426 4cbb
000001a0: fa63 30bb 8abb fc38 8bb2 41ba 7315 7e3a
000001b0: 8093 ad3a be6e 7d3b fb57 0dbb 360e 59ba
000001c0: 7320 c1ba f9d4 0fba 23cc 8b3b 0c9a 01bb
000001d0: 140d feba 8c80 3a3b 2749 dd3a c87f 2fbb
000001e0: 2128 643b 7cf4 993b b1d7 203a 20f6 dabb
000001f0: ec67 0bbb e0f4 bfba d4f1 053b 9517 613b
00000200: 2fbb 133b a987 4e3b 513d 663b 0e2e 09bb
00000210: 40fd 9d3b 08c5 7e3b f690 b0ba 9c35 10b9
00000220: b8c9 7a39 f460 673b e138 3e3b 8ab2 943a
00000230: 90ee f63a 9937 79ba 3b37 b2ba cb21 e83b
00000240: ebc6 1d3a 8a30 07bb 4617 473a cb9b 283a
00000250: 8d6b 95ba 4917 c03a 78f2 d7ba bf17 a03b
00000260: 7b1a 67ba 8deb 00ba 039f 843a f784 483a
00000270: 8d6a 843b 1bf4 403b c876 19ba d1eb aa3b
00000280: f84b 71ba f865 b43a 2e7e 9e39 2dd3 033b
00000290: 6237 e33a a4b3 1cbb e804 fa3a 7789 1b3b
000002a0: 63de 97bb 6636 faba b5d7 9238 6a72 633b
000002b0: 82ec faba f98a 3a3b ebaa a63b 7a7f 2fba
000002c0: 489b 07bb e9e3 d8ba 0f3b 8f3a a499 38b8
000002d0: 448f f43a 02b8 c43a 004e bf3a 989c 6f3a
000002e0: 2cd0 413b cef1 573b 29b8 0eb9 6a82 f0ba
000002f0: 4034 7c3b 09f0 cdb9 0656 82bb a45a 31bb
00000300: 05b8 38bb 0346 3ebb 7753 24bb 0da5 523b
00000310: b1d1 daba 1e9c ed39 2134 083b 2953 31bb
00000320: cbbb 0fbb 074d 2fba a113 473b 86b6 073b
00000330: fc85 ae3b 1686 90ba a532 63bb bac6 3a3b
00000340: 7bb8 873b 5c91 953a 8673 41ba 25b9 85ba
00000350: 9172 0bbb c8da 28bb 22bb a73a a929 87ba
00000360: 849d 29bb 368b 973b 486e 7039 8717 82b8
00000370: 35b1 9a3b 9b60 8637 25ea d8ba 55eb 0bbb
00000380: 4e71 e9ba fef3 74b9 9eb9 97ba 6d71 6dba
00000390: 1938 f3ba 7bd0 243b 7759 023b b3f0 ad39
000003a0: 67c3 393b 71e6 503b 953a 983b 9f4d beba
000003b0: 9fd3 02ba 8dd5 b1b9 75a7 f9ba 53ab b63a
000003c0: 6822 da39 c1ca d5ba 0e03 b93b 995f 80ba
000003d0: f8a1 b6b9 b2ec 7eba ea5c af3b 9504 953b
000003e0: c1e3 d13a 47db 37ba c814 8f3a 82c3 f8b8
000003f0: 1873 42ba 8b69 aeba 576b 413b 6642 d13b
