results/Run 14/AgentController/AgentController-819106.onnx (onnx, 657373 bytes, 14 tensors)

83 f4 [116]
0	0x3e8873eb	0.26650938
1	0x3e3d6f6f	0.1849954
2	0x3e4c191a	0.1993145
3	0x3e883050	0.2659936
4	0x3e88351e	0.26603025
5	0x3e3b15d2	0.18270043
6	0x3e4d8582	0.2007046
7	0x3e875ae4	0.26436532
8	0x3e874129	0.264169
9	0x3e399309	0.18122496
10	0x3e4c2687	0.19936572
11	0x3e892198	0.26783442
12	0x3e86a325	0.26296344
13	0x3e371116	0.17877612
14	0x3e4c9d9d	0.19982
15	0x3e86111d	0.2618493
16	0x3e826088	0.25464272
17	0x3e2fd376	0.1717051
18	0x3e46e70f	0.1942408
19	0x3e8993f8	0.26870704
20	0x3e8382df	0.25685784
21	0x3e2d2561	0.1690879
22	0x3e4c524b	0.19953267
23	0x3e852875	0.2600743
24	0x3e7d144c	0.24714774
25	0x3e273e8d	0.16332455
26	0x3e438fb7	0.19097792
27	0x3e8a11b1	0.26966622
28	0x3e844ea3	0.25841245
29	0x3e2a2f6c	0.16619653
30	0x3e50df36	0.20397648
31	0x3e84f88a	0.2597087
32	0x3e826208	0.25465417
33	0x3e29877e	0.16555592
34	0x3e4c32b1	0.19941212
35	0x3e8b50bc	0.27210033
36	0x3e8786af	0.26469943
37	0x3e2c4a22	0.16825154
38	0x3e57ead3	0.21085672
39	0x3e856815	0.2605597
40	0x3e89e169	0.26929787
41	0x3e30c800	0.17263794
42	0x3e5acdab	0.21367519
43	0x3e8cd55b	0.27506527
44	0x3e89d7d4	0.26922476
45	0x3e2d6d93	0.1693633
46	0x3e5d428a	0.21607414
47	0x3e86e1dd	0.26344195
48	0x3e8d6c53	0.27621707
49	0x3e2df08d	0.16986294
50	0x3e666312	0.2249873
51	0x3e8d8678	0.27641654
52	0x3e89be2a	0.26902896
53	0x3e2cd41b	0.16877787
54	0x3e5d7008	0.21624768
55	0x3e887886	0.26654452
56	0x3e8b1c7d	0.27170172
57	0x3e22de9c	0.15905231
58	0x3e680421	0.22657825
59	0x3e8c5f9b	0.2741669
60	0x3e86af37	0.26305553
61	0x3e29c70e	0.1657984
62	0x3e579ca4	0.21055847
63	0x3e899021	0.26867774
64	0x3e89668f	0.26836058
65	0x3e218945	0.1577502
66	0x3e648caa	0.22319284
67	0x3e8a57c6	0.2702009
68	0x3e887ed4	0.26659262
69	0x3e299913	0.165623
70	0x3e5c8bd9	0.21537723
71	0x3e8b8a1f	0.27253816
72	0x3e8e125e	0.27748388
73	0x3e24129f	0.16022728
74	0x3e6ebfa3	0.23315291
75	0x3e89e42b	0.2693189
76	0x3e8baa51	0.2727838
77	0x3e2d30d3	0.16913156
78	0x3e624a59	0.22098674
79	0x3e8c594c	0.27411878
80	0x3e93cf04	0.28868878
81	0x3e2497fa	0.160736
82	0x3e7cd7f6	0.24691758
83	0x3e89e8bb	0.26935372
84	0x3e8c8dea	0.27452022
85	0x3e2c8dfb	0.16851036
86	0x3e65184b	0.22372548
87	0x3e8c1d5c	0.2736615
88	0x3e980ac3	0.2969571
89	0x3e2833a5	0.16425951
90	0x3e82a007	0.25512716
91	0x3e8946d2	0.26811844
92	0x3e8e59d9	0.27802923
93	0x3e2a32a5	0.16620882
94	0x3e6b6d51	0.2299092
95	0x3e8b7458	0.272372
96	0x3e9c2692	0.30498177
97	0x3e2fe66a	0.1717774
98	0x3e857bdc	0.2607106
99	0x3e88e488	0.26736856
100	0x3e92a1c9	0.28639057
101	0x3e2d2d81	0.1691189
102	0x3e747696	0.23873362
103	0x3e8aa576	0.27079362
104	0x3e9e8481	0.30960467
105	0x3e371f68	0.17883074
106	0x3e864a3e	0.26228517
107	0x3e898ce5	0.26865306
108	0x3e995a71	0.29951814
109	0x3e3416f2	0.17586878
110	0x3e809da6	0.25120276
111	0x3e8a27dd	0.26983538
112	0x3e995a71	0.29951814
113	0x3e3416f2	0.17586878
114	0x3e809da6	0.25120276
115	0x3e8a27de	0.2698354

86 f4 [3]
0	0x41129c92	9.163225
1	0x3b4ad854	0.0030951696
2	0x410b8687	8.720344

action_model._continuous_distribution.log_sigma f4 [1, 2]
0	0x3c8d879b	0.017276576
1	0x3be4c400	0.006981373

action_model._continuous_distribution.mu.bias f4 [2]
0	0xbb22a249	-0.0024815968
1	0xbb3002df	-0.002685718

action_model._continuous_distribution.mu.weight f4 [2, 256]
0	0xbbee2b1a	-0.0072683217
1	0x3c39c511	0.011338488
2	0xbcf793e6	-0.03022189
3	0x3be414eb	0.0069605014
4	0x3bb1427e	0.005409538
5	0x3c44cf6e	0.012012346
6	0x3b265ac9	0.0025383702
7	0x3cc08351	0.023500117
8	0xba9e5a7e	-0.0012081412
9	0xbc15cf19	-0.009143614
10	0xbbcad299	-0.006189656
11	0x3ca6c922	0.02035958
12	0xbc26a536	-0.010171225
13	0x3ad93bc7	0.0016573601
14	0x3c4b3405	0.012402539
15	0xbb01a109	-0.0019779822
16	0xbc5bdb78	-0.013419025
17	0xbb1fca4e	-0.0024382058
18	0x3c9f25ef	0.019427268
19	0xbc7f3be8	-0.015578248
20	0x3c9bfd63	0.019041723
21	0x3c828cae	0.015936222
22	0xbca70a3b	-0.02039062
23	0x3d177bc3	0.036983263
24	0x3c555ef4	0.013023127
25	0x3baacc93	0.0052123754
26	0x3c81bc51	0.015836867
27	0xbbcb2316	-0.006199251
28	0x3ccce8ab	0.025013288
29	0x3c5a6158	0.013328873
30	0xbcbb7306	-0.022881996
31	0x3c4d8a51	0.012545184
32	0xbc9eb87c	-0.019375078
33	0x3cdb5542	0.026774053
34	0xbc165dbd	-0.009177622
35	0xbc8b3b04	-0.016995914
36	0xbb0661c5	-0.0020505053
37	0x3cac855a	0.02105968
38	0x3afa8547	0.0019113206
39	0xbc1dc7a1	-0.009630115
40	0x3c0f0e71	0.00873147
41	0x3b4725df	0.0030387563
42	0xba69065b	-0.00088891917
43	0x3c1d9b4f	0.009619548
44	0xba79218d	-0.00095035956
45	0xbb6552c4	-0.003499196
46	0x3cde0a6b	0.027104577
47	0x3bc050ba	0.0058689984
48	0x3cdab39f	0.026696978
49	0xbaa1c540	-0.001234211
50	0xbc599ff3	-0.013282764
51	0xbbbc1bc5	-0.005740615
52	0xbbc21ce2	-0.0059238533
53	0xbc15974c	-0.00913031
54	0x3d1750fc	0.036942467
55	0x3c13be2b	0.009017508
56	0x3c6534bf	0.013989626
57	0x3c0d1aed	0.008612377
58	0x3b098832	0.002098572
59	0xbc9fee92	-0.019522939
60	0xbc7fbd76	-0.015609136
61	0x3c5eb8bf	0.013593852
62	0x3be4e49f	0.0069852616
63	0xbc2b6d0d	-0.010463011
64	0xbae3858a	-0.0017358523
65	0x3d03fc22	0.032222874
66	0x3c97285c	0.018451862
67	0x3c7f8fdf	0.015598266
68	0xbca3fe01	-0.02001858
69	0x3c788495	0.015168329
70	0x3bccc9ee	0.006249658
71	0x3ca75586	0.020426523
72	0xbcf8e8d7	-0.030384464
73	0x3cb25db1	0.021773191
74	0xbc9888a8	-0.01861985
75	0xbc9732c3	-0.018456822
76	0x3be15436	0.006876494
77	0x3bb815e3	0.0056178435
78	0x3c97557e	0.018473383
79	0xbc18f24b	-0.009335111
80	0xbb8a2bd1	-0.004216649
81	0xbc0086b5	-0.007844617
82	0x3c132090	0.0089799315
83	0xbb44f9fb	-0.0030056227
84	0xbc765f3a	-0.015037352
85	0x3cb02459	0.021501707
86	0x39e1d00e	0.00043070357
87	0xbbe5596e	-0.0069991862
88	0xbb904b31	-0.0044034948
89	0xbbe42575	-0.006962473
90	0xbc328e30	-0.010898158
91	0x3c6c704d	0.0144310715
92	0xbb8ce2f6	-0.004299517
93	0xbb3d8524	-0.002891847
94	0xbc4321a1	-0.011909873
95	0x39a115e0	0.0003072461
96	0xbd54d6ce	-0.051962666
97	0xbaf20b32	-0.0018466471
98	0xba07698e	-0.000516557
99	0x3c4a4c80	0.012347341
100	0x3c189898	0.009313725
101	0x3ba5678e	0.005047745
102	0xbc4344f6	-0.011918297
103	0x3b12edad	0.0022419498
104	0xbbdd4254	-0.0067522917
105	0x3c0588e0	0.008150309
106	0x3c423771	0.011854039
107	0xbd202214	-0.039095
108	0x3c3e2546	0.011605566
109	0x3cd10092	0.025512967
110	0xbba47f10	-0.00502003
111	0xbc340efb	-0.0109899
112	0xbb06f892	-0.0020594937
113	0x3a62ab41	0.00086467346
114	0xbc2ecda7	-0.0106691485
115	0xbc4a3894	-0.012342591
116	0x3c819c55	0.015821615
117	0x3943e9b8	0.00018683716
118	0x3cd1e3b3	0.02562127
119	0xbc233247	-0.0099607175
120	0x3cb338bf	0.021877645
121	0x3c0d2286	0.008614188
122	0xbc903586	-0.017603647
123	0x3c661457	0.014042935
124	0x3af5dc1c	0.0018757614
125	0x3ce6ef9f	0.028190432
126	0x3c43decc	0.011954974
127	0xbc39a20d	-0.01133014
128	0xbbc12cff	-0.0058952565
129	0xbc070ce3	-0.0082428185
130	0xbc4f8b1a	-0.012667442
131	0xbc5b4f4c	-0.013385605
132	0x3c43007f	0.011901974
133	0xbc5f5689	-0.013631471
134	0xbcb369d6	-0.021901052
135	0x3cf03ec9	0.029326813
136	0xbb8cb80b	-0.0042944006
137	0x3bb91b82	0.005649031
138	0x3c0436e9	0.008069732
139	0xbc324f18	-0.010883115
140	0xbbb272ae	-0.0054458
141	0xbc737232	-0.014858769
142	0x3bdc87ed	0.006730071
143	0xbc2408f9	-0.010011905
144	0x3ccb0bc1	0.024785878
145	0xbc77971c	-0.015111711
146	0x3c6ff35f	0.0146454265
147	0x3c557a58	0.013029657
148	0x3a3fa89c	0.00073111965
149	0x3864b8e4	5.453163e-05
150	0x3ce2c578	0.027682051
151	0xbb2c758d	-0.0026315183
152	0x3c713095	0.0147210555
153	0xbc5f563f	-0.0136314025
154	0xbb1e1fef	-0.002412792
155	0xbbf8f464	-0.007597493
156	0x3cd6f930	0.026241869
157	0x3aaf7d4a	0.001338878
158	0xbc5db7fe	-0.013532637
159	0xbbf079fc	-0.0073387604
160	0xbc11ba0e	-0.008894457
161	0xbb0bbdff	-0.0021322963
162	0xbbe37a87	-0.0069420966
163	0xb736fc40	-1.0906777e-05
164	0xbc636632	-0.013879346
165	0xbb4b2db1	-0.0031002576
166	0xbbecef6d	-0.00723069
167	0x3b75a08e	0.0037479731
168	0x3c88c1f0	0.01669404
169	0x3c3b1e79	0.0114208395
170	0xbba8d783	-0.005152644
171	0x3c94eafe	0.01817846
172	0xbca66198	-0.020310208
173	0xbb1554eb	-0.002278621
174	0xbcdc2ef1	-0.026877852
175	0xbc20cc28	-0.0098143
176	0xbc2771b2	-0.010219978
177	0xbc58fe01	-0.013244153
178	0x3ab47f99	0.0013770937
179	0x3c506b23	0.012720856
180	0x3c2eb9c5	0.010664408
181	0x3b87eb72	0.0041479403
182	0xbbcb1f6a	-0.006198813
183	0xbb14624b	-0.0022641595
184	0xbbe0d03a	-0.00686076
185	0xbb995478	-0.004679259
186	0x3c325b6e	0.010886056
187	0xbd068c3a	-0.032848574
188	0xbc70ed54	-0.014705021
189	0xba80c161	-0.0009823256
190	0xbcc8915a	-0.024483372
191	0xbc1678ec	-0.009184103
192	0x3ba7fab0	0.00512632
193	0xbaf4bf20	-0.0018672682
194	0x3c160138	0.009155564
195	0x3be8caff	0.007104277
196	0x3c6c4c07	0.014422423
197	0x3c79b3a3	0.015240583
198	0x3c1cdc6e	0.009574039
199	0x3ba1d34b	0.004938518
200	0x3c9e37f6	0.019313794
201	0x3c1497fa	0.009069437
202	0xba5e283c	-0.00084746233
203	0x3b111d98	0.0022142883
204	0x3ac97992	0.0015371314
205	0x3cc8fff8	0.024536118
206	0x3a0721a4	0.0005154854
207	0xbbb6a9bf	-0.0055744345
208	0x3a21e1a8	0.0006175288
209	0xba0fcd07	-0.00054855685
210	0xbcb0ac7e	-0.021566626
211	0xbb646412	-0.0034849686
212	0x3c2b041d	0.010437992
213	0xbca92d6b	-0.02065154
214	0xbc36c3be	-0.011155067
215	0x3cd95664	0.026530452
216	0xbc806f00	-0.015677929
217	0x3c63d1b9	0.013904982
218	0x3c5b9b03	0.013403657
219	0xbc1207f9	-0.008913034
220	0x3c54d3f0	0.012989983
221	0xbb7b6021	-0.0038356858
222	0xbb8658b3	-0.0040999292
223	0x3cc7360f	0.02431777
224	0x3d049d29	0.032376442
225	0xbc376674	-0.01119386
226	0xbc33d261	-0.010975451
227	0xbc32885d	-0.010896769
228	0x3ca592c2	0.020211581
229	0xbbd90298	-0.0066226237
230	0xbc068067	-0.008209324
231	0xbc49f31c	-0.012326028
232	0xbca42ede	-0.02004188
233	0xbcf31c50	-0.029676586
234	0xbc7aafa9	-0.01530067
235	0x3c158d7a	0.009127969
236	0x3c080a78	0.008303277
237	0x3c15ffc4	0.009155218
238	0xbc94fe54	-0.01818768
239	0xbb17734e	-0.0023109498
240	0xbc473d61	-0.01216063
241	0x3bbac139	0.0056993035
242	0x39a4658d	0.0003135618
243	0x3bd14b68	0.006387163
244	0x3c39b216	0.011333963
245	0xbca28a01	-0.019841196
246	0xbb86af9a	-0.004110289
247	0x3cb688d9	0.02228205
248	0x3ba176a0	0.0049274713
249	0x3be1a54b	0.0068861595
250	0x3bbfeaca	0.0058568465
251	0x3cb657ea	0.022258718
252	0xbbe3ca1b	-0.006951583
253	0x3c551d69	0.0130075
254	0xbbfc6418	-0.007702362
255	0xbcb31d97	-0.021864695

action_model._discrete_distribution.branches.0.weight f4 [1, 256]
0	0xbb152121	-0.0022755342
1	0x3c0eac53	0.0087080775
2	0xba01b4d5	-0.00049479055
3	0x3aff23c8	0.001946562
4	0xbba1572b	-0.0049237213
5	0x3b456c27	0.0030124278
6	0x3c239b18	0.009985708
7	0x3b85e43a	0.0040860446
8	0xbb2663a6	-0.0025388985
9	0xbb1680e1	-0.0022965001
10	0xba6d89c7	-0.0009061363
11	0x3a9a23b5	0.0011759909
12	0x3b160b62	0.0022894968
13	0x3baa7283	0.005201639
14	0xbbb88d3b	-0.0056320704
15	0x39eebea0	0.00045536924
16	0xbc28061c	-0.010255363
17	0xbbf703b0	-0.0075382814
18	0xbb1ee453	-0.0024244979
19	0xbb0ecd7f	-0.0021789966
20	0xbc64ae58	-0.013957582
21	0x3c35402d	0.011062664
22	0xbc06d7f2	-0.008230196
23	0xbc54380a	-0.012952814
24	0xbb21911b	-0.002465314
25	0x3c328319	0.010895514
26	0x3922af39	0.000155148
27	0xba3ab27f	-0.0007121935
28	0xbbc3830a	-0.005966549
29	0xbb554bc2	-0.0032546376
30	0xbab4c4d9	-0.0013791575
31	0xbbc06598	-0.005871486
32	0x3c027216	0.0079617705
33	0xbb87bda0	-0.004142478
34	0x3bfe580d	0.0077619613
35	0xbbef7280	-0.0073073506
36	0xba31ebbb	-0.0006787141
37	0xbbfe3d5d	-0.00775878
38	0x3be606e2	0.0070198635
39	0xbb46fa31	-0.0030361528
40	0x3a1e12b9	0.00060300116
41	0xbbabd400	-0.005243778
42	0xbbdac2dd	-0.0066760615
43	0x3aea49c5	0.0017874768
44	0xbb5ca68b	-0.0033668603
45	0x3c1fa981	0.009745003
46	0xbb697138	-0.0035620462
47	0x3c3768f1	0.011194454
48	0x3c40bd13	0.011763829
49	0xba9478df	-0.0011327526
50	0xbb1c8c63	-0.0023887388
51	0xbabf9ba1	-0.0014618525
52	0x39c49b6f	0.0003749984
53	0x3b263b06	0.002536477
54	0xba9ca755	-0.0011951724
55	0xbc238465	-0.009980296
56	0x3b9b4673	0.004738623
57	0xbc609c92	-0.013709204
58	0xbc127a0c	-0.008940231
59	0xbbc8181f	-0.006106391
60	0x39d9d380	0.00041547045
61	0xbc2310c7	-0.0099527305
62	0xbbde61fa	-0.006786582
63	0x3ba824ab	0.0051313243
64	0x3910f675	0.00013824723
65	0xb91364fb	-0.0001405663
66	0xbc236e13	-0.009974974
67	0xbb62ae87	-0.003458889
68	0xbbd5c2fb	-0.0065234876
69	0xbb54068b	-0.0032352533
70	0xbafec53f	-0.0019437446
71	0xbb09bc5f	-0.002101682
72	0xbbc59b94	-0.0060305092
73	0xbb090a70	-0.0020910762
74	0x3baf481b	0.005349172
75	0x3c11bae2	0.008894654
76	0x3a806308	0.0009795139
77	0x3c4c6523	0.012475285
78	0xbbcf550a	-0.006327276
79	0x3b311bd0	0.0027024634
80	0xbb804d86	-0.0039154915
81	0xbabb5375	-0.001429184
82	0x3a2e9cc7	0.0006660935
83	0xbb6c47e5	-0.0036053595
84	0xbaf3d4cf	-0.0018602851
85	0xbc1c18f6	-0.0095274355
86	0xbbad422c	-0.0052874293
87	0xbae9bf63	-0.0017833527
88	0xbbdc6a22	-0.006726519
89	0xba81fd7c	-0.0009917463
90	0xba05155b	-0.00050767296
91	0x3b2a4ccf	0.0025985723
92	0x3b306bc0	0.0026919693
93	0x3c3517be	0.011053024
94	0x3c2b1a4c	0.010443281
95	0xbbe0eb4f	-0.0068639885
96	0x3b4eee3a	0.00315751
97	0x3b330369	0.0027315265
98	0x3be49a0b	0.006976371
99	0x3a9b6c58	0.001185785
100	0x3a280ea3	0.00064108724
101	0xbbe358e8	-0.0069380887
102	0x3a34f628	0.0006903135
103	0x3bb0b8af	0.0053931098
104	0x39e76fd5	0.00044143075
105	0xbc36a198	-0.011146925
106	0xbbfb581f	-0.007670417
107	0xb9e150c7	-0.00042975528
108	0x3bef6d9f	0.007306769
109	0xbbf0b347	-0.0073455903
110	0xbbaafa81	-0.0052178507
111	0x3aab17cd	0.0013053358
112	0x38e880f8	0.000110866444
113	0xbbeba26a	-0.007190992
114	0x3b91ef5c	0.0044535827
115	0xb9b2ebf7	-0.00034126613
116	0x3ac82dd7	0.001527245
117	0xba79d2cf	-0.0009530009
118	0xbc532682	-0.012887599
119	0x3b2857a6	0.0025687008
120	0xbb89cd8a	-0.0042054104
121	0x3c6401df	0.013916462
122	0xbc21b6c7	-0.009870238
123	0x3c393397	0.011303804
124	0x3b8a974f	0.004229463
125	0xbb0b1524	-0.0021222318
126	0xbbc9a2e3	-0.006153451
127	0xb833e162	-4.288683e-05
128	0xbc56cfd8	-0.013111077
129	0x3aeeb740	0.0018212572
130	0x3b56589d	0.0032706626
131	0xbaab6fd4	-0.0013079592
132	0x3b35505c	0.0027666306
133	0xbc010df1	-0.007876859
134	0xbc0e6111	-0.008690135
135	0x3c00034f	0.007813289
136	0x3aeff29a	0.0018306554
137	0x3b8b260f	0.0042464803
138	0xbba0cfe4	-0.004907595
139	0x3c7c8540	0.015412629
140	0xbb5ae430	-0.003340017
141	0x3beb4b3f	0.007180601
142	0x3b7e8498	0.0038836356
143	0xba21f2a9	-0.0006177822
144	0x3b5c2207	0.0033589618
145	0x3b9a38ff	0.0047065015
146	0xbb97fb97	-0.004638146
147	0xbbf106e8	-0.0073555596
148	0x3b458139	0.0030136837
149	0x3bd5b49f	0.006521776
150	0xbc02599c	-0.007955935
151	0x3bd8a16f	0.0066110413
152	0x3bff827d	0.007797538
153	0xbc203f45	-0.00978071
154	0x3c61de95	0.013785978
155	0xbbc2cf8b	-0.005945151
156	0x3b703d67	0.0036657692
157	0xba590153	-0.00082780904
158	0x3bd7e2aa	0.0065882998
159	0x3b34b323	0.0027572594
160	0x3c0eec87	0.008723385
161	0xbb865be7	-0.004100311
162	0x3c439d0a	0.0119392965
163	0xbb44f5c7	-0.0030053721
164	0x39c3b149	0.00037325386
165	0xba7554a3	-0.000935862
166	0x3b2c229f	0.0026265753
167	0x3b93e367	0.0045131925
168	0x3b578c52	0.0032890034
169	0x3bc2f5dc	0.005949719
170	0x3bef99b2	0.007312023
171	0xb9ac959b	-0.0003291786
172	0xbb534762	-0.0032238592
173	0x3a423bbc	0.0007409414
174	0x3b96df25	0.0046042376
175	0xb9124cde	-0.0001395228
176	0xba80f9f8	-0.0009840121
177	0x3ba97b66	0.005172181
178	0x3beea81b	0.0072832233
179	0xbbbb879a	-0.005722952
180	0xbb4aac57	-0.0030925476
181	0xbb318293	-0.0027085885
182	0xbac75ec3	-0.0015210736
183	0x3bfaed20	0.007657662
184	0xbc13188d	-0.008978021
185	0xbb812202	-0.0039408216
186	0x3b4c845b	0.003120682
187	0x3be68ac0	0.0070355833
188	0x3c1dfdae	0.0096430015
189	0xbc4edc0b	-0.0126257045
190	0xbb9fbe8a	-0.004875009
191	0x39f3c283	0.00046493494
192	0x3b1c901e	0.0023889611
193	0xbb43b61f	-0.0029863191
194	0x3c1decb2	0.009638952
195	0xba965353	-0.0011468924
196	0x3c16045a	0.009156311
197	0xbc0bbadb	-0.0085284365
198	0xbc1e3ec6	-0.009658521
199	0x3a8583fd	0.001018643
200	0x3bc6bfd5	0.0060653486
201	0x3c179f89	0.009254345
202	0x39950bc7	0.0002842827
203	0xb991a8d8	-0.00027782354
204	0x3b822213	0.003971347
205	0x3a7a3952	0.00095452846
206	0xbc52f983	-0.012876871
207	0xbbed85c8	-0.007248614
208	0x3a83318f	0.0010009276
209	0xbc5c58a8	-0.013448872
210	0xb9235533	-0.0001557663
211	0xbaeb5e95	-0.0017957265
212	0x3b7f5647	0.0038961337
213	0xba2a45be	-0.0006495378
214	0x3b3304f5	0.0027316187
215	0x3c697025	0.014247929
216	0xba0a74b9	-0.0005281675
217	0x3c66bf9f	0.014083772
218	0xbab73037	-0.0013976161
219	0xba83c96f	-0.0010054539
220	0xbc2176df	-0.009855001
221	0x3a053aff	0.00050823385
222	0x3ae5b09d	0.0017523948
223	0x3c2fd8f5	0.010732879
224	0x3b361c05	0.0027787697
225	0x3b53bb7d	0.0032307797
226	0xb9ebd00f	-0.0004497771
227	0xba1ba982	-0.00059380394
228	0xbab29cff	-0.0013627111
229	0x3c003fb0	0.007827684
230	0xbb3f94ae	-0.0029232907
231	0xbb942565	-0.0045210593
232	0xb983ee97	-0.0002516403
233	0x3b3a6ee3	0.0028447441
234	0xbac10bac	-0.001472821
235	0xbb535f67	-0.003225291
236	0x3a51b778	0.0008000056
237	0xbb151b0e	-0.0022751722
238	0x3bbef024	0.005826967
239	0x3ba53649	0.0050418717
240	0x3aa0bd8a	0.0012263518
241	0xb9077f62	-0.00012922057
242	0x3c6c4037	0.014419607
243	0xbb77184a	-0.0037703686
244	0xba3184c1	-0.0006771796
245	0x3ba70d37	0.005098011
246	0x39cd0be0	0.00039109495
247	0x3aa89371	0.0012861324
248	0x3c939ec8	0.018020049
249	0x3bfd60bb	0.0077324784
250	0x3c2f845e	0.010712711
251	0xbbc8bbbe	-0.0061258962
252	0x3b5a129a	0.0033275248
253	0xb9e89590	-0.0004436192
254	0x3b45bb07	0.0030171291
255	0x3adb233a	0.0016718872

network_body._body_endoder.seq_layers.0.bias f4 [256]
0	0x3b29a569	0.0025885946
1	0xba3239f0	-0.00067987945
2	0xbbb7c592	-0.005608269
3	0x3bb71556	0.0055872602
4	0x3b438fe0	0.0029840395
5	0x3b59f10a	0.0033255243
6	0x3b2ef28b	0.002669486
7	0xbb27035a	-0.0025484175
8	0xbb673e7e	-0.003528505
9	0xba2bccb1	-0.0006553634
10	0x39d9fc71	0.0004157755
11	0x3bcf6e3b	0.006330279
12	0xba072889	-0.00051558815
13	0x3bbcafa5	0.005758243
14	0x3bd39a3a	0.006457594
15	0x3aa86867	0.0012848497
16	0xbba1550d	-0.004923469
17	0xbb542349	-0.0032369664
18	0xbaa58503	-0.0012628142
19	0xbb491dc9	-0.003068792
20	0xb8d6b68d	-0.00010238318
21	0xba72f135	-0.000926751
22	0xbac547c5	-0.0015051296
23	0x3ab1db72	0.0013569428
24	0xba9ffc19	-0.0012205868
25	0x3bb61fd0	0.0055579916
26	0x3c238dba	0.009982521
27	0xbb0a7d12	-0.0021131677
28	0x3b8e8169	0.004348923
29	0x3b8f988c	0.0043821987
30	0x3b42f551	0.002974827
31	0x3be0d1cf	0.0068609486
32	0x3bb2a616	0.005451928
33	0x39d7f976	0.00041193858
34	0xbb06030c	-0.0020448593
35	0x3a145f19	0.00056599226
36	0xb7531eeb	-1.2583779e-05
37	0xbb36ef9b	-0.0027913812
38	0xbb284587	-0.0025676207
39	0x3aec7595	0.0018040413
40	0x3ad2c65f	0.0016080848
41	0xba22f20c	-0.00062158774
42	0x3a8ecc2c	0.0010894588
43	0x3bb18fab	0.005418738
44	0x3a15a41d	0.0005708354
45	0x3b585cf6	0.0033014393
46	0x3b846bfc	0.004041193
47	0x3c3dad92	0.011577027
48	0x3b933551	0.00449244
49	0x3b8d3b00	0.004310012
50	0xbb45dabf	-0.0030190197
51	0xbae93293	-0.0017791562
52	0x3c02dbf8	0.007987015
53	0xbbb45225	-0.0055029565
54	0xbba56b42	-0.0050481865
55	0x3b9fe092	0.004879066
56	0x3bd178d3	0.006392577
57	0xbb4745a3	-0.0030406497
58	0x3ba439bb	0.005011765
59	0xbb4b0d0f	-0.0030983125
60	0xbb32a663	-0.0027259819
61	0x3be651f2	0.0070288116
62	0x3a66151d	0.000877695
63	0x3bc8a7e2	0.006123529
64	0xbac1dc4e	-0.0014790387
65	0x3b2497db	0.0025114927
66	0x3bb0a625	0.0053908997
67	0xbb6dc61e	-0.0036281417
68	0xba490c8f	-0.0007669413
69	0x3b5f05ef	0.0034030636
70	0x3bb5ca62	0.0055478076
71	0x3a8088e1	0.0009806418
72	0x3b73479c	0.003712154
73	0x3bb09261	0.0053885435
74	0x3be632db	0.0070251054
75	0x3925e087	0.00015819269
76	0xbb9ce292	-0.0047877515
77	0x3a883b95	0.0010393733
78	0x3bd83025	0.006597536
79	0x3abe43f1	0.0014516098
80	0xbb23487a	-0.0024915026
81	0x3aa61378	0.0012670597
82	0xba68051a	-0.0008850858
83	0x3b809985	0.003924551
84	0x3b9c1df1	0.0047643115
85	0x3bcb09c3	0.006196232
86	0x3c2eab2f	0.010660931
87	0x3bc30a22	0.0059521357
88	0x3b02c7de	0.0019955556
89	0x3aa8de3a	0.0012883611
90	0xba912e85	-0.0011076486
91	0x3b2b4f07	0.0026139633
92	0x3b8fdc5d	0.004390283
93	0x3bc1f57c	0.0059191566
94	0x3b3a67fb	0.0028443325
95	0x3b836e56	0.004010956
96	0x3c148bba	0.0090665165
97	0x3b594273	0.003315118
98	0xbaa21692	-0.0012366346
99	0x3ba0551b	0.004892958
100	0x3c146306	0.009056812
101	0xba276384	-0.00063853734
102	0x3a21d7fe	0.0006173848
103	0x3b4c3063	0.003115677
104	0x3c1468e6	0.009058213
105	0x3a78e4ab	0.00094945234
106	0xbb4e7ca9	-0.0031507409
107	0x3b5c7b5d	0.0033642866
108	0x3bb010ef	0.0053731124
109	0x3b2b59e4	0.0026146108
110	0x3bc5e9e1	0.0060398434
111	0xbb44433f	-0.0029947308
112	0x3a7152c6	0.00092057546
113	0x384a91b3	4.8296246e-05
114	0xbb81f57d	-0.003966032
115	0x3b20d09a	0.0024538399
116	0xba1bb027	-0.00059390295
117	0xba767f97	-0.00094031676
118	0x3a6f173f	0.00091205904
119	0xbbb69a14	-0.0055725668
120	0xbb9e0733	-0.0048226356
121	0xbb22435a	-0.0024759383
122	0x3a614060	0.00085926615
123	0x3bbee2f8	0.0058253966
124	0xbaa7b45a	-0.0012794838
125	0x3baec6ec	0.005333772
126	0xbc21c30d	-0.009873164
127	0x3b96c6c0	0.0046013296
128	0x3b1727c6	0.0023064478
129	0x397fd123	0.00024396605
130	0xb9c72837	-0.000379862
131	0xbaf6cf33	-0.0018830061
132	0x3af35f04	0.0018567746
133	0xb8107e00	-3.4449622e-05
134	0x3b9156ff	0.0044354196
135	0x3b19efe2	0.0023488929
136	0x3a89e4bc	0.0010520439
137	0x3b2ec395	0.002666687
138	0x3bcbeedb	0.006223542
139	0x3b6098f5	0.0034270857
140	0x3838c00e	4.4047883e-05
141	0xbb0776fe	-0.002067029
142	0x3aeee361	0.0018225723
143	0xb97f6627	-0.0002435675
144	0x3b09f1a6	0.0021048575
145	0xb965a902	-0.00021902102
146	0xbaf45452	-0.0018640852
147	0x3bc7c0f0	0.006095998
148	0x3b0967b0	0.0020966344
149	0x381dbadf	3.7605754e-05
150	0xbacf3cbd	-0.0015810948
151	0xb925df1c	-0.00015818741
152	0xbb089999	-0.0020843504
153	0x3ba20ac0	0.004945129
154	0x3b873738	0.0041264556
155	0xbb0e8ac9	-0.0021750203
156	0xbaf6d4bb	-0.0018831709
157	0x3b8d2bb1	0.004308187
158	0x3a8f0c17	0.0010913637
159	0x3a73c36c	0.00092988345
160	0x3b78ff7e	0.0037994082
161	0xbb5dfd64	-0.0033872956
162	0x3bd68139	0.0065461663
163	0x3a758c3b	0.0009366904
164	0x39fab243	0.0004781653
165	0x39f312fd	0.0004636272
166	0x3aefc65d	0.001829337
167	0x3c055f39	0.008140379
168	0x3b8d0048	0.004303012
169	0x3b8ffb9c	0.004394008
170	0x3a5fedce	0.00085422106
171	0x3b0ce58c	0.0021499125
172	0x3b85d444	0.004084142
173	0x3aec418f	0.0018024909
174	0xbab5c8e7	-0.0013869078
175	0x3b0151c0	0.0019732565
176	0xbb93b3e7	-0.00450753
177	0x3bff1a06	0.0077850847
178	0x3bce1a78	0.0062897764
179	0xbb3576d1	-0.0027689228
180	0xbb3f9917	-0.0029235536
181	0xbb7ce0fc	-0.003858625
182	0xbac15aa8	-0.0014751749
183	0x3bd97dd5	0.006637315
184	0xb67f9130	-3.8082471e-06
185	0xbba0e892	-0.004910537
186	0x3babbc92	0.005240985
187	0x3ba85c58	0.0051379614
188	0x3ae22003	0.0017251972
189	0xbb100e3c	-0.002198114
190	0x3b9645b8	0.004585948
191	0x3bccadd3	0.0062463074
192	0x3a74ce4a	0.0009338601
193	0x3bf73eb7	0.007545318
194	0xbb400f32	-0.0029305932
195	0x3a474586	0.00076016074
196	0x3b4df5ac	0.003142695
197	0x3ba8d474	0.0051522795
198	0x3b00ea9b	0.0019671086
199	0xbb9755ea	-0.004618396
200	0x3b209787	0.002450438
201	0x3bdc3943	0.0067206933
202	0xbaed91bb	-0.0018125096
203	0x3b8b09a2	0.0042430917
204	0x3a05c990	0.00051035825
205	0x3b6ef009	0.003645899
206	0x3b269def	0.0025423726
207	0x3ba57e91	0.0050504883
208	0xb9ea9e23	-0.0004474978
209	0x3b8bca6a	0.004266073
210	0xbb053286	-0.0020324304
211	0x3b5562c6	0.0032560094
212	0xba96f438	-0.0011516875
213	0x3b295d76	0.002584306
214	0xbb07d03f	-0.002072349
215	0x3a793cde	0.0009507666
216	0x3b797ff4	0.003807065
217	0xbb886b92	-0.004163214
218	0xba91a506	-0.0011111803
219	0xbb34c94c	-0.0027585803
220	0x39db6e07	0.00041852912
221	0x3b609e43	0.0034274019
222	0xbbecf64d	-0.00723151
223	0x3b9693f7	0.0045952755
224	0x3bfbfa9c	0.007689787
225	0xbb2bd335	-0.0026218418
226	0x3bb36a1d	0.005475296
227	0x3ae2b46f	0.0017296205
228	0xbb84a69d	-0.004048182
229	0xbaaa6830	-0.0013001021
230	0xbb7d0380	-0.0038606822
231	0x3ad5acc8	0.0016302103
232	0x3b141735	0.002259684
233	0xb74cf714	-1.2216875e-05
234	0xbb1abb75	-0.0023610268
235	0xbb582623	-0.0032981716
236	0x3bd026e7	0.006352294
237	0x3ba4c618	0.0050284974
238	0x3ba76f2c	0.0051096883
239	0x3b802dd7	0.0039117145
240	0x3b7ffa86	0.0039059236
241	0x3b952481	0.0045514707
242	0x3b8aa9e4	0.0042316783
243	0x3ae3311e	0.0017333364
244	0x38df1e14	0.00010639071
245	0xbb21b348	-0.002467351
246	0xbb3afdbc	-0.0028532585
247	0x3a78cbd3	0.00094908214
248	0xbacf17b5	-0.0015799912
249	0x3bfeeddd	0.0077798204
250	0x3beb9a1b	0.0071900017
251	0x3ac65ba5	0.0015133513
252	0xba0a7849	-0.0005282206
253	0xbb34d563	-0.0027593009
254	0xbacd8f96	-0.0015683051
255	0xba447cd8	-0.000749541

network_body._body_endoder.seq_layers.0.weight f4 [256, 119]
0	0xbd3b3be7	-0.045711424
1	0xbe0bec32	-0.1366432
2	0xbe09d361	-0.13459541
3	0x3e6259cb	0.22104566
4	0x3cfd0b3b	0.030889144
5	0xbdeee6a8	-0.11665088
6	0x3cfbb290	0.030724794
7	0xbd8271a9	-0.06369335
8	0x3d6a5de0	0.057218432
9	0xbd2ef47e	-0.042713635
10	0x3e5a8f47	0.21343718
11	0xbe3856c3	-0.18001847
12	0x3dca2698	0.098706424
13	0xbd9bc4a8	-0.076058686
14	0x3db141e1	0.086551435
15	0x3d22fd28	0.03979221
16	0x3e219474	0.15779287
17	0x3b40cbd1	0.002941836
18	0xbe26c183	-0.16284756
19	0xbdeda357	-0.1160342
20	0x3e1c2b5b	0.15250914
21	0x3d9bfc02	0.07616426
22	0xbdf224f9	-0.11823458
23	0xbd57f242	-0.05272127
24	0x3d9e9985	0.07744125
25	0xbcf06bc4	-0.029348262
26	0x3d5ca544	0.053868547
27	0xbd827397	-0.06369703
28	0x3dc29ff4	0.09503165
29	0xbcd26114	-0.025681056
30	0xbe18cdcc	-0.14922255
31	0x3d69fc5d	0.057125438
32	0xbe09a7cb	-0.13442914
33	0x3d4d0e5a	0.050062515
34	0x3cf963d5	0.030443111
35	0xbe0bb0a8	-0.13641608
36	0xbd292ea5	-0.04130425
37	0xbd836cb9	-0.064172216
38	0xbe6ea73b	-0.23305981
39	0xbe15e49b	-0.14637987
40	0x3d807412	0.06272139
41	0xbd48914c	-0.04896669
42	0x3d9a8aec	0.075460285
43	0xbc8f4a14	-0.017491378
44	0x3d177fb0	0.036987007
45	0xbdb7fce6	-0.089837834
46	0x3dfbe719	0.12299938
47	0x3e0961b8	0.13416183
48	0xbe1295de	-0.14314982
49	0x3d0ed058	0.03486666
50	0x3d12bc79	0.035824273
51	0x3da0e23a	0.07855649
52	0xbcef9c49	-0.029249327
53	0x3da9fd4c	0.08300266
54	0x3db7e21c	0.08978674
55	0xbd26432f	-0.040591415
56	0x3dc3f8fc	0.095689744
57	0xbbea2d24	-0.0071464945
58	0xbe3e688f	-0.18594573
59	0xbcc02752	-0.02345625
60	0xbd3e1018	-0.046402067
61	0xbd9ada87	-0.07561212
62	0xbc619066	-0.013767337
63	0x3e6892ab	0.227122
64	0x3d15a5a1	0.03653491
65	0xbda1e108	-0.079042494
66	0x3dba3089	0.090912886
67	0x3a9c153d	0.0011908185
68	0xbd86d24c	-0.0658308
69	0x3dafae2f	0.08578145
70	0x3cd7edd8	0.02635853
71	0xbd69bbbb	-0.0570638
72	0x3e2fa4c5	0.17152698
73	0xbcfa1bfc	-0.030530922
74	0xbd58112c	-0.05275075
75	0xbd3c7863	-0.046013247
76	0xbd95eea7	-0.0732091
77	0x3d98a59c	0.074534625
78	0xbd2d3c06	-0.04229357
79	0xbd961797	-0.07328718
80	0xbe460321	-0.19337131
81	0xbe5be13d	-0.2147264
82	0x3dfc2287	0.12311273
83	0xbb60aaab	-0.0034281414
84	0x3dd511e4	0.10403803
85	0x3c7849be	0.0151543
86	0x3d202355	0.039096195
87	0xbe1656e0	-0.14681578
88	0xbd45e243	-0.048311483
89	0x3bab9178	0.005235847
90	0x3c523aab	0.01283137
91	0xbe110820	-0.14163256
92	0x3da34288	0.07971674
93	0x3a6d0476	0.0009041497
94	0x3d8988be	0.067155346
95	0xbe2d7f6a	-0.16943136
96	0xbd96fbc4	-0.07372239
97	0x3dfa8246	0.12231879
98	0x3df0d5ef	0.117595546
99	0xbc9a5111	-0.018837484
100	0xbded8c81	-0.115990646
101	0xbd002475	-0.031284768
102	0x3d10b7ed	0.035331655
103	0xbd48b854	-0.049003914
104	0xbd71bb89	-0.059016738
105	0xbd027ad0	-0.031855404
106	0xbe102e46	-0.14080152
107	0xbb226f83	-0.0024785704
108	0x3bd33e3c	0.006446628
109	0xbdc82f21	-0.09774614
110	0xbc87abde	-0.016561445
111	0xbe53f468	-0.20698702
112	0x3a453969	0.00075235084
113	0xbd901ccb	-0.07036742
114	0x3d9589c7	0.073016696
115	0xbdb06934	-0.08613816
116	0x3cb7bf0a	0.022429962
117	0x3c773572	0.015088426
118	0xbe457158	-0.19281518
119	0xbdd0b052	-0.101898804
120	0x3ce635d5	0.028101841
121	0xbcc3fcc0	-0.023924232
122	0xbda886b1	-0.08228815
123	0x3df5d72d	0.12003932
124	0x3df75a8b	0.120778166
125	0xbdce1739	-0.10063023
126	0xbc3da352	-0.011574583
127	0x3cb71166	0.022347163
128	0x3daf6d93	0.085658215
129	0xbe1d7b28	-0.15379012
130	0x3de77d2e	0.11303173
131	0xbd6928ed	-0.056923795
132	0x3db21ebe	0.0869727
133	0xbdd6027c	-0.104496926
134	0xbe3cccd0	-0.18437505
135	0xbc5640c1	-0.013076962
136	0x3d90d25e	0.07071374
137	0xbce0d59f	-0.027445612
138	0xbe10fd61	-0.14159156
139	0x3d486169	0.048921023
140	0x3d34b5f3	0.044118833
141	0xbc85ba4b	-0.016324183
142	0xbce85925	-0.02836282
143	0xbdac23a2	-0.08405234
144	0xbdd0b332	-0.10190429
145	0x3d60865b	0.05481563
146	0xbe3ab7f0	-0.18234229
147	0xbe1952c2	-0.14972976
148	0xbc3f3b84	-0.0116719045
149	0x3db97a47	0.09056526
150	0x3d6077ea	0.05480186
151	0xbd9a1b20	-0.07524705
152	0x3c739747	0.01486761
153	0xbe277e49	-0.16356768
154	0x3e2a3f90	0.1662581
155	0xbd07167b	-0.032980423
156	0x3dbbd319	0.09171123
157	0x3e6300a1	0.22168209
158	0xbc9f5561	-0.019449892
159	0xbd0ea017	-0.034820642
160	0xbdef9c00	-0.116996765
161	0xbdffa3a9	-0.124823876
162	0xbc1730ce	-0.009227945
163	0xbdf32b12	-0.118734494
164	0xbd56f171	-0.05247635
165	0xbc9aaaf2	-0.018880341
166	0x3cc49b12	0.023999725
167	0xbde310f4	-0.11087218
168	0xbd198c1a	-0.037487127
169	0xbd83b89f	-0.06431698
170	0xbcad5e82	-0.021163229
171	0xbe5ad230	-0.21369243
172	0xbd25aae1	-0.040446166
173	0x3ca1c712	0.019748244
174	0xbdc84188	-0.09778124
175	0x3c9d1a79	0.019177662
176	0xbd9d34c6	-0.07676081
177	0x3d84beae	0.06481682
178	0x3d879635	0.066204466
179	0xbe595913	-0.21225385
180	0xbcbfb0bc	-0.023399703
181	0x3d610431	0.054935638
182	0xbc4dbff6	-0.012557974
183	0xbc6cb68a	-0.014447818
184	0xbdc22722	-0.0948012
185	0x3c0c669b	0.008569385
186	0x39cab3cb	0.000386624
187	0xbdb5e1bb	-0.08880945
188	0xbd8c3d3a	-0.068476155
189	0xbda43e60	-0.080197096
190	0x3d99814b	0.07495364
191	0xbb808a66	-0.0039227484
192	0x3d0af610	0.03392607
193	0x3e3601ba	0.17774096
194	0xbe2011be	-0.15631768
195	0xbdccf1d1	-0.1000706
196	0xbca15b56	-0.019696873
197	0xbcd689ea	-0.02618881
198	0x3b80ea3d	0.0039341734
199	0x3e16dc75	0.14732535
200	0xbd100929	-0.035164986
201	0xbd2331a2	-0.039842255
202	0x3c9c2853	0.019062197
203	0x3e2083a1	0.15675212
204	0x3c9e23dc	0.019304208
205	0x3d321c9a	0.043484308
206	0xbe199d3d	-0.15001388
207	0xbd4482f5	-0.047976453
208	0xbda25317	-0.079260044
209	0x3dbf85a6	0.09351663
210	0xbde26675	-0.110546984
211	0x3db5e02f	0.0888065
212	0x3cde078e	0.027103212
213	0xbd0f8c96	-0.035046183
214	0xbdb5a567	-0.088694386
215	0x3d5d23f9	0.053989384
216	0xbd824b5f	-0.06362032
217	0x3ddd751a	0.10813351
218	0xbbbffef3	-0.0058592497
219	0xbd81ab56	-0.06331508
220	0x3cd657b1	0.026164861
221	0xbdb37753	-0.08762994
222	0x3d9f35af	0.07773911
223	0x3d6afc76	0.05736967
224	0x3df9a80f	0.12190258
225	0x3da41ada	0.08012934
226	0x3c50c390	0.012741938
227	0x3d339cc9	0.043850694
228	0x3d910efc	0.07082936
229	0xbe02e82a	-0.12783876
230	0x3d783f11	0.06060702
231	0xbd3a5807	-0.045494106
232	0x3dee9378	0.11649221
233	0xbdc4cb10	-0.096090436
234	0xbdb4fd4c	-0.08837375
235	0xbca820f0	-0.020523518
236	0x3d1c6900	0.038186073
237	0xbc4f8a34	-0.012667228
238	0xbca098fb	-0.019604197
239	0x3ceaa367	0.02864237
240	0x3d02df02	0.031950958
241	0xbde39d9c	-0.11114046
242	0xbc1d7f71	-0.009612904
243	0xbe1375cd	-0.14400406
244	0xbd912f67	-0.070891194
245	0xbdaca99a	-0.084307864
246	0xbd83e19f	-0.06439518
247	0x3d4b9c9b	0.049709897
248	0xbe0ff183	-0.14056973
249	0x3c9f0815	0.019413034
250	0x3d39d9ec	0.045373842
251	0x3d2f037d	0.042727936
252	0x3be56113	0.0070000975
253	0xbcd1bab1	-0.025601717
254	0xbdfce759	-0.123488136
255	0xbd943fc5	-0.072387256

network_body._body_endoder.seq_layers.2.bias f4 [256]
0	0x3c46f8d4	0.012144286
1	0x3c196e22	0.009364637
2	0x3b84824e	0.004043854
3	0x3b84affa	0.0040492984
4	0xbae1ce7b	-0.0017227674
5	0x3a513867	0.0007981122
6	0x3b31f319	0.0027152954
7	0xbc1100ff	-0.008850335
8	0x3b229e94	0.0024813758
9	0xbab724ce	-0.0013972761
10	0xbb859855	-0.0040769973
11	0x3b78c2aa	0.0037957826
12	0xba094426	-0.000523629
13	0x3ba44df1	0.005014174
14	0x3b8885c6	0.0041663377
15	0x3b5ccca5	0.0033691314
16	0x3b5a0d2b	0.003327201
17	0xbb8476b7	-0.004042472
18	0xbb0c0cd3	-0.0021369949
19	0xbbc3cd75	-0.00597542
20	0x3ab52ed6	0.0013823162
21	0x3b23fd6f	0.0025022884
22	0x3a0fc5f2	0.0005484513
23	0x3b8a8f2a	0.0042284923
24	0x3b3a9907	0.002847256
25	0xba7b2c65	-0.00095815054
26	0xbb2a7743	-0.0026011027
27	0x3b27f4f9	0.0025628193
28	0x3997447f	0.00028851998
29	0x398ba1a3	0.00026632575
30	0x3af6209b	0.0018778028
31	0xba005933	-0.0004896104
32	0x3c119b4c	0.008887123
33	0xbb5c1cc3	-0.003358648
34	0x3a38f341	0.00070552906
35	0x3bc702f6	0.006073351
36	0x3b8cbe76	0.0042951657
37	0xbb2f636e	-0.0026762146
38	0xbba0e6f8	-0.004910346
39	0x3a45b29f	0.000754157
40	0xba87890a	-0.0010340523
41	0xbaf57335	-0.0018726351
42	0x3b64c564	0.0034907693
43	0x393a16b2	0.00017746797
44	0xbbdf33ef	-0.006811611
45	0x3b8fcee3	0.0043886765
46	0xba9e6400	-0.0012084246
47	0x3b2b33ff	0.0026123521
48	0x3b6c4302	0.0036050682
49	0x3bac1f1d	0.0052527324
50	0x3ae674df	0.0017582438
51	0xbab735eb	-0.0013977861
52	0x3ae25017	0.00172663
53	0x3aad3508	0.0013214657
54	0xbb629e37	-0.0034579167
55	0xb9fb6efd	-0.00047957143
56	0x3c1333cc	0.008984517
57	0x3b10f563	0.0022118918
58	0xbb0cf97f	-0.0021511016
59	0xbb86cd1d	-0.004113807
60	0x3b34a10b	0.002756181
61	0xba3c6b10	-0.00071875844
62	0xbb5afaa4	-0.0033413554
63	0xbb8103d2	-0.003937223
64	0x3bd069ea	0.006360282
65	0xbb21d006	-0.0024690642
66	0x3ba30d35	0.0049759396
67	0xbae7156c	-0.0017630286
68	0x3ab18f30	0.0013546702
69	0xb7ca9daa	-2.4153695e-05
70	0x3bee1bd0	0.007266499
71	0xbbf75695	-0.007548163
72	0x3b18b2be	0.0023299898
73	0x3bb0409b	0.0053787953
74	0xbb30c538	-0.002697302
75	0x3bca0454	0.0061650667
76	0x3b2c1ed2	0.0026263488
77	0xba9aadcd	-0.0011801064
78	0x39b02192	0.00033594348
79	0xbab6fe1b	-0.0013961227
80	0xbb9dbaac	-0.004813513
81	0x3be4d9d9	0.0069839773
82	0xbbafb040	-0.005361587
83	0xbb47c575	-0.0030482684
84	0xbafcaec6	-0.0019278161
85	0x3b79fbce	0.0038144472
86	0x3b160e6a	0.0022896775
87	0x3b975ded	0.004619351
88	0xbaa6ecca	-0.0012735364
89	0xbb6d0970	-0.0036168955
90	0xba123f43	-0.0005578885
91	0x3b5c2628	0.0033592079
92	0x3ba6f6f5	0.0050953575
93	0x3bbcd752	0.005762973
94	0xbb2b9239	-0.0026179685
95	0xbb19d0d8	-0.0023470428
96	0x36bfe8be	5.7193383e-06
97	0xbaabe059	-0.0013113125
98	0x3aa85c18	0.0012844829
99	0x3bdf4472	0.0068135792
100	0x3bc65cbc	0.0060535353
101	0x3be06773	0.0068482696
102	0x3b7465c4	0.0037292102
103	0x3bb08b79	0.00538772
104	0x3b25212d	0.0025196776
105	0xba9cb1df	-0.0011954865
106	0xbb9660aa	-0.00458916
107	0x39c3d86b	0.00037354542
108	0x3bfaf1b9	0.00765821
109	0x3adb9796	0.001675355
110	0xbb9ce29e	-0.004787757
111	0xbaf47988	-0.0018651942
112	0x3b1caa47	0.0023905204
113	0xbb31778f	-0.002707932
114	0x39e4dfde	0.00043654343
115	0x3b1f6843	0.002432362
116	0x3b159fb1	0.002283078
117	0x3bfea2ce	0.0077708727
118	0xba9c03b9	-0.0011902965
119	0x3b0d3f0b	0.002155247
120	0xbb00ee1a	-0.001967317
121	0xbb5a719a	-0.0033331872
122	0xbb13ed4f	-0.0022571867
123	0x399c6c1c	0.00029835186
124	0x3b1658bf	0.002294108
125	0xbbd91e9e	-0.0066259643
126	0x3bd207d1	0.006409623
127	0xbb4d7c75	-0.00313547
128	0xb9b0a85b	-0.0003369477
129	0x3a9b1b79	0.0011833749
130	0x3b815a01	0.003947497
131	0x3ba95545	0.0051676356
132	0x3c154db7	0.009112767
133	0x3ae3135a	0.0017324493
134	0x3b12f1b3	0.0022421896
135	0xb9bfc3e2	-0.00036576303
136	0xba962309	-0.0011454533
137	0xbb5e3f1a	-0.0033912123
138	0xbaba158d	-0.0014197096
139	0x3b4db982	0.003139109
140	0xbad4508f	-0.0016198325
141	0x3a54e09a	0.00081206264
142	0xbba72849	-0.005101238
143	0xb9781036	-0.00023657162
144	0x3b956d45	0.004560145
145	0x3b62dff5	0.0034618352
146	0x3a9d3f2b	0.0011996975
147	0x3c0ed595	0.008717914
148	0x3b952747	0.0045518014
149	0x3ad4cecb	0.0016235946
150	0xb9a83f84	-0.0003209078
151	0x3b5053d5	0.003178825
152	0xba86991b	-0.0010269018
153	0xbc15ff6d	-0.0091551365
154	0x3b93b24c	0.0045073386
155	0xbaae7a46	-0.0013311587
156	0xb9d1e712	-0.00040035747
157	0xbacb72ea	-0.0015521918
158	0x3a041e87	0.00050399493
159	0xb9cb7b8a	-0.0003881122
160	0x3a6aed74	0.0008961775
161	0x3b5a93eb	0.0033352326
162	0x3a470bae	0.0007592988
163	0xbb7c96cf	-0.0038542037
164	0xbb4bfaa0	-0.0031124726
165	0x3b5e359b	0.0033906463
166	0x3ba82494	0.0051313136
167	0x3af6c61d	0.0018827353
168	0xb92ee0a7	-0.00016677623
169	0x3b252830	0.0025200956
170	0x3c1a5be4	0.0094213225
171	0x3a597b40	0.0008296259
172	0x3b797204	0.0038062343
173	0x3bea22a0	0.007145241
174	0x3b1ffde0	0.0024412796
175	0x3a0d609f	0.0005393121
176	0x3ba575cf	0.0050494443
177	0x3b5182b1	0.0031968767
178	0x3b5a1931	0.0033279175
179	0x3c081881	0.008306623
180	0xba53bdab	-0.0008077274
181	0xbc165bdf	-0.009177177
182	0xb985378a	-0.00025409117
183	0xbb4aaf2b	-0.0030927162
184	0x3abe0e04	0.0014500027
185	0xbacff67e	-0.0015866307
186	0x3ac0dae0	0.0014713667
187	0x3ba64805	0.0050745034
188	0x3b6e23e9	0.0036337322
189	0x3a25e467	0.0006328285
190	0x3b3d7460	0.0028908476
191	0xbbc6070b	-0.00604332
192	0x3bdf166e	0.0068080937
193	0x3b19292d	0.002337049
194	0x3a855c08	0.0010174522
195	0x3a8a8b48	0.0010570074
196	0x3a4b20a6	0.00077487004
197	0xbb2c9cd8	-0.0026338603
198	0xbb7ed180	-0.0038882196
199	0x3b4a7ff9	0.0030899032
200	0x3a97c1a7	0.0011578099
201	0x3a058848	0.0005093855
202	0x3b748142	0.003730849
203	0xbabe1d70	-0.0014504623
204	0x3b61f513	0.003447835
205	0x3bbdabb2	0.00578829
206	0xbb936791	-0.00449843
207	0xb816cc6e	-3.5953177e-05
208	0x3b278e1e	0.0025566886
209	0x3a5e1297	0.0008471398
210	0x3b573f41	0.0032844099
211	0x3b01db1e	0.0019814442
212	0xb9ac43f9	-0.0003285704
213	0x3b1d32e9	0.0023986644
214	0x3ad9c90d	0.0016615704
215	0xb7b6a60f	-2.1773418e-05
216	0xbae63863	-0.0017564412
217	0x3a818c41	0.0009883718
218	0xbba6cc96	-0.0050903065
219	0xbab7e37e	-0.001402959
220	0x3b91e207	0.0044519934
221	0x3b496d65	0.003073537
222	0x3b14fb91	0.0022732953
223	0x3b77c0e2	0.0037804176
224	0x3b26c777	0.002544848
225	0xbafc294a	-0.0019238379
226	0xbb395119	-0.0028277098
227	0xba2a3f3a	-0.0006494407
228	0xb813764a	-3.5157696e-05
229	0x39f00a5f	0.00045784094
230	0x3b18fbe1	0.002334349
231	0xbb2d964a	-0.0026487284
232	0x3b10c462	0.002208971
233	0xbb216588	-0.0024627168
234	0x3b306c3f	0.0026919988
235	0x3a5f9f98	0.0008530556
236	0x3a188e76	0.0005819568
237	0x3aacd60a	0.0013186347
238	0x3b22c20f	0.0024834906
239	0xb98d6dfb	-0.00026975558
240	0xbb3d9540	-0.0028928071
241	0x3b9cccea	0.00478517
242	0xba2bbc63	-0.0006551204
243	0xba8dc5df	-0.0010816416
244	0xb99d7d5b	-0.0003003877
245	0x3a991482	0.0011679085
246	0x39f2d41c	0.0004631587
247	0x392d7156	0.00016540787
248	0x3a56b6bb	0.0008190681
249	0x3b69bbbe	0.0035664882
250	0xbb7ab80e	-0.0038256678
251	0x3987cf66	0.0002590373
252	0xba4ae2aa	-0.0007739464
253	0xb9ceac24	-0.00039419637
254	0x3b5cad1e	0.0033672522
255	0x3b80747e	0.003920137

network_body._body_endoder.seq_layers.2.weight f4 [256, 256]
0	0xbd666994	-0.05625303
1	0x3c72f729	0.014829435
2	0xbcb0a5b5	-0.02156339
3	0x3d23627b	0.03988884
4	0xbda1244d	-0.07868252
5	0x3da4aacb	0.08040389
6	0x3d2a90a1	0.041641835
7	0x3dafc338	0.08582157
8	0x3e02acb8	0.127612
9	0xbcf82351	-0.030290278
10	0x3ca7af74	0.020469405
11	0x3de41887	0.11137491
12	0x3bcade76	0.00619107
13	0x3bf39f3b	0.0074347532
14	0x3b531612	0.00322092
15	0xbd9e27d7	-0.077224426
16	0xbd7aaf06	-0.06120207
17	0x3caf6147	0.02140869
18	0xbcc8cf59	-0.024512934
19	0x3cb732bf	0.022363065
20	0x3d6e185c	0.0581287
21	0x3bd0572b	0.0063580475
22	0x3c50cf29	0.012744703
23	0xbccb6450	-0.024828106
24	0x3e0b459f	0.13600777
25	0xbd918f09	-0.0710736
26	0xbda303ee	-0.07959734
27	0xbd10d8f8	-0.035363168
28	0x3c92ffd4	0.017944254
29	0xbd767051	-0.060165707
30	0x3ca84786	0.020541918
31	0x3cb56189	0.022141235
32	0xbc11b2ba	-0.008892709
33	0xbd4ec347	-0.0504792
34	0xbd7d2c5c	-0.061809883
35	0xbc90d1f0	-0.017678231
36	0x3d1dd09b	0.03852902
37	0x3d7e9482	0.062153347
38	0x3c5367ff	0.012903213
39	0x3e037387	0.12837039
40	0x3dc753eb	0.09732803
41	0xbdc9918f	-0.09842216
42	0x3df5728a	0.11984737
43	0xbcce692a	-0.02519663
44	0x3cdeecc4	0.027212508
45	0xbd34fd4e	-0.044186883
46	0x3d7b07e0	0.061286807
47	0xbc381540	-0.011235535
48	0xbd1afd1a	-0.037839033
49	0x3dee0235	0.11621515
50	0x3dccc787	0.09998994
51	0x3da6b1b8	0.08139366
52	0x3dbf3c47	0.09337669
53	0xbd9fe0df	-0.07806563
54	0x3d0c1fb6	0.03420993
55	0xbc1bd24e	-0.00951059
56	0xbcc9f7a9	-0.024654226
57	0x3d08def4	0.03341575
58	0x3d8c12a7	0.06839495
59	0xbca3984e	-0.019970085
60	0x3d258fde	0.040420406
61	0xbd85446d	-0.06507192
62	0xbe0cc43f	-0.13746737
63	0xbd18239d	-0.03714334
64	0x3b650a63	0.0034948818
65	0xbcb20079	-0.021728741
66	0xbb69d47f	-0.0035679636
67	0x3d18036e	0.037112646
68	0xbdc425d8	-0.095775306
69	0xbda7b487	-0.0818873
70	0x3d8aa2f7	0.06769364
71	0xbc904039	-0.017608749
72	0x3ddd624a	0.10809763
73	0x3e414946	0.18875608
74	0x3d1673c0	0.03673148
75	0x3d8c4fae	0.06851135
76	0x3d101feb	0.03518669
77	0xbb814711	-0.0039452394
78	0x3cc1a90b	0.023640176
79	0x3d07cd18	0.033154577
80	0xbc75139c	-0.0149582885
81	0xbd93a1ba	-0.07208581
82	0x3c3526a1	0.011056573
83	0x3ddf8e9c	0.109158725
84	0xbd5a373a	-0.053275324
85	0x3cc22a02	0.023701672
86	0x3df16f1d	0.11788771
87	0xbd95eab3	-0.07320156
88	0x3d8ce4d6	0.068795845
89	0x3d1f6ac6	0.038920186
90	0x3d80a648	0.06281716
91	0x3d15e863	0.036598574
92	0xbdaf0643	-0.08546116
93	0x3a2a0c95	0.000648686
94	0xbda2a899	-0.07942314
95	0xbd12ca60	-0.03583753
96	0x3da8fe45	0.08251623
97	0x3daaf9da	0.08348437
98	0x3db8e088	0.09027201
99	0xbdbbbb56	-0.09166591
100	0xbd845b65	-0.064627446
101	0xbd248c47	-0.04017284
102	0x3dbefe5f	0.09325861
103	0x3b41869a	0.0029529692
104	0x3ddf73f9	0.10910792
105	0xbc879a7b	-0.016553154
106	0x3c9b73e0	0.018976152
107	0x3d49376f	0.04912513
108	0xbd760926	-0.06006732
109	0x3d03feb3	0.032225322
110	0xbc385eb5	-0.011253049
111	0xbdcfc5bb	-0.10145136
112	0x3d4531bb	0.04814313
113	0x3d8150ed	0.063142635
114	0xbd1684ae	-0.036747627
115	0x3c156724	0.009118829
116	0x3d989755	0.07450739
117	0x3d89ee33	0.06734886
118	0x3c9b46b8	0.01895462
119	0x3ba59fb9	0.005054441
120	0xbc0e11db	-0.008671249
121	0x3cc5664c	0.02409663
122	0x3d8d3743	0.06895306
123	0x3d2bc0c1	0.04193187
124	0x3d13770d	0.036002208
125	0x3d3a909e	0.045548074
126	0x3d1948c5	0.037422914
127	0xbb9e27fe	-0.004826545
128	0x3bb74b82	0.005593718
129	0xbdd6ee33	-0.10494652
130	0x3cf5f7db	0.030025413
131	0x3d028c7a	0.03187225
132	0xbd2003d5	-0.039066155
133	0xbe477704	-0.19478995
134	0xbda8fe56	-0.08251636
135	0xbde4f479	-0.11179442
136	0xbc460604	-0.012086395
137	0xbc564f9d	-0.013080505
138	0x3d9a241b	0.07526418
139	0x3d630a03	0.05542947
140	0x3d3f10fb	0.046647053
141	0xbd9526e9	-0.07282812
142	0xbc67dc44	-0.0141516365
143	0x3c35e1f6	0.011101237
144	0x3d3fbea0	0.046812654
145	0xbd86a80a	-0.0657502
146	0x3ccbfc6f	0.024900643
147	0x3c903652	0.017604027
148	0x3d245a1d	0.040125
149	0x3da17d6f	0.07885253
150	0x3d2e182e	0.04250353
151	0x3d2f5526	0.042805813
152	0xba99e294	-0.0011740499
153	0x3cbe0059	0.023193525
154	0xbd1878ba	-0.03722451
155	0xbcf240b0	-0.029571861
156	0xbcfa16d1	-0.030528458
157	0xbb5a660c	-0.0033324985
158	0xbc3dff9c	-0.011596587
159	0xbd753d08	-0.059872657
160	0x3e77b7d7	0.24191223
161	0x3c789b38	0.015173726
162	0x3ceb6d82	0.02873874
163	0xbcbc305c	-0.022972278
164	0x3d62f620	0.055410504
165	0x3df91e93	0.12164035
166	0xbc6a0c48	-0.014285155
167	0x3dfd4bb5	0.123679556
168	0x3d75bd46	0.05999496
169	0x3d7619f0	0.06008333
170	0x3d674abb	0.056467753
171	0xbcd71918	-0.026257083
172	0x3c93d7e6	0.018047284
173	0xbda45375	-0.08023731
174	0xbdcb70e4	-0.099336416
175	0x3dced6d3	0.10099568
176	0x3d3bd1c7	0.045854356
177	0xbd2e1e25	-0.042509217
178	0xbd3cba52	-0.046076126
179	0xbce3d2bb	-0.027810445
180	0xbda1016e	-0.07861601
181	0x3dc36385	0.09540466
182	0x3d55a415	0.052158434
183	0x3bfc433a	0.0076984437
184	0x3bdaae09	0.0066735786
185	0x3d4d3dba	0.050107695
186	0xbd19b33e	-0.037524454
187	0x3d0470f8	0.032334298
188	0x3bba8f71	0.005693369
189	0xbdd82390	-0.10553658
190	0x3d13d07c	0.036087498
191	0x3d2a6d75	0.041608293
192	0xbd300eca	-0.042982854
193	0x3d84cd8e	0.06484519
194	0x3ce1b81f	0.027553616
195	0x3c1fc3f4	0.009751309
196	0xbbfab01a	-0.0076503875
197	0xbcc590fd	-0.024116987
198	0x3c51a8ef	0.012796625
199	0xbe080219	-0.1328205
200	0x3d03ccdd	0.032177795
201	0x3d058a02	0.032602318
202	0x3b0b2b81	0.0021235647
203	0x3cc454f2	0.023966286
204	0xbcf5f43a	-0.030023683
205	0x3d8df5e3	0.06931665
206	0xbc8c2c2c	-0.017110907
207	0x3d47ef6a	0.048812307
208	0x3c5f5c86	0.013632899
209	0x3a7888e9	0.00094808504
210	0x3cf9d2d2	0.030496035
211	0xbdda1148	-0.106478274
212	0xbae3f724	-0.0017392379
213	0x3db7f17a	0.08981605
214	0x3d6ee388	0.05832246
215	0x3dba4339	0.09094853
216	0xbb98aca9	-0.0046592546
217	0xbde8ed97	-0.11373442
218	0x3cacc00a	0.021087665
219	0xbdcb8143	-0.09936764
220	0x3d29f37f	0.04149198
221	0x3d644682	0.055731304
222	0x3c00a531	0.007851885
223	0x3d9e5255	0.07730547
224	0x3ba16ee6	0.00492655
225	0xbd7952f7	-0.060870137
226	0x3d8c12c2	0.06839515
227	0xbd8d55f7	-0.06901162
228	0xbcc5459a	-0.02408104
229	0xbdb35d2f	-0.08758008
230	0x3d440874	0.047859624
231	0xbcfe074e	-0.031009343
232	0x3e033fa7	0.1281725
233	0xbdd207ff	-0.102554314
234	0x3c2ae1dd	0.010429827
235	0xbc74947f	-0.014927982
236	0x3c6f49dc	0.014605012
237	0x3da73c44	0.08165792
238	0x3daa0dff	0.08303451
239	0xbd80999d	-0.062792994
240	0xbcac257d	-0.02101397
241	0x3c898d75	0.016791085
242	0x3d3b41d5	0.04571708
243	0x3cac200f	0.02101138
244	0x3d2b072f	0.041754898
245	0xbd62a0f0	-0.055329263
246	0xbbae21de	-0.005314096
247	0xbcdb68c3	-0.026783353
248	0xbd8cf416	-0.06882493
249	0x3d949d8c	0.07256612
250	0xbd7d29bc	-0.06180738
251	0x3a3af871	0.00071323576
252	0x3d94f3e7	0.07273083
253	0x3d1cb2d5	0.038256485
254	0xbcde1905	-0.02711154
255	0x3da9c4a6	0.08289461
