results/Run 14/AgentController/AgentController-499979.onnx (onnx, 657373 bytes, 14 tensors)

83 f4 [116]
00000000: 3e42 863e 7031 3a3e 4abf 483e b451 883e
00000010: a355 873e ec99 3a3e 4178 4b3e c882 873e
00000020: 743e 853e b151 353e ea37 4a3e 9930 893e
00000030: 8b47 863e 527a 373e 3542 4b3e 698e 863e
00000040: 6925 833e d501 2f3e 1fc7 493e fbf4 893e
00000050: 4fd9 823e 4f7e 2e3e 7a60 493e c0d2 853e
00000060: a605 833e f759 2b3e 887a 4c3e 95bd 8a3e
00000070: b8dc 823e d14d 2c3e 633d 4b3e 1ead 853e
00000080: ff1c 883e 0aba 2f3e cad8 563e 41d4 8b3e
00000090: 1261 863e 7757 303e 7b99 513e a9fb 853e
000000a0: bc08 8e3e 5e1e 373e 8724 613e f19c 8c3e
000000b0: 90bf 893e 6ec2 333e 5f11 583e 2a26 873e
000000c0: 6b65 913e 7ed7 363e f16f 6a3e 9cbb 8c3e
000000d0: 070a 8a3e 3594 333e 9cfb 583e f03e 883e
000000e0: 5f13 8e3e 7e77 2b3e 7bd2 693e 3a58 8b3e
000000f0: 61ac 873e b90a 323e 08c6 533e 6112 893e
00000100: cfde 8c3e 6535 2a3e 6191 673e cc97 893e
00000110: 895d 893e 665d 333e 745a 573e c393 8a3e
00000120: f416 913e 6351 2d3e 9561 703e e000 893e
00000130: 777d 8d3e f8aa 383e 426b 5e3e 715f 8b3e
00000140: 7ba9 953e b127 2f3e 28f3 7a3e e989 883e
00000150: 4204 8e3e 30f0 393e dcd9 5e3e cdee 8a3e
00000160: 76d7 983e b030 363e 0788 7e3e d5d6 873e
00000170: 1a00 8f3e 4b95 383e c8a1 623e 503f 8a3e
00000180: 6e34 9b3e a232 3e3e 714a 7f3e 298b 873e
00000190: 4f21 933e 73ec 3a3e 780d 6c3e 6aad 893e
000001a0: db93 9c3e ad98 443e f869 7e3e 3937 883e
000001b0: a840 983e d4b1 413e acd9 743e 38ea 883e
000001c0: a840 983e d4b1 413e acd9 743e 38ea 883e
0.26222414 0.18182921 0.19604221 0.26624835 0.26432523 0.18222779 0.19870092 0.26466966
0.2602421 0.17706944 0.19747892 0.2679489 0.26226458 0.17917755 0.19849475 0.26280525
0.2561448 0.17090543 0.19704865 0.26944718 0.25556418 0.1704037 0.19665709 0.26137352
0.25590247 0.16733538 0.19968617 0.27097765 0.2555902 0.1682656 0.19847636 0.2610864
0.26584622 0.17160812 0.20981136 0.27310374 0.26245934 0.17220865 0.20468704 0.26168564
0.2774104 0.17882678 0.2198659 0.27463487 0.26903963 0.17554638 0.21100377 0.26396304
0.28397688 0.17855641 0.22894265 0.27486885 0.26960775 0.17537005 0.21189731 0.26610518
0.27749154 0.16744801 0.22834198 0.2721575 0.26498702 0.17386903 0.20681012 0.26771834
0.2751374 0.16621931 0.22614051 0.26873624 0.26829174 0.17516097 0.21030599 0.27065858
0.28337824 0.16925578 0.23474725 0.2675848 0.27634785 0.1803397 0.21720603 0.27221254
0.29230866 0.17104985 0.24506819 0.26667717 0.27737623 0.1815803 0.21762794 0.27135316
0.29851884 0.1779201 0.24856578 0.2653109 0.27929765 0.18025701 0.22132027 0.2700143
0.30313438 0.18574002 0.24930741 0.26473358 0.2873635 0.1825426 0.23052013 0.26890117
0.30581555 0.19198866 0.24845111 0.26604632 0.2973683 0.18915492 0.2391116 0.26741195
0.2973683 0.18915492 0.2391116 0.26741195

86 f4 [3]
00000000: 1504 e640 8bb3 683b 759d 1041
7.1879983 0.0035507407 9.038442

action_model._continuous_distribution.log_sigma f4 [1, 2]
00000000: 93f6 823c e3c0 dc3b
0.015986716 0.006736861

action_model._continuous_distribution.mu.bias f4 [2]
00000000: 6b60 7ebb cc9f 18bb
-0.0038814794 -0.0023288606

action_model._continuous_distribution.mu.weight f4 [2, 256]
00000000: f9a5 e8bb 00a4 213c 1eeb eebc 697d a93b
00000010: 13c1 a53b cd90 3d3c 7919 403b 253a bd3c
00000020: c23d 69ba 4355 15bc 43ee ccbb a691 a83c
00000030: 5fd9 39bc c1de 8e3a 99cd 553c 186e 41bb
00000040: 5f6c 56bc 6b92 05bb e617 983c 3386 74bc
00000050: d40d 9c3c cf13 813c bf50 a4bc b689 0d3d
00000060: 40db 3a3c 428c a83b 5167 533c 0d5a bfbb
00000070: f8f7 dc3c 8b26 613c 204a aebc de96 5c3c
00000080: 3e32 94bc 7fc2 da3c f9ec 06bc 801e 8bbc
00000090: b0ad 2dbb cabf 9f3c b6ca 2f3a 5ddb 1dbc
000000a0: 22f4 f53b a14f 363b 55d0 3aba 3fdc 0d3c
000000b0: f4c0 eeba ca9f bbba 01a5 df3c b817 c23b
000000c0: a5bc cf3c 9883 d0ba 1a41 49bc ca7a bdbb
000000d0: 18df a2bb b042 15bc 0831 103d 6ea5 fc3b
000000e0: 7bb8 473c 7adf d43b b9f9 473b 25a8 98bc
000000f0: d84c 84bc 2ece 493c e326 db3b 7e92 37bc
00000100: 1dc7 f8ba b12b 043d 11b2 943c df95 783c
00000110: 777d 9abc fd01 6b3c 71e3 a93b 6ff7 9e3c
00000120: bdfb e2bc 10ba b13c 8437 91bc 6f88 89bc
00000130: 7c05 9f3b 8fd8 803b 8f90 8f3c 2ebd f7bb
00000140: 97dc aabb 30bb 06bc eb7f fa3b c608 de38
00000150: 8d7d 8abc d4a9 a43c db06 003b eca8 09bc
00000160: 7584 16bb bb30 cdbb 809a 4abc 4daa 5f3c
00000170: d770 afbb 85d1 4dbb 1d00 3dbc 08bf 243b
00000180: abcc 58bd b1bb 4cbb 6d08 203a ae9c 773c
00000190: c006 ef3b aeaf 9a3b 8ccd 24bc 2af2 f33a
000001a0: 41f0 efbb f027 003c 0842 503c bb1e 18bd
000001b0: 47c7 353c 0c4e de3c f8fe 8dbb 439f 31bc
000001c0: 7340 16bb bc9a a63a 5348 33bc b0d0 42bc
000001d0: 5fc2 663c 7731 e839 512c c63c 5d42 27bc
000001e0: 7546 ae3c aef2 053c 63c4 83bc 14bb 543c
000001f0: d1ee 063b 3ecc d33c 8527 4d3c 69ab 31bc
00000200: 4dac 99bb 510c 0fbc f212 5fbc 63f0 48bc
00000210: a50d 4a3c 1db8 59bc ed6a b1bc ebd5 f13c
00000220: 5e73 cfbb f4e8 ac3b cc78 153c fbc4 18bc
00000230: d6b7 9bbb a459 50bc 514b eb3b 883b 25bc
00000240: 223f cb3c 8e57 7cbc 9c92 493c 02a0 5a3c
00000250: 6eec 113a 41e8 3cba dd27 e53c 0fdc 8cbb
00000260: fa08 4e3c 8366 4fbc e5b3 5ebb 3d62 d3bb
00000270: 9ab3 d23c 59b5 86b9 d7e9 59bc e335 0ebc
00000280: 2910 15bc 8692 30bb 3dc1 f1bb 6d79 fa39
00000290: 2211 6cbc 7baa 67bb 511b 0abc 6476 c23a
000002a0: ef0d 893c a17f 083c e30e b2bb 2c12 863c
000002b0: c86a aabc ddf2 3eb9 9bf8 d3bc e61f 12bc
000002c0: bf02 2fbc 900e 5abc d5d0 393b 2140 313c
000002d0: 5b93 333c f1e4 4d3b 4248 d2bb 8f03 85ba
000002e0: db85 dbbb b350 9cbb 4922 0f3c caa2 05bd
000002f0: 62f8 63bc 2fda 43b9 27f9 bfbc b5d1 f1bb
00000300: b513 9d3b a433 58ba c035 123c f6b9 173c
00000310: fc6d 8a3c 9f31 823c fcd8 303c 5eb1 af3b
00000320: 67e6 953c 2054 033c e9c2 09bb 480d 1238
00000330: 8735 b73a 108c c33c abcf 773a 1454 6cbb
00000340: 9217 9db9 dc5f e6b9 b0f2 a5bc fd80 93bb
00000350: b1a8 143c ae6a a1bc ed44 34bc 41f1 ce3c
00000360: 96f1 66bc 43e3 5a3c 9478 7c3c 2dae febb
00000370: db3f 5c3c 114e a3bb 6c0b 77bb 4b98 ce3c
00000380: ec3d 0a3d 278e 3dbc c2bb 34bc 3314 30bc
00000390: 682a aa3c 696c bdbb 83dc cfbb bd9c 3ebc
000003a0: 3d93 9fbc d508 f3bc 35f3 59bc 1b74 fd3b
000003b0: 315f dd3b ee31 0c3c 7d91 8cbc 0f68 adba
000003c0: cd12 58bc 7621 d23b 1848 e3b3 6f62 bd3b
000003d0: e162 2c3c c961 a0bc 5c60 12bb 1012 b13c
000003e0: 0a4f 9a3b 5bd5 ac3b 1ffc b63b e583 b83c
000003f0: 1ba7 f4bb 425d 3b3c 030f d6bb 5a34 b7bc
-0.0070998636 0.009865761 -0.029164847 0.0051724208 0.0050584166 0.011570168 0.0029312058 0.023099015
-0.0008897447 -0.009114566 -0.006253989 0.020577263 -0.011343329 0.0010900126 0.013049507 -0.0029515084
-0.013087361 -0.0020381461 0.018566083 -0.014924574 0.019049563 0.015756516 -0.020058034 0.03455516
0.011404812 0.005143673 0.0129030505 -0.0058395923 0.02697371 0.0137420995 -0.02127558 0.013463704
-0.018090364 0.026704071 -0.00823521 -0.016982317 -0.002650123 0.019500632 0.00067059265 -0.00963482
0.0075059095 0.0027818459 -0.0007126381 0.008658468 -0.0018215463 -0.0014314589 0.02730036 0.0059232377
0.025358507 -0.0015908359 -0.012283588 -0.00578246 -0.0049704425 -0.009110138 0.03520301 0.0077101504
0.01218998 0.006496367 0.0030513837 -0.018634865 -0.016149923 0.0123172235 0.0066879853 -0.01120436
-0.0018980239 0.03226823 0.018151315 0.015172451 -0.018858654 0.014343736 0.005184584 0.019405095
-0.027707929 0.021695167 -0.017726667 -0.01678869 0.0048529487 0.003932066 0.017524986 -0.007560394
-0.0052142846 -0.00822334 0.0076446435 0.00010587419 -0.01690557 0.020100512 0.0019535336 -0.0084020905
-0.0022967134 -0.0062619126 -0.012365937 0.013651443 -0.0053540277 -0.00314054 -0.011535672 0.0025138278
-0.05292956 -0.0031239802 0.0006104771 0.015113039 0.007294506 0.0047206497 -0.010058772 0.0018611599
-0.0073223417 0.007822022 0.012711056 -0.03713868 0.011094875 0.027136825 -0.004333373 -0.010841194
-0.0022926598 0.0012710909 -0.010942536 -0.011890575 0.014084428 0.00044287342 0.024191054 -0.010208693
0.02127383 0.008175535 -0.016084855 0.012984056 0.0020589123 0.025854226 0.012521629 -0.01084409
-0.0046897293 -0.008730964 -0.013615357 -0.012264344 0.012332355 -0.013288525 -0.021657431 0.02952095
-0.0063308915 0.0052767936 0.0091230385 -0.009324308 -0.0047521396 -0.0127166845 0.0071806093 -0.010084994
0.024810378 -0.015401734 0.012303021 0.013343813 0.0005566542 -0.00072062394 0.02797311 -0.004298694
0.012575382 -0.012658718 -0.0033981737 -0.00645092 0.025720406 -0.00025693586 -0.013300381 -0.00867984
-0.009098091 -0.0026942804 -0.007377772 0.00047774185 -0.014408382 -0.0035349417 -0.008429364 0.0014836309
0.016730277 0.00833121 -0.0054339035 0.016366087 -0.02080287 -0.00018210286 -0.02587538 -0.008918738
-0.010681807 -0.013309136 0.0028353233 0.010818512 0.010960425 0.0031416977 -0.006417305 -0.0010148155
-0.0066993064 -0.0047703623 0.008736202 -0.03262595 -0.0139142 -0.00018677929 -0.023434235 -0.0073797354
0.004793609 -0.0008247441 0.008923948 0.009260645 0.016898148 0.015892802 0.010793921 0.00536172
0.018298341 0.008015662 -0.0021020717 3.482148e-05 0.0013977744 0.023870498 0.0009453247 -0.0036060857
-0.00029962935 -0.0004394044 -0.020257324 -0.0045014606 0.009073422 -0.01970419 -0.011002761 0.025261523
-0.0140956845 0.0133598475 0.015409607 -0.007772228 0.013442959 -0.0049836715 -0.0037696017 0.025219103
0.03375046 -0.011569536 -0.011031093 -0.010747003 0.020772174 -0.0057807458 -0.0063434257 -0.011634049
-0.019479388 -0.029667297 -0.013302614 0.007734788 0.0067557325 0.008556826 -0.017159218 -0.0013229864
-0.013188076 0.0064126803 -1.0583625e-07 0.0057795565 0.010521621 -0.019577878 -0.0022335267 0.021615058
0.004709129 0.0052744574 0.0055842544 0.02252383 -0.0074662096 0.011435809 -0.0065325513 -0.02236383

action_model._discrete_distribution.branches.0.weight f4 [1, 256]
00000000: 2121 15bb 53ac 0e3c d5b4 01ba c823 ff3a
00000010: 2b57 a1bb 276c 453b 189b 233c 3ae4 853b
00000020: a663 26bb e180 16bb c789 6dba b523 9a3a
00000030: 620b 163b 8372 aa3b 3b8d b8bb a0be ee39
00000040: 1c06 28bc b003 f7bb 53e4 1ebb 7fcd 0ebb
00000050: 58ae 64bc 2d40 353c f2d7 06bc 0a38 54bc
00000060: 1b91 21bb 1983 323c 39af 2239 7fb2 3aba
00000070: 0a83 c3bb c24b 55bb d9c4 b4ba 9865 c0bb
00000080: 1672 023c a0bd 87bb 0d58 fe3b 8072 efbb
00000090: bbeb 31ba 5d3d febb e206 e63b 31fa 46bb
000000a0: b912 1e3a 00d4 abbb ddc2 dabb c549 ea3a
000000b0: 8ba6 5cbb 81a9 1f3c 3871 69bb f168 373c
000000c0: 13bd 403c df78 94ba 638c 1cbb a19b bfba
000000d0: 6f9b c439 063b 263b 55a7 9cba 6584 23bc
000000e0: 7346 9b3b 929c 60bc 0c7a 12bc 1f18 c8bb
000000f0: 80d3 d939 c710 23bc fa61 debb ab24 a83b
00000100: 75f6 1039 fb64 13b9 136e 23bc 87ae 62bb
00000110: fbc2 d5bb 8b06 54bb 3fc5 feba 5fbc 09bb
00000120: 949b c5bb 700a 09bb 1b48 af3b e2ba 113c
00000130: 0863 803a 2365 4c3c 0a55 cfbb d01b 313b
00000140: 864d 80bb 7553 bbba c79c 2e3a e547 6cbb
00000150: cfd4 f3ba f618 1cbc 2c42 adbb 63bf e9ba
00000160: 226a dcbb 7cfd 81ba 5b15 05ba cf4c 2a3b
00000170: c06b 303b be17 353c 4c1a 2b3c 4feb e0bb
00000180: 3aee 4e3b 6903 333b 0b9a e43b 586c 9b3a
00000190: a30e 283a e858 e3bb 28f6 343a afb8 b03b
000001a0: d56f e739 98a1 36bc 1f58 fbbb c750 e1b9
000001b0: 9f6d ef3b 47b3 f0bb 81fa aabb cd17 ab3a
000001c0: f880 e838 6aa2 ebbb 5cef 913b f7eb b2b9
000001d0: d72d c83a cfd2 79ba 8226 53bc a657 283b
000001e0: 8acd 89bb df01 643c c7b6 21bc 9733 393c
000001f0: 4f97 8a3b 2415 0bbb e3a2 c9bb 62e1 33b8
00000200: d8cf 56bc 40b7 ee3a 9d58 563b d46f abba
00000210: 5c50 353b f10d 01bc 1161 0ebc 4f03 003c
00000220: 9af2 ef3a 0f26 8b3b e4cf a0bb 4085 7c3c
00000230: 30e4 5abb 3f4b eb3b 9884 7e3b a9f2 21ba
00000240: 0722 5c3b ff38 9a3b 97fb 97bb e806 f1bb
00000250: 3981 453b 9fb4 d53b 9c59 02bc 6fa1 d83b
00000260: 7d82 ff3b 453f 20bc 95de 613c 8bcf c2bb
00000270: 673d 703b 5301 59ba aae2 d73b 23b3 343b
00000280: 87ec 0e3c e75b 86bb 0a9d 433c c7f5 44bb
00000290: 49b1 c339 a354 75ba 9f22 2c3b 67e3 933b
000002a0: 528c 573b dcf5 c23b b299 ef3b 9b95 acb9
000002b0: 6247 53bb bc3b 423a 25df 963b de4c 12b9
000002c0: f8f9 80ba 667b a93b 1ba8 ee3b 9a87 bbbb
000002d0: 57ac 4abb 9382 31bb c35e c7ba 20ed fa3b
000002e0: 8d18 13bc 0222 81bb 5b84 4c3b c08a e63b
000002f0: aefd 1d3c 0bdc 4ebc 8abe 9fbb 83c2 f339
00000300: 1e90 1c3b 1fb6 43bb b2ec 1d3c 5353 96ba
00000310: 5a04 163c dbba 0bbc c63e 1ebc fd83 853a
00000320: d5bf c63b 899f 173c c70b 9539 d8a8 91b9
00000330: 1322 823b 5239 7a3a 83f9 52bc c885 edbb
00000340: 8f31 833a a858 5cbc 3355 23b9 955e ebba
00000350: 4756 7f3b be45 2aba f504 333b 2570 693c
00000360: b974 0aba 9fbf 663c 3730 b7ba 6fc9 83ba
00000370: df76 21bc ff3a 053a 9db0 e53a f5d8 2f3c
00000380: 051c 363b 7dbb 533b 0fd0 ebb9 82a9 1bba
00000390: ff9c b2ba b03f 003c ae94 3fbb 6525 94bb
000003a0: 97ee 83b9 e36e 3a3b ac0b c1ba 675f 53bb
000003b0: 78b7 513a 0e1b 15bb 24f0 be3b 4936 a53b
000003c0: 8abd a03a 627f 07b9 3740 6c3c 4a18 77bb
000003d0: c184 31ba 370d a73b e00b cd39 7193 a83a
000003e0: c89e 933c bb60 fd3b 5e84 2f3c bebb c8bb
000003f0: 9a12 5a3b 9095 e8b9 07bb 453b 3a23 db3a
-0.0022755342 0.0087080775 -0.00049479055 0.001946562 -0.0049237213 0.0030124278 0.009985708 0.0040860446
-0.0025388985 -0.0022965001 -0.0009061363 0.0011759909 0.0022894968 0.005201639 -0.0056320704 0.00045536924
-0.010255363 -0.0075382814 -0.0024244979 -0.0021789966 -0.013957582 0.011062664 -0.008230196 -0.012952814
-0.002465314 0.010895514 0.000155148 -0.0007121935 -0.005966549 -0.0032546376 -0.0013791575 -0.005871486
0.0079617705 -0.004142478 0.0077619613 -0.0073073506 -0.0006787141 -0.00775878 0.0070198635 -0.0030361528
0.00060300116 -0.005243778 -0.0066760615 0.0017874768 -0.0033668603 0.009745003 -0.0035620462 0.011194454
0.011763829 -0.0011327526 -0.0023887388 -0.0014618525 0.0003749984 0.002536477 -0.0011951724 -0.009980296
0.004738623 -0.013709204 -0.008940231 -0.006106391 0.00041547045 -0.0099527305 -0.006786582 0.0051313243
0.00013824723 -0.0001405663 -0.009974974 -0.003458889 -0.0065234876 -0.0032352533 -0.0019437446 -0.002101682
-0.0060305092 -0.0020910762 0.005349172 0.008894654 0.0009795139 0.012475285 -0.006327276 0.0027024634
-0.0039154915 -0.001429184 0.0006660935 -0.0036053595 -0.0018602851 -0.0095274355 -0.0052874293 -0.0017833527
-0.006726519 -0.0009917463 -0.00050767296 0.0025985723 0.0026919693 0.011053024 0.010443281 -0.0068639885
0.00315751 0.0027315265 0.006976371 0.001185785 0.00064108724 -0.0069380887 0.0006903135 0.0053931098
0.00044143075 -0.011146925 -0.007670417 -0.00042975528 0.007306769 -0.0073455903 -0.0052178507 0.0013053358
0.000110866444 -0.007190992 0.0044535827 -0.00034126613 0.001527245 -0.0009530009 -0.012887599 0.0025687008
-0.0042054104 0.013916462 -0.009870238 0.011303804 0.004229463 -0.0021222318 -0.006153451 -4.288683e-05
-0.013111077 0.0018212572 0.0032706626 -0.0013079592 0.0027666306 -0.007876859 -0.008690135 0.007813289
0.0018306554 0.0042464803 -0.004907595 0.015412629 -0.003340017 0.007180601 0.0038836356 -0.0006177822
0.0033589618 0.0047065015 -0.004638146 -0.0073555596 0.0030136837 0.006521776 -0.007955935 0.0066110413
0.007797538 -0.00978071 0.013785978 -0.005945151 0.0036657692 -0.00082780904 0.0065882998 0.0027572594
0.008723385 -0.004100311 0.0119392965 -0.0030053721 0.00037325386 -0.000935862 0.0026265753 0.0045131925
0.0032890034 0.005949719 0.007312023 -0.0003291786 -0.0032238592 0.0007409414 0.0046042376 -0.0001395228
-0.0009840121 0.005172181 0.0072832233 -0.005722952 -0.0030925476 -0.0027085885 -0.0015210736 0.007657662
-0.008978021 -0.0039408216 0.003120682 0.0070355833 0.0096430015 -0.0126257045 -0.004875009 0.00046493494
0.0023889611 -0.0029863191 0.009638952 -0.0011468924 0.009156311 -0.0085284365 -0.009658521 0.001018643
0.0060653486 0.009254345 0.0002842827 -0.00027782354 0.003971347 0.00095452846 -0.012876871 -0.007248614
0.0010009276 -0.013448872 -0.0001557663 -0.0017957265 0.0038961337 -0.0006495378 0.0027316187 0.014247929
-0.0005281675 0.014083772 -0.0013976161 -0.0010054539 -0.009855001 0.00050823385 0.0017523948 0.010732879
0.0027787697 0.0032307797 -0.0004497771 -0.00059380394 -0.0013627111 0.007827684 -0.0029232907 -0.0045210593
-0.0002516403 0.0028447441 -0.001472821 -0.003225291 0.0008000056 -0.0022751722 0.005826967 0.0050418717
0.0012263518 -0.00012922057 0.014419607 -0.0037703686 -0.0006771796 0.005098011 0.00039109495 0.0012861324
0.018020049 0.0077324784 0.010712711 -0.0061258962 0.0033275248 -0.0004436192 0.0030171291 0.0016718872

network_body._body_endoder.seq_layers.0.bias f4 [256]
00000000: 7b57 d83a dc74 42bb f57e 9dbb 4cad b33b
00000010: 3b37 e93a a906 723b c486 ae3a ae28 5bbb
00000020: 397e 1fbb 958e f1ba 18bc c6ba 3a06 df3b
00000030: 6333 c7ba 8d1e 793b aa9d 8a3b 139d 2f3b
00000040: 0599 93bb a7ca 14bb 110d b8ba 0563 58bb
00000050: dd3b 73ba 2aab e0ba 7402 f0b9 5f45 ce3a
00000060: db41 8cbb 515b 743b 5ae3 df3b 667b 11bb
00000070: e64a 9c3b 3ad2 993b 1af8 2f3b 55f5 a23b
00000080: bef2 803b ec49 e33a 4c43 68bb b4ae a53a
00000090: 60ea bb3a 01cf 8dbb ee51 df39 8cce 3f3b
000000a0: 5529 133b cd74 96ba 06a8 423a b0dd d13b
000000b0: 2e0d 643a 58e5 503b f179 a73b 889d 093c
000000c0: 7e54 7e3b ae99 f43a 79a2 ddba 461c 74ba
000000d0: 0132 ef3b 58cb afbb e390 a4bb bf6e 503b
000000e0: f8e3 c33b 90dd 82bb 9af0 913b 0d3d c8ba
000000f0: 64fe 90bb fc84 d83b e61f 8eba d848 963b
00000100: a285 4dbb 39e0 abb9 3441 8c3b fcbd 86bb
00000110: 3d08 b8ba f441 753b e7d3 833b 6752 e3b8
00000120: 1e39 533b 5472 a43b 45a5 963b 6e7b e6ba
00000130: f99b 8fbb 059e af3a 8504 c13b 85a0 123a
00000140: 99b6 64bb c4db a33a b4fd 49b9 f1d8 533b
00000150: e24f ea39 3ee5 ab3b 58e5 263c ba87 bf3b
00000160: 0c7a caba f411 edb8 b56a ecba e0f6 263b
00000170: 9dfb 803b 712a 9e3b 39a3 043b 039e 3a3b
00000180: d234 073c f176 383b 55df 03bb 39c6 a23b
00000190: 6d23 e23b bffd 4e39 decb ceba cad1 853b
000001a0: 4b09 023c 03fc c839 8e7a 94bb d173 873b
000001b0: 0c53 6d3b 79c2 f13a ac15 5b3b 43d5 70bb
000001c0: 822c d13a d639 d43a f400 a6ba 63c7 1fba
000001d0: 9c29 51ba 52f5 b6ba 0400 073b 76e3 85bb
000001e0: f40d 27bb bde1 09bb cbdd 81ba 8b9c b53b
000001f0: cad1 38bb 5b87 0a3b 9882 04bc c012 b03a
00000200: 8e7f 84ba c831 153b 6c09 1fbb 4684 58ba
00000210: ce32 ef3a fa51 4539 f54e 763b 50b0 723a
00000220: 0c32 5a3a 2012 1b3b a7d4 b43b db73 073b
00000230: 275d 473b 5231 a5ba 0ada 4a3a b0ca 703a
00000240: da9a 103a be5f 7bba c119 00bb ecc4 b93b
00000250: 1b38 02ba 22a6 eb39 7b65 90b9 7a86 443a
00000260: 55f0 b3ba 9920 b03b eecf ac3b 545b 4fbb
00000270: bece 7abb 7a2c 463b b239 283b 3cc6 1e3a
00000280: e439 6e3b 64a8 7ebb 542e 803b ce64 d53a
00000290: 996c 36ba 043a 24ba 9594 0f3a 0676 ae3b
000002a0: cd35 693b b731 a73b 4cac 0fbb 29c9 2039
000002b0: 371d 043b 783f e73a f075 daba a61b 1a3a
000002c0: 3c62 a4bb c31e 133c 534c 2b3b 13a4 e7ba
000002d0: c661 7bbb 7530 3ebb c1a8 98ba 6a8f b23b
000002e0: 7fd0 3d3a 996c c7bb e928 543b 1a87 7a3b
000002f0: 34e8 3e3b 16f7 d9b8 1dcd 813b 6b2a 923b
00000300: caa4 83ba a026 ca3b 8906 74bb 1bda c03a
00000310: b2fc 9b3a a4e6 513b 78f7 663a a61b 67bb
00000320: a2dd 433b 3f25 953b aaa1 19bb 1372 e73a
00000330: da7c 2eba 8721 4f3b 56c0 be3a 54b6 233b
00000340: b1bb 6eba 3ec0 943b 3f99 00bb bc3a 803b
00000350: b74d f0ba 3705 3d3b d364 35bb 1b3c 663a
00000360: aecd 873b 71b4 89bb 4f3f c7ba 05dc 21bb
00000370: 6edc 943a 5307 5b3b 5804 9ebb ea6e 153b
00000380: dc1b cf3b 1b42 48bb e048 863b 53f5 3b3b
00000390: 6bf5 73bb a52e 4dbb 9c76 16bb c726 e83a
000003a0: 33f2 df38 95f6 0bba 69d2 3fba da09 caba
000003b0: c06f 8b3b a914 3f3b e1e2 843b 83ab 813b
000003c0: 1793 4a3b dbde 913b 73b1 943b 94f1 b73a
000003d0: 912d 84b9 cf4c b5ba bed9 22bb 7ce1 a93a
000003e0: 1c6d 5f39 cf1c bc3b 1618 bf3b adb1 e93a
000003f0: 3835 9bb8 5cdb 59bb b365 05ba b7f6 8cba
0.0016505563 -0.0029671704 -0.004806394 0.005483305 0.0017792949 0.003693024 0.001331531 -0.0033440995
-0.002433671 -0.0018429334 -0.0015162257 0.006806162 -0.001519781 0.0038012594 0.004230221 0.0026796504
-0.0045043253 -0.0022703798 -0.001404198 -0.0033018005 -0.00092786347 -0.0017140855 -0.00045778195 0.0015737227
-0.0042803115 0.0037285874 0.0068325223 -0.0022198795 0.004769671 0.0046942504 0.002685076 0.0049730935
0.003935187 0.0017340756 -0.0035440503 0.0012640567 0.0014336817 -0.0043276553 0.00042594917 0.0029267399
0.0022455056 -0.0011478901 0.000742555 0.006404601 0.00086994737 0.003187498 0.005110972 0.008399375
0.0038807685 0.0018661523 -0.0016909383 -0.00093120744 0.007299662 -0.0053648166 -0.0050221547 0.003180429
0.0059781037 -0.0039936975 0.004453731 -0.0015276984 -0.004424857 0.00660765 -0.0010843247 0.0045863204
-0.003136017 -0.0003278272 0.0042802338 -0.0041120034 -0.0014040541 0.0037423344 0.0040230635 -0.00010839552
0.003223009 0.005018512 0.0045973384 -0.0017584392 -0.004382607 0.0013398534 0.0058904313 0.0005593377
-0.0034898876 0.0012501408 -0.00019263366 0.0032325352 0.00044691475 0.0052458337 0.010186516 0.0058450373
-0.001544775 -0.00011304385 -0.0018037172 0.0025476739 0.0039362446 0.0048268368 0.002023889 0.002847553
0.008252339 0.0028147066 -0.002012213 0.0049674776 0.0069011957 0.00019740219 -0.001577731 0.0040838467
0.007936786 0.00038334736 -0.004531211 0.0041336794 0.003621283 0.0018444798 0.0033429665 -0.0036748208
0.0015958699 0.0016191553 -0.0012665079 -0.00060950796 -0.00079789176 -0.0013958609 0.0020599375 -0.0040859533
-0.0025490494 -0.0021039092 -0.0009908018 0.005542343 -0.0028201216 0.0021137807 -0.008087777 0.0013433322
-0.0010108815 0.0022765268 -0.002426709 -0.00082594564 0.0018249394 0.00018817923 0.0037583683 0.000925784
0.00083234976 0.0023661926 0.005518514 0.002066842 0.0030420513 -0.00126032 0.0007738179 0.0009185476
0.0005516239 -0.0009589157 -0.00195466 0.005669227 -0.0004967467 0.00044946471 -0.0002754143 0.0007496845
-0.0013728241 0.0053749797 0.0052738106 -0.003164013 -0.00382702 0.0030238912 0.0025669155 0.0006056761
0.0036350423 -0.0038857693 0.0039117727 0.0016280652 -0.00069589313 -0.00062647485 0.00054771575 0.005324128
0.0035585046 0.005102362 -0.0021922765 0.00015333727 0.0020159015 0.0017642817 -0.0016667228 0.0005878754
-0.0050165933 0.008979502 0.0026138022 -0.0017672799 -0.0038357838 -0.0029020582 -0.0011646972 0.005449225
0.0007240846 -0.006085944 0.0032373017 0.00382275 0.0029130103 -0.0001039339 0.003961219 0.004460623
-0.0010043618 0.0061691552 -0.003723534 0.0014713438 0.0011900871 0.0032028342 0.00088106794 -0.0035264282
0.0029886742 0.004551559 -0.0023442307 0.0017657898 -0.00066561776 0.0031605677 0.001455317 0.0024980502
-0.00091069477 0.0045395186 -0.0019622592 0.0039132517 -0.0018333708 0.002884222 -0.0027678504 0.000878276
0.004144392 -0.0042024185 -0.0015201363 -0.0024697792 0.0011357197 0.0033421114 -0.004822295 0.0022801706
0.00632046 -0.003055698 0.004098043 0.002868016 -0.0037225138 -0.003130832 -0.002295888 0.0017711752
0.00010678582 -0.0005339173 -0.00073174253 -0.0015414313 0.004255265 0.0029156602 0.0040553664 0.0039572134
0.0030910426 0.0044516153 0.004537755 0.0014033788 -0.00025210952 -0.0013832095 -0.0024849023 0.0012960876
0.00021307584 0.005740739 0.0058317287 0.0017829441 -7.400889e-05 -0.003324232 -0.0005088702 -0.0010754679

network_body._body_endoder.seq_layers.0.weight f4 [256, 119]
00000000: 825b 3dbd e07a 09be 4ced 09be 2fd1 603e
00000010: 98f0 f63c 1295 f0bd ea79 023d 1df6 81bd
00000020: 560d 613d 33bf 31bd 3b25 5d3e e3ba 3abe
00000030: b87a ca3d 8ef7 9fbd c1cb b13d bd05 283d
00000040: d5bd 223e 0522 f53a 2b4e 27be 05b1 efbd
00000050: e197 1c3e d0d7 983d 881c efbd 7338 53bd
00000060: cdd9 9a3d a160 d8bc 2792 613d b91f 81bd
00000070: 312d c43d 04b8 d6bc 2c51 19be 2690 663d
00000080: ccdb 09be 9ff4 4e3d 2520 f93c a35d 0abe
00000090: 537d 1bbd 1095 88bd f737 71be 5947 16be
000000a0: 157b 803d 8b95 43bd 70d0 983d ff48 91bc
000000b0: ff52 153d 278c b9bd 0938 fe3d 33dd 0a3e
000000c0: 2ed5 13be 2d33 1e3d 7972 0e3d 73d7 9c3d
000000d0: c39f dbbc dbf4 a33d e740 b83d 239a 25bd
000000e0: 646a c53d 3650 c3bb 5add 40be 2614 cdbc
000000f0: d403 3dbd 070a 9cbd 49ac 61bc 4026 6a3e
00000100: e2ef 203d 16b2 a2bd 1169 b43d 5ecd 94ba
00000110: 598c 87bd 6af2 b03d b4cf d23c 5d9d 65bd
00000120: 0cd7 313e 2d6d febc 1847 61bd c927 46bd
00000130: 3eb9 98bd 9958 993d 4cbe 22bd 99c8 90bd
00000140: f93f 43be 3491 5bbe bdbb f33d a16d abbb
00000150: c8c4 d23d 0cd0 7a3c 8d86 2b3d a223 14be
00000160: c2c5 4abd f832 c73b 6d40 5d3c 80b6 0fbe
00000170: 8586 a23d b4cf b93a 2717 873d 9a1e 2bbe
00000180: c512 95bd 30e7 fa3d deb3 ec3d 5fe0 8cbc
00000190: b9a3 edbd d106 01bd 445c 113d 9118 3ebd
000001a0: 0d87 77bd 432c 00bd e63a 0fbe d31f f9b8
000001b0: 6747 a33b ee4e c6bd 3103 7cbc 1b6e 51be
000001c0: 3a7d 3aba 983c 8ebd 59f4 973d a05c abbd
000001d0: 9087 a93c 5805 7b3c 5421 45be d11b cfbd
000001e0: f089 d53c ae7d a6bc e799 a4bd 8981 fb3d
000001f0: e2f7 f13d 2450 cfbd f0eb 2abc 6b6f c03c
00000200: aa5f ac3d cec6 1bbe ee48 e53d 5998 6abd
00000210: 72de b03d bfc4 d0bd 2db0 3abe 733d 57bc
00000220: 9eea 8d3d 1fe3 bfbc f2c3 0fbe 27ea 493d
00000230: ff0f 2f3d c31c 60bc b7f9 d9bc 66fd acbd
00000240: 1ad1 d2bd c89c 6b3d ca86 37be f711 18be
00000250: 1756 5abc 7efc b93d ddc5 633d 6183 9abd
00000260: 7931 6f3c c179 26be 4b17 2c3e e2ff fbbc
00000270: f866 b83d b6b4 613e e0a2 9fbc 7b37 18bd
00000280: 2b4b ecbd 1cd6 fbbd 487a 22bc 722e f5bd
00000290: 957f 58bd 511f 8bbc c553 dd3c 194e e4bd
000002a0: 31d7 0dbd 8fd5 89bd 6f51 bebc 4293 5abe
000002b0: 2194 25bd 1b9d a13c af5f c7bd 6e2a 9d3c
000002c0: 7745 97bd a442 813d 096e 843d 74f5 57be
000002d0: e1c0 cbbc 431c 603d 059d 39bc 4915 54bc
000002e0: f946 c0bd 6b38 cc3b 89e7 0bb8 8715 b7bd
000002f0: 7c8c 89bd 74dd a5bd 000d 9c3d 9f04 28bb
00000300: 7f1d 0a3d 5abb 343e d5f4 1fbe e93c d1bd
00000310: e1a1 97bc 6dbf c3bc 36ea ff3b 8c59 173e
00000320: d8ac 0cbd 3adc 2bbd 46e9 993c 9124 1e3e
00000330: 11fd a13c dbf5 3d3d 10b3 16be ca81 44bd
00000340: d53d a0bd 9139 be3d 3106 e4bd 6771 ad3d
00000350: ef8e e93c b8be ffbc 0472 afbd 1eb7 643d
00000360: a4e7 82bd 796f d93d dcf0 bcbb c376 80bd
00000370: 1ad9 dc3c 8d9b b5bd 7312 a33d 73a8 6c3d
00000380: 481a fb3d deae a13d f80c 4e3c e7aa 2d3d
00000390: 9f18 943d d03e 02be a339 7c3d ea49 40bd
000003a0: 1b9d f13d 6178 c3bd faff b2bd 9d62 bebc
000003b0: 0de1 223d 1984 39bc 978b acbc efa3 e93c
000003c0: 29df 0b3d a318 e3bd d801 11bc 11db 15be
000003d0: 9318 8fbd 5387 aabd 4ab6 85bd 21dd 463d
000003e0: bedc 0bbe 9065 9b3c fe89 343d 93b8 2b3d
000003f0: 1bcf 163c e3e5 c7bc 5edc fdbd b9f1 95bd
-0.046229847 -0.1342578 -0.13469428 0.21954797 0.03014402 -0.11747183 0.031854548 -0.063457705
0.05494436 -0.043395232 0.21596234 -0.18235354 0.09886688 -0.07810889 0.08681441 0.041021097
0.15892728 0.0018702155 -0.16338412 -0.11703686 0.15292312 0.07463038 -0.11675364 -0.051567506
0.075610735 -0.026413264 0.055071022 -0.06304879 0.09578932 -0.026210792 -0.14972371 0.056289814
-0.13462752 0.050526258 0.030410836 -0.13512282 -0.037961315 -0.066690564 -0.23556505 -0.14675654
0.06273476 -0.047750037 0.07461631 -0.017735003 0.036456104 -0.09059935 0.124130316 0.13560943
-0.1443679 0.038623024 0.03477714 0.07658281 -0.026809579 0.08005687 0.08996754 -0.0404302
0.09639433 -0.0059604896 -0.18834439 -0.025034022 -0.04614623 -0.076191 -0.013773986 0.22866154
0.03929127 -0.079441234 0.08809102 -0.0011352708 -0.06618566 0.08639987 0.025733806 -0.056058276
0.1736719 -0.031057918 -0.05499944 -0.048377786 -0.07457207 0.07487602 -0.039732262 -0.07069511
-0.19067372 -0.2144211 0.119010426 -0.0052315746 0.10291439 0.015308391 0.041876364 -0.14466718
-0.049505003 0.006079074 0.01350413 -0.14034462 0.07935814 0.001417628 0.06596213 -0.16710892
-0.07278971 0.12251127 0.115577444 -0.017196832 -0.11603493 -0.03150064 0.035488382 -0.046410147
-0.06043153 -0.03129221 -0.13987312 -0.00011879173 0.004982877 -0.096830234 -0.01538162 -0.20452158
-0.0007113997 -0.06945151 0.074196525 -0.08367276 0.020694524 0.015321098 -0.19250995 -0.101127274
0.02606675 -0.0203236 -0.08037167 0.12280566 0.11814858 -0.101227075 -0.010432228 0.023490628
0.08416684 -0.15212557 0.11195551 -0.057274196 0.08636178 -0.10193776 -0.18231268 -0.013137209
0.06929515 -0.02342373 -0.14039591 0.04929557 0.042739864 -0.013678732 -0.026608331 -0.084467694
-0.10293789 0.057522565 -0.17922512 -0.14850603 -0.0133261895 0.09081362 0.05560862 -0.0754459
0.014599198 -0.16257383 0.1680576 -0.030761663 0.09004015 0.22041592 -0.019486845 -0.037162285
-0.11537775 -0.122966975 -0.009916849 -0.11971749 -0.052856047 -0.016982706 0.027017483 -0.111477084
-0.03462905 -0.06730186 -0.02323219 -0.21345237 -0.04042447 0.019728234 -0.09735047 0.019185271
-0.07386296 0.06311539 0.064663 -0.21089727 -0.024872245 0.054714452 -0.01132894 -0.012944528
-0.09388537 0.0062323115 -3.3355816e-05 -0.08939653 -0.067162484 -0.080988795 0.07619667 -0.002563752
0.033719536 0.17649594 -0.1562074 -0.10216696 -0.018509807 -0.02389499 0.0078099025 0.14780253
-0.034344524 -0.04195807 0.018787991 0.15443636 0.019773992 0.046377044 -0.14716744 -0.04797534
-0.078242935 0.09288324 -0.111339934 0.084688954 0.028510539 -0.031218871 -0.08566669 0.055838697
-0.06391838 0.10616965 -0.0057660174 -0.06272652 0.02695899 -0.088675596 0.07962503 0.057777833
0.12260872 0.078946814 0.012576334 0.042399313 0.072312586 -0.12719274 0.061578404 -0.04694549
0.117975436 -0.09544445 -0.0874023 -0.023240382 0.039765406 -0.011322998 -0.021062655 0.028520552
0.03414837 -0.110886835 -0.008850537 -0.14634348 -0.06987109 -0.08326592 -0.065289095 0.04855073
-0.13658425 0.018969327 0.044076912 0.04192407 0.009204651 -0.02440161 -0.12395547 -0.073214956

network_body._body_endoder.seq_layers.2.bias f4 [256]
00000000: 0ae9 1a3c 88a8 173c 82a8 713b 094c 823b
00000010: fb67 2ebb d4f3 b1ba 716b 793b 1cf7 c1bb
00000020: 213b 993a 16e5 88bb 6c47 7cbb 9f0d 2c3b
00000030: 60a9 4939 3b68 a73b 7520 423b e6f9 8c3a
00000040: 2d47 ec3a 9213 71bb a0eb 31ba 281c bdbb
00000050: 9bd0 00ba cc2d 653b ad1a c23a 8865 8b3b
00000060: 4dc7 f13a cf73 d5ba 940c 4abb 9c4e 363b
00000070: 8f19 fe3a 4a63 a03a fcb6 0db7 f01b 5cba
00000080: 9d6a ef3b aa16 76bb dd76 84ba 233c c83b
00000090: 7170 943b 39ed 8abb 2777 9dbb 574e 14bb
000000a0: 655e 5bb8 ba45 0ebb c1bd 3c3b 85dc 9c38
000000b0: e567 e1bb a23c cf3b 263e 5fbb 50d9 543b
000000c0: fe10 e03a 8679 c73b 97ba 543b 34a9 f737
000000d0: 06d9 8839 ccf3 9d3a 9243 7fbb b10a 013b
000000e0: bcb1 203c 651e 483b 465a d8b9 5d64 6ebb
000000f0: e545 8f3a 3afe 76ba 7b73 6dbb d068 87bb
00000100: e73d d73b 79a3 4bbb 8ec1 b33b 7f06 81ba
00000110: 991e cf39 d963 233a 5d74 ea3b 33e7 bcbb
00000120: 018d 3b3b c65c 993b 6aab 6ebb 99c6 d43b
00000130: cce1 1b3b 0388 3dba 844e 053b 6ff2 7c3a
00000140: 8df4 c0bb 2414 b93b c32a 90bb e5b8 94bb
00000150: 2485 28bb e9cc 5c3b 604d 8639 f14a c13b
00000160: 22b8 fcba c40f 50bb e1cb 62bb 41c1 4c3b
00000170: 8127 eb3b 0a94 983b 336d 28bb eb43 43bb
00000180: a7b7 233b c594 01ba a899 723b 9e05 c23b
00000190: 6f41 cb3b 7d95 ea3b 70cf 723b 9768 dc3b
000001a0: a63b fd39 7e9b 04bb 8e82 35bb e721 b93a
000001b0: dcee c03b de41 1f3b 8d55 b2bb 96f2 15ba
000001c0: d272 5e3b 7d54 3fbb 25d7 bfba 884b 133b
000001d0: 4e18 f03a a3da d93b 3e9a a739 7335 843a
000001e0: 21bc 0bbb 15db 29bb 6aa6 51bb a8f5 823a
000001f0: c7ce a93a f201 c8bb 7f82 de3b 0ee7 8cbb
00000200: 438f da3a 5625 403b fb68 4f3b 641a a33b
00000210: 2bd0 153c 08ab 023b 2d45 e93a 1e3b 23bb
00000220: f7af eaba 4e0d 3cbb 61fb 9039 e7ad 4b3b
00000230: 98cd 20bb ef81 843a a43f 93bb 03e0 6f3a
00000240: c971 553b c0e1 713b 89a4 0d3b 0699 0a3c
00000250: 0c05 323b 18ac 0c3a bea7 0b3a 34ba 0f3b
00000260: bd9c 04bb afc3 cbbb 3010 b63b d3ba 84ba
00000270: c421 6b3a 6bd8 9138 20db c739 f191 ffba
00000280: d163 2bba 9681 703b 8cef e53a fff7 8dbb
00000290: e3b3 22bb 6afd f53a 0d43 bc3b c488 f639
000002a0: 46a6 49ba f502 923a 876f 003c eaec 2f3b
000002b0: 63dd 573b 286f f33b e412 153a 8770 643a
000002c0: 2707 d03b 2fbb 543a cade 823a 414c 043c
000002d0: 758d b638 c73d 04bc d8ad 9d3a b191 57bb
000002e0: 7067 d43a 2d19 3ebb 3003 ec3a b2a2 dd3b
000002f0: 7a22 093b cc01 b23a f11e a73a ba4d a3bb
00000300: 996b b43b f093 e33a 65c2 c53a b73d 003b
00000310: 99a2 80ba 8ed0 3bbb f363 5fbb 6e74 f63a
00000320: b7d4 adb9 580f afba 308c 913b c7cc 97bb
00000330: cb04 7c3b 1a90 b13b 2312 a9bb c533 f4ba
00000340: 185d 113a 0115 03ba b6bd 303b bef8 6e3b
00000350: 12ac 1fbb 45cb 3c3a 1382 87ba 9179 54ba
00000360: 3134 67bb 7234 e83a 35d2 7ebb 8125 8eba
00000370: ed95 ff3a 471b 6b3b b3be 0e3b d369 8b3b
00000380: 3ed4 a93a 01b3 9bba 0672 74bb 10ea e539
00000390: 321f b939 dde4 d63a a721 9839 1f7d 34bb
000003a0: 5999 0e3b 47dc 26bb bbc7 173a f35c a739
000003b0: 117f 763a 38f3 633a 2723 6d3b e2a9 eeba
000003c0: 3452 8cbb 6043 2f3b e2a6 a8ba 3062 09bb
000003d0: 99a8 983a f98e 403a f0c6 6bba 9f08 ebba
000003e0: 2f21 c239 6006 633b 31ac dfba 6569 2fba
000003f0: 38c9 aaba ebc1 84ba 9ade 133b f5b2 b73a
0.009454975 0.00925649 0.003687412 0.0039763493 -0.002661227 -0.0013576695 0.0038058425 -0.0059193503
0.0011690595 -0.0041777 -0.003849472 0.0026253236 0.00019231951 0.005108861 0.0029621397 0.0010755628
0.0018026583 -0.0036785346 -0.0006787125 -0.0057711788 -0.0004913897 0.0034969924 0.0014808975 0.004254047
0.0018446237 -0.0016285124 -0.003083025 0.002781785 0.0019386279 0.0012236622 -8.446859e-06 -0.0008396497
0.0073064105 -0.003755013 -0.0010106225 0.0061106845 0.0045300056 -0.004239705 -0.004805464 -0.0022629702
-5.230158e-05 -0.002170904 0.0028799626 7.4797346e-05 -0.0068788403 0.0063243667 -0.0034064143 0.003247816
0.0017094908 0.006087485 0.003245985 2.9523486e-05 0.00026101636 0.0012050807 -0.0038950187 0.001969021
0.009808 0.0030535695 -0.0004126599 -0.003637574 0.0010930864 -0.0009422038 -0.0036232162 -0.0041323677
0.0065686586 -0.003107278 0.00548572 -0.0009843855 0.00039504914 0.0006232835 0.007154985 -0.005764866
0.002861798 0.004680249 -0.0036418089 0.0064934012 0.0023785708 -0.0007230045 0.0020340988 0.00096491625
-0.0058885277 0.005648153 -0.004399629 -0.0045386427 -0.0025714124 0.0033691472 0.0002561612 0.0058988263
-0.001928095 -0.0031747678 -0.0034606385 0.0031243118 0.00717634 0.0046563195 -0.0025699853 -0.002979512
0.0024981291 -0.0004943128 0.0037017856 0.00592108 0.0062028687 0.0071589337 0.0037049912 0.0067263353
0.00048300362 -0.0020234282 -0.0027696225 0.0014124484 0.0058878493 0.0024300735 -0.0054423274 -0.0005720047
0.003394295 -0.0029194646 -0.0014636262 0.002247544 0.001831779 0.006648378 0.00031967642 0.001008673
-0.002132185 -0.0025917937 -0.003199006 0.0009991424 0.0012955301 -0.0061037475 0.0067904587 -0.004300005
0.0016674775 0.002931913 0.0031648267 0.0049775112 0.009143869 0.0019938368 0.0017797105 -0.0024907063
-0.0017905225 -0.0028694454 0.00027653112 0.0031078996 -0.0024536606 0.0010109524 -0.0044936705 0.0009150507
0.0032569042 0.003690824 0.0021612963 0.008459335 0.0027163653 0.000536622 0.0005327425 0.0021931054
-0.0020235025 -0.0062183957 0.005556129 -0.0010126479 0.000896957 6.95445e-05 0.000381195 -0.001949845
-0.0006538006 0.0036698333 0.0017542704 -0.004332542 -0.002482646 0.001876754 0.0057452978 0.00047022675
-0.0007692318 0.0011139797 0.00783909 0.0026844093 0.0032938353 0.0074290223 0.0005686714 0.00087142776
0.006348509 0.0008115051 0.0009984609 0.008074821 8.704785e-05 -0.0080713695 0.0012029959 -0.0032893235
0.0016205143 -0.0029006705 0.0018006321 0.0067637796 0.002092509 0.0013580858 0.001275031 -0.004983631
0.0055059907 0.0017362814 0.0015087841 0.0019568035 -0.0009814083 -0.0028658244 -0.0034086674 0.0018803009
-0.00033155616 -0.0013356013 0.0044417605 -0.0046325657 0.0038455005 0.0054187896 -0.005159633 -0.0018631151
0.0005545183 -0.0005000383 0.0026968545 0.003646418 -0.0024364037 0.00072019204 -0.0010338448 -0.0008105273
-0.0035278911 0.0017715825 -0.0038882617 -0.0010844917 0.0019499637 0.0035874413 0.0021781146 0.0042545586
0.001295693 -0.0011878909 -0.0037299409 0.00043852674 0.00035309192 0.0016395111 0.00029016772 -0.0027540398
0.0021758883 -0.0025460885 0.0005789955 0.00031921975 0.00094030896 0.0008695605 0.0036184283 -0.0018208588
-0.0042822603 0.002674304 -0.0012867118 -0.0020963065 0.0011646926 0.00073455233 -0.00089941826 -0.0017931646
0.00037027287 0.003464125 -0.0017064867 -0.0006691425 -0.0013029939 -0.0010128593 0.00225631 0.0014015125

network_body._body_endoder.seq_layers.2.weight f4 [256, 256]
00000000: c350 72bd 42fc 513c f666 bdbc 1944 1f3d
00000010: 06a8 a8bd 6600 a43d 674f 2a3d f030 af3d
00000020: f808 003e fb24 f2bc 2a9e ab3c a452 e23d
00000030: 3d9a af3b af6e 2f3c 1250 843a 2712 9fbd
00000040: e402 80bd 39b7 ab3c 66db cdbc f200 a13c
00000050: a0a6 703d 99a0 943b 83de 393c 5787 bdbc
00000060: 9a4c 093e 06be 8bbd 39ff a5bd efe3 1cbd
00000070: 0248 9a3c 1350 79bd cbbe 8f3c 3cd7 ab3c
00000080: 167c 2bbc 69f4 4cbd 745c 80bd de14 93bc
00000090: b417 1a3d 27a8 7a3d 7b09 1f3c 9c4c 043e
000000a0: 982d c73d 68db cbbd 5049 f53d b1e1 d1bc
000000b0: 409f d03c aa15 38bd 851d 793d 76b9 4bbc
000000c0: f199 24bd 2e3e e83d b7ca ca3d 38da a33d
000000d0: dd2c ba3d 72bc 9ebd 8df2 063d c578 3abc
000000e0: cf22 cdbc 7e42 023d 5df0 8e3d 8b8a aebc
000000f0: 0c77 1f3d 6299 83bd f580 0cbe 48b2 21bd
00000100: d87e 083b bffb bcbc 4f99 a8bb 08fa 123d
00000110: 5ea5 c9bd af0d a8bd 40f4 873d fbde 97bc
00000120: 8f32 dc3d d52f 413e 3d1e 133d df14 863d
00000130: 8fc9 053d bb42 97bb fcb5 b13c 3100 073d
00000140: 0ffd 87bc 1852 94bd 330a 563c dffd e13d
00000150: 6b7c 54bd 4755 af3c a40d f13d 8ff4 9bbd
00000160: dd7b 883d 1e4b 183d a6c9 7b3d 5dd6 143d
00000170: 1f7c b1bd ca50 ecba e191 9fbd a6f2 1cbd
00000180: aebb a83d 6444 a83d 1dd0 bc3d 871e babd
00000190: ef0a 8abd a7fa 28bd bad6 c03d 5c16 463b
000001a0: 30b6 d93d 5d0c 89bc e70d 8f3c e991 483d
000001b0: 5e63 80bd b38e 033d 3392 0cbc 2361 d3bd
000001c0: 148f 473d 9425 803d 0abb 19bd 2493 f43b
000001d0: 0940 913d 2a0f 883d 240e 963c 26fd 263b
000001e0: 3727 02bc be0e bc3c c9db 8f3d f57a 2a3d
000001f0: 5f5a 0b3d 6b11 333d 2f2a 163d 0437 b4bb
00000200: efea 5e3b 1d77 dbbd 2af5 f23c 7d85 fc3c
00000210: 3cdb 2cbd 78e7 47be 402b a8bd 139f e1bd
00000220: df3d 55bc dde0 4bbc 8d78 953d 572f 5a3d
00000230: 2b52 3a3d 2025 95bd d39e 85bc 1c00 2e3c
00000240: 77ec 353d a03f 87bd c030 c63c 939b 8b3c
00000250: 0a05 1c3d 8feb a03d e76b 283d 1d1e 2f3d
00000260: abd1 7cbb 6068 ca3c 4a50 1cbd fc4d fabc
00000270: 4627 fbbc f145 6dbb c1d3 53bc d708 76bd
00000280: d6c8 763e 89bc 633c d4c6 dd3c 70aa c9bc
00000290: c71b 603d 918d fb3d 9b6b 6fbc e0a3 f43d
000002a0: 72d6 773d 9308 7b3d 83ae 5a3d b2b0 e0bc
000002b0: cffe 903c 91c9 a6bd 6ad1 c9bd 5755 cc3d
000002c0: 0f4a 323d eba1 32bd 0f99 4dbd 30eb fcbc
000002d0: 6acb a3bd 735c c23d ce9a 413d e17e 093c
000002e0: 2574 9e3b 4b31 4b3d f16f 1bbd e06c fa3c
000002f0: e25c 0e3b acec dbbd e10b 083d a2aa 203d
00000300: 435b 31bd 28cf 823d 1735 d63c 2f7b 293c
00000310: a071 0abc 07cd c7bc 32c6 523c 1291 09be
00000320: 873a 073d 9ede 043d bac5 873a 91b7 bf3c
00000330: aca8 febc 0c40 8e3d 4db3 91bc ba8e 393d
00000340: 8cad 423c e43d a8b9 85aa e53c 1b7b ddbd
00000350: 08df 90bb c5a2 b83d 5bbe 5d3d bb19 bc3d
00000360: 70eb 4fbb e18f efbd 0157 ab3c 5966 ccbd
00000370: e782 313d e90f 6d3d 77b8 dc3b a4d5 943d
00000380: 9769 953b 6383 7ebd 92e9 8a3d e198 90bd
00000390: 491f c1bc f0e2 b6bd fccf 3f3d a0a3 fcbc
000003a0: 814f fe3d 2094 d6bd 40cb f83b 1f43 7abc
000003b0: 9d1f 4f3c 8636 a53d 5107 a93d 7bf1 7fbd
000003c0: ee58 afbc e60a 8d3c 1fe0 333d 4d28 9b3c
000003d0: 393e 2f3d bef2 67bd d573 b0bb fca0 d3bc
000003e0: 9239 8fbd a99a 973d df7e 80bd fb0e 00ba
000003f0: bad8 943d 29cc 153d 93c9 e8bc 9a89 a83d
-0.05915905 0.012816491 -0.023120385 0.038883302 -0.08235173 0.080078885 0.04157963 0.08554256
0.12503421 -0.02955865 0.020949442 0.11050919 0.005358963 0.010707541 0.0010094664 -0.07767134
-0.06250551 0.02096139 -0.025129031 0.019653771 0.058752656 0.0045357463 0.011344555 -0.023135824
0.13408127 -0.068233535 -0.081053205 -0.038303312 0.018833164 -0.06086738 0.017547032 0.020976655
-0.010466596 -0.050037775 -0.06267634 -0.017954286 0.03762026 0.06119552 0.00970685 0.12919849
0.09725493 -0.09953958 0.11976874 -0.025620313 0.025466561 -0.044942535 0.060819168 -0.012434354
-0.040185872 0.11339985 0.09901946 0.08000606 0.09090588 -0.07750787 0.03294616 -0.011381333
-0.025041012 0.031801693 0.069794394 -0.021306297 0.03893189 -0.0642574 -0.13721068 -0.039476663
0.0020827558 -0.02306926 -0.005145229 0.03588298 -0.098459944 -0.08205735 0.06638384 -0.018538943
0.10751831 0.18865903 0.03591751 0.065469496 0.032662924 -0.004616109 0.021693222 0.032959167
-0.01660016 -0.07242221 0.013063955 0.1103475 -0.051876467 0.021402968 0.1177018 -0.07615005
0.0666425 0.037181012 0.061471604 0.036337245 -0.08666252 -0.0018029448 -0.07791496 -0.038317345
0.08238922 0.082161695 0.09219382 -0.09087854 -0.06740367 -0.041254666 0.09415956 0.003022573
0.10630453 -0.016729528 0.017462684 0.048967276 -0.06268953 0.03211851 -0.0085797785 -0.10321262
0.048720434 0.062571675 -0.03753189 0.0074638296 0.07092292 0.06643517 0.01831729 0.0025480478
-0.00794392 0.022956248 0.070243426 0.041621167 0.03402173 0.043717783 0.036661323 -0.0054997224
0.0034014543 -0.107160784 0.029657919 0.03082537 -0.042201266 -0.19521892 -0.08211374 -0.11016669
-0.0130152395 -0.012443748 0.07298384 0.053267803 0.045488518 -0.07282472 -0.016311085 0.010620143
0.044414964 -0.066039324 0.024193168 0.017041957 0.038090743 0.07857429 0.04111853 0.042753328
-0.003857712 0.024707973 -0.038162507 -0.030554764 -0.030658375 -0.0036205018 -0.012928904 -0.060067024
0.2410005 0.013899931 0.027072348 -0.024617404 0.05471399 0.12282861 -0.0146130575 0.11945319
0.060507245 0.061287474 0.053389084 -0.027428005 0.017699627 -0.081439145 -0.09854396 0.09977215
0.04352766 -0.04361145 -0.050194796 -0.030873865 -0.079977825 0.094902895 0.047266774 0.008392067
0.004835623 0.049607556 -0.037948553 0.030569494 0.0021722843 -0.10738501 0.033214454 0.039225228
-0.043299925 0.06387168 0.026148362 0.010344311 -0.008449942 -0.024389757 0.012864636 -0.13434246
0.0330148 0.032438867 0.001035861 0.023402961 -0.031086288 0.0694581 -0.017785693 0.04530213
0.011882197 -0.0003208957 0.028035412 -0.10814496 -0.0044211186 0.09015421 0.054136615 0.09184595
-0.0031726025 -0.116973646 0.02091551 -0.09980459 0.04333773 0.0578765 0.006735857 0.07267311
0.0045597064 -0.06213702 0.06782831 -0.07060409 -0.023574488 -0.08930004 0.04682921 -0.030839741
0.12417508 -0.10477471 0.0075925887 -0.015274792 0.012641815 0.0806704 0.082533486 -0.062486153
-0.02140471 0.01721711 0.04391491 0.018940115 0.04278395 -0.05662798 -0.005384902 -0.0258336
-0.069934025 0.07402546 -0.06274199 -0.0004885045 0.072679 0.036571655 -0.02841643 0.082293704

network_body._body_endoder.seq_layers.4.bias f4 [256]
00000000: 81ca 8cb9 d19f 0c3a 5ae9 833b 16c9 5ebb
00000010: 84fe f939 4cb9 de39 84f6 5aba 9c52 79bb
00000020: bffb 143b 64a9 d43b c580 1439 7cd3 7ebb
00000030: 39d2 783a bcb4 213b 0188 70bb fc2a 793b
00000040: d178 723b c1a5 863b 25a8 393b 3df3 303b
00000050: 1bac 833a 5959 71bb 418c b53b 6079 59bb
00000060: a436 85bb 7da3 963b ff14 90bb b731 5c3b
00000070: ff03 73bb fdb6 33bb 3716 963b 1c7b a8bb
00000080: a807 173b 9262 c4ba f25b 813b 0936 403b
00000090: b690 d039 ca19 48bb 79e6 fa3a 720c 0ebb
000000a0: d57e 9cbb 20fe 9a39 4e11 c7ba 85ff 65bb
000000b0: 08eb 5c3b 6302 503b 572b 79bb bc4d 8d39
000000c0: ffc8 60bb 0a36 6b3b be56 993b 978e f2b9
000000d0: 8e05 a1b9 c0ff 0d3b 0c62 64bb a2b5 b539
000000e0: 18f3 4ebb ab0b 69bb 86e3 0dbb 97ef db3a
000000f0: c70a a03a 50b2 34bb 00c5 64bb 18f1 d23a
00000100: 197e 0e3b bd8d 93bb 5ac3 4fba 0131 35ba
00000110: da2e bc3b 2f91 0fbb ad4b 61bb 0b48 ceba
00000120: 9e68 933b 5657 b8ba ac1a 2c3b 7345 613b
00000130: 798b db3a 4b16 4b3b ee3d 82bb e056 993b
00000140: d76f 023b 067d 54b9 b868 9f39 8a6e 69bb
00000150: 6aa1 503a 1f49 24b9 06c0 a6bb 2c97 ae39
00000160: 3ee7 763b 19e1 3c3a 38ce bf3a 58c8 97b8
00000170: af02 04bb ffec 5eba d41c 4a3b b986 96bb
00000180: c913 023c d515 423a eb5f 683a 2745 c1bb
00000190: b655 ef3a 09b5 8a36 6cbc 813b 7150 1ebb
000001a0: 8115 183b 74d4 383a 7869 a53a f031 a73b
000001b0: cc0a 97bb 7902 acbb 259d 9aba c3cc cbb9
000001c0: e3cd 5c3b 8e46 11bb 1cd2 253b 1760 cd37
000001d0: 699f 79bb ad43 873b 3c5b 5fbb 08b7 ae3b
000001e0: 6776 7cbb 1de2 11ba 3a67 993b 0f1b 29bb
000001f0: 1823 78bb 3c49 a3ba 0aa2 053b 4dba 9d3b
00000200: b762 6f3b 1215 993b fae5 8b3b df0b bc3a
00000210: 57f3 97bb 4612 9e3b bc41 9a3a 0d27 a5ba
00000220: 8995 763b 21c6 39bb 1a02 a03a 230b 9b3b
00000230: c59d 21ba 62cf bb3b df21 88bb f66f 733b
00000240: 6441 3abb e8bb 573b c31d 75ba 3d57 91bb
00000250: 1e24 b6ba b79d 573b b457 0cbb 6bfa d0ba
00000260: ad1e 56bb 6e04 833b 7c58 61ba 3e1e f0b6
00000270: fad2 2fbb 4911 13bb a689 383b 0a19 59ba
00000280: 8bd4 b23b fe9f ad3a f073 473b bd07 cd3a
00000290: 6578 6e3b 7db6 6dba c2d8 36ba e3af c7ba
000002a0: 64b9 8fbb 5d9c 65bb 675b 33ba afef c7ba
000002b0: bf83 3e3b 92d6 373b 1cea c63b 2bbc 8a3b
000002c0: 7ea1 ca3a 2dda 113b 4549 48bb 3f17 65bb
000002d0: 4b1e 9939 99ed 19bb 3a43 763b 78e7 efba
000002e0: 2213 b839 fc3b b93b 6b36 48bb f236 bc3b
000002f0: ced9 983b 9d79 29bb 1525 ef3a df89 3e3b
00000300: 43aa f93a 5457 efba c9fe 013b 956c 3aba
00000310: 4bb1 94b8 8c0a 8ebb 2cad bbbb bc11 aeba
00000320: f467 8abb 51a3 9a3a 2f66 6f3b 7d90 5cbb
00000330: a3c9 5f3b 8e50 50bb fe1e 51b8 9122 943b
00000340: a886 deba 96ff 953b 9717 973b 2ec5 7aba
00000350: 2a23 39bb 101b a03b b63d 163b 14f5 53ba
00000360: efb7 ab3b 329f 80bb 2a2c b3bb 06b5 7c3b
00000370: c9f4 69bb a5d1 e5ba 0e5e 683b c3b5 40b9
00000380: 0538 6bbb b69e 2c3b 212b ccba 4181 723b
00000390: d886 1ebb 6980 a63b 61ba 463b 074d 9d3b
000003a0: a474 8f3b de0d 7d3b db04 143b 7bc6 82bb
000003b0: 2c57 2bbb 253f 143b 5db3 7b3b 1e0a 12bb
000003c0: 8f2c 043a 46dc 8fbb ec5b 4ebb 94fa 36bb
000003d0: 0023 483a 5a25 923b 31c6 cc3a 14f1 0dbb
000003e0: 9852 61bb 8933 5fbb 2a7b 1fbb 65e6 b337
000003f0: 8502 9e3b edc5 25ba b61e bf3b 766b ba3a
-0.00026853758 0.00053643907 0.0040256204 -0.0033994368 0.0004768261 0.00042481197 -0.0008352774 -0.0038043624
0.002273306 0.0064899195 0.0001416235 -0.0038883379 0.0009491775 0.0024674376 -0.0036702158 0.0038020005
0.0036998282 0.004109115 0.0028328982 0.002700045 0.0010045798 -0.0036826937 0.005540401 -0.0033183917
-0.0040653516 0.004597126 -0.004397034 0.0033598968 -0.003708124 -0.0027422302 0.004580285 -0.005141629
0.0023045335 -0.001498299 0.0039477283 0.0029329082 0.0003978067 -0.003053295 0.0019142173 -0.0021674898
-0.0047758617 0.00029562507 -0.0015187652 -0.0035094928 0.0033709425 0.0031739704 -0.0038020217 0.00026951532
-0.003429949 0.0035890364 0.00467953 -0.00046264075 -0.00030712452 0.0021667331 -0.003484848 0.00034658337
-0.0031578 -0.0035559933 -0.0021650507 0.0016779777 0.0012210243 -0.0027572103 -0.003490746 0.001609358
0.002174264 -0.0045029805 -0.0007925533 -0.0006911904 0.00574289 -0.0021906605 -0.0034377382 -0.0015738023
0.0044985553 -0.0014064114 0.0026261015 0.003437367 0.001674994 0.003098863 -0.0039746678 0.0046795458
0.0019903088 -0.0002026447 0.00030404865 -0.0035618865 0.0007958623 -0.00015667499 -0.005088809 0.00033300498
0.0037674452 0.0007205173 0.0014633602 -7.237558e-05 -0.00201432 -0.0008503943 0.0030839937 -0.004593697
0.007939287 0.0007403766 0.00088643905 -0.005898136 0.0018259797 4.1337958e-06 0.003959229 -0.0024156834
0.0023206177 0.0007050701 0.0012619933 0.0051023886 -0.0046094414 -0.005249318 -0.00117961 -0.00038871737
0.0033692054 -0.0022167298 0.0025302237 2.448265e-05 -0.00380894 0.0041279406 -0.003408148 0.0053318776
-0.0038522722 -0.00055650045 0.004681495 -0.0025803482 -0.0037862714 -0.0012457739 0.0020390772 0.0048134685
0.0036527344 0.004671701 0.0042693587 0.00143468 -0.0046371627 0.0048239557 0.0011768858 -0.0012600139
0.003762575 -0.0028346854 0.0012207658 0.004731552 -0.0006165172 0.005731509 -0.0041544284 0.0037145591
-0.0028420324 0.0032918397 -0.0009350443 -0.0044354484 -0.0013896262 0.0032900402 -0.002141458 -0.0015943771
-0.0032672093 0.003998331 -0.0008596254 -7.156078e-06 -0.0026828633 -0.0022440723 0.0028158217 -0.0008281624
0.005457466 0.0013246534 0.0030434094 0.0015642565 0.0036387679 -0.00090680254 -0.00069750485 -0.0015234913
-0.004386114 -0.0035035827 -0.0006841928 -0.0015253926 0.0029070226 0.0028051478 0.0060703885 0.004233857
0.0015459505 0.0022255287 -0.003056125 -0.0034956483 0.00029205004 -0.0023487567 0.0037576691 -0.0018303236
0.0003510947 0.0056529026 -0.0030550014 0.0057438547 0.004664636 -0.002585984 0.0018245304 0.0029073877
0.0019047934 -0.0018260279 0.0019835702 -0.0007111517 -7.090213e-05 -0.0043347534 -0.005727431 -0.0013280432
-0.004223818 0.001179794 0.0036529412 -0.0033655458 0.0034147284 -0.0031786296 -4.9858347e-05 0.004520722
-0.0016977387 0.0045775874 0.0046109664 -0.0009566125 -0.002824972 0.0048860386 0.0022924966 -0.0008085531
0.0052404325 -0.0039252276 -0.0054679113 0.0038560047 -0.0035698882 -0.0017533792 0.0035456452 -0.00018378258
-0.0035891545 0.0026339716 -0.0015576818 0.003700331 -0.002418926 0.0050812257 0.0030323493 0.004800442
0.0043779183 0.0038613002 0.0022585902 -0.003990946 -0.0026144488 0.0022620645 0.003840647 -0.0022283862
0.000504204 -0.0043902723 -0.0031487895 -0.0027920352 0.000763461 0.004460019 0.001562303 -0.0021658586
-0.0034381505 -0.0034057817 -0.0024334886 2.1445749e-05 0.0048220777 -0.0006323744 0.0058325185 0.00142227
