results/R11/AgentController/AgentController-499977.onnx (onnx, 657373 bytes, 14 tensors)

83 f4 [116]
00000000: 059e 8b3e c177 513e 029a 413e 9363 873e
00000010: a048 8b3e f328 503e 91f4 413e 268b 873e
00000020: dcd1 8b3e e059 523e bb49 413e 7493 873e
00000030: 8b72 893e 5d34 4d3e 915c 3f3e d1eb 873e
00000040: 2e41 8b3e c817 523e 71c4 3f3e b4f2 873e
00000050: 3293 873e e414 483e 81fa 3e3e 86b1 883e
00000060: 8a1c 893e ef90 4f3e e3af 3b3e ab42 883e
00000070: 08eb 843e ac7a 423e 71a3 3c3e d464 893e
00000080: e8e8 873e e827 4e3e a064 393e 88d4 883e
00000090: b243 823e 5234 3c3e d8ff 3a3e 05d1 893e
000000a0: c37b 873e fce9 4b3e 488c 3a3e 6c48 893e
000000b0: a8b2 803e 5e5c 383e e01f 3a3e 9bf7 893e
000000c0: 3c2a 873e a891 493e 101b 3c3e d488 893e
000000d0: b82a 803e bd7f 373e 1f4c 393e c885 893e
000000e0: 83d3 873e 265c 483e ac6b 3f3e aebd 893e
000000f0: 2aa7 7e3e 4f7c 353e f7ea 383e 878c 883e
00000100: 22a0 863e e358 453e 5de8 3e3e a558 893e
00000110: 5c51 7f3e 4c44 343e 5211 3b3e eb5b 873e
00000120: 7c4e 853e 903a 413e 0c1e 3f3e 0ab0 883e
00000130: 29ca 803e 645a 363e d863 3c3e dbf0 853e
00000140: 7299 833e f2c8 3a3e 376a 403e 62e7 873e
00000150: 5c18 823e a43b 373e 8a60 3f3e aec0 843e
00000160: 9aa9 823e c32d 373e 921b 413e a658 873e
00000170: 0a0a 833e d095 373e 69d1 413e 52dd 833e
00000180: 7e50 813e c26c 333e 98b1 403e 1662 863e
00000190: 6898 813e 0f65 343e 579a 403e d079 833e
000001a0: e5c2 7f3e e816 303e cd9e 3f3e 4037 853e
000001b0: 77f2 7f3e 2457 303e c9a7 3f3e 3606 843e
000001c0: 60f3 7f3e 2457 303e 14a9 3f3e 5006 843e
0.27268997 0.20455839 0.18906406 0.26443157 0.27203846 0.20328121 0.18940951 0.2647335
0.27308547 0.20542097 0.18875782 0.26479685 0.26845202 0.20039506 0.18687655 0.265471
0.27198166 0.20516884 0.1872728 0.26552355 0.2647949 0.19539219 0.18650247 0.2669794
0.26779586 0.20270132 0.18328814 0.26613364 0.25960565 0.18992108 0.18421723 0.26834738
0.2654488 0.2013241 0.18104792 0.26724648 0.25442272 0.18379334 0.18261659 0.26917282
0.2646161 0.19913477 0.18217576 0.26813066 0.25136304 0.18003985 0.18176222 0.2694672
0.2639941 0.1968447 0.18369699 0.26862204 0.25032592 0.17919822 0.18095444 0.2685988
0.26528558 0.19566402 0.18693417 0.26902527 0.24868456 0.17723201 0.18058382 0.26669714
0.26294047 0.19272189 0.18643327 0.26825443 0.2493338 0.17604178 0.18268326 0.26437315
0.2603644 0.18869996 0.18663806 0.26696807 0.25154236 0.17807919 0.18397462 0.2616032
0.25703007 0.18240717 0.18790518 0.2654372 0.2540921 0.17893845 0.1868917 0.25928253
0.2552002 0.1788855 0.18858173 0.2643482 0.25593597 0.17928243 0.1892754 0.25754791
0.25256723 0.17521957 0.18817747 0.2624671 0.2531159 0.17616676 0.18808876 0.25678873
0.2497669 0.17196238 0.18712921 0.26018715 0.24994837 0.17220742 0.18716349 0.2578599
0.24995184 0.17220742 0.18716842 0.25786066

86 f4 [3]
00000000: bc46 9040 f402 a43b 6e98 f940
4.5086346 0.005005235 7.799857

action_model._continuous_distribution.log_sigma f4 [1, 2]
00000000: 39fd 983b 2b3f 973a
0.0046688584 0.0011539211

action_model._continuous_distribution.mu.bias f4 [2]
00000000: 86d7 c33a 26e0 6fbb
0.001494155 -0.0036602109

action_model._continuous_distribution.mu.weight f4 [2, 256]
00000000: 7acf ab3b dcf8 e13b 9da9 1bbc f5b4 89bc
00000010: 3a62 ee3a 6a2e 97bb e7cf 5eba 73b8 dabc
00000020: ab17 df3c 9e98 ceba 2f07 003c fc94 09bb
00000030: 914c 193c 1cd0 d9ba 2c74 923b 8fbc 253c
00000040: c78d 883c 1d21 d2bc 27cb 853b 9bd1 113d
00000050: 2d09 1a3c eeba fb3b f3f6 49bc e096 abbb
00000060: bdb9 f13c 9531 c93b 4c06 863b 8cb6 123b
00000070: c8de b9bc 4951 e0bc eb40 51bc 4fea 12bb
00000080: 4957 c9bb d661 a4bb d24a af3b f292 60bc
00000090: 7ec9 1cbb 8366 8c3c 5ab3 8d3b 85b9 17bc
000000a0: 8873 ea3b 566e 49bb 392d 6c3c c144 f8bc
000000b0: 5994 9a3c 55fe a639 e636 97bb c63c 55bc
000000c0: d095 f13b d73c 78bc 7afa 763c 12ac 27bd
000000d0: 4d17 443c 1351 223a 3feb 223c b82a 84ba
000000e0: b37d 0b3c ccaa 50bc 83e9 bebc a2d6 07bd
000000f0: 9a58 8a3b 6cce 603b ad4a 173b 12fb 15bd
00000100: 7f16 0e3c bb5b 30bc d4af 193c 1239 96bb
00000110: 63ce 7b3c 0669 5b3c 9085 51bc 72c4 943c
00000120: 3e1a 22bc 9bca 12bc a868 49bb 00c5 89bb
00000130: 26a0 90bb d7b3 00bd e851 383c 3306 303c
00000140: 9a84 3cbc ff98 c33c 54af debb aa08 29bc
00000150: 10d0 49bc cc95 3bbc 7880 2f3c 9df6 0f3c
00000160: 71f5 a2bb 54ef 50bc 62ec fa3a bda4 6abc
00000170: a985 03bd 1fc0 053d 313e b0bc b3b4 aabc
00000180: 723a 7abc d92f 81bc 8988 f83b ea5a 1bbd
00000190: cd93 ebbb cd7b f13b 2870 303c 6b46 533c
000001a0: da81 ebbb 0b64 aabc 9f1d c43b 1381 e93b
000001b0: 4c8b 563c 61a4 633b 2796 a23c 67b9 d13c
000001c0: 7889 fd3b ab2f 98bc 4ba3 db3c 38ef e4bb
000001d0: d958 803b 5141 32bc 07f6 0a3c 87d7 0e3c
000001e0: b479 bbbc 92cc f6bc 0796 a7bb 2604 d1bb
000001f0: 9517 2e3c a6af 663b 4f1a 8d3c 794e 443c
00000200: 7b0b a73c 960a 9d3b 7595 9a3a 0a77 cf3b
00000210: 5333 b93b 7574 7c3b f7cd 7ebb d755 273c
00000220: 1d59 f4bb 56c7 213c 3549 e93b c1e2 693c
00000230: 4e46 a03c 5753 48bc c314 e1ba 787c 0dbc
00000240: 840c dd3c 2564 9b3b 0308 1ebc c4f8 853c
00000250: ed10 5abc 3b32 263b 3620 84bc 5e71 b93b
00000260: bdaf baba b2ee 4abc 114e b13c a642 95bc
00000270: a36b 22bc 172c a83c 7e5d a2bc c214 a6bc
00000280: 08a0 1bbb 3fee 4e3c eaf8 4cbc 8e2f 5fbc
00000290: e311 9f3a dcf3 3c3b 05c3 14bc 81ab 50bc
000002a0: 5b99 dd3c 0ef8 8fb8 d343 a63b 22c2 753b
000002b0: 4433 293b b0f0 f33c 5430 ccbb b83b 85bc
000002c0: 0359 0abc 58ca 76bc 95d2 7a3b 5f0a 543c
000002d0: 0656 6dbb ec7d 3d3c 92c7 acbc a612 983b
000002e0: 07fd 34bb 9677 66bb 719c c3bc dfc9 813c
000002f0: f040 c5ba 7ec2 58b9 9227 12bc 9f85 7dba
00000300: 983e 96bc c1c3 c5bc 87a4 3ebc 831f aa3c
00000310: d941 753c 941e 4f3c 8bf0 d73b efab 99bb
00000320: 6066 c13c 4b79 d73c 768f 90bb a640 cabc
00000330: 71c6 153c e69a a9bb 369b acbb dbeb 2fbc
00000340: 5e29 35bc 2053 8dbb a746 e1bb b0d7 e03b
00000350: 0a3d 74bb de7c 993c a8f1 df3b dc10 0c3c
00000360: caa3 39bc 76ee 4d3b 8620 e53b 44f8 c63b
00000370: c3b0 463b 1767 d8bb 1fa0 bbbb 78d6 c13c
00000380: 8436 d63a 6df8 493b a7f2 193c c4d8 793b
00000390: 54df c43c 6e4c 89bc 0ef6 fabc 4504 d4bb
000003a0: 249f 453c 0df4 933c 0dd5 9abb 8a83 d83b
000003b0: 9fea cabb e82a 8abc 869c 9ebc cbdf 003c
000003c0: 61b1 c3bb d4cc ab3a 1f0d b2bb d470 4c3b
000003d0: 2e0a d7bb 4faf a23c a57b e9bb bdc0 8039
000003e0: 908d 6d3b 23d1 0a3c 369f cfb9 c489 4abb
000003f0: 0285 4d3c 34ee a1bb 2c0f d43b 15e3 283b
0.005243239 0.0068961214 -0.009500888 -0.01680992 0.0018187233 -0.0046136873 -0.0008499608 -0.02669928
0.027232965 -0.0015762036 0.007814213 -0.0020993343 0.009356634 -0.0016617808 0.004469415 0.010115757
0.016669167 -0.025650555 0.0040830555 0.035600286 0.009401602 0.007682196 -0.012326944 -0.0052364916
0.029507512 0.006139944 0.004090106 0.0022386638 -0.022689238 -0.02738251 -0.012771825 -0.002241749
-0.0061444384 -0.0050165458 0.0053494954 -0.0137069095 -0.002392381 0.017138725 0.004324359 -0.00926054
0.0071548857 -0.0030735931 0.014415079 -0.030306222 0.018869566 0.0003185148 -0.0046146987 -0.013014978
0.0073725954 -0.015151224 0.015074367 -0.040935583 0.011968446 0.00061918906 0.009943782 -0.0010083532
0.008513856 -0.012736034 -0.023304706 -0.033163674 0.004221988 0.0034302725 0.0023085282 -0.036616392
0.008672356 -0.010764058 0.0093803 -0.00458444 0.015369031 0.013391739 -0.012788191 0.018160079
-0.009893952 -0.008959438 -0.0030732546 -0.0042043924 -0.0044136224 -0.03142151 0.011249997 0.0107436655
-0.011506224 0.023876665 -0.006795803 -0.010317007 -0.012317672 -0.011449289 0.010711782 0.0087868245
-0.0049731066 -0.012752373 0.0019143934 -0.014321503 -0.03210989 0.032653924 -0.02151403 -0.020838117
-0.0152727235 -0.015769886 0.0075846356 -0.0379285 -0.00718925 0.0073694945 0.010768928 0.012895207
-0.0071871104 -0.020799657 0.0059849764 0.0071259825 0.013094734 0.0034735429 0.019846989 0.025601102
0.007737335 -0.018577417 0.026811263 -0.006986525 0.0039168415 -0.01087983 0.008481509 0.008718378
-0.022885181 -0.030126844 -0.00511432 -0.0063786684 0.01062574 0.003519991 0.017224459 0.0119816
0.020391217 0.0047925217 0.0011793809 0.0063313292 0.0056518703 0.0038521562 -0.0038880089 0.010213337
-0.007456912 0.009874186 0.0071193227 0.014275254 0.019564774 -0.012226901 -0.0017172325 -0.008635633
0.026983507 0.004742163 -0.009645465 0.016353972 -0.0133096995 0.002535953 -0.01612864 0.0056592664
-0.0014243048 -0.012386011 0.02164367 -0.018220257 -0.009913358 0.020528836 -0.019819971 -0.02027357
-0.002374651 0.0126300445 -0.012510518 -0.013622178 0.0012136068 0.0028831875 -0.009079699 -0.012736202
0.027050665 -6.864975e-05 0.0050740032 0.0037499745 0.002581791 0.029777855 -0.006231347 -0.016263828
-0.008444074 -0.015062891 0.003827249 0.012941926 -0.0036214604 0.011565667 -0.021091256 0.004640895
-0.0027616636 -0.0035166494 -0.023878308 0.01584333 -0.001504926 -0.00020671819 -0.008920567 -0.0009671095
-0.018340394 -0.024141194 -0.011635906 0.02076698 0.014969313 0.012641568 0.0065899543 -0.0046896855
0.023608387 0.026302954 -0.004411633 -0.02468903 0.00914155 -0.005175936 -0.005267526 -0.010737385
-0.011057226 -0.004312888 -0.0068748775 0.0068616495 -0.0037267827 0.0187363 0.0068342276 0.008548941
-0.011330554 0.0031422651 0.0069924025 0.006072076 0.003031776 -0.006604086 -0.005725875 0.023661837
0.0016343151 0.003081824 0.009396232 0.0038123587 0.024032272 -0.016760077 -0.030634906 -0.0064702355
0.012061868 0.018060708 -0.0047251047 0.0066074776 -0.00619252 -0.016866162 -0.019361746 0.007865856
-0.005972073 0.0013107308 -0.005433693 0.003119518 -0.006562493 0.019858984 -0.0071253353 0.00024557664
0.0036247708 0.008472714 -0.00039600738 -0.0030904869 0.012543919 -0.004941726 0.006471535 0.0025770117

action_model._discrete_distribution.branches.0.weight f4 [1, 256]
00000000: e35d ef3b bcae 2cba 0729 c03b 9bbb 8d3c
00000010: 9fc1 ddbb 30a4 ae3b 927a e33a 7f01 253c
00000020: 20b7 9fbb 96fb 063c a6ba 14bc 4f2f 8cba
00000030: 1bdb b9ba 7318 ac3b 775c 3dbc affd d43b
00000040: 926b d339 a8c4 023c b9d9 853b 232b 59bb
00000050: 3c9c 82bb cf02 fc3a 28f3 63bb 7051 e73a
00000060: c5b6 4a3b ad6c e2bb 61ad 4b3b 0dd2 b037
00000070: 2876 fcbb db75 0fbb 2ac0 9a3a 7bdc b73b
00000080: eee2 253c 2548 da3b aef9 193a ef16 bd3b
00000090: 6fae 12bc 1aa6 a33b a307 80ba 3f39 e8bb
000000a0: 1b7e 58ba 7705 37ba e3ba 38ba f032 843b
000000b0: dcf2 473b 7a18 bcbb 186a 9dbb 5ec4 ac3b
000000c0: da22 393c 58e4 573c b77c 943b 2fcb 4f3b
000000d0: 4538 613a dcbf 8ebb 335e 583b 7333 fb3a
000000e0: 230a a0ba 2bd9 663b 6a7d fc3b 35ae cb3b
000000f0: 3852 233b 5afb 5ebb 0076 ec3b 0092 963b
00000100: a203 cfbb c767 7eba 9faf a93b c5c8 fd3b
00000110: 8a23 45bc c489 053c d4db c0bb cf98 a53b
00000120: 7aa4 e2ba 096d c23a 92f4 77b9 0a18 94bb
00000130: 8715 8bbb 6d1e 1c3c e473 b3ba b76e ab38
00000140: 67f5 c73a 5568 d9ba fa4c f63b e3ec 5a3b
00000150: 5eb9 1b3c 53ae cbba 3792 49bb 453a 83ba
00000160: 7055 743b b7b4 1dbb c33a 3abb bfcb 95bb
00000170: fd92 083c 4aa7 f83a e8cc 12bb d55b 83bb
00000180: 3b87 38bb b035 9cbc bf3a f3bb 3b3d b33b
00000190: 94eb 833c 2d86 473b 1ff7 de3b 9b8d 90b9
000001a0: ea7b e73b 176b 9439 500c a1ba 78c6 8abb
000001b0: da6f fabb 0a45 c23b 1511 713a f8fd 40bb
000001c0: c974 a6b9 2472 babb 3f0f 84bb 3a14 04bc
000001d0: 33ec dfbb 974a d43b 2013 4f3a aeff 3c3b
000001e0: 3f23 2dbc 83f6 913b eab9 30bc 301b ebbb
000001f0: 5a51 c23a 4223 b7bb aa24 6b39 e6f5 b03b
00000200: fd4b 34bb 6a1c a93b 6062 603b 0f88 8cbb
00000210: 0269 2dbc f905 9a3b 1ff6 a3ba af88 313b
00000220: 87c0 c9bb 2693 093c b322 533b cf05 b93b
00000230: 53f3 b1bb ddb2 7d3b 987a 64ba 228a 1bbb
00000240: 6d39 753c 172e e7bb 083b 473a 2c5b 1fbc
00000250: ed03 f8ba 7512 eeba d3d1 11bc ce46 083c
00000260: 1789 083b 61d4 30bc a8ea 723b bbf7 303c
00000270: b36f 333c 0bf9 69bb a9cf c7bb 5e13 9d3b
00000280: da6d bcba f92f b4bb 8387 7a3c 4ff8 8c3c
00000290: 9cfe b13b bf21 c23b 3d8d dcbb 9063 5a3b
000002a0: cdc3 753b 0ea8 1e3c e88d 7a3c 07aa dd3b
000002b0: e23c fb39 a002 523b 1362 bdbb 6575 0f3c
000002c0: d3b3 243c e781 a83b f5ab 4a3b 4ffe 2c3b
000002d0: 67d5 06bc 9101 a13b 1592 ce3b d0d1 eebb
000002e0: 1932 163c 1372 c43a 20c0 d5bb 5c35 c7bb
000002f0: b546 2e3c 237b ce3b 5567 9c3a 7fdf 8e3a
00000300: 1a70 a53b 87a7 67bb b92f 25b8 e271 0ebc
00000310: 6806 b43a e928 993a 85f0 3cbb 3718 41bc
00000320: b792 063c 5905 493b 7f45 d53b 484c 6e38
00000330: 9f4b b23b 68e0 c3bb 3b31 17bb ac51 10bc
00000340: 873b 3a3a ddf6 f03b 0e43 ca3b 573a f0ba
00000350: d804 c73b 0b42 49bb c5de 023c 7dd3 8ebb
00000360: 73ff 81bb 60ce be39 ab9d 55ba 2db0 3e3c
00000370: 0daa 33bc ce44 213b b951 0cbc b403 bfba
00000380: c615 37bb cddd 643b 3608 933b 8ff8 123a
00000390: 1641 ccba 2332 303b f082 99bb 552b a03b
000003a0: 3fe3 663b f2c7 f4ba 8659 29bc 2bbe 23bb
000003b0: 56d0 0c3c 6f5c 4ebb 08cb fe3a 05b9 9aba
000003c0: 10c8 f0ba 8063 15bc 0fa1 91bb 5419 22ba
000003d0: af35 923a 62d0 223b f331 5ebb 6437 a53b
000003e0: 959f 2dbc a318 ffbb c185 95bb ac52 c23a
000003f0: 12ef 173b 7878 933b a3da 62bb 2e85 ca3b
0.0073048933 -0.0006587317 0.005864266 0.017301371 -0.006767466 0.0053296313 0.0017355254 0.0100711575
-0.004874125 0.008238694 -0.009077704 -0.0010695251 -0.0014179678 0.005251938 -0.01155769 0.006499968
0.00040325202 0.007981457 0.0040847925 -0.0033137284 -0.0039859097 0.0019226911 -0.0034782384 0.0017648172
0.0030931693 -0.006909928 0.0031078684 2.1078647e-05 -0.007704515 -0.0021890316 0.0011806537 0.005611
0.010124905 0.0066614323 0.0005873692 0.005770556 -0.008952721 0.004994166 -0.0009767901 -0.0070869024
-0.0008258537 -0.00069817103 -0.0007046891 0.0040343925 0.0030509746 -0.0057402225 -0.004803907 0.005272432
0.011299813 0.013177 0.0045314687 0.00317068 0.00085914537 -0.0043563675 0.0033015131 0.0019165113
-0.0012210052 0.0035224657 0.00770538 0.0062158355 0.0024920832 -0.003402433 0.007216215 0.0045950413
-0.0063175717 -0.0009704795 0.0051784064 0.007744881 -0.012032399 0.008150522 -0.0058855806 0.0050536166
-0.001729145 0.001483352 -0.00023646865 -0.0045194672 -0.0042445096 0.009528738 -0.0013691154 8.174538e-05
0.0015255631 -0.001658688 0.0075165005 0.0033405356 0.009504644 -0.0015539624 -0.0030757317 -0.0010011873
0.003728237 -0.0024064013 -0.0028416372 -0.0045714076 0.008335826 0.0018970754 -0.0022399966 -0.00400875
-0.0028156776 -0.019068569 -0.0074227746 0.0054699457 0.016103543 0.0030444965 0.0068043615 -0.00027571325
0.0070643323 0.00028308548 -0.0012286995 -0.004235085 -0.0076427283 0.0059286403 0.0009195966 -0.0029448252
-0.00031749 -0.005689876 -0.004030138 -0.008061463 -0.006833577 0.0064786184 0.0007899273 0.002883892
-0.010567485 0.0044544353 -0.010786513 -0.007174872 0.001482527 -0.00558892 0.00022425005 0.005400407
-0.0027511113 0.005160858 0.0034238324 -0.0042886804 -0.010584118 0.004700419 -0.0012509263 0.0027089526
-0.0061569843 0.008396899 0.0032216727 0.0056464444 -0.005430618 0.0038711347 -0.00087157777 -0.0023733457
0.014967305 -0.007055055 0.0007600044 -0.009726327 -0.0018922068 -0.001816346 -0.008900124 0.008317662
0.0020833665 -0.010792823 0.0037066136 0.010801251 0.010951924 -0.003570142 -0.006097753 0.0047935685
-0.0014376 -0.005498883 0.015291098 0.017208247 0.005431963 0.005924433 -0.006730704 0.0033323504
0.003750074 0.009683622 0.015292622 0.0067646536 0.00047919812 0.0032045022 -0.0057795136 0.008756016
0.010052639 0.0051424387 0.0030925248 0.0026396697 -0.00822959 0.004913517 0.0063040354 -0.007288195
0.009167218 0.001498761 -0.006523147 -0.006079359 0.010636975 0.0063013 0.0011932651 0.0010900347
0.005048764 -0.0035347657 -3.938351e-05 -0.008694144 0.0013734819 0.0011685166 -0.0028829884 -0.011785558
0.0082136905 0.0030673353 0.0065085287 5.6814664e-05 0.0054411436 -0.005977679 -0.0023070115 -0.008808535
0.0007104207 0.007353647 0.0061725443 -0.0018327934 0.0060735755 -0.003070953 0.007987683 -0.0043587075
-0.0039672195 0.00036393385 -0.00081487995 0.011638683 -0.010965836 0.0024607661 -0.008564406 -0.0014573247
-0.0027936562 0.0034922243 0.004487063 0.0005606496 -0.0015583362 0.0026885353 -0.0046847984 0.004887978
0.0035230664 -0.0018675311 -0.010336285 -0.0024985175 0.008594593 -0.00314882 0.001943917 -0.0011804408
-0.001837017 -0.009117961 -0.0044442485 -0.0006183584 0.0011154915 0.0024843444 -0.0033904284 0.0050420035
-0.010597129 -0.0077849193 -0.004563064 0.0014825664 0.0023183268 0.004500445 -0.003461518 0.006180427

network_body._body_endoder.seq_layers.0.bias f4 [256]
00000000: afc3 413b fa8d 5bba ef7e 013b 7918 a43a
00000010: d9ae 93bb a116 c53b 87b2 c33b 4b40 2f3a
00000020: eea1 38bb f65a 1a3b 0a29 30b9 aa02 b2b9
00000030: 32b3 a23a 8a92 233b c4d7 50bb 1fcc b83b
00000040: 4a92 5cba c511 cc3b 295d fc3a c229 503b
00000050: 30b0 733b e356 203c 8dc0 783b cab5 b43a
00000060: 21b1 9038 a76e ea3b 66d1 d83b 62d5 1e3b
00000070: 6932 aa3b 0cb4 833b a205 d13a ebc0 043b
00000080: 854e 163c df8e ca3b fe08 4f3b 7e46 47bb
00000090: edab fa3b a36f 70bb e42e 1e3b a3d5 043b
000000a0: 90af fbbb f84c 9f3b 68cc a23b 6dd7 883b
000000b0: e38b 093b e4ff 023b 7c3a e63b cfe5 2c3b
000000c0: 4d76 0ebb 2b40 9738 3f37 0f3c 8147 0d3b
000000d0: e8ef 853b f5ed 223b 38df a43b ad4a 6e3b
000000e0: 7327 f43b aed2 12bb f8ff cd3b 1fd9 c83b
000000f0: 9e8c 23bb 6f40 5fbb 0dc2 113c e3b1 d53b
00000100: 7fda 0e3c 3f76 c0ba 7c5e 05bc 83b9 203b
00000110: 8a3f 393a b6cc 5abb 9707 b23b 3694 693b
00000120: d3cb d0bb a45a ad3b 91d4 8f3b 4b45 473a
00000130: 1cc0 6f3b c94f 7c3b 9868 003c efb6 c63b
00000140: 725c 323c 5697 933b 001e 433a 66f9 ad3b
00000150: c086 353b 86e3 313c 0f65 aebb 24e8 843b
00000160: 21e1 693b 1f6d d3ba e5d0 e4ba 482f 8f3b
00000170: 1c8b af3a cebd 913b 1e98 1c3c b9eb 3439
00000180: 6fb1 583b b5df 833b 39e5 ad3b 3c1b cb3b
00000190: 060f 4b3b 8884 7938 705c 283c 5ed9 1bbb
000001a0: f4d0 49bb 939a 76ba c83b 7cbb 9411 023c
000001b0: c107 913b 5de5 1d39 7e2e 2c3b 789c 4e3b
000001c0: 8e19 eabb d2e2 6dba 98f5 c739 7050 fc3b
000001d0: 6128 793b ee61 8e3b dba2 37bc 6130 f63a
000001e0: 76c6 d1bb 6a58 073c 0df2 c73b bc33 ae3b
000001f0: 3a8a 833b 5f7f 513a bed2 073c d0ff 8dbb
00000200: 2d31 3c3b 4dc3 6cba a2e3 0939 3033 533b
00000210: c339 f23a 0dec 0cb9 e723 d3b9 f072 d33a
00000220: 6cf7 2f3b d25a da3b 8c14 873a 249b 733b
00000230: 683c 733a e415 deba e329 e53b aea4 af3a
00000240: d0b7 053b 68cd 41bb 46fa 403b e31f 01bb
00000250: 4916 79ba 473f 5d3b 1de3 143c f89c 393b
00000260: 3e12 123c f55e 28bb b68d f33b d1fb 77bb
00000270: cf29 d63b 59a5 f8b9 33b4 353b 60ee 193c
00000280: 9ade a83b 9bde 98bb b935 b53b cdfa ca3b
00000290: 1daa 133b 3d53 7ebb 8ed1 083b 5c76 1b3b
000002a0: 1e42 10bc b5d2 fbba d3d8 9e3b 564a ae3b
000002b0: 9054 233c e14c 243b fc11 533a a77e 10ba
000002c0: 9912 4b3c bfa7 3b3b caaf bf3b aa30 a93b
000002d0: 9bdc f639 1498 2dbb fdef 663b b3a7 f43b
000002e0: 213a fabb 42f5 0b3c 6224 04bb 6e8d 253c
000002f0: 3d1b b939 5f21 76bb 9616 043c 529f e93a
00000300: 16a7 63bb 7ffe fabb 5fc7 a6ba fb49 293b
00000310: 8775 1b3b 5ecf 72bb be2e 153b 5324 fc3a
00000320: 84e4 3a3b 30be a2bb 429c 2d3b 75a2 afba
00000330: 3ef7 1a3c 0934 ae3b 31d5 1f3c 1b79 19ba
00000340: 94be d33b 08dc 6d3b 6e85 3c3b 841e 443b
00000350: 69cc c63b 277a 253c 728c 373b eb11 693b
00000360: 1a08 203a 95bc 113c cc2c 2bba 30a4 e33b
00000370: 13cb e63a ba9e 203b 6edc 3e3b 58bf f83b
00000380: 6246 773b 85fc bd3b 404f 9b3b 2a09 7db8
00000390: 340e a1bb 0c61 f03b b436 c2bb aaf9 8fb9
000003a0: 6a20 173c b1d1 01bb 4a6d aa3b 17b7 313c
000003b0: f69b c53a ed4d f03a 5956 e83b 2947 eb3b
000003c0: 8e50 23ba 9e01 8a3b e3da 043c cf49 043b
000003d0: 54e0 973b fce9 fcb9 65dd b2ba cbbc d83b
000003e0: d745 263a d693 b83a 1d9f a03b 29df 713b
000003f0: 6aac 5a3b 763c 283c fde3 683a 69b6 ff3b
0.00295661 -0.0008375343 0.0019759496 0.00125195 -0.0045069274 0.0060146605 0.00597221 0.00066853006
-0.002817269 0.0023552752 -0.00016799956 -0.0003395279 0.0012413024 0.002495917 -0.0031866888 0.0056395675
-0.0008414133 0.006227704 0.0019253838 0.003176317 0.0037183873 0.00978634 0.0037956566 0.0013787088
6.899448e-05 0.007154304 0.006616759 0.0024236073 0.0051939976 0.004019266 0.0015947113 0.002025659
0.009173994 0.0061815823 0.0031591053 -0.0030407007 0.0076498897 -0.0036687634 0.0024136836 0.002026894
-0.007680841 0.0048614703 0.004968215 0.0041760714 0.002098792 0.0019988948 0.007026015 0.0026382094
-0.0021737993 7.212193e-05 0.008741199 0.0021557512 0.004087437 0.0024861072 0.0050314926 0.0036360428
0.007450992 -0.0022403407 0.0062866174 0.0061293985 -0.002495564 -0.0034065505 0.008896363 0.00652145
0.008719086 -0.0014683678 -0.008140203 0.0024524636 0.0007066658 -0.0033386177 0.0054330337 0.003564132
-0.006371954 0.005290346 0.0043893536 0.0007601573 0.0036583012 0.0038499704 0.007837437 0.006064288
0.0108862985 0.0045041246 0.000744313 0.0053092716 0.0027698725 0.0108574685 -0.0053221057 0.0040559936
0.0035687166 -0.0016130543 -0.0017457275 0.00436965 0.0013392898 0.0044476753 0.009557752 0.00017253951
0.0033064743 0.0040244707 0.0053068665 0.006198315 0.0030984296 5.9489656e-05 0.010275945 -0.0023780684
-0.0030794712 -0.00094071886 -0.003848778 0.007938761 0.004425973 0.00015058131 0.0026272829 0.0031526368
-0.0071441596 -0.00090746314 0.0003813922 0.0077000186 0.0038018452 0.00434517 -0.011208261 0.0018782729
-0.006401832 0.008260826 0.0061018527 0.005316226 0.0040142806 0.0007991697 0.008289991 -0.0043334737
0.0028715834 -0.00090317876 0.00013150138 0.0032226555 0.0018480349 -0.00013439376 -0.00040271805 0.0016132277
0.0026850356 0.0066636587 0.0010305806 0.0037171328 0.00092787156 -0.001694378 0.0069935187 0.0013400519
0.002040375 -0.0029571895 0.002944605 -0.0019702844 -0.0009501917 0.003375964 0.009087351 0.002832232
0.008915482 -0.0025691364 0.0074326647 -0.0037839303 0.0065357457 -0.0004742544 0.0027725815 0.009395212
0.0051534893 -0.0046652085 0.005530086 0.0061944486 0.0022531815 -0.0038806938 0.0020876857 0.002372167
-0.008804826 -0.0019212576 0.004847625 0.00531892 0.009968892 0.0025070237 0.0008051691 -0.0005512037
0.012394571 0.002863392 0.005849813 0.005163272 0.0004708514 -0.002648835 0.003523826 0.0074662804
-0.007636324 0.008542361 -0.0020163287 0.01010452 0.00035306244 -0.0037556512 0.0080620255 0.001782397
-0.0034737042 -0.007659733 -0.0012724212 0.002583145 0.0023721175 -0.003704987 0.0022763456 0.00192369
0.0028517554 -0.00496652 0.0026490842 -0.0013399856 0.009458361 0.0053162617 0.009755419 -0.0005854533
0.0064619277 0.003629448 0.0028766054 0.0029925415 0.006066848 0.010099924 0.0028007296 0.0035563658
0.0006104723 0.008895059 -0.00065298076 0.006947063 0.0017608128 0.002450867 0.0029123086 0.0075911693
0.003773116 0.005797925 0.004739672 -6.0328435e-05 -0.004915023 0.0073357876 -0.0059269313 -0.000274611
0.009224037 -0.0019808824 0.0052010166 0.010846875 0.0015076387 0.001833377 0.0070903716 0.007180114
-0.000622996 0.0042116186 0.008108827 0.0020185595 0.0046348963 -0.00048239517 -0.0013646303 0.0066143028
0.00063428044 0.0014082144 0.0049017803 0.0036906695 0.0033366927 0.010268321 0.00088840706 0.0078037274

network_body._body_endoder.seq_layers.0.weight f4 [256, 119]
00000000: 5e54 223d 7805 68bd f3ca 57bd b084 d5bd
00000010: 3655 9bbc c3f5 373d 7667 1a3e 17aa 02bd
00000020: 612d 85bc 3407 353d db8c e63c 290a dbbd
00000030: 7efb 843c 2e08 2a3e 9d0d 9dbd 749d 5f3e
00000040: 6c6e 0f3e 0a76 3b3d 0aff 1c3d 9446 d63d
00000050: 4519 ffbd 8da9 133e 0e24 0d3e b31a d53c
00000060: 32c0 5c3d 18a5 8bbc 9aaa c33c 9624 adbd
00000070: f905 f73c 3910 78bc dada 043e 66e8 4ebe
00000080: 2cb0 e4bd 9cbf 28bd 02b3 303d fa71 edbc
00000090: f22e 83bc 6bf5 7abd d30d adbd 1b2c f23d
000000a0: 59a6 1e3e 35ac 03be 8719 a0bd ef48 9e3a
000000b0: 3950 e5bd c910 ef3d a944 113d 0dd3 94bc
000000c0: e37b 31be cd58 edbc 0d91 743d 65eb 1c3d
000000d0: 5212 43bd c65d 033e d505 113d a350 e8bd
000000e0: 4390 69bd 0470 2b3e a035 82bc 2bcf 01be
000000f0: 4f2d 553d 6b48 513e 6014 203d e423 70bc
00000100: 42af 563d 2be0 873d 07f8 e3bc 8709 b3bc
00000110: 910f 2fbc 4da2 cf3d 16e4 1a3d 0e66 0b3e
00000120: 4680 95bc 5e09 d63d 7466 7bbd 7692 5fbd
00000130: aa2b e63c 68b3 5c3c e43a ecbd 38b0 743d
00000140: f065 a83d 24b5 30bd 5d8b c83d 875a 403d
00000150: 34d0 bd3c 8647 2a3c 625e b23d 6934 3bbe
00000160: 71e1 ddbc e6be 1cbe 7f1c 82bd 1079 f83c
00000170: 39ae 83bd c771 cd3d 1b30 22be d6bc 73bd
00000180: 83d8 943d 872c fabd 1ddd d8bd cf0c 1cbd
00000190: 5cac c0bd 2c2b 06be ffd9 823d 8d87 e4bc
000001a0: 4091 b43d e9ae 413e fcaa 993d 0faf 0dbd
000001b0: 5e4f d8bd 5683 37be 2c83 72be eeb0 8ebc
000001c0: 8efe f13d 3e4a 0f3e 91d4 77bd 9453 ff3c
000001d0: 2964 bb3c c02b c53d 4798 903d fd23 8d3c
000001e0: 1ee2 f5bd 4bfc 2f3e acef e03d 2dc3 0c3e
000001f0: 7913 b8bd b502 bd3d 241d db3d 7752 aebb
00000200: 5706 80bd 7d5f b6bd 1b8f 16bd 09de 45bd
00000210: f5be 0b3e ce79 6bbc 2e09 8238 8bed 33be
00000220: 846a 223e b50a 3d3e a0f3 5cbc 04dc 42be
00000230: 3f3b 403a fe75 88bd 7389 05bd c646 15bb
00000240: 7054 763d 92c9 edbc bc40 afbd 327c 7c3d
00000250: 42a8 0a3e 944e 19be cc35 273d ded0 7a3c
00000260: fbfc 0e3e 056f d8bc 0636 933d c8f8 1c3e
00000270: ad4d 10bd c023 513d 31a2 3fbb 4a7b 0bbe
00000280: c8e9 fd3d a150 d23d 7668 033d 78bf c73d
00000290: 915a 1f3e a4d8 f1bd b8ef 383d 7334 95bb
000002a0: 7f2d ab3d 4a84 d23d 500a 0b3e 6cc5 82bd
000002b0: ade9 bfbd d51d a73d a934 c63d 9995 e8bd
000002c0: c8db d9bd cb8c 053d 3a1d 23be 513f bf3d
000002d0: 500d d2bc 0adb b43c a289 233d a81e 1abe
000002e0: 5690 34bd 2427 8bbd 426d 8f3d b36b 2c3e
000002f0: 684c 2bbe 1b30 ec3d 6101 243c d990 023e
00000300: e910 37be 5a83 8e3d 8777 8bbd 736e 973c
00000310: a7a9 093d 4a04 b03d 6e60 0dbe e935 ff3d
00000320: 30a9 763d cc3e cebd 1a44 81bd 6e60 303d
00000330: 0a22 99bc feae 533e 746d 64bc 6f07 a739
00000340: 89eb 57bd 82e8 123d d6d1 16be b882 96bd
00000350: f6d1 8d3d 4ea0 16bd 25c3 05be 24f9 e2bd
00000360: c4db 263d 5796 ddbc edf4 3b3d 1838 8bba
00000370: 8040 08bc 2737 14bd 0b9a c33d 67eb f6bd
00000380: f087 bc3d e08d 283b 0f62 b3bd ab5a c1bd
00000390: 9a0b 0ebb 61f0 263e 090e fd3d 2bce 40bd
000003a0: 5456 953c 0154 d3bd 6ceb 143d 97ca d93d
000003b0: 9c3c febd ab85 103e 8063 e2bd d783 453d
000003c0: 5821 0cbe 6143 c83d 391c 953d c07a 143e
000003d0: 4274 a43d d89b 00bd 3106 3f3c 0051 09be
000003e0: 4357 a4bc 0a54 b23c 502c 15bd 61a6 e53d
000003f0: 7e37 3f3d 830e f03d 4317 1cbd 5537 c83c
0.03963124 -0.05664584 -0.05268378 -0.10425699 -0.01896153 0.04491211 0.1507853 -0.03190049
-0.01625699 0.044196323 0.028143337 -0.10695297 0.016233202 0.16604683 -0.07668612 0.21837407
0.14006966 0.045766868 0.03832916 0.104626805 -0.12455992 0.14420147 0.13783285 0.026013708
0.05389423 -0.017046496 0.02388506 -0.08454244 0.030154215 -0.0151405865 0.1297411 -0.2020584
-0.111664146 -0.041198358 0.043139465 -0.028985012 -0.016013596 -0.061269205 -0.084499024 0.11824819
0.15493144 -0.1285866 -0.07817369 0.0012076179 -0.11196942 0.116731234 0.03546587 -0.018167043
-0.17332415 -0.028973008 0.059708644 0.038310427 -0.047624893 0.1282874 0.035405952 -0.11343505
-0.057022344 0.1674195 -0.015894711 -0.12676685 0.052045163 0.20437782 0.03908193 -0.0146569945
0.052413233 0.066345535 -0.02782823 -0.021855129 -0.010684864 0.10138378 0.037815176 0.1361315
-0.018249642 0.104510054 -0.061377004 -0.054583035 0.028096993 0.013470508 -0.1153467 0.059738368
0.08222568 -0.0431415 0.097922064 0.046961334 0.023170568 0.010393029 0.08709408 -0.18281712
-0.027085038 -0.15307197 -0.063530914 0.030331165 -0.06429715 0.10031467 -0.15838663 -0.05950626
0.07267859 -0.12215524 -0.10589049 -0.038098153 -0.09407875 -0.13102406 0.06389236 -0.027896667
0.08816767 0.18914379 0.07503316 -0.034590777 -0.10562013 -0.17921194 -0.2368285 -0.017418351
0.118161306 0.13993165 -0.060505453 0.031167783 0.022874909 0.09627485 0.070602946 0.017229075
-0.12006019 0.17186086 0.10983214 0.13746329 -0.08988089 0.09229032 0.106989175 -0.005319889
-0.06251209 -0.08904932 -0.03675757 -0.048307452 0.13647063 -0.014372302 6.200593e-05 -0.17571084
0.15860945 0.18461116 -0.013485819 -0.19029242 0.0007333047 -0.0666313 -0.032601785 -0.002277778
0.06013912 -0.02902678 -0.08557269 0.06164188 0.13540748 -0.14971381 0.04082279 0.015308587
0.13963692 -0.026420126 0.071880385 0.15329278 -0.035230327 0.051059484 -0.002924096 -0.1362125
0.12398106 0.10269285 0.032082044 0.09753317 0.15561892 -0.11808899 0.04515049 -0.0045533716
0.08358287 0.102791384 0.13578153 -0.063853115 -0.09370742 0.08159987 0.09678013 -0.113566585
-0.10637623 0.032604974 -0.15929118 0.093382485 -0.025641114 0.022077102 0.03992618 -0.15050757
-0.044082962 -0.06794575 0.07003261 0.16837959 -0.16728365 0.11532613 0.010010094 0.12750567
-0.17877544 0.06958647 -0.068099074 0.018485283 0.03360906 0.08594568 -0.13806316 0.124614544
0.060219944 -0.10070571 -0.063118175 0.043060713 -0.018692989 0.20672223 -0.013942111 0.0003185826
-0.05271486 0.035866268 -0.14728484 -0.073491514 0.069248125 -0.036773972 -0.13062723 -0.11082676
0.04073693 -0.027049227 0.045887876 -0.0010621576 -0.008316159 -0.03618541 0.09550866 -0.12056618
0.092056155 0.002571933 -0.087589376 -0.09441122 -0.0021674396 0.16302635 0.123561926 -0.047071617
0.018229641 -0.10318757 0.03635733 0.10634344 -0.12413904 0.1411349 -0.11054134 0.048221435
-0.13684595 0.097784765 0.07280774 0.1449995 0.08029987 -0.031398624 0.011659191 -0.13409805
-0.02006114 0.021768589 -0.036419213 0.11213375 0.04668378 0.11721518 -0.03810812 0.024440447

network_body._body_endoder.seq_layers.2.bias f4 [256]
00000000: a323 243b 4a02 a73b 4652 923b 178a b63b
00000010: 73ad c639 5b99 953b 6ec0 883b b6b8 773b
00000020: 8f44 693b a0aa ac3a 7721 46b9 6f95 6e3b
00000030: 77d0 b23b f686 a83b f091 263b 08aa 143c
00000040: f4d6 743b 4414 e33a ab98 c9ba 56e6 ec3b
00000050: b4bf b83b 3312 153b e0b6 623b d6bf 34ba
00000060: 79be bdbb 49d6 caba 63ca 77bb 2647 fc3a
00000070: 33e7 a4ba 7ee9 273b da25 03bb 7561 e83b
00000080: c18d 05bb f718 87ba 9dc7 193b 98ed c9bb
00000090: 0fa3 ee3a f65d f43b 935e 3fba 838b b43b
000000a0: 58f1 a33b 4fc9 8abb 544f 943a eb43 8a3b
000000b0: 7349 863b e132 7abb f8a0 9639 6ce3 ca3b
000000c0: 7ed6 a93a ae68 4c3b dfb0 7b3a d03f 373c
000000d0: 3249 d73a 2e70 9a3a e87d 94bb c096 81bb
000000e0: 7b11 0c3b f2ea eaba 5c6f b93b c724 df39
000000f0: c1ac 0c3c a57f 453a 76d4 093c 1a26 b53b
00000100: d3a4 0fbb 5de7 833b 6c76 ac3a 15ec 86ba
00000110: 641a 2cba a2ae a73b 27c3 d23a 4a82 c03b
00000120: 79d3 cab8 4a43 deba 3a00 6a3b 9355 903b
00000130: 40b2 3a3b 7feb ad3b ff7b 4a3b 2265 043c
00000140: 1b46 1dbb 5564 9c3b cb2e 513b 0a9b 8c3b
00000150: 5df3 e6ba 6939 893b 1e24 753a 700d b43b
00000160: 059e 603b 42e3 e939 b452 a2ba 249c f439
00000170: 5274 c2bb 7e2b a5ba 44ab 7dbb 0db9 d43b
00000180: e45a 2d3b c24a 883a f22d 433b 981c acb8
00000190: 6a9d 303a d651 4e3a 11a0 143b 6599 a839
000001a0: 2f5d 883b 8fcf 613b ceca 0abb b5b3 da3a
000001b0: b305 27bb e2af f33b f257 e03a ff1a c23a
000001c0: 2361 f83a 6269 8f3b 252f a9ba 0d84 1d3a
000001d0: f51c a3bb f0c0 b43a a8ee bc3b c065 a1b9
000001e0: 743a 23ba 643a 813a 70fd 8a3b 8355 87bb
000001f0: 1777 e73a 15f4 0439 c29e 42b9 3c5a b63a
00000200: 2029 7ebb 6b5a 29bb e989 8c3b 0670 c53b
00000210: b878 0ebb 188a 5fbb e946 0d3c e78e 8a3b
00000220: f8f2 303a 3912 ae3a 3395 17bb b0d6 d9ba
00000230: 2ce0 fd3b ee5e ae3b 01fa d73b a180 923b
00000240: 3bcc 0ebb 7f02 ad3b 1e62 3c3a 7ee5 753a
00000250: e332 25ba b03a 45ba 98d4 733b 7295 d239
00000260: 2c06 803b f095 f039 0dba 9a3a 61ff 0cba
00000270: 5934 243c 1f11 b93b 9b05 3d39 ddcb 0137
00000280: 7321 793b e725 33ba 6bec 103c bc86 7a3b
00000290: ad89 3e3c ecfe 9c3b 42da b0b9 bf0f 86bb
000002a0: bf9e f13b 9e5a 3c3b b62a 1d3b 3eef 7e3b
000002b0: 9cf2 a6ba b69a a33a 1e5d e4b8 e8b2 8b3b
000002c0: b469 963b 630d 1f3a 0fdc 8f3b a995 dfbb
000002d0: 3ab3 f03a 3b09 d1ba b8c9 ad3b 6bb0 3e3b
000002e0: e516 073c 37a8 313b 1577 6c3b 45cd c23b
000002f0: 9ce5 853a d274 393b b1c9 d2bb 5a68 ddbb
00000300: 8765 2b39 0932 863b e8a0 833b e85f 2a3b
00000310: c41d e1b8 8e39 183c d8ea 36bb 1cf0 c53b
00000320: 87bb 9e3a c884 623b 99e4 e53b 9716 983b
00000330: e496 b23b d08b 523b fbf1 b6bb 1d1a b73a
00000340: e018 2d3b 4130 7b3b cf60 af3b 3b45 4b3b
00000350: 3b78 2e39 679b 893a 4946 c23a eb42 1cbb
00000360: 0f26 42bb abab dfbb 4f0a 57bb 2afd 5d3a
00000370: 4d76 963b 2d12 75ba 9a2c 8e3b bb2f 8839
00000380: f27f 3cba 1f34 073b 96fd 623a 6c62 0d3b
00000390: 8551 be3a f386 0b3c 7efb 7fba 8678 0d3b
000003a0: 2066 163b 0177 ec39 1ba9 5d3b a01a b9ba
000003b0: 2021 55b7 6c78 883b dc59 563b 7514 d73b
000003c0: f3f8 913b a876 1a3b ca81 823b ec2c 66ba
000003d0: e167 b5ba 251e a7bb 34bb 133b 68cb 8eba
000003e0: 83d9 7dbb 6146 d4b9 f4f8 e43a b42f bfbb
000003f0: f31d cabb 2e39 383a 51d1 3b3b f1b3 5b3b
0.0025045655 0.0050967084 0.004465374 0.005570661 0.00037894733 0.0045654005 0.00417333 0.0037799305
0.0035593843 0.0013173409 -0.00018895218 0.0036404987 0.00545698 0.0051430417 0.0025416575 0.009073742
0.0037359567 0.0017324765 -0.0015380582 0.0072296066 0.005638087 0.0022746443 0.0034593865 -0.0006895041
-0.0057905284 -0.0015475239 -0.003780984 0.0019247278 -0.001258111 0.002562135 -0.0020011575 0.007091696
-0.0020378681 -0.0010307123 0.0023464926 -0.0061623566 0.0018206554 0.00745749 -0.00073001644 0.005509795
0.0050031357 -0.0042354236 0.0011315146 0.0042195222 0.0040981113 -0.00381773 0.0002873016 0.0061916616
0.00129576 0.0031190324 0.0009601246 0.011184648 0.0016425012 0.00117827 -0.0045316108 -0.0039547384
0.0021372724 -0.0017922802 0.005659027 0.00042561276 0.00858611 0.0007533974 0.008412471 0.0055282237
-0.0021918311 0.0040253834 0.0013157851 -0.0010293747 -0.0006565212 0.0051172534 0.0016079888 0.0058749067
-9.6715004e-05 -0.001695731 0.0035705701 0.0044047325 0.0028487593 0.0053076143 0.0030896661 0.008080753
-0.0023998085 0.0047727027 0.003191876 0.004290943 -0.0017620135 0.004187752 0.000935139 0.005494766
0.0034273874 0.00044610543 -0.0012384267 0.0004665564 -0.0059342766 -0.0012601463 -0.0038706819 0.0064917863
0.002645188 0.0010398256 0.0029782024 -8.206925e-05 0.0006737324 0.0007870471 0.0022678415 0.00032157745
0.004161499 0.003445599 -0.002117801 0.0016685637 -0.0025485575 0.0074367383 0.0017116053 0.0014809071
0.0018949847 0.0043765763 -0.0012907727 0.0006008752 -0.004977817 0.001379041 0.0057657547 -0.00030784123
-0.0006226667 0.0009859321 0.004241638 -0.004130067 0.0017659393 0.00012679429 -0.00018560424 0.001391239
-0.0038781837 -0.0025841247 0.004288901 0.006025317 -0.0021739434 -0.003410941 0.008622863 0.004228461
0.00067500724 0.0013280577 -0.00231297 -0.0016619768 0.0077476706 0.005321375 0.006591082 0.0044709
-0.0021789211 0.0052798386 0.00071862515 0.00093802053 -0.0006301833 -0.0007523699 0.0037205573 0.00040165667
0.0039069857 0.0004588808 0.0011804715 -0.00053786306 0.010022246 0.005647793 0.00018026533 7.736465e-06
0.0038014322 -0.0006833956 0.008845429 0.003822728 0.011629504 0.0047911312 -0.0003373195 -0.0040912325
0.0073736603 0.0028740535 0.0023981757 0.0038899924 -0.0012737098 0.001248202 -0.000108892316 0.0042632706
0.0045902375 0.00060673634 0.0043902467 -0.006823261 0.001836396 -0.0015948185 0.0053035878 0.0029096853
0.008245205 0.002710832 0.003608172 0.00594488 0.0010215524 0.002829839 -0.006432735 -0.0067568244
0.00016345653 0.00409532 0.0040169843 0.0025997106 -0.0001073438 0.009291066 -0.0027910974 0.006040586
0.0012110331 0.0034564007 0.0070157764 0.004641365 0.0054501165 0.0032126792 -0.0055830455 0.0013969574
0.0026412532 0.0038328322 0.0053521167 0.0031016606 0.00016638722 0.0010498584 0.0014821972 -0.0023843597
-0.0029624735 -0.0068258843 -0.003281254 0.00084682053 0.0045917393 -0.00093487167 0.004338813 0.00025975503
-0.0007190696 0.0020630432 0.0008659003 0.0021573557 0.0014520144 0.008516061 -0.0009764953 0.002158673
0.0022949055 0.00045102093 0.0033822719 -0.0014122315 -1.2703502e-05 0.004164746 0.003270737 0.006563718
0.004454726 0.002356926 0.003982757 -0.00087804976 -0.0013840162 -0.005100029 0.0022542002 -0.001089436
-0.0038734383 -0.00040488227 0.0017469213 -0.005834544 -0.006168121 0.00070275634 0.0028658698 0.0033524001

network_body._body_endoder.seq_layers.2.weight f4 [256, 256]
00000000: 2fef a2bd 1e08 273d 4a69 813d cf03 34bc
00000010: f815 503e 5c4d 3d3d 2923 17bd 96b7 ddbc
00000020: 7373 df3c 65cf 4cbd d662 24bc b6c9 4abd
00000030: 8ebd 09bd fc0c a63c aa2b 11be 4177 453c
00000040: b4c8 a53d f78b d4bd 4c0d 0f3d 57c8 43bd
00000050: ab44 593c 9b21 993d edf5 a73d ca23 28bd
00000060: 0577 c13c 1b6d 3ebb 212c 96bd ca62 a0bd
00000070: 3567 3d3c b818 ad3c 90e5 8abd 6eee 28bd
00000080: aee7 323d f156 0f3d ce3f 1bbb cb52 babd
00000090: 9ef0 c13c c0e9 e53d 2d2f 73bd 9e5b ab3c
000000a0: e9b8 02bc 94c6 10bc 830f e0bc 9cc4 40be
000000b0: eea1 41bd 8862 123b eead 0bbd 4c47 8f3b
000000c0: 91a7 6ebd 9ca3 02bd 6bf0 bfbd 5765 903b
000000d0: 071c 18bd 35e2 773d 96d6 d63c 36e9 16bd
000000e0: f11c 853c 4e56 0cbd f517 613d dee9 5bbd
000000f0: 0f70 57bb a5e4 a73d e78e 02bd 1b38 ee3c
00000100: a4ab adbc cceb e1bd cfbf 8f3c 2e63 1f3d
00000110: 68f4 00bd 5741 613b d995 e73b 2707 04bc
00000120: 29b3 0fbd d21f 4ebd 5178 aebd 1c64 a93d
00000130: 17d7 66bc 9290 123e fb1d 243c a199 abbc
00000140: 6c9d 01be 2f8b 87bd a6b7 8f3c 56b4 a7bd
00000150: cf76 0fbd 9b80 42bc c753 12bd bd58 36bd
00000160: 9fb4 a5bd 68bc 053e e250 963d 88f8 2f3d
00000170: 6c48 b3bc 6717 04be a060 babc ef0c 9bbd
00000180: 84a2 113d 9429 193d 3f2f 3cbd 4493 063c
00000190: 9906 0e3d f0dc 963d f4a2 a7bd c8bd adbd
000001a0: 0674 8e3d 6862 303c 067e dfbd 8c12 043e
000001b0: d821 4cbc 55ad 59bd 5997 a53c 2f2c 3d3d
000001c0: 66af 7bbb 1b2a 09bd 419e 28bd b3f3 30be
000001d0: 99d5 183d 517f 9ebc c856 853d e00e ed3c
000001e0: 77d4 053c 4bb4 583d 3a3d 38bd 2c4f 94bd
000001f0: 5a55 863d 65e8 d4bd bc2a 6cbd 12be 71bd
00000200: f521 bdbd b850 42bc f55b 86bd bad7 dabd
00000210: bdc6 b53a 9472 53bd c05e bebc 672e 45bd
00000220: 9bbc cebd efff 4bbc 5cd1 d43c 95a2 c4bd
00000230: 0d84 71bd d1b6 97bd 9320 c53b f669 e0bc
00000240: 2f56 4c3d 7b14 6f3d 284b 8abb 80e3 c6bd
00000250: 6a94 a33d 8cd8 ee3d 2f6f 21bd 2938 963d
00000260: a628 073d 94b9 21bd 92cc 36bd 37a1 9abd
00000270: cb7d 723d bd03 403d 7e2e 72bd 7361 5cbd
00000280: 84e5 c9bc 6d93 9bbc c42c 6c3c b634 2a3d
00000290: f95d 0c3e 5d14 7a3d d095 aa3d fc80 32bd
000002a0: d6ba 77bd a779 aabc c757 92bd e999 c1ba
000002b0: d24d 193d 4d56 17bd 4338 c63c 4abf a43d
000002c0: 592d 133c a071 c4bd 78c3 bf3d 8b51 153d
000002d0: 531f 11bd 57bc af3c 81e9 08bd f8e1 5abd
000002e0: 07ff 96bd 3e2d 913b f5a5 8b3d 4113 653d
000002f0: 04ae 063d 7042 c7bc 670f d13c 2a8f b5bd
00000300: 23d6 913b bf73 703c f07b 493d ef52 a23c
00000310: 0d02 27be 45d7 09bd c463 953d 1265 da3d
00000320: 30e4 723d 5a4e febc 11ff acbd 61f9 91bd
00000330: 637d 833b 8d10 0dbd e0b2 783d 4f65 ae3d
00000340: 2e76 9c3c 6a5a 823d 9732 8ebd a30c 9e3c
00000350: 192c f63c da5e 7c3d 2929 bebd 9a07 4a3c
00000360: ca4c aebd b5c2 bfbc e5d9 f8bc 1b68 393c
00000370: 30e2 4dbd 43f0 93bd 1cee b13d 4598 193d
00000380: 7034 b73d 3c4e 8bbd a722 513d 40b3 5e3d
00000390: 1526 55bc a88d 57bc 65ee 87bc cf06 ea3d
000003a0: 2f2f 91bd 2525 c8bd 3e71 9c3c d687 04bd
000003b0: 83b9 243c d1b7 a43d 26b8 d5bd c1c1 98bd
000003c0: 40a8 293d 586e b53d 023e afbc f859 d53d
000003d0: d786 4bbd 67d9 d0bd e8ee 573d b9c8 92bc
000003e0: 7028 debc 452a fe3c 9a65 0abd b40a cc3c
000003f0: f6c8 043e e86b 993d 3755 bdbc 0680 b63d
-0.07955777 0.040779226 0.063189104 -0.010987236 0.2032088 0.046216354 -0.036898766 -0.02706508
0.02727673 -0.050002474 -0.01003333 -0.049508773 -0.03362804 0.020269863 -0.14176813 0.012052358
0.08094922 -0.10378259 0.03492479 -0.04779848 0.013261001 0.07477113 0.082012035 -0.041049756
0.023616323 -0.002905673 -0.07332636 -0.078313425 0.011560251 0.02112995 -0.06782067 -0.04124301
0.04367798 0.034995023 -0.0023689154 -0.09097823 0.023674306 0.11226225 -0.059371162 0.02091771
-0.007978656 -0.008836407 -0.027351147 -0.18825 -0.04727357 0.0022336561 -0.03410142 0.004372513
-0.058265273 -0.03189431 -0.09372028 0.004406612 -0.037136104 0.060518462 0.02622537 -0.0368435
0.016249152 -0.034261994 0.054954488 -0.05368983 -0.0032873189 0.08197907 -0.031874564 0.029079488
-0.021200009 -0.11031303 0.017547516 0.038912944 -0.031483084 0.003437122 0.007067424 -0.008058346
-0.03508297 -0.050323315 -0.08519042 0.082710475 -0.014089367 0.14312962 0.0100169135 -0.02094728
-0.12657708 -0.06618344 0.017543625 -0.08188693 -0.035025414 -0.011871482 -0.035724428 -0.04451822
-0.08091091 0.13060153 0.07339646 0.042961627 -0.02188512 -0.12899552 -0.022751153 -0.07570826
0.035555378 0.037393168 -0.045943495 0.008213822 0.03467426 0.07366359 -0.08185378 -0.084834635
0.069557235 0.010765649 -0.10912709 0.128977 -0.012459241 -0.053143818 0.02021377 0.046184715
-0.0038404106 -0.03348742 -0.041166548 -0.17280464 0.037313078 -0.019347819 0.06510693 0.028937757
0.008168331 0.052906316 -0.044980265 -0.07241663 0.06559248 -0.10395888 -0.057657942 -0.059019156
-0.092349924 -0.011860065 -0.06560508 -0.10685678 0.0013868433 -0.051622942 -0.02323854 -0.048139956
-0.100945674 -0.012451156 0.025978737 -0.096013226 -0.058963824 -0.07407916 0.006015846 -0.027394276
0.04988688 0.05836914 -0.004220385 -0.09711361 0.07987292 0.11662397 -0.039412674 0.073349304
0.03299775 -0.03948362 -0.044628687 -0.075502805 0.059201997 0.046878565 -0.05912637 -0.053803872
-0.024645574 -0.018991197 0.01441497 0.041554175 0.13707723 0.061054576 0.08329356 -0.04358004
-0.060480915 -0.020809961 -0.071456484 -0.00147706 0.03742773 -0.036947537 0.02419675 0.08044298
0.00898298 -0.09591985 0.093634546 0.03645472 -0.035430264 0.021452112 -0.03342581 -0.053438157
-0.07372861 0.004430442 0.06818763 0.055926565 0.032880798 -0.024323672 0.02552004 -0.08865197
0.004450576 0.0146760335 0.04919046 0.019814936 -0.16309376 -0.033652563 0.072944194 0.10663809
0.059299648 -0.03104322 -0.084470876 -0.071276434 0.00401275 -0.034439612 0.060717463 0.08515417
0.019099321 0.06364901 -0.06943243 0.019293135 0.030050324 0.061613895 -0.092851944 0.012330914
-0.0851074 -0.023408273 -0.030377338 0.011316325 -0.050264537 -0.07223561 0.08687994 0.03749873
0.089455485 -0.068020314 0.051058438 0.054370165 -0.013009568 -0.013156332 -0.016593168 0.1142708
-0.07089078 -0.0977271 0.019096967 -0.032356106 0.010053995 0.08042873 -0.10435514 -0.074588306
0.04142022 0.08858937 -0.021391872 0.10417551 -0.04968914 -0.10197716 0.052718073 -0.017917978
-0.027118891 0.031026015 -0.0337883 0.024907447 0.12967286 0.074912846 -0.023111923 0.08911137

network_body._body_endoder.seq_layers.4.bias f4 [256]
00000000: f506 b23b d915 193c fdd5 013b 9074 2bb9
00000010: c196 0f3b b107 a33b 722d e2ba e1e3 993a
00000020: a6c1 aa3a 5947 8fbb 8147 473b 2327 b8ba
00000030: 2bac d539 8df9 b53b fc57 54bb fc9c 00bb
00000040: 92cb 463b 3ed7 f3b9 1c70 ceba 749b 103b
00000050: c56d c93b ce09 49b8 bdc4 93b8 bbaa 843b
00000060: 6612 2c3b 7d74 bb3b 29a7 f2ba 345e a53a
00000070: 149f 773a f20c 86ba df9f b9ba 3402 60bb
00000080: 4c2a 013c f2ae 7bba 28a4 893b 631d 65ba
00000090: 7e0f f239 08e7 a4ba 6dd5 4eba e1a6 32bb
000000a0: 4f13 233b 1119 52bb 9cfc ab3a d623 a2ba
000000b0: 07fd 613b eeae 6f3b 2a88 b93b 17b9 8f3b
000000c0: 76b7 1f3b eca6 52bb 1a25 913a c1a0 943b
000000d0: e78e e93b ce5d 943b 76d9 743b e89e 8d39
000000e0: 9d86 9b3b 3c59 8c3b 715d 5abb 46f7 a6ba
000000f0: e708 84ba 0b30 6d3b 5ee1 9d3b 1fb5 4c3a
00000100: 996e 473b fdb0 d1ba 1eef 943b 1970 3ebb
00000110: 0094 bf3b 87fe bb3b 0aea 64ba 01c1 a53a
00000120: 3bed c83b 0e71 913b cb0d dd3b 8b94 69bb
00000130: 3294 39bb 7717 123b f47a 3bbb 1868 cb3b
00000140: c68c 9c3a 7ccb 933a bf70 36bb a321 21bb
00000150: d0e9 ab38 5553 9dba 931f f7ba 4d66 353b
00000160: 4c44 32bb e9ef 05bb 49e8 c63b cdea 48bb
00000170: 9d6f 463a f9cb 683b 62f3 7a3b 989c 2fb8
00000180: ba9c 2cbb d699 5b3b 3315 3e3b d702 abb9
00000190: 2faf 773a 8d13 bbba 2f36 a13b c492 2dbb
000001a0: c6ef 44bb e7aa 43ba 5687 2cba 2ad9 853b
000001b0: cacb 9dba 82a6 a1b9 f924 103b 5272 393b
000001c0: 6e25 323b d875 633b 3435 a43a e02b 543b
000001d0: 5635 beba c321 153b ac89 e43b 34c3 a43a
000001e0: 609f 0839 7901 23ba 4e1e 883b 3294 83b8
000001f0: 4abd 6b3b 8b35 5bb9 81ed 463b b0ce 64ba
00000200: 5a44 2739 576d c8bb ce2c 1f3c 7dd2 633b
00000210: 2d98 683b 8a67 123b 8836 b33b cd5f 42b9
00000220: db84 9a3b 04b1 46ba 8036 113c d0ae 893b
00000230: 3540 943b 3480 223b 26ea 13bb 4492 813b
00000240: d80b 543a 3662 2dba c04c 65bb 4802 2d3b
00000250: 8ee7 62ba fe93 c73b b420 c63a df7a 43bb
00000260: 047e 2939 6946 833a 46c9 7a3a b83b 6cbb
00000270: c737 543b b25a 6c3b 1532 5b39 6998 2b3a
00000280: 60ad 333b a459 263b de7f f93a 55bc 9d3a
00000290: 5b71 8838 e1a8 65bb 5a3c 35bb 07fe 0f3a
000002a0: 1467 213b 918e 9e3b 6d9d ca3b 2dfa 87bb
000002b0: ac9e 803b c100 5e3b 28c4 d03a df35 8aba
000002c0: b952 65bb c51a d53a ab27 d53b 148b e53b
000002d0: 1745 96bb 5d7d ff3a 98c4 2f3a 5e5b 9f3b
000002e0: 19f7 713b f0ae 23bb 6dc7 56bb 08b4 c7ba
000002f0: fca7 c13b 1341 24ba c236 c1bb 34af 9d3b
00000300: f5d2 49ba a4ac 48ba 3bed 24ba 3ef0 093b
00000310: ef1c a738 4e19 6f3b 2977 2539 e8ae 49bb
00000320: 168b 30ba adc6 9c3a 9c92 1cba 907b 92b8
00000330: 11eb a43b 67c8 a53b 76e0 48bb d04e ddba
00000340: d6c5 05bb f7ff 0d3a 4259 973b ef11 c13b
00000350: 7767 04ba abef ec3b e52a 2b3b 90ce c93a
00000360: c3af 3fbb 62c8 2e3b 6d51 b03b 1a06 3a39
00000370: a919 d63b 60d5 723a 76a4 bf3b 0d09 913b
00000380: 2ad8 d83b 5ad9 d03b c84b 8d3b 8222 463a
00000390: 8ab4 e939 bc17 823a 6506 44bb f0d5 4cbb
000003a0: f6e8 d83b 6ebd ab3b 79d8 c03b e2fb 16ba
000003b0: 2fba d6ba 1842 3ebb 89a0 1d3b 0b19 b33a
000003c0: 5b0a d2ba 72d5 ac3b 514a 6abb ed40 bd3b
000003d0: f4d3 81bb 54f3 123a 1eea c53b 3bbc 63bb
000003e0: f48a 093b c5b7 193c c932 263b 872e 933b
000003f0: 914b 2dbb 07d0 e2ba 6c6a 9a3b c308 ab3b
0.0054329582 0.009343588 0.0019811385 -0.00016351254 0.0021909925 0.004975282 -0.0017255975 0.0011740887
0.0013027682 -0.004372519 0.003040761 -0.001404975 0.000407548 0.0055534304 -0.0032401076 -0.001962482
0.003033374 -0.0004650894 -0.0015749964 0.0022065314 0.0061471188 -4.7931266e-05 -7.0461516e-05 0.004048673
0.0026256084 0.0057206736 -0.0018512952 0.0012616576 0.0009446007 -0.0010227247 -0.0014162025 -0.0034181
0.0078836195 -0.0009600959 0.004200477 -0.00087400357 0.0004616938 -0.001258106 -0.0007890079 -0.0027260112
0.0024883335 -0.0032058398 0.0013121548 -0.0012370299 0.0034483091 0.0036572772 0.005661984 0.004386078
0.0024370826 -0.003214295 0.0011073679 0.004535765 0.007127631 0.004527784 0.0037361062 0.0002701201
0.0047462718 0.0042830985 -0.0033319856 -0.0012738488 -0.0010073454 0.0036191966 0.0048181256 0.00078089716
0.0030430912 -0.0015998181 0.0045451066 -0.0029058515 0.0058465004 0.005737129 -0.00087323843 0.0012646021
0.0061317957 0.004438526 0.006746029 -0.0035641517 -0.002831709 0.0022291818 -0.0028607221 0.0062074773
0.0011943809 0.0011275853 -0.0027838198 -0.00245867 8.1974664e-05 -0.0012002984 -0.0018854014 0.0027679384
-0.0027201353 -0.0020437187 0.006070171 -0.003065753 0.0007569732 0.0035521968 0.003829204 -4.186909e-05
-0.0026338533 0.0033508441 0.0029004335 -0.00032617777 0.00094484066 -0.0014272794 0.0049197893 -0.0026485184
-0.0030050143 -0.0007464126 -0.0006581446 0.004084726 -0.0012038883 -0.0003083237 0.0021994694 0.00282969
0.0027182954 0.0034707692 0.0012528063 0.0032374784 -0.0014511745 0.002275572 0.0069744196 0.0012570382
0.00013029343 -0.0006218176 0.004154003 -6.27417e-05 0.003597098 -0.00020905414 0.0030353966 -0.00087283086
0.00015951824 -0.00611655 0.009715272 0.0034762912 0.0035491094 0.0022339546 0.005469147 -0.0001853697
0.0047155446 -0.0007579478 0.0088630915 0.0042017475 0.0045242556 0.0024795653 -0.0022569983 0.003954204
0.0008088923 -0.0006614061 -0.0034988374 0.0026399065 -0.000865572 0.00609064 0.0015115947 -0.0029827876
0.0001616404 0.0010015491 0.0009566735 -0.0036046337 0.0032381879 0.00360648 0.00020904125 0.0006545843
0.0027416572 0.002538302 0.00190353 0.0012034277 6.5060995e-05 -0.0035043287 -0.002765438 0.000549287
0.002462809 0.0048387726 0.0061833174 -0.0041496963 0.003925165 0.003387496 0.00159276 -0.0010544619
-0.0034991933 0.0016258588 0.006504973 0.007005105 -0.004585873 0.0019492317 0.0006705015 0.0048631867
0.0036920963 -0.0024976097 -0.0032772676 -0.0015236149 0.005909918 -0.00062658003 -0.00589642 0.0048121456
-0.00076989766 -0.000765512 -0.00062914536 0.0021047737 7.96857e-05 0.0036483589 0.00015780017 -0.0030774418
-0.00067345926 0.0011961065 -0.0005972774 -6.984838e-05 0.005032905 0.00505929 -0.0030651367 -0.001688445
-0.002041211 0.0005416865 0.0046187947 0.0058920304 -0.0005050818 0.007230719 0.0026118096 0.0015396643
-0.002924905 0.002666973 0.0053808005 0.00017740615 0.0065338206 0.0009263363 0.0058484627 0.0044261278
0.0066175656 0.0063735666 0.0043120123 0.00075582427 0.00044575735 0.0009925286 -0.0029911038 -0.0031255446
0.006619568 0.0052410876 0.0058851806 -0.00057595794 -0.0016382391 -0.0029031094 0.0024051985 0.001366408
-0.0016024815 0.005274468 -0.0035749862 0.005775562 -0.0039620344 0.0005605717 0.006039872 -0.0034749645
0.0020987364 0.009382193 0.002535986 0.0044916305 -0.0026442746 -0.0017304429 0.0047123935 0.0052195503
