results/R10/AgentController.onnx (onnx, 657373 bytes, 14 tensors)

83 f4 [116]
000000 b3 29 7c 3e f4 d6 34 3e ff d8 35 3e 29 6f 83 3e
       0.24625282 0.17660123 0.17758559 0.25670746
000010 7c 1c 83 3e d3 0b 3c 3e 7e b2 3d 3e c6 53 83 3e
       0.2560767 0.18363886 0.1852512 0.25649852
000020 3f b1 73 3e ee b6 2a 3e 47 3d 33 3e 0b 5e 84 3e
       0.23798083 0.16671345 0.17503844 0.25853
000030 66 2c 85 3e 84 7d 3b 3e cb 58 44 3e d7 ab 83 3e
       0.26010436 0.18309599 0.19174497 0.2571704
000040 88 1d 70 3e 1d 57 1f 3e bb 61 38 3e 75 09 86 3e
       0.23448765 0.15560575 0.18006031 0.2617909
000050 10 77 85 3e 2e 56 37 3e e6 07 49 3e 60 65 84 3e
       0.260674 0.17903969 0.1963192 0.25858593
000060 86 3b 71 3e d6 f3 16 3e 0e 9e 40 3e 39 d4 87 3e
       0.23557863 0.14741454 0.18810293 0.265291
000070 d4 af 84 3e 6b 8c 2e 3e 4e 6b 4e 3e c9 7f 85 3e
       0.25915396 0.17045753 0.20158121 0.26074055
000080 6c 27 73 3e bd 4d 10 3e 41 f1 47 3e 38 67 89 3e
       0.23745507 0.14092155 0.19525625 0.26836562
000090 a0 1a 83 3e 51 49 26 3e 5b ae 50 3e e1 93 86 3e
       0.2560625 0.16238905 0.20379011 0.26284698
0000a0 73 97 75 3e bd a5 0c 3e c3 78 4d 3e 0c 4c 8a 3e
       0.23983555 0.13735099 0.20065598 0.27011144
0000b0 51 d9 81 3e 54 b0 1f 3e 7a 52 52 3e 8d 6b 87 3e
       0.25361112 0.15594608 0.20539275 0.26449242
0000c0 aa 16 78 3e 3d d4 06 3e 50 2f 54 3e 28 c0 8a 3e
       0.24227396 0.131669 0.20721173 0.2709973
0000d0 e8 26 82 3e 1d ba 1c 3e 80 34 55 3e a4 1c 88 3e
       0.25420308 0.15305372 0.20820808 0.2658435
0000e0 14 1c 7c 3e 28 ae 03 3e 1f d8 5a 3e 85 95 8a 3e
       0.24620086 0.12859404 0.21371506 0.270672
0000f0 dd 81 84 3e 4d b5 1b 3e e3 f6 5b 3e 2f 47 89 3e
       0.25880328 0.1520588 0.21480899 0.2681212
000100 9d 96 81 3e 52 08 02 3e e2 24 64 3e 1d 43 8a 3e
       0.2531022 0.12698486 0.22279695 0.27004328
000110 9f ea 86 3e fe 6a 1b 3e ef 42 62 3e ea 1f 8a 3e
       0.26350877 0.15177533 0.22095846 0.26977473
000120 50 7e 87 3e 70 1e 05 3e 4a 75 70 3e 36 96 89 3e
       0.26463556 0.12999892 0.23482242 0.26872414
000130 da bb 86 3e 63 34 19 3e 1f 36 63 3e e7 0b 8a 3e
       0.26315194 0.1496139 0.22188614 0.26962206
000140 7e 70 8d 3e fa 89 08 3e 94 ac 7c 3e 4b 9e 88 3e
       0.27624887 0.13333884 0.24675208 0.26683268
000150 e3 e8 84 3e 17 c7 13 3e 91 14 62 3e 15 6a 89 3e
       0.25958928 0.14431415 0.22078158 0.26838747
000160 30 e2 8f 3e 15 5c 0c 3e 79 42 80 3e 05 5e 87 3e
       0.28102255 0.13707002 0.25050715 0.2643892
000170 82 2f 83 3e 50 ef 0e 3e 51 c2 60 3e 56 4c 88 3e
       0.25622183 0.13958478 0.21949126 0.2662074
000180 3e c9 8f 3e 46 1f 0e 3e a8 69 7f 3e 21 d6 86 3e
       0.28083223 0.13879117 0.24942648 0.26335242
000190 37 8d 83 3e 04 de 0a 3e d3 01 64 3e 05 73 87 3e
       0.25693676 0.13561255 0.22266321 0.2645494
0001a0 86 eb 8c 3e 23 c3 0d 3e a3 d1 78 3e 0d c7 86 3e
       0.2752344 0.1384397 0.2429872 0.2632374
0001b0 a4 6a 87 3e b3 60 0b 3e 2d 00 6d 3e 1e f3 86 3e
       0.26448548 0.13611107 0.23144598 0.2635736
0001c0 a4 6a 87 3e 9f 61 0b 3e aa ff 6c 3e 19 f3 86 3e
       0.26448548 0.13611458 0.23144403 0.26357344

86 f4 [3]
000000 22 cd f1 40 ca 8b 96 3b 0d 8e fc 40
       7.5562906 0.004594301 7.89234

action_model._continuous_distribution.log_sigma f4 [1, 2]
000000 be b1 ab 3a 55 a9 5f bb
       0.0013099236 -0.003412803

action_model._continuous_distribution.mu.bias f4 [2]
000000 4a b4 0d bb f2 19 f2 3a
       -0.0021622353 0.0018470867

action_model._continuous_distribution.mu.weight f4 [2, 256]
000000 cf 91 d4 3c 4e 5b 81 bc 93 fe 91 bc 18 c3 7a bc
       0.025948433 -0.015790608 -0.017821586 -0.015305303
000010 35 43 a6 bc 85 63 b1 bb 50 9e 72 3c b5 6b c0 bb
       -0.020295719 -0.005413475 0.014808252 -0.0058722147
000020 13 7b 7b bc eb f4 72 bc a2 9d 72 3c 6a a4 b6 3c
       -0.015349167 -0.014828901 0.01480809 0.022295196
000030 ed 2b 03 39 15 2d 8f bc 9a f2 c4 bc 4f f8 91 3c
       0.00012509497 -0.017477551 -0.024041463 0.017818598
000040 86 b7 2f bc ae 4f 10 3c dc 85 55 bc 7d 60 b9 bb
       -0.010724908 0.00880806 -0.013032403 -0.0056572543
000050 8c 60 58 3c 6f 34 a8 bc f9 2a 46 3c 89 68 ff bb
       0.013206612 -0.020532815 0.012095206 -0.007794444
000060 22 50 2f 3c 32 78 b3 bc 9b f0 10 3c ed 95 0b 3c
       0.0107002575 -0.0219079 0.008846427 0.008519632
000070 e6 ed 98 3c 45 0a 9c bc 48 28 7f 3c 03 4d 8c 3a
       0.018668126 -0.019047866 0.015573569 0.0010704104
000080 96 ba f6 bb f1 b5 c8 3c 55 3d 2b bd 70 86 4b bc
       -0.007529567 0.024500819 -0.041806538 -0.012422189
000090 03 30 f2 bb 4f e2 e4 3b c8 d0 14 bc 81 89 13 3c
       -0.0073909773 0.006984986 -0.00908298 0.009004951
0000a0 d8 19 58 3c c4 97 92 bc 4b f1 c3 3c b1 63 0c 3d
       0.013189755 -0.017894633 0.023918768 0.03427476
0000b0 f7 a7 84 bb 9e ca c0 bc 82 f9 d1 3b 1c c8 08 bc
       -0.0040483433 -0.023534115 0.0064079175 -0.008348491
0000c0 24 a3 07 3c 81 a5 16 bb 79 e1 95 3b c1 d2 f3 3c
       0.008278642 -0.0022986832 0.0045739976 0.029763581
0000d0 ea f4 d5 3a 2d 88 99 bc ea d5 4a bd 8e f0 a2 3c
       0.00163236 -0.018741691 -0.04952041 0.019890096
0000e0 03 0e b0 bb f6 79 0f 3c d5 04 b4 bb 4c 8d 27 bc
       -0.005372764 0.008757105 -0.00549374 -0.010226559
0000f0 0b 84 56 bc e1 61 ca bb 82 b5 9f 3b 35 4b e4 bb
       -0.013093005 -0.006176219 0.0048739323 -0.006966973
000100 1d 46 61 3c 4d 00 c8 3a 37 55 94 3c fd df 7d ba
       0.013749626 0.0015258879 0.01810704 -0.0009684561
000110 33 b4 43 3c 87 1b 31 3c b1 c4 8c 3c f9 eb 74 ba
       0.011944818 0.010809786 0.017183634 -0.0009343024
000120 23 75 8a 3c 26 60 f5 3a c0 54 4c bc 55 ee 23 3c
       0.016901558 0.0018720671 -0.012471378 0.010005553
000130 b1 54 67 bc 94 0f 36 3c 07 1c 01 bd 16 e2 2c bd
       -0.014119313 0.011112113 -0.03152087 -0.0422078
000140 92 5b 00 bc f6 22 9e 3c e0 ef e5 39 4a ce 35 bc
       -0.007834332 0.01930378 0.00043857004 -0.011096546
000150 08 d1 d3 bc af 04 7c 3c 96 08 96 3b 23 85 52 3c
       -0.02585651 0.015381976 0.0045786602 0.012849125
000160 80 12 4e bc 1a 11 c1 bc 93 0a f1 ba 27 d6 36 bc
       -0.012577653 -0.023567725 -0.0018389992 -0.011159456
000170 9a fa fd bb df f7 2f bc 30 85 10 3b 21 b3 24 3c
       -0.0077508213 -0.010740249 0.0022052042 0.010052473
000180 3b 81 bb 3c 0d 4d 5a bc 6b 4e 35 bc 48 aa 83 3c
       0.02288877 -0.013324034 -0.01106606 0.016072407
000190 75 0b c7 3a 55 c2 ac ba 6b 0c a7 bc 52 18 03 bd
       0.001518591 -0.0013180474 -0.020391664 -0.032005616
0001a0 e2 f0 b8 3c e6 29 02 3c ff e0 aa bc f5 83 a7 bb
       0.0225758 0.00794456 -0.02085924 -0.005112166
0001b0 2c 19 41 3c f5 9a 6f 3c 4a 1f ea 3b 85 42 2b bd
       0.011785787 0.014624347 0.007144843 -0.041811485
0001c0 63 93 92 3c c8 6f 60 bc 4a ce b2 ba 18 35 b2 ba
       0.017892545 -0.013698526 -0.0013641801 -0.0013596145
0001d0 e1 50 89 3c 40 59 5e bb 25 bf 9d 3c 50 ee c1 bc
       0.016762199 -0.003392771 0.019256184 -0.023673207
0001e0 3e 5b 36 bc 9e 8e 0a 3d 66 19 52 3b 56 09 50 3c
       -0.011130152 0.033827417 0.0032058596 0.012697538
0001f0 b5 77 21 bc bc 5d a1 3b 41 af 74 bc 51 39 ee bc
       -0.009855201 0.004924504 -0.014934362 -0.029080065
000200 20 62 a0 bc cb e7 98 3c 0c 6e c8 3a b6 d4 ca bc
       -0.01957804 0.018665215 0.0015291586 -0.024759632
000210 24 44 91 3c fb 55 a0 3c e9 c1 cd b9 48 85 90 bc
       0.017732687 0.019572249 -0.0003924512 -0.017641678
000220 3e 9e b9 bb 8c c8 c8 bb 10 ba f4 bb aa dd 85 bb
       -0.005664616 -0.0061274227 -0.0074684694 -0.0040852623
000230 a9 e6 3a 3c 9a 79 87 3c 0c a3 52 3c 03 a9 d2 3b
       0.011407533 0.016537476 0.012856256 0.006428839
000240 bf 09 e0 3b bd 8b e4 bb 87 d1 1f b9 0e e6 4a bc
       0.0068370993 -0.006974666 -0.00015241477 -0.012383951
000250 e3 30 f7 bb 97 d9 d3 3c 40 b6 9c 3a af 45 07 3d
       -0.0075436695 0.02586059 0.001195617 0.03302544
000260 ab 4a cb bc 89 e4 31 bd e6 d8 cc bb 02 8c 09 3c
       -0.024815878 -0.04343084 -0.0062514422 0.008395197
000270 b5 d5 18 b6 b0 85 6d bb 93 6c 34 3c 46 cb ed bb
       -2.277416e-06 -0.0036243014 0.011012214 -0.007256898
000280 17 51 2b 3c c1 f5 83 3c 72 0e 27 3c 35 6f d0 3c
       0.010456345 0.016108396 0.010196315 0.025443653
000290 17 3a 1a 3c 8e d1 6b bb 9f 20 b6 bb 2b 5c 90 bc
       0.009413264 -0.0035983059 -0.005558088 -0.017622074
0002a0 8e c4 54 3c 5f 71 4f 3c 5e 0f 1b bc 56 9b 91 bc
       0.012986315 0.012661307 -0.009464113 -0.017774265
0002b0 c5 7c 24 bc e4 7d cd bb f0 48 84 3c 41 00 75 bc
       -0.010039513 -0.006271111 0.01614806 -0.014953674
0002c0 80 81 ab bc ed 14 35 3c 08 43 97 3c c3 af 53 3c
       -0.020935774 0.011052352 0.01846458 0.012920323
0002d0 1a e0 0d 3d 9e 1b e0 ba 7f d9 3c 3c ff 4c 89 3c
       0.034637548 -0.0017098074 0.0115264645 0.016760347
0002e0 e9 fe 01 3d 7c 46 2a bb ab f7 0a bd c1 93 0f 3c
       0.031737242 -0.0025981953 -0.0339276 0.008763255
0002f0 7b 80 ec 3b 5f 54 c5 ba 28 09 73 3c aa 25 93 bc
       0.0072174645 -0.0015055052 0.014833726 -0.017962296
000300 bc 93 53 bd 39 9b 41 3c d8 5a e7 3b fd bf ac 3c
       -0.051654562 0.011816793 0.00706039 0.02108764
000310 14 f5 12 3d e4 80 9b bc 72 25 c7 bc 12 43 10 bc
       0.035878256 -0.018982358 -0.024309848 -0.008805053
000320 76 61 ba b9 12 4f d3 3b 0d 97 a1 bc 4f 5d e0 3c
       -0.000355493 0.006448635 -0.019725347 0.027388243
000330 34 16 f3 bc ce a0 02 3d a9 99 39 3d 64 e1 a6 3c
       -0.029673673 0.031891637 0.045312557 0.020371147
000340 ec 62 29 3c c0 d3 b2 bb 18 78 80 bc 71 cc 02 bb
       0.010338526 -0.0054573715 -0.015682265 -0.0019958282
000350 0d be 2f bb 84 b8 e3 3b a1 63 0f bd 90 e1 0f bb
       -0.002681616 0.006949486 -0.035007123 -0.0021954514
000360 d4 3d 8a bb 8c 7f 05 3d 98 48 d0 3c 98 97 23 3c
       -0.0042187963 0.03259234 0.02542524 0.009984873
000370 f8 f2 3d 3c c9 03 98 bc 68 07 50 3c b7 49 a4 bc
       0.011593573 -0.018556492 0.012697078 -0.020054681
000380 cc 53 88 bc 45 2f 93 3c 39 b1 ed bb 4d 5d 46 3c
       -0.01664152 0.017966876 -0.0072537926 0.012107206
000390 fe 5c 64 3c 18 67 86 bc d5 dc bc bc af 1f b3 bc
       0.013938187 -0.01640658 -0.02305452 -0.021865694
0003a0 31 98 93 3c 35 c6 58 bc 95 cd a0 3a d6 fa 93 3c
       0.018016906 -0.01323085 0.00122683 0.018063944
0003b0 40 0e 5f bc f7 e8 1a 3c 2b 93 1f 3c 84 33 3e 3c
       -0.013614237 0.009454957 0.009739677 0.011608962
0003c0 53 22 35 bc 83 ca aa bc 57 0d 8a 38 8e 81 0c 3b
       -0.011055547 -0.020848518 6.5828375e-05 0.0021439525
0003d0 85 26 70 bc 19 97 34 3c 32 db 49 bc 72 29 58 bb
       -0.014657621 0.011022353 -0.012320327 -0.0032983688
0003e0 ad 04 4c 3c 35 46 9e bb 5f 55 23 bd 7f 4c 05 bc
       0.012452287 -0.0048301467 -0.039876338 -0.008135914
0003f0 ea 17 9b 3b b3 67 63 bc c1 e8 a1 3b 2d fa 0e 3d
       0.0047330754 -0.013879704 0.0049410765 0.034906555

action_model._discrete_distribution.branches.0.weight f4 [1, 256]
000000 cb 78 01 3c e0 04 d5 bb db 66 a5 bb 1a 28 b8 bb
       0.007902334 -0.0065008253 -0.0050476617 -0.005620015
000010 dd 3e 50 bb ab 38 0c 3b 5a d5 f4 bb 11 d5 0c bb
       -0.003177575 0.0021396081 -0.0074717226 -0.0021489302
000020 9a 37 d5 bb 5d 16 f5 3b 98 58 8b 3b 0b 61 5b 3b
       -0.0065068724 0.0074794726 0.0042525046 0.003347459
000030 bd c2 c7 3b 07 14 e6 bb b1 4c 37 3b 5b 3d 38 bc
       0.0060962127 -0.0070214304 0.0027969296 -0.011245097
000040 a1 0f 2e 39 1e 9c a7 3b 41 f6 2d 3c 98 6e 70 ba
       0.00016599755 0.005115046 0.010617794 -0.0009171753
000050 a6 37 9a 39 81 6c 0a bb ff 94 55 bb 4e 20 05 3c
       0.0002941463 -0.0021121802 -0.003259003 0.008125378
000060 81 62 89 3b 7f b5 88 bb 9b 4b 50 3b 00 40 fe bb
       0.004192651 -0.0041720266 0.0031783346 -0.0077590942
000070 08 ac e5 bb 1b 1f 6e 3c ae 4c b8 3a 8a 40 f5 3b
       -0.007009033 0.014533783 0.0014060938 0.0074845003
000080 c7 c8 2a bc 4e 4c 25 bb 27 88 fc 3a 63 1b 77 3b
       -0.010423846 -0.0025222483 0.0019266651 0.0037705533
000090 df 2e 3d 38 a5 3d 14 bc e8 c2 fb 3b 98 16 e7 bb
       4.5104764e-05 -0.0090479 0.0076831467 -0.007052254
0000a0 49 3f 27 bc 06 86 15 bc 17 4c 36 bb c3 bd 5b 3a
       -0.010207959 -0.009126192 -0.002781635 0.0008382464
0000b0 1e da c2 bb 97 ad 17 3a 7f 0a 37 3c ad 77 1a b9
       -0.0059464118 0.000578606 0.011171936 -0.00014731167
0000c0 f2 4b 2d 3c 32 0b 17 bb 17 0c 2d 3b a8 cc c6 bb
       0.010577189 -0.0023047444 0.0026404911 -0.0060668774
0000d0 d3 22 cf 3b bf 88 33 bb ba 91 d0 b9 8b 3c 9c bb
       0.00632129 -0.002739474 -0.00039781426 -0.0047679595
0000e0 16 fe c4 3b 86 45 0d 3c 8a 7e 75 3b c1 04 a2 3b
       0.0060117347 0.008622533 0.0037459456 0.0049444144
0000f0 dd 69 77 3b f7 dd 61 bc 3d af 54 3b b8 c5 87 bb
       0.0037752308 -0.013785831 0.0032453083 -0.004143443
000100 35 dd 64 3b ff 9c 3b ba 88 6d 41 ba 80 07 4b 3b
       0.0034921889 -0.0007156878 -0.0007378687 0.0030979812
000110 aa 17 9c ba 87 97 a4 b9 5f f3 a1 bb a9 f8 1c bc
       -0.0011908908 -0.00031393414 -0.004942342 -0.00958077
000120 bf 3f c3 3b 01 df b4 b9 fb fb ae bb 4d 0c 0d 3c
       0.005958527 -0.00034498426 -0.005340097 0.00860889
000130 b7 c1 52 3b 17 af 74 bb f9 78 84 ba 66 43 2b bc
       0.003215892 -0.0037335807 -0.0010106853 -0.010453081
000140 33 a3 88 bb e5 01 d8 3b 11 a0 c7 ba a2 8e 21 bb
       -0.0041698455 0.0065920227 -0.0015230199 -0.0024651666
000150 23 25 db bb a9 09 29 bc f7 22 cb 3b 40 45 c1 bb
       -0.0066877767 -0.010317245 0.0061992365 -0.005898148
000160 33 5a 05 bc f8 27 52 ba a3 31 35 ba b6 e3 24 3c
       -0.008139181 -0.000801682 -0.00069119985 0.010064056
000170 2d 5d 32 bb 76 6d 02 3c ef 72 a1 bb 4d 9c 0f bc
       -0.0027216182 0.007960668 -0.004927031 -0.008765292
000180 1b 3d 9c 3b 71 ab 1a bb a5 ef ba 3b a8 b8 32 ba
       0.0047680265 -0.0023600722 0.0057048374 -0.0006817677
000190 88 2a 5a bc 1b ff 91 b9 54 7e cb 3b 03 af fd ba
       -0.013315804 -0.00027846624 0.006210128 -0.0019354526
0001a0 eb 1c 2f bc ef 3d c2 bb a2 c3 b6 ba 05 e6 31 3c
       -0.010688047 -0.005927793 -0.0013943801 0.010858064
0001b0 73 b7 8e ba 87 57 a5 bb ef f9 a8 ba 8f 67 21 3b
       -0.0010888412 -0.0050458345 -0.0012891869 0.0024628376
0001c0 cb e5 b0 bb 10 cb dc 3b a2 4e 8a 3b 8b 14 93 3b
       -0.005398487 0.006738074 0.0042207995 0.004488533
0001d0 f2 44 74 bb 34 13 1a bc 40 6e 7e 38 7b 40 18 bc
       -0.003727254 -0.009403992 6.0660997e-05 -0.009292717
0001e0 00 85 9d bb 68 c3 69 ba 2e 89 36 bb fd 09 82 3c
       -0.0048071146 -0.00089173624 -0.0027852762 0.015873903
0001f0 70 95 9a bb 30 b3 dc ba 0f 1f be 3b 25 78 6a bb
       -0.0047175214 -0.001683807 0.0058020423 -0.0035777178
000200 35 e6 5c bb 8b a7 04 bc c0 d3 f9 3b f0 f9 27 bc
       -0.003370655 -0.008096586 0.0076241195 -0.010252461
000210 38 4f 54 bb 2a f7 ad bb 3f 5b 5f ba 7d 3b 66 bb
       -0.003239585 -0.0053090053 -0.00085203716 -0.0035130673
000220 68 ee 65 3a 77 43 9f bb a5 90 0f bc bf 00 b7 3b
       0.0008771182 -0.0048603374 -0.008762513 0.0055848057
000230 9a a0 10 3c e0 ff d8 ba b6 e4 a8 3c 7c 2c 8f 3a
       0.008827353 -0.0016555749 0.02061687 0.0010923292
000240 9d e8 35 3c 77 9c 43 bc 04 e2 46 3a b8 3f f6 bb
       0.011102823 -0.01193916 0.00075867795 -0.00751492
000250 34 e1 b3 3b 1b 1d 46 bb 5f d9 02 bc 82 69 1a ba
       0.005489493 -0.003022975 -0.007986396 -0.00058903557
000260 26 69 2c 3b 6f c7 71 3b 6d 50 5b ba 60 05 37 3b
       0.002630779 0.0036892553 -0.00083661714 0.0027926788
000270 bb a8 d4 3b b5 3b 2a ba 0f 8b d7 bb 0c c8 0f 3a
       0.006489841 -0.00064938824 -0.0065778564 0.00054848264
000280 71 7f c6 3a 8f 83 0f 3c c0 34 9e bc a4 94 94 3a
       0.0015144182 0.008759393 -0.019312263 0.0011335802
000290 fc 53 93 3b 9c f0 8e 3c aa cc 65 3a 5e c9 19 3b
       0.0044960957 0.017448716 0.0008766154 0.0023465971
0002a0 08 d5 75 ba eb 31 59 bb b0 ef e5 bb 54 60 0b bb
       -0.00093777524 -0.0033141326 -0.0070170984 -0.0021267133
0002b0 03 d6 aa bb 8f 95 21 bc fb 9b 25 bb d2 f4 ea 3a
       -0.0052135005 -0.009862318 -0.0025269974 0.0017925745
0002c0 a7 53 9e bb ab 38 53 3c 28 69 57 3a c3 d1 62 3b
       -0.0048317495 0.012891929 0.00082172686 0.003460989
0002d0 5b 87 54 3b 7d 1f 10 bc 47 20 a4 3b bb 8f b3 bb
       0.003242931 -0.00879657 0.0050087306 -0.0054797805
0002e0 e7 e2 cd 3b 5a 6c 84 bc 46 c2 3e 3b 46 9a 29 3c
       0.0062831524 -0.016164947 0.0029107495 0.010351723
0002f0 42 0f 6f 3b ff 17 39 bb 19 33 aa 39 21 f8 b1 bb
       0.00364776 -0.0028243063 0.00032462997 -0.0054311906
000300 af 5c 8d 3b cb 24 a0 39 e8 d8 61 bb d0 37 ef bb
       0.0043140273 0.0003054499 -0.0034461562 -0.0073003545
000310 50 92 fa 3b dd a4 dc bb cf f4 f2 3b 5c 19 98 3b
       0.0076468363 -0.0067335204 0.0074144374 0.004641695
000320 1f 77 fa 3a ed ed 52 bb 87 b4 fc bb b0 5c 1e bb
       0.0019108987 -0.0032185272 -0.00771195 -0.0024164133
000330 2b d4 ce bb c2 1d 2a 3b 29 e8 80 3b f0 09 f4 bb
       -0.0063119135 0.0025957678 0.0039339256 -0.0074474737
000340 bb 5b 39 3c a5 9b 6e bc ef d1 73 3a 78 72 00 bb
       0.011313374 -0.014563476 0.0009300997 -0.0019599479
000350 93 51 d3 ba e9 b3 93 3b 48 0c 81 3c 14 86 cb 3b
       -0.0016122333 0.004507531 0.015752926 0.0062110517
000360 b8 73 fa 3a 38 da 8f ba f3 f2 6a 3c e7 8f fc bb
       0.0019107973 -0.0010975068 0.01434015 -0.007707584
000370 9d e2 d9 bb d7 dd f1 ba ca 93 1d bc e9 32 1a 3c
       -0.006649329 -0.0018452954 -0.009617755 0.009411552
000380 dd 76 33 ba 6b 68 b7 3b 85 bb 5a b9 a0 ce 02 bc
       -0.000684602 0.0055971644 -0.00020859957 -0.007983834
000390 45 09 17 bc cb a5 a0 3b 83 c3 fc 3b df 17 78 bb
       -0.009218519 0.0049025766 0.0077137365 -0.0037856025
0003a0 17 3c cf bb d6 4e ae 3a 77 b2 fe ba 63 a5 27 bb
       -0.006324302 0.0013298641 -0.0019431849 -0.0025580756
0003b0 3f cb b9 3b ab 6d d5 39 c0 ab 18 bc 1a be f0 bb
       0.005669981 0.00040708235 -0.009318292 -0.0073468806
0003c0 d6 37 c5 b9 4b 59 95 bb 39 07 a3 bb c4 ca 16 3c
       -0.0003761637 -0.0045577637 -0.0049752262 0.0092036165
0003d0 36 ed b5 b9 5a 21 ad 3b a5 66 71 3b 1b 92 62 3c
       -0.00034699746 0.005283517 0.0036834863 0.01382878
0003e0 ef 7f f6 ba db 02 4b bb 5c 5a 0f bc 99 96 4b bb
       -0.0018806438 -0.0030977044 -0.008749571 -0.0031065105
0003f0 af 8d b8 3a 97 eb 96 bb 14 80 c9 ba 84 96 9e bb
       0.0014080311 -0.004605721 -0.0015373253 -0.00483972

network_body._body_endoder.seq_layers.0.bias f4 [256]
000000 e5 f8 b5 3b 3e 35 d2 ba a9 f6 20 3c 5b 6f 79 3b
       0.005553352 -0.0016037596 0.009824433 0.0038060758
000010 90 ce 09 3b de b0 e6 ba cd 64 9c 3b 58 82 3f 3c
       0.0021027662 -0.0017600318 0.0047727586 0.011688791
000020 81 85 e6 3b 97 62 f4 ba 51 90 fe 3b 9b 8d 17 3b
       0.007034958 -0.0018645105 0.0077686687 0.0023125175
000030 82 ba 84 3b 14 84 c7 39 34 ed e4 bb 88 ba 37 3c
       0.004050554 0.00038054644 -0.0069862846 0.011213906
000040 ab 17 c4 3b e3 42 d6 3b 3c a1 ef 3b db bd c4 3b
       0.0059842668 0.0065387352 0.007312922 0.006004078
000050 43 9d 12 3b 1d 5e 4e 3c 58 21 3a 3a f1 17 6a bb
       0.0022371567 0.012595681 0.00071003055 -0.0035719837
000060 51 f6 56 3b 48 c8 b2 3b 55 50 6c 3c 35 9e ec 3b
       0.0032800625 0.0054560043 0.0144234495 0.007221008
000070 32 1d 99 bb cb 95 ad 3b f3 b0 9d 39 3a 7b 24 3b
       -0.00467267 0.0052973977 0.0003007721 0.0025097863
000080 83 c6 c8 bb 4d a6 9d 3b b6 13 9a 3a 6a 2c 3d 3c
       -0.00612718 0.0048110844 0.0011755142 0.011546234
000090 12 6c 82 3b 7a 25 fc 3a 41 9c c5 3a c0 56 11 3b
       0.003980168 0.0019237243 0.0015076475 0.0022176951
0000a0 02 db 05 3c d0 c0 d2 b9 d7 b5 af 3b 4e cd 89 3b
       0.008169891 -0.00040197978 0.005362253 0.0042053824
0000b0 08 9f 54 3c 2e f5 bf 39 45 27 5e 3b a7 79 ac 3b
       0.012977369 0.00036613032 0.0033897918 0.0052635255
0000c0 33 fd 5e ba 8e 5a 21 3b 12 1e 92 3b 74 00 82 3b
       -0.00085063576 0.0024620625 0.004459151 0.003967339
0000d0 eb e8 26 bb 13 d8 d9 3b 16 ca 16 3c c5 75 78 3a
       -0.002546842 0.0066480725 0.0092034545 0.0009477998
0000e0 35 f6 3c 3c a3 20 01 bb a2 b3 f0 3b 49 df 49 3b
       0.01153331 -0.001970329 0.0073456326 0.0030803254
0000f0 77 ea 42 3b 4e 3a 0d bc 43 1e 59 3b a0 22 b3 3b
       0.0029741803 -0.008619858 0.003312961 0.005466774
000100 d8 71 34 3b 74 1a 0c 3b 26 d6 08 3c 1d 48 95 3b
       0.0027533676 0.0021378072 0.008351838 0.0045557157
000110 25 ab 94 3b f0 72 8d 3b 2e 7f 22 3c 85 de 3d ba
       0.0045370036 0.00431668 0.009918017 -0.0007242936
000120 f9 98 e9 bb b1 15 ad 3b 34 33 b9 3b 72 3d 5b bb
       -0.0071288315 0.005282127 0.005651856 -0.0033453372
000130 2a 98 9a 3b 99 e4 a8 3b 4f 63 1b 3c 3d c6 a6 b9
       0.0047178464 0.005154204 0.009484126 -0.00031809686
000140 72 8d 82 3b 35 6b 1c 3b 22 28 ad 3b cf 5b ee ba
       0.0039841468 0.0023867611 0.005284325 -0.001818532
000150 2d 82 70 3c d7 ba e8 3a b4 ae 41 3b 30 44 5f 3b
       0.014679474 0.0017755878 0.0029553594 0.0034067743
000160 30 88 8e bb 79 ce 7b bb 39 f4 67 3b dd ef c5 3a
       -0.004349731 -0.0038422628 0.003539337 0.0015101392
000170 6c 3e c7 3b 44 6b b6 bb ee ac ce 3b dc 2a 1f bc
       0.0060804393 -0.0055669863 0.006307236 -0.009714808
000180 b1 cc d1 3b 42 92 4f ba 04 dc 51 3c 30 19 24 3b
       0.006402575 -0.00079182175 0.0128088035 0.0025039427
000190 a7 b8 ea 3b f4 cf 32 3b e7 7a 63 bb 5e 4b 81 bb
       0.0071631256 0.0027284594 -0.0034710707 -0.003945752
0001a0 74 8e 17 b9 ff 5c d0 3b 69 3d 54 bb af f2 19 bb
       -0.0001445355 0.0063587422 -0.0032385236 -0.0023490598
0001b0 9a 90 da 3b 2e 66 10 3b 3d 90 f7 ba 19 53 4b 3b
       0.00667007 0.002203356 -0.0018887591 0.0031024872
0001c0 f0 08 27 3c 0e e3 10 39 47 59 80 3b 09 9e 79 3b
       0.010195002 0.00013817495 0.0039168927 0.003808858
0001d0 19 89 d5 3b 1f 45 70 3b d1 4c a0 3b fb 2d 2c ba
       0.0065165875 0.0036662293 0.0048919697 -0.0006568131
0001e0 a5 93 af 3b ce 23 0b 3c c4 e0 10 3c 2c 25 c0 3a
       0.005358177 0.008492423 0.008842651 0.0014659516
0001f0 70 f2 33 3b 34 25 c7 3b a4 d6 e2 3b 5c f2 b8 bb
       0.0027457736 0.006077433 0.00692256 -0.005644126
000200 56 61 00 3c 2c 0b a4 3b b9 3d 26 3b 5f 7b ce 3b
       0.007835707 0.0050062146 0.002536638 0.006301328
000210 74 09 64 3b db 00 a0 3a be f6 b8 b9 5c bb 1c 3b
       0.0034795674 0.0012207286 -0.00035279052 0.0023915386
000220 30 29 ee b9 d7 7e ae 3b 6f be 0c 3c 55 69 ea bb
       -0.00045425585 0.005325179 0.008590325 -0.00715367
000230 71 0a 8b 3a 83 e0 1b 3c 0a 6f f8 3b ec b6 9f 3b
       0.001060797 0.009513977 0.0075815963 0.004874101
000240 8f bd 0c 3c 86 1f e6 3a 24 c3 16 ba 74 b1 05 3c
       0.008590116 0.0017557002 -0.0005751124 0.008159984
000250 84 a5 ab bb 0b 8d 3f 3a 4a 54 99 3b 65 48 84 3b
       -0.005238237 0.0007307089 0.0046792375 0.0040369504
000260 db e2 21 3c 42 ad 03 3c 46 bb 4d 3b 95 9a 7e bb
       0.009880747 0.008036913 0.0031392141 -0.0038849462
000270 e0 c5 17 3b 9b a9 0c 3b 32 ab d5 3b d5 88 4e 3a
       0.0023158714 0.0021463397 0.006520652 0.0007878666
000280 9c 9d 95 bb 41 82 9d 3b af 73 eb 3b 3f 35 32 3b
       -0.0045659076 0.0048067872 0.0071854214 0.0027192382
000290 33 b7 db 3b b5 97 e8 bb 54 43 f9 38 95 9b 1d bb
       0.0067051887 -0.007098163 0.00011885786 -0.0024049033
0002a0 9b 64 1d ba 93 39 3a 3c ad e2 56 3a fa 5d 87 3b
       -0.0006004066 0.011366266 0.00081972295 0.004131076
0002b0 d3 71 be bb 58 c6 4a bb 84 f3 0d 3b 26 a7 8e 3b
       -0.0058119087 -0.0030940976 0.002166004 0.0043534217
0002c0 4e 37 3a 3c 27 a0 d6 ba 27 48 1c bb 9f 51 cb bb
       0.011365725 -0.0016374633 -0.0023846717 -0.0062047984
0002d0 bb 87 48 3b 1a 2a 06 bb f7 3f 42 bb 03 44 f7 3a
       0.003059848 -0.0020471872 -0.0029640177 0.0018864874
0002e0 8c 60 26 3c 96 de d4 38 41 b3 3e ba b4 6b 0e ba
       0.0101548545 0.000101504076 -0.0007274636 -0.0005432919
0002f0 ad 57 26 b9 60 29 13 bc 86 9b cd 3a e4 67 08 3c
       -0.00015863655 -0.008982033 0.0015686608 0.008325551
000300 d8 9c 1b 3c 42 4e bd 3b 0a ae 70 ba b7 e6 5e 3c
       0.009497844 0.0057771513 -0.0009181207 0.013604811
000310 0b ac 20 3c 94 b5 a5 3a dd ff ba 3a 16 e5 e8 3b
       0.009806643 0.0012642615 0.0014266927 0.0071073873
000320 68 5a 54 ba a3 c8 77 bb 67 2b 95 3b 97 fd e5 3b
       -0.000810063 -0.0037808798 0.004552293 0.0070187557
000330 b1 b1 15 3c f7 09 de 3b 3f 40 13 3b 3c 43 0a 3c
       0.009136603 0.0067760902 0.0022468714 0.0084388815
000340 d9 f6 d6 3b 5c df 80 3b bf 14 0b 3c 30 86 09 3a
       0.0065601883 0.0039328765 0.008488833 0.0005246131
000350 5d 25 b8 3b 08 f3 51 3b e1 36 30 3c 2e c3 5b 39
       0.0056196884 0.0032035727 0.010755272 0.00020958178
000360 8d b9 8b 3b 48 6d ec 3b 2f df 32 3c 1c 93 f3 3b
       0.0042640627 0.007215176 0.010917469 0.0074333083
000370 f8 1b ec ba 68 d3 e2 3b a4 31 a5 3b a8 fa ee 3b
       -0.0018013706 0.0069221742 0.005041318 0.007293064
000380 b1 45 04 3c b4 ee f1 bb 26 95 8d 3a 54 33 ca b9
       0.008073256 -0.007383192 0.0010801896 -0.00038566685
000390 49 34 1e 3c a1 32 0a 3c 1a f0 a6 38 f4 b4 e1 3a
       0.00965602 0.008434922 7.960219e-05 0.0017220066
0003a0 88 20 f6 3b 53 12 f2 3b 49 a9 15 bb c3 16 0b 3c
       0.0075112022 0.0073874383 -0.0022836498 0.008489314
0003b0 99 43 82 3b 69 72 cf 3b 1d 81 2b 39 a2 99 47 3b
       0.0039753434 0.0063307774 0.00016355929 0.0030456563
0003c0 75 f8 00 3b 6e 4f d6 39 b8 82 05 ba b8 5f e9 3a
       0.0019679342 0.0004087644 -0.0005093026 0.0017805016
0003d0 f5 d1 c3 3b d9 33 32 3b a4 5b a2 3b 64 af 0a bb
       0.0059759566 0.0027191548 0.004954772 -0.002116167
0003e0 5c c2 ce 3b aa f5 bf 3b 46 14 44 3b 76 ef 18 bb
       0.0063097905 0.005858143 0.002991931 -0.002333609
0003f0 71 90 99 3b ad 24 9d bb 15 dc cd b8 a0 96 af 38
       0.004686408 -0.004795632 -9.816155e-05 8.372706e-05

network_body._body_endoder.seq_layers.0.weight f4 [256, 119]
000000 50 ad 07 bd 47 65 a9 bd 06 1e 28 3e cf 04 6e be
       -0.033124268 -0.0827127 0.16417703 -0.23244022
000010 52 8b ab bd 9f 23 c8 3c 58 84 5e 3d 7a 25 88 3d
       -0.083761826 0.024431048 0.05432543 0.06647773
000020 f8 66 83 3d 34 c3 77 3c f0 79 55 bb 65 b5 63 3e
       0.06416124 0.015122224 -0.00325739 0.22237165
000030 15 46 b8 3d 2b 16 39 3b 8a 6f c7 bc fd e4 03 bb
       0.08997742 0.0028241973 -0.024345178 -0.0020125501
000040 b9 13 3b 3e 57 8b 9c 3d 9f c9 60 be c9 52 cf bd
       0.18269242 0.076437645 -0.21951912 -0.10123212
000050 b8 cd 0a 3e ce dd 99 3d 0b c3 fe bd 28 30 88 3d
       0.13555038 0.07513009 -0.12439545 0.0664981
000060 e9 38 5b be 72 5d a9 bd e2 59 21 3e f0 85 00 bd
       -0.21408428 -0.082697764 0.15756944 -0.031377733
000070 f7 58 52 3d 5f e5 e0 3d 51 6e f5 bc 8c d2 51 bd
       0.051354375 0.10981249 -0.02995983 -0.051226184
000080 0e 97 b1 bd 72 e2 50 be 3c 08 91 3d 35 e7 ce bd
       -0.086713895 -0.20398882 0.07081649 -0.10102693
000090 af b2 1b 3d ef 69 eb bd 9d 8d e6 bd 8f 4f 39 3d
       0.038012203 -0.114948146 -0.11257479 0.04524189
0000a0 b1 4b 43 3e fc 99 ac 3d 3c ff 16 3c a2 f9 bd bb
       0.19071843 0.08427808 0.009216126 -0.005797581
0000b0 ba 15 49 bd 96 46 fc bd 49 26 15 bd ea 92 9c 3d
       -0.049092986 -0.12318151 -0.036413465 0.07645209
0000c0 fe 57 35 3d 3f ba 2e 3d be 37 95 3d dc 71 51 3d
       0.04427337 0.042658087 0.072860226 0.051133975
0000d0 1a 7a 8e 3d 64 8d 32 be f2 a6 0d 3e a6 11 a0 bc
       0.06956883 -0.17436749 0.13833216 -0.019539665
0000e0 8f 00 c8 3d fa 38 4d bd b0 8e 7a bd 24 a5 3f bd
       0.097657315 -0.050103165 -0.061171234 -0.04678835
0000f0 ca fa 78 3b b4 05 18 bd fc 84 0c 3d 09 50 87 3d
       0.0037991279 -0.037114814 0.03430651 0.06607062
000100 fe 76 98 bd a8 f7 35 be ac d9 28 3c b7 2d dc 3d
       -0.07444571 -0.17770255 0.010305803 0.10750907
000110 3b d3 28 3d 61 39 6b 3d e5 32 ab 3d f7 96 63 3d
       0.04121707 0.057427768 0.08359317 0.055563893
000120 13 43 29 3c 28 16 02 3c 97 49 8d bd 65 41 b7 3c
       0.010330933 0.007939853 -0.06898802 0.02237005
000130 c6 20 c4 3d 4c 78 24 3e 9d 4b 84 3c 31 b6 10 be
       0.095765635 0.16061515 0.016149336 -0.14132
000140 2f 11 cd bd 15 ab e7 3d aa dd 0c bb 23 5c 5d 3e
       -0.10013043 0.11311928 -0.0021494427 0.21617179
000150 dd 8e 94 bd d5 e9 7d 3d c1 7b 5e 3c 77 bb fc bc
       -0.072538115 0.061990578 0.01357931 -0.030851109
000160 43 b1 63 bd 24 4b 4f 3e 32 d7 71 3b bb 54 83 3d
       -0.05558897 0.20243508 0.0036901948 0.064126454
000170 4c 65 57 3e bb a4 50 be 7f d1 1a 3d c2 f7 9a 3b
       0.21034735 -0.2037534 0.037797447 0.004729242
000180 fa 15 10 3c 8a fa 3c bd 0f bc 15 be 7d e0 01 be
       0.008794302 -0.04613737 -0.1462252 -0.12683292
000190 05 9e 23 3b 99 86 a9 bd d9 b9 b5 bc cb 5f 2e bd
       0.0024966013 -0.082776256 -0.022183346 -0.042571824
0001a0 29 3b a0 3c 39 02 3a 3e 3b 95 3e 3d 90 f1 20 3d
       0.01955946 0.1816491 0.046529036 0.039292872
0001b0 6e 9e 38 bd 7d c5 e0 bc 7b 40 2b 3d b7 b7 0a bd
       -0.045072965 -0.02743792 0.04180954 -0.03386661
0001c0 99 7c 17 be 4a 66 ce 3d 23 92 d1 bd e3 f2 95 3c
       -0.14793624 0.10078104 -0.102329515 0.018304294
0001d0 ab 0c b1 3d ab d6 36 3e 27 f5 4f 3c b6 86 34 bd
       0.08644994 0.17855327 0.012692726 -0.044073783
0001e0 c4 29 9f 3d 8f fa ae 3b 0e e5 c8 3b f0 ee 13 3d
       0.07771638 0.0053399275 0.006130821 0.03611654
0001f0 45 f5 49 bd aa 54 94 3d 83 ab 9c 3d 21 94 c5 3d
       -0.049306173 0.07242711 0.07649901 0.09647394
000200 9b ce 43 3e a7 43 db 3c 3e 28 65 bb 69 33 2e bd
       0.19121782 0.026765658 -0.0034966613 -0.042529497
000210 67 8f 28 3d f0 67 cb bd 2e be c4 3d c7 19 24 3e
       0.041152384 -0.09931934 0.096065864 0.16025458
000220 67 8d 46 be 2f da 80 bd 0e 2d 9f bc 61 8f b6 3c
       -0.19389878 -0.06291615 -0.019430663 0.022285165
000230 ce b5 65 be dd 56 b1 3d a8 7a 02 3e e1 a3 91 3e
       -0.22432634 0.08659146 0.12742102 0.28445342
000240 38 c9 67 3d 22 34 93 bd c3 98 13 bd d9 f6 08 bd
       0.05658838 -0.07187678 -0.036034357 -0.033438537
000250 cc 49 67 bd 58 01 45 3d f5 53 6a be 89 f6 59 bd
       -0.056466863 0.048096985 -0.2288359 -0.05321363
000260 aa 6d d2 bd 44 44 b0 bd 48 bc 90 bd 3b 48 4b 3c
       -0.10274823 -0.08606771 -0.07067162 0.012407358
000270 1f 6b 13 bd aa 7a 0b be 75 f2 15 be 8e 25 02 bd
       -0.03599083 -0.13621011 -0.14643271 -0.031774096
000280 ea fb 82 bd e9 e3 95 3d 0e 40 b1 3d ee 2f a7 bd
       -0.06395705 0.07318861 0.086547956 -0.08163439
000290 3f 4d 16 bd f8 12 96 3d e0 ee 47 bd 65 51 2d be
       -0.03669476 0.07327837 -0.048811793 -0.16925581
0002a0 29 f0 db bd 09 a5 a4 bd 11 60 d0 3d ce d3 31 3e
       -0.10739166 -0.080392905 0.10174573 0.17365953
0002b0 a5 a5 5c 3d 5d 6b 83 bd 53 29 49 bc 1d f0 86 3c
       0.05386891 -0.06416962 -0.012277919 0.016471917
0002c0 cd 5a 8a 3d 8f 03 3f 3d aa 4a a2 3d c7 4f c7 bd
       0.067556 0.046634253 0.07924397 -0.09732013
0002d0 6f be e1 3d 0b e4 35 be 81 fd 29 3c e7 27 0c be
       0.110226505 -0.17762773 0.010375381 -0.13687097
0002e0 89 bf 87 3d d5 2a fd 3c 8b 0f 12 3e 28 7f 35 3d
       0.06628329 0.030904213 0.14263742 0.04431072
0002f0 92 4a 5d 3e e3 5b 05 bd b9 eb ad bd aa f9 23 bd
       0.21610478 -0.032558333 -0.08492226 -0.04003302
000300 7e 49 57 3d 98 ee ad bd 85 fd 11 3b e1 45 15 be
       0.052560322 -0.08492774 0.0022276354 -0.14577438
000310 50 90 a4 3d ce d0 84 3d 9e c6 cd bc e9 33 7e bd
       0.08035338 0.06485139 -0.025119122 -0.062061224
000320 04 da a4 3c 63 e1 25 bb 59 9f 22 3d bd bd 5d bd
       0.02012349 -0.0025311343 0.039702747 -0.054136027
000330 d6 c5 4f bd 94 74 88 3c 31 91 09 3d 06 74 ac 3c
       -0.05072578 0.016657151 0.03358573 0.021051418
000340 2a 6b 5a 3c fa 4b a4 bc 80 e2 6e 3d aa 26 8d 3d
       0.013331214 -0.02005576 0.058321476 0.0689214
000350 10 14 2d 3e b1 25 44 bc b2 c0 5b bb 55 0c 28 be
       0.16902184 -0.011971877 -0.0033531603 -0.16410954
000360 1a c1 0c 3e f0 78 be bd f2 3d 7f bc 17 6c d5 3d
       0.13745537 -0.09300411 -0.015578734 0.10421007
000370 93 2c 9f 3c c1 07 3c bd 80 ba f9 bd 51 a2 9c 3d
       0.019430434 -0.045905832 -0.12193775 0.07648147
000380 34 8e 9c 3d 2f 12 5f bc d7 16 1c 3c 49 64 25 3e
       0.076443106 -0.013615175 0.00952693 0.16151537
000390 0b 9a 23 3b 01 70 bb bd 84 a0 33 3c 46 a4 a0 bd
       0.0024963643 -0.091522224 0.010963563 -0.07843833
0003a0 cb ed 3f bc ee aa 50 3d f6 41 b4 bc fc 60 ab 3d
       -0.011714409 0.05094426 -0.022004109 0.08368108
0003b0 70 4a db bb 24 73 1a be b4 a4 0d be b6 c4 b4 bc
       -0.0066922233 -0.15082985 -0.1383236 -0.022066455
0003c0 31 cc 2f 3e 47 b6 79 bd eb f6 bd bd ae b0 d4 bd
       0.17167737 -0.06096485 -0.092756115 -0.103852615
0003d0 87 aa d5 bc 4f 28 d3 bd 90 70 eb 3b fb 31 cf bc
       -0.02608229 -0.10310423 0.0071850494 -0.025292387
0003e0 38 8b 7a bd 9b 87 84 3c 8a 4f b2 3b ed 93 70 3d
       -0.061167926 0.016177943 0.0054416107 0.058734823
0003f0 94 2f 37 bd 8f 9c cf bd c2 ec cb bd b2 72 ce 3d
       -0.04472311 -0.10137283 -0.09957267 0.1008047

network_body._body_endoder.seq_layers.2.bias f4 [256]
000000 88 05 03 bb 4b a4 e0 bb 35 71 0f ba 70 9e 4e 3b
       -0.001999231 -0.0068555227 -0.0005471886 0.0031527542
000010 5c e1 40 3b 05 58 cd 3b 8d 5a 17 3c 80 77 88 ba
       0.00294312 0.0062665963 0.009237898 -0.001041159
000020 23 48 bc bb fd 54 af 3b 3a a0 49 bb 71 92 ac bb
       -0.005745904 0.0053507076 -0.0030765668 -0.0052664806
000030 35 0d c6 3b 46 28 3d ba d9 6d 88 bb 06 ea e0 3a
       0.006044055 -0.0007215779 -0.0041634855 0.0017159588
000040 7c a4 05 3c 66 8c 89 3b 2d 6c 05 3b e9 a3 c8 3a
       0.008156892 0.004197645 0.0020358667 0.0015307638
000050 c0 08 de 3b b2 91 03 3a 39 47 29 3b a7 a5 d0 3b
       0.0067759454 0.0005018964 0.0025829806 0.0063674035
000060 f2 ee 2d bc ae e2 19 3b 1b 7c 98 bb d3 e6 a8 3a
       -0.010616051 0.002348106 -0.0046534664 0.0012886174
000070 7a 64 76 b7 11 b9 40 3c 2c 4f e5 3b cb 46 b9 3b
       -1.4686137e-05 0.011762873 0.0069979634 0.005654191
000080 d2 8d 7f bb c6 77 0b 3c ee 5f cd ba be 60 24 bb
       -0.0038994444 0.008512443 -0.0015668848 -0.0025082077
000090 6c 72 1c 3b 51 a2 f6 3a 38 91 38 3b b8 f0 a5 3b
       0.0023871912 0.0018816685 0.002816273 0.0050640963
0000a0 96 43 64 ba 3a 45 f8 39 6a 23 17 bb fa 08 a2 3b
       -0.0008707581 0.00047353824 -0.002306188 0.0049449177
0000b0 0d 26 1f 3c a3 ba fa 39 ce 07 11 3c bb 02 02 bb
       0.009713662 0.0004782277 0.008851958 -0.0019838053
0000c0 e2 85 89 3b 22 10 60 bb e8 b5 03 3c ac 55 96 3b
       0.0041968683 -0.0034189303 0.008038975 0.0045878496
0000d0 f4 3c e5 3b 33 33 e2 bb 26 b7 23 3c 33 1e d0 3b
       0.0069957916 -0.006903076 0.009992396 0.0063512563
0000e0 97 83 b6 bb 1b 8d 74 ba 66 fb b0 ba dd c9 3d 3c
       -0.005569886 -0.00093288877 -0.0013502657 0.0115837725
0000f0 80 69 b7 3b 61 b1 ad 3b e4 22 8a bb eb 73 96 3b
       0.0055972934 0.005300686 -0.004215585 0.004591455
000100 5b 88 87 3b b8 2e fc 3b 62 e7 08 3a f9 62 de 39
       0.004136128 0.007695999 0.0005222467 0.0004241688
000110 ea 87 03 3c 3b ea b4 3b ae d5 8b 3b be 1f e4 3b
       0.00802801 0.0055210865 0.004267416 0.006961792
000120 e6 e7 be 3b 36 fd b1 3b 43 0a 2e bc 85 a8 09 3b
       0.0058259843 0.0054317964 -0.010622564 0.0021004986
000130 32 80 18 bc 80 64 04 3b e8 9c 9c b9 05 72 46 3b
       -0.009307908 0.0020201504 -0.00029871543 0.0030280363
000140 07 cf 74 3b b0 01 4c b9 ac 1b ec 3b 9d b6 0e b9
       0.0037354843 -0.00019455585 0.007205447 -0.00013610204
000150 a4 d6 d2 ba 83 2c 95 ba b4 32 c5 3a 4c e7 f5 3b
       -0.0016085696 -0.0011381063 0.0015045018 0.0075043794
000160 15 55 1e 3b 68 9e 4d 3c a5 ac 14 3c 6c 2d c9 3b
       0.00241596 0.012549974 0.009074365 0.006139448
000170 99 59 3c ba 97 31 d3 3a fc 56 fe 39 69 5c 7b bb
       -0.0007184982 0.0016112801 0.00048511464 -0.0038354641
000180 75 63 cf 3b c3 cd 36 3c 03 ec 09 bc ad f9 85 3b
       0.006328995 0.011157456 -0.008418086 0.0040886016
000190 0a 5a dd bb 47 67 29 bc b6 16 f0 3a 24 d5 cf 3b
       -0.0067551183 -0.010339565 0.0018317315 0.006342547
0001a0 e2 3c 6f 3c 33 83 e3 3b 9b 4e 94 3b 08 8e e5 3b
       0.014601918 0.0069431304 0.004525972 0.007005457
0001b0 84 78 06 3a 4a 6a 9a ba da 1a 8d b8 93 ae 02 3c
       0.00051296526 -0.0011780944 -6.7284054e-05 0.007976192
0001c0 d2 88 b0 3b fd b5 c7 3b ae e6 b4 3b 0a 1c b4 3a
       0.005387404 0.0060946927 0.005520663 0.0013741266
0001d0 b7 77 a8 bb 8b b5 8a bb 42 f6 9c 3b 33 51 b2 ba
       -0.0051412242 -0.0042330674 0.0047900984 -0.0013604522
0001e0 38 5d a6 3b 50 66 6b 3b 18 72 63 3b 5f 8b 21 bb
       0.0050770305 0.0035919137 0.0034705456 -0.0024649722
0001f0 dd 6c 42 3b b4 80 c7 b9 f4 ff ef ba 62 28 03 3b
       0.0029666938 -0.0003805213 -0.0018310533 0.0020013084
000200 42 72 34 ba 29 4e 00 3c 80 46 d0 3b 60 43 73 3b
       -0.0006883481 0.007831135 0.0063560605 0.0037119016
000210 1c 29 8d ba 27 38 29 3b ec 19 ff b9 8c 54 56 3c
       -0.0010769698 0.0025820823 -0.00048656703 0.013081681
000220 df 23 b3 bb a8 30 ac 3a 16 b4 7d ba 39 1b 0a 3b
       -0.0054669227 0.0013137059 -0.0009678019 0.0021073355
000230 7d 65 a7 3b 76 e5 ea 3b 15 4b 22 3c 3e dc cc bb
       0.005108534 0.007168467 0.009905596 -0.006251841
000240 98 66 a1 bb 42 4e 06 3c 55 c0 05 3b a1 0b 33 3a
       -0.00492556 0.008197369 0.0020408828 0.0006830041
000250 91 9f f6 39 77 f5 ee 3a 56 31 a9 3b 9c a2 a4 bb
       0.00047039663 0.0018231113 0.005163352 -0.0050242674
000260 a0 7c 85 3b 82 06 89 b9 c7 0e ac ba 6b 66 83 3b
       0.0040736943 -0.00026135525 -0.0013126963 0.004010012
000270 ec 82 6d 3b 8f 33 1a 3b 63 b8 b6 3b d1 d9 79 3b
       0.0036241366 0.0023529266 0.00557618 0.0038124213
000280 e6 46 91 3a e1 89 ef ba 95 02 36 3a 2d b5 e0 3b
       0.0011083751 -0.0018275344 0.0006943134 0.0068575353
000290 d3 f4 8f bb 35 e6 2e 3b 49 3c 9a 3b 3a 3f a3 3b
       -0.004393199 0.0026687507 0.0047068936 0.0049819024
0002a0 00 5d a3 bb a2 61 9d ba dc fe 48 3c 19 86 f6 3b
       -0.0049854517 -0.0012007246 0.012267794 0.00752331
0002b0 1c 6f 00 3c 37 1c c6 ba 16 53 9d ba d0 5c ab ba
       0.007838991 -0.001511461 -0.0012002911 -0.0013073925
0002c0 19 80 c0 3b 9c bb 78 3c d6 94 9c 3b 00 47 bc ba
       0.0058746454 0.015181448 0.004778485 -0.0014364421
0002d0 b8 18 a3 ba 05 e9 ab 3b d6 99 64 3b a5 b5 ba 3b
       -0.001244328 0.005246284 0.0034881732 0.0056979232
0002e0 ce 96 09 3c d3 eb 91 3b 8b ff 12 3c 4b f1 89 3b
       0.008397771 0.0044531613 0.008972059 0.0042096726
0002f0 67 5c 1e 3c 32 69 8b ba c5 7a e5 3a 4a 49 3a 3b
       0.009665585 -0.0010636209 0.0017507902 0.0028425031
000300 2a 05 86 3b 59 bb 8a 3b a5 ce 9b 3b c2 12 8f 3b
       0.004089971 0.0042337594 0.0047548586 0.00436625
000310 d7 38 f1 3a 4d 49 cc 3b 9b dc 01 3b 9f 20 64 3a
       0.001840378 0.006234324 0.001981533 0.00087023707
000320 ff 1d cf 3a 7f 73 8c 3b ab 7b 97 3b 07 5e 24 3b
       0.0015801786 0.004286229 0.0046228967 0.0025080459
000330 eb 4b ba ba 6b df a4 b9 84 39 61 3b ae d5 27 3b
       -0.0014213299 -0.00031446977 0.0034366557 0.002560954
000340 f5 53 95 3b 09 5d d2 bb 2e 89 27 3b 1a 67 ba 3b
       0.0045571276 -0.006419782 0.0025563943 0.00568856
000350 e4 13 6e 3a 28 af 8d 3a 2b 10 6b 3b 26 a5 8b bb
       0.00090819434 0.0010809647 0.003586779 -0.0042616306
000360 e3 34 90 3b 16 e2 f0 ba 97 39 85 b8 50 70 a3 3b
       0.004400836 -0.0018377926 -6.352661e-05 0.004987754
000370 23 f9 ac 3a 6d 0a f7 3b c3 b1 18 3b 0b 7f 89 3b
       0.0013196807 0.0075390846 0.0023299314 0.004196053
000380 ad 77 ea 38 69 97 bb 3b f0 ce 67 b9 73 b9 da 3a
       0.00011180281 0.0057248366 -0.00022106967 0.0016687348
000390 d1 4f 45 3b 5c b9 06 3a 1f 3e 6b 3b 60 d9 93 3b
       0.0030107389 0.0005139315 0.0035895181 0.004511997
0003a0 b1 26 ea 3a 8f 99 80 3a 85 f7 f8 3b 21 0b 04 3c
       0.0017864314 0.0009811389 0.007597866 0.008059294
0003b0 14 fc 42 3c 4c 66 0f 3c 45 8d c2 3b b8 63 d9 3b
       0.01190092 0.008752417 0.005937251 0.006634202
0003c0 72 e2 bb bb 53 16 c6 3a 0f 88 ad 39 49 25 d2 3b
       -0.0057337815 0.0015112854 0.00033098503 0.006413136
0003d0 30 3d 2b 3c 9f 0d a5 39 86 da d6 bb 79 43 e7 bb
       0.0104516 0.000314814 -0.0065568117 -0.007057604
0003e0 fa 5d a1 3a 47 9b 39 3b b2 11 93 3b 27 b9 a4 3b
       0.0012311332 0.0028321312 0.0044881934 0.0050269547
0003f0 af a0 1b 3c ce f4 95 3b e9 85 b5 39 e0 f8 e3 39
       0.009498759 0.004576302 0.0003462278 0.0004348224

network_body._body_endoder.seq_layers.2.weight f4 [256, 256]
000000 c0 d8 fc 3d a6 6d 6a 3d e4 42 c7 3c 41 31 fd bd
       0.12346029 0.057233475 0.024323888 -0.1236291
000010 77 91 83 3c 6f 95 a3 bd 53 dd aa 3d 23 8a be 3c
       0.016060574 -0.079874866 0.083429955 0.023259228
000020 8b aa a9 bd 6e 34 5a bd cb 4b 81 bd 9e c3 b2 3b
       -0.082844816 -0.053272657 -0.063132845 0.0054554483
000030 a2 21 96 bd 55 af d4 3d 6c 1a 8c bd 34 ed b0 3c
       -0.07330634 0.103850044 -0.06840977 0.021597482
000040 4a 35 d3 bc 02 85 ff 3b 22 bc 93 bd d5 2c 5c 3d
       -0.025782246 0.007797838 -0.07213618 0.053753693
000050 02 bf b6 bd 1c 38 3b bd 46 4d 04 3d d7 3b fe bd
       -0.089231506 -0.045707807 0.032300256 -0.12413757
000060 22 e3 83 bd f7 99 31 bd 48 14 c8 3d 78 55 de 3d
       -0.064398065 -0.043359723 0.09769493 0.108561456
000070 d4 1e 90 3d 85 39 2c 3d 10 05 63 bd c3 a5 0c 3d
       0.0703713 0.042047042 -0.05542475 0.03433777
000080 4b 1b 4c bd ba 8f ea 3d 7d a3 20 3e 41 05 07 be
       -0.049830716 0.11453195 0.15687366 -0.13185598
000090 51 02 29 bd 2c 24 87 3d 38 53 cc bc 71 bc 5d bc
       -0.041261975 0.06598696 -0.024942026 -0.013533697
0000a0 4e 15 4a 3c 2d a0 1b 3d 45 e4 91 bd 77 0a 51 3d
       0.012334181 0.037994552 -0.07123617 0.05103537
0000b0 ac 2c 47 bd 1d 14 5b 3d 54 07 41 3b b5 4f 0f 3e
       -0.048626587 0.05348598 0.002945383 0.1399525
0000c0 0e 2d 3c bc 89 d2 5a 3c 65 45 05 bd 74 8b 8f bd
       -0.011485351 0.01335586 -0.032536883 -0.070090204
0000d0 16 d3 b0 bd 5e 2c 01 3d 7c 0a b0 3d ce b7 31 bd
       -0.086340114 0.031536452 0.0859575 -0.04338818
0000e0 61 8a 28 3d 4c 79 ea 3c 3c 4b 0a 3d 5a c2 84 3d
       0.041147593 0.028622292 0.033763155 0.06482382
0000f0 6e 98 16 bd bb 58 05 bd 84 db 93 bd 2d 94 c6 bc
       -0.036766462 -0.032555323 -0.07219604 -0.024240578
000100 1e 14 45 3d c7 3a 06 3d 59 87 85 bc f4 63 5c bc
       0.04811489 0.0327709 -0.01629989 -0.013451565
000110 3f d9 fe 3c e5 c1 17 3e a8 c8 80 3b cc e2 06 3d
       0.03110945 0.14820059 0.00393017 0.032931134
000120 dc 99 17 3d a0 a6 36 3d 61 7c 66 bc f9 89 0a be
       0.037011966 0.0445925 -0.01406774 -0.13529195
000130 fe a5 5f 3d 68 01 03 bd 2d 68 d5 bd 25 8f 4b 3c
       0.05460166 -0.031983763 -0.104202606 0.012424265
000140 7c d8 50 bc 3d 36 8f 3c c9 84 71 3a 5a 4d 6c 3d
       -0.012746926 0.017481918 0.0009213207 0.057690956
000150 30 97 b4 bd 77 32 02 be 7a ad a2 bc 13 4a 1e ba
       -0.08817899 -0.12714563 -0.01985811 -0.00060382596
000160 03 e6 18 3e aa 82 3e 3d af 13 c9 3b 0b 79 1d 3c
       0.14931493 0.04651133 0.0061363797 0.009611378
000170 ff a2 7e bd fb 85 62 bd 4f 1c fd bb ab 73 18 bd
       -0.062167164 -0.055303555 -0.007724322 -0.037219685
000180 a8 57 b5 3d a4 ae c2 bd 3d 81 c6 bd 9e f6 92 bc
       0.0885461 -0.09505966 -0.09692619 -0.017939862
000190 0d f2 94 ba a8 7c da bd 8b 04 9e 3c b4 6f db bd
       -0.0011363641 -0.106683075 0.019289276 -0.10714665
0001a0 31 ff 3c 3d 54 07 3f 3d 56 7b 90 bd 2c f4 33 3b
       0.046141807 0.046637848 -0.070547745 0.002745877
0001b0 e0 3e 23 3e ad df f6 3c 21 0a aa 3c ed 89 91 bd
       0.15941954 0.030135954 0.020756783 -0.071063854
0001c0 5a 90 48 3d b3 97 4d 3d 99 24 b1 3c f9 fd ca bd
       0.04896579 0.0501935 0.021623896 -0.09911723
0001d0 1f b8 86 bd 31 f2 d5 3d 24 78 3b bc 8a 09 35 bb
       -0.06578087 0.10446585 -0.011442218 -0.0027624094
0001e0 3d 5a 94 3c bb df 82 bd 87 d2 26 bd ea fb 9b bd
       0.018109435 -0.063903295 -0.04072812 -0.07616408
0001f0 48 f3 63 3a 52 65 37 bd 53 4e dd 3c 53 e4 86 bd
       0.00086956145 -0.04477436 0.027014887 -0.06586518
000200 62 32 0d be 20 15 0d bc 38 66 c4 bc e2 01 07 bc
       -0.13788751 -0.008610994 -0.023974523 -0.008240195
000210 c0 a1 a3 bd 18 9c 02 bd fa 63 5a 3c c9 3e 35 3d
       -0.07989836 -0.031887144 0.0133295 0.04424933
000220 32 79 31 3c f8 20 85 3c 8f 39 5d 3b 58 26 a7 3d
       0.010832118 0.016251072 0.0033756231 0.0816161
000230 54 30 94 3d bc fd 5d 3d 36 de 05 3c bc cf 09 bd
       0.0723578 0.054197058 0.008170655 -0.033645377
000240 dc d2 19 3d 61 62 cf 3d 29 4a aa bc ee 0f dd bd
       0.037554607 0.10126186 -0.020787315 -0.10794054
000250 cd 7f 9f 3d 48 f0 de 3d 3d 0f 7f bd b3 a4 a6 bd
       0.07788048 0.10885674 -0.06227039 -0.08136883
000260 3c 86 b1 bd 16 d7 6a bd 53 c0 fc 3c 2f 7d 47 3d
       -0.08668181 -0.05733403 0.030853426 0.04870337
000270 ca b3 2a 3d cf ad 6d bc 72 fe e1 3d b7 4d 2b bd
       0.041675366 -0.014506771 0.1103486 -0.04182216
000280 79 3c d8 3c 8e 6c 95 3b 70 a3 97 bb b5 ab e9 3d
       0.026396023 0.00456006 -0.0046276376 0.11409704
000290 70 e8 95 3d ee 3d 0a 3e 1b e7 71 3d b0 36 90 bb
       0.073197246 0.13500187 0.05905829 -0.0044010505
0002a0 00 e6 21 bd 36 64 9f bc aa 4b d4 bd 8d d0 cc bc
       -0.039525986 -0.019456964 -0.10365994 -0.025001789
0002b0 08 a5 db 3d ab 75 d3 3c 0a e0 19 bd be 10 db bc
       0.107248366 0.025812944 -0.037567176 -0.026741382
0002c0 10 1a f7 bc d5 a7 1a 3d 47 2d c9 bc 1f ea e5 bb
       -0.030163795 0.037757713 -0.024557723 -0.007016435
0002d0 5c 7c 3d 3d 16 3a eb bc e8 45 0a 3d b4 2d ae 3d
       0.046261176 -0.028714221 0.033758074 0.08504811
0002e0 7f bc 53 bb ec e5 ce ba 06 62 b4 bb 54 ba 06 3d
       -0.0032308397 -0.0015785075 -0.0055048494 0.03289254
0002f0 76 6d db 3d 66 4f 3e bc 9d 33 d5 3d aa 50 16 bd
       0.107142374 -0.01161561 0.10410235 -0.03669802
000300 e7 ef f5 3c 41 d4 5c 3c 0b a2 41 3d 2b 10 fa bc
       0.03002162 0.01347834 0.047273677 -0.030525288
000310 fa 90 97 bd 93 5e f6 3c 15 8a 8a bd 43 fb a4 3b
       -0.07400699 0.030074393 -0.06764618 0.0050348355
000320 68 44 64 bd 24 3d 21 3e 92 53 3b bc b5 b7 a9 bd
       -0.0557293 0.1574598 -0.011433499 -0.082869925
000330 c9 de 11 bd 7e 0b a4 3c 5b 31 da bc c9 a8 ea bb
       -0.035612855 0.020025011 -0.026634863 -0.007161234
000340 62 71 38 3d 56 8e 4c bd 16 4f 78 3b 86 78 a2 3d
       0.045030005 -0.04994043 0.0037888936 0.07933144
000350 70 a7 ff bc 92 b3 38 bd 62 6c b8 bb 7f dd b2 3d
       -0.03120777 -0.045093127 -0.0056281546 0.08733653
000360 c9 36 79 3c 98 62 c7 3c a4 1d f3 3d a5 c4 07 3e
       0.015210816 0.024339005 0.11870888 0.13258608
000370 cf ed bf bd 45 61 23 bc cd 1c ae bd 74 41 ca bc
       -0.0937153 -0.009971921 -0.08501587 -0.024689414
000380 a3 f9 8b bd 3c b8 f5 bd d8 d6 2c bd 4f 73 dc 3c
       -0.06834724 -0.119980305 -0.04219708 0.026910452
000390 b8 28 1f bc a4 c4 a1 3c 30 74 95 3d 17 88 68 3b
       -0.009714298 0.019747086 0.07297552 0.0035481506
0003a0 3d be d1 bc 8f 37 b4 3c 5d eb b4 bd 5d 61 73 bb
       -0.025603408 0.021999149 -0.088339545 -0.003713689
0003b0 ad 56 13 3d 83 f3 0e 3d e3 cb 88 3d f2 1c a3 3d
       0.035971332 0.0349002 0.06679513 0.07964505
0003c0 d7 6e a2 bd 2a 89 ab bd c1 6d c7 3d 32 c7 95 3d
       -0.07931297 -0.08375771 0.09737731 0.07313384
0003d0 51 18 1a bc 68 1a 8f ba c6 43 94 bd ac 2a 95 3d
       -0.009405212 -0.0010917904 -0.07239489 0.0728353
0003e0 cb ba a4 3d 02 56 de 3c ab 3a ab bd ac 0a ff 3b
       0.080434404 0.027140621 -0.083607994 0.0077832546
0003f0 9a 1a 51 bd 45 e8 8a bd 6e c5 e6 3b 2c 12 e4 bc
       -0.05105076 -0.06782583 0.0070425784 -0.027840696
