results/R5/AgentController/AgentController-499997.onnx (onnx, 657373 bytes, 14 tensors)

83 f4 [116]
000000 8a e0 94 3e 9f 68 3b 3e 4b 67 70 3e 65 c3 8d 3e
       0.2907756 0.18301629 0.23476903 0.27688137
000010 8e 32 94 3e 9a 35 38 3e b7 ed 70 3e bb da 8d 3e
       0.2894482 0.17989197 0.23528181 0.2770594
000020 e6 eb 93 3e 0d 47 3c 3e af 26 6d 3e d0 ae 8d 3e
       0.28890914 0.18386479 0.23159288 0.27672434
000030 b1 e3 92 3e 6c d8 34 3e 8b df 6f 3e 18 2f 8e 3e
       0.2868934 0.17660683 0.23425119 0.27770305
000040 8d cc 91 3e 3d 5b 3a 3e dc db 68 3e 3b ba 8d 3e
       0.28476372 0.18198867 0.2274012 0.27681145
000050 60 64 91 3e 52 d7 30 3e 71 c0 6e 3e 7f 8f 8e 3e
       0.28396893 0.17269638 0.23315598 0.27843854
000060 c6 96 8e 3e 36 84 37 3e 4f 53 62 3e 30 41 8d 3e
       0.27849406 0.17921528 0.22102092 0.27588797
000070 db 4d 90 3e 08 4b 2e 3e 17 ae 6d 3e d8 fe 8e 3e
       0.281844 0.1702081 0.23210941 0.27928805
000080 5a 84 8b 3e 41 7f 34 3e 50 53 5c 3e ff b3 8c 3e
       0.27249414 0.17626669 0.21516156 0.27481076
000090 ef 9b 8f 3e 73 fc 2d 3e 2f 14 6c 3e f4 55 8f 3e
       0.28048655 0.16990833 0.23054574 0.27995265
0000a0 73 2e 8a 3e 57 20 33 3e 44 c3 59 3e 7f 3f 8c 3e
       0.26988563 0.17492805 0.21265894 0.27392194
0000b0 b2 7e 8e 3e 38 05 2f 3e 39 6c 68 3e 12 54 8f 3e
       0.27831036 0.17091835 0.22697534 0.27993828
0000c0 91 a1 89 3e 7c 9f 35 3e ff 39 56 3e 01 c8 8b 3e
       0.26881078 0.1773662 0.20920561 0.27301028
0000d0 d5 75 8f 3e b0 24 33 3e ca e7 67 3e 70 41 8f 3e
       0.28019586 0.17494464 0.22647014 0.27979612
0000e0 7d 9d 88 3e 3e 5f 36 3e 8b ba 52 3e 44 06 8b 3e
       0.26682654 0.1780977 0.20578973 0.27153218
0000f0 a1 fc 8f 3e a1 42 37 3e 4b 4f 66 3e b0 d0 8e 3e
       0.28122428 0.1789651 0.22491185 0.2789359
000100 92 ff 87 3e 86 f3 36 3e a7 87 50 3e a9 64 8a 3e
       0.26562172 0.17866334 0.20364247 0.27029923
000110 6c d8 90 3e d1 27 3c 3e 78 d8 64 3e 99 ee 8d 3e
       0.28290117 0.18374564 0.22348201 0.27721098
000120 e7 53 88 3e 90 e1 37 3e 03 a7 50 3e 02 bf 89 3e
       0.26626512 0.17957139 0.2037621 0.2690354
000130 13 5d 93 3e 07 1b 45 3e 88 94 64 3e 1a df 8c 3e
       0.28781947 0.19248591 0.22322285 0.27513963
000140 7e 0a 88 3e c2 8c 38 3e c9 40 4f 3e 8c ff 88 3e
       0.26570505 0.18022445 0.20239557 0.26757467
000150 cf 5c 95 3e 65 12 4f 3e ed ad 61 3e 38 b2 8b 3e
       0.2917237 0.2022186 0.22039004 0.27284408
000160 ec a8 89 3e cc fe 3a 3e 48 bc 51 3e 64 a8 88 3e
       0.2688669 0.1826126 0.2048198 0.26690972
000170 2b 43 97 3e 40 ef 57 3e 2a 12 5f 3e 50 cc 8a 3e
       0.29543433 0.2108736 0.21784273 0.27109003
000180 13 ef 8b 3e d4 c5 3e 3e 0d e3 54 3e 5c d4 88 3e
       0.27330837 0.18630153 0.20789738 0.26724517
000190 0e fd 96 3e a8 3c 57 3e 84 e7 5e 3e 1a 4c 8a 3e
       0.2948994 0.21019232 0.21768004 0.27011186
0001a0 fb 38 90 3e fa 85 48 3e 85 8d 58 3e d8 14 89 3e
       0.28168473 0.19582358 0.21147735 0.26773715
0001b0 bd c6 93 3e 5a 4f 4f 3e af c1 5c 3e 1c ab 89 3e
       0.28862563 0.20245114 0.2155826 0.2688836
0001c0 bd c6 93 3e 5a 4f 4f 3e af c1 5c 3e 1c ab 89 3e
       0.28862563 0.20245114 0.2155826 0.2688836

86 f4 [3]
000000 d2 aa db 40 c4 03 bf 3b 18 a9 ff 40
       6.864602 0.0058293063 7.9893913

action_model._continuous_distribution.log_sigma f4 [1, 2]
000000 0d e3 6d ba a1 fb 0a 3a
       -0.0009074666 0.0005301778

action_model._continuous_distribution.mu.bias f4 [2]
000000 b4 1d 58 3a 0b 20 1a 3b
       0.0008244172 0.0023517634

action_model._continuous_distribution.mu.weight f4 [2, 256]
000000 a5 58 d6 3a e1 43 03 3c 5c 9d f6 3b 19 9a 30 3c
       0.0016353322 0.008011789 0.007526083 0.010778927
000010 18 4a 10 bc ac 27 9a bb 3f 84 10 bb 68 55 13 bb
       -0.008806728 -0.0047044363 -0.002205148 -0.0022481326
000020 2c 30 1f 3d a8 af f0 bb 54 8b 18 3c 9d a2 d0 bb
       0.0388643 -0.0073451586 0.009310562 -0.0063670413
000030 9d fe 00 3c 68 b1 fe 3c 05 3e d6 bb bd b5 ea ba
       0.007873205 0.031090453 -0.006538155 -0.0017906945
000040 4b 9a f9 39 40 2c 4a ba a2 81 8d 3c e2 15 7e 3c
       0.00047607938 -0.0007712282 0.017273728 0.015508147
000050 74 9c ed bc 29 c7 9b ba aa ba 54 3c 13 63 a9 bc
       -0.029005267 -0.0011884916 0.012983957 -0.020677125
000060 1f 8e a6 bb b8 b6 94 3c 07 2f 1c 3b 18 80 ba 3b
       -0.00508286 0.018153533 0.0023831741 0.0056915395
000070 d5 58 65 3a ab 9b 13 bc 9f c2 de 3c 73 41 95 3c
       0.0008748894 -0.009009282 0.027192412 0.018219685
000080 68 16 45 3c 06 69 f9 3b b6 e7 04 3c 0c 8e 20 3c
       0.012029268 0.0076113967 0.008111885 0.009799492
000090 60 02 bb 3b ea 7a 96 bb 60 f2 87 3c 98 17 5c 3c
       0.00570707 -0.004592289 0.016595066 0.01343336
0000a0 2e 28 6c 3b 4c 48 d1 3b ec c9 b2 3c 42 75 f4 bb
       0.003603469 0.0063867923 0.0218248 -0.0074602673
0000b0 25 50 7d bc 34 a2 88 bc e8 24 61 3c 21 78 a6 bc
       -0.0154610025 -0.016678907 0.013741709 -0.020320954
0000c0 43 a0 bb ba 07 d8 0b bc f7 28 a0 bc 42 12 44 3a
       -0.001431473 -0.008535392 -0.019550784 0.0007479527
0000d0 3e f8 77 bc 19 f5 ca bc 0a 75 48 bc 58 c4 15 ba
       -0.015134869 -0.024775075 -0.012234936 -0.00057131564
0000e0 5c 2b 30 bb be 32 8e 3c 67 65 7d 3b 8d 89 a0 3c
       -0.0026881313 0.01735818 0.0038665177 0.01959684
0000f0 22 15 5b 3b 53 b1 17 3c d5 3d 58 bc 10 66 85 bc
       0.0033429344 0.009258586 -0.013198336 -0.016284019
000100 a6 01 83 ba ce c3 da 3b 33 2f 8f bc c6 2c 45 ba
       -0.0009994998 0.006676174 -0.017478561 -0.00075216254
000110 92 82 d4 ba 55 0a 34 bc 8c f5 2f 3c 6d ad ef 3c
       -0.0016213229 -0.0109887915 0.010739695 0.0292575
000120 41 0a f2 3b c2 f2 98 3b 2f 42 aa 3a 54 3d 17 3c
       0.0073864763 0.004667611 0.0012989695 0.00923093
000130 93 18 fb bb fa 89 b6 3c a9 d4 c3 3a 2b 42 20 3c
       -0.0076628416 0.02228259 0.0014940697 0.009781401
000140 74 7f 97 3c b7 ce a8 3b 8c b9 d6 bb 93 95 f9 3a
       0.018493392 0.0051515955 -0.0065528806 0.0019041769
000150 b1 5f 09 bc 04 81 29 3b b7 e1 bd 3c e3 bf d1 ba
       -0.008384631 0.0025864253 0.023178918 -0.0016002621
000160 9c 9e 1b bc 85 f1 2c 3c 78 94 28 bc 60 ae 53 bc
       -0.009498265 0.01055563 -0.010289304 -0.012919992
000170 77 6a 0f 3c f3 13 d5 bb b2 1d 97 bc 51 f4 13 3c
       0.008753411 -0.0065026223 -0.018446777 0.009030418
000180 ce 9e 30 3b 62 83 8d 3c 12 33 6d 3b 8a 02 0d 3d
       0.0026950124 0.017274562 0.003619377 0.03442625
000190 e4 cd 14 3c 43 f6 64 bb be 6e 32 bc 0d 4a b0 3c
       0.009082291 -0.0034936822 -0.010890661 0.021519685
0001a0 c3 22 b1 3c 88 ed 92 3b c0 cf 0b ba 06 3d 22 3b
       0.021623021 0.0044838823 -0.00053333864 0.002475561
0001b0 81 1c 97 bb dc 4f 35 3c 32 54 a8 3c 59 b5 bb bb
       -0.004611552 0.011066403 0.02054796 -0.0057284054
0001c0 b4 d2 43 bb dd 20 87 3b c5 3a 12 3d 17 d0 52 bb
       -0.0029880228 0.0041237907 0.03570058 -0.0032167488
0001d0 ad d2 e8 bb 3f ed dc ba 18 2e c2 bb d9 3c a1 bb
       -0.0071051926 -0.0016855373 -0.005925905 -0.0049205837
0001e0 2c 11 cd 3a 55 c9 10 3c d6 30 3c 3b e9 4d 20 3b
       0.0015645376 0.008837064 0.0028715632 0.00244605
0001f0 81 bd 4d 3c 7c e4 b1 3c 59 7e b0 bb 43 93 31 3d
       0.012557388 0.021715395 -0.0053861556 0.04335333
000200 16 5b 01 3a 2d ef 98 bc 33 78 0a bb 22 f8 06 bd
       0.00049345323 -0.018668735 -0.0021128773 -0.03295148
000210 63 b0 cf bb 47 4c 1a bc 64 20 fa 3c 4e e7 1f bc
       -0.0063381656 -0.0094176 0.030533023 -0.009759737
000220 c2 ec 6a 3c 60 65 11 bb aa fc 7b 3a 9c 2b f8 ba
       0.014338674 -0.0022185668 0.000961254 -0.0018933895
000230 0b 80 06 bd 53 f8 21 bc f4 dd c0 bc 2f 18 4c 3b
       -0.032836955 -0.009885865 -0.023543335 0.0031142344
000240 fb 05 d9 bc bf cb 65 3b 8c 6b be bb b4 42 47 3b
       -0.02649211 0.003506407 -0.0058111604 0.0030404748
000250 70 1e 2a 3c 45 d2 91 39 32 83 94 bc ee fe 76 bb
       0.010383233 0.00027813218 -0.018128965 -0.003768857
000260 14 63 fb 3b 1b 9b 0b 3b 5f b7 d6 bb 14 45 87 3c
       0.007671723 0.0021302167 -0.0065526213 0.016512431
000270 9a 90 99 3c ba e1 1e 3c 8d 57 c3 3b c9 f7 67 3b
       0.01874571 0.009697372 0.0059613646 0.0035395494
000280 92 7e 13 bb a8 ba f0 3c 31 56 83 3c 48 9c aa bc
       -0.0022505862 0.02938588 0.01603231 -0.020826474
000290 49 93 97 3b db 58 55 bc c6 0f a5 3c 7a a0 b0 bb
       0.004625712 -0.013021673 0.020149123 -0.005390224
0002a0 d4 99 d0 bc 76 33 0f bb a9 61 2e bc 73 1f 08 bb
       -0.025463976 -0.0021850741 -0.010643401 -0.0020770698
0002b0 d7 9e 88 bc 1f 7f 50 ba 75 90 d7 bb 8e de 7c 3c
       -0.016677303 -0.0007953513 -0.0065785 0.015433921
0002c0 91 8a e8 3a 5f 23 92 bc 2c 7a ef bb 08 d7 85 3c
       0.0017741491 -0.017839132 -0.007308265 0.016337886
0002d0 9e 63 b9 3b 45 b3 06 bc b5 80 4a bc db c7 fa bb
       0.0056576272 -0.008221452 -0.012359788 -0.007653219
0002e0 e6 94 10 3c 77 78 c0 bc 92 92 ba 3a ce 47 07 3d
       0.008824563 -0.023494942 0.0014234355 0.033027463
0002f0 e7 6b da 3c ae 88 c1 3b e2 83 04 bd 23 95 2a 3c
       0.02666278 0.005906186 -0.032352336 0.0104115335
000300 64 1c 99 bb df d6 30 bb d2 92 b5 3a 50 d8 df bc
       -0.004672574 -0.0026983542 0.001385296 -0.027324826
000310 cf b6 c4 3c 21 5d eb bc fc 6c 81 3c 74 fd 8b bc
       0.024012951 -0.02873093 0.015799038 -0.01708863
000320 6a 5d 15 bc 42 13 96 3a b6 11 73 3c c6 f8 87 3b
       -0.00911651 0.0011449831 0.014835766 0.004149529
000330 f6 42 07 3c 80 02 6a 3c 79 f1 8f 3a 48 09 16 3d
       0.008255711 0.014282823 0.0010981999 0.036629945
000340 ea 2b 43 3c ee 4d e4 bc e9 51 b0 3c ef 07 22 bb
       0.011912325 -0.027869191 0.021523433 -0.0024723967
000350 71 fd 07 bc 2d ec a0 bb ca 29 39 bd 10 1b 2a 3c
       -0.008300171 -0.004910967 -0.04520587 0.010382429
000360 33 ee 2c bc 16 a0 4a 3c 0a 87 4e bb 0a 4a b6 bc
       -0.010554838 0.012367269 -0.0031513595 -0.022252101
000370 66 2e 21 bc 97 f9 bb ba 10 a1 ce 3c fc 40 81 3c
       -0.009837722 -0.0014341351 0.025223285 0.015778057
000380 21 d2 6b bc 2b 4c ee bb c2 35 09 bb cc e9 99 bc
       -0.01439336 -0.0072722635 -0.0020936583 -0.01878824
000390 31 69 f6 bb 5a 92 30 bb 56 94 88 bc 6d 26 09 3c
       -0.007519864 -0.00269427 -0.016672295 0.008370978
0003a0 44 b9 84 3c a7 ac 87 bb a3 87 48 3c 90 39 9c 3a
       0.016201623 -0.004140455 0.01223937 0.001191901
0003b0 19 36 8a bc 61 8d 14 bc 13 1f dd bb ba 4d 2b bb
       -0.016871499 -0.0090669105 -0.006748089 -0.0026138858
0003c0 05 f9 e1 3c 73 e7 5a bb cb 25 f4 bb 3e 8d 55 bc
       0.027584562 -0.0033402115 -0.0074507943 -0.013034163
0003d0 80 85 23 bc 1a 75 47 bc d3 bc 55 3c e7 7b 9b 3a
       -0.009980559 -0.012173915 0.0130455075 0.0011862487
0003e0 0c 32 b2 3c 73 09 b2 bc 9c 58 09 3c b3 51 11 3c
       0.02175238 -0.021733021 0.0083829425 0.008869576
0003f0 b0 27 f9 3b 02 d4 33 3c 41 03 c2 bc a2 e9 20 ba
       0.007603608 0.01097584 -0.023683192 -0.00061383296

action_model._discrete_distribution.branches.0.weight f4 [1, 256]
000000 89 4c 8b bb f8 2a e6 3a f0 13 e4 3b 4a 8b f3 bb
       -0.004251067 0.0017560413 0.0069603845 -0.007432376
000010 00 f7 60 3b 95 b7 c7 3b 3a 62 84 ba 7a 40 da ba
       0.003432691 0.0060948827 -0.0010100075 -0.0016651296
000020 36 d4 b4 3a 58 71 51 bb 10 04 b8 bb f7 39 36 3b
       0.0013796154 -0.0031958427 -0.0056157187 0.0027805546
000030 1c f5 2b ba f8 65 0a bc 5f b7 f9 3a 8b 1c ec b9
       -0.00065596565 -0.008447163 0.0019051841 -0.00045034694
000040 34 28 b4 ba 1d d9 ec 3b bb df 8c 3b e5 f1 a5 3b
       -0.0013744892 0.0072280304 0.0042991317 0.0050642365
000050 bb fa 10 3c 9b c2 17 bc c3 4c aa bb ac 48 03 3c
       0.008848841 -0.009262706 -0.005197139 0.008012932
000060 ea 7d bb ba e9 0e 0c 3c 07 dd 85 3b 05 bd 83 3b
       -0.0014304493 0.008548477 0.0040851864 0.0040203356
000070 37 ca 0b ba f9 ba a5 bb 68 03 de bb 32 2c ad 3b
       -0.00053325616 -0.0050576893 -0.0067753084 0.0052848095
000080 18 83 d2 37 61 aa b0 ba c6 6c 1b bc c1 4a ab ba
       2.5094996e-05 -0.0013478511 -0.009486383 -0.0013068543
000090 1b 63 87 39 6c c7 c3 bb 01 e9 bc 3a 6f 61 fa 3a
       0.00025823046 -0.0059747007 0.0014412702 0.0019102524
0000a0 b3 0e e5 3a 7d c8 ea ba 82 bc f0 3b 83 56 e3 3b
       0.0017475694 -0.0017912533 0.0073466906 0.0069378032
0000b0 bb 14 bf 3b e9 8b 15 3b 7a 01 da ba 78 92 0d bb
       0.0058313287 0.0022818989 -0.001663252 -0.0021602195
0000c0 55 16 95 3a 33 c3 27 bc 03 8b f5 bb f1 1b 08 3b
       0.0011374453 -0.01023941 -0.007493378 0.0020768608
0000d0 7f 29 3f bb 70 55 70 bc d3 38 b2 ba 5f 5d e1 bb
       -0.002916902 -0.014668807 -0.0013597257 -0.006877586
0000e0 fb 9e 09 3c 8e 8f 00 ba d7 a4 fd bb 87 1f 96 3a
       0.00839972 -0.0004904204 -0.0077405977 0.0011453488
0000f0 db 84 85 3a f0 06 e9 bb a0 d3 e2 3b 0a ab 4d 3c
       0.0010186689 -0.0071114227 0.0069222003 0.012552986
000100 0e 8b bc 3b e2 51 81 ba 57 39 a4 39 72 bb 7a 3b
       0.0057538813 -0.0009866322 0.0003132324 0.0038258699
000110 82 6a 77 3a 3d 80 b3 3b 0d fe c2 3a 87 ab 6b bb
       0.0009438173 0.0054779337 0.0014876738 -0.0035960393
000120 d5 21 72 3c 0b 08 15 3c 88 1e db 38 03 e5 8d 3a
       0.014778574 0.009096156 0.00010448421 0.0010825697
000130 8b f2 0d 3c 8a f2 f0 3b b3 7c df 3a c9 b2 b7 3b
       0.008663784 0.0073531317 0.0017050713 0.0056060296
000140 70 87 05 3c 3a ae 41 b8 ea 48 05 bc f8 26 2e 38
       0.008149967 -4.6177047e-05 -0.00813506 4.1521125e-05
000150 a6 fe c5 bb 3c 58 40 3b af 47 51 bb ff aa 0c 3c
       -0.0060423193 0.0029349467 -0.0031933596 0.0085856905
000160 4f 3e 56 3c ef f8 b8 3a 5a 54 ee b8 c8 fd 0a ba
       0.013076379 0.0014112274 -0.00011364436 -0.00053020986
000170 70 5b 50 bc e7 f1 8b 3b 63 94 29 3c a1 9f 94 bb
       -0.012717113 0.0042707804 0.01035032 -0.004535631
000180 12 d7 e6 3b 01 4f 9d bb 5d 34 77 3b 16 07 8b bb
       0.0070446813 -0.0048006778 0.003772042 -0.004242788
000190 09 24 86 bb a0 a3 ce 3a d4 c0 05 bb c9 44 a7 3b
       -0.004093651 0.0015765317 -0.0020409124 0.0051046354
0001a0 f3 c2 89 3b 4f bf 1d 3c cf 74 a6 bb 33 44 c5 3b
       0.004204148 0.009628131 -0.0050798426 0.006020093
0001b0 c3 31 81 38 5a a1 c1 3a ca ef d7 3b ca 0a 59 3b
       6.160468e-05 0.0014772818 0.0065898644 0.0033118003
0001c0 53 49 01 3c 2a 23 a6 bb da 94 ca 3b 82 47 d3 3a
       0.007891017 -0.00507011 0.0061822953 0.0016119333
0001d0 38 4e 4b bb fd 6f 2c 3b 0d c5 0e ba c7 b5 93 bb
       -0.0031021964 0.0026311867 -0.0005446233 -0.0045077535
0001e0 03 2f e4 bb 1e 9d 40 ba 0e 34 98 b9 32 86 ef 3a
       -0.006963612 -0.0007347631 -0.00029030483 0.0018274246
0001f0 ed b8 67 bc dd de 85 bb 7a 4c db bb 87 24 60 ba
       -0.014143211 -0.0040854053 -0.0066924663 -0.0008550365
000200 cb 9a be 3b 1c 9b a3 3b 5b 41 9d bb 97 b6 00 3c
       0.0058167926 0.0049928557 -0.0047990507 0.007856033
000210 0f ab 35 bc fb 22 87 bc 63 bf 72 3b 06 9f b7 bb
       -0.011088147 -0.016496172 0.0037040345 -0.005603674
000220 15 f8 d2 3a 33 1b 23 3c 30 cc 6e 3b af 45 0d bb
       0.0016095663 0.009955215 0.0036437623 -0.0021556427
000230 ed dc 9b bb 07 e8 9c 3b 97 18 c3 3a 29 76 2e ba
       -0.004756561 0.004788402 0.0014884648 -0.00066551805
000240 57 5c f5 3b 9f 77 e8 3b 9f e1 71 3c 13 31 d7 bb
       0.0074878144 0.007094338 0.014763265 -0.0065671294
000250 bc 91 83 3b 4f 96 0f 3b c3 a4 70 3a 8a 1c 11 bc
       0.0040151756 0.002190966 0.0009179825 -0.008856902
000260 82 7b be 3a 07 82 82 38 e9 4d 86 39 b1 e4 97 3a
       0.0014532658 6.2231025e-05 0.0002561652 0.0011588541
000270 da d6 83 b9 91 38 a1 3b 52 69 0c bc d9 30 9e bb
       -0.00025146344 0.0049200733 -0.008570032 -0.0048276004
000280 aa 54 86 bc d4 d9 8e b9 b7 8b 82 3b 97 e2 ad bb
       -0.016397793 -0.00027246645 0.0039839405 -0.0053065526
000290 6f b5 59 3b cb 43 9c ba 3a 01 a8 3b 2f 3e a7 3b
       0.0033219715 -0.0011922059 0.0051270993 0.0051038484
0002a0 d7 a4 6e 3b 18 17 66 3b 70 02 62 bb fb 98 b2 bb
       0.003641417 0.003510898 -0.0034486316 -0.0054503656
0002b0 6a d0 c0 bb a5 7b d4 3b 70 e1 63 3b b0 17 11 bb
       -0.00588422 0.006484466 0.0034771822 -0.0022139363
0002c0 5b a4 f0 3b b8 6f 51 3b 67 c2 e5 3b 11 36 46 bb
       0.0073438114 0.0031957459 0.0070117 -0.0030244628
0002d0 74 84 8a ba 58 91 96 ba 2b fb 2b 3b 5f ea 1f 3b
       -0.0010568039 -0.0011487408 0.0026242237 0.002440117
0002e0 f7 24 9f 3b 5a c6 8a 3b 0e 79 88 b9 6a 85 ad b9
       0.0048567015 0.004235071 -0.00026030134 -0.00033096533
0002f0 fb 89 d3 3b ad 54 fe 3b d1 6a 05 bc 9e 36 2c 3c
       0.0064556575 0.007761559 -0.008143143 0.010511069
000300 82 a4 00 bc c3 fd 0c bb 03 b5 85 3b 15 cd db bb
       -0.007851722 -0.0021513558 0.004080416 -0.0067077973
000310 21 58 af bb 1a f9 51 bc a8 12 50 38 d5 25 b8 bb
       -0.005351082 -0.012815738 4.960844e-05 -0.0056197443
000320 7f e4 c2 ba 77 06 86 3c e7 87 0d bb 9f 02 27 bc
       -0.0014869123 0.016360505 -0.0021595897 -0.010193496
000330 97 83 94 3b cb bc 3b bb 0d 8d 48 bb cb 2d 99 3a
       0.0045322883 -0.0028646465 -0.003060165 0.0011686621
000340 e4 31 8d 3b c7 cd 65 3b d0 45 3b 3c 11 b3 80 bb
       0.004308926 0.003506528 0.011430219 -0.0039275964
000350 39 49 cc bb ee ea 91 bb 8a 9c 79 3b 3b 83 8c bb
       -0.0062343148 -0.0044530546 0.003808769 -0.004288105
000360 60 60 28 3c 96 b4 90 bb 6f bb 0f bc d7 03 cf 3a
       0.010276884 -0.004416059 -0.008772715 0.0015793991
000370 2f 6c ea 3a 37 94 ba 3a c5 e4 18 3c e7 43 77 3b
       0.0017885024 0.0014234845 0.009331887 0.0037729682
000380 1b 84 4d bb 3e 00 ac 3b 0a 35 10 bb db be 99 ba
       -0.0031359259 0.0052490523 -0.002200427 -0.0011729853
000390 db 9e 0c 3c d4 8b 3c 3a f1 fe 01 bc 43 eb 25 3b
       0.008582796 0.0007192467 -0.007934318 0.002531723
0003a0 53 4d ce bb 1b 0b 71 39 d7 44 28 3c 58 0a 7e bb
       -0.006295839 0.00022987688 0.010270319 -0.003876349
0003b0 a3 88 38 bc f8 a1 5e 3a aa 6a dd bb a0 d9 fb 3b
       -0.0112630455 0.0008492763 -0.0067571 0.007685855
0003c0 73 76 5e 3c 3c 77 3b bc 8a ce 7e ba 0d f5 36 3b
       0.013578045 -0.011442002 -0.0009720108 0.0027917058
0003d0 d0 4c 3c bb 50 91 f3 bb c7 e9 91 bc f4 2d b0 39
       -0.0028732307 -0.007433094 -0.017811669 0.00033603574
0003e0 6b 88 0b 3c 5f fb e8 3a 88 48 f2 3b 70 e8 80 3c
       0.008516411 0.001777511 0.0073939003 0.015735835
0003f0 37 1f 5f 39 eb a1 51 bc ff 3e 8d 3b 45 63 24 bb
       0.00021278566 -0.012794952 0.0043104882 -0.0025083583

network_body._body_endoder.seq_layers.0.bias f4 [256]
000000 7f 4b 0a 3b ad a3 a3 3b b1 61 53 3b c3 92 82 3b
       0.0021102128 0.004993877 0.0032254274 0.0039847805
000010 ec 0b e4 3a c2 0b 57 bb 51 78 9a 3b c1 81 cc 3b
       0.0017398573 -0.0032813405 0.00471405 0.006241054
000020 62 3e 33 bb 78 3e 0e 3c c7 d9 2c bb a9 e8 ca ba
       -0.0027350415 0.008681886 -0.0026374923 -0.0015480715
000030 cc 2e a2 3a 53 ba 54 3c 5c 50 99 ba 6d dc 56 3b
       0.0012373566 0.012983876 -0.0011696923 0.0032785193
000040 bd 05 72 3b b7 e8 03 bc 8c d8 8a 3b c8 f6 41 3b
       0.003692969 -0.008051089 0.00423724 0.0029596556
000050 9b fa 45 bb c1 62 31 bb 7c 19 eb 3b 08 45 fd 3b
       -0.0030209187 -0.0027066919 0.007174669 0.0077291764
000060 56 48 56 bb ed 09 8e 3a 85 bc dd ba 58 b9 2a 3c
       -0.0032696924 0.0010836698 -0.0016917145 0.010420166
000070 09 ce d0 ba a7 9e 9f ba f1 37 e2 3b 05 2e bd 3b
       -0.0015930544 -0.0012178019 0.0069036414 0.005773308
000080 36 48 29 3c 14 34 a6 3b a1 8d a1 bb 29 a9 e0 bb
       0.010332158 0.005072126 -0.0049302136 -0.006856103
000090 87 4e 8a 3b 1f 9a 24 ba 11 59 c4 ba dd 5a cc 3b
       0.004220787 -0.00062790693 -0.0014980157 0.0062364177
0000a0 d7 0d 03 3c 15 0e 5b bb 05 7f 08 bb ca 31 a7 bb
       0.007998905 -0.0033425142 -0.0020827663 -0.005102371
0000b0 7e 19 62 3b cc d5 b6 3a 78 cd a9 3a f6 56 c5 3b
       0.0034500058 0.0013949214 0.0012954911 0.0060223294
0000c0 db 7e 18 3c 9e 3c 72 37 bb f9 c6 3b 6f d6 dd 3a
       0.009307588 1.4438438e-05 0.0060722507 0.0016924868
0000d0 ce 61 db b9 a6 8b 8f bb ff ef 91 3a 6c 31 d6 3a
       -0.00041843805 -0.004380661 0.0011134146 0.0016341633
0000e0 2b e6 10 3c 86 62 0e bc 7d a3 9b bb 69 94 9c 3a
       0.008843939 -0.008690482 -0.004749714 0.0011946085
0000f0 ef 4a b0 bb 79 6f a9 3b fc 14 03 ba 4b 4f cb ba
       -0.0053800265 0.0051707593 -0.00050003803 -0.0015511302
000100 96 17 f3 3b 11 10 df 3b c7 fd 94 3b c2 ad 19 bb
       0.007418583 0.006807335 0.004546854 -0.0023449515
000110 ad 82 83 bb a4 af ba 3b 11 a7 1a bb 00 80 ae bb
       -0.0040133805 0.0056972075 -0.0023598114 -0.0053253174
000120 95 ac 33 bb 2b a2 43 3a 29 a5 c1 3b e9 9c 73 3b
       -0.00274161 0.00074628246 0.005909581 0.0037172383
000130 15 02 16 ba ef 36 e3 3a 05 23 cb ba 09 92 41 3b
       -0.0005722356 0.0017335097 -0.0015498108 0.0029536507
000140 c5 82 29 3c 2b 82 0e 3c 93 b0 7c bb 31 7b 2c 3c
       0.010346119 0.008698027 -0.0038557395 0.010527418
000150 7d 0b 0a bb e3 f7 16 3c 80 8e f8 bb 45 2d 0b 3c
       -0.0021063976 0.009214374 -0.0075853467 0.00849468
000160 3d 21 13 3b b5 92 47 3b cf 09 a7 3b 0b 96 37 3b
       0.0022450231 0.0030452434 0.005097605 0.0028013017
000170 ec ef 1c b8 50 47 11 3c 1e 28 1f 3c eb c6 42 bb
       -3.7416743e-05 0.0088671 0.0097141545 -0.0029720615
000180 70 f7 c1 38 16 9c e9 3a 8e a9 3a 3b 69 1e 07 3c
       9.249046e-05 0.0017823006 0.002848241 0.008246996
000190 ee c1 f6 3b cd eb a1 3b 12 d5 8a 3b e8 51 33 3c
       0.0075304424 0.0049414397 0.0042368257 0.010944821
0001a0 95 5e 5f 3a 24 48 a3 ba cd 59 d0 bb 4d 24 c1 3b
       0.0008520869 -0.0012457413 -0.0063583613 0.00589422
0001b0 8d a2 97 3b 4e 8c 00 bb 8b c3 fb 3a fb a6 53 3c
       0.004627532 -0.0019614878 0.0019208057 0.012918229
0001c0 ab 5b c8 3b 31 ed 91 3b e1 ff b1 3b 10 bc 65 3b
       0.0061144433 0.0044533242 0.0054321145 0.003505472
0001d0 c9 fe 92 3b ce 8e 7b 3b 09 a8 8f 3b a8 2b 59 ba
       0.004485939 0.0038384679 0.004384045 -0.00082843984
0001e0 45 86 93 b9 2c f8 14 3b 50 fd 81 3b 93 2b 95 3b
       -0.00028138063 0.002273093 0.003966965 0.0045523136
0001f0 d0 3b fb ba 33 b1 58 3b 83 f7 9e 3b a8 56 f1 3b
       -0.0019167606 0.0033064603 0.004851283 0.0073650666
000200 a9 62 1b 3c b8 2a 1f 3c f6 9a 88 3b d6 f5 d8 3b
       0.009483972 0.009714775 0.0041688634 0.006621103
000210 20 06 10 3c 22 f7 b5 3b 80 14 a9 3b 05 95 21 bb
       0.008790523 0.005553142 0.0051599145 -0.0024655473
000220 c8 9d ed ba 70 61 f2 3a 29 11 54 39 35 65 52 3b
       -0.0018128688 0.0018492173 0.00020224288 0.003210378
000230 c2 0f 11 3c 03 ae a3 ba fd 37 45 bb a4 7f e2 3b
       0.008853855 -0.0012487773 -0.0030093186 0.0069121886
000240 03 30 c6 3b f6 d3 22 3c 27 73 8a 3b af 9f cb ba
       0.006048204 0.009938231 0.004225153 -0.001553526
000250 ae e5 5d 3b 0c b2 e8 3b 18 5a f6 3b c7 71 27 3b
       0.0033858824 0.007101303 0.007518064 0.0025549994
000260 f4 c4 74 ba bf 54 e6 ba f3 5f 88 3b b5 a9 f9 38
       -0.00093372096 -0.0017572864 0.0041618287 0.00011904856
000270 be d8 91 3b 5f 7d 31 bb 25 be 83 3b 9c 9c 17 3a
       0.0044508865 -0.0027082784 0.0040204697 0.00057835295
000280 5b d3 3f 3b 6b 73 ec bb 2f 64 91 3a 75 66 36 3c
       0.0029270265 -0.0072159073 0.0011092479 0.011132826
000290 04 7e 9c 3b 5e 63 31 3c 88 f4 d7 bb f9 72 93 3a
       0.0047757644 0.010826914 -0.0065904297 0.0011249474
0002a0 8d b5 db ba a5 b6 3a 3c 31 c1 a4 3b 5f 06 8b bb
       -0.001676248 0.011396085 0.005027913 -0.004242703
0002b0 97 1e 52 3a da 9d b1 3a 1e d8 28 3c 3e 3a 03 3b
       0.00080154225 0.0013551072 0.010305433 0.0020023729
0002c0 0b 11 06 ba 3b e3 3f 3b 9f 7e 5f 3b b4 7e d3 3b
       -0.0005114234 0.0029279727 0.0034102572 0.006454313
0002d0 7b a6 8b 3b ee ff 1f 3b 98 fe cd 3b 79 58 53 3b
       0.0042617894 0.002441402 0.0062864535 0.0032248779
0002e0 5f 56 5e bb 5c c9 90 3b b0 af ef 35 ff a8 85 3a
       -0.0033925993 0.004418535 1.7858019e-06 0.001019746
0002f0 5f 5c e8 ba dc 57 ab 3a 4b a8 21 3a c5 7c fa ba
       -0.0017727724 0.0013072449 0.000616674 -0.001911067
000300 d3 98 93 3a ca bc 20 3b 43 6f 2f 3c f4 bf eb 3b
       0.0011260755 0.002452659 0.010707679 0.0071945135
000310 19 fb 00 3c 2b 56 0f 3c b2 fc 4d 3c 07 16 79 3c
       0.007872366 0.008748571 0.012572454 0.015203006
000320 95 40 c2 ba ec 87 45 3b e8 19 67 3b 05 e9 e9 3b
       -0.0014820272 0.003014083 0.0035263244 0.007138374
000330 e6 71 8b 3b 3a dc b8 3a aa 8f 74 39 d1 80 ab b9
       0.004255521 0.0014103719 0.00023323172 -0.00032711637
000340 6f 46 98 3b e0 76 a1 3b ae 04 67 3b 60 f2 46 3b
       0.004647068 0.004927501 0.0035250592 0.003035687
000350 a3 96 ff 3b 5e af f3 3b 49 c3 a4 bb b9 c9 3d 3c
       0.0077999397 0.007436677 -0.0050281626 0.011583739
000360 20 dc 8e 3b 28 ad c7 3b 7c 8c 82 3b bc cc a2 3b
       0.004359737 0.00609364 0.003984032 0.004968254
000370 b9 62 a4 3b 7b 5e b8 3b 64 dd cd 3b 50 5b 7f 3b
       0.0050166515 0.0056264973 0.0062824953 0.0038964339
000380 de aa 34 b8 87 2f 88 3a 20 c6 a7 3b b7 68 43 bb
       -4.3074477e-05 0.0010390141 0.005120054 -0.0029817054
000390 a7 f9 64 3b 42 5b 00 3c bc 2f 1e bb 86 17 bf 3b
       0.0034938843 0.007834258 -0.0024137339 0.0058316616
0003a0 33 7c b1 3b e9 b8 97 bb fb 11 0f 3c 00 43 72 3a
       0.005416417 -0.0046301973 0.008732314 0.0009241551
0003b0 a3 c7 80 3a 66 e6 e2 3b 6b 45 31 3b b6 a4 c1 36
       0.0009825121 0.0069244383 0.0027049433 5.771023e-06
0003c0 ce 38 08 3a 72 77 ac 3b 76 4a 4d 3c ce 4e 5c 3b
       0.0005196453 0.0052632624 0.01252996 0.0033616307
0003d0 83 d5 81 3b ea cb 2b 3c 08 f6 01 3c 71 02 2e 3c
       0.00396222 0.010485629 0.007932194 0.010620699
0003e0 d3 45 5e 39 bd d3 5a 3b 2a 69 18 3c aa 04 e7 3b
       0.00021197581 0.0033390366 0.009302417 0.0070501165
0003f0 4f 1e d5 3a 3c 19 12 3c b0 95 06 3b 4c 2c b9 3b
       0.0016259643 0.008917149 0.0020535998 0.0056510326

network_body._body_endoder.seq_layers.0.weight f4 [256, 119]
000000 37 5d 3f 3b 9c f8 1c 3d ba df c3 bc 36 06 5c bd
       0.0029199847 0.03832303 -0.023910392 -0.05371686
000010 b0 7f 04 3d 1a 22 9f 3d 31 af d2 bc 4e 07 18 3e
       0.032348335 0.07770176 -0.025718303 0.14846537
000020 74 9e 36 be f4 28 23 3b e4 66 b0 bc d5 ad 81 bc
       -0.17833883 0.0024896236 -0.021533437 -0.01582996
000030 2f 11 8e 3d af 69 90 bd 92 45 9b bd 82 ba ea 3d
       0.06936871 -0.070514075 -0.07581629 0.11461355
000040 77 c0 53 be 86 70 34 3e 78 4e 75 3e 60 c2 ff bd
       -0.20678888 0.1762105 0.23955715 -0.12488246
000050 4e 97 23 be a4 c0 b2 3c d3 55 d7 bd e1 78 15 3e
       -0.15975687 0.021820374 -0.105144165 0.14596893
000060 99 1a 5f bd 91 5c 52 bd 62 ff 67 bd 31 93 67 bb
       -0.054468725 -0.05135781 -0.056640036 -0.0035335536
000070 ed 9b df 3c 50 b1 c7 3c 55 20 9e bd ba 8f 7d bd
       0.02729603 0.024376541 -0.077210106 -0.061904646
000080 d6 7e 4b 3e 7a b9 5c 3d 83 35 37 3d 7b 65 e4 bd
       0.19872603 0.05388782 0.044728767 -0.11152168
000090 7e 8d 8e bd b5 9f 6f bd ff 39 ec bd 5b 70 9e bd
       -0.06960581 -0.058501918 -0.115344994 -0.07736274
0000a0 22 2f fd 3c 8b 68 59 bb 01 0e 4a 3d b6 29 5b 3e
       0.030906264 -0.0033173885 0.04932976 0.2140263
0000b0 73 42 d5 3b 17 b8 ab 3d 4a c8 cc 3d 07 ee 7d bd
       0.0065081655 0.08384722 0.099991396 -0.06199458
0000c0 57 e6 0b bd 56 c7 46 bc 03 9b 51 3e 21 b5 bd b9
       -0.034155216 -0.012132486 0.20469289 -0.0003618384
0000d0 d6 e4 00 be b5 f8 fe bc 3e 1e 97 bd 75 0e 1c 3d
       -0.12587294 -0.031124452 -0.07378815 0.038099725
0000e0 54 22 55 bd 69 65 1b be 9f d0 9d 3d 3c 29 6b bd
       -0.05203469 -0.15175404 0.07705807 -0.05741237
0000f0 cb a8 13 be 7e 9d 3b be 07 67 0c bd 7d 4b ec bc
       -0.14419858 -0.18321797 -0.034277942 -0.02884459
000100 14 77 33 bc 37 0b 1a bb 24 ab f6 bd b0 a8 c1 bc
       -0.010953683 -0.002350522 -0.12044361 -0.023640007
000110 e6 8f c9 bd 74 f3 30 3c 95 d4 37 be 4c db 21 3d
       -0.098418996 0.010800231 -0.17952187 0.03951578
000120 b1 00 90 bc a5 27 a5 3d d4 a4 13 bc 82 b7 26 3d
       -0.017578455 0.08064202 -0.009011466 0.04070235
000130 45 48 1d 3c cd b8 af 3d 2c 88 be 3d fe 76 9e 3d
       0.00959975 0.0858017 0.093033165 0.0773754
000140 e7 b2 aa bd 89 f5 ea 3d 9c 41 35 3c dc 54 8c bd
       -0.08334904 0.11472613 0.011063006 -0.06852123
000150 e0 cd b5 bd 01 d3 5a bb 85 01 07 bd bd ca 29 3d
       -0.08877158 -0.0033389928 -0.032960434 0.041453112
000160 fc 6d 4d 3e 85 62 9d 3d f4 02 0b 3d 3a 09 54 bb
       0.20061487 0.07684807 0.033938363 -0.0032354132
000170 a1 8d a3 3d b8 51 19 be cb 86 91 bc 66 d8 60 3d
       0.07985998 -0.1497258 -0.01776447 0.054893874
000180 99 43 3b bc ef 25 ee 3d f8 f5 0a 3e 6d 41 aa bd
       -0.011429691 0.11628329 0.13570392 -0.0831326
000190 94 be af 3d bc 7c dd 3d a4 7b 60 bd d1 be fb 3d
       0.08581272 0.10814807 -0.054805413 0.12292255
0001a0 19 fe 1a 3e 6a ca af bd 59 70 bf 3d 1b 91 0b 3e
       0.15135993 -0.08583529 0.093476005 0.13629572
0001b0 12 b6 7f bd 9a a9 53 bd 65 bb 37 be 09 b3 d1 bc
       -0.062429495 -0.051675417 -0.17942579 -0.025598066
0001c0 6f e3 c7 bc 34 fa 0a be e0 d1 9c bb ef ee 07 3e
       -0.024400441 -0.13572007 -0.0047857612 0.1327474
0001d0 e2 a1 e1 3c 20 c8 f7 3b ae 26 30 ba 9a d7 cd 3c
       0.027543012 0.0075616986 -0.0006719631 0.02512722
0001e0 bb 6b d7 3c da ad 5c bc f0 97 6c bc ab af 9d 3a
       0.026296487 -0.013469184 -0.014440522 0.0012030503
0001f0 2c 0e 92 bc e7 c3 29 be 94 bd a5 3d b3 a4 b4 3c
       -0.017829023 -0.16578637 0.080928 0.022051191
000200 b4 1b d9 bd 4f e4 9d bd d9 83 c3 3d 66 eb b5 bd
       -0.10600987 -0.07709562 0.09546632 -0.08882789
000210 36 ce bd 3d 22 24 bc 3d ac 00 6f bd b8 e5 01 be
       0.09267847 0.09186579 -0.05835025 -0.12685287
000220 44 1b 46 bd cd 41 00 3e 3b 28 eb 3c 36 1a a8 bd
       -0.048365846 0.12525101 0.028705707 -0.08208124
000230 e4 84 a9 bb 26 62 d4 bd 1e 59 0e bc 55 88 cb 3d
       -0.0051733125 -0.10370283 -0.008688239 0.09938113
000240 1d 0d 96 3d bf 51 2c bd b1 cc 12 bc f8 46 f4 bd
       0.0732672 -0.042070147 -0.008959935 -0.11927599
000250 06 7d 5b 3e c9 b3 a1 bd 56 23 8b 3d 81 30 f1 bd
       0.21434411 -0.078956194 0.06793849 -0.117768295
000260 84 ab bf 3c 99 57 8d bc 33 23 4e bd 1e c5 0a 3d
       0.023397215 -0.017253684 -0.050326537 0.03387939
000270 0a 59 91 bc 90 d2 a2 bc f4 26 18 bc 04 c9 bc 3d
       -0.017742652 -0.019875795 -0.009286631 0.09218028
000280 83 87 c1 3d 7f e0 06 bd f0 c2 16 3e 33 76 c5 3c
       0.09449675 -0.03292894 0.147228 0.024104213
000290 62 d7 20 bb 2f da d7 bd cb 46 42 bd 58 90 1a bd
       -0.002454244 -0.10539662 -0.047430795 -0.037735313
0002a0 7b b2 fa 3d 52 7d ef 3d ba 00 35 be 08 b3 a9 bc
       0.12241074 0.11693825 -0.17676058 -0.020715252
0002b0 99 44 08 be 20 e2 e6 3c fc 9f be 3d c4 13 e9 3c
       -0.13307418 0.028183997 0.09307858 0.028451808
0002c0 83 2f 0a be 9d c2 93 3d 2c 6d 21 3c c4 e0 3d bd
       -0.13494687 0.07214854 0.009852689 -0.04635693
0002d0 5d 4d 74 bd 43 57 85 bd a0 a0 52 3d 3b d0 91 bc
       -0.059644092 -0.065107845 0.051422715 -0.017799487
0002e0 ba a4 ab 3c 9d 9f 57 bd fb 31 34 bd 3e d8 c3 bc
       0.020952571 -0.052642453 -0.043992978 -0.023906823
0002f0 d5 d8 12 3b 89 19 17 3d b7 46 98 bd 79 c0 02 be
       0.0022407074 0.036889587 -0.07435363 -0.12768735
000300 0a e5 9c bb bc 2e 00 3e d6 2d 22 3d a9 5d fb bb
       -0.004788046 0.12517828 0.039594494 -0.0076710773
000310 57 ce e8 bd 70 38 b8 3c 00 0b e0 bd bf e6 ad bd
       -0.11367481 0.022487849 -0.10939598 -0.08491277
000320 f6 a7 cb 3d db a8 d4 3d e4 a1 0e be b4 cc 73 3d
       0.099441454 0.10383769 -0.13928944 0.059521392
000330 ae 2f 3c bc bd 77 83 ba 35 19 08 3e 06 12 da bb
       -0.011485977 -0.0010030192 0.13290866 -0.0066549806
000340 cf e7 55 3e 37 c4 16 3c b1 41 4d be cc f8 ca bc
       0.20889209 0.009202055 -0.2004459 -0.024776839
000350 b8 db 30 3c 6e 1b bd bc 82 cd 8c bb 04 91 3d 3d
       0.0107945725 -0.023084369 -0.0042969594 0.046280876
000360 29 51 1f bd 00 01 18 be f3 08 bb bc 13 b7 fd bd
       -0.03889576 -0.14844131 -0.022831416 -0.12388434
000370 09 ee 82 be db bc ad 3c d7 3d 81 be 63 d2 71 bd
       -0.2557223 0.021208217 -0.25242493 -0.05903853
000380 22 97 8a bc 9e e7 a4 3b 20 cc 48 bd 73 e7 4f be
       -0.016917769 0.0050324937 -0.049022794 -0.20303135
000390 85 d0 2e bc 0f a1 fb bd c1 a2 0a 3e ed 6e 8d 3d
       -0.010669832 -0.12286579 0.13538648 0.06905923
0003a0 09 5d 66 be a7 c4 02 be d8 f9 eb bd d8 37 84 3d
       -0.22496428 -0.1277033 -0.11522263 0.06455964
0003b0 9d c3 d9 3b b5 ee 12 be 28 44 07 be 7d a7 18 3c
       0.0066456334 -0.14348872 -0.13209593 0.009317276
0003c0 2d 04 f7 bc 81 4f 1f 3c 34 0c 85 3d 95 79 70 3d
       -0.030153358 0.009723545 0.06496468 0.0587097
0003d0 1e 9a 00 bc 37 d2 28 3e 84 c3 d6 bc 68 4e b1 3d
       -0.007849244 0.1648644 -0.026216276 0.08657533
0003e0 19 62 6f be 6a 17 75 3c 4b 6e c2 bc 09 98 fc bd
       -0.23377265 0.014959196 -0.023734232 -0.12333686
0003f0 14 2e 87 3d 3c 9f 06 3d 01 43 31 3e 3c 38 c2 bc
       0.066005856 0.0328667 0.17310716 -0.023708455

network_body._body_endoder.seq_layers.2.bias f4 [256]
000000 47 9f 1b 3c 19 e7 05 3b bb 5b 72 3b 93 24 ba 3a
       0.009498424 0.0020431934 0.0036980945 0.0014201574
000010 7b f5 90 3b 93 b5 ae ba a1 f4 02 bb 3f d5 13 ba
       0.004423795 -0.001332926 -0.0019982236 -0.0005639381
000020 0d 7a e7 b9 ef 36 05 3b f6 fd 2f bb 8d b4 ad b9
       -0.00044150688 0.0020326932 -0.0026854253 -0.00033131652
000030 a5 2f c7 b9 e1 62 eb 3b c4 08 14 3b 0d 21 56 3a
       -0.00037991736 0.007183418 0.0022588233 0.0008168377
000040 05 f7 3e ba 30 6e c5 b9 25 9c 5c 38 5c e2 1b 3a
       -0.00072847336 -0.00037656864 5.259751e-05 0.0005946511
000050 e3 6e b6 3a 08 cf bf 3b 70 a9 96 3b 61 8e c5 39
       0.0013918545 0.0058535375 0.0045978352 0.0003768085
000060 5e 79 a9 ba fb 89 82 3a b5 59 2c 3c 93 cf 6d 3b
       -0.0012929847 0.0009959334 0.010519435 0.0036287054
000070 9f f1 20 bb c2 81 11 3c e7 3d c2 3b 68 cf 17 bc
       -0.002455808 0.008881034 0.0059277895 -0.009265758
000080 d6 7a e5 3a 8c 12 30 ba af 8a 8d 3b f3 4f 91 bb
       0.0017507921 -0.0006716631 0.004319511 -0.0044345795
000090 39 21 23 3b dc de c8 3b 64 9c b4 3b 0a 67 97 bb
       0.0024891628 0.0061300825 0.0055118073 -0.0046204375
0000a0 95 f1 9b 3b c0 37 b4 3b 3c 47 2e 3b f1 e6 b9 3b
       0.0047590234 0.00549981 0.0026592752 0.0056732823
0000b0 cd 81 ab ba bc f9 ce 3b e0 de 4e bb 67 0f 83 ba
       -0.0013084948 0.0063163918 -0.003156595 -0.0009999097
0000c0 58 aa 8a 3a ea 7b d4 3b 15 43 bc 3b 34 8c d5 3a
       0.0010579331 0.0064844983 0.0057453015 0.0016292394
0000d0 da ed 00 3b 0d 5e 46 3a 78 ea f8 3a 27 82 0b 3c
       0.001967302 0.0007567115 0.0018990776 0.008514917
0000e0 46 23 2a 3c 1c ef 93 bb 40 06 0a bb 65 67 69 bb
       0.010384386 -0.004514588 -0.0021060854 -0.0035614606
0000f0 fb b0 03 bb aa 48 09 3c 37 4f 28 3b d2 80 51 3b
       -0.0020094502 0.008379141 0.0025681981 0.0031967652
000100 ed 30 ce ba 96 77 d1 3a 32 74 c9 bb 3e ad 59 b9
       -0.0015731134 0.0015981074 -0.0061478848 -0.0002075927
000110 3b 04 c8 3a 8b f5 43 bb a2 84 31 3b 30 ed 6d 3b
       0.001526005 -0.0029900994 0.0027087112 0.0036304705
000120 6a 0b d4 3b 6b 16 49 ba 78 40 88 bb 9c 24 ec 3b
       0.006471087 -0.0007670882 -0.004158076 0.0072065126
000130 b4 f5 7a ba 8a 8e 16 3c 0c 21 14 b9 65 97 d9 3b
       -0.0009573356 0.009189257 -0.00014126691 0.006640362
000140 d3 81 80 bb 69 8b d3 3b 8a c1 c5 3b 54 2d b7 ba
       -0.0039217263 0.006455828 0.0060350345 -0.0013975301
000150 f4 06 86 3a 97 72 02 3c 43 97 98 3a 6c 49 3e bb
       0.0010225461 0.007961891 0.0011641759 -0.0029035462
000160 b9 0f 6c 3b 68 e6 3c 3b f1 a6 d3 3b 0e e9 16 3b
       0.0036020114 0.0028823856 0.00645911 0.0023027095
000170 23 fd 15 ba 48 d8 e8 b8 89 7f 00 3c 7a d5 7d 3b
       -0.0005721619 -0.000111029076 0.007842907 0.0038731978
000180 7c 67 d2 3b 56 28 92 3b 12 aa 40 3b ca f8 75 3b
       0.0064210277 0.004460375 0.0029398245 0.0037532323
000190 70 24 3d 3b 2b 50 11 3c 69 a9 81 3b 38 3a aa 39
       0.002886083 0.008869211 0.003956963 0.00032468303
0001a0 a4 d3 69 3a 8a ed 28 bc 1a a4 c3 3b 4b 9a fa 3b
       0.00089197815 -0.01031054 0.00597049 0.0076477877
0001b0 2d 8f ba 3b cf e9 d1 b9 13 40 e9 3a b5 4b 0b 3c
       0.0056933374 -0.00040037787 0.0017795585 0.008501937
0001c0 52 69 c0 b9 eb ee 63 3b 4e 60 19 3b 23 c8 83 3b
       -0.00036699563 0.0034779857 0.002340335 0.004021661
0001d0 a2 ad 00 39 35 db 84 3b 0e 41 da 3a 5f 86 4c ba
       0.00012271715 0.004054452 0.0016651468 -0.0007802005
0001e0 70 66 68 3b ac 6a cd 3b 43 18 f0 3a ef 81 8c 3b
       0.0035461448 0.00626882 0.0018317777 0.00428795
0001f0 df 8b 0e 3b 1d 00 d2 3a 0f dd 98 3b 25 21 ea 38
       0.002175085 0.0016021762 0.004665024 0.00011164163
000200 fd b2 c9 3b 2d ec fb 3b ec d8 c3 bb 9d 21 59 3a
       0.0061553703 0.0076880665 -0.005976787 0.0008282902
000210 37 48 de 3a d2 bc 99 3b 6c 1d 36 3a 73 78 b6 3b
       0.0016958778 0.0046916986 0.0006947133 0.005568558
000220 51 8f c9 b9 8b e5 37 bb 69 f0 0c 3c fe 1c db 3b
       -0.00038444487 -0.0028060402 0.00860224 0.0066868057
000230 42 45 c9 39 ce 35 9f 3a a0 0f f1 3a 85 ad 87 bb
       0.0003838931 0.0012146772 0.0018391497 -0.004140558
000240 c6 05 10 bb 28 1c 03 3b 2d b5 9c 3b b8 95 62 ba
       -0.0021976097 0.0020005796 0.00478234 -0.00086435257
000250 da 18 bc 3b 55 00 78 3b 6c ec 77 3a 69 33 90 3b
       0.005740267 0.0037841995 0.0009457532 0.00440066
000260 31 d2 83 3b 2b a6 fb 3b 5c 7e 99 3a 2f 1c 2e 3a
       0.0040228595 0.007679721 0.0011710632 0.0006641773
000270 0a e8 92 3b 28 75 4d 3b 4a 4b fb 39 c3 5f 9e 3b
       0.0044832276 0.0031350348 0.00047930545 0.004833193
000280 f7 82 0e ba b6 ea 06 bb 10 e9 84 3b ff d5 a9 3b
       -0.00054363854 -0.0020586676 0.0040561035 0.005182981
000290 ee 76 8d bb 29 d1 d2 3a 03 79 dd bb d0 d9 94 3b
       -0.004317156 0.0016084063 -0.0067588105 0.004542567
0002a0 06 00 4d 3b ba 37 49 3b 79 ad 9c 3b a4 6c 81 3b
       0.0031280532 0.0030703382 0.0047814217 0.0039497185
0002b0 5a d4 b5 38 f1 fc fb ba e4 f9 35 ba d1 b2 1b 3b
       8.670306e-05 -0.0019225163 -0.00069418387 0.0023757706
0002c0 59 6b d9 3b ad 8c 3a 3b 92 80 d4 3a 37 c1 b7 ba
       0.0066351113 0.0028465197 0.0016212633 -0.0014019375
0002d0 b1 5d bc 3b 8e f6 af 3b 6f f1 1b 3c c2 80 83 bb
       0.0057484736 0.005369968 0.0095180115 -0.004013152
0002e0 79 5c 3e 3b 3c f0 f6 3b 3f bd d4 b8 1b 71 e5 3b
       0.0029046817 0.0075359624 -0.000101441976 0.0070020086
0002f0 fc fc 02 ba 0e 14 41 3b 67 f6 22 3b 0c 74 30 ba
       -0.0004996804 0.0029461416 0.0024866106 -0.00067311595
000300 54 0c ea 3b 24 69 be 3b 41 69 93 3b e3 c2 41 3b
       0.007142583 0.0058108736 0.004498631 0.0029565624
000310 1b ea 6a 3b bd ce 55 3b 7e 80 8c bb c4 4b 0b bb
       0.0035845104 0.0032624446 -0.0042877784 -0.0021254877
000320 7f e2 70 3b 7d 2a 0b bc ae 71 98 3b c2 f9 83 bb
       0.0036756096 -0.008494017 0.0046522235 -0.004027576
000330 92 64 f6 3a 11 ff 57 3a 7a 95 a6 b8 61 0a 62 bb
       0.0018798283 0.0008239607 -7.943339e-05 -0.003449105
000340 7e 93 1e bc df ca 39 3c 0a 02 18 bb b1 bf 9e 3a
       -0.00967872 0.011339872 -0.0023194575 0.0012111572
000350 56 df aa 3a ed 65 91 3a ec 48 ef bb 30 42 95 bb
       0.001303653 0.0011092998 -0.007302394 -0.0045550093
000360 db 29 9d 3b 5e 67 d2 3b b6 dd c0 ba 1c 3e 2f bb
       0.0047962493 0.0064210137 -0.0014714513 -0.00267399
000370 1c ab ad 3a 53 47 8a 3b 7a 3e 7c 3b f3 bc 2f ba
       0.0013249847 0.0042199283 0.0038489387 -0.0006703876
000380 a1 07 74 3a 70 e5 4f 3c 5b 11 5a bb e3 8f bf 3b
       0.0009308998 0.0126889795 -0.0033274505 0.00584601
000390 d9 b1 7c 3a f0 91 9b bb 35 aa 3c 3a c6 2b c2 39
       0.00096395385 -0.0047476217 0.00071969937 0.00037035177
0003a0 e3 ad 01 bc 70 ea 48 3c 06 45 d2 3b 5d 33 f1 3b
       -0.007914993 0.0122629255 0.0064169196 0.0073608593
0003b0 6e 9c da 3a 4f 74 55 bb 70 c0 d8 3b d2 e5 eb bb
       0.00166787 -0.0032570546 0.006614737 -0.0071990276
0003c0 36 8c 7d 3a 89 1b 44 3a 88 33 59 3b 44 98 12 3a
       0.0009672077 0.00074809097 0.0033142287 0.00055921474
0003d0 be 80 e8 ba 99 45 d1 3a bd b3 26 3c 16 87 96 3b
       -0.0017738563 0.0015966176 0.010174689 0.00459374
0003e0 eb 6a b1 3a 02 e0 06 3c 8d ed fc 3b 8c fa 15 3c
       0.0013535892 0.008232119 0.007718748 0.009153973
0003f0 75 c5 bf 3a e7 d8 47 3a 4d 14 97 bb 24 af 08 3b
       0.001463099 0.00076235685 -0.0046105743 0.0020856345

network_body._body_endoder.seq_layers.2.weight f4 [256, 256]
000000 11 e2 8d bd 12 0b 67 bd 1f 4f 29 3d d1 73 d0 3c
       -0.06927884 -0.05640704 0.04133522 0.02544585
000010 21 c9 68 bc e7 1e 9f 3d a6 3d 72 3c 5e 92 16 3d
       -0.014208109 0.07769566 0.014785206 0.03676068
000020 e6 d3 09 3d 70 a1 79 3d ef cf 78 3b 4f 6b e5 3c
       0.033649348 0.060944974 0.0037965735 0.02800527
000030 c1 8c 0b bd 9b e2 34 3d b6 72 57 3c 00 fc 85 3d
       -0.03406978 0.04416142 0.013149908 0.06542206
000040 fa 17 8c bc 14 46 a9 bd bb ca 3e bb 66 1c 30 3d
       -0.017101277 -0.082653195 -0.0029112536 0.042995833
000050 ac 41 a4 bc e2 74 5c bb 48 9e ca 3d da fe 39 3d
       -0.020050846 -0.0033639004 0.09893471 0.04540906
000060 95 ea 87 3c 96 9c cb bb 42 8a 1d bd 63 90 ca 3c
       0.01659135 -0.006213735 -0.03846193 0.024727052
000070 5c aa 0a 3c a2 ab 44 3d aa 2b e0 bd d0 d3 dc bc
       0.008463468 0.048015244 -0.10945828 -0.026956469
000080 40 35 ee 3d 83 fc bf 3d f5 15 9f 3d 90 53 8b 3c
       0.116312504 0.09374335 0.0776786 0.01700762
000090 3a 72 a6 bc 88 71 a6 3d a2 a1 d6 3d 92 12 e8 bd
       -0.02031814 0.08127123 0.10480048 -0.11331667
0000a0 5a 23 79 3d 73 1e 15 be e3 87 4d bc 12 2e bc bd
       0.06082473 -0.14562397 -0.012544605 -0.09188475
0000b0 96 9a e5 3c 6a 6c 90 3c 0c 4b 4e 3d 4e 8b 53 3e
       0.028027814 0.01762982 0.05036454 0.2065861
0000c0 38 e4 cc bd ab 77 90 3d c6 53 04 bd 39 6a 17 bd
       -0.10004467 0.07054075 -0.032306455 -0.036966536
0000d0 99 3f 3d 3d ed ab 32 3d 18 05 a6 3c da ab 2b 3d
       0.04620323 0.043620992 0.0202661 0.041911937
0000e0 8b 9a f0 3b 04 3f 49 3d 58 1e ba ba 50 a9 a3 bd
       0.0073426417 0.049132362 -0.0014199717 -0.07991278
0000f0 58 64 9f bc 26 63 44 3d 67 08 22 3d 4c 8e ab bc
       -0.019457027 0.047946118 0.039558794 -0.020941876
000100 ab f0 e3 3d 04 13 de bc de 19 8d bd dd f0 bf bb
       0.11129888 -0.027108677 -0.068896994 -0.0058575706
000110 af 47 41 bd b6 90 ce 3d df 3e d7 3d 30 b7 39 3d
       -0.047187503 0.10086195 0.105100386 0.045340717
000120 19 7c 30 3d b8 f5 6b bd 0f ba cc 3b 76 05 53 3d
       0.0430871 -0.057607383 0.006247766 0.05151888
000130 7f ec 8a bd 74 a5 b9 bd 21 03 ae 3d 5a de ea 3d
       -0.06783389 -0.09064761 0.084966905 0.114681914
000140 33 be e0 3c a1 68 87 bd 30 8f 90 bd ef 4e 9a bc
       0.027434444 -0.06611753 -0.07058561 -0.018836467
000150 a0 84 03 be 6f 43 6b bd ed f2 15 3d 67 8b 07 3c
       -0.12843561 -0.057437357 0.036608625 0.008272982
000160 79 ef 22 bd 38 43 a4 bd a8 45 47 bd bf 27 4c 3d
       -0.03977916 -0.080206335 -0.048650414 0.049842592
000170 f7 b2 e2 bd 3f be f0 3a d5 dc 94 bd c1 4a 3d 3d
       -0.11069291 0.0018367245 -0.07268683 0.04621387
000180 56 fb 29 3d 14 01 e2 3c 56 6c d7 bd 75 a8 04 3d
       0.04149946 0.027588405 -0.1051871 0.032387216
000190 47 d1 b0 bb de 12 ba bd f2 cc 1d 3d b6 73 d0 3c
       -0.0053960416 -0.0908563 0.03852553 0.0254458
0001a0 7a 3c 69 bd 8b a5 93 3d 19 7b df 3d 58 5f 9f bc
       -0.05694244 0.07209309 0.10912151 -0.019454643
0001b0 21 c5 9e 3c 78 0c 45 bd fa 6f 4c 3d fe 07 09 bb
       0.019381108 -0.048107594 0.049911477 -0.0020909305
0001c0 4c 9f 31 bd 4d 09 62 bc aa a6 d1 3c e5 ce f7 bc
       -0.043364808 -0.013796163 0.025592167 -0.030250022
0001d0 67 4b 0f bc 46 60 20 3d 90 34 97 3d e1 57 6c 3c
       -0.008746005 0.039154314 0.073830724 0.014425249
0001e0 df 51 1f bd 12 d4 97 3d 93 95 a9 3d 09 95 da bc
       -0.038896438 0.07413496 0.08280482 -0.026682394
0001f0 db f9 e5 bd bb 36 82 bc d6 05 e1 3c bf ee 42 39
       -0.11229297 -0.015895238 0.027468603 0.00018590222
000200 81 ab ec 3c 09 cd 8e 3c 39 ec e0 3c 76 d5 f4 bc
       0.028890373 0.017431753 0.02745639 -0.029886942
000210 2a fb 71 bd 19 3c 2f bd fc 77 ad bc 92 7a 58 3d
       -0.05907742 -0.042781923 -0.021175377 0.052851267
000220 e3 a6 cc 3c 2b be ef bc 22 41 96 3c be 88 0c bd
       0.024981922 -0.029265484 0.018341605 -0.034310095
000230 64 d4 0c bd e9 5d 0b 3e fe 7e 92 bb 63 00 d3 3c
       -0.03438224 0.13610043 -0.004470705 0.02575702
000240 93 90 fe 3c b7 db 9e bc 55 27 90 bd 12 68 4f 3d
       0.031074798 -0.019391878 -0.07038752 0.05063636
000250 e9 b5 b8 3d 59 7e 0b bb 71 9d ec 3c d9 0a d4 3b
       0.090190716 -0.0021285026 0.028883668 0.0064710197
000260 84 cd d9 3d 9e 96 b3 3d 5a d7 0e be 05 8b 79 3d
       0.10634902 0.08768962 -0.13949338 0.060923595
000270 98 f6 19 bd 6a 27 8d bb 6b 23 43 bd 18 8e a4 3c
       -0.037588686 -0.004307677 -0.0476412 0.020087287
000280 7a 73 21 3b e3 1a cc 3d 0b cb 8f 3a 98 49 86 3b
       0.002463548 0.09966066 0.0010970546 0.0040981285
000290 c4 7a b6 bc 9d 17 65 3d 4a 80 fc bc 16 1d 99 bd
       -0.022275336 0.055930723 -0.030822892 -0.07476251
0002a0 84 14 11 bc fa 98 5f 3d d6 3b 6e 3c 18 37 3a 3c
       -0.008854989 0.05458925 0.014540633 0.011365674
0002b0 3b 4f de bc 49 ea 9e bc 50 ab 3f 3d f4 60 c0 3d
       -0.02713739 -0.019398825 0.046794236 0.09393492
0002c0 f4 28 08 bd 2f 7e 12 3d c8 9a b6 bd ba 94 88 bc
       -0.03324218 0.03576487 -0.08916241 -0.01667248
0002d0 5b 12 fe 3a 83 bf 86 3d 43 3b 9a bd 63 b7 fd bb
       0.0019384132 0.06579497 -0.075308345 -0.0077428087
0002e0 1e b5 79 bd 60 7d 9e 3d ec ac 84 bd f6 50 28 3d
       -0.060963742 0.07738757 -0.06478295 0.041092835
0002f0 51 53 69 3d 85 da 28 bd 0e 92 03 bc 4a d2 c2 bb
       0.056964222 -0.04122402 -0.008030428 -0.0059454786
000300 15 ec 1f 3b b5 ac 8f bd 44 e4 d9 3c d1 05 21 3e
       0.002440219 -0.07015363 0.026598103 0.15724875
000310 66 a0 49 bd 4f 6b 57 3d 43 9b 0e 3d 16 80 ba 3b
       -0.049225233 0.05259257 0.034816038 0.0056915386
000320 c7 cf 77 3d 46 c7 8f bd 8b d5 cf bd cd d0 9f 3c
       0.060500886 -0.0702043 -0.10148152 0.019508744
000330 92 56 4a 3d 5b 6b 3b 3e ae 49 eb bd 30 5d 07 bb
       0.049398966 0.18302672 -0.11488663 -0.002065491
000340 ce 0a 0c 3d 53 e8 ba 3d d2 ad bd bc a9 fa 18 3d
       0.03418999 0.091263436 -0.023154173 0.037348423
000350 7d 7b 37 3d f9 ca f0 3c 2d 06 85 bc 48 18 f4 3d
       0.044795502 0.02939366 -0.016238296 0.11918694
000360 73 6d 25 bc 62 3d 4f bd 8f f6 89 3d 44 e7 8a 3d
       -0.0100968955 -0.05059565 0.067364804 0.06782392
000370 95 40 0d 3a 7d 9c 1d bd a7 a3 8d bd 70 8f 5c 3d
       0.00053883466 -0.038479317 -0.0691598 0.05384773
000380 11 67 08 3d 7d d3 97 3d 45 95 93 3d c2 f6 69 bd
       0.033301417 0.07413385 0.07206205 -0.057120092
000390 0a 39 26 bd be 23 e7 bd f5 40 d2 bd 89 2e f1 bb
       -0.04058174 -0.11286114 -0.10266296 -0.0073602838
0003a0 33 b2 d3 bc 34 4d bc bb 33 bd c6 bc 98 d9 12 3c
       -0.025841808 -0.005746508 -0.02426014 0.008963011
0003b0 83 02 b1 3c aa c3 33 bd 40 f9 7d 3b bf ba d7 3c
       0.021607643 -0.04388777 0.00387533 0.026334165
0003c0 86 07 0e 3d 44 3e 2d 3e cb 2a 7e bd aa f3 8d 3d
       0.034675144 0.16918284 -0.06205253 0.06931241
0003d0 29 96 da 3c 4a a9 8c bd 16 16 6e 3d fe 9b 06 3d
       0.02668293 -0.06868227 0.05812653 0.03286361
0003e0 44 b3 ac bc 60 56 61 3c d1 51 c0 3b 4e c0 93 bd
       -0.021081574 0.013753504 0.0058691283 -0.072144136
0003f0 1f 60 85 bc db de 94 bd 75 19 bf bc 88 e5 ac bd
       -0.016281186 -0.07269069 -0.023327569 -0.08442217
