results/Run 2/AgentController/AgentController-11835.onnx (onnx, 657373 bytes, 14 tensors)

83 f4 [116]
0.10580703 0.10541597 0.009191736 0.14752443 0.10343757 0.10303711 0.009191736 0.14722635
0.106584586 0.10619655 0.009191736 0.14884743 0.103037104 0.102635056 0.009191736 0.14652708
0.10697117 0.1065846 0.009191736 0.14903095 0.10018719 0.09977313 0.009191736 0.14667016
0.10263504 0.10223132 0.009191736 0.15011168 0.107739925 0.10735625 0.009191736 0.14751527
0.10223132 0.101825915 0.009191736 0.14941531 0.0989396 0.09852006 0.009191736 0.14832544
0.10697115 0.10658459 0.009191736 0.14938192 0.105023436 0.1046293 0.009191736 0.14904384
0.09421799 0.0937765 0.009191736 0.15018028 0.107739925 0.107356265 0.009191736 0.14874716
0.10263504 0.102231316 0.009191736 0.14938495 0.10141883 0.10101001 0.009191736 0.14857055
0.102635056 0.102231316 0.009191736 0.14906444 0.092438936 0.09198861 0.009191736 0.14794734
0.10141883 0.10101003 0.009191736 0.1492706 0.10383639 0.10343757 0.009191736 0.1475535
0.09852009 0.098098725 0.009191736 0.15082867 0.10182591 0.10141886 0.009191736 0.14688699
0.1038364 0.10303713 0.009191736 0.15194497 0.09377651 0.09333286 0.009191736 0.1477847
0.11477435 0.11405539 0.009191736 0.15224908 0.0887701 0.088300444 0.009191736 0.14918923
0.12002187 0.11933632 0.009191736 0.15257813 0.08970185 0.08923725 0.009191736 0.14975525
0.11725413 0.11655132 0.009191736 0.15268606
00000000: 5bb1 d83d 54e4 d73d ef98 163c a510 173e
00000010: 14d7 d33d 1f05 d33d ef98 163c 81c2 163e
00000020: 0549 da3d 947d d93d ef98 163c 766b 183e
00000030: 1e05 d33d 5432 d23d ef98 163c 320b 163e
00000040: b313 db3d 0749 da3d ef98 163c 929b 183e
00000050: f12e cd3d db55 cc3d ef98 163c b430 163e
00000060: 5232 d23d a85e d13d ef98 163c e0b6 193e
00000070: c0a6 dc3d 98dd db3d ef98 163c 3e0e 173e
00000080: a85e d13d 1b8a d03d ef98 163c 5400 193e
00000090: d8a0 ca3d e3c4 c93d ef98 163c a0e2 173e
000000a0: b113 db3d 0649 da3d ef98 163c 93f7 183e
000000b0: 8716 d73d e347 d63d ef98 163c f39e 183e
000000c0: 5df5 c03d e50d c03d ef98 163c dcc8 193e
000000d0: c0a6 dc3d 9add db3d ef98 163c 2d51 183e
000000e0: 5232 d23d a75e d13d ef98 163c 5ef8 183e
000000f0: adb4 cf3d 56de ce3d ef98 163c e122 183e
00000100: 5432 d23d a75e d13d ef98 163c 59a4 183e
00000110: a050 bd3d 8664 bc3d ef98 163c 827f 173e
00000120: adb4 cf3d 59de ce3d ef98 163c 64da 183e
00000130: 2ca8 d43d 14d7 d33d ef98 163c 4418 173e
00000140: e7c4 c93d fce7 c83d ef98 163c d572 1a3e
00000150: 1a8a d03d b1b4 cf3d ef98 163c 8b69 163e
00000160: 2ea8 d43d 2105 d33d ef98 163c 7697 1b3e
00000170: e60d c03d 4c25 bf3d ef98 163c df54 173e
00000180: d00e eb3d df95 e93d ef98 163c 2fe7 1b3e
00000190: 19cd b53d ddd6 b43d ef98 163c 10c5 183e
000001a0: 07ce f53d 9a66 f43d ef98 163c 713d 1c3e
000001b0: 9bb5 b73d 05c2 b63d ef98 163c 7159 193e
000001c0: ef22 f03d 75b2 ee3d ef98 163c bc59 1c3e

86 f4 [3]
3.5481381 0.012651087 10.550814
00000000: b214 6340 8146 4f3c 22d0 2841

action_model._continuous_distribution.log_sigma f4 [1, 2]
0.0 0.0
00000000: 0000 0000 0000 0000

action_model._continuous_distribution.mu.bias f4 [2]
0.0 0.0
00000000: 0000 0000 0000 0000

action_model._continuous_distribution.mu.weight f4 [2, 256]
0.011861415 0.004820108 0.0125010805 -0.011178894 -0.014225642 0.00514506 0.008821702 -0.0007068306
-0.004318262 0.014629977 0.0012800094 -0.0079152 0.013883716 -0.010481778 -0.002574312 -0.014253032
0.009372874 0.017617112 -0.0068164626 -0.012469101 0.005149103 0.017480332 0.00082705676 0.014046914
-0.011925867 -9.027781e-05 0.002777078 0.0016827574 -0.005005975 0.010859645 -0.008735824 0.0010067587
-0.022997862 -0.0055356994 0.0062742047 0.024088847 0.0065903626 -0.0019538966 -0.008514073 0.008900287
0.0070716157 0.0065381536 -0.012401474 -0.0027958828 0.0043473854 -0.015304262 -0.010753064 0.0035204224
0.0063044117 0.025550237 -0.012108029 0.00946269 0.017204238 0.01950426 0.012519799 0.015683515
-0.023677358 0.01841222 0.0066576353 -0.017707247 0.012230812 -0.0005692469 -0.008347495 0.017603347
-0.0196069 -0.009943831 -0.020986093 0.00053966534 0.023375787 0.022406334 0.011268133 0.00040833102
-0.006398561 0.012906566 0.0010472176 -0.0065957084 0.0007394065 0.008828129 -0.009448097 0.014634884
-0.013320679 -0.009905997 -0.008142864 -0.0050093364 0.019358441 -0.006019646 0.010164912 0.013719498
-0.018720472 0.025927065 0.004405127 0.017138291 -0.0055461912 0.013690409 0.015657967 0.01078753
0.017440988 0.02935784 0.0053534084 0.011097593 0.015600808 0.0046296413 -0.008349053 0.006015942
0.004635315 -0.010409637 0.013715588 0.015740125 0.0047550807 -0.0011108407 -0.0128700435 -0.00021454248
-0.008905291 0.005353788 0.005564251 -0.020685077 -0.0024910066 -0.0075031267 0.010704591 -0.0039008134
-0.012096215 0.0057835053 0.030567786 0.010778497 -0.011158114 0.0041912547 0.0052532386 -0.0012862312
-0.021777786 0.0092506725 0.0017650789 -0.014239895 0.005936391 -0.0051813014 0.017249404 0.01253324
0.0040530236 -0.006542967 -0.01990911 0.018506369 -0.009277339 -0.0029282551 -0.0052266517 0.021282384
0.020418053 0.011163805 0.006717308 -0.002002064 0.0017948116 -0.0016443556 0.02199923 -0.0023390753
0.009153373 0.010797235 0.010575253 0.017837863 0.019868687 0.008982632 -0.0011604837 0.021019844
0.0044263783 0.005417751 -0.004322642 0.0039463555 0.017969476 -0.028000697 0.014116961 0.011132228
0.020917695 -0.015067241 0.018697815 -0.0179092 0.018566074 0.0047499267 -0.004472873 -0.009243311
-0.0022392664 -0.010194278 -0.0089355325 0.008164179 -0.009344783 -0.008663721 0.004446751 -0.006778985
0.0042421618 -0.0041382294 -0.0062353765 -0.0019993559 0.0094388155 0.0022632983 -0.0027691333 0.0047858087
-0.005326381 0.00046122755 -0.011127903 -0.016978351 0.009745459 -0.0018752659 -0.019678272 -0.004690872
0.008873254 0.0042039063 0.0063513997 -0.0033150539 0.022628183 0.0004686443 -0.008710978 -0.016777476
-0.00074970315 0.0012781144 0.009772366 -0.014178139 -0.009477395 0.026254151 -0.018941632 -0.00182896
-0.0036451526 0.019349564 -0.0029698063 -0.025465235 -0.0062161214 -0.00043407964 0.005836759 -0.0043082787
0.0034330678 -0.01993805 -0.010198089 0.0007286667 0.0016273315 0.0030928522 -0.034009956 -0.0022514774
0.013714269 0.0029141717 0.0026058196 0.014354087 -0.009398894 -0.014023073 -0.0017617516 0.00460563
-0.0002983201 -0.010511112 0.0073138834 -0.008459438 0.00275644 -0.0089683775 -0.018934153 -0.020800415
0.015405851 -0.006631944 0.031543788 -0.0030484858 -0.0031741343 -0.010517116 -0.008375592 0.007822345
00000000: 6156 423c fff1 9d3b 55d1 4c3c ae27 37bc
00000010: ab12 69bc e497 a83b e688 103c 994a 39ba
00000020: 3580 8dbb 92b2 6f3c fdc5 a73a c1ae 01bc
00000030: 8778 633c c3bb 2bbc cab5 28bb 8d85 69bc
00000040: af90 193c c351 903c a25c dfbb 334b 4cbc
00000050: ceb9 a83b ea32 8f3c d7ce 583a 0725 663c
00000060: b664 43bc 8853 bdb8 a3ff 353b f88f dc3a
00000070: 2909 a4bb a7ec 313c b420 0fbc 37f5 833a
00000080: 0366 bcbc d064 b5bb d897 cd3b f955 c53c
00000090: f8f3 d73b f20c 00bb 9c7e 0bbc 82d2 113c
000000a0: 03b9 e73b 023e d63b 8d2f 4bbc 213b 37bb
000000b0: 8374 8e3b babe 7abc 9f2d 30bc e3b6 663b
000000c0: 3d95 ce3b bb4e d13c c160 46bc 6609 1b3c
000000d0: e7ef 8c3c 66c7 9f3c d81f 4d3c b77a 803c
000000e0: 05f7 c1bc 39d5 963c 4b28 da3b ca0e 91bc
000000f0: be63 483c 8339 15ba efc3 08bc e534 903c
00000100: a69e a0bc 73eb 22bc 07eb abbc 5478 0d3a
00000110: 947e bf3c 7d8d b73c fa9d 383c 4315 d639
00000120: 05ab d1bb 1076 533c cb42 893a d020 d8bb
00000130: bbd4 413a dba3 103c 31cc 1abc 27c7 6f3c
00000140: fa3e 5abc c34c 22bc a669 05bc 5c25 a4bb
00000150: 9895 9e3c 7340 c5bb bb8a 263c bfc7 603c
00000160: ad5b 99bc ff64 d43c e258 903b 9a65 8c3c
00000170: d3bc b5bb bd4d 603c 2345 803c 2ebe 303c
00000180: 67e0 8e3c da7f f03c a56b af3b aed2 353c
00000190: 889a 7f3c 3fb4 973b 77ca 08bc 6121 c53b
000001a0: d7e3 973b 2f8d 2abc 58b7 603c 6ff1 803c
000001b0: 82d0 9b3b a199 91ba e0dc 52bc cff6 60b9
000001c0: 7fe7 11bc d46e af3b 5254 b63b c073 a9bc
000001d0: 2840 23bb cadc f5bb 4f62 2f3c caa4 7fbb
000001e0: 342f 46bc 8f83 bd3b 4b69 fa3c 4b98 303c
000001f0: 86d0 36bc cb56 893b 5c23 ac3b c296 a8ba
00000200: 5467 b2bc 2290 173c 385a e73a 734e 69bc
00000210: 0f86 c23b e8c7 a9bb 9f4e 8d3c 3858 4d3c
00000220: 3acf 843b 6366 d6bb 6e18 a3bc ab9a 973c
00000230: fbff 17bc f8e7 3fbb 5544 abbb 6558 ae3c
00000240: c343 a73c 64e8 363c dd1c dc3b 0f35 03bb
00000250: e23f eb3a 6b87 d7ba bb37 b43c 2c4b 19bb
00000260: 07f8 153c e3e6 303c d343 2d3c b620 923c
00000270: a8c3 a23c e42b 133c 5f1b 98ba cf31 ac3c
00000280: 270b 913b 6487 b13b f3a4 8dbb 6e50 813b
00000290: b934 933c b861 e5bc d34a 673c f363 363c
000002a0: 965b ab3c 97dc 76bc 292c 993c 51b6 92bc
000002b0: e117 983c 46a5 9b3b 2e91 92bb 4271 17bc
000002c0: a8c0 12bb e705 27bc 5766 12bc 0cc3 053c
000002d0: dc1a 19bc 48f2 0dbc 0db6 913b 3f22 debb
000002e0: d501 8b3b fc99 87bb 2152 ccbb a007 03bb
000002f0: 43a5 1a3c d853 143b 597a 35bb 46d2 9c3b
00000300: ec88 aebb ead0 f139 cf51 36bc 2f16 8bbc
00000310: 6bab 1f3c 7bcb f5ba 5434 a1bc e3b5 99bb
00000320: 2061 113c ecc0 893b 671f d03b 6041 59bb
00000330: bd5e b93c 60b4 f539 7db8 0ebc eb70 89bc
00000340: ba87 44ba 6786 a73a 461c 203c 6d4b 68bc
00000350: 1347 1bbc f212 d73c 7b2b 9bbc b7b9 efba
00000360: 83e3 6ebb fa82 9e3c 15a1 42bb 789c d0bc
00000370: 9bb0 cbbb 2f95 e3b9 4942 bf3b 762c 8dbb
00000380: 52fd 603b 1f55 a3bc e315 27bc ff03 3f3a
00000390: 2f4c d53a 73b1 4a3b 064e 0bbd 868d 13bb
000003a0: d0b1 603c b0fb 3e3b 66c6 2a3b 682d 6b3c
000003b0: d2fd 19bc 08c1 65bc 93ea e6ba d3ea 963b
000003c0: d967 9cb9 cd36 2cbc 4da9 ef3b 7499 0abc
000003d0: 64a5 343b 1af0 12bc cc1b 9bbc a265 aabc
000003e0: d368 7c3c c750 d9bb 0f34 013d 1bc9 47bb
000003f0: 2305 50bb fb4f 2cbc c739 09bc 4b29 003c

action_model._discrete_distribution.branches.0.weight f4 [1, 256]
0.0012220641 0.0038104008 -0.012316215 -0.003869417 0.006185412 0.01601493 -0.0056172754 -0.007966425
-0.0028252162 -0.0006874041 -0.00031851447 -0.0112267835 0.0047519896 0.005219029 0.004441952 -0.0100155715
0.007001698 0.0055343388 0.0026535983 0.009941217 0.009702165 -0.00052817375 0.0022719824 0.010782785
-0.011662698 -0.006355788 -9.899456e-05 -0.007596084 -0.008882125 0.005788054 -0.0022588472 -0.005038524
0.00834393 0.0028270213 -0.002584513 -0.0031233323 -0.0062705963 -0.001205111 -0.012475422 0.0046012495
0.0052797566 0.010319678 -0.015164144 -0.0052523846 -0.0022314638 0.001545807 -0.007456628 0.0032053187
0.007451647 0.0011122156 0.0016002556 -0.0090436 -0.0016358158 0.006871868 -0.009204357 -0.0013500602
-0.0020628914 0.00020755541 -0.007462541 -0.0032611855 -0.0033961216 -0.0012029015 -0.0006001885 -0.005622742
-9.572276e-05 -0.006893919 -0.008695665 0.0040491186 0.0017711464 0.00067400513 -0.00062232255 -0.0037041423
0.0031041552 0.0039138435 -0.004164239 -0.0036589808 0.0036585988 -0.0014371079 -0.00083653454 0.00568692
0.0030270221 -0.006076782 0.006566988 -0.00027647277 0.0049642064 -0.0015311295 -0.010566137 -0.0043108147
-0.0017713879 0.010511075 -0.008181606 -0.00706504 -0.005293159 -0.0075079175 0.0033997365 0.0054287273
0.001037196 0.0007838827 -0.0014160069 -0.00960429 -0.0028743772 -0.009991092 0.0038457927 -0.0091273
-0.0065341755 -0.0034126528 0.010591314 -0.008496225 -0.0038150053 -0.010711966 0.00045654984 -0.0008799091
-0.0027133438 -0.0051315697 0.004069061 0.0074049816 0.008608489 -0.0046299226 0.0026991707 -0.015505533
0.002952347 0.005279425 -0.0019815385 0.011123541 0.009107538 0.0012851624 -0.0125924 -0.010910484
-0.0025033609 -0.008525071 0.0070254314 0.0005203578 -0.0051926966 -0.00558316 -0.0062574777 0.014056479
0.0032125402 -0.0015386352 0.002391894 -0.0007221419 0.0006450386 0.008960239 -0.0041770637 0.0029247531
0.004390686 0.007918258 0.004953706 -0.0020564643 -0.0021504497 -0.005838621 0.006055767 -0.012183578
0.0007519425 -0.0069135497 -0.00076580327 -0.005037866 -0.004116035 0.00042581288 0.0024296094 -0.0019999854
-0.0013422625 0.015883712 0.014243059 0.0059276503 -0.0006872578 0.0002054683 0.0038817045 -0.002456098
0.006931254 -0.008907727 0.010458408 0.0023046266 0.012928642 -0.002268953 -0.004472926 0.009880538
-0.003734568 -0.0019642215 0.0035684982 0.00018634036 0.000592769 0.0045729666 -0.0003140206 0.0092902575
-0.0023887337 -0.007209295 -0.0030284242 0.004997967 0.0065433197 0.0031536096 -0.0005555475 -0.001208906
-0.01665009 -0.007084248 -0.011775571 -0.006158947 0.006345322 -0.0005442891 0.0047352985 -0.008883074
-0.00039963546 0.0005880887 -0.0045762197 -0.0026145584 0.005904334 -0.00018594277 0.0012310117 0.006575003
0.0060925814 0.0033420552 0.009673578 -0.00671741 0.0022431663 -0.005254956 -0.00043107235 0.0015494137
0.0013573774 -0.0030538326 0.005663108 0.00061827607 0.012678861 0.0035238757 -0.002589456 0.008885374
-0.0055913683 -0.00223743 0.0039036784 0.0064855986 -0.00084940204 0.0018285994 -0.0063554742 -0.006200281
0.0042841765 -0.0025571177 -0.009300625 -0.010672566 0.00397164 0.005295468 -0.0020562576 0.00070037163
-0.002490633 0.012827843 -0.002482036 -0.0005218668 -0.0005994493 -0.0069727483 0.0016203789 -0.0050711245
-0.00014318705 -0.0014710869 0.0047622924 -0.012735598 -0.0038039652 -0.0037159645 -0.0056771026 0.0056320447
00000000: ab2d a03a ebb7 793b f3c9 49bc 0b96 7dbb
00000010: ffae ca3b be31 833c 1f11 b8bb 9c85 02bc
00000020: 4327 39bb e932 34ba 4afe a6b9 8bf0 37bc
00000030: 94b6 9b3b 6304 ab3b cb8d 913b 5a18 24bc
00000040: 806e e53b 6659 b53b fee7 2d3b 7ce0 223c
00000050: d4f5 1e3c 2475 0aba 8ae5 143b 47aa 303c
00000060: e714 3fbc 3744 d0bb 4d9b cfb8 92e8 f8bb
00000070: 5586 11bc b7a9 bd3b 2b09 14bb 341a a5bb
00000080: fbb4 083c 8c45 393b ef60 29bb d2b0 4cbb
00000090: 9379 cdbb d1f4 9dba b665 4cbc 14c6 963b
000000a0: cf01 ad3b de13 293c 0873 78bc 321c acbb
000000b0: c03d 12bb ad9c ca3a bb56 f4bb 5310 523b
000000c0: f22c f43b c3c7 913a abbf d13a 9c2b 14bc
000000d0: df68 d6ba 682d e13b dfcd 16bc 81f4 b0ba
000000e0: 9331 07bb 3ba3 5939 5588 f4bb 9db9 55bb
000000f0: 7791 5ebb adaa 9dba f855 1dba fb3e b8bb
00000100: c4be c8b8 62e6 e1bb 4378 0ebc 78ae 843b
00000110: d025 e83a b8af 303a 5c23 23ba 32c1 72bb
00000120: 156f 4b3b b33f 803b 2b74 88bb 83cb 6fbb
00000130: 1ac5 6f3b 575d bcba e24a 5bba 5859 ba3b
00000140: 0161 463b be1f c7bb e32f d73b 8cf3 90b9
00000150: c8aa a23b 2eb0 c8ba 971d 2dbc bc41 8dbb
00000160: ea2d e8ba a536 2c3c 250c 06bc da81 e7bb
00000170: 3c72 adbb fa04 f6bb 1dce 5e3b 77e3 b13b
00000180: 86f2 873a 7a7d 4d3a 4f99 b9ba 505b 1dbc
00000190: 0c60 3cbb adb1 23bc b209 7c3b ac8a 15bc
000001a0: a31c d6bb d0a6 5fbb 3187 2d3c c033 0bbc
000001b0: 2b05 7abb 3e81 2fbc 155d ef39 b3a9 66ba
000001c0: 5bd2 31bb ba26 a8bb c255 853b 7da5 f23b
000001d0: 9f0a 0d3c 9bb6 97bb 92e4 303b eb0a 7ebc
000001e0: 2a7c 413b 07ff ac3b b3dc 01bb 833f 363c
000001f0: c837 153c e572 a83a 5b50 4ebc e3c1 32bc
00000200: 6d0f 24bb bdac 0bbc 9735 e63b 9f68 083a
00000210: 7f27 aabb f1f2 b6bb 870b cdbb 254d 663c
00000220: 7b89 523b 08ac c9ba 53c1 1c3b 1f4e 3dba
00000230: cf17 293a f7cd 123c c0df 88bb 37ad 3f3b
00000240: bedf 8f3b 95bb 013c b352 a23b bfc5 06bb
00000250: 8fee 0cbb e751 bfbb 756f c63b a19d 47bc
00000260: 021e 453a 0f8b e2bb 30c0 48ba af14 a5bb
00000270: cedf 86bb a33f df39 153a 1f3b 3012 03bb
00000280: dbee afba 8f1e 823c b85b 693c bc3c c23b
00000290: 1729 34ba fa72 5739 3264 7e3b 7df6 20bb
000002a0: 931f e33b b7f1 11bc be59 2b3c 3809 173b
000002b0: a8d2 533c b7b2 14bb 9f91 92bb fbe1 213c
000002c0: a7bf 74bb 2bba 00bb 77dd 693b 5c64 4339
000002d0: 0e64 1b3a d3d8 953b 22a3 a4b9 2a36 183c
000002e0: 4d8c 1cbb f33b ecbb 8778 46bb fcc5 a33b
000002f0: 5869 d63b caac 4e3b 29a2 11ba 2774 9eba
00000300: c565 88bc fb22 e8bb 53ee 40bc fed0 c9bb
00000310: 6bec cf3b a0ae 0eba 902a 9b3b 508a 11bc
00000320: 2a86 d1b9 f729 1a3a 1df4 95bb 0359 2bbb
00000330: 2579 c13b a2f9 42b9 e659 a13a 1f73 d73b
00000340: 47a4 c73b 6206 5b3b ed7d 1e3c b81d dcbb
00000350: 1602 133b c431 acbb 8d01 e2b9 b215 cb3a
00000360: 07ea b13a cf22 48bb 9891 b93b ce13 223a
00000370: ffba 4f3c d3f0 663b ddb3 29bb f693 113c
00000380: cc37 b7bb d9a1 12bb dbd4 7f3b 2585 d43b
00000390: 68aa 5eba 9dad ef3a 9541 d0bb ba2b cbbb
000003a0: 4762 8c3b 5195 27bb a661 18bc fcdb 2ebc
000003b0: 8824 823b 9b85 ad3b 47c2 06bb 2599 373a
000003c0: e339 23bb e02b 523c a7a9 22bb e3cd 08ba
000003d0: 5d24 1dba a77b e4bb e562 d43a ad2b a6bb
000003e0: 7b24 16b9 7cd1 c0ba 010d 9c3b f8a8 50bc
000003f0: f24b 79bb 8a87 73bb fd06 babb 048d b83b

network_body._body_endoder.seq_layers.0.bias f4 [256]
0.0 0.0 0.0 0.0 0.0 0.0 0.0 0.0
0.0 0.0 0.0 0.0 0.0 0.0 0.0 0.0
0.0 0.0 0.0 0.0 0.0 0.0 0.0 0.0
0.0 0.0 0.0 0.0 0.0 0.0 0.0 0.0
0.0 0.0 0.0 0.0 0.0 0.0 0.0 0.0
0.0 0.0 0.0 0.0 0.0 0.0 0.0 0.0
0.0 0.0 0.0 0.0 0.0 0.0 0.0 0.0
0.0 0.0 0.0 0.0 0.0 0.0 0.0 0.0
0.0 0.0 0.0 0.0 0.0 0.0 0.0 0.0
0.0 0.0 0.0 0.0 0.0 0.0 0.0 0.0
0.0 0.0 0.0 0.0 0.0 0.0 0.0 0.0
0.0 0.0 0.0 0.0 0.0 0.0 0.0 0.0
0.0 0.0 0.0 0.0 0.0 0.0 0.0 0.0
0.0 0.0 0.0 0.0 0.0 0.0 0.0 0.0
0.0 0.0 0.0 0.0 0.0 0.0 0.0 0.0
0.0 0.0 0.0 0.0 0.0 0.0 0.0 0.0
0.0 0.0 0.0 0.0 0.0 0.0 0.0 0.0
0.0 0.0 0.0 0.0 0.0 0.0 0.0 0.0
0.0 0.0 0.0 0.0 0.0 0.0 0.0 0.0
0.0 0.0 0.0 0.0 0.0 0.0 0.0 0.0
0.0 0.0 0.0 0.0 0.0 0.0 0.0 0.0
0.0 0.0 0.0 0.0 0.0 0.0 0.0 0.0
0.0 0.0 0.0 0.0 0.0 0.0 0.0 0.0
0.0 0.0 0.0 0.0 0.0 0.0 0.0 0.0
0.0 0.0 0.0 0.0 0.0 0.0 0.0 0.0
0.0 0.0 0.0 0.0 0.0 0.0 0.0 0.0
0.0 0.0 0.0 0.0 0.0 0.0 0.0 0.0
0.0 0.0 0.0 0.0 0.0 0.0 0.0 0.0
0.0 0.0 0.0 0.0 0.0 0.0 0.0 0.0
0.0 0.0 0.0 0.0 0.0 0.0 0.0 0.0
0.0 0.0 0.0 0.0 0.0 0.0 0.0 0.0
0.0 0.0 0.0 0.0 0.0 0.0 0.0 0.0
00000000: 0000 0000 0000 0000 0000 0000 0000 0000
00000010: 0000 0000 0000 0000 0000 0000 0000 0000
00000020: 0000 0000 0000 0000 0000 0000 0000 0000
00000030: 0000 0000 0000 0000 0000 0000 0000 0000
00000040: 0000 0000 0000 0000 0000 0000 0000 0000
00000050: 0000 0000 0000 0000 0000 0000 0000 0000
00000060: 0000 0000 0000 0000 0000 0000 0000 0000
00000070: 0000 0000 0000 0000 0000 0000 0000 0000
00000080: 0000 0000 0000 0000 0000 0000 0000 0000
00000090: 0000 0000 0000 0000 0000 0000 0000 0000
000000a0: 0000 0000 0000 0000 0000 0000 0000 0000
000000b0: 0000 0000 0000 0000 0000 0000 0000 0000
000000c0: 0000 0000 0000 0000 0000 0000 0000 0000
000000d0: 0000 0000 0000 0000 0000 0000 0000 0000
000000e0: 0000 0000 0000 0000 0000 0000 0000 0000
000000f0: 0000 0000 0000 0000 0000 0000 0000 0000
00000100: 0000 0000 0000 0000 0000 0000 0000 0000
00000110: 0000 0000 0000 0000 0000 0000 0000 0000
00000120: 0000 0000 0000 0000 0000 0000 0000 0000
00000130: 0000 0000 0000 0000 0000 0000 0000 0000
00000140: 0000 0000 0000 0000 0000 0000 0000 0000
00000150: 0000 0000 0000 0000 0000 0000 0000 0000
00000160: 0000 0000 0000 0000 0000 0000 0000 0000
00000170: 0000 0000 0000 0000 0000 0000 0000 0000
00000180: 0000 0000 0000 0000 0000 0000 0000 0000
00000190: 0000 0000 0000 0000 0000 0000 0000 0000
000001a0: 0000 0000 0000 0000 0000 0000 0000 0000
000001b0: 0000 0000 0000 0000 0000 0000 0000 0000
000001c0: 0000 0000 0000 0000 0000 0000 0000 0000
000001d0: 0000 0000 0000 0000 0000 0000 0000 0000
000001e0: 0000 0000 0000 0000 0000 0000 0000 0000
000001f0: 0000 0000 0000 0000 0000 0000 0000 0000
00000200: 0000 0000 0000 0000 0000 0000 0000 0000
00000210: 0000 0000 0000 0000 0000 0000 0000 0000
00000220: 0000 0000 0000 0000 0000 0000 0000 0000
00000230: 0000 0000 0000 0000 0000 0000 0000 0000
00000240: 0000 0000 0000 0000 0000 0000 0000 0000
00000250: 0000 0000 0000 0000 0000 0000 0000 0000
00000260: 0000 0000 0000 0000 0000 0000 0000 0000
00000270: 0000 0000 0000 0000 0000 0000 0000 0000
00000280: 0000 0000 0000 0000 0000 0000 0000 0000
00000290: 0000 0000 0000 0000 0000 0000 0000 0000
000002a0: 0000 0000 0000 0000 0000 0000 0000 0000
000002b0: 0000 0000 0000 0000 0000 0000 0000 0000
000002c0: 0000 0000 0000 0000 0000 0000 0000 0000
000002d0: 0000 0000 0000 0000 0000 0000 0000 0000
000002e0: 0000 0000 0000 0000 0000 0000 0000 0000
000002f0: 0000 0000 0000 0000 0000 0000 0000 0000
00000300: 0000 0000 0000 0000 0000 0000 0000 0000
00000310: 0000 0000 0000 0000 0000 0000 0000 0000
00000320: 0000 0000 0000 0000 0000 0000 0000 0000
00000330: 0000 0000 0000 0000 0000 0000 0000 0000
00000340: 0000 0000 0000 0000 0000 0000 0000 0000
00000350: 0000 0000 0000 0000 0000 0000 0000 0000
00000360: 0000 0000 0000 0000 0000 0000 0000 0000
00000370: 0000 0000 0000 0000 0000 0000 0000 0000
00000380: 0000 0000 0000 0000 0000 0000 0000 0000
00000390: 0000 0000 0000 0000 0000 0000 0000 0000
000003a0: 0000 0000 0000 0000 0000 0000 0000 0000
000003b0: 0000 0000 0000 0000 0000 0000 0000 0000
000003c0: 0000 0000 0000 0000 0000 0000 0000 0000
000003d0: 0000 0000 0000 0000 0000 0000 0000 0000
000003e0: 0000 0000 0000 0000 0000 0000 0000 0000
000003f0: 0000 0000 0000 0000 0000 0000 0000 0000

network_body._body_endoder.seq_layers.0.weight f4 [256, 119]
-0.09630456 -0.020041134 -0.013443286 -0.1445299 -0.15440543 0.06780043 0.18837748 0.04952518
0.07476007 -0.0033772264 0.00014179257 0.03849628 -0.08429989 -0.068358816 0.13074668 -0.09334712
0.06382647 0.00988406 -0.050349135 -0.01271138 -0.17923456 0.19745137 0.1104474 0.11521674
0.044965547 0.08250966 0.08896401 0.078312345 0.15549918 0.0638754 -0.11124747 0.020774178
0.08007885 0.053342856 0.08704649 -0.010037151 -0.14999019 0.008298555 -0.084856935 -0.011159849
0.11582404 -0.14494999 0.020656383 0.14323074 -0.10871698 0.024442349 0.061324373 -0.025380231
-0.07395329 -0.079628736 -0.13695422 -0.042018954 0.08539103 0.08258576 -0.356156 0.002668972
0.06547757 0.05296832 -0.068207875 0.2624864 0.064659014 -0.04139468 0.14961778 0.041358467
0.05446613 0.011063626 -0.07151276 -0.047917154 0.037873726 -0.060202125 0.2464715 -0.02238492
-0.03171517 0.12514661 0.12852387 -0.05488971 0.16118614 -0.11527879 0.06778718 0.015070157
-0.12547956 0.18454164 0.01937122 -0.026901357 -0.06399221 0.020227678 0.079035066 -0.015923694
-0.0868729 0.0046534077 0.23967753 -0.004630861 0.02674736 -0.120273985 -0.053065326 0.062028877
0.005492001 0.06984238 0.07629373 -0.03322671 -0.0037236405 0.14200898 0.037566584 0.061487395
-0.017681716 -0.006811736 -0.020744724 0.007217723 0.032827746 0.07552357 -0.06783994 -0.022368973
-0.056891784 -0.026077636 0.08968155 0.06133444 0.024634352 0.08921631 0.0076317205 -0.034051783
0.09732346 0.0601077 0.13391873 0.05660157 0.03889945 -0.07560753 0.07148522 -0.043754723
-0.10328049 -0.08276365 -0.10343292 -0.052061543 0.32672328 0.015070129 -0.012013608 0.06742642
-0.054439705 -0.10260544 0.08048 -0.030990534 0.060291942 0.0393347 0.08849981 0.018310914
-0.032006416 -0.09271085 -0.0983546 -0.04696159 -0.02982085 0.025040193 -0.056333814 0.110456795
0.072137706 0.15638192 -0.10831604 0.16006881 0.09142947 -0.084281616 -0.00039132425 -0.07498748
-0.035569806 -0.04812973 0.03967134 -0.0983772 0.10118411 0.123980805 0.02432817 0.088242635
0.1940076 0.08825267 -0.12321291 0.046959683 0.09855986 0.042973157 -0.08443069 0.020639304
-0.023172034 0.037750844 0.093669415 0.013567197 0.021829335 -0.09917495 -0.009123173 -0.0808623
0.027872639 0.006117726 -0.02260115 -0.04631854 -0.045879845 0.043373317 -0.0461347 0.010324104
0.1163744 0.052457012 0.15824321 0.055494018 -0.08301209 -0.04125056 0.050567273 0.026384447
-0.073533535 0.008645964 0.10482575 0.14262399 -0.039640438 0.24889024 -0.017098943 0.04549965
0.07172909 0.06692585 -0.11023976 0.016024493 0.05344756 0.02887314 0.013113559 -0.1009935
-0.019229338 0.005053769 -0.12792991 -0.009822797 0.026971215 0.08255232 -0.088171266 -0.14270401
-0.032778893 -0.1051328 0.025074013 0.117200926 -0.1597179 0.05191751 0.19361712 -0.10023447
0.05994001 0.17593975 -0.11029776 -0.086390145 0.042915378 0.1853797 0.014596537 0.05769242
-0.11419501 0.14315176 -0.098437116 -0.1116504 -0.012839793 -0.04374563 0.11820304 -0.23726635
-0.09365705 -0.1561937 -0.063323006 0.09330378 0.045643184 0.056994002 -0.0047770254 0.05574661
00000000: 533b c5bd 4e2d a4bc 3a41 5cbc a5ff 13be
00000010: 751c 1ebe f4da 8a3d 07e6 403e eada 4a3d
00000020: cf1b 993d 7554 5dbb 27ae 1439 46ae 1d3d
00000030: 6ca5 acbd b5ff 8bbd 75e2 053e c62c bfbd
00000040: 74b7 823d c1f0 213c e53a 4ebd 6443 50bc
00000050: 4489 37be b130 4a3e 3f32 e23d c1f6 eb3d
00000060: cb2d 383d d3fa a83d c332 b63d 3962 a03d
00000070: 2d3b 1f3e 1bd1 823d b7d5 e3bd 9c2e aa3c
00000080: 6100 a43d 0a7e 5a3d 6e45 b23d dd72 24bc
00000090: 0797 19be aaf6 073c 79c9 adbd cdd7 36bc
000000a0: 2735 ed3d c56d 14be 9337 a93c 14ab 123e
000000b0: 02a7 debd 523b c83c 442f 7b3d 34ea cfbc
000000c0: d374 97bd 6414 a3bd ba3d 0cbe 111c 2cbd
000000d0: 7ee1 ae3d b922 a93d 145a b6be ebe9 2e3b
000000e0: 1b19 863d 4ff5 583d 92b0 8bbd 9e64 863e
000000f0: f26b 843d 788d 29bd 6735 193e 7f67 293d
00000100: e017 5f3d 3644 353c 4875 92bd c744 44bd
00000110: 7b21 1b3d 8196 76bd 0663 7c3e 9460 b7bc
00000120: c4e7 01bd 6f26 003e c39b 033e 08d4 60bd
00000130: fb0d 253e 4917 ecbd 01d4 8a3d d2e8 763c
00000140: b77d 00be 7cf8 3c3e 65b0 9e3c 3c60 dcbc
00000150: 590e 83bd 84b4 a53c 23dd a13d 6872 82bc
00000160: 6bea b1bd 9d7b 983b 076e 753e 7abe 97bb
00000170: 481d db3c 3552 f6bd 075b 59bd fe11 7e3d
00000180: 3ef6 b33b 8609 8f3d e33f 9c3d bb18 08bd
00000190: 5208 74bb cd6a 113e 6bdf 193d 35da 7b3d
000001a0: 3fd9 90bc fc34 dfbb d7f0 a9bc a682 ec3b
000001b0: 6376 063d 1aac 9a3d abef 8abd 233f b7bc
000001c0: 5c07 69bd c4a0 d5bc f6aa b73d d239 7b3d
000001d0: fbcd c93c 0ab7 b63d 8313 fa3b e279 0bbd
000001e0: 8651 c73d 7e33 763d fe21 093e 0cd7 673d
000001f0: 0855 1f3d 1fd8 9abd d866 923d 2738 33bd
00000200: b984 d3bd fd7f a9bd a4d4 d3bd 7c3e 55bd
00000210: 4648 a73e b4e8 763c b9d4 44bc dd16 8a3d
00000220: 2bfc 5ebd cd22 d2bd b3d2 a43d dcdf fdbc
00000230: aff4 763d 6c1d 213d 633f b53d c500 963c
00000240: 2919 03bd 30df bdbd 236e c9bd cc5a 40bd
00000250: db4a f4bc 1721 cd3c 49be 66bd 2c37 e23d
00000260: efbc 933d 9522 203e cdd4 ddbd 14e9 233e
00000270: 603f bb3d d79b acbd a72a cdb9 0993 99bd
00000280: a5b1 11bd ae23 45bd 6a7e 223d fc79 c9bd
00000290: 9d39 cf3d a6e9 fd3d df4b c73c 8eb8 b43d
000002a0: eea9 463e d1bd b43d 0d57 fcbd cc58 403d
000002b0: c0d9 c93d 9f04 303d ffe9 acbd c213 a93c
000002c0: 47d3 bdbc a1a0 1a3d c0d5 bf3d f348 5e3c
000002d0: 6fd3 b23c 3c1c cbbd 5c79 15bc 229b a5bd
000002e0: 2955 e43c 3577 c83b 0c26 b9bc 82b8 3dbd
000002f0: 81ec 3bbd 38a8 313d bdf7 3cbd 6e26 293c
00000300: b455 ee3d 2add 563d 820a 223e b24d 633d
00000310: 3e02 aabd 59f6 28bd a11f 4f3d 3224 d83c
00000320: c098 96bd cda7 0d3c e2ae d63d 060c 123e
00000330: 035e 22bd 15dd 7e3e 1513 8cbc d75d 3a3d
00000340: b3e6 923d 6c10 893d 62c5 e1bd cc45 833c
00000350: d4eb 5a3d 5d87 ec3c 41da 563c aed5 cebd
00000360: d886 9dbc 169a a53b 0f00 03be ccef 20bc
00000370: bdf2 dc3c 3111 a93d 2393 b4bd 0021 12be
00000380: 2943 06bd de4f d7bd 0468 cd3c 0a07 f03d
00000390: 178d 23be 74a7 543d 9143 463e bb47 cdbd
000003a0: a883 753d 8d29 343e cbe3 e1bd 51ed b0bd
000003b0: 09c8 2f3d 2dd4 3d3e 5026 6f3c e34e 6c3d
000003c0: 13df e9bd 6096 123e 6699 c9bd f7a8 e4bd
000003d0: ff5d 52bc 9e2e 33bd 6f14 f23d f3f5 72be
000003e0: 44cf bfbd 3ef1 1fbe 7eaf 81bd 0d16 bf3d
000003f0: 59f4 3a3d 8b72 693d 9888 9cbb 8f56 643d

network_body._body_endoder.seq_layers.2.bias f4 [256]
0.0 0.0 0.0 0.0 0.0 0.0 0.0 0.0
0.0 0.0 0.0 0.0 0.0 0.0 0.0 0.0
0.0 0.0 0.0 0.0 0.0 0.0 0.0 0.0
0.0 0.0 0.0 0.0 0.0 0.0 0.0 0.0
0.0 0.0 0.0 0.0 0.0 0.0 0.0 0.0
0.0 0.0 0.0 0.0 0.0 0.0 0.0 0.0
0.0 0.0 0.0 0.0 0.0 0.0 0.0 0.0
0.0 0.0 0.0 0.0 0.0 0.0 0.0 0.0
0.0 0.0 0.0 0.0 0.0 0.0 0.0 0.0
0.0 0.0 0.0 0.0 0.0 0.0 0.0 0.0
0.0 0.0 0.0 0.0 0.0 0.0 0.0 0.0
0.0 0.0 0.0 0.0 0.0 0.0 0.0 0.0
0.0 0.0 0.0 0.0 0.0 0.0 0.0 0.0
0.0 0.0 0.0 0.0 0.0 0.0 0.0 0.0
0.0 0.0 0.0 0.0 0.0 0.0 0.0 0.0
0.0 0.0 0.0 0.0 0.0 0.0 0.0 0.0
0.0 0.0 0.0 0.0 0.0 0.0 0.0 0.0
0.0 0.0 0.0 0.0 0.0 0.0 0.0 0.0
0.0 0.0 0.0 0.0 0.0 0.0 0.0 0.0
0.0 0.0 0.0 0.0 0.0 0.0 0.0 0.0
0.0 0.0 0.0 0.0 0.0 0.0 0.0 0.0
0.0 0.0 0.0 0.0 0.0 0.0 0.0 0.0
0.0 0.0 0.0 0.0 0.0 0.0 0.0 0.0
0.0 0.0 0.0 0.0 0.0 0.0 0.0 0.0
0.0 0.0 0.0 0.0 0.0 0.0 0.0 0.0
0.0 0.0 0.0 0.0 0.0 0.0 0.0 0.0
0.0 0.0 0.0 0.0 0.0 0.0 0.0 0.0
0.0 0.0 0.0 0.0 0.0 0.0 0.0 0.0
0.0 0.0 0.0 0.0 0.0 0.0 0.0 0.0
0.0 0.0 0.0 0.0 0.0 0.0 0.0 0.0
0.0 0.0 0.0 0.0 0.0 0.0 0.0 0.0
0.0 0.0 0.0 0.0 0.0 0.0 0.0 0.0
00000000: 0000 0000 0000 0000 0000 0000 0000 0000
00000010: 0000 0000 0000 0000 0000 0000 0000 0000
00000020: 0000 0000 0000 0000 0000 0000 0000 0000
00000030: 0000 0000 0000 0000 0000 0000 0000 0000
00000040: 0000 0000 0000 0000 0000 0000 0000 0000
00000050: 0000 0000 0000 0000 0000 0000 0000 0000
00000060: 0000 0000 0000 0000 0000 0000 0000 0000
00000070: 0000 0000 0000 0000 0000 0000 0000 0000
00000080: 0000 0000 0000 0000 0000 0000 0000 0000
00000090: 0000 0000 0000 0000 0000 0000 0000 0000
000000a0: 0000 0000 0000 0000 0000 0000 0000 0000
000000b0: 0000 0000 0000 0000 0000 0000 0000 0000
000000c0: 0000 0000 0000 0000 0000 0000 0000 0000
000000d0: 0000 0000 0000 0000 0000 0000 0000 0000
000000e0: 0000 0000 0000 0000 0000 0000 0000 0000
000000f0: 0000 0000 0000 0000 0000 0000 0000 0000
00000100: 0000 0000 0000 0000 0000 0000 0000 0000
00000110: 0000 0000 0000 0000 0000 0000 0000 0000
00000120: 0000 0000 0000 0000 0000 0000 0000 0000
00000130: 0000 0000 0000 0000 0000 0000 0000 0000
00000140: 0000 0000 0000 0000 0000 0000 0000 0000
00000150: 0000 0000 0000 0000 0000 0000 0000 0000
00000160: 0000 0000 0000 0000 0000 0000 0000 0000
00000170: 0000 0000 0000 0000 0000 0000 0000 0000
00000180: 0000 0000 0000 0000 0000 0000 0000 0000
00000190: 0000 0000 0000 0000 0000 0000 0000 0000
000001a0: 0000 0000 0000 0000 0000 0000 0000 0000
000001b0: 0000 0000 0000 0000 0000 0000 0000 0000
000001c0: 0000 0000 0000 0000 0000 0000 0000 0000
000001d0: 0000 0000 0000 0000 0000 0000 0000 0000
000001e0: 0000 0000 0000 0000 0000 0000 0000 0000
000001f0: 0000 0000 0000 0000 0000 0000 0000 0000
00000200: 0000 0000 0000 0000 0000 0000 0000 0000
00000210: 0000 0000 0000 0000 0000 0000 0000 0000
00000220: 0000 0000 0000 0000 0000 0000 0000 0000
00000230: 0000 0000 0000 0000 0000 0000 0000 0000
00000240: 0000 0000 0000 0000 0000 0000 0000 0000
00000250: 0000 0000 0000 0000 0000 0000 0000 0000
00000260: 0000 0000 0000 0000 0000 0000 0000 0000
00000270: 0000 0000 0000 0000 0000 0000 0000 0000
00000280: 0000 0000 0000 0000 0000 0000 0000 0000
00000290: 0000 0000 0000 0000 0000 0000 0000 0000
000002a0: 0000 0000 0000 0000 0000 0000 0000 0000
000002b0: 0000 0000 0000 0000 0000 0000 0000 0000
000002c0: 0000 0000 0000 0000 0000 0000 0000 0000
000002d0: 0000 0000 0000 0000 0000 0000 0000 0000
000002e0: 0000 0000 0000 0000 0000 0000 0000 0000
000002f0: 0000 0000 0000 0000 0000 0000 0000 0000
00000300: 0000 0000 0000 0000 0000 0000 0000 0000
00000310: 0000 0000 0000 0000 0000 0000 0000 0000
00000320: 0000 0000 0000 0000 0000 0000 0000 0000
00000330: 0000 0000 0000 0000 0000 0000 0000 0000
00000340: 0000 0000 0000 0000 0000 0000 0000 0000
00000350: 0000 0000 0000 0000 0000 0000 0000 0000
00000360: 0000 0000 0000 0000 0000 0000 0000 0000
00000370: 0000 0000 0000 0000 0000 0000 0000 0000
00000380: 0000 0000 0000 0000 0000 0000 0000 0000
00000390: 0000 0000 0000 0000 0000 0000 0000 0000
000003a0: 0000 0000 0000 0000 0000 0000 0000 0000
000003b0: 0000 0000 0000 0000 0000 0000 0000 0000
000003c0: 0000 0000 0000 0000 0000 0000 0000 0000
000003d0: 0000 0000 0000 0000 0000 0000 0000 0000
000003e0: 0000 0000 0000 0000 0000 0000 0000 0000
000003f0: 0000 0000 0000 0000 0000 0000 0000 0000

network_body._body_endoder.seq_layers.2.weight f4 [256, 256]
0.039479855 0.007954634 -0.046679914 0.033944212 0.08998753 -0.002433652 0.0038618576 0.08884521
-0.037224412 0.015149976 0.028374128 -0.06715778 -0.020668034 0.039129153 -0.08020864 -0.054136626
-0.034208674 -0.0070331795 0.045793895 -0.084724575 -0.08107403 0.02629888 0.036273647 0.019067599
-0.047162782 0.076336205 0.02755384 -0.04776927 0.019227488 0.006205282 0.02019593 0.05382
0.020267077 -0.023764621 0.0046276576 -0.03511503 -0.002238886 0.07810286 0.043701425 0.070388496
0.05089664 0.084723 0.02512572 0.016148163 -0.031081336 -0.025153765 -0.06187344 -0.059137434
-0.015839107 -0.14315036 0.08431307 -0.07422655 -0.027561165 0.05196624 -0.0638724 0.034461718
0.03632259 -0.03527057 0.0031931796 0.079929955 0.053898465 -0.043107927 -0.009209441 0.047500003
0.023900498 0.04415162 0.13001682 0.17919 0.0798139 0.014947301 -0.010143763 -0.014503226
0.09613854 -0.0147940405 0.047654845 0.067619406 -0.0008546162 0.009301252 -0.04553875 -0.06842698
-0.04074681 -0.008641986 -0.041524637 0.007877427 -0.04018469 0.07701038 0.014753549 -0.10262705
0.032880377 -0.022949837 0.13702689 0.08752528 0.015759297 -0.069145545 -0.054552093 -0.0053758086
-0.048475597 0.015558921 0.05828466 -0.044731315 0.0031998784 -0.12541163 0.04415209 0.11602338
0.007734693 -0.07646378 0.016649636 -0.063144885 -0.070624866 -0.019758122 -0.04141881 -0.02990894
0.08469533 0.043216996 0.05301403 -0.072743565 0.010350036 0.042744998 -0.070346974 0.0055087297
-0.0015148999 0.033186734 -0.06363311 0.046849474 0.043878786 0.008512594 0.044441193 -0.09700703
-0.025093842 0.03709167 0.027663754 0.05309836 0.086914174 0.023711568 0.027186181 0.09136023
-0.046618354 -0.026420295 -0.05192492 -0.009824739 -0.06320988 0.093119234 0.03980716 0.08091486
0.1253521 -0.011354605 -0.06444692 0.022784226 -0.011523399 0.075441584 0.020851744 0.037322257
0.038574968 -0.08868089 0.040181324 0.040092107 0.0650996 -0.07316467 -0.09683201 -0.08546049
0.016013347 -0.16721235 -0.055671953 0.036533292 0.073534094 -0.08103586 0.07794909 0.0675267
0.0749375 -0.002096785 0.0561639 -0.12801386 -0.058534935 -0.0017440439 0.039629083 -0.037324056
-0.11933152 0.12884617 -0.058305055 -0.003811043 -0.046801448 0.02802407 0.023676395 0.0038100537
-0.029670281 0.11709598 0.012839382 0.00095597876 0.033779796 0.016002871 -0.029669097 0.03889091
-0.031193139 0.091130815 0.049409315 -0.113967665 -0.029894229 -0.07776545 -0.035172217 0.031353988
0.06909929 -0.040018216 0.008694801 0.102655835 0.06153608 -0.05065182 0.09584456 0.03522766
-0.118931 0.07971886 -0.049821027 0.0007746199 0.053408 -0.11395431 -0.04945464 -0.0037174206
-0.0065911724 0.04047512 -0.050849363 0.10283599 -0.0666363 0.06565583 0.03466263 -0.035326
-0.033746663 -0.038050298 -0.02079918 0.043940198 -0.08920432 -0.039732046 -0.05796571 0.016168676
-0.11809641 0.056960646 -0.022090996 0.066882774 0.0023250647 0.011888616 -0.00533146 -0.0508158
0.1153551 -0.014482791 -0.08940889 0.038450442 0.0285686 0.063955985 -0.031670883 -0.049525227
0.07469264 -0.048617847 0.07287773 0.061017863 -0.0420704 0.011295076 -0.029796045 0.12294405
00000000: a1b5 213d 2754 023c 7033 3fbd 1609 0b3d
00000010: 624b b83d e87d 1fbb 3817 7d3b 7af4 b53d
00000020: a078 18bd 9b37 783c dc70 e83c 058a 89bd
00000030: 0250 a9bc e445 203d 6d44 a4bd 5ebe 5dbd
00000040: 651e 0cbd 9676 e6bb 6192 3b3d 1484 adbd
00000050: 240a a6bd c070 d73c ad93 143d a733 9c3c
00000060: c32d 41bd 2856 9c3d 97b8 e13c b6a9 43bd
00000070: f782 9d3c ae55 cb3b ef71 a53c 5c72 5c3d
00000080: 2407 a63c 06ae c2bc 9ba3 973b c7d4 0fbd
00000090: 46ba 12bb 64f4 9f3d 4400 333d d827 903d
000000a0: ff78 503d 4183 ad3d 74d4 cd3c 2749 843c
000000b0: 499e febc 450f cebc 016f 7dbd 183a 72bd
000000c0: 04c1 81bc 0296 12be 55ac ac3d 1704 98bd
000000d0: f4c7 e1bc 8dda 543d 88cf 82bd bb27 0d3d
000000e0: ffc6 143d e077 10bd aa44 513b 51b2 a33d
000000f0: a3c4 5c3d f091 30bd 32e3 16bc 5d8f 423d
00000100: faca c33c 54d8 343d 2123 053e 957d 373e
00000110: 7875 a33d 86e5 743c 0732 26bc f09e 6dbc
00000120: 48e4 c43d b462 72bc ba31 433d 0b7c 8a3d
00000130: 5308 60ba 4764 183c d786 3abd 7223 8cbd
00000140: 21e6 26bd 1e97 0dbc bd15 2abd 5310 013c
00000150: b498 24bd 9eb7 9d3d dfb8 713c 212e d2bd
00000160: 93ad 063d 4c01 bcbc c750 0c3e 7440 b33d
00000170: a419 813c 2e9c 8dbd 0472 5fbd 8d27 b0bb
00000180: 598e 46bd d8ea 7e3c e5bb 6e3d 2f38 37bd
00000190: 0db5 513b e86b 00be d2d8 343d aa9d ed3d
000001a0: 4f73 fd3b 0b99 9cbd d164 883c 1b52 81bd
000001b0: c5a3 90bd c9db a1bc c5a6 29bd 9803 f5bc
000001c0: bf74 ad3d 4e04 313d 3d25 593d 94fa 94bd
000001d0: 3393 293c 6115 2f3d 1312 90bd 9382 b43b
000001e0: 9b8f c6ba d0ee 073d 1352 82bd 3ce5 3f3d
000001f0: 3eba 333d 6878 0b3c f807 363d 9fab c6bd
00000200: 9a91 cdbc 6fed 173d 199f e23c aa7d 593d
00000210: 0f00 b23d c33e c23c 8eb5 de3c 131b bb3d
00000220: e3f2 3ebd 606f d8bc 3aaf 54bd f1f7 20bc
00000230: 2e74 81bd 4cb5 be3d d50c 233d b1b6 a53d
00000240: 4d5c 003e aa08 3abc bffc 83bd fca5 ba3c
00000250: a3cc 3cbc 1e81 9a3d 47d1 aa3c 39df 183d
00000260: c900 1e3d 549e b5bd 2c95 243d 9f37 243d
00000270: f052 853d 5cd7 95bd dc4f c6bd e905 afbd
00000280: 6c2e 833c b739 2bbe 4608 64bd efa3 153d
00000290: 0b99 963d 21f6 a5bd c6a3 9f3d 704b 8a3d
000002a0: d578 993d 376a 09bb 1e0c 663d 1116 03be
000002b0: 54c2 6fbd 6798 e4ba 1b52 223d 1ce1 18bd
000002c0: 1564 f4bd 40f0 033e 48d1 6ebd b1c2 79bb
000002d0: e0b2 3fbd bc92 e53c 00f5 c13c 18b2 793b
000002e0: 170f f3bc 04d0 ef3d 455c 523c a69a 7a3a
000002f0: af5c 0a3d 7418 833c 9b0c f3bc 134c 1f3d
00000300: c188 ffbc cba2 ba3d 6c61 4a3d e167 e9bd
00000310: bee4 f4bc 7e43 9fbd be10 10bd 0a6d 003d
00000320: ee83 8d3d 24ea 23bd a374 0e3c 393d d23d
00000330: 420d 7c3d 4878 4fbd 274a c43d e14a 103d
00000340: 1992 f3bd a443 a33d 2211 4cbd dd0f 4b3a
00000350: 59c2 5a3d e160 e9bd f390 4abd f89f 73bb
00000360: c3fa d7bb 3dc9 253d 6c47 50bd ad9b d23d
00000370: 9d78 88bd 9076 863d 67fa 0d3d ffb1 10bd
00000380: f139 0abd a1da 1bbd 0b63 aabc a3fa 333d
00000390: c1b0 b6bd 12be 22bd 746d 6dbd 2c74 843c
000003a0: 88dc f1bd 914f 693d 2df8 b4bc d6f9 883d
000003b0: 1d60 183b 78c8 423c 87b3 aebb 3a24 50bd
000003c0: 4b3f ec3d 3a49 6dbc 021c b7bd 367e 1d3d
000003d0: b208 ea3c 5bfb 823d 54b9 01bd f7da 4abd
000003e0: 74f8 983d 8223 47bd eb40 953d deed 793d
000003f0: 0352 2cbd fc0e 393c d616 f4bc 17ca fb3d

network_body._body_endoder.seq_layers.4.bias f4 [256]
0.0 0.0 0.0 0.0 0.0 0.0 0.0 0.0
0.0 0.0 0.0 0.0 0.0 0.0 0.0 0.0
0.0 0.0 0.0 0.0 0.0 0.0 0.0 0.0
0.0 0.0 0.0 0.0 0.0 0.0 0.0 0.0
0.0 0.0 0.0 0.0 0.0 0.0 0.0 0.0
0.0 0.0 0.0 0.0 0.0 0.0 0.0 0.0
0.0 0.0 0.0 0.0 0.0 0.0 0.0 0.0
0.0 0.0 0.0 0.0 0.0 0.0 0.0 0.0
0.0 0.0 0.0 0.0 0.0 0.0 0.0 0.0
0.0 0.0 0.0 0.0 0.0 0.0 0.0 0.0
0.0 0.0 0.0 0.0 0.0 0.0 0.0 0.0
0.0 0.0 0.0 0.0 0.0 0.0 0.0 0.0
0.0 0.0 0.0 0.0 0.0 0.0 0.0 0.0
0.0 0.0 0.0 0.0 0.0 0.0 0.0 0.0
0.0 0.0 0.0 0.0 0.0 0.0 0.0 0.0
0.0 0.0 0.0 0.0 0.0 0.0 0.0 0.0
0.0 0.0 0.0 0.0 0.0 0.0 0.0 0.0
0.0 0.0 0.0 0.0 0.0 0.0 0.0 0.0
0.0 0.0 0.0 0.0 0.0 0.0 0.0 0.0
0.0 0.0 0.0 0.0 0.0 0.0 0.0 0.0
0.0 0.0 0.0 0.0 0.0 0.0 0.0 0.0
0.0 0.0 0.0 0.0 0.0 0.0 0.0 0.0
0.0 0.0 0.0 0.0 0.0 0.0 0.0 0.0
0.0 0.0 0.0 0.0 0.0 0.0 0.0 0.0
0.0 0.0 0.0 0.0 0.0 0.0 0.0 0.0
0.0 0.0 0.0 0.0 0.0 0.0 0.0 0.0
0.0 0.0 0.0 0.0 0.0 0.0 0.0 0.0
0.0 0.0 0.0 0.0 0.0 0.0 0.0 0.0
0.0 0.0 0.0 0.0 0.0 0.0 0.0 0.0
0.0 0.0 0.0 0.0 0.0 0.0 0.0 0.0
0.0 0.0 0.0 0.0 0.0 0.0 0.0 0.0
0.0 0.0 0.0 0.0 0.0 0.0 0.0 0.0
00000000: 0000 0000 0000 0000 0000 0000 0000 0000
00000010: 0000 0000 0000 0000 0000 0000 0000 0000
00000020: 0000 0000 0000 0000 0000 0000 0000 0000
00000030: 0000 0000 0000 0000 0000 0000 0000 0000
00000040: 0000 0000 0000 0000 0000 0000 0000 0000
00000050: 0000 0000 0000 0000 0000 0000 0000 0000
00000060: 0000 0000 0000 0000 0000 0000 0000 0000
00000070: 0000 0000 0000 0000 0000 0000 0000 0000
00000080: 0000 0000 0000 0000 0000 0000 0000 0000
00000090: 0000 0000 0000 0000 0000 0000 0000 0000
000000a0: 0000 0000 0000 0000 0000 0000 0000 0000
000000b0: 0000 0000 0000 0000 0000 0000 0000 0000
000000c0: 0000 0000 0000 0000 0000 0000 0000 0000
000000d0: 0000 0000 0000 0000 0000 0000 0000 0000
000000e0: 0000 0000 0000 0000 0000 0000 0000 0000
000000f0: 0000 0000 0000 0000 0000 0000 0000 0000
00000100: 0000 0000 0000 0000 0000 0000 0000 0000
00000110: 0000 0000 0000 0000 0000 0000 0000 0000
00000120: 0000 0000 0000 0000 0000 0000 0000 0000
00000130: 0000 0000 0000 0000 0000 0000 0000 0000
00000140: 0000 0000 0000 0000 0000 0000 0000 0000
00000150: 0000 0000 0000 0000 0000 0000 0000 0000
00000160: 0000 0000 0000 0000 0000 0000 0000 0000
00000170: 0000 0000 0000 0000 0000 0000 0000 0000
00000180: 0000 0000 0000 0000 0000 0000 0000 0000
00000190: 0000 0000 0000 0000 0000 0000 0000 0000
000001a0: 0000 0000 0000 0000 0000 0000 0000 0000
000001b0: 0000 0000 0000 0000 0000 0000 0000 0000
000001c0: 0000 0000 0000 0000 0000 0000 0000 0000
000001d0: 0000 0000 0000 0000 0000 0000 0000 0000
000001e0: 0000 0000 0000 0000 0000 0000 0000 0000
000001f0: 0000 0000 0000 0000 0000 0000 0000 0000
00000200: 0000 0000 0000 0000 0000 0000 0000 0000
00000210: 0000 0000 0000 0000 0000 0000 0000 0000
00000220: 0000 0000 0000 0000 0000 0000 0000 0000
00000230: 0000 0000 0000 0000 0000 0000 0000 0000
00000240: 0000 0000 0000 0000 0000 0000 0000 0000
00000250: 0000 0000 0000 0000 0000 0000 0000 0000
00000260: 0000 0000 0000 0000 0000 0000 0000 0000
00000270: 0000 0000 0000 0000 0000 0000 0000 0000
00000280: 0000 0000 0000 0000 0000 0000 0000 0000
00000290: 0000 0000 0000 0000 0000 0000 0000 0000
000002a0: 0000 0000 0000 0000 0000 0000 0000 0000
000002b0: 0000 0000 0000 0000 0000 0000 0000 0000
000002c0: 0000 0000 0000 0000 0000 0000 0000 0000
000002d0: 0000 0000 0000 0000 0000 0000 0000 0000
000002e0: 0000 0000 0000 0000 0000 0000 0000 0000
000002f0: 0000 0000 0000 0000 0000 0000 0000 0000
00000300: 0000 0000 0000 0000 0000 0000 0000 0000
00000310: 0000 0000 0000 0000 0000 0000 0000 0000
00000320: 0000 0000 0000 0000 0000 0000 0000 0000
00000330: 0000 0000 0000 0000 0000 0000 0000 0000
00000340: 0000 0000 0000 0000 0000 0000 0000 0000
00000350: 0000 0000 0000 0000 0000 0000 0000 0000
00000360: 0000 0000 0000 0000 0000 0000 0000 0000
00000370: 0000 0000 0000 0000 0000 0000 0000 0000
00000380: 0000 0000 0000 0000 0000 0000 0000 0000
00000390: 0000 0000 0000 0000 0000 0000 0000 0000
000003a0: 0000 0000 0000 0000 0000 0000 0000 0000
000003b0: 0000 0000 0000 0000 0000 0000 0000 0000
000003c0: 0000 0000 0000 0000 0000 0000 0000 0000
000003d0: 0000 0000 0000 0000 0000 0000 0000 0000
000003e0: 0000 0000 0000 0000 0000 0000 0000 0000
000003f0: 0000 0000 0000 0000 0000 0000 0000 0000

network_body._body_endoder.seq_layers.4.weight f4 [256, 256]
-0.04910534 0.014985688 -0.028479664 0.009893021 0.025166921 0.11463842 -0.06847813 0.024093961
-0.027711507 -0.0769703 -0.04986857 0.11102346 -0.11613588 -0.039915636 0.0065716202 0.09235313
0.07163619 0.06512278 0.07433259 -0.03152669 -0.10526338 0.051622715 -0.016549628 -0.07662945
-0.063013345 -0.03873031 0.030393591 -0.080618836 -0.06418374 0.03826531 0.015754694 0.051468812
-0.048162427 0.07347666 -0.0057059233 0.06973754 -0.03125621 0.07102583 -0.107308365 -0.016556334
0.08488479 -0.031146154 0.10697517 0.13847987 -0.00529018 -0.032261547 -0.059772275 -0.033107795
0.07029907 -0.013808233 0.08585953 0.10018569 0.07437047 0.02173866 0.09286978 0.023543626
0.07839255 -0.11413578 -0.12707047 0.0591398 0.024901252 0.007909667 0.012535345 -0.03188142
-0.030503023 0.04707956 -0.03097951 -0.036685027 0.049906008 -0.006838641 -0.043293208 -0.119839095
0.07774326 0.012551274 0.053143214 -0.060020678 0.054449614 -0.0064729657 0.04946479 0.04202115
0.012093311 0.08107679 -0.038171098 -0.043693714 -0.08811748 -0.117400095 -0.0032065283 -0.07192877
0.02616859 -0.0024587302 -0.07884017 -0.07679572 0.014107874 -0.031026738 -0.03147406 -0.07402468
0.06733243 0.10570804 0.006311508 -0.051381405 -0.058586642 0.14664404 -0.023694193 0.19532542
0.03769122 -0.065379865 -0.013488297 0.05735445 0.030718725 -0.052766666 0.025793139 -0.09285333
-0.005411319 0.052333783 0.009696875 0.042256504 0.06831196 -0.029214788 -0.10652206 -0.04921872
0.021653071 -0.050025865 0.061280005 0.03166734 -0.029889518 0.0040661753 0.05295676 0.04159261
-0.025797315 0.011084234 -0.038022395 -0.010354915 -0.010334615 -0.061000954 -0.11626201 0.055866484
0.026577748 -0.017796792 0.046639547 -0.009088454 -0.04100561 -0.02829031 -0.066988625 0.0630733
-0.016682312 0.08902347 -0.032559108 0.020675603 0.05001617 0.03808699 0.06987736 -0.031808335
0.026349898 -0.0436391 0.053317167 -0.09517527 -0.10963533 -0.103206374 0.05669312 0.0017268304
-0.04766069 -0.0699968 -0.033167034 -0.015860554 0.069749795 0.15476124 -0.013542067 -0.02469571
-0.08606122 0.06360923 -0.07167192 0.048069373 0.035461146 -0.006831264 0.02770491 -0.025433382
-0.010674025 0.028615188 -0.01988663 -0.003269438 0.08348075 0.021479174 -0.05442361 -0.05539471
0.09965668 0.11346792 -0.057329956 -0.077291414 -0.17939189 -0.11673232 -0.082041726 -0.020798631
0.048926465 0.042333756 -0.02608535 -0.01227956 0.045727946 0.06623612 0.030737206 -0.010594411
-0.039078742 -0.04987841 0.06408726 0.022868618 -0.05695283 0.081049 0.11567288 0.00449445
0.012738285 0.07443689 0.026063837 0.07257389 -0.060253896 0.054059885 0.10952953 -0.020215483
-0.006745578 -0.056634355 -0.1830076 0.080817536 -0.03803698 -0.0040565436 -0.016949447 -0.008459669
-0.058723036 0.035465468 -0.06470936 0.019256463 -0.015370871 -0.017018955 -0.0064474246 0.044410206
-0.008033742 0.021145029 0.10390636 0.1235741 -0.024814479 -0.077300206 0.06391451 -0.059124902
0.058694188 0.11739442 0.04998789 0.100929074 -0.05716924 -0.012978635 -0.14604993 -0.090543814
-0.013807868 0.06570524 0.0291911 0.012116422 0.055458784 -0.0891517 -0.02971331 0.04180621
00000000: ae22 49bd 8886 753c 2f4e e9bc 5616 223c
00000010: dc2a ce3c 8cc7 ea3d 433e 8cbd b360 c53c
00000020: 3e03 e3bc 9ba2 9dbd fc42 4cbd 4560 e33d
00000030: a6d8 edbd 947e 23bd bf56 d73b a323 bd3d
00000040: ffb5 923d 185f 853d af3b 983d 2122 01bd
00000050: 5494 d7bd 5772 533d 1693 87bc e7ef 9cbd
00000060: 240d 81bd aca3 1ebd fbfb f83c 7d1b a5bd
00000070: c472 83bd 16bc 1c3d fd0f 813c f6d0 523d
00000080: f745 45bd ee7a 963d c1f8 babb 8ed2 8e3d
00000090: 8306 00bd fe75 913d 7dc4 dbbd 26a1 87bc
000000a0: 14d8 ad3d 3826 ffbc cc15 db3d abcd 0d3e
000000b0: 3f59 adbb af24 04bd c6d3 74bd 0a9c 07bd
000000c0: f5f8 8f3d ed3b 62bc 1fd7 af3d 282e cd3d
000000d0: 8c4f 983d 4615 b23c 8332 be3d 90de c03c
000000e0: 468c a03d 05c0 e9bd c31e 02be 933c 723d
000000f0: b6fd cb3c 8c97 013c 0c61 4d3c 1896 02bd
00000100: 7ae1 f9bc 7fd6 403d bec8 fdbc 0a43 16bd
00000110: 3e6a 4c3d ae16 e0bb 3854 31bd 336e f5bd
00000120: dc37 9f3d dca3 4d3c b3ac 593d 3ed8 75bd
00000130: 8f06 5f3d 2c1b d4bb 979b 4a3d 5f1e 2c3d
00000140: 0623 463c 970b a63d 4c59 1cbd 2ef8 32bd
00000150: f076 b4bd 766f f0bd 9e24 52bb 644f 93bd
00000160: 835f d63c a622 21bb f476 a1bd 1347 9dbd
00000170: b624 673c c92b febc f2ea 00bd 409a 97bd
00000180: 96e5 893d 757d d83d c4d0 ce3b 4f75 52bd
00000190: 8cf8 6fbd db29 163e 531a c2bc 6303 483e
000001a0: 1c62 1a3d e1e5 85bd 05fe 5cbc 80ec 6a3d
000001b0: d6a5 fb3c dc21 58bd 224c d33c e329 bebd
000001c0: 6f51 b1bb f35b 563d a4df 1e3c 2815 2d3d
000001d0: 24e7 8b3d da53 efbc 3d28 dabd 9299 49bd
000001e0: c861 b13c ece7 4cbd be00 7b3d 9db5 013d
000001f0: ddda f4bc 8d3d 853b 30e9 583d 035d 2a3d
00000200: e454 d3bc a69a 353c 5fbd 1bbd a9a7 29bc
00000210: 8452 29bc 23dc 79bd c71a eebd 41d4 643d
00000220: 94b9 d93c 94ca 91bc 1c09 3f3d bde7 14bc
00000230: 80f5 27bd 15c1 e7bc 5531 89bd 932c 813d
00000240: 58a9 88bc f051 b63d b35c 05bd e25f a93c
00000250: c1dd 4c3d 1b01 1c3d dc1b 8f3d 7549 02bd
00000260: bedb d73c eabe 32bd 1a63 5a3d 41eb c2bd
00000270: 7d88 e0bd dd5d d3bd 0c37 683d d056 e23a
00000280: db37 43bd 7b5a 8fbd 28da 07bd feed 81bc
00000290: fbd8 8e3d bb79 1e3e 8cdf 5dbc a84e cabc
000002a0: dd40 b0bd 8e45 823d bac8 92bd 64e4 443d
000002b0: b53f 113d ccd8 dfbb 68f5 e23c ab59 d0bc
000002c0: 1be2 2ebc 666a ea3c 49e9 a2bc 1144 56bb
000002d0: f5f7 aa3d 18f5 af3c 4beb 5ebd 90e5 62bd
000002e0: cd18 cc3d de61 e83d d1d2 6abd f64a 9ebd
000002f0: 82b2 37be 5b11 efbd 7e05 a8bd e461 aabc
00000300: 1e67 483d 2966 2d3d f2b0 d5bc 3530 49bc
00000310: 3a4d 3b3d cea6 873d 98cc fb3c 2e94 2dbc
00000320: 0811 20bd 4e4d 4cbd 2e40 833d f856 bb3c
00000330: 5f47 69bd 05fd a53d e7e5 ec3d 2e46 933b
00000340: 3db4 503c 5e72 983d d483 d53c 9fa1 943d
00000350: cacc 76bd e66d 5d3d 0551 e03d f19a a5bc
00000360: 020a ddbb 6df9 67bd 5866 3bbe aa83 a53d
00000370: aacc 1bbd c1ec 84bb 91d9 8abc 6c9a 0abc
00000380: 9187 70bd 3d44 113d 5786 84bd bbbf 9d3c
00000390: 1bd6 7bbc 566b 8bbc eb44 d3bb 7ae7 353d
000003a0: f59f 03bc 5738 ad3c dccc d43d 6b14 fd3d
000003b0: bc47 cbbc 924f 9ebd 9ce5 823d f42c 72bd
000003c0: 5169 703d 7c6c f03d 1ac0 4c3d e7b3 ce3d
000003d0: 4b2a 6abd 57a4 54bc 1d8e 15be 096f b9bd
000003e0: 653a 62bc 7890 863d 2c22 ef3c f583 463c
000003f0: c028 633d 2b95 b6bd 5469 f3bc fd3c 2b3d

network_body.observation_encoder.processors.0.normalizer.running_mean f4 [116]
0.98876303 0.0111524165 0.0 0.28904307 0.9892698 0.0106454855 0.0 0.28779778
0.9885942 0.011321392 0.0 0.29080155 0.98935425 0.010561 0.0 0.28581008
0.9885096 0.011405883 0.0 0.29259226 0.9899458 0.009969588 0.0 0.28516737
0.9894392 0.010476508 0.0 0.29421648 0.98834056 0.011574853 0.0 0.28565842
0.9895234 0.010392024 0.0 0.29425207 0.9901991 0.00971612 0.0 0.28713137
0.9885097 0.01140588 0.0 0.29306608 0.9889322 0.01098344 0.0 0.28677276
0.9911287 0.008786745 0.0 0.29287428 0.9883405 0.011574859 0.0 0.28674966
0.98943883 0.010476515 0.0 0.28971633 0.9896926 0.010223047 0.0 0.28593954
0.98943955 0.010476508 0.0 0.2878226 0.99146646 0.0084488 0.0 0.284603
0.9896926 0.01022305 0.0 0.28759098 0.9891858 0.010729981 0.0 0.28329682
0.99028397 0.009631633 0.0 0.28876024 0.9896081 0.010307536 0.0 0.28128815
0.9891855 0.010645481 0.0 0.29036966 0.991213 0.008702262 0.0 0.28152183
0.9867354 0.013095635 0.0 0.29128417 0.9921423 0.0077728936 0.0 0.28150517
0.9854678 0.014362958 0.0 0.29151478 0.99197346 0.007941872 0.0 0.28031301
0.98614395 0.0136870565 0.0 0.29311758
00000000: 931f 7d3f a0b8 363c 0000 0000 74fd 933e
00000010: c940 7d3f 676a 2e3c 0000 0000 3b5a 933e
00000020: 8214 7d3f 5c7d 393c 0000 0000 f1e3 943e
00000030: 5246 7d3f 0b08 2d3c 0000 0000 b355 923e
00000040: f70e 7d3f bedf 3a3c 0000 0000 a7ce 953e
00000050: 176d 7d3f 7c57 233c 0000 0000 7501 923e
00000060: e34b 7d3f a9a5 2b3c 0000 0000 8ba3 963e
00000070: e303 7d3f 74a4 3d3c 0000 0000 d241 923e
00000080: 6851 7d3f 4f43 2a3c 0000 0000 35a8 963e
00000090: b07d 7d3f 5c30 1f3c 0000 0000 e202 933e
000000a0: f90e 7d3f badf 3a3c 0000 0000 c20c 963e
000000b0: a92a 7d3f e3f3 333c 0000 0000 e1d3 923e
000000c0: 9cba 7d3f 48f6 0f3c 0000 0000 9ef3 953e
000000d0: e203 7d3f 7aa4 3d3c 0000 0000 dad0 923e
000000e0: dd4b 7d3f b0a5 2b3c 0000 0000 b355 943e
000000f0: 7f5c 7d3f 917e 273c 0000 0000 ab66 923e
00000100: e94b 7d3f a9a5 2b3c 0000 0000 7c5d 933e
00000110: bfd0 7d3f d66c 0a3c 0000 0000 7cb7 913e
00000120: 7f5c 7d3f 947e 273c 0000 0000 203f 933e
00000130: 483b 7d3f cdcc 2f3c 0000 0000 480c 913e
00000140: 4083 7d3f ffcd 1d3c 0000 0000 62d8 933e
00000150: f556 7d3f f1e0 283c 0000 0000 0005 903e
00000160: 433b 7d3f 626a 2e3c 0000 0000 55ab 943e
00000170: 23c0 7d3f ef93 0e3c 0000 0000 a123 903e
00000180: b19a 7c3f 138f 563c 0000 0000 3323 953e
00000190: 0afd 7d3f c2b3 fe3b 0000 0000 7221 903e
000001a0: 9e47 7c3f 9d52 6b3c 0000 0000 6d41 953e
000001b0: f9f1 7d3f a01e 023c 0000 0000 3085 8f3e
000001c0: ee73 7c3f ad3f 603c 0000 0000 8213 963e

network_body.observation_encoder.processors.1.normalizer.running_mean f4 [3]
2.6553779 0.0003040452 -3.59628
00000000: b6f1 2940 4268 9f39 7429 66c0
