results/R4/AgentController/AgentController-499988.onnx (onnx, 657373 bytes, 14 tensors)

83 f4 [116]
00000000: 702b 903e de12 353e 0371 683e 4b36 8b3e
00000010: 9628 8f3e 6f5b 343e ac49 663e cf87 8a3e
00000020: 9898 903e e555 333e 4ed7 6a3e ac15 8c3e
00000030: ffdb 8d3e e4b5 343e 5e83 623e c649 8a3e
00000040: 9a9a 903e f263 313e e83e 6c3e 09d7 8c3e
00000050: d82e 8a3e 56da 323e 0ffb 593e c840 8a3e
00000060: f614 913e 0b04 2e3e 1ed3 6f3e 54a5 8d3e
00000070: d1d1 863e f2f6 2f3e 3f1d 533e d485 8a3e
00000080: bb07 913e 3554 2b3e bb7d 713e 5f34 8e3e
00000090: 3fd3 823e 44cc 2c3e 9cbb 4a3e 54c2 8a3e
000000a0: 7cad 8f3e 77f8 263e bede 703e 0d12 8e3e
000000b0: 42d8 7f3e 9452 2b3e 73eb 433e c8aa 8a3e
000000c0: 4031 8e3e b244 253e e72f 6e3e 0269 8d3e
000000d0: 3281 803e 513e 2d3e 29c3 433e adee 8a3e
000000e0: 12d5 8c3e db3c 243e 845a 6b3e c586 8c3e
000000f0: f125 813e 3ad3 2f3e e46b 433e 7395 8a3e
00000100: 8979 8c3e 72b2 263e cfd8 683e 26b4 8b3e
00000110: 9354 813e 1125 303e faae 433e 3d08 8a3e
00000120: bf2e 8c3e 4ec9 293e e8fd 653e 5bdf 8a3e
00000130: c8a8 823e ee69 323e a46f 453e 3d4e 893e
00000140: c5a9 8b3e 5475 2e3e d447 613e 4fa8 893e
00000150: 3897 853e dfed 373e bddc 483e 9274 883e
00000160: bc8d 8c3e beae 383e 8bc1 5b3e 92a1 883e
00000170: 89be 883e 9c0c 3f3e 8577 4b3e 96ca 873e
00000180: d786 8f3e 95e8 463e faf6 573e 7ae7 873e
00000190: e55d 8c3e 3ddb 483e 17da 4c3e 34e4 863e
000001a0: 20c4 903e 1c38 4f3e 8ed9 533e a81d 873e
000001b0: 35ec 8f3e b247 503e 2f49 503e 9fbf 863e
000001c0: 35ec 8f3e b247 503e 2f49 503e a0bf 863e
0.2815814 0.17682979 0.2269936 0.2718986 0.27960652 0.17613004 0.22489041 0.2705674
0.2824142 0.17513235 0.22933695 0.27360284 0.27706906 0.17647511 0.22120425 0.2700941
0.28242952 0.17323282 0.23070872 0.2750781 0.26988864 0.17466101 0.21287178 0.2700255
0.28336304 0.1699373 0.23420379 0.27665198 0.26331952 0.17184046 0.20616625 0.27055228
0.2832621 0.16731341 0.23583119 0.2777433 0.25551793 0.16874796 0.1979813 0.27101386
0.28062046 0.1630572 0.2352247 0.27748147 0.2498484 0.1673072 0.19132785 0.2708342
0.2777195 0.16139486 0.23260461 0.27619177 0.25098568 0.16918303 0.19117416 0.2713522
0.2750631 0.1603884 0.22983748 0.2744657 0.2522426 0.1717042 0.19084126 0.27067146
0.27436474 0.16279009 0.22738956 0.2728588 0.25259838 0.1720164 0.19109717 0.2695941
0.27379414 0.16580698 0.22460139 0.27123532 0.25519395 0.17423221 0.19280869 0.26817504
0.2727796 0.17036945 0.22000057 0.26886222 0.26091933 0.17961834 0.19615455 0.26651436
0.27451885 0.18035409 0.2146055 0.26685768 0.26707867 0.18657154 0.19869812 0.26521748
0.28032562 0.1942466 0.21090308 0.2654379 0.27415386 0.19614883 0.2000507 0.2634598
0.28274632 0.20236248 0.2068846 0.26389813 0.281099 0.2033985 0.20340417 0.2631807
0.281099 0.2033985 0.20340417 0.26318073

86 f4 [3]
00000000: 3134 f240 80de ca3b c745 0d41
7.568871 0.006191075 8.8295355

action_model._continuous_distribution.log_sigma f4 [1, 2]
00000000: 6494 4c3b 7872 2cbb
0.0031216377 -0.0026313346

action_model._continuous_distribution.mu.bias f4 [2]
00000000: 3e33 16bb d20c b6bb
-0.0022918726 -0.0055557275

action_model._continuous_distribution.mu.weight f4 [2, 256]
00000000: 977a a0bc 83e1 5ebc 34e7 873b 0b6e 12bc
00000010: 7546 93bc b0f7 353c 1fb6 a0bc d758 4c3c
00000020: 21e1 963c ecfe 2d3c b133 983c 17cd 9c39
00000030: a789 963a 5c23 1c3c 8b01 b03c 29e0 ec3c
00000040: 1002 823c 09e3 aabc 4060 f93b 642a 77bc
00000050: d705 0bbd 58ee c1bb c506 a5bb 3972 26bc
00000060: d992 9f3c 3917 0e3d 6d67 93ba 4ae7 833c
00000070: 6e19 703b 31c9 3b3c 2006 963c e7d0 b33b
00000080: cad2 80b8 4c3c b3bb 09e1 51bc 636c 06bd
00000090: f868 dc3a 1350 c13c 5476 883c f16b b63c
000000a0: 8f1d 01bc 276c c13c 1ba9 873c ab89 bc3b
000000b0: aff8 993c a622 dabc 3869 a93a 6add 89bb
000000c0: 8f8b 5dbc 942d 433c 15c8 c43b d065 973c
000000d0: 5821 68bc 426d 3b3c 2575 353c 5bb7 3abc
000000e0: 4778 013b 1696 dfba 6efb 3c3b 5e8c 75bc
000000f0: 6214 da3b b8c6 873b 6a5d 6b3c 7cef 46bc
00000100: 6071 25bb 8746 763c fcfd 94bc b479 273c
00000110: d2c8 00bd 182d ef3b 5cae b23c 73e1 f13b
00000120: 3f97 393b f630 2a3c e4ca d23c f419 63bc
00000130: e7b5 c53b 514e 83bc 87ad cdbc 8215 70bc
00000140: c772 04bd 8861 ca3c b8e3 343c 277c 94bc
00000150: 4e60 53bc f1d6 a8bb 5a78 51bc 098e 99bb
00000160: 4fe1 9b3c 6eae b0bc a60a 56bc a0d3 943c
00000170: e139 013d 2006 11bd 1b57 313d a9d5 19bd
00000180: ac2e 8cbb e207 55bb e3ef 313c 010d 053b
00000190: 21c5 43bc 9849 633b d7af b03c d084 fcba
000001a0: 09ac 18bc 079c 1d3c 37d6 133c 9ce1 413b
000001b0: 3e25 f1ba 85c8 453b 186d 30bc 3be4 cb3c
000001c0: 5823 abbc 0015 833c 9b35 4bbc 6e06 a63b
000001d0: f7af 36bd ca94 2bbc 1e14 c6bb c5cd 7c3c
000001e0: 7837 24bc ce5a 81ba 15b3 c93c 8ed0 4d3b
000001f0: ac65 20bb c3b0 45bc fedd 6dbc 14b0 da3b
00000200: 7a54 8e39 c6b7 86bb d906 b1bb 66dd 463b
00000210: 6d52 963c 183b a03b 246a 44bb 69ea 833c
00000220: dbbe 1bbb bff2 bfbc 737b 55bb b3ed 45bc
00000230: 3338 0a3d 48f5 01bc f753 a53b b7ef 4ebc
00000240: 2806 bcbb d5d6 353d c54a fb3b fea7 1cbb
00000250: 03ef 2ebc d1ab 893a 1c48 133c 06bd abbb
00000260: e5cb b83c 09a2 243c d492 e1bb 0a94 023c
00000270: b529 953c c64c 963c da7f 1cbc 415c d23c
00000280: 0e94 493c 32b6 1dbc bda9 5abc 75eb 213c
00000290: 0b4c 4c3b 6c74 393c c392 1abd 13fc 203c
000002a0: 23fb dbbb e689 a3bc 1870 36bc 19af e9bb
000002b0: 02b4 1bbc 2197 cabc f576 403b 1047 0f3c
000002c0: 375c 9ebc 604c 17bc 75c7 fdbb fd3c 8fbc
000002d0: 2b95 3a3c d22d ed3b 69ed 0dbc 32ac 21bc
000002e0: 13b6 e4bc a1df b8bb 335c 1cbc 040b 3b3c
000002f0: 7411 e73c ff2e 0abb 0e0f d23b 93c8 e23c
00000300: 70d8 933c d9fd 793c a36f 18bc 5b54 85bb
00000310: 896f bcbb bbcb 353c 1021 333c 275e 8a3b
00000320: 86a4 b63c 11d1 203c 4971 d83c 47d2 e73c
00000330: e4f6 2d3c 1d69 90bc 075f a6ba 970e 4a3c
00000340: eb60 913c 4e7f 28bc f296 b4bc 331a 403b
00000350: 3ea6 9e3b a54f 44bc 47ef 04bc 221b 9a3a
00000360: b4bf debc 03b2 053c 9055 a2bc a246 3cbd
00000370: ca4b 7f3b 013d b03b efdb 86bc 2b5e aebc
00000380: 359d a0bb a037 02bc d977 a93a 2922 a1bc
00000390: 6c27 043c 29ed 8c3c 3521 423c 1cae 0b3c
000003a0: 3875 293b 486b 5e3c 7e8e 9bbb bbd5 cd3c
000003b0: e2af 733c d07f 4e3c 0ebe 3e3b 8847 8c3c
000003c0: f492 a6bc ee9a c53c 98fd edbb 77ff 0b3b
000003d0: e184 81bc 095b 123c 38b8 933a 3436 a23c
000003e0: a926 d1bb 1aa4 dd3b 73be 34bc 1275 2cbc
000003f0: b278 c8bc a222 9fba 8eb2 75bb d09a 63bb
-0.019589705 -0.013603571 0.0041474346 -0.008937369 -0.017977932 0.011106417 -0.019618092 0.012472353
0.018417897 0.01061986 0.018579336 0.00029907443 0.0011485115 0.009529915 0.02148511 0.028915482
0.015870124 -0.020860212 0.007610351 -0.01508579 -0.033941116 -0.0059183054 -0.0050362074 -0.010159069
0.019479202 0.034690116 -0.0011246033 0.016101498 0.003663625 0.011461542 0.018313468 0.0054875496
-6.142778e-05 -0.0054698344 -0.01281 -0.03281821 0.0016815951 0.023597753 0.016657986 0.022268267
-0.0078805825 0.023611141 0.016560128 0.005753716 0.01879534 -0.02662785 0.0012925034 -0.004207303
-0.013522043 0.011912722 0.006005297 0.018481165 -0.014168106 0.011439623 0.011075293 -0.011396254
0.0019755529 -0.0017058279 0.0028836387 -0.014987079 0.006655262 0.004143562 0.014365533 -0.012142058
-0.0025244579 0.0150314635 -0.018187515 0.010221887 -0.031441517 0.0072990768 0.021811657 0.007381612
0.002831891 0.01038765 0.025731511 -0.013861168 0.0060336473 -0.016028555 -0.025107158 -0.014653565
-0.032336023 0.02470471 0.0110406205 -0.018125607 -0.012901379 -0.005152576 -0.012785042 -0.0046861214
0.019028334 -0.02156755 -0.013064062 0.018167317 0.03154934 -0.035406232 0.04329596 -0.037557278
-0.0042780247 -0.003250592 0.010860416 0.002030194 -0.011948855 0.0034681316 0.021568222 -0.0019265655
-0.00931836 0.009619719 0.009023241 0.0029583937 -0.001839794 0.0030179333 -0.0107681975 0.024889102
-0.020890877 0.016001225 -0.012402917 0.0050666844 -0.044601407 -0.010472486 -0.0060448786 0.015429919
-0.01002299 -0.0009868981 0.024621526 0.0031404826 -0.0024474664 -0.012066069 -0.014518259 0.006673822
0.0002714729 -0.004111263 -0.0054024276 0.0030344366 0.01834985 0.004889857 -0.0029970491 0.016102986
-0.0023764882 -0.02343118 -0.0032574802 -0.012080598 0.033745002 -0.007932015 0.00504541 -0.012630395
-0.0057380386 0.044394333 0.0076688253 -0.0023903842 -0.010677102 0.0010503476 0.00898936 -0.005241039
0.022558162 0.010048398 -0.0068839584 0.007969866 0.018208364 0.018347155 -0.009551967 0.025678756
0.012303365 -0.009625958 -0.013346133 0.0098827975 0.0031173255 0.011319261 -0.03773762 0.009825724
-0.0067132874 -0.019963216 -0.011135124 -0.007131469 -0.009503366 -0.024730267 0.002936778 0.00874497
-0.01933108 -0.009234518 -0.0077447244 -0.017485136 0.0113881035 0.007238128 -0.00866256 -0.009867715
-0.027918851 -0.005641893 -0.009543466 0.011416201 0.028206564 -0.002108514 0.006410486 0.027683532
0.018047541 0.015258276 -0.00930396 -0.004068894 -0.0057506007 0.011095936 0.010933176 0.0042226496
0.022295248 0.00981547 0.026421206 0.02829851 0.010617945 -0.017628247 -0.0012693115 0.01233258
0.01774641 -0.010284258 -0.022044633 0.002931249 0.004841595 -0.011981879 -0.008113689 0.0011757354
-0.02719102 0.008160117 -0.01981619 -0.0459658 0.0038955086 0.005378366 -0.016462294 -0.021285137
-0.004901553 -0.007947832 0.0012929394 -0.01966961 0.0080660395 0.01720293 0.0118487375 0.008525398
0.0025857221 0.0135753825 -0.004747211 0.025126329 0.014873477 0.012603715 0.002910498 0.017123953
-0.020333745 0.024121728 -0.0072628967 0.0021361986 -0.015810432 0.008932837 0.0011270111 0.019801237
-0.0063827825 0.006763947 -0.011031735 -0.010525959 -0.024471615 -0.0012141059 -0.003749046 -0.0034729727

action_model._discrete_distribution.branches.0.weight f4 [1, 256]
00000000: 934d 093c 4b8e 02bc a03e 6dbb 8037 d5ba
00000010: 0d11 e53b ab2d a2bb 9654 08bc 712d aabb
00000020: 68a9 573b 2db0 123b b2f6 9a3a 3f3f a13b
00000030: 551b b839 af10 84bb ddc1 f23b 8b30 733b
00000040: f71d ccbb 62c9 c13b 93c3 23bb 0fdc 793b
00000050: 0063 103b 025e 52bb fbc4 573c 38a5 8cbb
00000060: 375b c139 680c 16bc 5714 f53a bc3d 4739
00000070: c83b 113c 7a05 a339 259e d73b 777b 003b
00000080: 2572 fdba 05f0 68ba ea12 8ebb f2cb 65bb
00000090: 13de 11bc c7af 443c be06 3d3a a443 203c
000000a0: 479a 18bb b7cf f13a 0f60 acbb 00a2 df3b
000000b0: 2695 31bb c0a9 f9bb 4720 29bc d4b9 87bb
000000c0: aece 283c 57cd cdbb 179a 82bb c8e8 c3b9
000000d0: 5ce8 84bb 33b2 773a 01b7 1fba 783e d23b
000000e0: 4278 ee3b 1dc6 e3bb a20f 2d3b 6f4a 20bc
000000f0: 7d8d f338 a093 73ba 4ad8 b3bb 4b94 ca3a
00000100: 2a75 5ebb d68d 9a3b cb1f f93b 93f2 cfbb
00000110: 030a f3ba 88e5 a43b 51e5 07bc c604 42bb
00000120: eb54 c13a 4602 3c3a e331 7abb a9ba ca3a
00000130: 051a 8d3b 6e6b ab3b 10ac d1bb f064 e2b9
00000140: d7f7 bfbb 897b 36bc cfa2 553b fff8 a1bb
00000150: 2374 c5ba 17db db3a 4548 c7bb 5fd5 e8bb
00000160: 674f d0bb 3a41 333b 5dc9 91bb c266 59ba
00000170: d422 3e3c 375c 9a3b 8f43 65bb 1ded f73a
00000180: f3af d13b a17c 423c 2b48 08bb 5eaa 873b
00000190: bc43 1b3b 422b b33a abec 3abc 852f 92ba
000001a0: c340 0fbb e38d beba 3a4a f43b 30ec 4abc
000001b0: c955 a63a 5713 51bc f6b6 433c 7b5b f6bb
000001c0: 789b a3bb ebe2 cd39 851e 7fba 9b58 9e3c
000001d0: ebe3 9e3b 60f8 ca3a 71f0 bcba d7fe bf38
000001e0: 4c40 1fbb 29a4 363a b39e 2e3b 1d8f 193b
000001f0: d9f0 15bb b746 c03b 8a51 c33b d1ad 013c
00000200: aafa 093c 69e0 30ba dcf8 0ebb 3e70 823a
00000210: 276f b2bb 6fc6 ceba d28a dbbb 356e 223c
00000220: 7ae5 b5bb 7ac9 85bb d5d4 2fba 7adb f1ba
00000230: 633b 943b 21c4 3cba 538c 343c 9ca8 8c3b
00000240: 3505 8e39 b5ef 01ba 2cd8 4a3b 938c 6239
00000250: 433b 0bbb cad9 c6bb 0854 86bb 4b5f 2db8
00000260: 8593 9eba c325 b0bb 7723 97ba e021 1dbc
00000270: 7c83 c23b 1ff1 f63a e0a3 7ebb fba4 50ba
00000280: 4f3e 053b 5bdc e93b c7d9 fe39 3d0f d03b
00000290: 5d3a 19b9 6f3e 5c3b 28d7 87bb d2bf fd3b
000002a0: b9ba aa3b ea10 c6b5 93db 583c 0dc1 04bc
000002b0: 1738 b8ba 7f5c 58bb dd33 ba3b 5be2 05bb
000002c0: 3349 413b 2390 0d3b cd64 acbb 557a 413a
000002d0: ef88 513b a9d3 bcbb 4cda 953b de84 c93a
000002e0: e5c3 6d3a a7d7 81bb 8672 25bc 56fc 03bb
000002f0: f4c7 8e39 dfb6 98bb 870b caba e319 5b3a
00000300: d537 64bb 2f15 46bb f3e4 103c 78d9 8fbb
00000310: 42a2 f33b 2fdc 8b3a 283f e13b dc92 063b
00000320: a13e 9e3a 9bdb a23b 5268 803c c36a f03a
00000330: 5d6b d13b 3ab5 68bb 9098 07bc 24ac 1e3c
00000340: 331e 64bb aa5d ffbb 044f 49ba 3098 2fbb
00000350: dfd6 8cbb 2b1e 90bb 88e7 a53b 7850 6dbc
00000360: 1b00 1cbb 3e5c 87bb 01aa 2d3c c3f7 c9ba
00000370: c01c ef3a f29a f2bb d5c1 543c 8d0e ef3a
00000380: 03cd ac3a 04a4 1bbb 5364 21bc ccdb 0ebc
00000390: db81 02bb e71e 173c 2a85 b7bb 1694 943a
000003a0: dd57 a0b8 1a05 3b3c 5b3c 713b a2dc d639
000003b0: a39a 2f3c b517 22bc df6d b6bb c089 1f3b
000003c0: cb39 ebbb fbd8 44bc d755 4dbb 77aa 2c3b
000003d0: ab46 0fbc 48ca 63bb 7575 703b a0b4 61bb
000003e0: 8749 d43a 9afc 8f39 3e0a 99bb 6ade ddbb
000003f0: edd0 e7ba c27c d9ba cc55 80bb 3f80 96bb
0.008380312 -0.007968496 -0.0036200657 -0.0016267151 0.006990558 -0.0049492917 -0.008320948 -0.0051934053
0.003290737 0.002238284 0.0011822789 0.0049208696 0.0003511558 -0.004030309 0.007408364 0.0037107791
-0.006229158 0.0059138993 -0.0024988397 0.003812555 0.0022031665 -0.003209949 0.013169522 -0.0042921565
0.0003687979 -0.009158231 0.0018698078 0.00019001117 0.008864351 0.00031093863 0.0065801316 0.001960484
-0.0019336386 -0.00088858634 -0.004335751 -0.0035064188 -0.008903044 0.012004799 0.00072107825 0.009781752
-0.0023285316 0.0018448745 -0.0052604745 0.006824732 -0.0027096956 -0.0076191127 -0.010322637 -0.0041420255
0.0103031825 -0.006280582 -0.003985654 -0.00037366734 -0.0040560197 0.0009448856 -0.00060926384 0.0064161383
0.0072775194 -0.006951107 0.0026407023 -0.009783371 0.00011613497 -0.0009291712 -0.00548843 0.0015455572
-0.0033944347 0.004716615 0.007602667 -0.006346056 -0.0018542412 0.005032245 -0.008294419 -0.0029604896
0.0014750039 0.00071719696 -0.0038176707 0.0015467006 0.0043060803 0.0052313125 -0.0063986853 -0.00043181283
-0.0058584022 -0.0111378515 0.0032598262 -0.0049430127 -0.0015064519 0.0016773668 -0.0060816132 -0.007105514
-0.0063571217 0.002735211 -0.004449053 -0.0008293205 0.011604983 0.0047107 -0.0034982895 0.001891527
0.0063991486 0.011870534 -0.0020794969 0.0041401824 0.0023691496 0.0013669508 -0.011408965 -0.0011153078
-0.002185867 -0.0014538135 0.0074551376 -0.012385413 0.0012690361 -0.012760959 0.011945477 -0.0075182295
-0.0049928986 0.00039269714 -0.0009732026 0.01932936 0.0048489473 0.0015485398 -0.0014414919 9.155057e-05
-0.0024299799 0.0006967211 0.0026644885 0.002343125 -0.0022879152 0.005867805 0.005960648 0.007914976
0.008421579 -0.0006747307 -0.0021815812 0.0009951664 -0.0054453793 -0.001577569 -0.0066998983 0.009913971
-0.0055510374 -0.004082856 -0.00067074347 -0.001845225 0.004523681 -0.00072008563 0.011019784 0.0042925607
0.0002708823 -0.00049566786 0.0030951602 0.00021605408 -0.002124504 -0.006068443 -0.004099373 -4.1335163e-05
-0.0012098408 -0.0053755953 -0.0011530955 -0.009590596 0.0059360843 0.001884017 -0.0038855001 -0.00079591543
0.0020331328 0.007136864 0.00048608912 0.006349473 -0.00014612959 0.003360655 -0.0041455217 0.007743814
0.0052102474 -1.4757072e-06 0.013235944 -0.0081026675 -0.0014054802 -0.0033014116 0.005682452 -0.0020429108
0.0029493093 0.0021600805 -0.00526104 0.00073805946 0.0031972488 -0.0057625365 0.004573142 0.001537468
0.0009070023 -0.0039624753 -0.010098105 -0.0020139418 0.00027233327 -0.004660472 -0.0015414812 0.00083580444
-0.0034823318 -0.0030225029 0.008843648 -0.004389938 0.007435114 0.0010670478 0.006873984 0.0020534312
0.0012073108 0.0049700267 0.015674744 0.0018342364 0.0063909725 -0.003550841 -0.00827612 0.009684596
-0.003480804 -0.007793148 -0.0007679316 -0.0026793592 -0.0042980756 -0.0043981276 0.005063001 -0.014484517
-0.0023803774 -0.004130869 0.010599614 -0.0015408922 0.0018242821 -0.007403725 0.012985666 0.0018238589
0.0013183657 -0.0023748884 -0.009850579 -0.008719396 -0.0019913826 0.009223676 -0.005600591 0.0011335637
-7.64576e-05 0.0114147905 0.0036809656 0.00040981645 0.010718021 -0.0098933475 -0.005567297 0.002434358
-0.0071785203 -0.012014623 -0.0031331682 0.0026346722 -0.008744876 -0.003475802 0.0036691104 -0.0034439936
0.0016196229 0.00027463288 -0.0046704104 -0.0067708986 -0.0017686166 -0.0016592967 -0.003916478 -0.004592925

network_body._body_endoder.seq_layers.0.bias f4 [256]
00000000: 7149 7bbb 0942 063b fecd 683c 20c0 23bb
00000010: 22cb f23b 0935 16bc 9c83 343c 6ac3 70bb
00000020: 1ad0 243c 996e aebb 7b8d 32bc 48d8 433c
00000030: b364 b1bb 211e 563b 3a5d 943b 52c7 08bb
00000040: ce06 c7ba 012b d23b 3661 013b 59a0 923b
00000050: e4b3 ec3b ef20 493b 9e70 553c eb1d 02b9
00000060: 2e8e fc37 52fc ae3a b236 ff39 bee0 4c3b
00000070: 1d9b 3b3b b533 c6bb 8c38 5e3b 93e0 d8b9
00000080: 118b 703b d793 11bb 2c09 39bc bbe3 1dbb
00000090: 3ab7 363c 4c1e 163c 32e3 913b 9d35 c33a
000000a0: f4cf 9ebb 8fde bb38 c562 f738 c76c 453c
000000b0: 7ba6 ae3b c858 053b 2583 adba 2da6 1e3b
000000c0: 1180 5c39 79b3 0fbb 79a7 9e3b 4baf 983b
000000d0: 5251 af3a f2ef 583c 0af0 3c3c f4c2 953a
000000e0: 6185 9e3a 6e33 c5ba b62c b53b 8d76 39ba
000000f0: c963 7dbb 18dd 3bbb 092a 923b 8950 373c
00000100: f6e2 acbb b5ab 003b ac6b 6fba 699a be3b
00000110: b310 be3b b997 05bb d275 a7bb 4793 12bb
00000120: acb8 04bb 57fa 183c 7b71 823c 1bd4 9e3b
00000130: 8282 443c 7534 d53b cb9e dfbb 7dbc 9b3b
00000140: 17e9 09bc bce6 7f3b 082d 9dba b94f bf3b
00000150: 6d81 bc3b ab22 f0b7 3ba3 b73b 2ef8 b1bb
00000160: fa8e ea39 5dc5 973a 8188 bbbb 263f 103c
00000170: f6cf 063c ecc9 e83b 8adb 323c 30ba 8d3b
00000180: df15 793b 2cd5 8a3b 450d 973a cf02 043b
00000190: 3412 a03b 670c 87bb 3a8f edbb 09e3 f13a
000001a0: ae39 a23b 0dca 393c 0475 a03a 2c91 41ba
000001b0: a73e dc3b 8a4b e6ba eff0 18bc 9594 d03a
000001c0: 0752 4e3b 27b1 00bb d320 a13a 616c 9ab9
000001d0: bc07 753c 91ab 4eba 031a ae3b d14c 253c
000001e0: ece9 263a 0f6e 323b 1e0e b4bb fabb 18bc
000001f0: c811 053c ef10 443c 6abd 2d3c 0dd6 983a
00000200: f0d1 063c 7a3f 53bb c2ad 7c3a 16f9 cb3b
00000210: 9806 7f3a ba62 77bb f1c5 ce3b 07f0 443c
00000220: afd6 5dba 99dd bfbb 07a3 793c e74c 5f3c
00000230: 0e8d 1db8 cafd d53b 9100 ec3b a119 053b
00000240: ec2e afba f00b d53b 95fe 18bb d07e 2f3c
00000250: b0c8 96bb fe60 e43b cb83 c53b 732d 763b
00000260: f008 a13c e65b 8a3b c46a 4e3b 3190 983a
00000270: fa8c 213b 3fde 15bb 953c 49bb 3b8f 0b3c
00000280: 456f 6fbb 3639 ab3a 8e70 6abb 6309 8e3b
00000290: 4353 6c3c d925 93ba 3373 3fbb 2376 cf3b
000002a0: 7d24 c63a d18e 133b e194 183b ec44 8c3b
000002b0: f0be 4d3b 35bc 94ba af5e e53b b046 543b
000002c0: 50f2 083c 9bf3 a63b 035f a2bb 6615 113a
000002d0: ad3b 28bb 7637 0f3b e3c5 b93b 203a c53b
000002e0: 8c7f 89b9 95a0 7fbb 809d ce3a 600a 2b3c
000002f0: 3886 2fbb f0be 96bb 8bbe 8f3b 0de3 5fbb
00000300: 9212 823c 25e5 113b 0e55 5ebc b32b cb3b
00000310: ecd0 05bc ce83 123c 2dbe 03bc a75a 9e38
00000320: 1aff 4a3a 8ae4 12bb fab1 803b 1cca 6f3b
00000330: 31ab 083c 95c8 c63b 7028 983c ad99 513b
00000340: 2a05 8aba e303 2b3b 5431 b1bb e3f0 913c
00000350: 2215 a5b9 5de7 4c3c 2742 72bb f20b 2a3c
00000360: 4b75 133b 82b0 843b 2ac4 a53a 9d3d b53b
00000370: c6d6 8f3b ff35 c3bb 28ab 173c 8ef2 e93a
00000380: 08db 0ebb b824 243b dce8 7fba 4e54 d5bb
00000390: 4796 1c3c 1ff3 1c3c dc09 8d3a 059c fabb
000003a0: f5f3 a33b 1c65 313b b26d e83b 792d a03a
000003b0: ed17 1cb9 fa36 253c 7ef3 d93b 82f0 443c
000003c0: d1cb 4e3b c5b6 21bc c8e0 673a fdba 03bb
000003d0: f016 b13a 48a5 553c a94d 2c3c 352a 2e3a
000003e0: 42dd ab39 b4b3 19ba 286e b13b b52f b1bb
000003f0: b34b 7e3c e0fc 4f3c 6989 193b f9e2 2f3c
-0.0038343335 0.0020486137 0.014209269 -0.0024986342 0.007409469 -0.009167918 0.011017706 -0.003673757
0.010059381 -0.005323243 -0.010897989 0.011953421 -0.0054136156 0.0032671767 0.004527715 -0.0020870757
-0.0015184523 0.006413818 0.001974178 0.0044746813 0.007223593 0.0030689796 0.013027338 -0.00012408911
3.0106949e-05 0.0013350344 0.0004867814 0.0031261886 0.002862639 -0.0060486444 0.0033908216 -0.0004136605
0.0036703984 -0.0022213364 -0.011293691 -0.0024092037 0.011152083 0.009162497 0.0044521326 0.0014893297
-0.0048465673 8.9583096e-05 0.00011796275 0.01204986 0.0053299046 0.0020347107 -0.0013237937 0.0024207935
0.00021028543 -0.0021927042 0.0048417416 0.0046595684 0.0013375676 0.013240801 0.011531839 0.0011425898
0.0012094193 -0.0015045234 0.0055290116 -0.00070748554 -0.0038664213 -0.0028665718 0.0044605774 0.011188635
-0.0052760793 0.0019633595 -0.0009133171 0.005816747 0.0058003305 -0.0020384623 -0.005110481 -0.0022365616
-0.0020251675 0.009337029 0.015923252 0.0048470623 0.011994006 0.0065064975 -0.0068243495 0.004752694
-0.008417389 0.003904744 -0.001199157 0.005838361 0.0057527334 -2.8626373e-05 0.0056041754 -0.0054311967
0.00044738484 0.0011579205 -0.0057230596 0.008804118 0.008228293 0.007104149 0.0109166 0.004325174
0.003800742 0.004236838 0.001152434 0.0020143276 0.0048849825 -0.0041213515 -0.00724974 0.0018454503
0.0049507236 0.011339677 0.0012241905 -0.0007383998 0.006721336 -0.001757012 -0.009334787 0.0015913422
0.0031481998 -0.001963684 0.0012293108 -0.00029453918 0.014955457 -0.0007883842 0.0053131594 0.010089115
0.00063672545 0.0027226245 -0.005494847 -0.009322161 0.008121915 0.011966928 0.010604242 0.0011660472
0.008228764 -0.003223388 0.0009638929 0.0062247617 0.00097284606 -0.0037748055 0.0063102175 0.012020118
-0.00084624713 -0.005855274 0.015236623 0.013629175 -3.7563084e-05 0.006530498 0.007202216 0.0020309465
-0.0013365424 0.006501667 -0.0023345102 0.010711387 -0.0046015605 0.00696957 0.006027674 0.003756371
0.019657582 0.004222381 0.0031496743 0.0011639652 0.002465068 -0.0022868065 -0.0030706276 0.0085180355
-0.0036534828 0.0013063315 -0.0035772654 0.004334615 0.014424148 -0.001122649 -0.0029212951 0.0063312217
0.0015117076 0.0022515545 0.0023282098 0.004280677 0.0031394325 -0.0011347594 0.0069998126 0.0032390766
0.008358553 0.005094958 -0.004955174 0.00055344997 -0.0025670335 0.0021853126 0.005669342 0.006018892
-0.00026225706 -0.0039005626 0.0015763491 0.010439485 -0.0026782881 -0.0046003982 0.004386728 -0.0034162432
0.015877996 0.0022261825 -0.013570083 0.0062002777 -0.008167487 0.0089425575 -0.008040947 7.5509124e-05
0.00077437016 -0.0022414052 0.0039274665 0.0036588972 0.008341596 0.0060663917 0.01857397 0.0031982467
-0.0010530103 0.0026094846 -0.0054074917 0.017815059 -0.00031486998 0.012506333 -0.00369657 0.010378825
0.0022500332 0.0040493617 0.0012646962 0.0055310265 0.0043896167 -0.0059573646 0.009257115 0.0017848776
-0.0021798033 0.00250463 -0.0009762177 -0.006510294 0.009557313 0.009579449 0.0010760385 -0.0076479935
0.005003447 0.0027068323 0.007093155 0.0012220583 -0.00014886232 0.010083908 0.006651341 0.012020232
0.003155459 -0.009870236 0.00088454457 -0.0020100467 0.0013510864 0.013039894 0.0105165625 0.00066438626
0.00032780512 -0.00058632647 0.005414743 -0.0054072984 0.015520978 0.012694567 0.002342785 0.010735267

network_body._body_endoder.seq_layers.0.weight f4 [256, 119]
00000000: 322e e8bd ded5 c53d 7c61 b53d 0444 f93d
00000010: e208 8dbc 909d a9bd 4e2c 3bbc 7926 dabc
00000020: 4e4c 953d c495 b1bb d607 5f3d b3ac e53d
00000030: 8466 b53c 8c20 e3bd f968 29bd 80ca 853d
00000040: a70f ce3d 4783 2e3c 8626 2d3d d818 a53d
00000050: bec5 4f3d ab85 093d 1569 893d cedf d53c
00000060: 3cc5 073a 319a 5b3d f571 c83d bb87 773d
00000070: 1786 7bbb fa7e 123d e0d6 23bd 1cfb b3bc
00000080: 0f90 413e ef7a 453d ab72 ba3b 7316 7f3d
00000090: b3e9 ad3c 7412 b03d 2d25 93bc 43b4 2fbe
000000a0: 3c6b 063e d597 8fbe f55f 87bc b8b5 4f3d
000000b0: 60d2 73bc 1f72 e23b 02e2 56be 0cca 023d
000000c0: fa8c f93c 87de cebd 79cb 713d e23b c73d
000000d0: 4880 a53b bb40 883c efeb 7c3c 2e24 683e
000000e0: 5a93 113e 7768 6b3d 0113 03bd d4f5 503c
000000f0: 1f85 723d 2ab7 45bc 932d a5bd df52 02be
00000100: b2d0 ea3d e714 d2bd a468 6bbc c673 4c3d
00000110: a538 9abc 796f f3bd c350 c0bc 6986 e83c
00000120: 90a3 e8bd f55b 8d39 c5b0 143d ead8 a03d
00000130: e9d4 09be fcac 84bc c857 7fbe f7a3 2cbd
00000140: 59a9 e83b 76ed 74bd b880 08bc 61f4 04be
00000150: 2f45 d63d 65ef 3d3e 0efb 1fbd 4820 2f3e
00000160: 5d0a fe3d 3a78 6e3d d6d5 41bd 6c11 483d
00000170: 9419 9fba da38 113e 2ed3 e9bd f97b 4b3d
00000180: 6eed 133d 76a3 0e3e d2e6 2d3c ddb5 bcbd
00000190: 3f96 b6bb fc3b bebc a3ce 14be 3c56 1cbb
000001a0: ea86 95bc 90eb 943c cd66 503d fa99 103d
000001b0: 4ea3 e03c 0a64 cb3d 9b0f 553d dcc7 a53c
000001c0: 389d b73d 2cf8 28be a3e3 1cbe 412c 6cbd
000001d0: 7d4c 8b3d a930 00bc b941 073e 5e51 963d
000001e0: e3fe 1ebe 000d b7bd 7a5d 36be b6e4 1a3e
000001f0: 4798 3fbe cabf 31bd 4b9b 8f3d 5508 0c3e
00000200: 7649 08be 0d97 003c 7279 093d 9386 1c3d
00000210: d7e0 4ebd 749e 2dbd 1586 5fbc ed76 813d
00000220: eed0 35bd 4472 3cbc 9cf0 ea3d 21f8 46bc
00000230: e22e 893c 3b2c 57bd 80e0 98bd f390 c7bd
00000240: 7a03 413d 0e01 74bd 51ef e0bb 90c7 12bd
00000250: 3af5 82bd 9d59 0e3d a570 d0bd 10e6 b33d
00000260: 2a67 babd 16fb 813d 449c 053d c8c7 5d3c
00000270: 2cc2 9ebd 6c68 aebd 383b 1bbd 8d2c 7d3d
00000280: e571 723d c45c 7fbb 7930 efbc 9e3a 08bd
00000290: 864d b53c 1674 b53c 890d 94bc bf41 913d
000002a0: 347a dd3d 3b99 c13d 5690 98bd 05d5 7bbd
000002b0: 7d81 6b3c 739a c93d 40e0 4f3c ddd1 53bd
000002c0: cf75 0d3b 66b7 d2bd 1ec5 80bd e8d8 40bd
000002d0: 81d9 953d 8024 39bd be96 3d3e 2237 9dbb
000002e0: 8449 f93d 5243 033d 355f f33d e13a 8bbd
000002f0: 4b87 7abc 5667 c83b 5bb4 5e3c aa89 553a
00000300: f801 c63d 1bc2 88bb 9309 9a3d 9239 563e
00000310: abc0 d03c 2b73 56bd fd4d ee3b 78e3 0ebe
00000320: d934 213e fd94 fabd 4c40 0c3d 4bf9 b83c
00000330: 970f 8abd e2a6 85bd 718b 0dbe eed9 483e
00000340: eeea 733d aa0d 443e a238 cb3d 9fbc 9abd
00000350: 9bfe eebc ba4f 7d3c f3b8 3dbd 2524 fe3c
00000360: 4935 3b3d c6fb 503d f477 09bd 2050 893d
00000370: 5ea3 09be e350 e5bd a4b0 0abe 7856 343d
00000380: f44c 0fbc bc9c 8a3a 4b5c 763d ae5a c4bd
00000390: 8b28 393b b5fa 9fbc 8c0f bebd a79a 10bc
000003a0: fc24 a3bc 1e72 a73d f52e b03d 3079 323e
000003b0: d73c e63d 9d26 733d ee23 cebc ef85 4dbd
000003c0: 632b 043d beec a7bd c8e0 e1bc cb64 cabc
000003d0: b2bc ac3d f2a7 f6bc 56ae 8bb9 b85d 94bd
000003e0: 12a1 db3d 24f7 a73d 278a 7a3d 3388 c13d
000003f0: 5d15 9bbd 9d0f 5abe 160c 6b3d 593c a6bd
-0.11336936 0.096599326 0.08856484 0.12171176 -0.01721615 -0.08282006 -0.011424137 -0.026629673
0.072899446 -0.005419465 0.054450832 0.112145804 0.02214361 -0.11090192 -0.041359875 0.065327644
0.10061579 0.010651416 0.042273067 0.08061379 0.05072569 0.03357474 0.06709496 0.026107695
0.00051792315 0.053613845 0.097873606 0.060432177 -0.0038379484 0.035765626 -0.039999843 -0.021970324
0.1890261 0.04821294 0.005689939 0.06227727 0.0212296 0.0859727 -0.017962063 -0.17158608
0.13126844 -0.28045526 -0.016525248 0.05071041 -0.0148817 0.006910577 -0.20984653 0.03193097
0.03046273 -0.101010375 0.059031937 0.097282186 0.0050506927 0.016632428 0.01543711 0.22670051
0.14216366 0.057472672 -0.032000545 0.0127539225 0.059208985 -0.0120675955 -0.08065333 -0.12726925
0.11465587 -0.10257893 -0.01436821 0.049915098 -0.018825838 -0.11886496 -0.02347601 0.028384404
-0.11359322 0.0002696213 0.036301393 0.07853873 -0.13460125 -0.016195767 -0.2493583 -0.042148557
0.007100266 -0.059796773 -0.00833147 -0.12983848 0.104624145 0.18548353 -0.039057784 0.17102158
0.124043204 0.058220126 -0.04732307 0.04884474 -0.001213836 0.14181843 -0.114172325 0.049678776
0.036115102 0.13929543 0.010614114 -0.09214375 -0.00557211 -0.023221962 -0.1453195 -0.002385511
-0.018252809 0.018178731 0.05087929 0.035303093 0.02742162 0.0993119 0.052016836 0.020236902
0.08965534 -0.1650092 -0.15321212 -0.05765939 0.06801698 -0.0078241015 0.13208665 0.07339738
-0.15526919 -0.089380264 -0.17809096 0.15126309 -0.18710433 -0.043395795 0.07012042 0.13675053
-0.13309273 0.007848513 0.033563085 0.038214277 -0.050507393 -0.04238744 -0.0136428075 0.063215114
-0.044388704 -0.011501852 0.11471674 -0.0121441195 0.016745988 -0.052532416 -0.07464695 -0.09744444
0.047122456 -0.05957132 -0.0068644662 -0.03583485 -0.063944295 0.03475343 -0.10177735 0.08784115
-0.09101708 0.06346719 0.03261973 0.013536401 -0.07751879 -0.08516011 -0.037898272 0.061810065
0.05919065 -0.0038965205 -0.029197918 -0.033259027 0.022131693 0.02215008 -0.01807286 0.07092618
0.10814324 0.094530545 -0.07449405 -0.061482448 0.014374134 0.09843912 0.012687743 -0.051713813
0.0021585112 -0.10288887 -0.06287597 -0.047081858 0.07316876 -0.045200825 0.18514535 -0.004797832
0.12172225 0.032046624 0.11883394 -0.0679834 -0.015291045 0.006115834 0.013592805 0.0008145819
0.09668344 -0.00417353 0.075213574 0.20920399 0.025482496 -0.052355926 0.0072724805 -0.1395396
0.15742816 -0.122354485 0.034241006 0.02257981 -0.06741255 -0.06525971 -0.13822724 0.19614384
0.05955022 0.19145837 0.09922911 -0.07555508 -0.02917414 0.015460903 -0.04631896 0.031023094
0.045705114 0.05102136 -0.03356166 0.06704736 -0.13441226 -0.111970685 -0.13543946 0.044027776
-0.008746374 0.0010575275 0.06014661 -0.09587608 0.0028252925 -0.019528726 -0.09280309 -0.0088259345
-0.019915096 0.08176063 0.08602706 0.17429042 0.11242073 0.059362996 -0.025163617 -0.050176557
0.03226794 -0.08199452 -0.027573004 -0.024706265 0.08434428 -0.03010938 -0.00026642036 -0.07244438
0.10724081 0.08201435 0.06116691 0.09449806 -0.07572434 -0.21295018 0.057384573 -0.08116979

network_body._body_endoder.seq_layers.2.bias f4 [256]
00000000: 1353 b13b 5460 3ebc 98a7 223b f268 3c3c
00000010: ccbe 9bba b545 803c d006 87ba ce7e f73b
00000020: 88d6 b53b ae77 c6bb ea23 2bba 628f 363b
00000030: db09 b5bb fd6e 8eba f48d 093c a368 ba3b
00000040: 2cae ff3a 6229 203a 69d3 a7bb 8e32 e439
00000050: fc86 2ebb 75a5 e03b c6be 9a3a 775c 753c
00000060: 25f6 353c 101b 313b b47b ec39 a777 0a3b
00000070: 0245 a23a d612 91bb 0549 4a3b f500 94bb
00000080: 4b51 97bb 8ac2 2d3c 79a2 223c 0682 d5ba
00000090: 7a12 a6bb 94ef 1cbc 52c8 153b 48cb 823b
000000a0: d69c a7ba c5fc 5d3b 21ef 983b d28e 3c3b
000000b0: 8c24 36bb 5eaa 143c 8114 2d3b 3d46 953b
000000c0: 53f6 ba3b c32b d0bb 648a 81bb f0d4 7a3b
000000d0: a1ad 3b3b 0cf6 523b 11ad 21bb df26 2d3b
000000e0: c4af 093c f7ce 86ba c687 073b c197 9dbb
000000f0: d32b e43b cd68 933b 0bfa a7ba 1c66 2d3a
00000100: d860 7ebb 256e fd3b b021 b53b e768 db3b
00000110: 965b c2bb d9db 41bb fc5e 713a 4f2a ab3b
00000120: d2da 3b3b 1afd 403b f614 04bb 3ba9 a9ba
00000130: 18de f03a 3722 80ba 8d57 f83b 038d 7bba
00000140: 1b72 bd39 bc8d b8b9 34e6 8bba a280 ccba
00000150: a30b 97bb 245d 573c 28a2 0c3b 452c d2ba
00000160: 892d fe3a 7a7c e8ba 850a ddb9 663e 19ba
00000170: 8d57 003b e561 323c cc8e f5b9 853c 253a
00000180: ad53 bfb9 8999 9f3b ae3d 1cbb 55aa 083c
00000190: fe63 7e3c 544d fe3a 8939 d5b9 bf66 6b3c
000001a0: 2884 b73a a549 823b c049 dc3a d743 9e3a
000001b0: 74df 44bb 1074 03bb b848 413c 15c0 603c
000001c0: 99ae b63b acc4 dbba c840 853b eb33 2cbb
000001d0: 0205 13bb 2a2b 4b3c 0c1a 82ba 4e99 aaba
000001e0: 9551 8ebb b921 063b d659 4bbc b2a8 0b3c
000001f0: e747 d63b 5a1a 933b 2f29 f5b9 427d b53b
00000200: 3ad5 afbb 4d0a afbb 41f7 003b 5841 21bc
00000210: acfc 653b 5dbb bdbb 5ed8 24bb b385 523c
00000220: 9021 febb 38ac 663c 1cef 813c 196f 563c
00000230: 22e1 38bb 519b 66bb 3825 d2ba 6229 7c3a
00000240: 16da d4ba 3142 0eba 326e 61bc b6d8 bd3b
00000250: 76b4 2f3c 0c01 8bbb eba3 f9bb 0281 d13a
00000260: d025 0eba fd53 bebb 0f4a b53b 7095 aebb
00000270: 1807 733b 8e59 c2bb be4f 27bb 4f86 c0bb
00000280: d0af 173b 3f88 fcba b167 753c 4055 273a
00000290: 9c90 1ebb 35b3 623b 2cba 13bc 19c8 0fbc
000002a0: be61 42ba d4c0 bcba 5c16 8bb9 e6d5 d9bb
000002b0: 5e8c 4abb 5b05 95bb 0d7b 803b b98b dbbb
000002c0: c3a5 feb7 b32f 3a3c a45e 3e3a ad17 35bc
000002d0: 6c31 423c 4875 213a e4d8 b53b ef99 5e3c
000002e0: 37d3 47b9 7f60 153c 90d3 dabb b6ef da3b
000002f0: 9f86 81bb 428b bd39 e87e 883a 39b4 0e3c
00000300: 71b2 b83a a10d efba 0697 863c efb0 6eba
00000310: 4e9b ec3b c5e5 f8b9 4a36 96bb 9805 98bb
00000320: 50fa d73b a7bd d03a 7265 9fbb a9b3 193a
00000330: ba9e daba 8923 e13a 29b6 cf3b 0b70 243c
00000340: 1cf5 643b 6e44 3dbb 5ce8 d53b df51 943b
00000350: e44b 25ba 049e ed39 af1b 7e3a 8630 9c3b
00000360: 7247 8d3b 74e8 26ba c7f9 28bb 37d7 853a
00000370: cc26 29bb 61f8 ea3b 8abb 3e3c 9301 843b
00000380: 7c99 f3ba ae93 16bc 9269 403b 60f8 023c
00000390: 3350 703a 904e 903a 857b ed3b 286a 93ba
000003a0: 9356 cb3b 2fd9 1e3c 58a5 50b9 d342 0d3c
000003b0: c35d 443c 89a2 cc3b 55fb a73b b9bd 0739
000003c0: 9868 813a 4476 223c 8892 913b df5f 293c
000003d0: 5f24 fa3b ba1a cd3a 6d8d 9d3b 95e1 72bb
000003e0: 4c5d 66bb 2c74 bdb9 e959 4637 01a6 37ba
000003f0: 9a50 14bb f7e3 2e3b bbc3 023b f4ed 50bb
0.0054115145 -0.011619646 0.0024819132 0.01149963 -0.0011882423 0.015658239 -0.0010301713 0.007552958
0.0055492558 -0.0060567474 -0.0006528484 0.002785646 -0.0055248565 -0.0010866817 0.008395661 0.005688743
0.0019506863 0.0006109682 -0.0051216376 0.00043525215 -0.002663075 0.0068556615 0.0011806122 0.014975659
0.011106049 0.0027024187 0.00045105594 0.0021128447 0.0012380185 -0.0044272942 0.0030866277 -0.0045167156
-0.004617845 0.010605464 0.009926432 -0.001628936 -0.0050681205 -0.009578604 0.0022854996 0.003991518
-0.001278783 0.0033872586 0.0046671783 0.002877165 -0.002779278 0.009073822 0.0026409926 0.004555492
0.0057056337 -0.006352873 -0.003953265 0.0038273893 0.0028637426 0.0032190112 -0.0024669806 0.0026420874
0.008403722 -0.0010285069 0.0020680293 -0.0048093502 0.006963232 0.004498577 -0.0012815607 0.0006614642
-0.0038815048 0.0077340775 0.0055276975 0.006695855 -0.005931328 -0.0029580502 0.0009207574 0.0052235494
0.0028664363 0.0029447735 -0.0020154095 -0.0012944111 0.0018376736 -0.0009775822 0.0075787962 -0.00095959025
0.00036133904 -0.00035200815 -0.0010673464 -0.00156023 -0.0046095415 0.013144765 0.0021458957 -0.0016034922
0.0019392233 -0.0017737292 -0.00042160242 -0.0005845785 0.0019583434 0.010887598 -0.00046836433 0.00063032686
-0.00036492702 0.0048705977 -0.0023840475 0.008341392 0.01552677 0.0019401708 -0.00040669393 0.014367758
0.0014001178 0.0039760643 0.0016806647 0.0012074661 -0.0030040415 -0.0020058192 0.011797123 0.013717671
0.005575013 -0.0016766987 0.0040665604 -0.0026276063 -0.0022433405 0.012400428 -0.0009925975 -0.0013015659
-0.0043432214 0.0020466878 -0.012411555 0.008524107 0.006539333 0.0044892253 -0.00046760726 0.0055386135
-0.0053659948 -0.005341804 0.0019678625 -0.009842239 0.003509323 -0.0057901577 -0.002515338 0.012849259
-0.007755466 0.014079146 0.015861087 0.013088011 -0.0028210361 -0.003518779 -0.001603282 0.00096192036
-0.0016239311 -0.00054267334 -0.013759183 0.005793656 0.010724178 -0.004242068 -0.0076184175 0.0015983882
-0.00054225046 -0.005808352 0.00553251 -0.005327873 0.0037083086 -0.005931086 -0.0025529708 -0.005875386
0.0023145564 -0.0019266679 0.014978335 0.00063832477 -0.002419508 0.003459168 -0.009016555 -0.008775734
-0.00074150774 -0.0014400729 -0.00026528805 -0.006647813 -0.003090642 -0.0045477576 0.003920919 -0.006700006
-3.0356348e-05 0.011363911 0.00072620274 -0.011053008 0.011852603 0.0006159139 0.005549537 0.013586505
-0.00019056803 0.009117245 -0.0066780522 0.006681408 -0.0039528157 0.00036152644 0.0010413798 0.008709961
0.0014091266 -0.0018238315 0.016429435 -0.00091053447 0.007220662 -0.00047473438 -0.0045841085 -0.0046393387
0.006591119 0.0015925661 -0.004864388 0.0005863258 -0.0016679384 0.0017176728 0.006338854 0.010036479
0.0034936136 -0.0028879899 0.0065279435 0.0045263614 -0.0006305559 0.00045321893 0.0009693456 0.0047665266
0.0043114955 -0.00063670357 -0.0025783645 0.0010211234 -0.0025810478 0.0071707224 0.0116413925 0.004028508
-0.0018585171 -0.009190483 0.00293598 0.0079937875 0.0009167224 0.0011009742 0.0072473907 -0.0011246847
0.006205389 0.009695335 -0.00019898021 0.008621889 0.011985245 0.0062449616 0.0051263967 0.0001294528
0.000987309 0.009915892 0.0044425167 0.010337799 0.0076337303 0.0015648224 0.004808119 -0.0037060727
-0.0035150824 -0.00036135444 1.18226535e-05 -0.00070056325 -0.002263105 0.002668617 0.001995309 -0.0031880112

network_body._body_endoder.seq_layers.2.weight f4 [256, 256]
00000000: 9973 1ebd df0a d4bc 235e a33d 2b5a 5a3d
00000010: 4c2b 92bd 295f f7bd 46fd 293d 05a9 9d3d
00000020: 8a83 ddbd 4377 b9bb aaa1 e03d 5b22 5abd
00000030: bec1 7a3c 2ae2 f1bc dfac bf3b 3647 d43c
00000040: d979 1cbd b64f e63c 8728 a03d 99f6 923c
00000050: 8e74 14bd def6 22bc 99d8 1e3d 2b9a b7bd
00000060: a4d7 a4bc 99c1 2bbd 815c 2b3c 7885 143d
00000070: 9e0a 2bbb 07c5 173d f63e 30bd 2dce 1c3d
00000080: ed14 7f3d c3b5 20bb 9cc3 093d 5c85 17bd
00000090: 89a4 7cbb 4c39 923c 7e17 c4bc 1fce acbd
000000a0: d1a9 0fbc 2f4c aabb 41a0 623d 62db 60bc
000000b0: 201b 94bc ed77 003d 4873 62bd ea10 cdbd
000000c0: d27d 493d 84c3 27bb 1b05 b5bb 9f99 903c
000000d0: d05c 33bc 4dd8 bd3d b622 003d 6bd4 a53d
000000e0: e3ac c53c 6e21 8f3d 2590 79bd bc6d e03c
000000f0: ec04 b4bc 786c f43c d16e 833d 72f3 8abc
00000100: 1833 3fbc 67f1 8c3d 759d aebc 198e 833d
00000110: 1bac 00be 9d01 92bd 1e16 06bd 54f5 27bc
00000120: 24c0 0ebc ee9f 943d 3fbb 1b3c 2edb 9d3d
00000130: 5aba b13d e320 823d efa5 84bd 9056 bdbd
00000140: 624b 56bd 0faf 5f3b 17e4 17bd a080 57bd
00000150: 3994 b2bd c73c 1b3c 43d6 8c3c 0c96 e23a
00000160: 558b b5bb a3e3 16bb 623e 8d3a ec72 6fbd
00000170: 0a21 0fbd 293c b53b 2b4b f8bc 1fc2 a4bb
00000180: a458 07bd 2952 6b3d c28d d6bc d614 5f3d
00000190: 1128 173d e3b3 c73d 732c 39bc 90f9 803d
000001a0: 98ea f03c f794 0f3c 7877 9c3c 4262 68bc
000001b0: 6524 e23d afe2 243e 143f dc3c b596 c6bc
000001c0: 9600 cf3c c301 edbc 07ea cf3d b90d 213b
000001d0: e3d0 0bbd e691 32bd 49b2 17bd 51ae 6a3d
000001e0: ea83 81bd c01f 87bd 63be cb3c 8119 843a
000001f0: d6e1 803c 3362 fdbc 98e6 6ebd 8198 4f3d
00000200: be9e 813d 6eac ea3d 2f5a c73d c955 0a3a
00000210: 5535 60bd 7b65 233b a23c 83bd 73a1 4dbd
00000220: 40d0 a6bd 4750 8d3d e8b3 2b3d b274 933c
00000230: 1715 be3c cc22 8abd 0c90 473b 392f db3c
00000240: e0c1 a7b7 7e13 bdbc 1605 483c af24 68bc
00000250: 36fd 0fbd cdaa 143d 86c8 8bbd c23d a93d
00000260: 3eb8 d63b 09a4 8c3b d34c 16bd 18b8 f9bc
00000270: 69dc 9fbc b7c9 f93d 2854 8a3d c3e0 3dbd
00000280: f576 9a3a 441e e83c 735d 4bbd 0409 a0bd
00000290: 4dcb 78bc 6494 88bd 09fd f0bd 6b9b 053d
000002a0: 7210 573c d35b 5a3d 321e c13b 5a86 a93d
000002b0: cb88 463d 87ee 053c 7ce7 483d 330d 3abd
000002c0: bc64 45bd 8438 b43b e752 63bd f328 4fbb
000002d0: f6e0 19bc 29ae 193d 7e13 9cbd f24e a13c
000002e0: c237 abbd 8d9d c53d 91b0 c93d 76dd 4bbd
000002f0: 1ac0 19be 4ef9 2fbc 35e8 e43d 71cf 2bbd
00000300: 4de1 5a3c e571 6dbd 0311 53bd d433 2e3d
00000310: a0ba 91bd d2f3 b23b 7e7b 043d 7200 a6bd
00000320: 2d96 033e da57 8d3d 70d7 703d 6790 d23c
00000330: d5fe 033d c9e0 f03d 245c 333a 8965 343c
00000340: eda9 bebb b47f 963d 3bb8 993c eb17 b7bd
00000350: ba1b d5bd ed4e 6d3b efef 083d 6876 1b3c
00000360: 6dc9 3dbd f6fc 4fbd de40 243d 2b56 b03c
00000370: 5411 973b a14b 37bd e9df 043d 4cf3 42bd
00000380: 9749 363e 6906 d23d deac d5bb 5e50 70bd
00000390: 0724 813d 2be1 68bc 7160 e13d e927 64bd
000003a0: 86e3 ab3c e899 813c b393 a33b 5372 24be
000003b0: bac0 223c 6cf3 d23b c92d b93c e7c7 91bc
000003c0: 431a 973d da86 923c 4e19 5c3c 5ba5 1abc
000003d0: 1586 5d3c 804c 21bc f269 103d 5519 423c
000003e0: 0990 e83c 249b 7bbd d734 f73c f995 273c
000003f0: f9be 3bbc ee2c 66bd 2d62 ac3d 96fe 31bb
-0.03868446 -0.02588409 0.079769395 0.053308647 -0.071371645 -0.12078697 0.041501306 0.076982535
-0.10816105 -0.005659969 0.10968335 -0.05325542 0.015304981 -0.029526789 0.0058494653 0.025912862
-0.03820214 0.028114181 0.0782023 0.017939853 -0.036243968 -0.009946553 0.038780782 -0.08964952
-0.020122357 -0.041932676 0.010459066 0.0362601 -0.0026098858 0.037053134 -0.043028794 0.038282562
0.062275816 -0.00245224 0.033633813 -0.036992416 -0.003855022 0.017849587 -0.023936983 -0.08437752
-0.008768515 -0.00519707 0.05532861 -0.01372418 -0.01807934 0.03136437 -0.055285722 -0.10012992
0.049192257 -0.0025598714 -0.0055242903 0.017651377 -0.010947421 0.09269772 0.031283103 0.08097156
0.02413029 0.06988798 -0.060928483 0.027396075 -0.021975003 0.029836878 0.06417621 -0.016961787
-0.011669897 0.06881981 -0.021315316 0.06423587 -0.12565653 -0.07129214 -0.032735936 -0.010251362
-0.008712802 0.07257067 0.009505092 0.07707821 0.08678122 0.06353929 -0.06476962 -0.09245026
-0.052317984 0.0034131443 -0.037082758 -0.0526129 -0.087196775 0.00947494 0.017192012 0.0017287149
-0.0055402913 -0.0023023866 0.0010776038 -0.058459207 -0.034943618 0.0055308533 -0.03030928 -0.005028024
-0.03304352 0.0574514 -0.026190642 0.05446323 0.036903445 0.097511075 -0.011302101 0.062976
0.029408738 0.008763543 0.019099936 -0.014183583 0.11042098 0.16102098 0.026885547 -0.024241785
0.025268834 -0.028931504 0.10152059 0.002457483 -0.034134757 -0.04359617 -0.03703526 0.057295147
-0.06323989 -0.06597853 0.024871057 0.0010078402 0.015732687 -0.030930614 -0.05832538 0.05068255
0.06329106 0.114586696 0.09733998 0.0005277065 -0.05473836 0.0024932313 -0.06408049 -0.050202798
-0.08145189 0.06900077 0.04191962 0.01799998 0.023203416 -0.06744918 0.003045085 0.026755916
-1.9998231e-05 -0.023080584 0.012208244 -0.014168902 -0.03515359 0.0362957 -0.06825356 0.082637325
0.006552725 0.0042920155 -0.03669436 -0.03048329 -0.01951428 0.12196677 0.06754333 -0.046356928
0.001178472 0.028334744 -0.049649667 -0.078142196 -0.015185189 -0.06668928 -0.117670126 0.03261892
0.013126479 0.053310227 0.005893492 0.08277579 0.0484703 0.008174545 0.049048886 -0.045422744
-0.04819177 0.0054999013 -0.055498984 -0.00316101 -0.009392014 0.037519608 -0.07620905 0.019690964
-0.08360244 0.09649191 0.098481305 -0.04977175 -0.15014687 -0.010740591 0.111771025 -0.04194588
0.01335938 -0.057969946 -0.051529896 0.042529896 -0.07115674 0.0054611946 0.032344334 -0.08105554
0.12850256 0.06901522 0.058799207 0.025703622 0.03222545 0.11761624 0.0006842038 0.011010536
-0.0058185966 0.07348576 0.018764606 -0.08940109 -0.10405679 0.0036210374 0.033431944 0.0094886795
-0.046334673 -0.05077835 0.040100925 0.021525463 0.00461022 -0.04474986 0.0324401 -0.047595307
0.1780151 0.10255129 -0.0065208515 -0.058670394 0.063057 -0.0142138405 0.11004723 -0.055702124
0.020982515 0.015820459 0.0049919724 -0.16059236 0.009933645 0.0064377096 0.02260484 -0.017795516
0.07378056 0.017886568 0.0134337675 -0.009438838 0.013520737 -0.009844899 0.035257287 0.01184686
0.028388994 -0.06142725 0.030176563 0.010228627 -0.011459106 -0.056195192 0.08417163 -0.0027159802

network_body._body_endoder.seq_layers.4.bias f4 [256]
00000000: 80a8 1b3c 91d3 0a3a 4b78 d4bb 6ffd 4bbb
00000010: 9516 173c 7ab0 853b b6fa 0b3c 40e5 89bb
00000020: ed82 b9bb 2020 62bb 7304 043b 7c4e 17bc
00000030: e992 1d3c 7397 a53b 597d 4cba 4000 d6ba
00000040: 0c44 a1bb 9b15 983b c101 763b b242 85ba
00000050: cb7e 383b 066a 133c c6c9 33bb a20d de3b
00000060: 4761 2a39 c1ae 07b9 50c8 f33b 37c0 083c
00000070: b2c6 96bb 8f1f 72bb 569a 61bb 395e 783b
00000080: 0a4d eab9 a978 96bb 3adc e4ba bb87 d33a
00000090: 079c bd3b dce6 28bb 4b2c 4fb9 5cd9 03bb
000000a0: 6fd4 913a 60b1 93ba 62bf 323a 701e 36ba
000000b0: 0d07 77b9 8c4d 023c db7e 9e3b cd1c 073c
000000c0: 1c3f 923a b979 993b a0be 163c eb56 86bb
000000d0: 6905 943b 99a9 a0bb 7de0 4eb9 d1d3 343c
000000e0: b5c8 a5bb efb3 00bb bfb4 3fb9 c582 243b
000000f0: 629f 943b 4573 283c 9e08 093b 6b67 d63b
00000100: c09b 12bb 30dc f7ba a21a 293c 0456 7abb
00000110: be7d b33b 734f d3bb 9c3f 1ebb 6f95 c93b
00000120: 2bb1 233c 54ec 1fbb e412 da3b 3276 d73b
00000130: 0d6a e63b d329 323c 30aa 0e3b 9671 983b
00000140: a62c 013b 2815 03bb 1489 a1bb ff59 ec39
00000150: a113 1a3c 237d fd3b 3ba7 1a3c e979 163c
00000160: 19c7 393a 88f8 703b df77 283b d31d 183b
00000170: c3ff 65ba 0671 923b 5358 45b9 2e02 5b3b
00000180: a025 f33b 2e74 a63b 0f68 ef3b 6cca 45ba
00000190: 6c32 9d3b e7b2 713b 1356 8eba 1f1e 99bb
000001a0: 7e9c 87ba 8c64 603b 101c e23a 4458 a0bb
000001b0: e9d6 81bb 29cf fbba 0608 973a c2b9 683a
000001c0: 5c7e 0a3c 6679 bfbb 5060 f23a 28b6 82bb
000001d0: 244d 003c f6ec f63b 6a48 e43b bf0f 8a39
000001e0: 22df 013c 941b c5ba b407 54bb ce3d dc3b
000001f0: a5d2 abbb 6ce4 eb3b 5022 f739 c5bd 3ebb
00000200: c4ae 97bb 58b6 293b 558d fbba 88d2 4bbb
00000210: 8b9c 533a 8bed 833a c5c7 a7bb b902 fcba
00000220: 15a2 fb3b b257 873b 3ff9 68bb 4249 633b
00000230: a3fb a2b9 dfd1 c83b 5646 f93b 265d 683c
00000240: 0806 023c 382d 27bb f298 adbb e75f 2539
00000250: 87e3 36bb f466 98bb c210 b73a 2a04 a4b9
00000260: 685e 57bb f1ed 273b 76ff 27bb e0ff aabb
00000270: 56ce 42bb 77cf 0e3b adf5 cf3b a2c1 07bb
00000280: 6cb6 8c3b dcb6 023c 4c14 5b3c bfcb 8f3b
00000290: d052 8ebb 65e4 91bb e9ed be3b fc86 cabb
000002a0: adc3 153b a341 5e3c 7659 8a3a c326 1abb
000002b0: b4a8 053a e232 bb3b 4d1a 96bb 02ab 9d3a
000002c0: 5979 093c 7443 a63b f180 523b b438 1b3c
000002d0: b37b 643b 9598 b439 c826 283c 4ccc 023c
000002e0: 9226 543b f0e2 25bb 3510 0cbb 95dc e43b
000002f0: db9e 34ba 602c b43b d4d9 1dbb b597 6bba
00000300: 2bf9 abba b14e cabb e921 8d3b dec2 0d3c
00000310: 2018 ce3b 200d 773b 9f42 a1bb 1e56 9c38
00000320: 2e2c ec39 ddec 193b 25ba ed38 f27b 0ebb
00000330: 5564 d3ba a45a d63b e640 d03b f422 e637
00000340: 62a1 24bb 459a 183b c226 fa3b ee1b 913a
00000350: 5bb4 113b 84d8 8d3a 1d9b aaba 090d a6bb
00000360: f3bb f43b d197 e53b 9c81 3e3a b7ed 053c
00000370: fcdd b2ba 3167 e4bb 7ccc 9d3a 5320 cd3b
00000380: 8e77 49bb 1620 d63b a669 22bb 99c7 fb3b
00000390: ff62 97bb 7b84 f8ba 7825 c53b f979 8ebb
000003a0: d1bf d83b 58dc 14bb 4d8b 0fbb c151 8b3b
000003b0: fe29 7abb c203 47bb 8f36 a83b ef62 eb3a
000003c0: beef 913b e246 49bb 067d 9e3b 260b 1f3c
000003d0: 5727 d03b 232d e1b9 168c d6bb f5a9 643b
000003e0: d1bd f13a 5c05 a73b 1050 45bb 3223 de3a
000003f0: 5e18 ad3a ebca a63b 8ac7 8abb 3022 fd3b
0.009500623 0.0005295808 -0.0064840666 -0.00311264 0.009221693 0.0040798755 0.008543661 -0.004208237
-0.0056613595 -0.0034504011 0.0020144254 -0.009235021 0.009617546 0.0050534545 -0.00078006607 -0.0016326979
-0.004921442 0.0046412474 0.0037537667 -0.0010166971 0.0028151746 0.008997446 -0.0027433499 0.0067765275
0.00016248702 -0.00012939704 0.0074396506 0.008346609 -0.004601323 -0.003694508 -0.0034424267 0.0037897958
-0.00044689357 -0.0045920205 -0.0017460652 0.0016138473 0.005786422 -0.0025772369 -0.00019757559 -0.002011857
0.0011125932 -0.0011268072 0.00068186794 -0.00069472846 -0.00023558382 0.007953059 0.0048368997 0.008246613
0.0011157724 0.0046837 0.009200722 -0.004099717 0.0045172465 -0.00490303 -0.0001972932 0.011036829
-0.0050593265 -0.0019638499 -0.00018282513 0.0025102359 0.0045356015 0.010281389 0.0020909677 0.00654309
-0.0022370666 -0.0018910225 0.010321291 -0.0038198242 0.005477636 -0.00644868 -0.00241468 0.006151847
0.009990971 -0.0024402337 0.006655084 0.0065753693 0.007031685 0.0108742295 0.002176892 0.0046522124
0.001971045 -0.0020001624 -0.004929671 0.0004508048 0.009404094 0.0077358647 0.009439285 0.009184339
0.0007086858 0.003676923 0.0025706214 0.0023211136 -0.0008773768 0.00446904 -0.00018820287 0.0033418047
0.0074202567 0.0050797677 0.007306106 -0.0007545117 0.0047972705 0.0036880316 -0.0010859392 -0.00467278
-0.0010346321 0.0034239618 0.0017250795 -0.0048933346 -0.003962387 -0.0019211519 0.0011522777 0.0008877778
0.008452978 -0.0058433292 0.0018491838 -0.003989 0.007830892 0.007535572 0.0069666402 0.00026333143
0.007926734 -0.0015038126 -0.0032353224 0.006721235 -0.0052436166 0.007198861 0.00047137076 -0.002910481
-0.004628988 0.002589604 -0.00191919 -0.0031100828 0.0008072338 0.00100653 -0.00512025 -0.0019226886
0.007679234 0.004130327 -0.0035548953 0.0034681116 -0.00031086532 0.006128534 0.0076072617 0.014182365
0.007936008 -0.002550913 -0.0052977735 0.00015771353 -0.0027906613 -0.004650945 0.0013966786 -0.0003128362
-0.0032862667 0.0025624002 -0.0025634444 -0.005218491 -0.0029725037 0.002179114 0.0063464255 -0.002071478
0.0042942073 0.007978167 0.013371538 0.004388302 -0.004343368 -0.0044522756 0.005826701 -0.006180642
0.0022852228 0.013565454 0.0010555226 -0.002352164 0.0005098686 0.005712853 -0.004580772 0.0012029114
0.008390748 0.005073959 0.0032120312 0.009473968 0.003486377 0.00034445958 0.010263152 0.0079832785
0.0032371623 -0.0025312267 -0.0021371965 0.0069843032 -0.00068901264 0.005498454 -0.0024086135 -0.00089871447
-0.0013120522 -0.0061739315 0.004307021 0.008652417 0.006289497 0.0037697032 -0.004921272 7.4547e-05
0.00045046344 0.0023487129 0.00011335713 -0.0021741358 -0.0016127924 0.006541567 0.0063553927 2.7434413e-05
-0.0025120606 0.0023285311 0.007634015 0.0011070946 0.0022232744 0.0010821973 -0.0013016198 -0.005067472
0.0074686944 0.0070066233 0.0007267238 0.008174351 -0.0013646479 -0.006970309 0.001203909 0.006259957
-0.0030741426 0.0065345867 -0.002478221 0.007683706 -0.0046199556 -0.0018960381 0.0060164295 -0.0043480364
0.006614663 -0.0022714343 -0.0021903098 0.004251689 -0.0038172002 -0.003036723 0.005133457 0.0017958562
0.0044536283 -0.0030712415 0.0048366813 0.009707248 0.006352346 -0.00042948974 -0.0065474613 0.0034891341
0.001844341 0.0050970744 -0.0030107535 0.0016947745 0.0013206115 0.0050901077 -0.0042352127 0.0077250227
