results/H7/AgentController/AgentController-1000099.onnx (onnx, 657373 bytes, 14 tensors)

83 f4 [116]
0.2800898 0.19745506 0.20768213 0.2533437 0.27420053 0.19183193 0.20422345 0.24911915
0.2852387 0.20196676 0.21105625 0.2588534 0.2679685 0.18698186 0.19963165 0.24633211
0.28822622 0.20343639 0.21411788 0.2637529 0.26117483 0.17943047 0.19670972 0.24584989
0.29033726 0.20046592 0.21996273 0.2675415 0.2544826 0.17247541 0.19336775 0.24706021
0.29549623 0.19538008 0.23167388 0.27064094 0.24374323 0.1645872 0.18519476 0.24838449
0.3006218 0.1914852 0.24178618 0.2722489 0.2336354 0.15952507 0.17548662 0.24861827
0.30646208 0.19166775 0.24955651 0.27250656 0.22749574 0.1567609 0.16927229 0.2471184
0.3094045 0.19216461 0.25314242 0.27085558 0.22709456 0.15680058 0.1686946 0.24453874
0.3075352 0.18853326 0.253184 0.26794282 0.23013645 0.15572816 0.17395604 0.24190757
0.30123958 0.18090242 0.2501208 0.26300722 0.23552844 0.15572329 0.18142702 0.23869488
0.2927204 0.17135838 0.24540131 0.25782675 0.24091125 0.15418965 0.18996488 0.23552068
0.28097054 0.15869237 0.23852734 0.25281173 0.24229747 0.15126456 0.19406302 0.23284802
0.26763415 0.14850701 0.22814062 0.24715778 0.24159427 0.14603242 0.19697781 0.23257415
0.2538974 0.14233477 0.21496294 0.24107955 0.24309002 0.14010872 0.20292774 0.23535934
0.24309002 0.14010872 0.20292774 0.23535933
00000000: ee67 8f3e a931 4a3e a0aa 543e 44b6 813e
00000010: 0364 8c3e 976f 443e f41f 513e 1719 7f3e
00000020: cf0a 923e 60d0 4e3e 211f 583e 6f88 843e
00000030: 2b33 893e 2c78 3f3e 3d6c 4c3e 7c3e 7c3e
00000040: 6392 933e a151 503e b841 5b3e 9f0a 873e
00000050: b5b8 853e 9fbc 373e 466e 493e 13c0 7b3e
00000060: 16a7 943e f046 4d3e e93d 613e 33fb 883e
00000070: 8b4b 823e 659d 303e 3202 463e 5afd 7c3e
00000080: 484b 973e b711 483e eb3b 6d3e 7391 8a3e
00000090: d397 793e 8c89 283e b2a3 3d3e 8158 7e3e
000000a0: 1aeb 993e b214 443e cc96 773e 3564 8b3e
000000b0: 1e3e 6f3e 8a5a 233e c4b2 333e ca95 7e3e
000000c0: 99e8 9c3e 8d44 443e be8b 7f3e fb85 8b3e
000000d0: a5f4 683e ee85 203e b755 2d3e 9b0c 7d3e
000000e0: 446a 9e3e cdc6 443e e29b 813e 95ad 8a3e
000000f0: 7a8b 683e 5590 203e 47be 2c3e 5d68 7a3e
00000100: 4175 9d3e dd0e 413e 55a1 813e cd2f 893e
00000110: e4a8 6b3e 3477 1f3e 8821 323e 9eb6 773e
00000120: 133c 9a3e 7c3e 393e d50f 803e e2a8 863e
00000130: 5e2e 713e ed75 1f3e 01c8 393e 6e6c 743e
00000140: 73df 953e 9278 2f3e 7b4a 7b3e de01 843e
00000150: 70b1 763e e4e3 1d3e 2786 423e 552c 713e
00000160: 5fdb 8f3e 4180 223e 8340 743e 8a70 813e
00000170: d41c 783e 19e5 1a3e 75b8 463e b66f 6e3e
00000180: 5807 893e 3912 183e b29d 693e ee16 7d3e
00000190: 7d64 773e 8689 153e 8db4 493e eb27 6e3e
000001a0: d7fe 813e 35c0 113e 3f1f 5c3e 8fdd 763e
000001b0: 97ec 783e a978 0f3e 4acc 4f3e 0a02 713e
000001c0: 97ec 783e a978 0f3e 4acc 4f3e 0902 713e

86 f4 [3]
5.8316336 0.0034370231 7.425688
00000000: be9c ba40 ae3f 613b 3c9f ed40

action_model._continuous_distribution.log_sigma f4 [1, 2]
-0.011987049 -0.012484026
00000000: 5465 44bc cd89 4cbc

action_model._continuous_distribution.mu.bias f4 [2]
-0.0039761025 0.00029421004
00000000: f749 82bb 3440 9a39

action_model._continuous_distribution.mu.weight f4 [2, 256]
-0.005411478 -0.0029558341 0.056745816 -0.03487727 -0.009167166 -0.029121611 -7.705458e-05 0.007877662
0.0022795168 0.01738415 0.020416372 0.022947263 -0.0026494549 0.022272466 -0.024821283 0.020972587
-0.015873635 -0.015928566 -0.0122207375 0.036164276 -0.019481571 0.010430376 -0.0008628038 -0.0072578867
0.011444222 0.014587999 -0.021318745 0.027251568 0.020006511 -0.022957044 0.021853963 -0.009189446
-0.015860418 0.014380534 0.03552145 0.01976726 -0.00039860714 -0.024238402 -0.033999544 0.015742695
0.0025107777 -0.012189681 -0.0012553132 -0.018650696 -0.007062051 -1.5572175e-05 0.006877812 0.031288583
0.032216426 0.027574541 -0.035120048 0.028362468 -0.013425804 -0.030621434 0.027306087 0.018756593
-0.0050209193 -0.007691821 0.021516563 0.016257592 -0.031405125 -0.022889206 0.029335778 -0.021444207
-0.03777834 -0.004232811 -0.019115617 0.0031828424 -0.018765362 -0.018570105 0.028420022 -0.014179395
0.022176845 0.029042726 0.018480815 -0.05757231 0.01877041 0.013099325 -0.010257091 -0.020797314
-0.029308667 -0.00061469694 -0.028954772 -0.011524684 0.0107270945 0.008812043 0.02165459 -0.0050348877
0.017256567 -0.023335498 0.02221266 -0.019874755 -0.009733033 0.0010622895 0.012034691 -0.012985407
0.0043667625 0.027706502 0.02043163 0.03685008 0.0046077208 0.01702388 0.023075152 -0.018545473
-0.006386474 -0.009494246 0.032358825 -0.022567332 -0.0044972566 -0.005529304 0.0032574097 0.01923375
-0.028618023 -0.027956929 -0.016039392 -0.018057331 -0.025619827 -0.0227312 -0.0029782543 0.0017510538
-0.01838255 0.05279383 -0.011015873 0.019530173 0.030351983 0.023150697 0.024787663 0.00966702
-0.016150605 0.020666875 0.019306043 -0.017580166 0.029653683 -0.026882915 -0.012519929 0.021537175
0.015372017 0.0006822053 -0.025060834 0.05465347 0.0036162215 -0.021519795 -0.048214506 0.0075191045
-0.033405144 -0.0045426018 0.03173392 0.017234402 -0.015481755 -0.02150166 0.042377487 -0.014116203
0.0074670515 0.016882356 -0.017845018 0.038516823 0.009447549 -0.020856692 -0.012195905 -0.029937105
0.005490035 0.020267667 -0.020365715 0.016316008 -0.019198086 0.049615745 0.0062136105 -0.009758194
-0.021896157 0.025526829 -0.015778907 0.01949093 0.012493173 0.007379275 -0.010911659 -0.00660145
-0.0042167786 0.020335436 0.024057291 -0.0066126753 -0.013487043 0.029026143 0.0104488535 0.029688682
-0.00075549184 0.024589136 -0.027552573 -0.018530628 0.0037852142 -0.02415477 0.0459743 0.014462795
-0.0023521734 -0.0029810914 0.0056210225 0.011986132 0.0027424614 0.017327346 0.0032716074 0.004127406
0.024550546 -0.0010118383 0.00016905456 0.024022156 0.007348625 -0.036739487 -0.012280834 0.028838411
-0.0011315133 -0.009275643 -0.013972629 -0.0339006 -0.0120668365 -0.010702775 0.00087640586 0.040357873
-0.0023476216 -0.03820296 0.020724284 -0.008199461 0.032662857 0.023464378 0.014352176 -0.013949734
-0.00033872187 -0.017251236 -0.029594071 -0.011864906 0.003063691 0.0051767393 -0.020863218 -0.020929163
-0.003004667 0.011032462 0.042626172 0.023929717 -0.002879303 -0.012319675 0.022253407 0.02766836
-0.037150424 0.0038704944 -0.004573915 -0.025689635 -0.010806416 0.025146004 0.017276539 0.0015640088
-0.0115009 -0.0035332781 -0.0025100312 -0.024703342 0.0337747 -0.0066008074 0.030132936 -0.0085532125
00000000: c552 b1bb abb6 41bb 4d6e 683d 78db 0ebd
00000010: e231 16bc 7290 eebc 5d98 a1b8 4f11 013c
00000020: f263 153b 3469 8e3c 3c40 a73c e6fb bb3c
00000030: 7aa2 2dbb bf74 b63c 0156 cbbc b4ce ab3c
00000040: 6d09 82bc a07c 82bc 7d39 48bc fe20 143d
00000050: d197 9fbc 2be4 2a3c c82d 62ba 91d3 edbb
00000060: 8c80 3b3c 8102 6f3c a6a4 aebc ae3e df3c
00000070: b2e4 a33c 6910 bcbc 1507 b33c 558f 16bc
00000080: b5ed 81bc 559c 6b3c f17e 113d f3ee a13c
00000090: 25fc d0b9 9d8f c6bc 1b43 0bbd d3f6 803c
000000a0: dc8b 243b 3ab7 47bc 5289 a4ba 58c9 98bc
000000b0: c768 e7bb fea0 82b7 455f e13b 7528 003d
000000c0: 5ff5 033d 01e4 e13c 0ada 0fbd 6858 e83c
000000d0: e7f7 5bbc cdd9 fabc 04b1 df3c 6da7 993c
000000e0: 8686 a4bb ac0b fcbb 8143 b03c a42e 853c
000000f0: a9a2 00bd 2582 bbbc 9651 f03c c3ab afbc
00000100: 76bd 1abd 64b3 8abb 5b98 9cbc 3c97 503b
00000110: d1b9 99bc 5520 98bc 1bd1 e83c b150 68bc
00000120: 37ac b53c 03eb ed3c 1465 973c f1d0 6bbd
00000130: 67c4 993c 8d9e 563c 5c0d 28bc 215f aabc
00000140: bb18 f0bc 9d23 21ba 8f32 edbc 07d2 3cbc
00000150: b2c0 2f3c 6360 103c f764 b13c b3fb a4bb
00000160: a55d 8d3c 162a bfbc 53f7 b53c 62d0 a2bc
00000170: 4d77 1fbc 853c 8b3a 272d 453c bfc0 54bc
00000180: 0f17 8f3b bff8 e23c 3c60 a73c 1cf0 163d
00000190: 5dfc 963b aa75 8b3c 1a08 bd3c adec 97bc
000001a0: a045 d1bb c18d 1bbc b08a 043d 20df b8bc
000001b0: b95d 93bb 2a2f b5bb 447a 553b 1990 9d3c
000001c0: 5870 eabc ee05 e5bc 0b65 83bc f8ec 93bc
000001d0: ace0 d1bc c836 babc d12e 43bb 9e83 e53a
000001e0: 0097 96bc 583e 583d ec7b 34bc befd 9f3c
000001f0: b9a4 f83c 88a6 bd3c 7f0f cb3c 6c62 1e3c
00000200: 464e 84bc 944d a93c b527 9e3c 4804 90bc
00000210: 48ec f23c 8f39 dcbc 6320 4dbc bb6e b03c
00000220: eada 7b3c 06d6 323a 614c cdbc 51dc 5f3d
00000230: 21fe 6c3b 484a b0bc 937c 45bd d262 f63b
00000240: d5d3 08bd 1bda 94bb 6dfb 013d 292f 8d3c
00000250: 30a7 7dbc 4024 b0bc 0494 2d3d a647 67bc
00000260: 2bae f43b de4c 8a3c b72f 92bc d1c3 1d3d
00000270: e4c9 1a3c a7db aabc 55d1 47bc a93e f5bc
00000280: c0e5 b33b 6108 a63c 00d6 a6bc 26a9 853c
00000290: 4e45 9dbc e139 4b3d 8b9b cb3b d5e0 1fbc
000002a0: 925f b3bc a41d d13c c442 81bc 71ab 9f3c
000002b0: 2ab0 4c3c d8cd f13b d1c6 32bc fa50 d8bb
000002c0: e72c 8abb 8096 a63c cc13 c53c 24af d8bb
000002d0: c2f8 5cbc 3cc8 ed3c ab31 2b3c ae35 f33c
000002e0: 330c 46ba 286f c93c efb5 e1bc 8bcd 97bc
000002f0: 5b11 783b 39e0 c5bc 8c4f 3c3d 5cf5 6c3c
00000300: ec26 1abb 6a5e 43bb 8e30 b83b 7b61 443c
00000310: deba 333b 14f2 8d3c 7768 563b 313f 873b
00000320: 3a1e c93c a99f 84ba 3d44 3139 1dca c43c
00000330: bccc f03b 257c 16bd 8d35 49bc 883e ec3c
00000340: 494f 94ba def8 17bc 74ed 64bc 5bdb 0abd
00000350: fbb3 45bc b15a 2fbc 9abe 653a 4c4e 253d
00000360: 8eda 19bb b57a 1cbd f9c5 a93c 0857 06bc
00000370: 7dc9 053d 5e38 c03c 6425 6b3c 6d8d 64bc
00000380: 7b96 b1b9 7752 8dbc 446f f2bc 0665 42bc
00000390: 35c8 483b a3a1 a93b 57e9 aabc a373 abbc
000003a0: f3e9 44bb 80c1 343c c898 2e3d 4108 c43c
000003b0: b0b2 3cbb 76d8 49bc c74c b63c c2a8 e23c
000003c0: 0b2b 18bd 1fa8 7d3b c8e0 95bb 1273 d2bc
000003d0: 650d 31bc fefe cd3c 8787 8d3c 6dff cc3a
000003e0: 456e 3cbc 928e 67bb 567f 24bb aa5e cabc
000003f0: 5757 0a3d 964b d8bb 59d9 f63c c622 0cbc

action_model._discrete_distribution.branches.0.weight f4 [1, 256]
0.004289701 -0.001066605 0.006128443 0.016552554 0.0011304751 -0.005262431 -0.0014250313 0.0034025535
0.008870884 0.005290124 -0.009378006 0.0023327516 -0.0029911448 0.0035582704 -0.0023067512 -0.0072070225
0.004195485 0.0010633002 0.0031332846 -0.00057297404 0.0039716596 0.0038650304 0.006004121 -0.0010280607
0.006491533 0.002730723 0.0008737553 -0.007828759 0.0016904044 -0.0077023627 -0.0069642835 -0.0039461395
0.00047156247 -0.0015950416 0.00016299526 0.008688559 -0.0015070209 -0.0040477905 -0.0030369011 0.0052927877
0.0066044084 -0.0046522967 0.0018901493 0.0050133257 -0.00475261 -0.004235136 0.0045803213 0.0027146486
0.0044728452 -0.0026089943 -0.008841298 -0.0041336813 -0.005170887 0.0031055694 -0.0023428907 -0.0022546637
-0.0015177608 -0.00737032 -0.0010512902 0.009395768 -0.0057342136 0.0068573304 -0.009584608 0.0012635903
-0.012813106 -0.004562022 -0.0059124692 0.0004463767 -0.0070239822 -0.010949785 0.005768816 -0.00013012282
-0.004113178 0.004933452 0.005353259 0.0018969098 -0.00095618673 0.005746559 0.006727412 0.004506929
-0.0018034702 -0.0032479174 0.0019265127 -0.010980504 -0.0028119904 0.008018499 -0.0017737026 -0.0038676725
-0.0044991206 0.0009507954 0.011164315 0.0014204137 0.0009793176 -0.002821747 -0.0012005568 -0.0016072684
0.0016102238 0.0052174362 0.0027714716 -0.006310355 0.0031832128 -0.0061641536 -0.004140356 -0.0013303458
-0.007288667 0.0003133133 -0.0011818683 0.0029222793 -0.0064918883 -0.00035558327 0.0014998495 0.00644432
0.0050081583 -0.0038082232 0.0011111688 -0.012635882 -0.011741578 0.004526154 -0.007799733 -0.0061421907
-0.0090812445 -0.0060213953 -0.0056592524 -0.004739099 -0.00128471 0.010865707 -0.008665386 0.0063156756
0.00089176995 0.0020934332 0.0092211785 0.0032426293 -0.0028062125 0.014703671 0.0005518183 -0.0027650532
0.0067684255 0.0048374943 0.0004443951 0.0076898136 -0.010884341 -0.00115371 0.005209273 0.003373762
0.000728348 -0.010785902 0.0020346083 0.00022636077 -0.00018477114 0.0048245713 0.00892206 0.0036130347
-0.006440992 -0.00025002702 -0.008042424 0.004567925 0.0066732178 -0.006662417 0.00091355015 0.0072825686
-0.010093788 0.012289231 0.0042771487 0.005410556 0.0073254504 0.00409781 0.00035292067 -0.00088799524
0.0011884462 0.005116014 0.0014702178 0.0066136955 -0.002406757 -0.013397428 0.006349095 -0.0029518467
-0.0029191137 0.0014514555 0.002576493 -0.003321793 0.0074749254 -0.0014461427 0.0063767 0.0060991948
-0.008839582 -0.004928709 -0.00724728 0.0003664703 -0.0072908974 -0.004627196 -0.0006759134 -0.01153932
-0.00808291 0.0020881398 -0.015402878 0.0022258027 -0.009500871 0.013903978 0.00615734 -0.0065620565
-0.0039702565 0.009846475 0.0006553063 0.0028683357 -0.0102555035 0.003995542 -0.008436246 0.008691996
-0.004879985 0.008375251 -0.0061897202 0.0025288947 -0.004537105 -0.0010394655 -0.0044927686 0.0042750444
-0.002021082 -0.00384244 0.00914052 -0.0075850054 0.003698526 -0.007444539 -0.012303862 0.0060796775
0.0013474551 -0.015523413 -0.0014055372 0.005497492 0.011562076 -0.0067618936 0.0022936722 -0.0016233315
0.0076650265 -0.0015629911 0.0030863401 -0.0071261674 0.0026651572 -0.0019931854 -0.017676419 -0.0005285963
0.0028221258 -0.008118666 0.0072606443 -0.008249473 -0.013303799 0.0028803048 0.0007159969 -0.0043518874
0.002599472 0.0047155377 0.014448129 -0.006850641 0.0011165872 0.0034153406 -0.0073239245 0.007101769
00000000: 9f90 8c3b 53cd 8bba 1bd1 c83b 3999 873c
00000010: 732c 943a 7970 acbb 1ec8 baba 60fd 5e3b
00000020: 2f57 113c c758 ad3b 35a6 19bc 14e1 183b
00000030: 1507 44bb df31 693b dd2c 17bb e328 ecbb
00000040: 477a 893b 6f5e 8b3a cb57 4d3b a333 16ba
00000050: b224 823b 734c 7d3b 38be c43b febf 86ba
00000060: edb6 d43b eef5 323b ba0c 653a 3244 00bc
00000070: 8f90 dd3a 1a64 fcbb a534 e4bb 9e4e 81bb
00000080: 0b3c f739 b710 d1ba b5e9 2a39 755a 0e3c
00000090: 3b87 c5ba 54a3 84bb bf06 47bb 1f6f ad3b
000000a0: cb69 d83b 4b72 98bb e3be f73a d346 a43b
000000b0: c8bb 9bbb e5c6 8abb 8516 963b 3fe8 313b
000000c0: f290 923b a9fb 2abb 17db 10bc d573 87bb
000000d0: 8b70 a9bb cf86 4b3b 2f8b 19bb fbc2 13bb
000000e0: 9aef c6ba ba82 f1bb 72cb 89ba b5f0 193c
000000f0: 12e6 bbbb 75b3 e03b c208 1dbc 0e9f a53a
00000100: 10ee 51bc 047d 95bb 63bd c1bb ab07 ea39
00000110: 6f29 e6bb ba66 33bc 5608 bd3b 9471 08b9
00000120: d6c7 86bb cba8 a13b 646a af3b bba1 f83a
00000130: 9ba8 7aba a14d bc3b 9f71 dc3b dcae 933b
00000140: 6b62 ecba 03db 54bb 0a83 fc3a 92e7 33bc
00000150: 5f49 38bb 0660 033c 957b e8ba c778 7dbb
00000160: 5c6d 93bb cd3e 793a 88ea 363c 2d2d ba3a
00000170: 725c 803a 0fed 38bb 005c 9dba faaa d2ba
00000180: 250e d33a 07f7 aa3b 94a1 353b 18c7 cebb
00000190: 739d 503b abfc c9bb d3ab 87bb ff5e aeba
000001a0: c5d5 eebb 3344 a439 ebe8 9aba b683 3f3b
000001b0: e8b9 d4bb 946d bab9 9996 c43a e02a d33b
000001c0: 7a1b a43b 6293 79bb a3a4 913a bb06 4fbc
000001d0: bf5f 40bc 2250 943b e794 ffbb 6e44 c9bb
000001e0: 80c9 14bc 204f c5bb 4071 b9bb 724a 9bbb
000001f0: b763 a8ba 1406 323c 43f9 0dbc baf3 ce3b
00000200: abc5 693a fb31 093b 6d14 173c 4b82 543b
00000210: 6fe8 37bb abe7 703c e6a7 103a e535 35bb
00000220: abc9 dd3b d883 9e3b b3fd e839 d5fa fb3b
00000230: 3c54 32bc 1538 97ba 8db2 aa3b 551a 5d3b
00000240: 9bee 3e3a 5ab7 30bc 1057 053b 425b 6d39
00000250: 20bf 41b9 7017 9e3b d52d 123c aac8 6c3b
00000260: f50e d3bb 0f16 83b9 5fc4 03bc 88ae 953b
00000270: 02ab da3b 6850 dabb 507b 6f3a 9da2 ee3b
00000280: 6a60 25bc c558 493c 5327 8c3b 094b b13b
00000290: 550a f03b ec46 863b 3608 b939 5ac8 68ba
000002a0: a3c5 9b3a 3ca4 a73b 53b4 c03a b3b7 d83b
000002b0: afba 1dbb e380 5bbc 120c d03b c573 41bb
000002c0: 9a4e 3fbb c43e be3a 61da 283b 70b2 59bb
000002d0: 38f0 f43b 7f8c bdba a3f3 d03b c1db c73b
000002e0: e5d3 10bc 0281 a1bb 977a edbb d022 c039
000002f0: 7be8 eebb bc9f 97bb c82f 31ba 6b0f 3dbc
00000300: 2f6e 04bc 2cd9 083b 5a5c 7cbc c6de 113b
00000310: 8ba9 1bbc 83cd 633c 83c3 c93b 8506 d7bb
00000320: ed18 82bb 1c53 213c ddc8 2b3a b0fa 3b3b
00000330: b306 28bc 09ed 823b 2e38 0abc e068 0e3c
00000340: 48e8 9fbb 5938 093c 23d3 cabb d0bb 253b
00000350: ffab 94bb ad3e 88ba 1338 93bb ac15 8c3b
00000360: 2174 04bb 72d1 7bbb 1fc2 153c a38b f8bb
00000370: f862 723b 52f1 f3bb 2396 49bc 0838 c73b
00000380: 179d b03a ea55 7ebc 013a b8ba 4e24 b43b
00000390: dd6e 3d3c e092 ddbb 6f51 163b f7c5 d4ba
000003a0: e72a fb3b 47dd ccba 3244 4a3b a082 e9bb
000003b0: eba9 2e3b 1aa0 02bb 23ce 90bc 7f91 0aba
000003c0: 6af3 383b 2704 05bc b3ea ed3b cc28 07bc
000003d0: 2df8 59bc 7fc3 3c3b bdb1 3b3a 479a 8ebb
000003e0: e75b 2a3b cc84 9a3b d8b7 6c3c 587b e0bb
000003f0: 735a 923a e8d3 5f3b 88fd efbb f5b5 e83b

network_body._body_endoder.seq_layers.0.bias f4 [256]
0.014373866 0.0010525698 0.007984873 0.010050232 0.0062067183 0.0068559763 0.0074413824 0.0037590375
0.007950322 -0.0015992807 0.007331612 0.0046498417 0.004699473 0.0062454497 -0.0035714286 0.011169044
-0.0016772524 0.005010012 0.002112932 0.0055854395 0.0073557408 -0.0054490943 0.0024736242 2.6522235e-05
0.010042324 0.001945444 0.007195439 0.00060555676 -0.010433533 0.007880858 0.014824814 0.013735045
0.0016172802 0.0035907202 0.014785268 -0.0071442164 0.018904658 0.01670836 0.015501492 0.009187021
0.0010939991 0.017026367 0.00518588 0.005589 0.0027451918 0.009262663 0.0104795545 0.0064811786
0.0070829834 0.007882441 0.010701027 -0.0019138918 0.008838992 0.010815344 0.0015625505 0.018786784
0.008984134 0.011715956 -0.00068364036 0.01448929 0.014973272 -0.000606001 0.02806337 0.0017599642
0.0036897613 0.0045473976 0.011504829 0.003576618 0.004942942 0.01165943 -0.0031518948 0.012233415
0.010529682 0.011191341 0.0017212025 0.0015724304 0.0021577533 0.0052310955 0.011021334 0.0115389265
0.013333779 0.0077198157 0.008091935 0.01820802 0.0039526047 -0.0014116373 0.009605773 0.011770602
0.005634901 0.006418156 -0.00833882 0.008180859 0.013468961 -0.0014259976 0.01485883 0.001956891
0.0036381618 0.008612349 0.0032918681 0.0045853676 0.017972197 0.014426366 0.015059833 0.009770837
0.019489728 -0.006750012 0.008288827 0.007888349 -0.0082868235 0.0064331884 -0.0019131347 0.00921115
0.013995949 -0.0015026331 0.0042128544 0.013617341 0.008787421 0.0045317374 0.011383216 0.015147267
0.017384872 0.009102092 0.0035337307 0.008840496 0.013130742 -0.001067592 0.010834009 0.009564762
0.004066418 -0.0009078123 0.016084783 0.02055033 -0.0007133123 0.0061623175 0.0049885176 0.010616033
0.013640493 0.0086164605 0.015617217 0.015343776 0.0138126025 0.01315176 -0.005486017 0.018491805
0.009195686 0.006964811 -0.0014026021 0.008058543 0.014499715 0.0015462223 -0.0061893146 0.007719628
0.013700261 0.013966569 -0.0008306635 0.0019230084 -0.0072075645 0.009759504 0.012775094 0.0011781041
0.004496878 0.0054080198 0.019376447 -0.0023113778 0.002604324 0.011918159 0.0058643003 0.00916808
0.0047124745 -0.008691014 0.014572468 0.012798215 0.0032421988 0.009051083 -0.0022987083 0.005720103
-0.004653561 0.004609051 0.017298577 0.011434313 0.010807646 -0.007874079 0.017595274 0.014883566
0.0016335455 0.0012096275 0.009356892 0.01146412 0.00895981 0.0034454851 -0.004307834 0.01133195
0.001957841 0.0005455692 0.0036935487 0.012373903 0.029396866 0.0029540968 0.015909687 0.02083293
0.0027288187 -0.0036635974 -0.0009353059 -0.0014556409 0.0069609936 0.0062404345 -0.0056750113 0.0030596717
0.01028795 0.011820346 0.005935401 0.020971313 0.0066431523 -0.0019376859 0.0026911316 0.010621599
0.0031375415 0.0072899866 0.008331842 -0.00015371027 0.012202104 0.0008319522 0.003425912 -0.0024439492
0.007387895 0.0014538766 0.008951239 0.001939716 0.007354474 0.0043716496 0.0030765818 0.003931955
0.004258493 0.006107407 0.0016142937 0.019669099 0.0056978804 0.012574949 0.00029034665 -0.0012008674
0.008898813 -0.0030754877 -0.0038932436 0.009562073 0.014995371 -0.0025703444 0.0050615487 0.010246093
0.014030553 0.0024035445 -0.000972131 0.015034069 0.007179694 0.0010309926 0.01822592 0.004007248
00000000: 5d80 6b3c 62f6 893a fcd2 023c baa9 243c
00000010: ba61 cb3b 19a8 e03b d7d6 f33b 2f5a 763b
00000020: 1142 023c f59e d1ba 053e f03b b35d 983b
00000030: 09fe 993b a1a6 cc3b a10e 6abb 5efe 363c
00000040: 40d7 dbba 072b a43b 1e79 0a3b 1006 b73b
00000050: 6d08 f13b 518e b2bb 871c 223b 117c de37
00000060: 8f88 243c 45fe fe3a b8c7 eb3b 3abe 1e3a
00000070: 69f1 2abc b71e 013c c7e3 723c f408 613c
00000080: ebfa d33a 4a52 6b3b e93d 723c 081a eabb
00000090: f1dd 9a3c f8df 883c f8f9 7d3c 2985 163c
000000a0: 8564 8f3a e17a 8b3c 51ee a93b ee23 b73b
000000b0: ade8 333b 6dc2 173c 70b2 2b3c 1160 d43b
000000c0: 5f18 e83b 5b25 013c 5c53 2f3c 8ddb faba
000000d0: 6bd1 103c d732 313c 7fce cc3a bee6 993c
000000e0: 3032 133c 48f4 3f3c 5436 33ba 7d64 6d3c
000000f0: 7452 753c 0adc 1eba 27e5 e53c 99ae e63a
00000100: eccf 713b 5602 953b c07e 3c3c b165 6a3b
00000110: 67f8 a13b 3207 3f3c 0590 4ebb a96e 483c
00000120: b084 2c3c e35b 373c f999 e13a 021a ce3a
00000130: 1869 0d3b 9c69 ab3b d392 343c c40d 3d3c
00000140: ec75 5a3c 82f6 fc3b 0994 043c fc28 953c
00000150: da84 813b b006 b9ba 8861 1d3c 7cd9 403c
00000160: faa4 b83b 654f d23b 8c9f 08bc 0209 063c
00000170: ebac 5c3c 8ae8 baba 7372 733c 2f3f 003b
00000180: 3a6e 6e3b cf1a 0d3c 62bc 573b da40 963b
00000190: 6e3a 933c 915c 6c3c 85bd 763c dc15 203c
000001a0: eca8 9f3c 342f ddbb dccd 073c 223e 013c
000001b0: 75c5 07bc 7fcd d23b 26c2 faba 5dea 163c
000001c0: 444f 653c 00f4 c4ba fc0b 8a3b 451b 5f3c
000001d0: 1df9 0f3c f87e 943b ab80 3a3c 3e2c 783c
000001e0: b86a 8e3c f120 153c 2a96 673b bad7 103c
000001f0: 5322 573c 71ee 8bba 2181 313c 85b5 1c3c
00000200: 963f 853b 41fa 6dba 3cc4 833c 2a59 a83c
00000210: 94fd 3aba 44ed c93b b876 a33b dfee 2d3c
00000220: 607c 5f3c 0e2c 0d3c 5bdf 7f3c 7664 7b3c
00000230: 414e 623c 7b7a 573c 0cc4 b3bb 207c 973c
00000240: 81a9 163c 1239 e43b 84d7 b7ba fb07 043c
00000250: 3690 6d3c 9caa ca3a bccf cabb eff4 fc3b
00000260: 0f77 603c 09d4 643c e2c0 59ba 740d fc3a
00000270: 6f2d ecbb 54e6 1f3c a14e 513c 9d6a 9a3a
00000280: 8c5a 933b c235 b13b 5bbb 9e3c 7c7a 17bb
00000290: 4ead 2a3b 6244 433c 5129 c03b b735 163c
000002a0: 1a6b 9a3b c164 0ebc 5cc1 6e3c 9baf 513c
000002b0: 127b 543b fe4a 143c eda5 16bb b46f bb3b
000002c0: e67c 98bb 8607 973b bfb5 8d3c fc56 3b3c
000002d0: 8e12 313c 4802 01bc f723 903c 33da 733c
000002e0: b11c d63a 5d8c 9e3a a64d 193c 01d4 3b3c
000002f0: 2bcc 123c a6cd 613b bb28 8dbb a5a9 393c
00000300: 1f4f 003b 8704 0f3a 770f 723b e9bb 4a3c
00000310: b2d1 f03c 8599 413b 0855 823c d2a9 aa3c
00000320: fbd5 323b f718 70bb 512f 75ba 34cb beba
00000330: 0c19 e43b 8f7c cc3b 72f5 b9bb c684 483b
00000340: ca8e 283c 20aa 413c c17d c23b 08cc ab3c
00000350: cdae d93b f3f9 fdba b25d 303b 3706 2e3c
00000360: 369f 4d3b d7e0 ee3b 4782 083c 492d 21b9
00000370: 55eb 473c 5e17 5a3a 4485 603b aa2a 20bb
00000380: 2816 f23b 0190 be3a 38a8 123c 123e fe3a
00000390: cdfd f03b 0e40 8f3b 7aa0 493b a1d7 803b
000003a0: d48a 8b3b a520 c83b b596 d33a 1721 a13c
000003b0: 49b5 ba3b 2907 4e3c ab39 9839 6c66 9dba
000003c0: 54cc 113c 1f8e 49bb ca25 7fbb 3eaa 1c3c
000003d0: 25af 753c 3973 28bb 59db a53b 3bdf 273c
000003e0: 68e0 653c c984 1d3b 9bd6 7eba 7551 763c
000003f0: a343 eb3b 5f22 873a 864e 953c 3c4f 833b

network_body._body_endoder.seq_layers.0.weight f4 [256, 119]
0.19914928 0.12119092 -0.017457478 -0.16689485 -0.20211414 -0.06461171 -0.008405287 -0.0111098895
0.050845113 -0.104384236 -0.031370535 -0.08980209 0.15324788 0.050345406 -0.08096951 -0.11134068
0.12350161 0.04796177 0.08207423 0.03483049 -0.13569085 0.082356386 0.026520051 0.12809141
0.016118458 -0.17752416 -0.008804479 -0.17740498 0.04819198 -0.0105275195 -0.092510425 -0.040351298
0.07099618 0.10010712 0.011102568 -0.09396444 -0.0053660315 -0.060042586 -0.0028428133 -0.03161968
0.1315771 0.1482809 -0.102024406 0.00017095843 -0.16196254 -0.01975688 -0.1063026 0.103697784
-0.05400673 -0.10611717 0.04877831 0.014807054 0.006078098 -0.01847298 0.1375019 -0.11623771
-0.019878346 -0.025883235 -0.01686693 0.0015194174 -0.011595765 -0.042673532 0.15876074 0.051186405
0.03813592 -0.019893052 0.10763728 0.039017357 -0.14069283 -0.15155822 -0.24928665 0.022375613
-0.04573597 -0.05665389 -0.0018086467 0.08272585 0.0016345324 -0.036427204 0.13998051 -0.073744155
-0.16329381 0.05866501 -0.044119097 0.07943812 -0.13679199 -0.02070015 0.0085983 0.08015287
-0.0006789192 -0.1403 -0.054588344 -0.17161871 0.054387663 -0.003234698 0.047987044 0.057188146
-0.10795309 0.13030513 0.12213299 -0.02344899 -0.008278963 -0.1462452 0.1492455 0.07645074
-0.031370137 -0.0666912 0.14081644 0.011639796 0.0275578 -0.119588144 -0.046518154 -0.07983227
0.12352429 -0.12814845 -0.14918205 -0.07023096 -0.07011406 0.003022568 0.08282697 0.044265628
-0.09748418 -0.035825238 -0.109102964 -0.082774326 -0.054846413 -0.04120927 -0.105489835 0.033890106
0.038888667 -0.05102229 -0.029595945 -0.024762707 -0.20457394 -0.06401807 -0.028488459 -0.007102903
0.03834878 -0.024971941 -0.07119193 -0.12761793 -0.10342582 0.15858336 0.098590836 -0.09662595
0.11976696 0.20730233 -0.11380609 0.0051810346 -0.21091406 -0.034839466 -0.0937504 -0.061310176
-0.033664484 -0.083043434 0.18366365 0.030683894 -0.100588314 -0.0025360975 0.07334439 -0.005428036
-0.008024354 -0.11167862 -0.06884806 0.056567132 0.028916782 0.044416867 -0.09339577 -0.057628427
-0.029294932 -0.14096671 0.05822735 -0.13585971 -0.056956235 -0.04285356 -0.16155197 0.036555454
-0.08553031 -0.11186847 -0.21956678 0.022396322 0.020112997 0.084537685 -0.056755412 0.12890732
-0.0930327 -0.07287886 0.005012315 -0.10522661 -0.07012138 0.06648616 -0.08689134 -0.19137877
0.12632565 -0.06873531 0.03937048 0.0071911146 -0.047675416 -0.115024954 -0.0066545545 -0.118317425
-0.09920852 0.07562662 -0.026872672 0.054304823 0.061030526 0.11731295 -0.18449816 0.19142877
-0.056964822 -0.02483162 -0.045464944 -0.050275978 -0.042258374 0.05134524 0.12238575 -0.009165156
0.058501847 -0.062662825 -0.04211155 0.17593598 0.18880503 -0.031269204 0.12653038 -0.1250358
0.24332607 -0.0067575397 0.07291961 -0.16043757 -0.09426316 -0.115323015 -0.04696717 -0.17695132
0.08972621 0.08100948 -0.030827068 0.122365445 -0.020941323 0.08998693 0.07247201 -0.09773363
0.0055553033 -0.025220215 0.07134848 -0.118377954 0.08134946 0.05907201 3.7822905e-05 0.056061503
-0.14203915 -0.068699636 0.035469476 0.032223865 0.11087458 0.014699282 0.03266813 -0.049684506
00000000: caed 4b3e f232 f83d fc02 8fbc 7ce6 2abe
00000010: 02f7 4ebe 2553 84bd 54b6 09bc 4106 36bc
00000020: f742 503d 67c7 d5bd 647e 00bd 28ea b7bd
00000030: 03ed 1c3e fc36 4e3d 58d3 a5bd 9506 e4bd
00000040: 69ee fc3d 9073 443d 8916 a83d 6aaa 0e3d
00000050: 8bf2 0abe 77aa a83d 9440 d93c 652a 033e
00000060: db0a 843c e5c8 35be a940 10bc a7a9 35be
00000070: f464 453d 9e7b 2cbc 1b76 bdbd 6747 25bd
00000080: 7266 913d f604 cd3d 8ce7 353c 6e70 c0bd
00000090: 89d5 afbb 37ef 75bd 7e4e 3abb a383 01bd
000000a0: 26bc 063e f3d6 173e 2cf2 d0bd 4e43 3339
000000b0: 82d9 25be 2ed9 a1bc 2db5 d9bd 815f d43d
000000c0: 2936 5dbd f553 d9bd c4cb 473d 4999 723c
000000d0: c82a c73b a654 97bc 4ccd 0c3e 090e eebd
000000e0: ead7 a2bc 1409 d4bc 842c 8abc 3027 c73a
000000f0: 2afc 3dbc 71ca 2ebd 2d92 223e d6a8 513d
00000100: 6934 1c3d c1f6 a2bc ef70 dc3d aad0 1f3d
00000110: c811 10be 1432 1bbe 0045 7fbe 104d b73c
00000120: a455 3bbd e90d 68bd 1d10 edba 2c6c a93d
00000130: ce3d d63a b134 15bd 0d57 0f3e 2d07 97bd
00000140: 7e36 27be b94a 703d 3ab6 34bd 74b0 a23d
00000150: 3313 0cbe 5c93 a9bc e2df 0c3c 3027 a43d
00000160: 7ff9 31ba ceaa 0fbe 0798 5fbd d1bc 2fbe
00000170: 99c5 5e3d 3afd 53bb 108e 443d 1e3e 6a3d
00000180: 8216 ddbd b56e 053e dc20 fa3d 1918 c0bc
00000190: 7da4 07bc 4dc1 15be d0d3 183e 3592 9c3d
000001a0: f97d 00bd 6595 88bd 2f32 103e d8b4 3e3c
000001b0: e5c0 e13c a1ea f4bd d289 3ebd 1a7f a3bd
000001c0: 4efa fc3d 5939 03be 2ec3 18be 40d5 8fbd
000001d0: f697 8fbd 4716 463b 30a1 a93d e04f 353d
000001e0: c9a5 c7bd 7cbd 12bd 6071 dfbd 9685 a9bd
000001f0: a2a6 60bd 0dcb 28bd 0e0b d8bd 5ad0 0a3d
00000200: b949 1f3d c0fc 50bd 3273 f2bc 29db cabc
00000210: d57b 51be e81b 83bd a160 e9bc 78bf e8bb
00000220: 9c13 1d3d f591 ccbc 13cd 91bd 46ae 02be
00000230: ebd0 d3bd ad63 223e fee9 c93d d3e3 c5bd
00000240: 6148 f53d 1047 543e 2b13 e9bd abc5 a93b
00000250: dbf9 57be d4b3 0ebd 3600 c0bd 6120 7bbd
00000260: c5e3 09bd ad12 aabd 5312 3c3e ca5c fb3c
00000270: 3f01 cebd a834 26bb 9535 963d abdd b1bb
00000280: 9578 03bc c3b7 e4bd 3600 8dbd f0b2 673d
00000290: e3e2 ec3c 76ee 353d 4846 bfbd c90b 6cbd
000002a0: edfb efbc 9459 10be cd7f 6e3d cf1e 0bbe
000002b0: f14a 69bd 3787 2fbd e16d 25be 2cbb 153d
000002c0: 842a afbd 4c1b e5bd 1dd6 60be 7e78 b73c
000002d0: 03c4 a43c 1822 ad3d 5d78 68bd 4800 043e
000002e0: ee87 bebd 8341 95bd 593e a43b 0d81 d7bd
000002f0: cc9b 8fbd e529 883d 16f4 b1bd ccf8 43be
00000300: 835b 013e 19c5 8cbd f142 213d 71a3 eb3b
00000310: 4c47 43bd 3492 ebbd 730e dabb 6850 f2bd
00000320: d62d cbbd 21e2 9a3d 1424 dcbc bc6e 5e3d
00000330: 25fb 793d c641 f03d 16ed 3cbe e705 443e
00000340: f253 69bd ae6b cbbc 7339 3abd 2fee 4dbd
00000350: 1e17 2dbd 634f 523d 61a5 fa3d 7329 16bc
00000360: a29f 6f3d 5e55 80bd 297d 2cbd 9028 343e
00000370: 1b56 413e 2314 00bd 2e91 013e 6209 00be
00000380: 782a 793e 5a6e ddbb e056 953d bf49 24be
00000390: 0b0d c1bd 792e ecbd a660 40bd ba32 35be
000003a0: 60c2 b73d 4ce8 a53d 0c89 fcbc bc9a fa3d
000003b0: 238d abbc 114b b83d 356c 943d 9228 c8bd
000003c0: 4309 b63b a09a cebc 271f 923d 2470 f2bd
000003d0: 8c9a a63d 7ef5 713d 09a4 1e38 bfa0 653d
000003e0: b672 11be 65b2 8cbd 7148 113d 2cfd 033d
000003f0: 3612 e33d 42d5 703c 04cf 053d fb81 4bbd

network_body._body_endoder.seq_layers.2.bias f4 [256]
0.022719745 0.0048082448 0.0015848288 0.003963657 0.0121415155 0.009472034 0.0076657413 0.0046354155
-0.0047018453 7.45732e-05 0.0049223606 0.002135691 0.008149909 0.0037499315 -0.0078096413 0.009721098
0.0063490425 0.0051830607 0.00601517 0.010374948 0.005235764 -0.00083966355 -0.0028535542 0.020715646
0.007158501 0.0028783833 -0.0017887828 0.0044191363 0.0044378163 0.0073050493 0.0042092106 0.0050216666
0.007768245 0.0044192877 0.00879209 0.0036533833 0.004070386 0.0064708153 0.002501811 0.006221465
0.011495078 0.0021618952 -0.00023439265 -0.0014739017 -0.002364042 0.0037712003 0.0034326767 0.0029264234
0.015066383 0.007961892 -0.0074698078 -0.009635624 -0.0011149748 0.0035216634 0.008382516 0.006802042
0.00036345763 -0.007811801 0.007708839 0.0148828495 0.004946055 0.008553313 0.0018237899 -0.0020501579
-0.0004235801 0.00574688 0.004390101 0.012631364 0.009678686 0.0037388431 0.00017984808 0.0021196564
-0.0016284301 0.0030520465 -0.0057509667 0.00256333 -0.00065633387 0.011314327 0.0029713085 0.00021548745
0.0016393663 0.00912917 0.004063247 0.004643963 0.0029315639 0.0077400366 0.0029871387 0.010994447
0.0054520597 0.013026557 0.002985486 0.008877328 0.014606421 0.01412604 0.0050029084 0.0026883367
0.013972849 0.009854635 0.0070217843 0.00040800835 0.011372916 -0.009299899 0.005564854 0.006063878
0.0041265977 0.0018748028 0.009376874 0.008435241 0.006384772 0.009941466 0.0067225182 0.0016461795
0.004008875 -0.0029039872 0.004220373 0.009330258 0.008927118 5.045716e-05 0.002762895 0.023975864
0.00813953 0.0045067333 0.003476317 0.0039882055 -0.0051898505 0.0058225435 0.0065990477 -0.005221998
-0.004380115 0.0034659812 0.0010143296 0.002075866 0.004871019 -0.0006543089 0.009251057 -2.0124326e-05
-0.0032049778 0.0018828283 0.0027731282 -0.0013456052 0.009853414 -0.0036439393 -0.00063755846 0.015580142
0.0053968453 0.002532066 -0.009881368 0.0034267826 0.006757955 0.013379889 0.004604174 -0.0012549068
0.0009974418 0.015219381 0.012546819 -0.0013272142 -0.0011663742 0.008279035 0.00988279 0.012408076
0.00655102 0.007997288 0.0014724225 0.0088603115 -0.0054856553 -0.0005679119 0.0047605075 0.005473688
0.008391028 0.0057529784 0.007405536 0.008473748 -0.0012965713 0.0033398492 0.0046337713 0.0046941973
-0.007162991 0.006856343 0.003126424 0.006035449 0.0059037474 0.004988442 -5.885825e-05 0.00692168
0.0030187706 0.010868512 0.008943971 0.01325303 0.010410223 0.0074302936 -0.0034665454 0.008885979
0.005841759 -0.00071150094 0.014100078 0.0085929325 0.003839613 0.003653217 -0.0065466873 0.0017387073
-0.0032766468 -0.00037926395 0.005270234 0.013763067 0.0057591605 0.0012982385 -0.00037054118 0.0011215277
0.009834672 0.0033654638 0.003995584 0.012593328 0.0018215425 0.0039779153 0.0011111526 0.0032349003
0.0072812326 0.011510681 -0.0027157264 -0.0019065242 -0.0021134866 0.0044071367 0.003963268 -0.0007125342
0.010761162 0.013191032 0.00845664 0.0019201598 0.009675634 0.0072703194 0.015396487 0.014584987
0.014862426 0.0007798763 0.008412641 0.013427375 0.0118939495 -0.0018462992 0.0022989204 0.0034938117
0.00543674 0.006402189 0.008532024 0.0037532633 0.01242588 0.0079760915 0.0017244419 0.0011915026
0.014791838 0.009803977 -0.002693263 -0.0006070788 0.007796734 0.007870412 0.011543665 0.0034104951
00000000: c21e ba3c 7b8e 9d3b 08ba cf3a 91e1 813b
00000010: 35ed 463c 9730 1b3c e630 fb3b afe4 973b
00000020: f011 9abb 2f64 9c38 c14b a13b f3f6 0b3b
00000030: 3287 053c 69c1 753b 05e8 ffbb 3d45 1f3c
00000040: a10b d03b aad6 a93b e71a c53b b0fb 293c
00000050: c690 ab3b de1c 5cba b202 3bbb dcb3 a93c
00000060: dc91 ea3b 42a3 3c3b 9775 eaba 67ce 903b
00000070: 1a6b 913b 325f ef3b 6bed 893b cb8c a43b
00000080: c38c fe3b accf 903b b30c 103c 9a6d 6f3b
00000090: df60 853b 2209 d43b 6cf5 233b 6edd cb3b
000000a0: da55 3c3c 95ae 0d3b 4cc7 75b9 ef2f c1ba
000000b0: 0bee 1abb 3e26 773b c2f6 603b 3dc9 3f3b
000000c0: fed8 763c 9872 023c 4ac5 f4bb bcde 1dbc
000000d0: 5924 92ba b5cb 663b d256 093c aae3 de3b
000000e0: 758e be39 23fa ffbb 6e9a fc3b 32d7 733c
000000f0: 8412 a23b 3223 0c3c 3c0c ef3a f15b 06bb
00000100: f513 deb9 5350 bc3b d6da 8f3b c8f3 4e3c
00000110: 5a93 1e3c 6107 753b 9a95 3c39 efe9 0a3b
00000120: 0c71 d5ba d804 483b 9b72 bcbb 8bfd 273b
00000130: d20d 2cba ba5f 393c 49ba 423b 79f4 6139
00000140: 01e0 d63a 8492 153c fc24 853b 632c 983b
00000150: 7b1f 403b 22a0 fd3b dfc3 433b 0e22 343c
00000160: 31a7 b23b 576d 553c 25a8 433b 3672 113c
00000170: c54f 6f3c e870 673c 70ef a33b ce2e 303b
00000180: 60ee 643c 5675 213c ff16 e63b f4e9 d539
00000190: 7855 3a3c 9b5e 18bc 6159 b63b 7fb3 c63b
000001a0: 6938 873b f1bb f53a 76a1 193c f733 0a3c
000001b0: 5937 d13b 88e1 223c 9248 dc3b 9ec4 d73a
000001c0: e25c 833b d250 3ebb 0e4b 8a3b f0dd 183c
000001d0: 0c43 123c f7a1 5338 b011 353b 0869 c43c
000001e0: aa5b 053c 38ad 933b ecd2 633b 7eaf 823b
000001f0: 9f0f aabb 09cb be3b d33c d83b 4b1d abbb
00000200: 1187 8fbb 8425 633b 41f3 843a 410b 083b
00000210: 129d 9f3b ed85 2bba bf91 173c a9d0 a8b7
00000220: 9b0a 52bb 3cc9 f63a 5fbd 353b 055f b0ba
00000230: 3770 213c 28cf 6ebb d321 27ba da43 7f3c
00000240: 05d8 b03b 05f1 253b 76e5 21bc df93 603b
00000250: d671 dd3b 5237 5b3c 9cde 963b af7b a4ba
00000260: 98bc 823a b65a 793c 2c91 4d3c ebf5 adba
00000270: 06e1 98ba caa4 073c 6deb 213c 3e4b 4b3c
00000280: f0a9 d63b 0f07 033c 4dfe c03a d72a 113c
00000290: 03c1 b3bb ecdf 14ba 08fe 9b3b 9f5c b33b
000002a0: 867a 093c 7b83 bc3b 23aa f23b 7ad5 0a3c
000002b0: b7f1 a9ba 5fe1 5a3b e4d6 973b c8d1 993b
000002c0: 86b7 eabb 2cab e03b b1e4 4c3b 04c5 c53b
000002d0: 3974 c13b 1676 a33b 91de 76b8 43cf e23b
000002e0: 91d6 453b d811 323c bc89 123c 3d23 593c
000002f0: a48f 2a3c d279 f33b fb2e 63bb 7f96 113c
00000300: 3a6c bf3b 0584 3aba 0304 673c 5fc9 0c3c
00000310: 04a2 7b3b d06a 6f3b 9885 d6bb 56e5 e33a
00000320: 03bd 56bb f2d7 c6b9 edb1 ac3b 7d7e 613c
00000330: 57b7 bc3b a829 aa3a 3245 c2b9 3a00 933a
00000340: 9b21 213c 1d8f 5c3b 63ed 823b 3f54 4e3c
00000350: d3c0 ee3a 2c59 823b 18a4 913a 9f00 543b
00000360: 6897 ee3b 4c97 3c3c 54fa 31bb 56e4 f9ba
00000370: 6c82 0abb be69 903b 4dde 813b 5cc9 3aba
00000380: 964f 303c 331f 583c b88d 0a3c dfad fb3a
00000390: 8d86 1e3c dc3b ee3b 8c41 7c3c dff5 6e3c
000003a0: 8881 733c 9d70 4c3a 2cd5 093c 7efe 5b3c
000003b0: d7de 423c 85ff f1ba 7ca9 163b 6ff8 643b
000003c0: ae26 b23b 74c9 d13b e7c9 0b3c 4ff9 753b
000003d0: eb95 4b3c 27ae 023c ab06 e23a 312c 9c3a
000003e0: 7759 723c dca0 203c 7581 30bb 5e24 1fba
000003f0: bf7b ff3b e7f2 003c a421 3d3c 9d82 5f3b

network_body._body_endoder.seq_layers.2.weight f4 [256, 256]
0.04768366 0.039399903 -0.026405009 0.089578085 -0.037268482 -0.01583196 0.044183522 0.01852318
0.016321694 0.044939023 -0.05402435 0.11353964 -0.050542112 0.037655346 -0.14488858 -0.012021613
-0.02586428 0.07090295 0.058214776 0.027899059 -0.047216732 0.04837472 0.058114983 -0.055222653
-0.044217654 -0.059427373 -0.01130133 0.073265694 0.09474338 -0.012997431 -0.027561545 -0.017863926
0.06127116 -0.0045956695 0.13643532 0.077682115 0.092143446 0.03725982 0.065541156 0.0053907055
0.008701326 0.11284562 -0.017054483 0.0033909753 0.058969196 -0.017837994 -0.006020679 0.00476372
-0.09326455 -0.007849055 -0.04797944 0.012526872 0.03279463 0.014621451 -0.029028354 0.038720135
0.051459108 0.0041253823 0.046165902 0.0020838992 -0.04445651 -0.013207694 0.017651113 0.01193378
-0.02833709 -0.0022957907 0.08456322 0.00014221022 -0.033808038 0.060069542 -0.08466906 0.04919882
-0.03158716 0.0505357 0.066943556 -0.10056143 0.09474269 -0.0364022 0.0417388 0.0009753928
0.026173452 0.04399713 -0.10820039 -0.09425291 0.052702717 -0.026392154 -0.010925903 0.0014991771
-0.003329628 0.043666 -0.0044179717 0.012692821 -0.024902899 0.06553905 -0.13588686 0.01939946
-0.072838284 0.04454236 0.024402069 -0.012528465 0.013742976 -0.11133205 -0.05755741 0.003326899
0.039819017 0.06902064 0.03768326 0.09091835 -0.050945148 0.07509656 -0.04398521 0.013346472
-0.05516404 0.008936634 0.03702412 -0.008114115 -0.016829927 -0.05030353 -0.014696089 0.02870804
0.059495356 -0.036593687 0.02609102 0.08104596 0.04170664 -0.12524338 0.033302076 -0.014536109
0.11704265 0.012371716 0.018094253 0.032301173 -0.033550736 0.03587763 -0.03223254 0.0002715071
-0.08375522 0.031226363 0.11977476 0.059940744 -0.008233404 0.06149219 0.04705914 0.0133711295
-0.00943042 -0.051705547 -0.003935637 0.0191309 0.0078880675 -0.0060587395 -0.13164209 0.09499997
0.0817069 0.010427395 0.07561871 -0.023813864 -0.13345107 0.0011776468 0.004182588 0.093489364
-0.0053448332 -0.019821612 0.06634563 -0.08343086 -0.06526486 -0.015554896 0.085422 0.09342804
-0.08215148 -0.051887363 0.0981865 0.013788425 0.0039062365 0.077469856 0.0057516294 -0.023689406
0.14065775 -0.011426709 0.036597636 -0.06474697 0.010056097 -0.071161576 -0.067951165 0.1044135
0.019997302 -0.0067287483 -0.11215426 0.012617157 -0.001767648 -0.06303964 0.04740101 0.053098425
0.030826468 0.16792588 0.027249876 -0.052869562 0.01746076 -0.037338044 0.040838547 -0.0527356
-0.0020964877 -0.034566246 0.063067324 -0.042580858 -0.11668124 0.03640876 0.08148196 0.01731624
0.06966566 -0.09024647 -0.025308708 -0.05622626 -0.008338006 -0.012143299 -0.124889985 0.11495551
0.0148991225 0.11153914 0.0195554 -0.061093293 0.0936017 -0.093604825 0.034742706 -0.110841244
-0.062020432 0.07633797 0.078431524 -0.15026729 0.051619954 0.021972883 -0.10236047 -0.11696997
0.05052459 0.011353244 0.031914312 0.09145392 -0.021549745 0.07685208 0.046485975 0.05461066
0.060508907 0.0032888884 -0.0038874568 0.05205698 0.03099692 -0.06700618 -0.06651956 0.012544097
-0.14412475 -0.009902183 -0.0654422 0.0020858739 -0.041049115 -0.053464293 4.7420494e-05 0.093125395
00000000: f14f 433d cb61 213d 514f d8bc b774 b73d
00000010: d6a6 18bd 07b2 81bc c8f9 343d edbd 973c
00000020: 13b5 853c fb11 383d a348 5dbd 7987 e83d
00000030: 3f05 4fbd 7e3c 1a3d ac5d 14be 4df6 44bc
00000040: 54e1 d3bc 9135 913d 9e72 6e3d 918c e43c
00000050: 5566 41bd 9224 463d fa09 6e3d 2631 62bd
00000060: 921d 35bd 1e6a 73bd 3729 39bc 530c 963d
00000070: d108 c23d 2df3 54bc c0c8 e1bc 5e57 92bc
00000080: 78f7 7a3d 4597 96bb b3b5 0b3e cd17 9f3d
00000090: b4b5 bc3d c19d 183d 713a 863d 84a4 b03b
000000a0: 0290 0e3c 9b1b e73d d8b5 8bbc 203b 5e3b
000000b0: af89 713d fc20 92bc 1e49 c5bb fb18 9c3b
000000c0: 7c01 bfbd 5399 00bc 1786 44bd 823d 4d3c
000000d0: a953 063d cf8e 6f3c dfcc edbc 0199 1e3d
000000e0: c9c6 523d 372e 873b 7518 3d3d 0792 083b
000000f0: 0818 36bd 1565 58bc 1199 903c e785 433c
00000100: 2f23 e8bc fa74 16bb 7b2f ad3d 441e 1539
00000110: 4c7a 0abd 7b0b 763d f966 adbd b484 493d
00000120: 8a61 01bd 86fe 4e3d b419 893d 27f3 cdbd
00000130: 7508 c23d 791a 15bd 4ef6 2a3d 81b1 7f3a
00000140: b569 d63c 5636 343d 2b98 ddbd ab07 c1bd
00000150: cede 573d 5c34 d8bc 8f02 33bc 0980 c43a
00000160: e335 5abb 1fdb 323d a2c4 90bb 8df5 4f3c
00000170: 2a01 ccbc 5639 863d ed25 0bbe 9eeb 9e3c
00000180: 3d2c 95bd 0d72 363d d9e6 c73c 3144 4dbc
00000190: 382a 613c 0f02 e4bd 52c1 6bbd 1a08 5a3b
000001a0: 4419 233d b15a 8d3d c359 1a3d 6633 ba3d
000001b0: dcab 50bd 3acc 993d d629 34bd 29ab 5a3c
000001c0: b0f3 61bd f66a 123c 9ba6 173d 11f1 04bc
000001d0: eade 89bc 130b 4ebd ddc7 70bc 202d eb3c
000001e0: 67b1 733d 43e3 15bd d6bc d53c 6dfb a53d
000001f0: 95d4 2a3d cd3f 00be c267 083d dc28 6ebc
00000200: 0fb4 ef3d bdb2 4a3c 663a 943c 3c4e 043d
00000210: 7f6c 09bd 6cf4 123d 4506 04bd 1159 8e39
00000220: db87 abbd 6ece ff3c 784c f53d 6d84 753d
00000230: 66e5 06bc 3cdf 7b3d 16c1 403d 9512 5b3c
00000240: 0c82 1abc 32c9 53bd 84f6 80bb 68b8 9c3c
00000250: f43c 013c 6488 c6bb 2fcd 06be 588f c23d
00000260: f255 a73d aad7 2a3c fbdd 9a3d 4b15 c3bc
00000270: 66a7 08be 455b 9a3a 170e 893b 5a77 bf3d
00000280: b623 afbb ef60 a2bc 38e0 873d ccdd aabd
00000290: 95a9 85bd f6d9 7ebc bbf1 ae3d 3357 bf3d
000002a0: 093f a8bd d887 54bd 0116 c93d d9e8 613c
000002b0: c6ff 7f3b 84a8 9e3d 2a78 bc3b 4910 c2bc
000002c0: 9608 103e 1737 3bbc 67e7 153d 0f9a 84bd
000002d0: 54c2 243c 29bd 91bd fb29 8bbd bfd6 d53d
000002e0: 62d1 a33c d57c dcbb 22b1 e5bd 31b8 4e3c
000002f0: 6db0 e7ba ed1a 81bd 9027 423d bc7d 593d
00000300: ca87 fc3c c3f4 2b3e 223b df3c c18d 58bd
00000310: de09 8f3c c7ef 18bd 5246 273d 4901 58bd
00000320: 3a65 09bb 5695 0dbd 7129 813d 4469 2ebd
00000330: 93f6 eebd 5a21 153d 04e0 a63d cada 8d3c
00000340: dfac 8e3d 24d3 b8bd 3554 cfbc 824d 66bd
00000350: 229c 08bc b0f4 46bc 52c6 ffbd cb6d eb3d
00000360: 731b 743c a26e e43d a532 a03c f63c 7abd
00000370: 40b2 bf3d e3b3 bfbd 5e4e 0e3d bc00 e3bd
00000380: 2309 7ebd 1557 9c3d b5a0 a03d abdf 19be
00000390: 726f 533d 7a00 b43c 5ea2 d1bd f48d efbd
000003a0: dff2 4e3d f502 3a3c 95b8 023d 314c bb3d
000003b0: 1789 b0bc a064 9d3d 1468 3e3d 6daf 5f3d
000003c0: 30d8 773d 648a 573b b4c4 7ebb b339 553d
000003d0: 41ed fd3c 893a 89bd 683b 88bd c285 4d3c
000003e0: 7095 13be c43c 22bc 8f06 86bd 28b3 083b
000003f0: 1e23 28bd 60fd 5abd 5ee5 4638 87b8 be3d

network_body._body_endoder.seq_layers.4.bias f4 [256]
0.006319814 0.007929614 0.006497785 0.010593543 0.003666921 0.006408898 0.007828244 -0.0003918764
0.0025316563 0.0042266664 0.0023932655 0.00823046 0.0014835123 -0.0017211649 0.008044691 0.0012274486
0.0039258883 0.007161032 0.0049322755 -0.00045035704 0.008921079 0.0005934732 0.0061797374 0.0024080179
0.003450589 0.007988372 0.011343441 0.0037465554 -0.0040417337 0.0048797242 0.0008179044 0.0055486197
0.0033674152 -0.0013978889 0.0027134116 -0.0028325927 0.0036527917 0.0052159657 0.012215359 -0.0034997105
0.0026208514 0.0021444797 0.0011470586 0.006244479 0.005688244 0.0016531153 0.002440419 0.003363826
0.0061466987 0.0014911104 0.0062537747 0.0009007729 0.0048798723 0.008180311 0.0011223329 0.0013336608
0.0056546764 0.0025653571 -0.0024441793 0.0017807789 0.009849064 0.005096864 0.002389318 0.0060141203
0.008181465 0.0059251874 0.004495814 0.0036054722 0.006347117 0.006587945 0.004433713 0.007490287
0.0028267729 0.0031228971 -0.0011518 0.011954265 0.0018809569 0.0012044875 0.0074342624 0.008092202
0.008713068 0.008402919 0.007092988 0.006890887 0.0001498479 0.0014312181 -0.0029015215 0.00046701753
0.009062305 0.0066914116 0.005251582 0.007928468 0.0061589484 0.0008515048 -0.0010246921 0.008924967
-0.0038023964 -0.0014991839 0.0023776742 0.0017990486 0.0008778838 0.0041521923 0.00030906746 0.009407476
0.005182666 0.0068775383 0.00012284941 0.006396325 0.0047267624 -0.0005349541 0.0017081972 0.0024789108
0.008230546 0.004443991 0.006784199 0.006819847 0.009066089 0.0059504844 0.008537708 0.0050164685
0.0055536674 0.00075300335 0.003808991 -0.0028682377 -0.00197349 0.0015809083 -0.000100529585 0.0015970252
0.006019514 -0.0024538026 -0.0025405455 0.004524637 0.0004875474 0.005110148 0.0044179433 -0.002747942
-0.0016335077 0.0093790665 0.007843826 0.0021805847 0.00452207 0.010497969 0.00950758 0.0018137431
0.0084981425 -5.125601e-05 0.00505637 0.0017519353 0.0066726827 0.006982216 0.0010669122 0.010105
0.0041641514 0.0064745396 0.00431986 0.0015261704 0.00089342816 0.0067578624 0.005165502 0.01315881
0.00010505461 -0.0040205363 0.007917808 0.001219767 0.0084156385 0.0040217647 -0.0005389049 0.009871105
0.0059651714 0.0006354566 0.0060041607 -0.0005993172 0.0035851304 0.002791599 0.0036266919 0.0045576636
0.0038551325 -0.0037239604 0.005235437 0.0039898423 0.014971176 0.0047641303 0.0026858451 0.0040175193
0.005050587 0.00046152083 0.013257948 0.009400479 0.004650922 0.0027811043 0.00026759127 0.0052766106
0.004168251 0.0021771179 0.0003386094 -0.0043533356 0.0028363015 0.0023244298 -0.001324431 0.0018930801
0.00182507 0.0039587836 0.0052676997 0.0007778363 0.005004508 0.008616387 0.0036226478 0.0014077636
0.006584359 0.0036284234 0.010561301 0.009551378 0.0068391487 0.00303903 0.0044862437 0.0029613785
0.0033212842 0.009555486 0.0011306162 0.0024891563 0.002045305 0.0035726521 -0.000580566 0.0052367533
0.0022433735 0.002361719 0.013583916 0.010372778 0.0035930492 0.00355715 0.007255644 0.007413501
0.0011991272 -0.00042599186 0.0019208847 -0.0023447785 0.0019933004 0.009707587 -9.955326e-05 0.0028087362
0.01091909 0.0035777686 0.0032325685 0.007425748 0.0059204833 0.0037633213 0.0007574903 0.0060218982
0.0036130617 -0.0011532927 0.0027279784 0.007456288 -5.936192e-05 0.006294037 0.0029779684 0.003316338
00000000: 7116 cf3b 36eb 013c 5feb d43b 8a90 2d3c
00000010: ba50 703b bc01 d23b 0942 003c c374 cdb9
00000020: 25ea 253b d97f 8a3b 55d8 1c3b 0dd9 063c
00000030: 6a72 c23a b698 e1ba e1cd 033c 57e2 a03a
00000040: bda4 803b 17a7 ea3b ed9e a13b e61d ecb9
00000050: b829 123c 5093 1b3a 657f ca3b d6cf 1d3b
00000060: 4723 623b a9e1 023c d7d9 393c c588 753b
00000070: 8570 84bb 18e6 9f3b a368 563a 32d1 b53b
00000080: daaf 5c3b 5e39 b7ba 7ed3 313b 05a3 39bb
00000090: ad63 6f3b b1ea aa3b ee22 483c 665b 65bb
000000a0: 97c2 2b3b 668a 0c3b e658 963a 7d9e cc3b
000000b0: 7364 ba3b 58ad d83a 70ef 1f3b a373 5c3b
000000c0: 3f6a c93b 5d71 c33a 77ec cc3b d921 6c3a
000000d0: 56e7 9f3b b606 063c 3e1b 933a 3bce ae3a
000000e0: dd4a b93b 8d1f 283b 862e 20bb 0669 e93a
000000f0: f85d 213c 9803 a73b 1b96 1c3b 1912 c53b
00000100: 8d0b 063c 1328 c23b 9f51 933b c949 6c3b
00000110: 7afb cf3b b0df d73b ae48 913b 1571 f53b
00000120: 6141 393b 85a9 4c3b fff7 96ba d2db 433c
00000130: 718a f63a e5df 9d3a 1d9b f33b 2895 043c
00000140: 42c1 0e3c 66ac 093c 4c6c e83b f3cc e13b
00000150: 7d20 1d39 b697 bb3a 7427 3ebb 08da f439
00000160: 107a 143c a143 db3b 7615 ac3b 68e6 013c
00000170: 01d1 c93b 8537 5f3a f64e 86ba 063a 123c
00000180: a031 79bb 4480 c4ba c1d2 1b3b 0ece eb3a
00000190: c921 663a 1d0f 883b 550a a239 d021 1a3c
000001a0: 5ad3 a93b f95c e13b 23d1 0039 4398 d13b
000001b0: f5e2 9a3b 293c 0cba 96e5 df3a 3975 223b
000001c0: 69d9 063c e69e 913b fc4d de3b 0679 df3b
000001d0: ef89 143c 48fc c23b bee1 0b3c 3061 a43b
000001e0: 8afb b53b 3365 453a 44a0 793b 0bf9 3bbb
000001f0: ab55 01bb 7b36 cf3a 69d3 d2b8 4653 d13a
00000200: 583f c53b facf 20bb 487f 26bb 6843 943b
00000210: 819d ff39 0773 a73b 65c4 903b d116 34bb
00000220: 6c1b d6ba a8aa 193c 6483 003c 24e8 0e3b
00000230: df2d 943b acff 2b3c aec5 1b3c 1fbb ed3a
00000240: cb3b 0b3c b9fb 56b8 e8af a53b 32a1 e53a
00000250: 85a6 da3b 13cb e43b a2d7 8b3a 718f 253c
00000260: 6f73 883b 6028 d43b 9d8d 8d3b c809 c83a
00000270: f334 6a3a 0f71 dd3b 5f43 a93b 0d98 573c
00000280: c450 dc38 b4be 83bb b2b9 013c 97e0 9f3a
00000290: bfe1 093c 02c9 833b 4c45 0dba 6aba 213c
000002a0: 7c77 c33b c594 263a 8dbe c43b 7f1b 1dba
000002b0: 82f4 6a3b 42f3 363b cbad 6d3b 7458 953b
000002c0: 64a6 7c3b b00d 74bb 078e ab3b 39bd 823b
000002d0: aa49 753c 6c1c 9c3b 0105 303b 65a5 833b
000002e0: 657f a53b 47f8 f139 dd37 593c 7704 1a3c
000002f0: c366 983b 3043 363b 7e4b 8c39 6be7 ac3b
00000300: d395 883b faad 0e3b 6287 b139 6da6 8ebb
00000310: 3ee1 393b 7655 183b 8898 adba 3a21 f83a
00000320: 3037 ef3a afb8 813b ab9c ac3b b6e7 4b3a
00000330: dbfc a33b bf2b 0d3c f269 6d3b b584 b83a
00000340: 9bc1 d73b d8ca 6d3b 4f09 2d3c 627d 1c3c
00000350: f01a e03b 762a 473b 5701 933b b013 423b
00000360: e7a9 593b 9d8e 1c3c 2f31 943a 1d21 233b
00000370: 860a 063b 2823 6a3b 2031 18ba 1299 ab3b
00000380: 9005 133b 12c7 1a3b 138f 5e3c 96f2 293c
00000390: 5d79 6b3b 131f 693b c1c0 ed3b f4ec f23b
000003a0: 082c 9d3a a957 dfb9 32c6 fb3a dbaa 19bb
000003b0: 08a2 023b 920c 1f3c 40c7 d0b8 c612 383b
000003c0: fce5 323c ff78 6a3b 80d9 533b b053 f33b
000003d0: 9d00 c23b 0ea2 763b 5092 463a 5853 c53b
000003e0: 1ec9 6c3b 152a 97ba e2c7 323b e153 f43b
000003f0: 60fb 78b8 363e ce3b 052a 433b eb56 593b
