results/H7/AgentController/AgentController-499971.onnx (onnx, 657373 bytes, 14 tensors)

83 f4 [116]
00000000: 174a 923e f07c 423e 29bb 633e c0fd 833e
00000010: cfb9 8f3e 820a 3e3e e138 603e 12ca 823e
00000020: 0d0f 943e edb7 453e 1505 663e 9bc9 853e
00000030: a398 8d3e 4850 3b3e 6c88 5c3e 2e1a 823e
00000040: 3457 953e b038 483e da8f 673e 0978 873e
00000050: 9d31 8b3e e4b2 353e 4779 5a3e b890 823e
00000060: 73a7 963e 1630 483e 7d4d 6b3e 9eff 883e
00000070: 465c 883e b76e 313e 5223 563e f7a9 833e
00000080: 3e71 993e 12f4 463e 1b11 743e 4898 8a3e
00000090: d27c 833e 9eaa 2a3e 444a 4e3e cd66 843e
000000a0: 3c71 9a3e 43c9 433e 073a 793e 1fa9 8b3e
000000b0: eda8 7f3e da19 283e b06a 463e 7eaa 843e
000000c0: d3c8 9a3e 7c4e 413e 35f6 7b3e bcfc 8b3e
000000d0: 68f6 7a3e 3b6b 263e 754d 413e b91c 843e
000000e0: 38c0 9a3e 4e2b 403e daa9 7c3e 1d80 8b3e
000000f0: 2894 7a3e e495 283e 0bf7 3e3e 35d7 823e
00000100: df09 9a3e 042c 3b3e 544a 7e3e 28b3 8a3e
00000110: fbf4 7c3e 80d0 273e abee 423e 32c0 813e
00000120: 4fbe 973e 8231 343e 4a02 7d3e 5dc2 883e
00000130: e80c 813e d83d 293e 3bd1 483e 9d2f 803e
00000140: 1296 943e 48a5 2c3e adce 793e d267 863e
00000150: cc6b 833e 17e8 283e c084 4f3e f15d 7d3e
00000160: 6b06 903e 2b3a 243e 8e93 733e 3ff7 833e
00000170: 2f34 843e f3ba 273e 3688 523e a471 7a3e
00000180: 5013 8c3e 5fac 213e 5338 6b3e 3e63 813e
00000190: cfc7 843e 4e17 253e 220d 563e 1759 793e
000001a0: 3009 883e bb6e 1f3e d771 623e 1648 7e3e
000001b0: 9334 853e a216 203e 91be 5a3e 9e7c 7a3e
000001c0: 9334 853e a216 203e 91be 5a3e 9e7c 7a3e
0.2857215 0.18992972 0.22239365 0.25779533 0.28071448 0.18558696 0.21896698 0.25544792
0.28917733 0.19308443 0.22462876 0.26130375 0.27655515 0.18292344 0.21536416 0.254106
0.29168093 0.19552875 0.22613469 0.26458767 0.2718629 0.17744023 0.21335326 0.25501037
0.2942463 0.19549593 0.22978778 0.2675752 0.266329 0.1732739 0.20911911 0.2571561
0.2996921 0.19429043 0.2383465 0.27069306 0.25681168 0.16666648 0.20145518 0.2585968
0.30164516 0.19119744 0.24338542 0.27277467 0.24966784 0.16416112 0.19376636 0.25911325
0.30231342 0.18877596 0.2460564 0.2734126 0.24508059 0.16251843 0.18877204 0.25803164
0.30224776 0.1876652 0.24674168 0.2724618 0.2447058 0.16463429 0.18648927 0.25554815
0.30085656 0.1827851 0.24833041 0.2708981 0.24702828 0.1638813 0.19036357 0.25341946
0.2963738 0.1759701 0.24707904 0.26710787 0.2520516 0.16527498 0.19611065 0.25036326
0.29020745 0.16859925 0.24395247 0.26251084 0.2566818 0.16494785 0.20265484 0.24742867
0.28129897 0.16037814 0.23786756 0.2577457 0.25821063 0.16379909 0.20559773 0.24457413
0.27358484 0.1578841 0.22970705 0.25271028 0.25933692 0.16122171 0.20903447 0.24350391
0.2656951 0.15569584 0.22113739 0.24832186 0.26016673 0.15633634 0.21361758 0.244616
0.26016673 0.15633634 0.21361758 0.244616

86 f4 [3]
00000000: 537c cd40 8f49 9f3b 8ee5 1041
6.4214263 0.004861064 9.056044

action_model._continuous_distribution.log_sigma f4 [1, 2]
00000000: 673c bcbb b64d 0dbc
-0.005744505 -0.008624485

action_model._continuous_distribution.mu.bias f4 [2]
00000000: 9ad8 40bb 24bd 7f3a
-0.002942598 0.0009755662

action_model._continuous_distribution.mu.weight f4 [2, 256]
00000000: a07e e5bb 73b6 4dbb 5b2f 5d3d c5be fbbc
00000010: 15e4 25bc 65d3 e6bc 1947 76b9 c55a 203c
00000020: cec8 573b dcba 763c ecbe 913c d744 a23c
00000030: c2eb 99bb e3b3 9a3c c67d babc c6fd 903c
00000040: 2c67 83bc db47 91bc 7f0d 21bc 1c14 163d
00000050: 7850 8bbc 602e 063c 3732 9aba 7860 d2ba
00000060: cd14 363c 84c2 2e3c da01 a8bc e1ce c83c
00000070: ff0a 823c fcb0 d2bc 91b6 993c 1400 d4bb
00000080: 3d8f 41bc 45d5 2c3c b9f9 0b3d 4dd2 a43c
00000090: e72d 273b 557f adbc bdcd f0bc 19d9 723c
000000a0: 0b97 2e3b 16ff 26bc 37b6 39ba 7f65 84bc
000000b0: f258 cfbb bc79 d4ba 8de1 7b3b c24b ec3c
000000c0: 02e6 e43c 1129 bf3c 61e4 0abd 107a f83c
000000d0: 5aa4 51bc 69b1 e9bc 075f bb3c cf0d 8a3c
000000e0: 39bc 90bb a484 f9bb e5ad a83c c460 7a3c
000000f0: 9d0d f0bc 3ab0 b6bc 157e fd3c a21c 9cbc
00000100: 981f 0dbd 2a42 cabb 466b 9cbc 03d6 de39
00000110: c016 a2bc b70b 98bc 5ace bd3c fe1f 89bc
00000120: ce0a 983c 6eaa e23c 1aec 903c 4ea7 52bd
00000130: 2fe8 983c 311e 2c3c 90ea 26bc b2f0 aabc
00000140: 6d28 bfbc 0fbe 43bb ea9b e8bc b925 39bc
00000150: 038b 353c 8306 113c c31d 9d3c 40d9 83bb
00000160: dd64 743c cd1f 9fbc fda3 8e3c cecf 96bc
00000170: 25f2 13bc d9de 243b aefb 743c 89b6 42bc
00000180: 155a b83b 69b5 d13c e56a 9b3c 7afd 063d
00000190: 15eb e93b 2404 913c 79c7 a33c bf89 75bc
000001a0: ecc0 42bb 762a 24bc d05b df3c 2bed 91bc
000001b0: 4fb0 04bb 667c 96bb 12a1 853b 4d39 7d3c
000001c0: cbb9 d7bc 5dad dcbc 94dc 77bc 7c73 9abc
000001d0: f3e8 c1bc a772 92bc 35f6 c5ba f52e c03a
000001e0: 0d6c 83bc 4b1c 523d 921b 41bc 2450 9a3c
000001f0: 9ae6 ee3c c632 993c 6412 c43c e985 c53b
00000200: 18a1 75bc bc2a 993c 9a02 9e3c 9d14 8dbc
00000210: 401f da3c 39f2 dbbc 89ce 1abc 8d80 a63c
00000220: f159 773c 1894 16bb f710 a6bc 9d70 653d
00000230: f656 dc3a 83ad 90bc e8ec 30bd 433f 013c
00000240: b39d fabc 51c1 48bb c4c3 e43c f580 6d3c
00000250: 6593 0cbc 63b4 94bc 2f69 193d 8019 37bc
00000260: 7dab 133c fe60 473c 0c43 82bc af9e 173d
00000270: 2a1e b03b 3eb5 84bc c7a1 23bc 4d5c c7bc
00000280: f8fc 8d3b 03df 863c 58d4 76bc 8ed7 6f3c
00000290: 274b 96bc 6ecc 463d 2bd6 df3b 2c38 21bc
000002a0: b10f 93bc f396 b53c 6b76 80bc 3671 a73c
000002b0: a170 273c 0e6d 1f3c 8f84 07bc 5f66 12bc
000002c0: d39e 0fbb c7f3 ad3c 520d ca3c d556 d8bb
000002d0: d8aa 27bc 384d c43c 83fc 823c 57de d63c
000002e0: ac9f 94bb fa93 a93c 0fc5 c1bc 27fb 4cbc
000002f0: e189 fd3a ad99 abbc 65e2 353d ded9 743c
00000300: 04fc c3ba 121b ebba d853 ff3b 9aee 363c
00000310: 279b e439 9ea5 6d3c dab6 563b f170 653b
00000320: 8ab6 aa3c ae41 50bb cad5 7db8 4e2c ae3c
00000330: 637b ce3b 36af 01bd 0905 36bc c70b d03c
00000340: 4b8f 34bb 6151 9bbb f7b9 2cbc 8d0a fbbc
00000350: 4555 35bc 1739 1fbc 6b5e d0b9 bc47 1a3d
00000360: 89f9 f939 2853 0bbd 685a a03c e278 b3bb
00000370: a0a7 093d 9dfd c43c 3a12 4e3c 3510 4bbc
00000380: 4f92 cf39 9741 81bc a767 eebc 51f8 23bc
00000390: a812 8c3a d569 ab3b 8a6a a2bc 4ae3 a8bc
000003a0: d008 bcbb a7b0 023c 2f94 2b3d e724 b93c
000003b0: 7282 6db9 ebdf 57bc 3e2d ab3c d8bc de3c
000003c0: 1dc5 14bd 180e 383b 37b7 06bc 7a12 adbc
000003d0: 2a5c 3ebc 10c0 ba3c 47b2 313c c776 b33a
000003e0: 888c 49bc 43e0 1abb a379 10bb 5821 a8bc
000003f0: c776 013d 6d27 d9bb e080 f43c c3e9 e8bb
-0.0070036203 -0.0031389266 0.05400024 -0.030730614 -0.01012518 -0.028176973 -0.00023486874 0.009787266
0.0032926085 0.015059199 0.017791234 0.019808216 -0.004697294 0.018884605 -0.022765052 0.017699134
-0.016040407 -0.017734459 -0.009829878 0.03664027 -0.017006144 0.008189768 -0.0011764233 -0.0016050478
0.011113358 0.010666493 -0.020508695 0.02451271 0.015874384 -0.025719158 0.018763812 -0.006469736
-0.011813936 0.010548894 0.0341737 0.02011981 0.0025509538 -0.02117888 -0.029394979 0.014822268
0.0026640322 -0.010192653 -0.0007084342 -0.016161678 -0.006327742 -0.0016210596 0.0038434 0.028844718
0.027941708 0.023335012 -0.033909205 0.030331641 -0.012795532 -0.028526979 0.022872461 0.016852288
-0.004416969 -0.007614689 0.020590732 0.01528186 -0.029303366 -0.022300828 0.03094391 -0.019056622
-0.03445396 -0.006172438 -0.01909412 0.0004250259 -0.019786239 -0.018560274 0.023169685 -0.016738888
0.01855984 0.027669158 0.017690707 -0.051429085 0.018665401 0.010505245 -0.01018776 -0.020866726
-0.023334706 -0.0029867922 -0.028394658 -0.011300498 0.011080506 0.00885165 0.01917923 -0.004023701
0.014916626 -0.019424343 0.01741218 -0.018409636 -0.0090299 0.0025157242 0.014952583 -0.01188434
0.005625973 0.025599198 0.01897187 0.032956578 0.0071386197 0.01770217 0.019992577 -0.0149864545
-0.0029717041 -0.010019889 0.02726546 -0.017813286 -0.002024669 -0.004592466 0.004078039 0.015455556
-0.02633371 -0.026938135 -0.0151282735 -0.018853895 -0.02367065 -0.017876936 -0.0015103283 0.0014662432
-0.016042734 0.051296514 -0.011786358 0.018837042 0.029162694 0.018700968 0.02393455 0.006027926
-0.014992021 0.018697135 0.01928835 -0.017221743 0.02662623 -0.0268489 -0.009448656 0.02032497
0.015097127 -0.0022976454 -0.020271761 0.0560156 0.0016810584 -0.017660862 -0.04319468 0.007888618
-0.030592775 -0.0030632804 0.02792538 0.014496078 -0.0085800635 -0.018152421 0.037453827 -0.011175513
0.009013054 0.012169121 -0.015901111 0.037016567 0.0053746896 -0.016199704 -0.009987301 -0.024336005
0.0043331347 0.016463762 -0.015065275 0.014638795 -0.018346382 0.048534803 0.0068309507 -0.009840053
-0.017951818 0.022166705 -0.015681466 0.020439725 0.010219724 0.0097305905 -0.0082713505 -0.00893554
-0.0021914735 0.021234406 0.024664555 -0.006602148 -0.010233603 0.023962602 0.015989548 0.026229067
-0.004535636 0.020700444 -0.023653535 -0.012511051 0.0019343459 -0.020947302 0.04440536 0.014944522
-0.0014952426 -0.0017937145 0.0077919774 0.0111652855 0.00043603146 0.014504818 0.0032762797 0.0035009945
0.020838995 -0.003177743 -6.0519007e-05 0.02126136 0.00630133 -0.031661235 -0.011109599 0.02539624
-0.002755123 -0.0047399257 -0.010542384 -0.03064468 -0.011067693 -0.009718201 -0.00039743198 0.037666067
0.000476789 -0.03401485 0.019574359 -0.005477057 0.033607125 0.024046713 0.012577588 -0.012394001
0.00039591125 -0.015778346 -0.02910216 -0.010007934 0.0010686712 0.005231122 -0.019826192 -0.020616192
-0.005738355 0.0079766875 0.041889366 0.022600604 -0.00022650676 -0.013175945 0.020895597 0.027189657
-0.036320794 0.0028084572 -0.008222393 -0.021126974 -0.011618653 0.02279666 0.010845727 0.0013692015
-0.012301572 -0.0023632206 -0.0022045157 -0.020523712 0.031607416 -0.0066270144 0.029846609 -0.0071079447

action_model._discrete_distribution.branches.0.weight f4 [1, 256]
00000000: 9f90 8c3b 53cd 8bba 1bd1 c83b 3999 873c
00000010: 732c 943a 7970 acbb 1ec8 baba 60fd 5e3b
00000020: 2f57 113c c758 ad3b 35a6 19bc 14e1 183b
00000030: 1507 44bb df31 693b dd2c 17bb e328 ecbb
00000040: 477a 893b 6f5e 8b3a cb57 4d3b a333 16ba
00000050: b224 823b 734c 7d3b 38be c43b febf 86ba
00000060: edb6 d43b eef5 323b ba0c 653a 3244 00bc
00000070: 8f90 dd3a 1a64 fcbb a534 e4bb 9e4e 81bb
00000080: 0b3c f739 b710 d1ba b5e9 2a39 755a 0e3c
00000090: 3b87 c5ba 54a3 84bb bf06 47bb 1f6f ad3b
000000a0: cb69 d83b 4b72 98bb e3be f73a d346 a43b
000000b0: c8bb 9bbb e5c6 8abb 8516 963b 3fe8 313b
000000c0: f290 923b a9fb 2abb 17db 10bc d573 87bb
000000d0: 8b70 a9bb cf86 4b3b 2f8b 19bb fbc2 13bb
000000e0: 9aef c6ba ba82 f1bb 72cb 89ba b5f0 193c
000000f0: 12e6 bbbb 75b3 e03b c208 1dbc 0e9f a53a
00000100: 10ee 51bc 047d 95bb 63bd c1bb ab07 ea39
00000110: 6f29 e6bb ba66 33bc 5608 bd3b 9471 08b9
00000120: d6c7 86bb cba8 a13b 646a af3b bba1 f83a
00000130: 9ba8 7aba a14d bc3b 9f71 dc3b dcae 933b
00000140: 6b62 ecba 03db 54bb 0a83 fc3a 92e7 33bc
00000150: 5f49 38bb 0660 033c 957b e8ba c778 7dbb
00000160: 5c6d 93bb cd3e 793a 88ea 363c 2d2d ba3a
00000170: 725c 803a 0fed 38bb 005c 9dba faaa d2ba
00000180: 250e d33a 07f7 aa3b 94a1 353b 18c7 cebb
00000190: 739d 503b abfc c9bb d3ab 87bb ff5e aeba
000001a0: c5d5 eebb 3344 a439 ebe8 9aba b683 3f3b
000001b0: e8b9 d4bb 946d bab9 9996 c43a e02a d33b
000001c0: 7a1b a43b 6293 79bb a3a4 913a bb06 4fbc
000001d0: bf5f 40bc 2250 943b e794 ffbb 6e44 c9bb
000001e0: 80c9 14bc 204f c5bb 4071 b9bb 724a 9bbb
000001f0: b763 a8ba 1406 323c 43f9 0dbc baf3 ce3b
00000200: abc5 693a fb31 093b 6d14 173c 4b82 543b
00000210: 6fe8 37bb abe7 703c e6a7 103a e535 35bb
00000220: abc9 dd3b d883 9e3b b3fd e839 d5fa fb3b
00000230: 3c54 32bc 1538 97ba 8db2 aa3b 551a 5d3b
00000240: 9bee 3e3a 5ab7 30bc 1057 053b 425b 6d39
00000250: 20bf 41b9 7017 9e3b d52d 123c aac8 6c3b
00000260: f50e d3bb 0f16 83b9 5fc4 03bc 88ae 953b
00000270: 02ab da3b 6850 dabb 507b 6f3a 9da2 ee3b
00000280: 6a60 25bc c558 493c 5327 8c3b 094b b13b
00000290: 550a f03b ec46 863b 3608 b939 5ac8 68ba
000002a0: a3c5 9b3a 3ca4 a73b 53b4 c03a b3b7 d83b
000002b0: afba 1dbb e380 5bbc 120c d03b c573 41bb
000002c0: 9a4e 3fbb c43e be3a 61da 283b 70b2 59bb
000002d0: 38f0 f43b 7f8c bdba a3f3 d03b c1db c73b
000002e0: e5d3 10bc 0281 a1bb 977a edbb d022 c039
000002f0: 7be8 eebb bc9f 97bb c82f 31ba 6b0f 3dbc
00000300: 2f6e 04bc 2cd9 083b 5a5c 7cbc c6de 113b
00000310: 8ba9 1bbc 83cd 633c 83c3 c93b 8506 d7bb
00000320: ed18 82bb 1c53 213c ddc8 2b3a b0fa 3b3b
00000330: b306 28bc 09ed 823b 2e38 0abc e068 0e3c
00000340: 48e8 9fbb 5938 093c 23d3 cabb d0bb 253b
00000350: ffab 94bb ad3e 88ba 1338 93bb ac15 8c3b
00000360: 2174 04bb 72d1 7bbb 1fc2 153c a38b f8bb
00000370: f862 723b 52f1 f3bb 2396 49bc 0838 c73b
00000380: 179d b03a ea55 7ebc 013a b8ba 4e24 b43b
00000390: dd6e 3d3c e092 ddbb 6f51 163b f7c5 d4ba
000003a0: e72a fb3b 47dd ccba 3244 4a3b a082 e9bb
000003b0: eba9 2e3b 1aa0 02bb 23ce 90bc 7f91 0aba
000003c0: 6af3 383b 2704 05bc b3ea ed3b cc28 07bc
000003d0: 2df8 59bc 7fc3 3c3b bdb1 3b3a 479a 8ebb
000003e0: e75b 2a3b cc84 9a3b d8b7 6c3c 587b e0bb
000003f0: 735a 923a e8d3 5f3b 88fd efbb f5b5 e83b
0.004289701 -0.001066605 0.006128443 0.016552554 0.0011304751 -0.005262431 -0.0014250313 0.0034025535
0.008870884 0.005290124 -0.009378006 0.0023327516 -0.0029911448 0.0035582704 -0.0023067512 -0.0072070225
0.004195485 0.0010633002 0.0031332846 -0.00057297404 0.0039716596 0.0038650304 0.006004121 -0.0010280607
0.006491533 0.002730723 0.0008737553 -0.007828759 0.0016904044 -0.0077023627 -0.0069642835 -0.0039461395
0.00047156247 -0.0015950416 0.00016299526 0.008688559 -0.0015070209 -0.0040477905 -0.0030369011 0.0052927877
0.0066044084 -0.0046522967 0.0018901493 0.0050133257 -0.00475261 -0.004235136 0.0045803213 0.0027146486
0.0044728452 -0.0026089943 -0.008841298 -0.0041336813 -0.005170887 0.0031055694 -0.0023428907 -0.0022546637
-0.0015177608 -0.00737032 -0.0010512902 0.009395768 -0.0057342136 0.0068573304 -0.009584608 0.0012635903
-0.012813106 -0.004562022 -0.0059124692 0.0004463767 -0.0070239822 -0.010949785 0.005768816 -0.00013012282
-0.004113178 0.004933452 0.005353259 0.0018969098 -0.00095618673 0.005746559 0.006727412 0.004506929
-0.0018034702 -0.0032479174 0.0019265127 -0.010980504 -0.0028119904 0.008018499 -0.0017737026 -0.0038676725
-0.0044991206 0.0009507954 0.011164315 0.0014204137 0.0009793176 -0.002821747 -0.0012005568 -0.0016072684
0.0016102238 0.0052174362 0.0027714716 -0.006310355 0.0031832128 -0.0061641536 -0.004140356 -0.0013303458
-0.007288667 0.0003133133 -0.0011818683 0.0029222793 -0.0064918883 -0.00035558327 0.0014998495 0.00644432
0.0050081583 -0.0038082232 0.0011111688 -0.012635882 -0.011741578 0.004526154 -0.007799733 -0.0061421907
-0.0090812445 -0.0060213953 -0.0056592524 -0.004739099 -0.00128471 0.010865707 -0.008665386 0.0063156756
0.00089176995 0.0020934332 0.0092211785 0.0032426293 -0.0028062125 0.014703671 0.0005518183 -0.0027650532
0.0067684255 0.0048374943 0.0004443951 0.0076898136 -0.010884341 -0.00115371 0.005209273 0.003373762
0.000728348 -0.010785902 0.0020346083 0.00022636077 -0.00018477114 0.0048245713 0.00892206 0.0036130347
-0.006440992 -0.00025002702 -0.008042424 0.004567925 0.0066732178 -0.006662417 0.00091355015 0.0072825686
-0.010093788 0.012289231 0.0042771487 0.005410556 0.0073254504 0.00409781 0.00035292067 -0.00088799524
0.0011884462 0.005116014 0.0014702178 0.0066136955 -0.002406757 -0.013397428 0.006349095 -0.0029518467
-0.0029191137 0.0014514555 0.002576493 -0.003321793 0.0074749254 -0.0014461427 0.0063767 0.0060991948
-0.008839582 -0.004928709 -0.00724728 0.0003664703 -0.0072908974 -0.004627196 -0.0006759134 -0.01153932
-0.00808291 0.0020881398 -0.015402878 0.0022258027 -0.009500871 0.013903978 0.00615734 -0.0065620565
-0.0039702565 0.009846475 0.0006553063 0.0028683357 -0.0102555035 0.003995542 -0.008436246 0.008691996
-0.004879985 0.008375251 -0.0061897202 0.0025288947 -0.004537105 -0.0010394655 -0.0044927686 0.0042750444
-0.002021082 -0.00384244 0.00914052 -0.0075850054 0.003698526 -0.007444539 -0.012303862 0.0060796775
0.0013474551 -0.015523413 -0.0014055372 0.005497492 0.011562076 -0.0067618936 0.0022936722 -0.0016233315
0.0076650265 -0.0015629911 0.0030863401 -0.0071261674 0.0026651572 -0.0019931854 -0.017676419 -0.0005285963
0.0028221258 -0.008118666 0.0072606443 -0.008249473 -0.013303799 0.0028803048 0.0007159969 -0.0043518874
0.002599472 0.0047155377 0.014448129 -0.006850641 0.0011165872 0.0034153406 -0.0073239245 0.007101769

network_body._body_endoder.seq_layers.0.bias f4 [256]
00000000: d1cb 343c 5158 33b8 5bb1 1b3c d349 2d3c
00000010: 35d3 da3b 0151 673b f343 e63b 0d19 883a
00000020: 8017 923b eb06 61bb ac9b 823b 1c37 6d3b
00000030: 8f7d 0f3b 44fe d73b 924b aebb a7ae 193c
00000040: ea23 9bbb b049 b63b 1eee 013a dc7e 873b
00000050: 92b3 e63b f3cc 0fbb e4af cf3a 3740 1cbb
00000060: c89b 0d3c 246b 373a 8b57 c73b 9c8d 4d39
00000070: e3c2 00bc 0bb5 933b 82a4 873c 7369 673c
00000080: ad54 1a3a 6d3c 993b 0e41 5a3c afe5 a4bb
00000090: a471 7e3c 7de4 8c3c cb80 6d3c 4b11 ea3b
000000a0: 714f d13b fdab 893c a55d b13b aae8 c53b
000000b0: a99a 1e3a e109 243c aca6 333c fcdc 183b
000000c0: 6e82 dd3b d52c dc3b c090 423b 8069 2fbb
000000d0: e7ca f23b e259 1c3c e4d5 ef3a 402f 8e3c
000000e0: 3413 e53b a730 373c 38b8 a4b8 eef2 413c
000000f0: 783f 3d3c 0d26 1739 9c21 e13c 1e38 083a
00000100: 08f4 f83a 5150 a53b 16ed 193c 70bf c93b
00000110: 8987 f53a ee8f 0e3c 642b a8bb e2bb 103c
00000120: ddb8 e63b fcea 093c 531e 683b 8d9f 3a39
00000130: c060 3a3b 5382 5c3b 9eab 3f3c 2fdb 1f3c
00000140: 7bf1 413c 2b75 193c 5792 133c 533d 623c
00000150: f311 aa3b 054d 03ba d571 2d3c 3fc5 0b3c
00000160: 1c9c 5e3b d295 e73b 6959 40bc 5ca7 c33b
00000170: 8678 3a3c fefa f0b7 dd21 503c fabf 843b
00000180: d304 bb3a 5640 ff3b d778 b73a 9e74 dc3b
00000190: 5eb6 613c 23a3 4d3c d854 723c 9560 223c
000001a0: bf2c 813c 32b3 e8bb 3e78 103c d296 c63b
000001b0: 08c7 9abb cdf9 f33b 7798 9cbb 8cc1 3c3c
000001c0: 3570 0d3c 77c9 7dbb cc9a 833b 96db 113c
000001d0: 5ef5 d83b 20a7 c03b 3807 363c 6892 8c3c
000001e0: 97e7 793c b76b ee3b 2948 b63a d674 103c
000001f0: 86a7 403c 18a5 61b9 a855 373c c01e 173c
00000200: f65a 0b3b ec19 12bb 3614 8c3c 51e7 b03c
00000210: 3646 b139 21d4 7d3b 38d8 cf3b dff4 213c
00000220: 22c7 733c aa76 213c d0ef 773c 17de 4b3c
00000230: 86fe 183c cab2 573c 690c 41ba 42a0 933c
00000240: 6107 093c 4900 d83b 4dd3 e8b9 55a3 103c
00000250: 9630 6a3c 6a64 883a 5c7c b0bb ee78 8f3b
00000260: 7630 403c 2616 2c3c 8902 56b9 4b57 083b
00000270: 2631 cbbb 74bf 113c fce0 403c 67af f33a
00000280: ed7b 5b3b e9d2 c23b 3b8a 823c eda1 18ba
00000290: 7ae9 0a3a 9751 2d3c e40f e03b 2e8e 1c3c
000002a0: 9cf1 083b 5639 dfbb 1068 803c 1bd5 453c
000002b0: 8501 203b 6033 073c 34e1 31bb e6a0 5c3b
000002c0: 3cd6 57bb 22ec 0e3b 30e1 8f3c c93b 303c
000002d0: e2d7 143c f232 10bc 3624 9b3c 8a29 253c
000002e0: 4cb3 9e3b 7d08 233b bafb 2b3c f33c 2c3c
000002f0: ac71 363c 73ae 9f3b 5d87 27bb c830 563c
00000300: d707 bcba 4d52 76b8 0354 ab3b 5385 cf3b
00000310: 99b9 d93c 7e4e 513b 061e 773c a071 9d3c
00000320: 28ec 333b 99e1 87bb 2625 d2ba f43a c03a
00000330: 4928 ab3b 801e b93b 287e cebb c228 7a3b
00000340: 1617 093c e3ec 123c 0742 513b 964d 8d3c
00000350: ebdb ab3b d518 64ba e2da 6f3b d614 6b3c
00000360: ec45 393b d96f ae3b c68a c43b 24f9 82ba
00000370: 1627 3c3c 742d 4039 c5d4 6a3b 8a12 03bb
00000380: d3e9 d63b e82c 3a3b 755c e73b 9567 89b8
00000390: ad71 d73b e748 9e3b 5c5f 3e3b f51e a73b
000003a0: 2e67 563b 4169 123b 6d47 6e3a 8075 863c
000003b0: 111e 8c3b 4fe3 253c deb3 a4ba 8e81 33b9
000003c0: ba52 d13b a880 21bb fbd1 76ba a695 323c
000003d0: 01c0 283c 76b5 0abb 9eae 363b daf7 1c3c
000003e0: bd7f 333c 662d 9939 10e6 0dbb 05c1 463c
000003f0: a248 bc3b 4a75 b6ba 5178 8b3c a0a8 1c3b
0.011034922 -4.2759177e-05 0.009502734 0.010576683 0.00667801 0.0035296085 0.007027143 0.0010383442
0.004458368 -0.0034336399 0.0039858427 0.0036196178 0.0021894907 0.00659159 -0.0053190673 0.009380019
-0.004734506 0.0055629835 0.00049564417 0.004134996 0.0070404494 -0.0021942228 0.0015845266 -0.0023841986
0.008643098 0.0006996861 0.006083434 0.00019603077 -0.007858965 0.004507666 0.016557936 0.014124262
0.00058872515 0.004676393 0.013321174 -0.005032263 0.015530024 0.017198795 0.014496039 0.0071431748
0.006387644 0.016805643 0.0054127746 0.0060396986 0.0006050268 0.010012121 0.010965031 0.0023325076
0.006759933 0.0067192116 0.0029688329 -0.0026765764 0.0074094418 0.009542914 0.0018297997 0.017356515
0.0069908146 0.011181033 -7.854443e-05 0.011837704 0.011550777 0.00014414657 0.027481847 0.00051963504
0.0018993625 0.005044975 0.009394905 0.0061568543 0.0018732409 0.008701308 -0.0051321257 0.008833857
0.0070410804 0.008417841 0.0035418465 0.0001779778 0.0028439015 0.0033647015 0.011698632 0.009756847
0.011837359 0.009366314 0.009007058 0.013808566 0.005190128 -0.000500873 0.010586222 0.008530914
0.003396756 0.0070674205 -0.011740067 0.0059708785 0.011381274 -2.8727107e-05 0.012703386 0.0040512057
0.0014268406 0.007789652 0.0013997805 0.006727769 0.01377639 0.012551102 0.014790736 0.009910722
0.015768407 -0.00710144 0.0088177305 0.0060604597 -0.0047234334 0.00744555 -0.0047789174 0.011520755
0.008632709 -0.0038724819 0.004016256 0.008902451 0.006621047 0.005879298 0.0111101195 0.017159656
0.015252969 0.007276024 0.0013907003 0.008816918 0.011758691 -0.00021519174 0.011189856 0.00922364
0.0021263934 -0.0022293283 0.017099481 0.021594675 0.00033812382 0.0038731175 0.006342914 0.009885042
0.01487902 0.009854952 0.015132859 0.012443087 0.009338027 0.013165185 -0.0007364215 0.018020753
0.008363576 0.006591831 -0.0004440792 0.008828004 0.01429381 0.0010405902 -0.0053859185 0.0043784296
0.011730304 0.0105033275 -0.00020409575 0.0020803984 -0.0062009273 0.008895744 0.01177239 0.0018591703
0.0033490614 0.0059455526 0.015935054 -0.00058224687 0.0005299073 0.010578535 0.006837832 0.009555383
0.0020895964 -0.006812255 0.01567462 0.012074734 0.0024414968 0.008251995 -0.0027142288 0.003366524
-0.003293409 0.0021808227 0.017563432 0.010756441 0.009084674 -0.008801209 0.018938165 0.010080704
0.004843151 0.0024876886 0.010497028 0.010512578 0.0111355 0.004873091 -0.002556286 0.013073154
-0.0014345598 -5.872762e-05 0.005228521 0.006333032 0.026577758 0.0031937654 0.015082842 0.01921922
0.0027453993 -0.0041467664 -0.00160328 0.0014666007 0.005223308 0.005649388 -0.00630166 0.0038171266
0.0083673205 0.008967611 0.0031930225 0.01724891 0.005244722 -0.000870121 0.003659897 0.014348229
0.0028270436 0.005323392 0.0059979884 -0.0009992463 0.011483928 0.0001832748 0.0035832387 -0.0020000064
0.0065586357 0.0028408114 0.0070605823 -6.551963e-05 0.0065748305 0.004830468 0.0029048538 0.005100126
0.0032715308 0.0022340568 0.0009089623 0.01641345 0.004276045 0.010124995 -0.0012565812 -0.00017119033
0.0063880356 -0.0024643335 -0.0009415445 0.010899937 0.010299684 -0.0021165288 0.0027875076 0.009580577
0.010955748 0.0002921626 -0.002165202 0.01213098 0.005745963 -0.0013920453 0.017025145 0.002390422

network_body._body_endoder.seq_layers.0.weight f4 [256, 119]
00000000: acc0 4e3e 5818 fa3d 6365 c9bc ae83 25be
00000010: 5412 55be 36c1 74bd 50c1 abbb d1e9 ddba
00000020: 2888 543d 938d cfbd 3fde 14bd f703 b1bd
00000030: b959 1a3e be88 513d a6aa 9ebd 5db5 e7bd
00000040: 2e9a fc3d 8872 4d3d 867a a43d cd2a 0a3d
00000050: d997 08be 6a93 af3d bf3e ab3c f721 f63d
00000060: 6eeb 823c 692b 34be 02f6 23bc a48b 35be
00000070: f42c 3d3d 7d90 d0bb d090 c0bd 6fc2 2dbd
00000080: 8e4e 833d 7ad5 d83d 66c3 6e3c 73e5 c1bd
00000090: 282b 49bb beee 7cbd be01 8ebb 2a01 0bbd
000000a0: bb01 013e 0185 1c3e 8b7d cabd ba15 863b
000000b0: 7a8a 24be 2ea6 c7bc 2b23 d3bd 4778 d33d
000000c0: c88c 53bd 5996 cfbd ed52 333d f7b6 503c
000000d0: ea29 083c 7987 90bc 6bd7 093e 35a2 f5bd
000000e0: 1d56 a8bc fee0 efbc daa2 4dbc 546e 9c3b
000000f0: 63e5 40bc b6d8 35bd 6b95 233e 23d5 483d
00000100: b1c1 1a3d 6ad6 a7bc 5f63 de3d 5940 183d
00000110: f7b2 12be df6a 21be e463 76be 4fee c33c
00000120: 51c4 2ebd 5f66 5bbd 33cd 19bc e1cd 9b3d
00000130: a9d5 583a cb75 f5bc ece3 0c3e bfa8 9abd
00000140: 9843 26be ae19 613d 11b6 29bd 9d92 a23d
00000150: d1eb 0bbe e0b1 c1bc 4008 2d3c a996 973d
00000160: 81c9 5b3b f470 18be a47b 58bd ba88 2cbe
00000170: 8a86 533d a0d1 6539 9071 473d 925a 6f3d
00000180: f328 d8bd ac2c fd3d fa3c 003e cfe2 bbbc
00000190: 62be 00bc baeb 16be 0ef9 183e 0b47 a73d
000001a0: e942 00bd 7218 8bbd 31e8 103e ab43 263c
000001b0: 825b dd3c 2d88 fabd 8421 32bd f37b 9abd
000001c0: 0ce1 fb3d 2708 06be 18a9 15be 17d2 86bd
000001d0: ee9c 92bd 4133 bb3b 13ae ab3d 63b1 223d
000001e0: 6a6d b5bd 86f2 1abd 10cf e2bd ccce adbd
000001f0: 414e 50bd e469 2cbd 3560 cbbd 41d9 153d
00000200: 45a9 173d 6001 59bd 941d cabc 3812 e0bc
00000210: e02b 59be 5eb9 6abd 926f c8bc 1494 f4bb
00000220: 8832 213d 4130 d0bc 9d11 8ebd b2c4 04be
00000230: ea04 cfbd 3d78 233e 0748 cd3d b74e c7bd
00000240: e969 f33d 3f60 563e 585d ebbd bffe f83b
00000250: 251a 55be 144e 21bd 1eb9 babd 76a6 81bd
00000260: d5ab 11bd d83b a1bd f510 363e bdc6 cb3c
00000270: 48ed bfbd 99dd 11ba b6e9 913d b654 06bc
00000280: 0c4e 1ebc 0a94 d3bd c204 7dbd 7dcf 573d
00000290: 8ed5 0f3d d5bd 323d 78f9 bcbd 7861 58bd
000002a0: dcbd f7bc ece1 16be dca2 7c3d 01e6 0fbe
000002b0: 081c 59bd 4f00 23bd 50af 23be f982 3e3d
000002c0: 1b1f c4bd 9e5b ecbd 1253 5ebe 370f a63c
000002d0: 92cd bc3c e57c ae3d 4f12 7bbd a2e6 033e
000002e0: af58 b6bd 374b 9bbd c685 ac3b 8871 d3bd
000002f0: 1f3e 93bd 5b8a 853d ec99 bfbd 49e3 48be
00000300: 3507 043e e2f9 83bd d40a 263d c3f1 ef3b
00000310: b16e 52bd 2444 e5bd bb55 4fbc 4ac2 fabd
00000320: 5294 bfbd 9bf9 9c3d 08e9 d8bc c3ef 5a3d
00000330: 3e3e 763d 766a f33d 83e7 3fbe 89c5 443e
00000340: 5dd2 7bbd ce6d afbc 5bd3 3cbd 434f 51bd
00000350: 9e8b 21bd aee6 4e3d 5a28 ff3d 7577 38bb
00000360: 8998 463d 5122 75bd f34c 27bd fbe9 323e
00000370: 1fbf 413e 2c3c f5bc 75ad 033e 9cd8 00be
00000380: 5bd6 763e be25 4abb 2664 923d e2cc 26be
00000390: d674 b8bd 171d ecbd 6e38 4fbd ddb5 37be
000003a0: 945a c03d aef9 a53d 671c 0dbd d665 f73d
000003b0: 7e30 a4bc 71ac b93d ec67 9a3d d425 c2bd
000003c0: 82f1 4e3a c5e3 c7bc 6ace 963d 9abb eabd
000003d0: 01ea 9d3d 50f1 733d 765c 71bb 9702 613d
000003e0: 251a 0abe e7a1 81bd 7798 0a3d bc73 023d
000003f0: db64 e73d d634 ad3c 7d9d 073d fe76 40bd
0.20190686 0.122116745 -0.024584478 -0.16163513 -0.20807773 -0.059754573 -0.0052415505 -0.0016930645
0.05188766 -0.10134425 -0.036344763 -0.08643334 0.15073289 0.051155798 -0.07747392 -0.11313889
0.12334095 0.050158054 0.08031182 0.033732224 -0.13339175 0.08573039 0.020903943 0.12018197
0.015981402 -0.17594685 -0.010007383 -0.1772905 0.04618545 -0.0063648806 -0.09402621 -0.042421754
0.064114675 0.105875924 0.014572954 -0.09467592 -0.003069589 -0.06175112 -0.004333704 -0.033936657
0.12598316 0.15285112 -0.09887227 0.0040919455 -0.1606845 -0.024371233 -0.10309442 0.103256755
-0.05164793 -0.101360984 0.043780256 0.012738935 0.008310774 -0.017642723 0.13461082 -0.11993829
-0.020548875 -0.02928209 -0.012551034 0.0047738943 -0.01177344 -0.044396125 0.15974967 0.049031388
0.037782375 -0.020487983 0.10858797 0.03717074 -0.14326082 -0.15763424 -0.24061543 0.023917345
-0.04266769 -0.053564426 -0.009387302 0.07607628 0.0008271584 -0.029963395 0.1375882 -0.07551717
-0.16236722 0.05495613 -0.041433398 0.079381205 -0.13664176 -0.023644388 0.010561049 0.07401783
0.0033536854 -0.14886838 -0.052852288 -0.16849032 0.05164198 0.00021917233 0.048692286 0.058435984
-0.105546854 0.12362036 0.1252326 -0.0229353 -0.007857891 -0.1473836 0.14938757 0.08167847
-0.03131381 -0.06791772 0.14151074 0.010147969 0.027021173 -0.12233005 -0.043488994 -0.07543173
0.12298784 -0.13089047 -0.14615285 -0.0658304 -0.07158838 0.005712897 0.083828114 0.03971995
-0.0885876 -0.037828945 -0.1107465 -0.08486709 -0.05085588 -0.042093173 -0.099304594 0.036584143
0.037026662 -0.052979827 -0.024672307 -0.027352437 -0.21208143 -0.057305686 -0.024467263 -0.0074639414
0.03935483 -0.025413634 -0.06936953 -0.12965658 -0.10108359 0.15963836 0.10023504 -0.097318105
0.11885435 0.20935152 -0.11492413 0.0075987275 -0.20810755 -0.0393811 -0.091173396 -0.06330578
-0.035564262 -0.078727424 0.17779906 0.02487504 -0.0937143 -0.00055643317 0.07124655 -0.008198908
-0.0096621625 -0.103309706 -0.061772116 0.05268811 0.03511577 0.04363807 -0.0922727 -0.05282733
-0.0302419 -0.1473462 0.061678752 -0.14052583 -0.05300525 -0.039795216 -0.15984845 0.046511624
-0.095762454 -0.11540912 -0.21711376 0.020270927 0.023047242 0.085199155 -0.061296757 0.12880948
-0.08903634 -0.075827055 0.0052649705 -0.10324389 -0.07189583 0.0652053 -0.0935553 -0.19617952
0.12893374 -0.06444146 0.04053767 0.0073225214 -0.051375095 -0.111946374 -0.012654717 -0.12244089
-0.09354462 0.07664796 -0.026478305 0.05345131 0.060117953 0.1188554 -0.18740658 0.19215979
-0.061479915 -0.021414664 -0.0461 -0.05110098 -0.03943979 0.050512962 0.12458868 -0.0028147374
0.048485313 -0.05984718 -0.04084487 0.17472069 0.18920563 -0.029935919 0.12859137 -0.1258263
0.24105208 -0.003084525 0.07148008 -0.16289094 -0.0900666 -0.11528986 -0.050590925 -0.17940469
0.093922764 0.08104263 -0.034450915 0.120799705 -0.020042654 0.09066094 0.07539353 -0.094798714
0.0007894264 -0.024400601 0.07363589 -0.114615634 0.07710648 0.059556305 -0.0036828793 0.05493411
-0.13486536 -0.063297085 0.033836808 0.031848654 0.112985335 0.021143358 0.033109177 -0.04698848

network_body._body_endoder.seq_layers.2.bias f4 [256]
00000000: b6ee ae3c b484 923b 0226 a43a 395d 403b
00000010: 390c 283c 8de2 0a3c f6db f23b 8773 3a3b
00000020: 99ba bdba 03c2 9db9 f992 a03b 5d57 5a3b
00000030: 229a fa3b 0a75 8b3b 4d54 66bb c16e 093c
00000040: 2c42 a63b 0d93 8d3b 798a b83b 0846 233c
00000050: 405e 613b 996b 98b9 c4e5 13bb 7789 883c
00000060: b68e b53b c52a 513b 2be7 e7ba 8f27 853b
00000070: 3b48 9c3b 7cbc 103c 2e07 703b 4c04 d83b
00000080: e8ed 223c 434e 883b 578b 123c 02b8 023b
00000090: 7b1e 903b aab9 de3b 0646 753b f8fa a13b
000000a0: cfdd 3e3c 6816 ad3b 320f 24ba 421b c0b9
000000b0: 08de 2cbb f349 593b e3c5 433b 134a 0b3b
000000c0: caa5 7c3c 3f57 093c 52ef d5bb dd33 e4bb
000000d0: 3cda eb39 e2dd d93a 569e ee3b 6f01 ae3b
000000e0: 26ca 1e3a 61c9 fcbb 53f8 cb3b f97a 783c
000000f0: ef74 8e3b 82ef 0e3c b311 9b3a 8ed0 22bb
00000100: 497c 3eba 9d19 533b 93a7 633b 8ed4 3d3c
00000110: 2cec 393c 911c 4b3b ca03 833a c31b 043b
00000120: 0e8c 36bb e991 203b 3c39 94bb 2796 283b
00000130: 7fa8 f938 e673 3e3c a81a 643b 313f 05ba
00000140: 1bec 4dba 745e 9e3b d53e 583b 598e 883b
00000150: f936 253b 75c9 c03b 72fe 523b 0754 053c
00000160: f04e 8d3b 9281 253c c725 983a a367 073c
00000170: c678 433c 5381 513c fbcb a23b 905d e639
00000180: ab1e 6e3c c63c 1b3c 3b90 db3b d858 c837
00000190: 34a7 393c f2a8 1cbc 6313 ec3b 8f48 663b
000001a0: e5b2 1e3b 9e44 9e3a 78fb 1a3c 98b4 0f3c
000001b0: 119f bd3b 40bf 213c d9a0 cc3b 6c18 1437
000001c0: bc6c ab3b 0ac3 f3ba 935c ff3a 4532 f23b
000001d0: 2e36 063c c2fc 143a 58c3 a03a ba16 bd3c
000001e0: 497d dc3b 5547 103a f065 3c3b 0bca 3c3b
000001f0: 5c86 e5bb 49bd a23b 3efa a43b 0096 6cbb
00000200: 398b 61bb 40bb 4c3b 1fa5 033a 593f 5c3b
00000210: acda 7f3b f5ba 03bb aed0 293c a8e9 05bb
00000220: 0bd4 aebb 4446 1f3b f987 e13a 949b 1fba
00000230: 1c55 ff3b ae22 edba dc55 0abb 4505 633c
00000240: 49c2 843b b347 c539 4d5a 0ebc bf39 483b
00000250: 0ba6 993b 0f34 3f3c b6a9 5b3b cbf8 eaba
00000260: fc4c 383a 6ce4 5d3c cd7b 453c ee07 bdb9
00000270: e0fe c2ba b647 f93b 093e 243c 8fc3 463c
00000280: c83d b33b 70df 003c 1668 fc38 028e 283c
00000290: 0827 8fbb 812a 97ba 54a6 763b b272 793b
000002a0: 23ee f23b 7311 863b b095 bb3b 0f99 d63b
000002b0: 5abd bfba 9f27 333b ee5a 843b d085 bd3b
000002c0: eb90 3bbb 7875 423b bd3f 833b 20e7 9b3b
000002d0: 5945 d63b 5a95 ac3b 1c70 14bb 8946 a93b
000002e0: 19f6 733b 4d97 2f3c 3db2 1d3c 95ff 173c
000002f0: 535b 253c b3ba 843b c5ec 7ebb 7fee 0f3c
00000300: 6b54 673b 77d7 6738 d48a 533c 7bba fb3b
00000310: 62ef 533b ca75 473b 3b76 cabb 8d46 4b3a
00000320: 2a0c 3abb 4319 f53a 0682 673b 945f 2f3c
00000330: 72c2 ed3b a63a bd3a 68d9 eaba 3018 5e3a
00000340: 56ab 013c cb28 5f3b 2b48 343b 46cb 033c
00000350: c7b9 0e3b fc9b bb3b d1ab ce39 d304 923b
00000360: 73b0 e23b d79a 303c 7726 09bb 0d6b 1cba
00000370: af5d 80bb a583 643b ee25 023b 1eb4 c1ba
00000380: 071c 083c baef 423c ce35 063c 4ac9 113b
00000390: 0502 f43b 4c22 c53b 93b1 513c 8cf6 343c
000003a0: f4be 4c3c 48a4 2c3a 06cf d03b 9eca 403c
000003b0: c58b 393c 2786 94ba f5eb a839 7d9c b03a
000003c0: 5dfc 973b d24c af3b f375 b73b 59a0 6f3b
000003d0: a9a7 333c 719e b33b dbdc 2b3b a8bb 093b
000003e0: ff99 6c3c 7f6d 243c e781 69bb d9db 563a
000003f0: aca5 df3b 3ac2 b53b 2e42 653c efd7 303b
0.02135406 0.004471386 0.0012523534 0.002935244 0.01025682 0.0084768655 0.0074114753 0.0028450207
-0.0014475166 -0.00030089924 0.004900333 0.0033316233 0.0076477686 0.0042558955 -0.0035145462 0.008388222
0.0050738063 0.0043205083 0.0056317416 0.009965427 0.0034388453 -0.00029071866 -0.002256737 0.01666711
0.005540694 0.0031916362 -0.0017692795 0.0040635536 0.0047693527 0.008834001 0.0036625373 0.006592309
0.009944417 0.00415972 0.008944354 0.0019946103 0.004398165 0.006797035 0.003742577 0.004943248
0.011649563 0.005282212 -0.0006258368 -0.00036641402 -0.0026377458 0.003315565 0.0029872588 0.0021253868
0.015420387 0.0083826175 -0.0065287733 -0.0069641904 0.0004498529 0.0016621912 0.0072820587 0.0053102295
0.0006057344 -0.007714436 0.006224671 0.015166038 0.0043474357 0.008724095 0.0011830836 -0.0024843547
-0.0007266445 0.0032211312 0.0034737333 0.0115863215 0.011347812 0.0030992369 0.0009995636 0.002015815
-0.0027854475 0.0024501032 -0.0045234244 0.0025724263 0.0001190463 0.011624312 0.0034805927 -0.00050829636
-0.0007855312 0.004833037 0.0032996435 0.00416736 0.0025209768 0.0058833905 0.0032195118 0.008137709
0.0043123886 0.010101693 0.0011607938 0.008264455 0.01193065 0.012787181 0.004968164 0.00043938728
0.014533679 0.009474939 0.006700543 2.3883229e-05 0.011331368 -0.009561764 0.0072044595 0.0035138463
0.0024215516 0.0012074893 0.009459369 0.008771084 0.0057867845 0.009872258 0.0062447605 8.827174e-06
0.005231468 -0.0018597555 0.0019482545 0.0073912465 0.008191628 0.0005683416 0.0012265248 0.023082126
0.0067288023 0.00055037934 0.0028747283 0.002880695 -0.0070045423 0.004966412 0.005034714 -0.003610015
-0.0034415259 0.003123954 0.00050218584 0.0033607094 0.003904025 -0.0020100449 0.0103646945 -0.002043346
-0.005335336 0.0024303356 0.0017206661 -0.00060885516 0.0077921283 -0.0018092 -0.0021108305 0.013856237
0.004051481 0.00037628188 -0.008688522 0.0030551997 0.0046889833 0.011670127 0.0033517904 -0.0017926929
0.00070305145 0.01354323 0.012053442 -0.00036054797 -0.0014876984 0.0076074256 0.010024556 0.012131586
0.0054700114 0.007865772 0.00012035684 0.010287764 -0.0043686666 -0.0011533053 0.003763576 0.0038062748
0.007413642 0.0040914356 0.0057246312 0.0065490077 -0.0014628575 0.0027336848 0.00403916 0.005783774
-0.0028620313 0.0029672068 0.004005401 0.004757777 0.0065390286 0.0052668275 -0.002264983 0.005165879
0.0037225543 0.010717225 0.009625015 0.009277244 0.010092574 0.0040505766 -0.003889845 0.008784889
0.003529812 5.527536e-05 0.012911517 0.0076821423 0.0032338728 0.0030435198 -0.006178645 0.00077543483
-0.0028388598 0.0018699545 0.0035325303 0.01070394 0.0072558457 0.0014437034 -0.0017917575 0.0008472232
0.007914385 0.0034051414 0.0027508836 0.00804407 0.0021778212 0.005725382 0.00039419395 0.0044561415
0.006918007 0.010779104 -0.0020927468 -0.00059668795 -0.003917418 0.0034868505 0.0019859034 -0.001477841
0.0083074635 0.011897976 0.008191539 0.0022245222 0.00744653 0.0060160514 0.012798685 0.0110451095
0.012496699 0.0006585759 0.0063723354 0.011767058 0.011324828 -0.0011331484 0.0003221926 0.0013474372
0.0046382383 0.005349734 0.0055987774 0.003656408 0.010965266 0.005481534 0.002622417 0.0021016393
0.014441012 0.0100358715 -0.0035630406 0.0008196212 0.0068251695 0.0055468353 0.013992829 0.0026984175

network_body._body_endoder.seq_layers.2.weight f4 [256, 256]
00000000: 05e8 2e3d a306 273d 1462 eabc bbf2 b83d
00000010: 5827 12bd 94bf adbc 418c 363d aa63 983c
00000020: 979e 823c f073 343d 0e0c 51bd 5891 e13d
00000030: 00d6 57bd dc92 213d 3223 13be d0d3 c1bb
00000040: 8483 dabc 65ad 933d 73e5 723d 50c3 ea3c
00000050: 6e4b 37bd a735 463d 0dea 6e3d 30ba 65bd
00000060: 004d 35bd 9957 6ebd 5277 23bc 489c 8c3d
00000070: e38c bd3d d118 8dbc ec56 cebc 2eb9 96bc
00000080: b204 883d 9dc3 bfbb a966 093e 3808 9f3d
00000090: 5787 b63d a25e 123d 3965 823d abc7 ef3b
000000a0: 5a28 013c d266 ef3d d5ac 84bc a076 473b
000000b0: 188f 803d b687 6dbc 80dd 42bb e2ed 0c3c
000000c0: 0c58 c1bd 99bf dcbb ebc5 64bd ab19 943c
000000d0: 11b7 133d 4ea0 4a3c 0a5d f7bc ebf7 213d
000000e0: ee1d 553d a278 043c 374d 3c3d f5a4 e33a
000000f0: 0ee6 3bbd b058 8cbc 5388 803c e66e 783c
00000100: 2d0d f6bc 6831 f93a 7a0c ac3d 1642 f539
00000110: 2f0e 15bd 4dc3 7a3d 1bbe aabd ebc8 463d
00000120: ca8e fabc d571 373d 02a3 813d e0ef d2bd
00000130: 9e1f bf3d 7528 18bd ca12 393d 652e e4b9
00000140: 2be2 c43c b642 323d 0b7c dabd 46f2 babd
00000150: 133f 4b3d 64d1 edbc 35ad 38bc c7ad 833a
00000160: 7c71 a9bb cde8 3b3d 2324 41bb 8207 573c
00000170: 32b8 c3bc 0136 873d f364 08be cc50 9a3c
00000180: 003f 97bd 0a9b 413d f72b c03c 7667 85bc
00000190: dace 943c 8c1d e2bd 5e6e 73bd 5886 a4b9
000001a0: fafd 333d a22b 933d bf9c 223d f8cf c23d
000001b0: 3d9e 57bd 9d68 a33d 2c81 31bd 8e27 913c
000001c0: af17 5ebd e36d e63b bb96 163d ff79 e6bb
000001d0: f228 9abc cfed 3bbd 3687 92bc 2db9 023d
000001e0: 6ac9 763d 1dde 0fbd 8a64 cd3c 4827 a93d
000001f0: 6696 1f3d 9f3c 01be d16e 193d 267b 85bc
00000200: d868 e93d 05ad 623c 3893 963c 4714 093d
00000210: a43f 19bd 4da7 f53c 0985 0dbd a256 6839
00000220: 25c8 a1bd e3c4 f53c 6d3b ec3d 041e 763d
00000230: df1a c1bb e8e4 7c3d d7d1 393d a80f 703c
00000240: 2de4 39bc f45e 60bd 688d 0abb 8e82 853c
00000250: eafb 0b3c dee9 eabb 7a74 07be 3a61 c33d
00000260: b93d a53d f2e0 bf3b ec21 a43d 9b10 d9bc
00000270: dc9a 08be adeb b0ba 4521 1d3b f347 c23d
00000280: b6fa c9bb 05ae 91bc 927b 8d3d 2791 a4bd
00000290: a7a6 8bbd 80a1 9bbc 985d b03d cb63 c03d
000002a0: aef6 aabd ade6 52bd f1bf c43d 7a04 873c
000002b0: a286 993b 6efd a53d 4229 993b 8d5d d3bc
000002c0: d241 0c3e 5288 3abc 0db9 0e3d 401a 8abd
000002d0: 748b 373c 1a2e 8ebd d7ed 8bbd 976b d33d
000002e0: 6f2c a63c d5f2 41bb 6c54 e2bd 508c 7f3c
000002f0: 0c4c 1b3b 329a 84bd 4c7e 473d 243d 543d
00000300: 5186 f63c 8ff5 2d3e 5565 e33c 5077 5cbd
00000310: 1194 b53c 4739 16bd a75d 233d d0a9 53bd
00000320: 0551 a4ba 7958 0ebd 30b5 793d f841 22bd
00000330: a578 efbd 2105 063d 5e6c a33d 50d9 803c
00000340: f6e2 8e3d 0537 c0bd 4481 bebc 7499 64bd
00000350: c4b3 d9bb a94e 09bc 0e0f 03be ebe2 e73d
00000360: af70 913c bbc8 e83d 29af 893c 4ef1 7abd
00000370: 71dd b53d 167d bdbd 72bf 0b3d 1f47 e9bd
00000380: 8565 75bd c1dc 993d 2a94 a43d 781d 14be
00000390: 99ee 503d f8a8 883c 3117 ccbd 7515 ebbd
000003a0: 49b0 403d c200 503c 7b1e 103d b7c6 ba3d
000003b0: acfb a2bc 8e64 9e3d 367e 3c3d b1e4 6a3d
000003c0: 020d 833d 852b fb3a 71a9 9abb 4759 4e3d
000003d0: 196d 0d3d 5a91 8ebd 7622 85bd c2cf 5f3c
000003e0: 3697 10be dba1 48bc f495 7dbd 1fef e03a
000003f0: b267 23bd 1b72 62bd 51d3 033b c065 be3d
0.04270174 0.040777814 -0.02861122 0.09030672 -0.035682052 -0.021209516 0.04456735 0.018602211
0.015944762 0.04405588 -0.051036887 0.1101405 -0.05269432 0.039446697 -0.14368895 -0.0059151426
-0.02667404 0.07210807 0.05930085 0.028657585 -0.04474967 0.04839101 0.058328677 -0.056085765
-0.044262886 -0.05818901 -0.009977179 0.06865746 0.09255388 -0.017223747 -0.025187932 -0.018398847
0.066415206 -0.0058521763 0.13418068 0.077652395 0.08912533 0.03573478 0.06366963 0.0073175034
0.007883156 0.11689533 -0.016195694 0.0030435696 0.06277293 -0.014497688 -0.0029734075 0.008601638
-0.09440622 -0.0067367074 -0.05585281 0.018078646 0.036063258 0.012367321 -0.030195732 0.039543074
0.052030496 0.008085402 0.045972075 0.0017367887 -0.045873694 -0.017132133 0.015690004 0.015163159
-0.03003558 0.0019011917 0.08400817 0.0004677928 -0.03639048 0.06122141 -0.08337041 0.048531454
-0.030585665 0.044786293 0.063299194 -0.10299659 0.093322024 -0.037147958 0.045183934 -0.00043522115
0.024033627 0.04352065 -0.106681906 -0.09128241 0.0496207 -0.02903051 -0.0112717645 0.0010046297
-0.005170999 0.045876313 -0.0029471002 0.013124349 -0.023891542 0.06602097 -0.13319759 0.018837355
-0.07385063 0.047266997 0.023458464 -0.016284686 0.01816504 -0.11040792 -0.059431426 -0.00031380611
0.043943383 0.07186057 0.039700266 0.09512323 -0.052641142 0.07978938 -0.04333608 0.017719056
-0.054221805 0.0070321425 0.03676484 -0.007033586 -0.018818352 -0.04588109 -0.01788674 0.03191488
0.060250677 -0.035123933 0.025072355 0.082594454 0.03896179 -0.12620781 0.0374592 -0.016294073
0.113969505 0.013835196 0.018380746 0.033466604 -0.037414208 0.029987002 -0.0345507 0.00022157517
-0.07899503 0.03000111 0.11534772 0.06008722 -0.005893096 0.06174174 0.045366134 0.01465217
-0.011345905 -0.054778054 -0.0021141414 0.016297605 0.008543948 -0.0071689924 -0.13228026 0.09540029
0.08068413 0.005855673 0.080142826 -0.026497176 -0.13340324 -0.0013497971 0.002397613 0.094863795
-0.0061639203 -0.017783174 0.06908335 -0.08035498 -0.06818896 -0.018997908 0.086116016 0.09394034
-0.08347832 -0.05148952 0.096069224 0.016481627 0.004685239 0.081049785 0.004674108 -0.025801444
0.13696983 -0.01138504 0.034844447 -0.06743288 0.011202682 -0.06942387 -0.06832474 0.103232555
0.02028486 -0.0029594202 -0.110512584 0.015597418 0.002369645 -0.06474723 0.04870443 0.05181612
0.030093344 0.16988204 0.02775828 -0.053824723 0.02216533 -0.036675718 0.039884236 -0.051675618
-0.0012536353 -0.034752343 0.06096381 -0.039613694 -0.11692933 0.032719735 0.07979654 0.015728623
0.06976883 -0.09385494 -0.023254998 -0.055810407 -0.006643744 -0.00838057 -0.12798712 0.11322578
0.017753927 0.11366411 0.016807156 -0.061265282 0.08880127 -0.09252374 0.034118123 -0.113905184
-0.05991127 0.075128086 0.080360726 -0.14464366 0.051008794 0.016682133 -0.09965361 -0.11478702
0.04704312 0.012695493 0.03518532 0.09119933 -0.019895397 0.07734023 0.0460188 0.057347003
0.063989654 0.001916275 -0.004719906 0.05037811 0.03452787 -0.06961317 -0.065007135 0.013660373
-0.14120182 -0.012245621 -0.061910585 0.0017161107 -0.039893813 -0.0552846 0.0020114968 0.09296751

network_body._body_endoder.seq_layers.4.bias f4 [256]
00000000: d748 863b c7ef fc3b 293c d33b 00a3 063c
00000010: 3234 563b 3b57 ca3b 68bc e03b e820 74ba
00000020: f26c 813b 5e01 993b 6947 083b c64c cf3b
00000030: 1505 983a 66ed a7ba c5cd d63b df98 de3a
00000040: 1628 253b 92f3 cb3b 8a77 683b 5979 6c3a
00000050: 9eb2 ca3b b897 73b9 c17c f23b 8f8a 6d3a
00000060: fcb5 803a 9dac 9c3b eecd 313c eb36 393b
00000070: 9b63 8bbb a64c 9a3b 7361 6d3a b78b ae3b
00000080: 1246 353b 5cfe 22bb a707 413b 3faa f2ba
00000090: 536e 673b 191e 753b d780 293c bfd4 34bb
000000a0: 92b7 3e3b eaa0 8b3a c110 773a 6314 833b
000000b0: 21f5 933b fcbd 3138 d97a 9a39 cbcc 573b
000000c0: 0910 963b 0de0 813a d9a6 953b 22d7 273b
000000d0: 1db4 5a3b c623 d33b 3dc7 8d3a dba2 053b
000000e0: 87bf bb3b 9f27 403b e34e c0ba 141f f33a
000000f0: 64c0 053c 6a03 843b 4f41 2d3b e7c7 873b
00000100: bf81 c83b e04b 893b de29 933b 3f75 593b
00000110: 28ca bc3b 3526 af3b c6e4 8a3b 0780 ee3b
00000120: 45b3 f93a d7ce 873b 6245 65b7 fb93 273c
00000130: 4f44 423b f6a0 3c3a 06ae d33b 5541 ec3b
00000140: 1e9e b83b 755a 003c 6483 d03b 9032 7d3b
00000150: 14b3 50ba ce22 753a 2f40 06bb eb2d 48b9
00000160: 4a19 0d3c 7bdc 883b c011 443b 72c1 a43b
00000170: fbe4 833b e943 d03a 9221 ae37 fb60 073c
00000180: a7e4 63bb 6f72 9cba 3b78 743b e186 dc3a
00000190: b3c7 1c3a b144 583b 1c5c 8e39 3b05 cc3b
000001a0: 61b0 903b dfe4 cb3b 8bad 5dba 283e 9c3b
000001b0: 2d1b 803b 468c 09bb 92a3 d53a 97da 9b3a
000001c0: dc94 ce3b 9de3 483b 0526 9c3b a447 873b
000001d0: 2722 fa3b 3307 683b 95cc 063c b253 5a3b
000001e0: 5dae ad3b 8339 f63a b8d0 3e3b b202 34bb
000001f0: 7e9b 06ba 5619 c63a 1767 4c3a afc6 d739
00000200: 7cc5 a53b 4cf1 daba 8c78 98ba 9a44 6a3b
00000210: b05a 0838 7ee3 a73b 99dc 2b3b cb52 27bb
00000220: a571 a4ba 838a 003c dfd0 bc3b c278 5c3b
00000230: 66cf 743b dd3d 123c 1428 e13b 6c34 61b9
00000240: d08e c83b ea03 84ba 7485 943b 91d9 233b
00000250: 1484 823b 6183 c13b ece4 4237 aeea 123c
00000260: 51e6 513b a2cf bc3b 840b 2e3b ae13 023b
00000270: 699b 1a39 5f7f a93b c855 593b 5b12 2d3c
00000280: 8d4f 6c39 24bd 75bb 9678 e03b a50f f03a
00000290: f8b7 cf3b 9142 a53b 0788 a3b9 4ea2 183c
000002a0: 8ffa 953b e2cb 783a 4dbd 973b be07 ef39
000002b0: ecdf 133b 71ff 443b 071d 073b 925e 1b3b
000002c0: 696f 463b 97a3 1bbb b1c5 b73b fc0c 933b
000002d0: 0ca0 553c eb80 813b 30c5 5f3b 717e 2f3b
000002e0: b86c b03b 308b 2c39 a18f 3c3c 9140 0d3c
000002f0: 4be9 633b 01ba ad3a 9a06 4139 caeb 9f3b
00000300: fcb7 733b fd25 c63a d19b f03a 658c 84bb
00000310: 66dd 153a 9793 bb3a 7240 61ba 4d9a b039
00000320: c161 5f3a 453b 743b 926d 533b d262 3b3a
00000330: 8433 623b 85fb c23b 5dfc 443b 1dd7 dd3a
00000340: 4584 cd3b df54 133b 7c3c 073c 6af8 e83b
00000350: b952 963b fe16 083b 6f71 d63a 1d2d 513b
00000360: dd4f 243b 0626 be3b 3369 d53a 1c1f 693a
00000370: 105b 3d3b 192d 8a3b 1fcf b6ba af57 7b3b
00000380: 3cdd 293b a4eb 453a d235 503c 992f f53b
00000390: edd6 463a d608 183b b990 dd3b 2daf d63b
000003a0: f020 7239 2b07 8cb9 0d98 3c3b 8172 f1ba
000003b0: 264f 393a b5f1 193c 390e 6d39 847c 513b
000003c0: 3f89 153c 69eb 203b bf1f 443b bcdc a93b
000003d0: 0c96 bb3b 35dc 4b3b 449a 83ba 4fa7 bf3b
000003e0: 36a4 ed3a 4bde edba 5e1c 733a bf5b bd3b
000003f0: 26b9 deb9 d98e b33b aecd 3f3b d488 113b
0.0040980387 0.0077190134 0.0064463806 0.008217573 0.003268492 0.0061749495 0.0068583973 -0.0009312765
0.003949755 0.0046693524 0.0020794517 0.006326291 0.0011598194 -0.0012811839 0.0065552914 0.0016982815
0.0025200895 0.006224104 0.0035471641 0.0009020768 0.0061858436 -0.00023230806 0.0074001257 0.00090614794
0.000981986 0.0047813193 0.01085232 0.0028261493 -0.0042538173 0.0047088442 0.00090553536 0.005326714
0.0027660173 -0.0024870848 0.0029454024 -0.0018513872 0.003531356 0.0037401973 0.010345659 -0.0027592627
0.0029101116 0.0010652815 0.0009424799 0.004000233 0.0045153056 4.2377025e-05 0.00029464698 0.0032928463
0.0045795483 0.0009908691 0.004567009 0.0025610407 0.0033371516 0.0064434735 0.0010816824 0.002039126
0.005729619 0.002932049 -0.0014671948 0.0018548691 0.008163545 0.0040287273 0.0026436632 0.0041437033
0.0061189826 0.004189953 0.004491075 0.0033181456 0.0057614036 0.005345131 0.0042386977 0.0072784456
0.0019050619 0.0041445303 -1.3665618e-05 0.010228152 0.0029642766 0.0007195616 0.006459954 0.0072099366
0.0056340834 0.007834067 0.0063633192 0.0038634874 -0.0007961255 0.00093511946 -0.0020485034 -0.00019090592
0.008611986 0.004176674 0.0029917806 0.0050279433 0.0040250993 0.001588938 2.0758049e-05 0.008262868
-0.0034773739 -0.0011935959 0.0037303108 0.0016824865 0.0005980685 0.0032999928 0.00027152977 0.0062262095
0.0044155573 0.006222352 -0.0008456341 0.004768152 0.0039094896 -0.002098815 0.0016299358 0.0011890706
0.0063043665 0.0030653246 0.0047652745 0.0041284133 0.007633466 0.0035404682 0.008227487 0.0033314046
0.0053003267 0.001878545 0.0029116105 -0.0027467427 -0.00051348645 0.0015113752 0.0007797344 0.00041156026
0.0050589424 -0.0016703992 -0.0011632605 0.0035746456 3.2509386e-05 0.0051235547 0.0026224016 -0.0025531526
-0.0012546076 0.007845524 0.005762204 0.0033641313 0.0037355064 0.008925882 0.0068712328 -0.00021477201
0.00612054 -0.0010071967 0.0045325104 0.0025001506 0.00398303 0.005905554 1.1616601e-05 0.008967085
0.0032028148 0.0057620564 0.0026557157 0.0019848156 0.00014744479 0.0051726545 0.0033162702 0.010563458
0.00022536349 -0.003749677 0.0068503125 0.0018315209 0.0063390695 0.0050433357 -0.0003119113 0.00931604
0.004576988 0.000949083 0.0046307207 0.000455914 0.0022563888 0.0030059482 0.0020616667 0.0023707491
0.0030278808 -0.002374863 0.0056082834 0.004487632 0.013038646 0.003952136 0.0034144633 0.0026778246
0.005384054 0.0001645505 0.011508853 0.008621351 0.0034776505 0.0013254286 0.00018408374 0.004880403
0.003718852 0.0015117523 0.0018356984 -0.0040450566 0.000571689 0.0014310953 -0.0008592672 0.000336843
0.00085213414 0.0037266773 0.0032261354 0.0007148209 0.003451557 0.0059503936 0.0030057647 0.0016925071
0.0062718713 0.0022481007 0.008254167 0.0071096914 0.004587498 0.0020765658 0.001636071 0.0031917759
0.0025072016 0.0058028726 0.0016281962 0.000889288 0.0028893389 0.004216802 -0.0013947225 0.0038351824
0.002591922 0.0007550067 0.012708144 0.0074824807 0.0007585127 0.0023198626 0.006761637 0.0065516443
0.00023091189 -0.0002670822 0.0028777153 -0.0018420966 0.0007068984 0.009396006 0.0002260738 0.0031965086
0.00912696 0.0024554378 0.0029926149 0.0051837843 0.005724674 0.0031106595 -0.0010040482 0.005848802
0.0018130604 -0.0018147914 0.00092739414 0.0057787593 -0.00042481086 0.0054796753 0.0029266882 0.00222068
