results/R8/AgentController/AgentController-999974.onnx (onnx, 657373 bytes, 14 tensors)

83 f4 [116]
0.25528952 0.17125857 0.19557051 0.25942 0.24975874 0.1667724 0.1917104 0.26021805
0.25792146 0.17535351 0.1957286 0.26044604 0.24292569 0.16160597 0.18663976 0.26292005
0.25727454 0.17889227 0.191596 0.26276734 0.23479338 0.15564606 0.18049204 0.2660774
0.25289503 0.17837915 0.18571207 0.2658283 0.22927052 0.15275665 0.17535724 0.26889387
0.24887927 0.1779143 0.18023701 0.26859522 0.22986786 0.154694 0.17450084 0.27164572
0.24382055 0.17482144 0.17577869 0.27123404 0.23712808 0.16191646 0.17826734 0.273794
0.2384607 0.16972445 0.17287058 0.27329972 0.2449608 0.16881277 0.1831028 0.2750204
0.23184335 0.16423765 0.16847615 0.27264836 0.24900901 0.17386068 0.18430313 0.27404463
0.22689785 0.16214311 0.16329347 0.27037033 0.24800049 0.17518194 0.18160811 0.27133033
0.22591613 0.16324514 0.16074993 0.26710704 0.24770443 0.17700215 0.17939149 0.26797706
0.22848065 0.16585913 0.16191871 0.2639305 0.24943843 0.17990123 0.17910124 0.26430234
0.2318038 0.16720068 0.16551697 0.26112106 0.2551483 0.18480992 0.18274195 0.26147136
0.23858656 0.17197353 0.17082855 0.2588112 0.25778568 0.18687324 0.18463917 0.2592111
0.24658993 0.17805345 0.17668687 0.25764638 0.2554375 0.18552762 0.18245071 0.25788867
0.2554375 0.18552762 0.18245071 0.25788864
00000000: 4fb5 823e 685e 2f3e a343 483e b3d2 843e
00000010: c1c0 7f3e 62c6 2a3e bb4f 443e 4d3b 853e
00000020: 480e 843e df8f 333e 146d 483e 2f59 853e
00000030: 83c1 783e 097c 253e 7e1e 3f3e 759d 863e
00000040: 7db9 833e 892f 373e be31 443e 7189 863e
00000050: ad6d 703e ae61 1f3e e8d2 383e 4c3b 883e
00000060: 757b 813e 06a9 363e 4e2b 3e3e a61a 883e
00000070: e4c5 6a3e 3d6c 1c3e d990 333e 75ac 893e
00000080: 35da 7e3e 2b2f 363e 0d90 383e 5085 893e
00000090: 7b62 6b3e 1b68 1e3e 59b0 323e 2615 8b3e
000000a0: 18ac 793e 6404 333e 54ff 333e 30df 8a3e
000000b0: b4d1 723e 6ecd 253e b78b 363e ba2e 8c3e
000000c0: 0b2f 743e 3fcc 2d3e fc04 313e f1ed 8b3e
000000d0: 01d7 7a3e 41dd 2c3e 4d7f 3b3e 79cf 8c3e
000000e0: 5868 6d3e ea2d 283e 0385 2c3e 9198 8b3e
000000f0: 38fc 7e3e 8908 323e f6b9 3c3e 944f 8c3e
00000100: e957 683e d808 263e 6736 273e fb6d 8a3e
00000110: d7f3 7d3e e562 333e 7af7 393e cfeb 8a3e
00000120: 8f56 673e bc29 273e a19b 243e 41c2 883e
00000130: 3ba6 7d3e 0d40 353e 67b2 373e 4a34 893e
00000140: d5f6 693e fad6 293e 05ce 253e e621 873e
00000150: ca6c 7f3e 0738 383e 5166 373e a352 873e
00000160: fa5d 6d3e a836 2b3e 487d 293e a9b1 853e
00000170: cca2 823e d03e 3d3e b520 3b3e 93df 853e
00000180: 0950 743e d419 303e aeed 2e3e e782 843e
00000190: 7cfc 833e b35b 3f3e 0d12 3d3e 51b7 843e
000001a0: 1282 7c3e a553 363e 67ed 343e 3aea 833e
000001b0: b4c8 823e f4fa 3d3e 5cd4 3a3e fc09 843e
000001c0: b4c8 823e f4fa 3d3e 5cd4 3a3e fb09 843e

86 f4 [3]
3.778331 0.003824338 6.62325
00000000: 2dd0 7140 bfa1 7a3b aaf1 d340

action_model._continuous_distribution.log_sigma f4 [1, 2]
0.010763554 0.0040273583
00000000: 9e59 303c eef7 833b

action_model._continuous_distribution.mu.bias f4 [2]
0.0014350907 0.00096767425
00000000: a719 bc3a 85ab 7d3a

action_model._continuous_distribution.mu.weight f4 [2, 256]
0.008266175 -0.0014759559 0.013799234 -0.0037004251 0.007875064 0.0110377595 -0.007519986 -0.009738223
0.016380614 0.0029634805 -0.004154917 0.002169015 6.509359e-05 0.0040879194 -0.008828862 -0.008110696
0.015655514 0.00045016658 -0.0058177365 0.015105933 0.021512501 0.016121108 0.011326188 -0.0026917413
0.00926286 -0.00019189467 -0.004592282 -0.0049761576 -0.016711975 0.031749107 0.010973554 0.011315442
0.0009815489 -0.022164077 0.018988656 -0.0094166985 -0.007923598 -0.0049734726 -0.0051048496 0.004029806
-0.025823146 0.0041096574 0.028929606 -0.020159876 0.009498809 0.002617034 -0.009574771 0.0057959235
0.012113775 -0.022472301 -0.011126477 0.0016376636 0.027404645 5.9301674e-05 0.033538826 -0.0070531266
0.01589841 -0.008404387 -0.01676335 -0.01809045 -0.002648374 0.024580652 0.015869966 0.010613046
-0.0013129819 0.030333048 0.011909474 -0.014209761 -0.021592261 0.017332772 0.014523474 0.015400544
-0.011344438 0.009046166 -0.024872312 -0.0017288957 0.0038595994 0.0063365228 0.014522812 -0.014929163
-0.0060025137 0.010392722 0.006928309 0.0046726856 -0.00095113664 0.01461592 0.0040263818 -0.010234646
-0.005883611 -0.017947227 -0.009751754 -0.00027137244 0.020653028 0.0039015014 0.0022600563 0.02155444
-0.0071834526 -0.024117688 0.015833843 0.00039021205 -0.004579136 -0.004495486 -0.027743723 0.00023855806
0.0036890272 -0.0065250755 -0.012517598 0.02842631 -0.023164084 -0.0013121028 -0.014949363 0.0068936967
-0.02893437 -0.017047236 -0.01744661 0.0088347895 -0.010726184 0.008676753 -0.012996806 -0.011417491
-0.021051906 -0.014536139 -0.005067037 0.010868955 0.012229187 -0.026842803 -0.011327912 -0.010538316
-0.025788227 0.01818591 -0.033695683 0.0023037882 -0.035692234 -0.018777277 -0.012683956 -0.020574939
0.0012899155 0.013863927 0.017909883 -0.0054769185 -0.017710174 -0.0020633778 0.007768126 -0.017923728
-0.01634267 -0.009303782 0.018655512 0.010609904 0.0004564336 -0.009078118 0.012144915 0.016637202
0.024958882 -0.009635693 0.022255749 -0.02279745 0.014599033 0.010616497 -0.016119955 0.014189512
0.0016073268 -0.022303697 0.007758703 -0.023418289 0.008089687 -0.0027132097 -0.013154648 0.01084771
-0.02305732 -0.030682141 0.009678824 0.02231866 0.015756123 -0.020858435 0.0076238792 -0.004450952
-0.007026994 0.0035526427 0.025920095 0.012848985 0.0185763 -0.0159434 -0.0124352025 0.01739157
-0.0018123358 0.01645563 -0.032200016 0.012292766 0.008015537 0.02117411 -0.018882671 -0.008345018
0.030746045 0.016984165 0.0072580897 -0.00038615274 0.02864685 0.028156325 -0.00095964037 0.0040228106
-0.022174425 0.0019876133 0.029137708 0.0056753536 -0.0071446025 0.014688958 0.014100949 -0.004331703
-0.033721156 0.0024380633 -0.0063163936 0.02253214 -0.013233738 0.039343163 0.0012262347 0.011729281
0.01155995 0.027691128 -0.008148919 0.026933586 -0.0071163136 -0.032076858 0.02842492 0.00157006
-0.017426979 0.012955323 -0.025743913 0.007846465 0.013327401 0.007949934 0.0040426706 0.013440019
-0.001666063 0.012250295 0.012363203 0.004956515 -0.0024502326 -0.004341423 -0.0056926077 -0.0013481944
-0.0085713575 -0.022559427 0.008441698 -0.0068255626 -0.0066006933 -0.012717542 -0.02399708 0.013908857
0.0048082015 -0.027640905 0.01820609 -0.023062488 0.022416309 -0.014287039 0.004874615 -0.009209384
00000000: da6e 073c dd74 c1ba 2f16 623c d582 72bb
00000010: 6a06 013c b8d7 343c 376a f6bb 118d 1fbc
00000020: a330 863c f436 423b f825 88bb 0826 0e3b
00000030: db82 8838 f4f3 853b eea6 10bc bae2 04bc
00000040: fe3f 803c 5604 ec39 b6a2 bebb e07e 773c
00000050: fc3a b03c 6a10 843c 7a91 393c ed67 30bb
00000060: 40c3 173c 5537 49b9 db7a 96bb 090f a3bb
00000070: 8de7 88bc 5a0b 023d 6cca 333c 6764 393c
00000080: 51a7 803a 7091 b5bc 198e 9b3c 7f48 1abc
00000090: fbd1 01bc 83f8 a2bb 9546 a7bb 760c 843b
000000a0: 108b d3bc 4eaa 863b c8fd ec3c 5326 a5bc
000000b0: e5a0 1b3c 8b82 2b3b 80df 1cbc bbeb bd3b
000000c0: db78 463c d517 b8bc d44b 36bc dfa6 d63a
000000d0: b57f e03c b0ba 7838 0260 093d ea1d e7bb
000000e0: 623d 823c 8eb2 09bc 4b53 89bc 6c32 94bc
000000f0: 5890 2dbb 5d5d c93c bb01 823c 57e2 2d3c
00000100: 5d18 acba 037d f83c f41f 433c 0fd0 68bc
00000110: 41e2 b0bc 75fd 8d3c ddf3 6d3c 9052 7c3c
00000120: 06de 39bc 5f36 143c 05c1 cbbc 1d9c e2ba
00000130: 55f1 7c3b 9ba2 cf3b 17f1 6d3c 7399 74bc
00000140: bcb0 c4bb 3c46 2a3c de06 e33b 541d 993b
00000150: b355 79ba 9d77 6f3c bdef 833b 37af 27bc
00000160: 4ecb c0bb 1006 93bc d2c5 1fbc fe46 8eb9
00000170: 8a30 a93c 55b0 7f3b 741d 143b f092 b03c
00000180: 2b63 ebbb 7592 c5bc fab5 813c 6095 cc39
00000190: 940c 96bb df4e 93bb ce46 e3bc 7125 7a39
000001a0: 9bc3 713b 4dd0 d5bb 9d16 4dbc 4bde e83c
000001b0: 9bc2 bdbc ddfa abba 2cee 74bc 85e4 e13b
000001c0: c607 edbc a5a6 8bbc 31ec 8ebc cbbf 103c
000001d0: e0bc 2fbc f128 0e3c 8ef0 54bc 6e10 3bbc
000001e0: 0c75 acbc fc28 6ebc 6309 a6bb b413 323c
000001f0: ee5c 483c 70e5 dbbc b598 39bc e7a8 2cbc
00000200: d541 d3bc 9efa 943c 7c04 0abd 27fb 163b
00000210: 0532 12bd ced2 99bc 5ed0 4fbc c68c a8bc
00000220: 6212 a93a 8625 633c bfb7 923c b977 b3bb
00000230: ed14 91bc bc39 07bb c48b fe3b c8d4 92bc
00000240: 10e1 85bc e46e 18bc 72d3 983c 2ad5 2d3c
00000250: 7b4d ef39 63bc 14bc 77fb 463c be4a 883c
00000260: 9276 cc3c 07df 1dbc b051 b63c b8c1 babc
00000270: c830 6f3c d1f0 2d3c ff0d 84bc 207b 683c
00000280: f0ac d23a 3eb6 b6bc b83c fe3b b6d7 bfbc
00000290: 9b8a 043c 1bd0 31bb 9886 57bc 98ba 313c
000002a0: b4e2 bcbc 1d59 fbbc ee93 1e3c 9fd5 b63c
000002b0: fc12 813c 4fdf aabc bcd1 f93b 4bd9 91bb
000002c0: b342 e6bb 74d3 683b 6156 d43c 8d84 523c
000002d0: 532d 983c bc9b 82bc 05bd 4bbc c478 8e3c
000002e0: e68b edba f5cd 863c 2ae4 03bd 9967 493c
000002f0: 9953 033c 5475 ad3c d5af 9abc 8bb9 08bc
00000300: 21df fb3c 6022 8b3c 45d5 ed3b 8b74 cab9
00000310: ccac ea3c 18a8 e63c 6090 7bba c8d1 833b
00000320: 24a7 b5bc 9e42 023b 34b2 ee3c 51f8 b93b
00000330: 451d eabb f5a9 703c ab07 673c f5f0 8dbb
00000340: 321f 0abd eac7 1f3b c0f9 cebb 5395 b83c
00000350: 52d2 58bc 4c26 213d 9cb9 a03a 2c2c 403c
00000360: f265 3d3c 81d8 e23c 0b83 05bc d3a3 dc3c
00000370: f72f e9bb 0663 03bd 61db e83c 79ca cd3a
00000380: 06c3 8ebc 9042 543c e6e4 d2bc 768e 003c
00000390: 2c5b 5a3c 7140 023c 6178 843b 8733 5c3c
000003a0: cc5f daba 76b5 483c 088f 4a3c 436a a23b
000003b0: 1594 20bb 7f42 8ebb 0e89 babb e6b5 b0ba
000003c0: e16e 0cbc 8cce b8bc 0c4f 0a3c f8a8 dfbb
000003d0: a14a d8bb 3d5d 50bc 8695 c4bc f9e1 633c
000003e0: 1e8e 9d3b 2e6f e2bc f024 953c 8bed bcbc
000003f0: 68a2 b73c 2f14 6abc 3cbb 9f3b f5e2 16bc

action_model._discrete_distribution.branches.0.weight f4 [1, 256]
-0.008396651 -0.0019938417 0.007226042 0.00507069 -0.0007414219 -0.0015519524 0.0073635615 0.010428259
-0.007737358 0.0034705603 -0.0024670267 -0.0037426103 -0.00954588 0.01169681 0.011680733 0.0011824379
-0.00017853687 -0.0040124673 -0.004696579 -0.003008253 0.0074954084 -0.0067333207 -0.0107031865 -0.004231566
0.0010688467 0.0033311234 -0.007396558 0.0022765552 0.000120380886 0.0063523436 -0.0040321043 -0.0005416394
-0.0063526235 0.0053746537 -0.0020002236 0.0010189957 0.006592501 -0.0027743771 -0.002721927 0.0010673051
0.003579593 0.017492184 -0.0042767306 0.0034759596 0.004817178 0.008326237 0.0083607 0.009285615
0.00070748775 0.00093399995 0.005281322 -0.009062688 -0.0057546655 -0.0018048671 -0.009726944 0.01642212
-0.0060588247 0.00902963 -0.010120177 0.0053012026 0.0038014308 -0.005283204 0.0069417837 -0.00070176285
-0.0074497215 -0.0027776507 -0.0019557567 0.0023464065 -0.020436568 -0.01075601 -0.0032409194 0.011060714
0.0014249395 -0.0036832446 -0.012782402 -0.005783136 -0.003380308 0.005318391 0.0023264103 0.006690103
0.011186226 -0.006725841 -0.0029076112 -0.0042651203 -0.015150623 -0.012776894 0.01975212 -0.0014855246
0.009308887 0.008249383 -0.0059135426 -0.0021963983 0.0013136229 -0.0017108038 -0.006536133 -0.0004524841
0.0015207854 0.0038868252 -0.0014264582 0.0010590592 0.008644518 0.0005087137 -0.010731821 0.003712397
0.009602993 0.004271514 0.0016454954 0.0053915996 5.264131e-05 -0.0015889843 -0.00019296557 -0.000342139
-0.006739118 -0.005854959 0.0010200556 0.0048409034 -0.0055880686 -0.000107766726 0.0052823955 -0.005728848
0.0006104707 0.004120327 0.011520094 -0.0036033546 -0.00094395195 0.0013736677 -0.0018899682 -0.0010383116
-0.0042632343 -0.011518004 0.008123877 0.0019572591 0.006421581 6.654942e-05 0.0022459568 -0.0035780824
-0.0037635867 -0.001113415 -0.0025519885 0.00626127 0.00016428996 0.00899678 -0.003762625 0.00216113
0.0016403946 -0.003003683 0.007632607 -0.00490893 -0.0043045 0.008288379 0.00752376 0.004961591
-0.002001213 0.0061516943 -0.008426553 -0.0037677025 -0.0004534005 0.0007348524 -0.014173749 -0.0008334566
-0.005235856 -0.0019378655 0.0022717204 0.0012435981 0.004916408 -0.0064445594 0.0034343374 -0.0027805627
0.0029556514 -0.006937863 0.0018317209 0.0041571646 -0.004088846 0.0049149487 0.0062514357 0.0090653505
-0.0034971894 -0.0045167934 -0.0044817715 -7.4029263e-06 0.0003758416 0.002676631 0.0019867301 0.0124615
0.004993087 -0.0024253868 0.0031344679 -0.003966567 0.0004979566 0.010171351 -0.00495949 -0.0014309952
0.0015989451 0.015849495 0.0038009398 0.0026074008 0.013216889 -0.0035396402 0.005475254 -0.005319745
6.9475216e-05 -0.0051379586 -0.002071248 0.0022041781 0.010590809 0.00617513 -0.0020764207 -0.014932645
0.0055860984 -0.01164517 -0.009343939 0.0014852021 -0.0049094106 0.005654746 0.003485559 0.004539456
0.001721184 0.011480914 -0.009366973 -0.0038293276 -0.010957096 -0.010616069 -0.0028100135 -0.01390595
0.0045212284 -0.012708542 -0.0039313505 -0.00799955 0.0049868715 -0.008276771 -0.0048575946 -0.00658559
0.021412488 0.0047606523 -0.0048554535 0.0052760644 0.003497868 -0.00038121254 -0.0008604617 0.011927677
-0.0037830658 0.0057005384 0.0031954055 -0.0010017168 0.0025768967 0.006462318 0.001164202 0.0032912686
-0.0028519693 -0.0015733301 0.0100924065 0.007847173 -0.0024473963 0.006873153 -0.006167016 0.0039123585
00000000: 1b92 09bc 1dab 02bb 6fc8 ec3b 0828 a63b
00000010: fb5b 42ba e26a cbba 084a f13b 4adb 2a3c
00000020: aa89 fdbb 5772 633b d7ad 21bb 9546 75bb
00000030: 5366 1cbc faa3 3f3c 8c60 3f3c 08fc 9a3a
00000040: a035 3bb9 047b 83bb c3e5 99bb 1c26 45bb
00000050: 0b9c f53b 30a3 dcbb 6b5c 2fbc f3a8 8abb
00000060: 8b18 8c3a fa4e 5a3b d35e f2bb 4232 153b
00000070: ff74 fc38 5227 d03b be1f 84bb cefc 0dba
00000080: ab29 d0bb dd1d b03b 2f16 03bb d28f 853a
00000090: e805 d83b 53d2 35bb 5b62 32bb d1e4 8b3a
000000a0: 9b97 6a3b c54b 8f3c d123 8cbb edcc 633b
000000b0: 6bd9 9d3b c56a 083c 51fb 083c b122 183c
000000c0: b376 393a add7 743a f10e ad3b ab7b 14bc
000000d0: a291 bcbb 4a91 ecba c35d 1fbc af87 863c
000000e0: 1b89 c6bb 03f1 133c 19cf 25bc b6b5 ad3b
000000f0: 6d21 793b ba1e adbb e777 e33b 82f6 37ba
00000100: cb1c f4bb 3f09 36bb 272c 00bb 2bc6 193b
00000110: 976a a7bc fa39 30bc 9b65 54bb ff37 353c
00000120: 09c5 ba3a 9762 71bb 486d 51bc 7680 bdbb
00000130: 2888 5dbb e645 ae3b b076 183b a738 db3b
00000140: 6f46 373c 7264 dcbb 9f8d 3ebb 6cc2 8bbb
00000150: 523a 78bc 2d56 51bc 33cf a13c efb5 c2ba
00000160: 4d84 183c 6c28 073c 64c6 c1bb 73f1 0fbb
00000170: df2d ac3a 0d3d e0ba 0f2d d6bb 633b edb9
00000180: 1755 c73a 1bba 7e3b fff7 baba 21d0 8a3a
00000190: bda1 0d3c 335b 053a 85d4 2fbc b04b 733b
000001a0: df55 1d3c 0ef8 8b3b aaad d73a 04ac b03b
000001b0: 2dcb 5c38 7745 d0ba cd56 4ab9 1f61 b3b9
000001c0: d2d3 dcbb f5da bfbb 63b3 853a 71a0 9e3b
000001d0: 1e1c b7bb d200 e2b8 f217 ad3b 0fb9 bbbb
000001e0: ff07 203a cf03 873b c7be 3c3c 4226 6cbb
000001f0: 8b73 77ba a40c b43a cfb8 f7ba f517 88ba
00000200: 9ab2 8bbb 03b6 3cbc 031a 053c 5c45 003b
00000210: 206c d23b 7390 8b38 e730 133b 437e 6abb
00000220: 82a6 76bb 02f0 91ba 433f 27bb 572b cd3b
00000230: 4045 2c39 3b67 133c 5f96 76bb bfa1 0d3b
00000240: 8202 d73a 70d9 44bb f31a fa3b 17db a0bb
00000250: c30c 8dbb fbcb 073c e089 f63b d894 a23b
00000260: c826 03bb 2794 c93b 860f 0abc 8feb 76bb
00000270: 63b6 edb9 1ca3 403a 0339 68bc 537c 5aba
00000280: 8b91 abbb faff fdba 25e1 143b 3a00 a33a
00000290: d219 a13b e22c d3bb 9f12 613b 1a3a 36bb
000002a0: 9ab3 413b 0357 e3bb 5b16 f03a d338 883b
000002b0: bafb 85bb 940d a13b d8d8 cc3b d686 143c
000002c0: 1a31 65bb 9c01 94bb d3db 92bb a766 f8b6
000002d0: 9b0c c539 6b6a 2f3b cd33 023b 522b 4c3c
000002e0: 0d9d a33b 3df3 1ebb a56b 4d3b faf9 81bb
000002f0: 4d89 023a bda5 263c 3883 a2bb 3b90 bbba
00000300: b293 d13a cdd6 813c 3019 793b ede0 2a3b
00000310: a78b 583c 4ff9 67bb c269 b33b 4151 aebb
00000320: 39b3 9138 525c a8bb c6bd 07bb f973 103b
00000330: 1385 2d3c bf58 ca3b 8f14 08bb 0da8 74bc
00000340: 970b b73b 62cb 3ebc 5217 19bc 1dab c23a
00000350: 1fdf a0bb 734b b93b fa6d 643b b8bf 943b
00000360: 5a99 e13a 721a 3c3c ef77 19bc 75f5 7abb
00000370: 6485 33bc 05ef 2dbc 3428 38bb c8d5 63bc
00000380: d026 943b 7d37 50bc 8fd2 80bb 8b10 03bc
00000390: e968 a33b 4b9b 07bc 752c 9fbb efcb d7bb
000003a0: 3e69 af3c 3fff 9b3b 7f1a 9fbb d6e2 ac3b
000003b0: 7d3c 653b 7bdd c7b9 9b90 61ba 4e6c 433c
000003c0: 50ed 77bb 95cb ba3b 026a 513b 0a4c 83ba
000003d0: 27e1 283b dac1 d33b 2398 983a 53b2 573b
000003e0: 1be8 3abb 3338 ceba 9f5a 253c 6e91 003c
000003f0: 7f64 20bb 3038 e13b ae14 cabb 3e33 803b

network_body._body_endoder.seq_layers.0.bias f4 [256]
0.005052322 0.0027589868 -3.6189835e-05 0.00092451577 0.0025330884 0.0039563705 -0.0036971234 0.00069126487
0.005830936 0.0055253482 0.0015124158 0.011114535 0.0032376703 -0.0032096207 0.0032715905 0.0057712765
0.0010791579 0.0038810417 0.008707015 0.0014605011 -0.0014180377 0.0012604226 -0.0017467292 0.006668202
-0.0016387963 0.003363087 0.0026435808 0.0021909534 -0.0023538177 0.00018719686 0.007759282 0.0069967727
0.007716947 0.0054289764 0.00069640763 0.014520461 0.0007112767 0.009138121 0.012227001 -0.0053945147
0.0030248524 0.012142215 -0.00023923196 0.0067027756 0.010913467 0.004740007 -0.0032863896 0.007950114
-0.0034941267 0.0002193641 -0.009335831 -0.0019438674 0.010176736 0.006963505 0.004419899 0.002575535
-0.00087774947 -0.0048556887 0.0057653408 -0.0050326716 0.0025241561 0.009284252 -0.00035158108 -0.0014508892
-0.0061025373 0.0042218254 -0.0036580001 0.0046388353 -0.008406434 0.004585635 0.011318435 0.00021013907
0.0031933305 -0.0025045273 0.007479738 0.00619582 0.0045560994 -0.001903953 0.0044217687 5.9262107e-05
0.0010961657 0.0010798615 0.004621651 0.0013749665 0.010477711 -0.0033785258 0.0063568894 0.0014737463
-0.0020998365 0.0047032144 0.008895175 -0.00049408746 0.010985333 0.012200948 0.011607065 0.0066649215
0.0025369406 0.0057002734 0.00808279 0.006089243 0.012374202 -2.8708482e-05 0.010886507 0.006485852
-0.0079999175 0.008889726 -0.001843552 0.009420559 0.012270636 0.00416728 0.0019373219 0.0025919294
0.0029205438 0.0076265535 0.01174828 -0.0071991105 -0.0033388305 0.0010071575 0.0043001194 0.004883956
0.0057794396 0.0023869046 0.012346562 -0.0029860854 -0.00012212155 0.0047780517 0.0033965134 -0.001836647
0.0060043475 7.0779744e-05 0.002064658 0.002718121 -0.00069029746 4.1550382e-05 0.003897482 0.0036013466
0.0042146007 0.0017347884 -0.0008694695 0.0026715787 0.006721398 0.0052531944 0.0042178878 0.003990824
-0.003208448 -0.012743159 0.0039634965 -0.00058989675 0.002754069 -0.0006903403 0.0059166024 -0.0019251353
-0.00010145238 -0.0034850757 0.00065518054 0.0066407695 -0.0020745443 -0.0007111269 -0.0037318585 -0.00097013934
0.0018698862 0.0026254377 0.004802185 0.00492745 0.011365803 -0.006056652 -0.0010394471 0.0054286993
-0.0041109184 0.008164834 -0.0045776004 -0.0006197475 0.006740632 -0.0009433287 0.0040408294 -0.00421103
0.0013580786 0.0061381897 0.00040949543 0.0063500935 0.007281337 0.0068879747 0.008442543 0.00270746
-0.0055768103 0.0076324223 -0.0019836747 -0.0042184945 -0.0019235603 0.0074815564 0.0064725485 0.0033971267
0.001147624 0.0014797274 0.010680891 -0.0019075208 0.001057165 0.00563556 0.0052672997 0.008324223
0.01067676 -0.00040404836 0.001376986 0.010195538 -0.0010018705 0.0056393724 0.0024341196 0.0029158217
0.0058395565 0.0020115906 0.006288556 0.010176088 0.0030498744 0.0075876834 -0.00061344943 0.007796039
0.0088295415 0.003411045 -0.003394954 -0.00023399707 -0.0035828392 0.007921406 0.0035744673 0.00015527615
0.0023486197 0.008565821 -0.0003558917 -0.0016056721 0.0014530341 0.003026819 9.3124196e-05 0.0077544563
0.0041876654 0.004240642 -0.001113811 0.0070355455 0.010133859 0.0032638437 0.0066779116 0.0041405093
0.007986422 0.0039197044 -0.004798069 0.0045745466 0.0065005226 -0.0008024191 0.0007115502 0.0030403007
-0.0012569479 0.008844939 0.0011310034 0.007791039 0.0072637135 0.0039951247 0.009182991 0.00425114
00000000: f38d a53b 1ed0 343b 8aca 17b8 345b 723a
00000010: 2c02 263b 71a4 813b 704b 72bb 0036 353a
00000020: 7011 bf3b fb0d b53b 413c c63a bd19 363c
00000030: 182f 543b 8058 52bb 2e68 563b fa1c bd3b
00000040: 8872 8d3a 1359 7e3b dea7 0e3c 496e bf3a
00000050: 73dd b9ba c434 a53a 82f2 e4ba ef80 da3b
00000060: e1cc d6ba 3d67 5c3b ed3f 2d3b 1996 0f3b
00000070: 8242 1abb 464a 4439 9341 fe3b 2f45 e53b
00000080: 71de fc3b 8ee5 b13b 208f 363a 3ae7 6d3c
00000090: f974 3a3a 0fb8 153c c253 483c 78c4 b0bb
000000a0: 9a3c 463b 24f0 463c 57da 7ab9 f5a2 db3b
000000b0: 66ce 323c 1052 9b3b 7860 57bb 3241 023c
000000c0: b8fd 64bb 1a05 6639 50f5 18bc 5ec9 feba
000000d0: 53bc 263c 1d2e e43b cdd4 903b 4fca 283b
000000e0: c518 66ba 781c 9fbb 2feb bc3b 1ce9 a4bb
000000f0: 506c 253b fa1c 183c 6a54 b8b9 c32b beba
00000100: cbf7 c7bb 3d57 8a3b 0fbb 6fbb 5f01 983b
00000110: 24bb 09bc 1843 963b f570 393c c758 5c39
00000120: 3247 513b ff22 24bb 9718 f53b 4e06 cb3b
00000130: 554b 953b 108e f9ba 7ce4 903b 3490 7838
00000140: 38ad 8f3a 248a 8d3a 3871 973b 3838 b43a
00000150: b5aa 2b3c 426a 5dbb 744d d03b b82a c13a
00000160: 699d 09bb 6c1d 9a3b 11bd 113c a685 01ba
00000170: d3fb 333c 7ce6 473c 8f2b 3e3c 6a65 da3b
00000180: cd42 263b 5cc9 ba3b ae6d 043c 4688 c73b
00000190: 2abd 4a3c ffd2 f0b7 525d 323c 4587 d43b
000001a0: 1612 03bc 37a6 113c 57a3 f1ba b058 1a3c
000001b0: c70a 493c ae8d 883b bced fd3a 5cdd 293b
000001c0: 9866 3f3b 2be8 f93b dc7b 403c 84e6 ebbb
000001d0: 48d0 5abb 9902 843a 04e8 8c3b 9809 a03b
000001e0: 7461 bd3b 9d6d 1c3b 3c49 4a3c 33b2 43bb
000001f0: c10d 00b9 3491 9c3b 0a98 5e3b a6bb f0ba
00000200: 1ec0 c43b 966f 9438 374f 073b 8122 323b
00000210: 14f5 34ba 6246 2e38 e66c 7f3b 9204 6c3b
00000220: a21a 8a3b d761 e33a 1ced 63ba a715 2f3b
00000230: 2c3f dc3b fd22 ac3b 3536 8a3b 75c5 823b
00000240: d344 52bb afc8 50bc 38e0 813b 4da3 1aba
00000250: 9c7d 343b f4f7 34ba 0fe0 c13b d254 fcba
00000260: d5c2 d4b8 de65 64bb 6cc0 2b3a d09a d93b
00000270: 14f5 07bb eb6a 3aba 3292 74bb f350 7eba
00000280: f816 f53a 890f 2c3b a65b 9d3b 7276 a13b
00000290: a237 3a3c e176 c6bb 0f3e 88ba 3be3 b13b
000002a0: e2b4 86bb ccc5 053c b2ff 95bb 8d76 22ba
000002b0: 85e0 dc3b b849 77ba ef68 843b aefc 89bb
000002c0: 8e01 b23a de22 c93b 8cb1 d639 7214 d03b
000002d0: 4898 ee3b 85b4 e13b 9852 0a3c a46f 313b
000002e0: adbd b6bb 6619 fa3b 8a00 02bb 4c3b 8abb
000002f0: f91f fcba d827 f53b ac17 d43b 54a2 5e3b
00000300: df6b 963a 6af3 c13a e7fe 2e3c c705 faba
00000310: 9290 8a3a 81aa b83b 5099 ac3b 5262 083c
00000320: 94ed 2e3c 74d6 d3b9 fc7b b43a 300b 273c
00000330: 3251 83ba 7cca b83b c085 1f3b 5f17 3f3b
00000340: c059 bf3b e4d4 033b 3b10 ce3b 9bb9 263c
00000350: 67e0 473b 1aa2 f83b e5cf 20ba ea75 ff3b
00000360: c8a9 103c d78b 5f3b e07d 5ebb 1c5d 75b9
00000370: 11ce 6abb c9c8 013c 9c41 6a3b a0d1 2239
00000380: 4deb 193b a857 0c3c fa96 bab9 6a75 d2ba
00000390: bc73 be3a 995d 463b ac4b c338 1819 fe3b
000003a0: af38 893b 15f5 8a3b 4cfd 91ba 6f8a e63b
000003b0: 7c08 263c 36e6 553b 62d2 da3b 1cad 873b
000003c0: 7bd9 023c dd70 803b 1f39 9dbb 14e6 953b
000003d0: 5602 d53b 6f59 52ba 5387 3a3a c83f 473b
000003e0: 2cc0 a4ba 5dea 103c 2d3e 943a f94b ff3b
000003f0: 7204 ee3b 89e9 823b 4274 163c 264d 8b3b

network_body._body_endoder.seq_layers.0.weight f4 [256, 119]
0.05890333 0.0964304 -0.025748275 -0.009820568 -0.0111456225 -0.06299926 -0.024839435 0.024052804
-0.054710437 0.0912258 -0.10625249 0.06122443 -0.12448996 -0.07215079 0.041787956 0.027543657
-0.120507225 -0.3683391 0.05390127 0.05929109 -0.20576851 0.048289053 0.13315077 -0.08577088
0.13279618 -0.008144711 -0.06226445 0.058393005 -0.086439274 -0.07026964 0.0019789701 -0.089196585
-0.10388919 0.121460445 0.11276404 0.016999606 -0.052040756 0.019606037 -0.08614135 0.074207366
-0.13993119 -0.07252546 -0.033714205 0.057692934 -0.05913292 0.061501898 -0.10659748 -0.007202024
0.020425634 -0.007854 0.044931322 0.1413367 0.08053525 0.06587211 -0.11679048 0.035931133
-0.052180443 -0.00936253 0.048586056 0.07732057 0.106687635 0.10093993 -0.012512784 -0.11025187
0.0013179363 -0.07830928 -0.23495525 0.03458605 -0.065882824 0.06695341 -0.09579628 0.057174765
0.02009688 -0.15400675 0.043494392 -0.018135726 -0.20925017 0.023580296 -0.005492576 0.15343933
-0.11003838 0.085813515 0.052161597 -0.028041875 -0.07261096 -0.13804488 0.12782498 0.10032552
0.01880948 0.059996232 0.042961333 0.09727477 -0.06122007 0.10814032 -0.09931661 0.08260092
-0.018147314 0.032963675 0.030178625 -0.0025974202 0.04528062 0.074262716 -0.02566764 -0.10111823
-0.09862983 0.0017278915 0.12597829 0.011379554 0.10979825 -0.114994705 -0.08044678 0.022242615
-0.005983004 -0.08465398 0.10441908 0.088569365 0.03999979 0.022047466 0.0150071215 -0.0427172
-0.08077035 0.006632118 -0.016626373 0.041199394 -0.06248245 -0.024863802 -0.07476212 0.034078248
0.017610092 -0.105564564 -0.02672368 0.034250762 0.15301529 0.027500352 -0.07284072 -0.12388009
-0.14323206 0.0028307284 -0.16537556 -0.19928367 0.023939708 -0.03270571 0.01776386 -0.19043358
0.09691307 0.06261218 -0.11739907 -0.080258735 0.03295739 0.0471259 -0.086013995 0.13290414
-0.11831215 -0.14419417 0.0012006399 0.09292482 0.0034985053 0.057658035 -0.036711268 -0.07913746
-0.07130273 -0.08346754 0.16248202 0.1722349 -0.1308677 -0.024867639 0.046940163 -0.038830902
-0.04560383 0.08481378 -0.019802753 -0.045042295 0.06115634 -0.016557064 0.06689451 -0.03477538
-0.0085257795 0.012498975 -0.017151633 0.086871356 -0.008432909 -0.15240411 0.06272713 0.08696699
-0.05682145 -0.14168942 -0.11522298 -0.10250363 -0.2440467 -0.029438738 0.10948845 0.037435032
-0.04629196 -0.06313923 0.026124207 0.049128804 -0.09907456 -0.0322393 0.12043876 0.12577571
-0.13485752 0.17267454 0.0667181 0.10718995 -0.22231619 0.017337946 -0.036056302 -0.026641991
0.15458599 0.029846238 0.12380047 0.04061099 -0.039120987 -0.008284334 -0.1377786 0.022432793
-0.06335252 0.013841404 0.032056097 -0.11356111 0.18245308 0.04838766 -0.11465258 0.026209481
-0.032302566 0.055902425 -0.04160209 0.2196527 -0.101536036 0.042004816 -0.14875512 -0.081731826
0.0060373805 -0.03591387 -0.037394527 -0.08230827 0.1303139 -0.029084696 0.022672394 0.085063085
-0.052508198 -0.0032859284 -0.063442454 0.17105864 0.050914567 0.031380143 0.1484037 0.14674135
-0.13044344 -0.04259463 -0.054051895 0.04650119 -0.1175929 0.061660975 0.096899696 0.05387295
00000000: 9e44 713d 4d7d c53d 0cee d2bc 73e6 20bc
00000010: 219c 36bc c205 81bd 127c cbbc 630a c53c
00000020: 0d18 60bd 98d4 ba3d e89a d9bd 78c6 7a3d
00000030: 98f4 febd cbc3 93bd d929 2b3d 3ca3 e13c
00000040: 7ecc f6bd f196 bcbe 94c7 5c3d 37db 723d
00000050: fbb4 52be beca 453d ad58 083e a5a8 afbd
00000060: b9fb 073e 6571 05bc 0209 7fbd 812d 6f3d
00000070: 1307 b1bd 87e9 8fbd 9cb1 013b b3ac b6bd
00000080: dbc3 d4bd 41c0 f83d d5f0 e63d c242 8b3c
00000090: b028 55bd d79c a03c e06a b0bd 08fa 973d
000000a0: 1f4a 0fbe 3a88 94bd e817 0abd 6d4f 6c3d
000000b0: 5c35 72bd 6ae9 7b3d c84f dabd f5fe ebbb
000000c0: a953 a73c 10ae 00bc e809 383d 91ba 103e
000000d0: aaef a43d f5e7 863d d92f efbd 862c 133d
000000e0: 29bb 55bd 4c65 19bc 2c02 473d 3f5a 9e3d
000000f0: 0c7f da3d 98b9 ce3d 6c02 4dbc bbcb e1bd
00000100: 9bbe ac3a 9e60 a0bd 1c98 70be 1aaa 0d3d
00000110: 93ed 86bd df1e 893d d730 c4bd 1630 6a3d
00000120: 36a2 a43c f2b3 1dbe 2d27 323d 6091 94bc
00000130: ad45 56be 772b c13c 11fb b3bb 331f 1d3e
00000140: cd5b e1bd ffbe af3d 66a7 553d 13b8 e5bc
00000150: 0eb5 94bd a35b 0dbe 8de4 023e 7777 cd3d
00000160: 5716 9a3c 9cbe 753d 39f8 2f3d ff37 c73d
00000170: e5c1 7abd ac78 dd3d 8266 cbbd ac2a a93d
00000180: ada9 94bc eb04 073d 2a39 f73c 7b39 2abb
00000190: 2c78 393d 0d17 983d f144 d2bc 1317 cfbd
000001a0: 70fe c9bd 6b7a e23a 7400 013e 4f71 3a3c
000001b0: e8dd e03d 5882 ebbd 48c1 a4bd 2536 b63c
000001c0: 130d c4bb 115f adbd acd9 d53d db63 b53d
000001d0: d2d6 233d e39c b43c 6ee0 753c 3bf8 2ebd
000001e0: ed6a a5bd 3d52 d93b 0834 88bc b2c0 283d
000001f0: 99ed 7fbd 2caf cbbc e21c 99bd a295 0b3d
00000200: 0a43 903c 3c32 d8bd 9eeb dabc 874a 0c3d
00000210: 0ab0 1c3e 6b48 e13c 842d 95bd d8b4 fdbd
00000220: 6dab 12be be83 393b 3658 29be 0511 4cbe
00000230: 351d c43c 6cf6 05bd 8485 913c 0501 43be
00000240: 5c7a c63d d13a 803d ec6e f0bd b15e a4bd
00000250: 54fe 063d 1607 413d 1b28 b0bd 0618 083e
00000260: a44d f2bd a3a7 13be ca5e 9d3a 5e4f be3d
00000270: 2e47 653b d52a 6c3d 8e5e 16bd d212 a2bd
00000280: 2a07 92bd 08f1 aabd b061 263e 585e 303e
00000290: 2f02 06be 38b7 cbbc 5444 403d 270d 1fbd
000002a0: 15cb 3abd d9b2 ad3d 6239 a2bc 457e 38bd
000002b0: 127f 7a3d aea2 87bc fdff 883d a170 0ebd
000002c0: b6af 0bbc 80c8 4c3c 9581 8cbc 9ce9 b13d
000002d0: 2f2a 0abc d30f 1cbe 1577 803d c01b b23d
000002e0: 9cbd 68bd 0817 11be 07fa ebbd 6ced d1bd
000002f0: 61e7 79be 8229 f1bc 7b3b e03d 7a55 193d
00000300: a39c 3dbd 244f 81bd 6f02 d63c 493b 493d
00000310: 9ae7 cabd 5b0d 04bd 99a8 f63d 59cb 003e
00000320: 1718 0abe 98d1 303e 80a3 883d 6886 db3d
00000330: dba6 63be 4f08 8e3c c6af 13bd 4e40 dabc
00000340: ca4b 1e3e 1980 f43c 1a8b fd3d b657 263d
00000350: 543d 20bd 04bb 07bc d515 0dbe fac4 b73c
00000360: f7be 81bd 0ec7 623c 414d 033d ba92 e8bd
00000370: fbd4 3a3e 2432 463d f9ce eabd 44b5 d63c
00000380: b24f 04bd f1f9 643d f466 2abd a3ec 603e
00000390: 20f2 cfbd 3e0d 2c3d 4353 18be 0463 a7bd
000003a0: 38d5 c53b 6c1a 13bd 012b 19bd 3d91 a8bd
000003b0: 0271 053e 0743 eebc 75bb b93c 8e35 ae3d
000003c0: d612 57bd bb58 57bb 1eee 81bd ff29 2f3e
000003d0: cb8b 503d 7788 003d 24f7 173e 5d43 163e
000003e0: f792 05be b577 2ebd 8565 5dbd 0878 3e3d
000003f0: 8cd4 f0bd 3890 7c3d 5973 c63d e2a9 5c3d

network_body._body_endoder.seq_layers.2.bias f4 [256]
0.0023525388 0.005916734 -0.0012583975 0.0045042927 0.005467988 -0.00010730238 0.005207213 0.003950264
-0.0018389634 0.0025150664 -0.0021681061 0.006358345 0.0016455525 0.0017041608 0.0038393156 0.008520845
0.0072872215 0.0059428853 0.002762491 -0.0053081685 -0.0090785725 0.0063035903 0.0015725185 0.003712872
0.0084023215 0.0017782481 0.0045635896 -0.00037912588 0.0055111255 0.0037195573 0.0036229766 0.0059054308
0.002421847 0.0053247423 0.002899622 0.0030941784 0.0004146489 0.0030045323 0.0031610401 0.0023328185
-0.000890138 -0.0012586185 0.0075297565 0.00051545986 -0.00079324865 0.0095268935 0.0009848401 0.0016031219
-0.0040258495 0.0058140755 0.0025892057 -0.0025327825 0.0026798106 0.0043646386 -0.0037954669 -0.0015149119
-4.5773988e-05 -0.0009211974 -0.00035502043 0.0020099515 -0.0012373725 -0.0024195192 0.0031151446 0.0016941885
0.006759735 0.0025317736 -0.004995625 0.0037258393 -0.0042824014 0.008394888 0.004852309 0.003124716
0.007842736 0.0052662594 0.0055377595 0.0033631271 0.0013404796 0.008120052 0.0059566353 -0.00024734504
-0.004192662 -0.0018569455 0.0030898321 -0.0026390965 -0.00707371 -0.0017135631 -0.0014158451 0.0029828858
0.00044616224 -6.745572e-05 -0.0048186737 0.006272732 -0.0028647243 0.0022876323 0.0015050652 0.0029065942
0.008762374 0.010140588 0.0040974687 0.005334238 -0.0031206058 0.0038273497 -2.605974e-05 0.0020976618
0.00919266 -0.0040714196 0.00035575972 0.006837361 0.0008740557 0.00078721874 0.0037779557 -0.0024007624
-0.0056780702 0.0017730477 0.0037189897 0.005816574 0.012469326 0.0061549484 0.005927238 0.0075305225
-0.0022013804 -0.004130932 0.008377057 0.00083647063 0.0073401467 0.0063054655 -0.0005192942 0.00080529676
0.0056204875 0.0004213462 0.0024295787 -0.0012559807 0.002351311 0.00499253 -0.0013524934 0.00059584423
0.00520313 0.0024639238 0.0015249307 0.004456529 -0.0045658625 -0.0019611833 -0.008698165 0.0060525765
0.0024808384 0.0056705824 7.6728815e-05 -0.0010515943 0.0021294923 0.0021661134 0.0007161988 -0.00057073345
-0.006397131 -0.00035171508 0.0036038621 0.0016079543 0.006747227 0.00520655 -0.0013985299 0.005461177
0.008196618 0.0031820368 0.0035745103 0.0039138068 0.0116990525 0.0031209164 -0.0017181623 -0.00082727824
0.001019699 2.8351815e-05 0.00323709 0.00092133996 -0.0025596074 0.0012319648 0.006124331 -0.0006043963
0.00659042 0.0029749346 0.01117836 0.0020966206 0.0072860895 -0.00057976623 0.007485976 0.0069888416
0.0041600843 0.0016858676 0.011740966 0.0011513339 0.0012795846 0.0061137113 0.0017835811 0.009231913
0.0057694763 0.0019887106 0.0025762597 -0.0008785456 0.0031749853 0.0030830193 -0.002735673 -0.00066258624
0.002250515 -0.000251617 -0.001281347 0.0063139484 0.00040074356 0.004789585 0.003565074 0.010236642
0.003974038 -0.0009901625 -0.004975767 0.0030749193 0.007698997 0.0069768243 0.003386617 -0.0032621694
0.0015935263 0.0081039695 0.0027197278 0.0020246617 0.0027392355 0.0053165294 -0.000684906 0.004620083
0.0044417367 0.0025214027 -0.0007697666 0.0038817662 -0.0009750371 0.0054787155 0.0029291895 0.008123337
0.004736821 0.0038494929 0.006430725 0.0020517206 0.005807691 -0.0024757553 0.0041483627 -0.0048848274
0.009244416 -0.0018927332 0.0053400774 -0.0027117594 0.00157127 -0.0024707813 0.0011484167 0.00447221
-0.007177624 0.004377994 0.001436161 -0.0009979658 0.0047396277 0.0033725079 0.0055753263 0.004180379
00000000: 0d2d 1a3b 2ae1 c13b d0f0 a4ba bf98 933b
00000010: cf2c b33b 8707 e1b8 45a1 aa3b 3771 813b
00000020: 5f09 f1ba d0d3 243b c916 0ebb aa59 d03b
00000030: 94af d73a 265e df3a 079d 7b3b 049b 0b3c
00000040: a5c9 ee3b 89bc c23b e90a 353b 25f0 adbb
00000050: 4bbe 14bc 598e ce3b f71c ce3a a853 733b
00000060: e4a9 093c 1b14 e93a 2a8a 953b 6ac5 c6b9
00000070: ac96 b43b d1c3 733b 766f 6d3b 5882 c13b
00000080: dab7 1e3b 2d7b ae3b 9607 3e3b b3c7 4a3b
00000090: 3c65 d939 b0e7 443b 7429 4f3b 33e2 183b
000000a0: 2658 69ba 3bf8 a4ba 2dbc f63b ed1f 073a
000000b0: 04f2 4fba b016 1c3c c015 813a d81f d23a
000000c0: 46eb 83bb 0084 be3b aaaf 293b 0afd 25bb
000000d0: c39f 2f3b 3e05 8f3b 5ebd 78bb 0290 c6ba
000000e0: 72fd 3fb8 837c 71ba 0922 bab9 64b9 033b
000000f0: 552f a2ba cc90 1ebb 7427 4c3b 880f de3a
00000100: c480 dd3b 1dec 253b 57b2 a3bb 362d 743b
00000110: 6353 8cbb b68a 093c 1e00 9f3b 09c8 4c3b
00000120: d27e 003c 9690 ac3b 1876 b53b e967 5c3b
00000130: 08b3 af3a f709 053c e12f c33b 17ae 81b9
00000140: 9962 89bb c064 f3ba c87e 4a3b b1f4 2cbb
00000150: 95ca e7bb a399 e0ba e193 b9ba 857c 433b
00000160: e2ea e939 0477 8db8 f7e5 9dbb 7d8b cd3b
00000170: 19be 3bbb 1aec 153b 9c45 c53a 8f7c 3e3b
00000180: 0f90 0f3c b524 263c 0f44 863b d5ca ae3b
00000190: 1483 4cbb 46d4 7a3b de9a dab7 ed78 093b
000001a0: d09c 163c 8b69 85bb 4385 ba39 f10b e03b
000001b0: e320 653a 5b5d 4e3a 9497 773b 1c56 1dbb
000001c0: 1b0f babb 9c65 e83a 4bba 733b f698 be3b
000001d0: 254c 4c3c 73af c93b 4739 c23b 9ac2 f63b
000001e0: 0945 10bb c55c 87bb ec3f 093c 9846 5b3a
000001f0: 9d85 f03b 149e ce3b 3e21 08ba 8d1a 533a
00000200: 112c b83b 21e8 dc39 9139 1f3b b89f a4ba
00000210: 7418 1a3b 6198 a33b 2646 b1ba 6e32 1c3a
00000220: 057f aa3b c879 213b 2fe0 c73a 1308 923b
00000230: 3b9d 95bb 3287 00bb c082 0ebc b154 c63b
00000240: 9095 223b 4bd0 b93b 78e9 a038 a6d5 89ba
00000250: f48e 0b3b 5af5 0d3b 4abf 3b3a 469d 15ba
00000260: 069f d1bb 6666 b8b9 c62e 6c3b fec1 d23a
00000270: d817 dd3b b59b aa3b e04e b7ba acf3 b23b
00000280: 1c4b 063c b889 503b 5542 6a3b 643f 803b
00000290: 62ad 3f3c 4a88 4c3b f633 e1ba b4dd 58ba
000002a0: 6ca7 853a 0fd5 ed37 5c25 543b 1486 713a
000002b0: 16bf 27bb e179 a13a 9dae c83b 5970 1eba
000002c0: 73f4 d73b 1ff7 423b 7125 373c 7567 093b
000002d0: 26c0 ee3b 74fb 17ba eb4c f53b a702 e53b
000002e0: 5151 883b 54f8 dc3a 2e5d 403c 5be8 963a
000002f0: bcb7 a73a 8755 c83b 0dc7 e93a 7341 173c
00000300: e00d bd3b 0755 023b 77d6 283b 324e 66ba
00000310: 6a13 503b 7b0c 4a3b fa48 33bb 69b1 2dba
00000320: 607d 133b 76eb 83b9 dff2 a7ba 3de5 ce3b
00000330: e41a d239 f3f1 9c3b 04a4 693b 97b7 273c
00000340: a638 823b 57c8 81ba c20b a3bb 9684 493b
00000350: de47 fc3b d89d e43b 01f2 5d3b 1fca 55bb
00000360: dfdd d03a 83c6 043c 763d 323b 30b0 043b
00000370: bf84 333b 4836 ae3b 438b 33ba 1164 973b
00000380: fd8b 913b 1e3e 253b 29ca 49ba 3b65 7e3b
00000390: a299 7fba cc86 b33b a5f7 3f3b bf17 053c
000003a0: 5637 9b3b c647 7c3b d5b8 d23b 2976 063b
000003b0: 714e be3b 4840 22bb fdee 873b e710 a0bb
000003c0: e475 173c 9615 f8ba d1fb ae3b c6b7 31bb
000003d0: 13f3 cd3a d5ec 21bb 7886 963a 9e8b 923b
000003e0: 4632 ebbb 4775 8f3b 913d bc3a 2dce 82ba
000003f0: e14e 9b3b 4b05 5d3b 3ab1 b63b 90fb 883b

network_body._body_endoder.seq_layers.2.weight f4 [256, 256]
-0.09906701 0.063213795 -0.0010462677 0.06037197 0.08840591 0.031609613 0.08922154 -0.021383591
-0.0010969171 -0.12476161 0.007196858 0.025758253 0.09422983 0.08950918 -0.0977905 0.06858481
0.03751941 0.06756501 0.018228168 0.012123771 -0.038917117 0.04117055 -0.0049024667 -0.02750254
-0.008442515 -0.051694114 0.0294696 0.03970363 0.06050666 -0.079411775 -0.010145143 -0.042560138
-0.07662509 -0.05969927 -0.040937204 -0.047532223 0.08758726 -0.023496684 0.012074879 -0.010637805
0.002050736 -0.029872356 -0.04070795 -0.051578753 -0.013163139 -0.02012423 -0.031110764 -0.02515766
0.105651096 -0.0584038 -0.018792951 0.012919693 -0.16607301 0.12744218 -0.007615936 -0.054408792
-0.046745893 -0.0369884 -0.07757246 -0.07502768 -0.04589383 -0.011846251 0.028272185 -0.029170977
0.06522351 -0.09972905 -0.16375324 -0.018143546 -0.029564047 -0.07249897 0.018274631 0.036128495
-0.021805108 -0.069977894 -0.036256544 0.06438958 0.062845774 -0.017025862 0.0039758096 0.028088707
0.039250735 0.0257051 -0.071847335 0.043759786 -0.056821294 -0.09454977 -0.024080742 -0.06606632
-0.0024809253 0.020868901 0.02326815 0.053607028 -0.0015243073 0.03141933 -0.017390862 -0.063357346
-0.04918773 0.027686482 -0.0006191074 0.036678582 0.117868684 0.01971964 -0.05016923 0.06504308
0.08265414 0.00025824847 0.032919955 -0.015199804 0.16589895 -0.048279695 0.006528343 0.038927954
-0.060763437 0.08179465 0.019906323 -0.012680767 0.061573047 -0.0749773 0.018020123 -0.016068498
0.05785468 -0.040905956 -0.20745994 -0.12738395 -0.03737055 -0.043389823 -0.033515844 -0.028392877
-0.06406638 -0.0003239632 0.04543881 -0.081369705 0.06230746 0.012321408 -0.06561452 -0.053056054
-0.049434975 -0.046208147 0.03503134 -0.037274867 -0.06986721 0.11472185 -0.066682965 -0.009864691
0.049934454 0.007835329 -0.029552855 0.026552772 0.04812937 -0.03087967 -0.0024070137 0.035782427
-0.043834504 0.02478665 -0.059381604 -0.023492552 -0.08260711 0.03984908 0.11012877 -0.005864979
0.008457989 -0.03331871 0.1258065 0.08660239 0.037486613 -0.017192587 0.19374673 -0.07689371
-0.08173988 0.012981196 -0.060831193 0.0034851413 -0.0061595105 -0.0019953044 -0.12596619 0.110554814
0.08211084 -0.013945848 -0.05996445 0.034327 -0.002798279 0.0537925 0.061671775 0.044233248
0.005055751 -0.014856512 0.0055686543 -0.01555093 0.10863546 0.04379612 -0.0598908 -0.0049441727
0.09153777 0.056720424 -0.023954997 -0.01529658 -0.0075840005 -0.10162876 0.047536135 0.016459454
0.098406896 0.006130799 0.03443435 0.0747683 -0.07367297 0.001225289 -0.024451673 -0.0431186
0.07946634 -0.04523801 -0.020108769 0.09842448 0.017753614 -0.023352973 0.011615912 -0.05588465
-0.06881213 0.030254548 -0.016661432 -0.056438155 0.018222159 0.03357864 0.06877634 -0.09853087
-0.042089958 -0.106104404 -0.12154063 -0.07405821 0.005872769 -0.001954073 0.0688873 0.025999863
-0.03452727 0.047621243 -0.011230594 0.02029999 -0.050901882 0.04873028 0.08557719 -0.03757499
0.058399048 -0.036188234 -0.019895896 -0.0008490294 -0.016365176 0.07714892 0.13864805 0.13175268
0.14995186 -0.045729052 -0.017251631 0.052759092 0.021475608 -0.1159831 -0.036520943 0.12405804
00000000: a5e3 cabd 3c76 813d eb22 89ba 9948 773d
00000010: 280e b53d 1579 013d c8b9 b63d a42c afbc
00000020: 6ec6 8fba 0483 ffbd 9fd3 eb3b f902 d33c
00000030: 92fb c03d 9750 b73d 6346 c8bd 3176 8c3d
00000040: f4ad 193d 865f 8a3d 3d53 953c c8a2 463c
00000050: 8e67 1fbd 73a2 283d dfa4 a0bb 024d e1bc
00000060: 7952 0abc 35bd 53bd 3b6a f13c 46a0 223d
00000070: d5d5 773d a4a2 a2bd d037 26bc 8a53 2ebd
00000080: 9ded 9cbd 3987 74bd c5ad 27bd 26b1 42bd
00000090: f360 b33d 1e7c c0bc b7d5 453c 304a 2ebc
000000a0: a465 063b dfb6 f4bc 61bd 26bd 3e44 53bd
000000b0: 35aa 57bc 92db a4bc 00dc febc 7017 cebc
000000c0: 9a5f d83d d338 6fbd adf3 99bc 1fad 533c
000000d0: 0b0f 2abe 3480 023e 1a8f f9bb c1db 5ebd
000000e0: 9f78 3fbd 2681 17bd 4fde 9ebd 1da8 99bd
000000f0: 2bfb 3bbd c716 42bc 129b e73c f9f7 eebc
00000100: e793 853d bf3e ccbd eeae 27be c6a1 94bc
00000110: 4d30 f2bc 577a 94bd aeb4 953c 79fb 133d
00000120: a0a0 b2bc 9250 8fbd be81 14bd afde 833d
00000130: 49b5 803d d279 8bbc 8247 823b 4a1a e63c
00000140: 61c5 203d 8093 d23c b224 93bd 763d 333d
00000150: 72bd 68bd 4fa3 c1bd fa44 c5bc c74d 87bd
00000160: 0597 22bb 42f5 aa3c d99c be3c 0b93 5b3d
00000170: 44cb c7ba 8eb1 003d 4877 8ebc 7fc1 81bd
00000180: 1379 49bd c3ce e23c 984b 22ba 483c 163d
00000190: 2365 f13d 158b a13c 407e 4dbd 4e35 853d
000001a0: 9346 a93d 8665 8739 13d7 063d 9908 79bc
000001b0: 6ae1 293e eec0 45bd b6eb d53b eb72 1f3d
000001c0: 15e3 78bd f483 a73d 9612 a33c fec2 4fbc
000001d0: 0534 7c3d b38d 99bd f09e 933c 15a2 83bc
000001e0: 07f9 6c3d 018d 27bd 6170 54be f070 02be
000001f0: dd11 19bd 87b9 31bd e947 09bd 2e98 e8bc
00000200: 3c35 83bd 9bd9 a9b9 0c1e 3a3d 29a5 a6bd
00000210: 1b36 7f3d bbdf 493c e860 86bd 4e51 59bd
00000220: 547c 4abd c144 3dbd 067d 0f3d 88ad 18bd
00000230: 8a16 8fbd 4af3 ea3d 1491 88bd 839f 21bc
00000240: 1288 4c3d c05f 003c d418 f2bc 3385 d93c
00000250: 4d23 453d 5df7 fcbc fdbe 1dbb 9890 123d
00000260: cf8b 33bd 5f0d cb3c 203a 73bd 7473 c0bc
00000270: eb2d a9bd ca38 233d 318b e13d 022f c0bb
00000280: 6193 0a3c 3379 08bd 6bd3 003e 985c b13d
00000290: 908b 193d 78d7 8cbc 8b65 463e 737a 9dbd
000002a0: 3d67 a7bd 15af 543c 212a 79bd f866 643b
000002b0: b8d5 c9bb a7c3 02bb 48fd 00be 906a e23d
000002c0: ba29 a83d 207d 64bc 489d 75bd 789a 0c3d
000002d0: 5563 37bb 8655 5c3d 8b9b 7c3d ec2d 353d
000002e0: b7aa a53b ba68 73bc 4279 b63b 54c9 7ebc
000002f0: 457c de3d 8f63 333d 0e50 75bd ba02 a2bb
00000300: 2878 bb3d ad53 683d 453d c4bc 829e 7abc
00000310: 3583 f8bb bd22 d0bd 40b5 423d fad5 863c
00000320: 8e89 c93d dfe4 c83b 080b 0d3d 1f20 993d
00000330: dbe1 96bd e099 a03a e04e c8bc 219d 30bd
00000340: 40bf a23d 7e4b 39bd 25bb a4bc c692 c93d
00000350: 0770 913c bc4e bfbc ab50 3e3c 4ee7 64bd
00000360: 60ed 8cbd 63d8 f73c 8e7d 88bc b22b 67bd
00000370: a346 953c c289 093d 9cda 8c3d 8eca c9bd
00000380: 8566 2cbd 444d d9bd 4bea f8bd d5ab 97bd
00000390: 5b70 c03b e80f 00bb c914 8d3d aafd d43c
000003a0: 776c 0dbd 7e0e 433d 8600 38bc 2a4c a63c
000003b0: 7e7e 50bd 6799 473d 1843 af3d 3ce8 19bd
000003c0: d733 6f3d 1d3a 14bd b8fc a2bc 6691 5eba
000003d0: 4310 86bc 4100 9e3d c1f9 0d3e 2dea 063e
000003e0: fb8c 193e 634e 3bbd 4b53 8dbc eb19 583d
000003f0: 9ded af3c 8c88 edbd fc96 15bd 2412 fe3d

network_body._body_endoder.seq_layers.4.bias f4 [256]
0.0033473135 0.00016532135 0.00183673 -0.0016093041 6.05798e-05 0.001078118 -0.0013043437 0.0018464839
0.004438166 0.0044548595 -0.0016545883 0.0015188154 0.00057142775 0.0044088056 0.00063241547 -1.0276492e-06
0.005677408 0.0041738627 -0.0031503167 0.002616583 0.0074631716 0.000984588 0.004335418 0.0012933474
0.0019139542 -0.0006006028 0.0008640811 0.0033854712 0.00023106489 0.0013830289 0.0009828599 0.0022156183
-1.1800186e-06 -0.00013496731 0.0031537372 0.002378519 0.0012937037 0.0030725612 0.0005037858 0.0020682418
0.0007908383 0.0001432324 0.0043920693 0.0007897694 0.00479034 -0.0018669697 -0.00068599597 0.0056150686
0.0019414191 0.0021647438 -0.0018867691 0.0051235487 0.0037468 -0.0023089184 0.006064374 0.0007438167
0.0011606098 0.0022496872 0.005093629 0.0058174753 0.0016926286 0.0040612575 0.003662256 0.0029301844
-0.003142194 0.0033480679 0.0014036084 0.00371881 -0.0012319047 0.0038991778 0.002713749 0.0026558004
0.0021604116 0.005765365 -0.0013242104 0.007291078 0.0003161317 0.0028724442 0.003332992 -0.0011283392
-0.00031569734 0.0013322594 0.0059256568 0.0033632542 -0.0015069811 0.005042585 0.0037488055 -0.00044434465
0.004292294 -0.0007983579 -0.00068226294 0.0019904594 0.0024448058 0.002042009 0.0006082196 0.0006564348
0.000978833 0.0024576227 0.00394525 0.00089573924 0.0021175602 -9.799646e-05 0.0025759016 0.0028167013
0.0016441689 -0.0024603887 -0.000109991466 0.00483507 0.003585426 1.8701976e-06 0.0033438804 -0.0017018964
0.0036710012 0.0033442369 -0.0028303978 0.0018104358 0.002852298 -0.0013669665 -0.0025728075 0.000415093
-0.0026009069 0.0014487591 0.004538652 0.0029225084 -0.0015178072 -0.00013920915 -0.0007002939 -0.00326448
0.0024686689 0.0028420156 0.003812773 0.0017170486 0.0014602708 1.6800013e-05 -0.0023826137 0.00033205107
0.004983427 0.0035773555 0.0013603502 -0.0033752292 0.002862293 -0.00046251237 -0.00017265943 -0.0015799515
0.0017302991 0.004696089 0.003606346 0.0025046673 0.00073275965 0.0032349103 0.00040129334 0.00056411757
0.006222452 0.0015918161 0.00316726 -0.0011045621 0.004925883 0.002271284 0.0014034287 0.005311486
0.0031916997 0.0013223788 0.004891504 0.0020731103 0.0004835797 -0.0019444819 0.00023210021 0.0016283147
0.00023301694 0.0038625451 0.0010338534 0.0030119317 0.0018090251 0.0035345997 0.0010111649 0.0016933414
0.00033402452 -0.001683787 0.00460092 0.0024125539 0.0069136596 0.0021308586 0.00029618698 0.005847038
-0.0043527014 0.001032735 0.0022274063 0.0028936001 0.00329539 0.0019582293 -0.0008845353 -0.0018556442
0.0075694555 0.0015837473 -0.0018106822 -0.0007923653 0.0034379442 0.005477966 0.00079972023 -0.0019568114
0.001172117 8.560038e-05 0.0060227094 0.0026648766 0.0012553257 0.0026744388 0.0017294916 0.003444256
0.0039199837 0.00024003052 0.004520295 0.0028887074 -0.0015063611 0.0059816022 0.00013470706 0.0008309265
-0.00013078238 0.0068834024 -0.0005382392 0.0024388996 -0.002706887 -0.0006329709 0.003575978 0.0010952307
-0.0015301899 0.0048513412 0.0018375623 0.0008771259 0.0042502307 0.0028236355 0.0034327968 0.0022233713
0.0020543684 0.00044157187 0.002588707 0.006627585 0.0048077325 0.0041259923 -0.0009012172 -0.0001448074
0.00069346046 -0.0009685039 0.0006948009 0.00095458934 0.0039658304 -0.0005127931 -0.00084210513 0.0026604382
0.004053627 0.001063219 0.0021532832 0.001409084 0.0052866875 0.006440505 8.546656e-05 -0.003413029
00000000: 9a5e 5b3b 1d5a 2d39 6fbe f03a 49ef d2ba
00000010: 1117 7e38 a34f 8d3a 83f6 aaba b805 f23a
00000020: 096e 913b 12fa 913b c5de d8ba fd12 c73a
00000030: decb 153a be77 903b afc8 253a c2ed 89b5
00000040: 8d09 ba3b e6c4 883b 8b75 4ebb fa7a 2b3b
00000050: 9f8d f43b 4b0d 813a 1f10 8e3b 8a85 a93a
00000060: a5dd fa3a c671 1dba 8083 623a c8de 5d3b
00000070: 024a 7239 c046 b53a 4ed3 803a e833 113b
00000080: 2161 9eb5 0386 0db9 eeae 4e3b ede0 1b3b
00000090: 7e91 a93a 065d 493b 7e10 043a 578b 073b
000000a0: 4350 4f3a a830 1639 59eb 8f3b 8708 4f3a
000000b0: 49f8 9c3b 1cb5 f4ba 69d4 33ba 9cfe b73b
000000c0: 3777 fe3a 60de 0d3b 774d f7ba 71e3 a73b
000000d0: df8c 753b 3951 17bb a8b7 c63b b2fc 423a
000000e0: 9a1f 983a 7d6f 133b 75e8 a63b 85a0 be3b
000000f0: 31db dd3a 4c14 853b 7602 703b 5608 403b
00000100: 44ed 4dbb 426b 5b3b 48f9 b73a 47b7 733b
00000110: dd77 a1ba 5989 7f3b 27d9 313b f00c 2e3b
00000120: b195 0d3b 63eb bc3b 2191 adba ffe9 ee3b
00000130: 7bbe a539 9e3f 3c3b 546e 5a3b c8e4 93ba
00000140: 2e84 a5b9 359f ae3a 032c c23b 0b6a 5c3b
00000150: e585 c5ba 453c a53b 85ae 753b eef6 e8b9
00000160: 5fa6 8c3b e448 51ba e4d9 32ba 5e72 023b
00000170: 0939 203b 3ad3 053b ed70 1f3a 9814 2c3a
00000180: 2f4c 803a 1110 213b 2847 813b 0bd0 6a3a
00000190: c4c6 0a3b 7383 cdb8 75d0 283b 6898 383b
000001a0: 2781 d73a 793e 21bb 38ab e6b8 826f 9e3b
000001b0: 77f9 6a3b 8003 fb35 0125 5b3b 2b12 dfba
000001c0: 2e95 703b fc2a 5b3b 327e 39bb 254c ed3a
000001d0: 9fed 3a3b c92b b3ba 8c9c 28bb d7a0 d939
000001e0: fa73 2abb 4ae4 bd3a f9b8 943b 8e87 3f3b
000001f0: 29f1 c6ba acf8 11b9 ee93 37ba e3f0 55bb
00000200: 64c9 213b 1c41 3a3b b7df 793b 970e e13a
00000210: 8f66 bf3a c1ed 8c37 a025 1cbb 2417 ae39
00000220: 044c a33b 1172 6a3b c74d b23a f332 5dbb
00000230: 4f95 3b3b 5c7d f2b9 ea0b 35b9 6016 cfba
00000240: 34cb e23a a6e1 993b 7258 6c3b 5825 243b
00000250: ab16 403a ca00 543b ae64 d239 4ae1 133a
00000260: b6e5 cb3b 7ca4 d03a ce91 4f3b f4c6 90ba
00000270: 4d69 a13b d2d9 143b 41f3 b73a f90b ae3b
00000280: d62b 513b ab53 ad3a e948 a03b 05dd 073b
00000290: f888 fd39 fcdd feba ed5f 7339 2d6d d53a
000002a0: 0256 7439 c122 7d3b 5d82 873a d463 453b
000002b0: cf1c ed3a bea4 673b 1089 843a 1cf3 dd3a
000002c0: 0320 af39 84b2 dcba 50c3 963b f01b 1e3b
000002d0: fb8b e23b e0a5 0b3b 8b49 9b39 8298 bf3b
000002e0: 1ba1 8ebb d65c 873a adf9 113b 8ea2 3d3b
000002f0: 78f7 573b a355 003b 29e0 67ba 1639 f3ba
00000300: 3209 f83b be95 cf3a 6a54 edba bcb6 4fba
00000310: 224f 613b 8280 b33b 51a4 513a d93d 00bb
00000320: b8a1 993a 5b84 b338 265a c53b 36a5 2e3b
00000330: be89 a43a a345 2f3b 1cb0 e23a 07b9 613b
00000340: 3573 803b b4b0 7b39 fc1e 943b 7850 3d3b
00000350: 1771 c5ba 5101 c43b 2740 0d39 89d2 593a
00000360: a122 09b9 2a8e e13b 9f18 0dba f2d5 1f3b
00000370: 0766 31bb f5ed 25ba f55a 6a3b d88d 8f3a
00000380: a790 c8ba 00f8 9e3b 5cda f03a ecee 653a
00000390: 8545 8b3b be0c 393b c6f8 603b fbb5 113b
000003a0: 95a2 063b c682 e739 4ca7 293b 362c d93b
000003b0: 2f8a 9d3b 5533 873b aa3f 6cba 71d7 17b9
000003c0: 58c9 353a 32e3 7dba 4d23 363a 683d 7a3a
000003d0: ccf3 813b f66c 06ba b8c0 5cba bf5a 2e3b
000003e0: 4ad4 843b b65b 8b3a 191e 0d3b 03b1 b83a
000003f0: f33b ad3b df0a d33b 833c b338 20ad 5fbb
