results/R8/AgentController/AgentController-499974.onnx (onnx, 657373 bytes, 14 tensors)

83 f4 [116]
0.26203075 0.17397055 0.20266658 0.26399848 0.25846478 0.17097998 0.20021491 0.26448992
0.26345837 0.17694886 0.20213969 0.26477164 0.25415942 0.16711733 0.19750273 0.26625997
0.26232338 0.18043445 0.19747017 0.26628596 0.24783789 0.16361827 0.19171527 0.2676993
0.26010013 0.18042457 0.19427416 0.2687057 0.24490109 0.16295272 0.18823178 0.26960936
0.25807706 0.1819588 0.18989204 0.27058864 0.24374412 0.1630119 0.18657304 0.27133223
0.25488317 0.18048966 0.18659733 0.27273852 0.24773742 0.16712323 0.18858111 0.27299717
0.2521915 0.17785302 0.18515988 0.27493358 0.25099513 0.17197008 0.18879361 0.27356666
0.24965054 0.17575368 0.18338417 0.27476424 0.25248012 0.17418033 0.18898988 0.27286452
0.24710643 0.17563513 0.1797978 0.27328092 0.25079966 0.17566353 0.18522625 0.27081016
0.24473394 0.17517114 0.17677335 0.27088508 0.25291118 0.18023401 0.18394576 0.2682972
0.24535966 0.17571561 0.17717011 0.26841843 0.25688747 0.18419755 0.18596938 0.2656359
0.2454736 0.17469735 0.17834264 0.2664191 0.26150042 0.18733364 0.18976973 0.2639266
0.24957411 0.17845047 0.18073355 0.26406142 0.26356813 0.18935272 0.19087808 0.26239517
0.25451562 0.18282057 0.1837892 0.26235276 0.26145554 0.18839565 0.18864882 0.26198372
0.26145554 0.18839565 0.18864882 0.26198372
00000000: e528 863e 5625 323e d487 4f3e cf2a 873e
00000010: 7f55 843e 6015 2f3e 2305 4d3e 396b 873e
00000020: 04e4 863e 1532 353e b5fd 4e3e 2690 873e
00000030: 2f21 823e ce20 2b3e 283e 4a3e 3a53 883e
00000040: 404f 863e cfc3 383e 9f35 4a3e a256 883e
00000050: 37c9 7d3e 8c8b 273e 0251 443e e20f 893e
00000060: d82b 853e 38c1 383e ceef 463e cb93 893e
00000070: 5ac7 7a3e 14dd 263e d5bf 403e 3d0a 8a3e
00000080: ad22 843e 6853 3a3e 0f73 423e 988a 8a3e
00000090: 0f98 793e 97ec 263e 010d 3f3e 0fec 8a3e
000000a0: 0c80 823e 48d2 383e 5f13 3f3e 62a4 8b3e
000000b0: e1ae 7d3e 5a22 2b3e 681b 413e 49c6 8b3e
000000c0: 3f1f 813e 1a1f 363e 8d9a 3d3e 18c4 8c3e
000000d0: 6f82 803e ed18 303e 1d53 413e ee10 8c3e
000000e0: 64a4 7f3e c6f8 333e 0fc9 3b3e e6ad 8c3e
000000f0: 1345 813e 545c 323e 9086 413e e6b4 8b3e
00000100: 7809 7d3e b2d9 333e ea1c 383e 7aeb 8b3e
00000110: d068 803e 24e1 333e f3ab 3d3e a1a7 8a3e
00000120: 899b 7a3e 1060 333e 1304 353e 73b1 8a3e
00000130: 937d 813e 448f 383e 475c 3c3e 405e 893e
00000140: 903f 7b3e cbee 333e 156c 353e 246e 893e
00000150: c186 833e 489e 3c3e c26e 3e3e 6e01 883e
00000160: 6e5d 7b3e dde3 323e 749f 363e 1668 883e
00000170: 62e3 853e 64d4 3f3e ff52 423e 6321 873e
00000180: 5b90 7f3e b8bb 363e 3712 393e 0f33 873e
00000190: 67f2 863e aee5 413e 8b75 433e a958 863e
000001a0: df4f 823e 5135 3b3e 3c33 3c3e 1a53 863e
000001b0: 80dd 853e caea 403e 282d 413e bb22 863e
000001c0: 80dd 853e caea 403e 282d 413e bb22 863e

86 f4 [3]
4.1261277 0.0054084985 7.7614956
00000000: 3d09 8440 c639 b13b 2c5e f840

action_model._continuous_distribution.log_sigma f4 [1, 2]
0.006871933 0.003384802
00000000: f42d e13b 8ed3 5d3b

action_model._continuous_distribution.mu.bias f4 [2]
0.001076105 -0.000503654
00000000: 180c 8d3a a607 04ba

action_model._continuous_distribution.mu.weight f4 [2, 256]
0.005739394 0.0011261782 0.014725582 -0.0027001754 0.009189873 0.01144946 -0.0058605275 -0.009593705
0.014735474 0.0017063228 -0.0031059596 0.0018336604 -7.1300965e-05 0.0039735907 -0.009357609 -0.0060720346
0.01368201 0.0007560004 -0.0054323804 0.0143352505 0.019388828 0.014404141 0.010830146 -0.0033615178
0.0057044285 -0.0018526008 -0.0043375744 -0.005240687 -0.01656554 0.031413797 0.011787389 0.010690746
0.0008645563 -0.020375362 0.01678618 -0.010791376 -0.005949784 -0.004968789 -0.005622792 0.003708047
-0.024940986 0.00505501 0.027027728 -0.018786456 0.0068368893 0.00083422405 -0.00797347 0.0038698008
0.011515709 -0.02098394 -0.010612066 0.0023374956 0.026956066 -0.00065749086 0.030599993 -0.007230964
0.014856222 -0.0073652454 -0.01802018 -0.017656695 -0.0022277206 0.024109324 0.015061799 0.007926577
-0.0012460562 0.028816974 0.013168621 -0.011493753 -0.021018887 0.017040165 0.013471138 0.014491818
-0.010310133 0.007867472 -0.02418677 -0.0016964866 0.0049289274 0.0059930542 0.012743781 -0.013183535
-0.0059417426 0.009607984 0.006188459 0.005013586 -0.0014600211 0.013235369 0.0019810142 -0.009501013
-0.007443833 -0.01633839 -0.010581037 -0.0002871236 0.020112168 0.0031432218 0.0019531028 0.021336453
-0.0067016035 -0.023222666 0.0155893555 5.1601975e-05 -0.0044030827 -0.0026047805 -0.025805322 0.0005010389
0.0043856883 -0.007758784 -0.011106744 0.025211824 -0.022264084 -0.0012204855 -0.015536631 0.006916009
-0.028297398 -0.0140467705 -0.019248739 0.008048566 -0.008911225 0.0077928924 -0.01351129 -0.010462648
-0.01922694 -0.014638496 -0.005997129 0.010212334 0.012531998 -0.024308776 -0.0113238515 -0.011069647
-0.022573585 0.018177273 -0.030743102 0.004135533 -0.034585807 -0.018341016 -0.0125669455 -0.01810375
0.00081879523 0.01300441 0.016701952 -0.004513459 -0.013800652 -0.0028943364 0.006927454 -0.017704297
-0.017271707 -0.0063094115 0.016318906 0.009628501 0.0010292293 -0.008943659 0.013111347 0.017400384
0.02464494 -0.0084983455 0.02212204 -0.021703731 0.012466409 0.01153158 -0.015200694 0.0126707675
0.0004896596 -0.022269368 0.005789719 -0.022925198 0.0071921404 -0.0017363925 -0.013348452 0.010347547
-0.022942431 -0.028316054 0.008680878 0.022466723 0.014187752 -0.019144436 0.0073634326 -0.0044506243
-0.0081690485 0.0037142201 0.02592638 0.012929098 0.016088052 -0.015677296 -0.011334653 0.018386776
-0.0031667387 0.016746305 -0.02826977 0.009125523 0.008108296 0.02099379 -0.018646045 -0.008549706
0.02981819 0.01769085 0.0056449757 -0.00022112037 0.028835319 0.027328268 -0.0020810245 0.0026067707
-0.02277465 0.002394183 0.027596813 0.005832983 -0.007708362 0.0143801905 0.012589212 -0.003947224
-0.032529037 0.00015107729 -0.006227421 0.022263754 -0.013422175 0.037234817 -0.0007440371 0.010552574
0.010029782 0.027161537 -0.00868632 0.026826441 -0.0060096695 -0.029620977 0.027532896 0.00085065345
-0.017605418 0.011568321 -0.024160976 0.007537733 0.011645532 0.009268221 0.004715004 0.013335271
-0.0025354167 0.011628677 0.0113519775 0.0041343407 -0.0032394824 -0.0026337164 -0.0051399306 -0.00063693355
-0.010603346 -0.023383431 0.0065895035 -0.0063186386 -0.0067490297 -0.010469118 -0.024433333 0.014593603
0.0049926504 -0.027817486 0.017898804 -0.022359118 0.020468954 -0.014622249 0.006322171 -0.0099004535
00000000: 8711 bc3b 459c 933a 9143 713c 6df5 30bb
00000010: 1f91 163c 8496 3b3c ab09 c0bb ea2e 1dbc
00000020: 0f6d 713c b1a6 df3a 5b8d 4bbb 6f57 f03a
00000030: 6a87 95b8 e534 823b a850 19bc ebf7 c6bb
00000040: 822a 603c 542e 463a 1c02 b2bb 66de 6a3c
00000050: 52d5 9e3c 59ff 6b3c ed70 313c e94c 5cbb
00000060: 37ec ba3b f8d2 f2ba 3622 8ebb 12ba abbb
00000070: 75b4 87bc c1ab 003d e51f 413c 3d28 2f3c
00000080: 64a3 623a 3bea a6bc 2c83 893c 50ce 30bc
00000090: 68f6 c2bb 39d1 a2bb 663f b8bb b502 733b
000000a0: 0a51 ccbc 7fa4 a53b 4169 dd3c 0ee6 99bc
000000b0: fc07 e03b d4af 5a3a 28a3 02bc 7c9c 7d3b
000000c0: 62ac 3c3c 83e6 abbc 3bde 2dbc ab30 193b
000000d0: f8d2 dc3c 775b 2cba d6ac fa3c b9f1 ecbb
000000e0: 8367 733c 2858 f1bb 0e9f 93bc c6a4 90bc
000000f0: f3fe 11bb eb80 c53c c4c5 763c 79de 013c
00000100: b552 a3ba 9311 ec3c 33c1 573c 4b50 3cbc
00000110: cd2f acbc d197 8b3c 0cb6 5c3c 176f 6d3c
00000120: d5eb 28bc 92e6 003c 5523 c6bc a55c deba
00000130: d782 a13b 6261 c43b 4bcb 503c c1ff 57bc
00000140: f3b2 c2bb ce6a 1d3c 8fc8 ca3b 0249 a43b
00000150: 2e5e bfba 29d9 583c e7d3 013b 23aa 1bbc
00000160: 66eb f3bb 16d8 85bc 165c 2dbc 1489 96b9
00000170: 46c2 a43c 83fe 4d3b 41ff ff3a c9c9 ae3c
00000180: 2099 dbbb 763d bebc 7f6a 7f3c 336f 5838
00000190: bc47 90bb f7b4 2abb af65 d3bc 2758 033a
000001a0: d2b5 8f3b 663d febb 10f9 35bc 0789 ce3c
000001b0: 2b63 b6bc b3f8 9fba 5b8d 7ebc b09f e23b
000001c0: f2cf e7bc 6d24 66bc 88af 9dbc 22de 033c
000001d0: 6300 12bc 855b ff3b 755e 5dbc 876b 2bbc
000001e0: d181 9dbc 4dd6 6fbc 9083 c4bb a251 273c
000001f0: 0253 4d3c 3323 c7bc ad87 39bc 775d 35bc
00000200: 3dec b8bc 81e8 943c f5d8 fbbc 5d83 873b
00000210: d9a9 0dbd e63f 96bc 97e5 4dbc 514e 94bc
00000220: 6ba4 563a 7310 553c 88d2 883c a3e5 93bb
00000230: 211c 62bc e8ae 3dbb b2ff e23b 9a08 91bc
00000240: 657d 8dbc 2ebf cebb 3aaf 853c dcc0 1d3c
00000250: 34e7 863a 6d88 12bc fad0 563c 408b 8e3c
00000260: 2fe4 c93c a53c 0bbc 4839 b53c 06cc b1bc
00000270: e93f 4c3c f4ee 3c3c 550c 79bc 0d99 4f3c
00000280: 805c 003a 406e b6bc afb7 bd3b a0cd bbbc
00000290: 0cac eb3b aa97 e3ba 77b3 5abc c288 293c
000002a0: c4f1 bbbc 12f7 e7bc 3e3a 0e3c 220c b83c
000002b0: bf73 683c cbd4 9cbc f348 f13b 8bd6 91bb
000002c0: 79d7 05bc 466a 733b 8f63 d43c 91d4 533c
000002d0: 17cb 833c ac6d 80bc fbb4 39bc dd9f 963c
000002e0: 0f89 4fbb 8c2f 893c 0196 e7bc 3883 153c
000002f0: a9d8 043c 2bfb ab3c 97bf 98bc 1114 0cbc
00000300: 4745 f43c 67ec 903c 7df9 b83b 8cdc 67b9
00000310: 0c38 ec3c 88df df3c cc61 08bb 5bd6 2a3b
00000320: e791 babc bae7 1c3b b612 e23c 9c22 bf3b
00000330: 6d96 fcbb e49a 6b3c fb42 4e3c b757 81bb
00000340: 2b3d 05bd 806a 1e39 650f ccbb 7a62 b63c
00000350: afe8 5bbc 8983 183d 7c0b 43ba b4e4 2c3c
00000360: f453 243c df81 de3c 1151 0ebc 20c3 db3c
00000370: c3ec c4bb b1a7 f2bc ab8c e13c 63fe 5e3a
00000380: 3d39 90bc 0e89 3d3c 3ded c5bc 16ff f63b
00000390: e7cc 3e3c bdd9 173c 5280 9a3b 2e7c 5a3c
000003a0: 3c29 26bb 3586 3e3c a5fd 393c 5d79 873b
000003b0: 7f4d 54bb 6e9a 2cbb dd6c a8bb e3f7 26ba
000003c0: a8b9 2dbc 9c8e bfbc c3ec d73b 950c cfbb
000003d0: f726 ddbb aa86 2bbc 6a28 c8bc 021a 6f3c
000003e0: 6399 a33b 7fe1 e3bc 83a0 923c 782a b7bc
000003f0: 82ae a73c 2892 6fbc 372a cf3b 8335 22bc

action_model._discrete_distribution.branches.0.weight f4 [1, 256]
-0.008396651 -0.0019938417 0.007226042 0.00507069 -0.0007414219 -0.0015519524 0.0073635615 0.010428259
-0.007737358 0.0034705603 -0.0024670267 -0.0037426103 -0.00954588 0.01169681 0.011680733 0.0011824379
-0.00017853687 -0.0040124673 -0.004696579 -0.003008253 0.0074954084 -0.0067333207 -0.0107031865 -0.004231566
0.0010688467 0.0033311234 -0.007396558 0.0022765552 0.000120380886 0.0063523436 -0.0040321043 -0.0005416394
-0.0063526235 0.0053746537 -0.0020002236 0.0010189957 0.006592501 -0.0027743771 -0.002721927 0.0010673051
0.003579593 0.017492184 -0.0042767306 0.0034759596 0.004817178 0.008326237 0.0083607 0.009285615
0.00070748775 0.00093399995 0.005281322 -0.009062688 -0.0057546655 -0.0018048671 -0.009726944 0.01642212
-0.0060588247 0.00902963 -0.010120177 0.0053012026 0.0038014308 -0.005283204 0.0069417837 -0.00070176285
-0.0074497215 -0.0027776507 -0.0019557567 0.0023464065 -0.020436568 -0.01075601 -0.0032409194 0.011060714
0.0014249395 -0.0036832446 -0.012782402 -0.005783136 -0.003380308 0.005318391 0.0023264103 0.006690103
0.011186226 -0.006725841 -0.0029076112 -0.0042651203 -0.015150623 -0.012776894 0.01975212 -0.0014855246
0.009308887 0.008249383 -0.0059135426 -0.0021963983 0.0013136229 -0.0017108038 -0.006536133 -0.0004524841
0.0015207854 0.0038868252 -0.0014264582 0.0010590592 0.008644518 0.0005087137 -0.010731821 0.003712397
0.009602993 0.004271514 0.0016454954 0.0053915996 5.264131e-05 -0.0015889843 -0.00019296557 -0.000342139
-0.006739118 -0.005854959 0.0010200556 0.0048409034 -0.0055880686 -0.000107766726 0.0052823955 -0.005728848
0.0006104707 0.004120327 0.011520094 -0.0036033546 -0.00094395195 0.0013736677 -0.0018899682 -0.0010383116
-0.0042632343 -0.011518004 0.008123877 0.0019572591 0.006421581 6.654942e-05 0.0022459568 -0.0035780824
-0.0037635867 -0.001113415 -0.0025519885 0.00626127 0.00016428996 0.00899678 -0.003762625 0.00216113
0.0016403946 -0.003003683 0.007632607 -0.00490893 -0.0043045 0.008288379 0.00752376 0.004961591
-0.002001213 0.0061516943 -0.008426553 -0.0037677025 -0.0004534005 0.0007348524 -0.014173749 -0.0008334566
-0.005235856 -0.0019378655 0.0022717204 0.0012435981 0.004916408 -0.0064445594 0.0034343374 -0.0027805627
0.0029556514 -0.006937863 0.0018317209 0.0041571646 -0.004088846 0.0049149487 0.0062514357 0.0090653505
-0.0034971894 -0.0045167934 -0.0044817715 -7.4029263e-06 0.0003758416 0.002676631 0.0019867301 0.0124615
0.004993087 -0.0024253868 0.0031344679 -0.003966567 0.0004979566 0.010171351 -0.00495949 -0.0014309952
0.0015989451 0.015849495 0.0038009398 0.0026074008 0.013216889 -0.0035396402 0.005475254 -0.005319745
6.9475216e-05 -0.0051379586 -0.002071248 0.0022041781 0.010590809 0.00617513 -0.0020764207 -0.014932645
0.0055860984 -0.01164517 -0.009343939 0.0014852021 -0.0049094106 0.005654746 0.003485559 0.004539456
0.001721184 0.011480914 -0.009366973 -0.0038293276 -0.010957096 -0.010616069 -0.0028100135 -0.01390595
0.0045212284 -0.012708542 -0.0039313505 -0.00799955 0.0049868715 -0.008276771 -0.0048575946 -0.00658559
0.021412488 0.0047606523 -0.0048554535 0.0052760644 0.003497868 -0.00038121254 -0.0008604617 0.011927677
-0.0037830658 0.0057005384 0.0031954055 -0.0010017168 0.0025768967 0.006462318 0.001164202 0.0032912686
-0.0028519693 -0.0015733301 0.0100924065 0.007847173 -0.0024473963 0.006873153 -0.006167016 0.0039123585
00000000: 1b92 09bc 1dab 02bb 6fc8 ec3b 0828 a63b
00000010: fb5b 42ba e26a cbba 084a f13b 4adb 2a3c
00000020: aa89 fdbb 5772 633b d7ad 21bb 9546 75bb
00000030: 5366 1cbc faa3 3f3c 8c60 3f3c 08fc 9a3a
00000040: a035 3bb9 047b 83bb c3e5 99bb 1c26 45bb
00000050: 0b9c f53b 30a3 dcbb 6b5c 2fbc f3a8 8abb
00000060: 8b18 8c3a fa4e 5a3b d35e f2bb 4232 153b
00000070: ff74 fc38 5227 d03b be1f 84bb cefc 0dba
00000080: ab29 d0bb dd1d b03b 2f16 03bb d28f 853a
00000090: e805 d83b 53d2 35bb 5b62 32bb d1e4 8b3a
000000a0: 9b97 6a3b c54b 8f3c d123 8cbb edcc 633b
000000b0: 6bd9 9d3b c56a 083c 51fb 083c b122 183c
000000c0: b376 393a add7 743a f10e ad3b ab7b 14bc
000000d0: a291 bcbb 4a91 ecba c35d 1fbc af87 863c
000000e0: 1b89 c6bb 03f1 133c 19cf 25bc b6b5 ad3b
000000f0: 6d21 793b ba1e adbb e777 e33b 82f6 37ba
00000100: cb1c f4bb 3f09 36bb 272c 00bb 2bc6 193b
00000110: 976a a7bc fa39 30bc 9b65 54bb ff37 353c
00000120: 09c5 ba3a 9762 71bb 486d 51bc 7680 bdbb
00000130: 2888 5dbb e645 ae3b b076 183b a738 db3b
00000140: 6f46 373c 7264 dcbb 9f8d 3ebb 6cc2 8bbb
00000150: 523a 78bc 2d56 51bc 33cf a13c efb5 c2ba
00000160: 4d84 183c 6c28 073c 64c6 c1bb 73f1 0fbb
00000170: df2d ac3a 0d3d e0ba 0f2d d6bb 633b edb9
00000180: 1755 c73a 1bba 7e3b fff7 baba 21d0 8a3a
00000190: bda1 0d3c 335b 053a 85d4 2fbc b04b 733b
000001a0: df55 1d3c 0ef8 8b3b aaad d73a 04ac b03b
000001b0: 2dcb 5c38 7745 d0ba cd56 4ab9 1f61 b3b9
000001c0: d2d3 dcbb f5da bfbb 63b3 853a 71a0 9e3b
000001d0: 1e1c b7bb d200 e2b8 f217 ad3b 0fb9 bbbb
000001e0: ff07 203a cf03 873b c7be 3c3c 4226 6cbb
000001f0: 8b73 77ba a40c b43a cfb8 f7ba f517 88ba
00000200: 9ab2 8bbb 03b6 3cbc 031a 053c 5c45 003b
00000210: 206c d23b 7390 8b38 e730 133b 437e 6abb
00000220: 82a6 76bb 02f0 91ba 433f 27bb 572b cd3b
00000230: 4045 2c39 3b67 133c 5f96 76bb bfa1 0d3b
00000240: 8202 d73a 70d9 44bb f31a fa3b 17db a0bb
00000250: c30c 8dbb fbcb 073c e089 f63b d894 a23b
00000260: c826 03bb 2794 c93b 860f 0abc 8feb 76bb
00000270: 63b6 edb9 1ca3 403a 0339 68bc 537c 5aba
00000280: 8b91 abbb faff fdba 25e1 143b 3a00 a33a
00000290: d219 a13b e22c d3bb 9f12 613b 1a3a 36bb
000002a0: 9ab3 413b 0357 e3bb 5b16 f03a d338 883b
000002b0: bafb 85bb 940d a13b d8d8 cc3b d686 143c
000002c0: 1a31 65bb 9c01 94bb d3db 92bb a766 f8b6
000002d0: 9b0c c539 6b6a 2f3b cd33 023b 522b 4c3c
000002e0: 0d9d a33b 3df3 1ebb a56b 4d3b faf9 81bb
000002f0: 4d89 023a bda5 263c 3883 a2bb 3b90 bbba
00000300: b293 d13a cdd6 813c 3019 793b ede0 2a3b
00000310: a78b 583c 4ff9 67bb c269 b33b 4151 aebb
00000320: 39b3 9138 525c a8bb c6bd 07bb f973 103b
00000330: 1385 2d3c bf58 ca3b 8f14 08bb 0da8 74bc
00000340: 970b b73b 62cb 3ebc 5217 19bc 1dab c23a
00000350: 1fdf a0bb 734b b93b fa6d 643b b8bf 943b
00000360: 5a99 e13a 721a 3c3c ef77 19bc 75f5 7abb
00000370: 6485 33bc 05ef 2dbc 3428 38bb c8d5 63bc
00000380: d026 943b 7d37 50bc 8fd2 80bb 8b10 03bc
00000390: e968 a33b 4b9b 07bc 752c 9fbb efcb d7bb
000003a0: 3e69 af3c 3fff 9b3b 7f1a 9fbb d6e2 ac3b
000003b0: 7d3c 653b 7bdd c7b9 9b90 61ba 4e6c 433c
000003c0: 50ed 77bb 95cb ba3b 026a 513b 0a4c 83ba
000003d0: 27e1 283b dac1 d33b 2398 983a 53b2 573b
000003e0: 1be8 3abb 3338 ceba 9f5a 253c 6e91 003c
000003f0: 7f64 20bb 3038 e13b ae14 cabb 3e33 803b

network_body._body_endoder.seq_layers.0.bias f4 [256]
0.0035618811 0.0035574527 -0.0010494561 0.0004736697 0.002993483 7.135285e-05 0.00055509596 0.0037030375
0.0037368268 0.0040162387 0.0034739957 0.009097491 0.004064135 -0.0021090573 0.0026059963 0.0018353516
-0.0020633005 0.0035808936 0.005704706 0.0035279137 0.00058914424 0.0006070166 -0.0005079119 0.005690713
0.00019788054 0.0018867119 0.004177654 0.0007576627 -0.001186717 0.000981835 0.0070641316 0.0056619784
0.006954357 0.004826472 0.00011110236 0.012395957 0.0023270946 0.007842653 0.010158373 -0.005979574
0.0047431914 0.009425245 -0.0014072724 0.007859646 0.0054075425 0.00519428 -0.0022788888 0.00434729
-0.00266214 -0.00027413934 -0.007943439 0.00045824004 0.005668219 0.007829502 0.0030432774 0.0036452024
-0.0011628391 -0.005449828 0.0022472865 -0.0023698632 0.0015284538 0.007283854 0.0004607431 -0.0023273928
-0.0031388805 0.004918154 -0.003377118 0.0049199667 -0.0056777773 0.0021461253 0.0071597025 -0.0011704515
0.0010132607 0.00088388444 0.004442566 0.004589779 0.004635735 -0.0016587134 0.0035173642 -0.0015579324
-0.00094486686 -0.001589141 0.003640364 0.0012641095 0.008598847 -0.0031996428 0.004807459 0.00047561806
-0.004056311 0.00060876546 0.0067539476 -7.912518e-05 0.0063340254 0.009126925 0.008015126 0.0034995023
0.0016734215 0.0047285836 0.0101175755 0.0076315035 0.008067691 -0.0009241693 0.00979307 0.004688781
-0.006618628 0.006362208 -0.00029049208 0.008573631 0.0112324245 0.0042054513 0.0038207169 0.0033363956
0.001898018 0.008088174 0.0075947256 -0.007862088 -0.0046550753 0.001242423 0.0029259047 0.001196342
0.005458419 0.001058659 0.0121403225 -0.005925465 -0.00023850659 0.0044051367 0.0030456146 -0.00042925545
0.0016187151 0.0008339076 0.002058323 0.0012135847 -0.0017381284 0.0012489472 0.0022611304 0.0044285967
0.0007231527 -0.0035509951 -0.0029519624 -2.4659379e-05 0.0059434595 0.0054122102 0.0014352255 0.0027294224
-0.005205641 -0.013050145 0.0021285205 -0.0003519263 0.003581508 -0.00086777646 0.0030619595 4.3744945e-05
-0.00043381733 -0.0049551656 0.0006326869 0.0049396898 -0.0017355413 -0.0002043064 -0.0028825623 -0.0017432087
-0.00021919895 0.0029398801 0.003918234 0.0029793181 0.009782839 -0.005752928 -0.0010817933 0.00512559
-0.0029970782 0.0066179032 -0.0027841676 -0.00047121305 0.0038470472 -0.0012792813 0.0042551844 -0.0029524802
-0.00025222558 0.00603319 -0.00054983346 0.004010111 0.00658871 0.0068895333 0.005026526 0.003304458
-0.006958667 0.0077755884 -0.003540381 -0.00047889556 -0.0012977889 0.006813493 0.005319792 0.0033999055
0.003312687 0.000173361 0.008729617 -0.0013937384 0.0012034685 0.0069837384 0.006407593 0.004945981
0.009421555 0.00073331903 0.0016020482 0.009271473 0.0003911809 0.0037684394 0.0008229345 0.0007816527
0.0040563014 0.004548543 0.0060972995 0.0090628825 0.0020377953 0.006180197 -0.0017583536 0.0050856657
0.008512347 0.0024042432 -0.0022788278 -0.0007738861 -0.0029778155 0.0092532225 0.0042983163 -0.002274261
-2.8123042e-05 0.009536007 -0.00011232885 -0.0013943296 0.00091321947 0.0037304917 -0.0009673931 0.0071440167
0.002918624 0.004684608 -0.00030168385 0.0071820985 0.0087285945 0.0048540984 0.007149939 0.0040214173
0.004928962 0.0042939815 -0.0024445096 0.0011862905 0.007870847 -0.0036552367 -0.001281593 0.0041204076
-0.00067545107 0.00856284 -0.0020045193 0.006176118 0.006873604 0.003712166 0.009761291 0.004911519
00000000: 736e 693b 2724 693b e78d 89ba df56 f839
00000010: 502e 443b 45a3 9538 dc83 113a a9ae 723b
00000020: 8de5 743b a79a 833b faab 633b a50d 153c
00000030: 6f2c 853b 1c38 0abb 5dc9 2a3b 2e90 f03a
00000040: 7038 07bb 6dad 6a3b 8bee ba3b 9234 673b
00000050: cd70 1a3a 3220 1f3a 6425 05ba 2979 ba3b
00000060: 277e 4f39 8c4b f73a b4e4 883b e29d 463a
00000070: 9d8b 9bba eab0 803a 3b7a e73b 1e88 b93b
00000080: 60e1 e33b 6227 9e3b a0ff e838 6918 4b3c
00000090: 2b82 183b 797e 003c 4e6f 263c 4df0 c3bb
000000a0: c66c 9b3b 586c 1a3c 3a74 b8ba bfc5 003c
000000b0: c131 b13b c734 aa3b 6959 15bb b673 8e3b
000000c0: 4c77 2ebb 5cba 8fb9 3325 02bc f03f f039
000000d0: 78bc b93b 5047 003c b971 473b 59e4 6e3b
000000e0: 686a 98ba 7994 b2bb 3647 133b b54f 1bbb
000000f0: 6656 c83a 65ad ee3b e48f f139 2c87 18bb
00000100: adb5 4dbb 7728 a13b a352 5dbb ac37 a13b
00000110: a60c babb 02a6 0c3b f09b ea3b d669 99ba
00000120: 63cf 843a 7bb4 673a f292 913b db65 963b
00000130: 5de7 973b 3069 d9ba 9483 663b 8933 ccba
00000140: f1b0 77ba b94a d0ba 2c93 6e3b 7ab0 a53a
00000150: 2ee2 0c3c 19b1 51bb e487 9d3b 605c f939
00000160: ceea 84bb 8f95 1f3a 3850 dd3b 02f0 a5b8
00000170: a88d cf3b 1989 153c e051 033c e857 653b
00000180: b556 db3a 3cf2 9a3b 30c4 253c b111 fa3b
00000190: 592e 043c f443 72ba 1d73 203c 59a4 993b
000001a0: 13e1 d8bb 127a d03b 304d 98b9 6a78 0c3c
000001b0: 3408 383c e2cd 893b fe64 7a3b 6ea7 5a3b
000001c0: eac6 f83a 4384 043c 2ddd f83b fdcf 00bc
000001d0: 9a89 98bb ccd8 a23a 89c0 3f3b 94ce 9c3a
000001e0: 8adc b23b b4c2 8a3a 34e8 463c 672a c2bb
000001f0: a017 7ab9 f758 903b ef98 473b b10d e1b9
00000200: 112b d43a 979a 5a3a eee4 063b 2511 9f3a
00000210: e9d1 e3ba b7b3 a33a 792f 143b c31d 913b
00000220: f591 3d3a d0b7 68bb b675 41bb 9ddb ceb7
00000230: 5ac1 c23b e958 b13b 2d1e bc3a 1ce0 323b
00000240: 1594 aabb 46d0 55bc a67e 0b3b c082 b8b9
00000250: bcb7 6a3b 7e7b 63ba 28ab 483b c77a 3738
00000260: fa71 e3b9 f15e a2bb e6da 253a 1fdd a13b
00000270: 1a7b e3ba 153b 56b9 5fe9 3cbb 617c e4ba
00000280: c5d8 65b9 01ab 403b 8764 803b aa40 433b
00000290: 3348 203c 0f83 bcbb f6ca 8dba 91f4 a73b
000002a0: a16a 44bb ffda d83b 9576 36bb 250d f7b9
000002b0: be1e 7c3b 8fad a7ba 136f 8b3b 667e 41bb
000002c0: 253d 84b9 11b2 c53b b322 10ba 4067 833b
000002d0: 1be6 d73b 98c1 e13b 8eb5 a43b 9b8f 583b
000002e0: 8805 e4bb 5dca fe3b bd05 68bb 4614 fbb9
000002f0: 921a aaba b943 df3b a651 ae3b f3d0 5e3b
00000300: aa19 593b 3dc8 3539 ab06 0f3c 1aae b6ba
00000310: b4bd 9d3a d8d7 e43b c9f6 d13b e511 a23b
00000320: de5c 1a3c 353c 403a d1fb d13a 60e7 173c
00000330: 6917 cd39 ecf7 763b 33ba 573a d3e7 4c3a
00000340: b9ea 843b f20b 953b dbcb c73b 7c7c 143c
00000350: 888c 053b 4083 ca3b 8e78 e6ba a8a5 a63b
00000360: 5f77 0b3c 8290 1d3b 6358 15bb 9ede 4aba
00000370: 7427 43bb d49a 173c e4d8 8c3b c50b 15bb
00000380: c6e9 ebb7 ea3c 1c3c 1892 ebb8 f0c1 b6ba
00000390: 1f65 6f3a 447b 743b a798 7dba 5b18 ea3b
000003a0: 6346 3f3b 5781 993b 522b 9eb9 cf57 eb3b
000003b0: 6102 0f3c 210f 9f3b 094a ea3b 18c6 833b
000003c0: 2183 a13b 87b4 8c3b 1134 20bb 4e7d 9b3a
000003d0: baf4 003c b28c 6fbb 20fb a7ba 7c04 873b
000003e0: c110 31ba 274b 0c3c 415e 03bb 0861 ca3b
000003f0: f83b e13b d047 733b d2ed 1f3c cff0 a03b

network_body._body_endoder.seq_layers.0.weight f4 [256, 119]
0.06107635 0.09424006 -0.02605306 -0.011630002 -0.0089064455 -0.06468624 -0.025966745 0.023344267
-0.056612797 0.09186941 -0.103165776 0.060488652 -0.12564084 -0.072449334 0.04361406 0.027725726
-0.122789375 -0.36654717 0.055721283 0.061987717 -0.20632614 0.048695985 0.13335367 -0.08683208
0.13227157 -0.0075846207 -0.06198998 0.059824582 -0.085190915 -0.06996171 -0.00038928183 -0.09059885
-0.103147194 0.120713115 0.112477005 0.018138807 -0.051935986 0.021066576 -0.087600164 0.07495552
-0.1431338 -0.0708037 -0.030887125 0.056945525 -0.060548313 0.06329392 -0.107011594 -0.007645398
0.020625921 -0.010285583 0.047285914 0.14000916 0.080539376 0.06588587 -0.11664729 0.034468543
-0.052651335 -0.008642844 0.048737008 0.07464089 0.10643494 0.10320459 -0.016013443 -0.111577146
-0.0004900256 -0.07693898 -0.23373601 0.034508176 -0.065491796 0.06685936 -0.096390784 0.05680708
0.018887628 -0.15481317 0.04529206 -0.017149158 -0.205769 0.020741718 -0.007411564 0.15083343
-0.10995735 0.08498331 0.05299568 -0.027865965 -0.07171659 -0.13769 0.12649898 0.100228354
0.019866176 0.060567837 0.04104665 0.09766655 -0.06495542 0.11086452 -0.0968627 0.08510295
-0.017373359 0.03168695 0.031193284 -0.0027079328 0.0433525 0.07682311 -0.026628109 -0.09975913
-0.097821094 0.0010929775 0.12543344 0.011587857 0.10947866 -0.11519044 -0.07967925 0.023026207
-0.006302685 -0.084849715 0.10518661 0.08935299 0.039177887 0.023020029 0.0141071575 -0.042912595
-0.08005052 0.0062931967 -0.018526947 0.039640814 -0.060535207 -0.024812791 -0.07264199 0.033229973
0.016582543 -0.102713175 -0.028121622 0.03274144 0.15493512 0.02701286 -0.07191659 -0.12538618
-0.14127155 0.003234545 -0.16651885 -0.20040844 0.02436457 -0.031583615 0.016954774 -0.18972214
0.09620381 0.0623174 -0.11908227 -0.07715553 0.029899444 0.04579158 -0.08820999 0.13261317
-0.11762204 -0.14460078 -0.0006579285 0.09293715 0.0046541197 0.056845814 -0.03904093 -0.07678219
-0.0715596 -0.086240925 0.16084689 0.17031284 -0.12866466 -0.024196709 0.04615551 -0.04015343
-0.04181028 0.08281533 -0.017738322 -0.04788584 0.06378426 -0.01538509 0.066782266 -0.036338978
-0.0082826335 0.0143785 -0.013937 0.09013994 -0.011529343 -0.15378821 0.06359144 0.088486135
-0.05764303 -0.14335947 -0.112418376 -0.10138757 -0.24511419 -0.030000662 0.11082903 0.038303304
-0.045612074 -0.06495612 0.022274073 0.051868174 -0.10181318 -0.033630393 0.124699585 0.12436795
-0.13440439 0.17391391 0.06498206 0.108207576 -0.22211452 0.0155298645 -0.035524443 -0.027658666
0.15431981 0.032003354 0.12480202 0.039421022 -0.037497714 -0.008342471 -0.13562115 0.025116
-0.06494247 0.011463576 0.03138973 -0.11556485 0.18393297 0.04972274 -0.11364301 0.02620189
-0.031958316 0.055353347 -0.04258025 0.21959719 -0.102499396 0.04414943 -0.15007702 -0.081787236
0.005074063 -0.033769257 -0.038716346 -0.081718184 0.12983578 -0.027556458 0.022386093 0.085336335
-0.052439656 -0.0005788078 -0.062063266 0.1684572 0.052009948 0.032325804 0.14769982 0.14668135
-0.1289813 -0.03767678 -0.05231335 0.042990904 -0.11519985 0.060278755 0.09886129 0.05235771
00000000: 322b 7a3d ef00 c13d 3a6d d5bc c48b 3ebc
00000010: 57ec 11bc 387a 84bd 36b8 d4bc 7a3c bf3c
00000020: d2e2 67bd 0726 bc3d 9448 d3bd f3c2 773d
00000030: fea7 00be 5160 94bd a8a4 323d 1021 e33c
00000040: ff78 fbbd 12ac bbbe 003c 643d d5e6 7d3d
00000050: 2947 53be 7175 473d dd8d 083e 04d5 b1bd
00000060: 3372 073e 6988 f8bb 35e9 7dbd 9f0a 753d
00000070: 9378 aebd 1648 8fbd 8618 ccb9 e48b b9bd
00000080: d63e d3bd 7038 f73d 585a e63d d697 943c
00000090: d4ba 54bd d093 ac3c b767 b3bd 4882 993d
000000a0: ab91 12be 8801 91bd ff06 fdbc b63f 693d
000000b0: 8201 78bd 3ea0 813d e528 dbbd 3f86 fabb
000000c0: b1f7 a83c dd84 28bc e0ae 413d 905e 0f3e
000000d0: d4f1 a43d 2cef 863d c6e4 eebd e32e 0d3d
000000e0: eda8 57bd b79a 0dbc 75a0 473d 53dd 983d
000000f0: 90fa d93d ee5c d33d a02e 83bc 8f82 e4bd
00000100: 1075 00ba 2f92 9dbd 7e58 6fbe 7258 0d3d
00000110: 9020 86bd 8fed 883d 8868 c5bd 8aae 683d
00000120: 3aba 9a3c 5887 1ebe 2b84 393d 647c 8cbc
00000130: 1cb5 52be 89ea a93c b4dc f2bb 1474 1a3e
00000140: 5231 e1bd bb0b ae3d 0012 593d 2a47 e4bc
00000150: 26e0 92bd 9bfe 0cbe f388 013e 8644 cd3d
00000160: 64be a23c fb15 783d 8820 283d 6605 c83d
00000170: 5907 85bd f00c e33d f45f c6bd 754a ae3d
00000180: 9352 8ebc 2dca 013d 0f89 ff3c 9377 31bb
00000190: 6492 313d 6f55 9d3d 3123 dabc 844e ccbd
000001a0: 6d56 c8bd 3d42 8f3a a071 003e ffda 3d3c
000001b0: 5936 e03d f7e8 ebbd e02e a3bd 75a1 bc3c
000001c0: c186 cebb b0c5 adbd 146c d73d b3fe b63d
000001d0: fe78 203d 8094 bc3c b521 673c 1ec5 2fbd
000001e0: 87f1 a3bd 2937 ce3b d3c5 97bc 685e 223d
000001f0: c4f3 77bd 3244 cbbc 53c5 94bd 271c 083d
00000200: 1dd8 873c 495b d2bd 515f e6bc e31b 063d
00000210: 50a7 1e3e 134a dd3c 0149 93bd 3c65 00be
00000220: 7da9 10be a9fa 533b eb83 2abe df37 4dbe
00000230: 3598 c73c d25d 01bd bde4 8a3c 8546 42be
00000240: 8106 c53d 8840 7f3d 68e1 f3bd b803 9ebd
00000250: aeef f43c f48f 3b3d 70a7 b4bd bfcb 073e
00000260: d3e3 f0bd 3a12 14be d678 2cba d555 be3d
00000270: 9681 983b 28d7 683d 62e9 1fbd fb3f 9dbd
00000280: d78d 92bd 159f b0bd 0cb5 243e 7d66 2e3e
00000290: abc0 03be 2d38 c6bc 8f0d 3d3d ec77 24bd
000002a0: 4241 2bbd 159b a93d f54f 91bc f123 44bd
000002b0: 52a1 823d bf11 7cbc 24c5 883d 2ed8 14bd
000002c0: e2b3 07bc cd93 6b3c 0458 64bc 4a9b b83d
000002d0: 92e5 3cbc a87a 1dbe 3b3c 823d 3838 b53d
000002e0: 191b 6cbd d3cc 12be 9b3b e6bd 49a4 cfbd
000002f0: 37ff 7abe f3c3 f5bc 55fa e23d ede3 1c3d
00000300: bad3 3abd b707 85bd 1e78 b63c b973 543d
00000310: 6e83 d0bd 06c0 09bd 7f62 ff3d a0b4 fe3d
00000320: 4ea1 09be 7d16 323e 5015 853d ef9b dd3d
00000330: fd71 63be f970 7e3c 1482 11bd 6d94 e2bc
00000340: 0306 1e3e f315 033d 3498 ff3d f077 213d
00000350: 3497 19bd dcae 08bc 45e0 0abe 12c0 cd3c
00000360: 8f00 85bd b9d1 3b3c 8492 003d 44ad ecbd
00000370: ed58 3c3e 12aa 4b3d abbd e8bd 59a5 d63c
00000380: b9e6 02bd 31ba 623d a168 2ebd 16de 603e
00000390: 34eb d1bd 08d6 343d caad 19be 1180 a7bd
000003a0: 5344 a63b a251 0abd 0895 1ebd dd5b a7bd
000003b0: acf3 043e 15be e1bc 0a63 b73c d1c4 ae3d
000003c0: f7ca 56bd 22bb 17ba 0d36 7ebd 0b80 2c3e
000003d0: 6208 553d 1068 043d 9f3e 173e a333 163e
000003e0: ad13 04be f852 1abd 8646 56bd 3b17 303d
000003f0: e6ed ebbd dbe6 763d ca77 ca3d 0a75 563d

network_body._body_endoder.seq_layers.2.bias f4 [256]
0.0031357496 0.0040164003 -0.0007749265 0.0018070313 0.0029439381 0.00042671163 0.0030759755 0.0028123637
-0.0016486386 0.0053540003 -6.215833e-05 0.004450419 -0.00021427168 0.003031236 0.0038702895 0.0057419147
0.005560812 0.007993872 0.0034113273 -0.0034810198 -0.0082213 0.0065258783 0.0008367615 0.002698874
0.006932889 0.0021625988 0.004424956 -0.0012678285 0.005437721 0.002128993 0.0024247218 0.008376413
0.004028042 0.0043274756 0.0026978762 0.003962309 -0.001983882 0.0015609781 0.0021388729 0.00032698023
0.00012742885 -0.0028567335 0.007420402 0.0011187963 -0.00034451217 0.007938922 -0.000925562 -0.0008631197
-0.004925133 0.0038458845 0.0028979229 -0.0013723215 0.003339235 0.0055031627 -0.0023564065 -0.0001969514
-0.00024979332 -0.0005244318 -0.0023908103 0.0007867171 -0.0011207352 -0.0009210085 0.003922247 -5.2120307e-05
0.0045919083 0.00071800663 -0.0033923984 0.0056823827 -0.002738958 0.006991858 0.0047112675 0.0019339719
0.0060817227 0.0020523746 0.00651829 0.001794066 6.436421e-05 0.0052564475 0.0059784586 4.0310228e-05
-0.0059618275 -0.00069368235 0.0031245002 -0.003712345 -0.0053764475 -0.00024266624 -0.002065384 0.0026596582
0.00020385657 0.0014563034 -0.0054388116 0.0057324385 -0.0011000638 0.0039618798 0.0012008421 0.002423891
0.0063809752 0.007829779 0.0015309593 0.002731523 -0.0032787528 0.005072616 0.00021285457 0.0022021863
0.007025888 -0.0030384564 0.00018199401 0.008276209 0.0006981426 0.0016022635 0.0049091917 -0.0013734472
-0.0056186374 0.00262967 0.006198942 0.0035403126 0.009252249 0.0027989296 0.0052027544 0.004950084
-0.00154128 -0.0035522894 0.0062189074 0.0022010314 0.007385542 0.00730852 0.00030922575 0.000102124664
0.0022763954 0.00024544093 0.0015003947 -0.0033590114 0.0031260536 0.004134559 -0.00033461428 0.0007524184
0.004825487 0.001129371 0.0008450046 0.001980487 -0.0032841798 -0.0025178508 -0.0071588913 0.004241018
0.0031347414 0.0039370456 -0.000680991 -2.4607678e-05 -0.0001436658 0.0009068819 0.0017222471 0.0013059325
-0.0055696047 -0.00077355816 0.002124091 0.0016779267 0.004080996 0.0047233715 -3.949248e-05 0.005516596
0.008484023 0.0021144056 0.004105618 0.000637694 0.0085662315 0.0016148522 -0.0012821106 -0.0027391189
0.0010730417 -0.0019031662 0.0011560669 0.0016398454 -0.0024156582 0.0013776657 0.0061133862 -0.0010706678
0.0052423547 0.001645299 0.008402047 0.0011412413 0.00555784 -0.0034791487 0.007017646 0.0074260156
0.002734223 -0.00030553254 0.0069432496 0.0014107388 -0.0014382442 0.0060675703 -0.00013721033 0.0066556213
0.0053020795 0.003311476 0.0013142539 -0.00026210083 0.0020193206 0.0014944234 -0.0029226523 0.0003887163
0.002289701 -0.00090582523 0.00085482904 0.0076601603 0.0019325804 0.005973032 0.003944575 0.011625221
0.003304447 -0.0008420226 -0.003910763 0.00028334942 0.0049733743 0.0064334245 0.0030377952 -0.0013112857
0.0008074017 0.006259994 0.003229929 0.0009316256 0.0014155705 0.0020346914 -0.000997738 0.004257258
0.0037481869 0.0009448376 0.0007578489 0.001612975 -0.0035287281 0.003805894 0.003308178 0.0070346766
0.0059651597 0.0024822073 0.004166386 0.0003291028 0.0063946065 0.0003115191 0.003653562 -0.0044869627
0.006379466 -0.0010962894 0.0063110166 0.0004661586 0.002362053 -0.0014210445 -0.00067815697 0.004675602
-0.006461348 0.0018217728 0.00023724468 0.00031886183 0.004306481 0.0019035965 0.0054829647 0.0043301983
00000000: 2681 4d3b 029c 833b 7024 4bba e9d9 ec3a
00000010: 16ef 403b 44b8 df39 4e96 493b a24f 383b
00000020: 2217 d8ba 9c70 af3b 005b 82b8 d2d4 913b
00000030: 1eae 60b9 b3a7 463b afa4 7d3b ac26 bc3b
00000040: 7937 b63b bbf8 023c 9390 5f3b d221 64bb
00000050: a2b2 06bc 09d7 d53b 1d5a 5b3a 98df 303b
00000060: 4a2d e33b 63ba 0d3b 39ff 903b 442d a6ba
00000070: e92e b23b 9386 0b3b 15e8 1e3b 393d 093c
00000080: aafd 833b 7fcd 8d3b dace 303b 42d6 813b
00000090: 0404 02bb bc99 cc3a 552c 0c3b 8b6e ab39
000000a0: 6c9e 0539 0938 3bbb d826 f33b 93a4 923a
000000b0: a49f b4b9 4112 023c 6aa1 72ba fc42 62ba
000000c0: 0363 a1bb 3c0b 7c3b 14eb 3d3b 78df b3ba
000000d0: 11d7 5a3b e053 b43b f16d 1abb bd84 4eb9
000000e0: b1f6 82b9 067a 09ba 24af 1cbb b13b 4e3a
000000f0: a2e5 92ba d66f 71ba 3186 803b c19b 5ab8
00000100: b877 963b 9c38 3c3a 0053 5ebb 4833 ba3b
00000110: 1780 33bb f51b e53b fa60 9a3b 547d fd3a
00000120: 3049 c73b 2281 063b 6197 d53b de26 eb3a
00000130: 46fb 8638 473e ac3b f2e6 c33b c712 2938
00000140: 6f5b c3bb 3cd8 35ba 6ac4 4c3b d04a 73bb
00000150: e92c b0bb 3974 7eb9 655b 07bb a94d 2e3b
00000160: 55c2 5539 6fe1 be3a 0f38 b2bb 2ed7 bb3b
00000170: 0430 90ba a8d2 813b 9365 9d3a 25da 1e3b
00000180: 8017 d13b 7948 003c 78aa c83a 5a03 333b
00000190: 58e0 56bb 3038 a63b b731 5f39 8e52 103b
000001a0: 6c39 e63b d720 47bb a5d5 3e39 f098 073c
000001b0: 8f03 373a 0b03 d23a 49dd a03b 3e05 b4ba
000001c0: 8c1c b8bb 8b56 2c3b 7f20 cb3b 9704 683b
000001d0: bf96 173c 3f6e 373b de7b aa3b 5034 a23b
000001e0: c604 caba 87cd 68bb fac7 cb3b 2e3f 103b
000001f0: 6b02 f23b 4f7c ef3b 941f a239 c32b d638
00000200: 942f 153b 86ae 8039 e4a8 c43a dc22 5cbb
00000210: 7ade 4c3b 327b 873b 2b6f afb9 f23d 453a
00000220: 1e1f 9e3b 6707 943a 4c83 5d3a 0fcb 013b
00000230: 653b 57bb 8702 25bb 2295 eabb 3df8 8a3b
00000240: 3c70 4d3b 5502 813b 8884 32ba 966c ceb7
00000250: ffa4 16b9 d0bb 6d3a 06bd e13a d32b ab3a
00000260: 3b81 b6bb 9cc8 4aba 5534 0b3b e1ed db3a
00000270: e0b9 853b 83c6 9a3b baa4 25b8 90c4 b43b
00000280: 9200 0b3c d791 0a3b 6c88 863b eb2a 273a
00000290: 6159 0c3c 73a9 d33a 7e0c a8ba ca82 33bb
000002a0: 4ea5 8c3a a973 f9ba 2b87 973a 15f0 d63a
000002b0: 0550 1ebb ca92 b43a cd52 c83b a655 8cba
000002c0: 0fc8 ab3b 13a7 d73a bda8 093c b495 953a
000002d0: 8b1e b63b 6e02 64bb 48f4 e53b ef55 f33b
000002e0: a630 333b e22f a0b9 3384 e33b 8ae8 b83a
000002f0: 7883 bcba 78d2 c63b 1ee0 0fb9 6617 da3b
00000300: 11bd ad3b 5905 593b 0b43 ac3a 946a 89b9
00000310: 9456 043b 87e0 c33a f889 3fbb 9ecc cb39
00000320: cf0e 163b e774 6dba 9b16 603a 1502 fb3b
00000330: a34e fd3a 6db9 c33b 7e41 813b b677 3e3c
00000340: 6c8f 583b 2ebb 5cba dc25 80bb 848e 9439
00000350: b0f7 a23b 7acf d23b bf15 473b 72df abba
00000360: d0a7 533a a320 cd3b 37ad 533b 5638 743a
00000370: aa8a b93a 7558 053b 88c6 82ba 7880 8b3b
00000380: 24a4 753b faae 773a 61aa 463a 766a d33a
00000390: 3c42 67bb 4e6c 793b 04ce 583b 2583 e63b
000003a0: 6377 c33b 87ac 223b 2e86 883b 6e8b ac39
000003b0: d989 d13b 6353 a339 9970 6f3b 5f07 93bb
000003c0: d70a d13b 5eb1 8fba a5cc ce3b c066 f439
000003d0: accc 1a3b 5742 baba 58c6 31ba cb35 993b
000003e0: b7b9 d3bb 8dc8 ee3a e2c4 7839 e92c a739
000003f0: 621d 8d3b 1982 f93a 71aa b33b 56e4 8d3b

network_body._body_endoder.seq_layers.2.weight f4 [256, 256]
-0.098348685 0.06329895 0.00086688524 0.0600928 0.08899962 0.030307826 0.088888936 -0.022130983
-0.00042177422 -0.12562789 0.007295212 0.027913699 0.095155306 0.090352476 -0.098642714 0.0695387
0.035915412 0.06637621 0.019318542 0.014061304 -0.03987287 0.041081406 -0.0053624134 -0.02566638
-0.0061185677 -0.05023849 0.029199585 0.039937902 0.059271913 -0.07863211 -0.009100274 -0.04286932
-0.07704044 -0.06163632 -0.040510524 -0.04435629 0.087002456 -0.022731474 0.014212177 -0.011750335
0.002452269 -0.029725906 -0.041064214 -0.051073752 -0.013796412 -0.022975259 -0.03008153 -0.02291402
0.106873795 -0.05705515 -0.019485028 0.011783839 -0.16598018 0.12747848 -0.0072845896 -0.05467104
-0.046872783 -0.038398415 -0.07891211 -0.0747062 -0.04590845 -0.010805066 0.02867887 -0.02837731
0.063921906 -0.10011591 -0.16256037 -0.01754751 -0.029779455 -0.072924495 0.018915955 0.038527407
-0.020449968 -0.07064862 -0.03847771 0.06348139 0.062978335 -0.016068758 0.0035133823 0.02817042
0.03969715 0.02769228 -0.07054527 0.044988006 -0.054309063 -0.092516504 -0.023728898 -0.06712724
-0.0026013604 0.021268547 0.02392397 0.053288117 -0.0009842935 0.03265073 -0.018499352 -0.064496405
-0.04890321 0.027685676 -0.0007675912 0.035962164 0.11781205 0.020088777 -0.047874574 0.06754397
0.0822782 -0.001268994 0.03252517 -0.015173142 0.16524191 -0.04705018 0.0031506997 0.038238283
-0.061574627 0.08352634 0.021122549 -0.013335488 0.062745735 -0.07524648 0.019939922 -0.0145469615
0.058621697 -0.03855755 -0.20526396 -0.12904991 -0.03781625 -0.04201929 -0.03461641 -0.027138155
-0.064355694 -0.00032621497 0.045764957 -0.07977236 0.062151972 0.012070428 -0.06639138 -0.05329458
-0.050508082 -0.049664292 0.0353762 -0.036332384 -0.070157595 0.11612853 -0.06713508 -0.009512164
0.0503353 0.010109411 -0.029468087 0.027616639 0.04861415 -0.028017482 -0.0017616228 0.03663789
-0.04409082 0.024516424 -0.060306545 -0.022869017 -0.08358557 0.039260633 0.11029846 -0.005101444
0.0075932946 -0.033798907 0.12618105 0.087060615 0.03701041 -0.01876894 0.19456619 -0.076327786
-0.08173444 0.010372715 -0.0611663 0.0022827853 -0.0049243295 -0.0020739923 -0.12621774 0.10948656
0.08342732 -0.013499058 -0.058849785 0.034393772 -0.0026590552 0.056118745 0.062119555 0.044401854
0.006550159 -0.014963629 0.0063440343 -0.015276377 0.10908754 0.045269344 -0.058881488 -0.00510079
0.09202681 0.057884958 -0.020776091 -0.014902258 -0.011279677 -0.10174426 0.04708876 0.015822275
0.09808595 0.0057459516 0.03522465 0.07332394 -0.07171517 0.0016063756 -0.024553053 -0.043686047
0.0787592 -0.046792015 -0.019542776 0.0977541 0.017767293 -0.022360396 0.013153091 -0.05679454
-0.06713885 0.02969308 -0.015389248 -0.056516163 0.01882697 0.034169167 0.06882103 -0.09823162
-0.040956978 -0.10558694 -0.119650245 -0.073430955 0.0076327226 -0.0012334484 0.06831592 0.027825538
-0.034473598 0.046652097 -0.010435517 0.021088427 -0.050046604 0.048227474 0.08538712 -0.03763054
0.05823438 -0.035659637 -0.017903358 -0.0023419277 -0.015404354 0.07652077 0.13870063 0.13304047
0.14903472 -0.04460629 -0.018343521 0.05242896 0.023453873 -0.113731176 -0.03620192 0.1256342
00000000: 096b c9bd e1a2 813d af3f 633a de23 763d
00000010: 6f45 b63d 1e48 f83c 670b b63d 094c b5bc
00000020: 9421 ddb9 99a4 00be ac0c ef3b 45ab e43c
00000030: c9e0 c23d b80a b93d 3105 cabd 4e6a 8e3d
00000040: 0a1c 133d 40f0 873d eb41 9e3c 6261 663c
00000050: bc51 23bd fa44 283d 2fb7 afbb 4d42 d2bc
00000060: 447e c8bb e0c6 4dbd f833 ef3c ed95 233d
00000070: 1bc7 723d df09 a1bd 5119 15bc bd97 2fbd
00000080: 61c7 9dbd 5e76 7cbd 5dee 25bd f1ae 35bd
00000090: 582e b23d 5b37 babc 31da 683c 7a84 40bc
000000a0: 3fb6 203b be83 f3bc f332 28bd b632 51bd
000000b0: 590a 62bc 9c36 bcbc 8a6d f6bc 2fb6 bbbc
000000c0: a6e0 da3d a9b2 69bd 119f 9fbc 0111 413c
000000d0: b5f6 29be b889 023e 91b3 eebb beee 5fbd
000000e0: adfd 3fbd a847 1dbd ac9c a1bd 90ff 98bd
000000f0: 800a 3cbd bb07 31bc f3ef ea3c 8877 e8bc
00000100: 7de9 823d 9209 cdbd 3a76 26be ccbf 8fbc
00000110: 0bf4 f3bc 7059 95bd a2f5 9a3c eace 1d3d
00000120: b186 a7bc 39b0 90bd ce9a 1dbd 8802 823d
00000130: c9fa 803d a1a2 83bc c640 663b a7c5 e63c
00000140: 7b99 223d ecda e23c 0a7a 90bd 5845 383d
00000150: 2e73 5ebd 4b79 bdbd 1b63 c2bc 027a 89bd
00000160: 967b 2abb 603b ae3c 34fc c33c a444 5a3d
00000170: 6903 81ba c6bc 053d f48b 97bc b116 84bd
00000180: bb4e 48bd 12cd e23c 2c38 49ba 104d 133d
00000190: 7247 f13d 3891 a43c 2118 44bd 7e54 8a3d
000001a0: 7981 a83d 5f54 a6ba 1d39 053d c598 78bc
000001b0: 2d35 293e b1b7 40bd f87b 4e3b bf9f 1c3d
000001c0: ad35 7cbd dc0f ab3d 3209 ad3c 177d 5abc
000001d0: d680 803d d41a 9abd 0c59 a33c 6156 6ebc
000001e0: 4e1d 703d 86ee 1dbd b730 52be a925 04be
000001f0: 36e5 1abd 6b1c 2cbd f0c9 0dbd d650 debc
00000200: ebcc 83bd d507 abb9 0974 3b3d b15f a3bd
00000210: 1193 7e3d 0bc3 453c 34f8 87bd 6b4b 5abd
00000220: 90e1 4ebd c96c 4bbd a2e6 103d 44d1 14bd
00000230: c9ae 8fbd cbd4 ed3d 1e7e 89bd e8d8 1bbc
00000240: 632c 4e3d f1a1 253c 0f67 f1bc 4a3c e23c
00000250: a21f 473d eb84 e5bc 41e6 e6ba 9d11 163d
00000260: 9398 34bd abd6 c83c ff03 77bd ce57 bbbc
00000270: e92e abbd c2cf 203d 29e4 e13d 042a a7bb
00000280: 2cd1 f83b b970 0abd 9b35 013e d64c b23d
00000290: 3a98 173d 52c1 99bc 5c3c 473e be51 9cbd
000002a0: 6364 a7bd 52f2 293c 8489 7abd c89a 153b
000002b0: 455c a1bb d1eb 07bb 393f 01be 7d3a e03d
000002c0: f1db aa3d 272b 5dbc 790c 71bd 7ce0 0c3d
000002d0: 8b43 2ebb c5dc 653d 1371 7e3d b8de 353d
000002e0: b7a2 d63b 022a 75bc 9ee1 cf3b c549 7abc
000002f0: 4a69 df3d 596c 393d b72d 71bd 8724 a7bb
00000300: 8d78 bc3d c718 6d3d 9f32 aabc 9a28 74bc
00000310: 65ce 38bc 4b5f d0bd 25e0 403d b79d 813c
00000320: 49e1 c83d 8948 bc3b b947 103d dd2a 963d
00000330: 67df 92bd 058d d23a 7c23 c9bc 24f0 32bd
00000340: 814c a13d fca8 3fbd 2c18 a0bc 4d33 c83d
00000350: b78c 913c 262d b7bc 1080 573c 64a1 68bd
00000360: 1880 89bd e73e f33c 2f23 7cbc 7e7d 67bd
00000370: 053b 9a3c f8f4 0b3d 0af2 8c3d a92d c9bd
00000380: 81c2 27bd f73d d8bd 300b f5bd f862 96bd
00000390: eb1b fa3b a9ab a1ba 38e9 8b3d 62f2 e33c
000003a0: 3034 0dbd 4516 3f3d bbf9 2abc a3c1 ac3c
000003b0: abfd 4cbd 2c8a 453d 71df ae3d 7b22 1abd
000003c0: 2c87 6e3d d70f 12bd 10aa 92bc 077b 19bb
000003d0: 8b62 7cbc ecb6 9c3d 8a07 0e3e c33b 083e
000003e0: 8f9c 183e 16b5 36bd 2745 96bc c0bf 563d
000003f0: 5622 c03c e4eb e8bd 7748 14bd 40a6 003e

network_body._body_endoder.seq_layers.4.bias f4 [256]
0.003967542 0.0009790162 0.0018731463 -0.0028347753 8.889089e-06 0.0019170583 -0.0008465895 0.0013569683
0.0022670948 0.0019164053 -0.00061764236 0.0023184363 0.0018791129 0.0035785073 0.0013708862 -0.0014239119
0.0032076533 0.00039347674 -0.001786088 0.0012194219 0.004724086 0.00046481937 0.0054129283 0.00068062363
0.000112431466 -0.002018081 0.001547485 0.0041213008 0.00049462233 0.00045399735 0.0023571711 0.0022032892
0.0018915863 0.0007056002 0.0016879966 0.004345362 -0.00078591984 0.0014825107 -3.62493e-05 0.00021808886
0.00057554094 0.00020507407 0.0042037526 0.00066866085 0.0024735718 -0.00086269237 -0.0018811773 0.0036481663
0.0005415688 0.0008320544 -0.0009827222 0.006177127 0.0040316954 -0.0012154774 0.0038264254 0.0012604822
0.0019497256 0.0034269986 0.003820381 0.0037549539 -0.00030053023 0.0036044668 0.004103033 0.00063332886
-0.0024788685 0.0011646271 0.00043842252 0.0031561654 -0.00080421264 0.004552442 0.003409384 0.0016820593
0.0026968755 0.00269583 -0.0006660389 0.005449554 -0.0011048722 0.001130993 0.0012851494 -0.0014677431
0.0009033517 0.0020558028 0.002978161 0.0017943468 -0.0026824703 0.0036516506 0.0019068498 0.00042477855
0.002397055 -0.00025957057 -0.00040220565 0.0039783115 0.0027172638 0.00044086855 0.002716753 0.00066282135
-0.00040742534 0.0022683602 0.004366728 0.0018469994 0.00060634036 0.0003138564 0.0027530515 0.0008191337
0.00012025189 -0.0026875937 0.0008304679 0.0027114816 0.0017291184 0.00090567884 0.0012014168 -0.00014543679
0.0023974301 0.0010629051 -0.0029073567 0.0020112516 0.0012373683 -0.00028381837 -0.0016946306 0.0012251029
-0.002577917 0.0026788197 0.0026153598 0.0041651563 -0.00074765354 -0.0009036381 0.00064449396 -0.001956429
0.001355058 0.0037496728 0.002365775 0.0026633663 0.0014145501 0.0006940993 -0.0016345464 0.00034762092
0.006041832 0.004369707 0.001023601 -0.0034684609 0.0011532179 -0.0019036848 0.00022558383 -0.001558729
0.0015095894 0.0044370466 0.002014073 0.0020928832 0.0020466659 0.0017671679 -0.0005481397 -0.00040116673
0.0072073946 -0.00011083978 0.001883389 -0.0014294449 0.0034474507 0.0026662047 0.0009201064 0.0034023088
0.001288378 0.0015323124 0.0015254006 0.0013727146 -0.0009905719 -0.00044652002 0.0016323173 0.0020767155
0.0010152526 0.0027336748 0.0023302247 0.0034284939 0.0028762931 0.00279337 -0.0014169748 -0.00041491774
-0.00016051014 5.3323383e-06 0.0042852736 0.0030390767 0.0036319816 0.0026228111 0.0011159545 0.003925915
-0.0029820267 0.0016909419 0.0010168509 0.0016018152 0.005351394 0.0006845772 -0.0009169585 -0.0010879008
0.005041858 0.0021777416 -0.0006447615 -0.0021654489 0.0035983557 0.0058791437 0.0017914026 -0.00052179396
0.00026363813 0.0014408953 0.003507134 0.0014214269 -3.1313473e-05 0.002744817 0.0020309691 0.0015131177
0.0033782567 0.0009646734 0.0022013034 0.0025532527 -0.0013225435 0.0039775413 0.0012334572 -0.00101255
-0.000963768 0.004223036 0.0006771169 0.0014108757 -0.0018680306 -0.0015974817 0.0034480111 0.0021719928
-0.00093608635 0.0026105584 0.0010950898 0.0024487711 0.0039828937 0.0013380402 0.004302216 0.0036203887
0.0010296335 0.0007713291 2.9768078e-05 0.0035654467 0.0034544587 0.0054423357 0.00029005832 -0.0012450644
-0.0003764808 -0.0004086442 0.00016419515 0.0008269166 0.0018821103 -0.00053242553 -0.00040047028 0.0014091018
0.005002835 0.0018376774 0.0022459314 0.0006930286 0.0029447768 0.005937999 0.0008781383 -0.0016146487
00000000: 2802 823b 5552 803a 5c84 f53a a3c7 39bb
00000010: 5922 1537 cd45 fb3a a9ed 5dba 4ddc b13a
00000020: 8a93 143b e42f fb3a 47e9 21ba e8f0 173b
00000030: 914c f63a 6485 6a3b 4faf b33a 8ea2 baba
00000040: 7e37 523b 8e4b ce39 2b1b eaba 02d5 9f3a
00000050: 81cc 9a3b 00b3 f339 ef5e b13b e16b 323a
00000060: 2fc9 eb38 c841 04bb fbd4 ca3a fa0b 873b
00000070: 8ba9 013a 7e06 ee39 c57a 1a3b 0f65 103b
00000080: 1bef f73a 07f8 383a c43f dd3a 8a63 8e3b
00000090: 3006 4eba ce50 c23a 640a 18b8 c8ae 6439
000000a0: e6df 163a 2709 5739 a2bf 893b 1249 2f3a
000000b0: a61b 223b 4e26 62ba d691 f6ba 1316 6f3b
000000c0: 11f8 0d3a 3a1e 5a3a afce 80ba 7f69 ca3b
000000d0: 501c 843b a750 9fba c4c4 7a3b c436 a53a
000000e0: ef8d ff3a 7f97 603b 5b5f 7a3b ac15 763b
000000f0: 7c90 9db9 eb38 6c3b bc72 863b fb05 263a
00000100: 8374 22bb 67a6 983a 13dc e539 abd7 4e3b
00000110: ccd1 52ba a72c 953b f96f 5f3b 8b78 dc3a
00000120: 10be 303b 86ac 303b 1d99 2eba 2c92 b23b
00000130: 5cd1 90ba d43d 943a 7572 a83a 4961 c0ba
00000140: e8ce 6c3a a6ba 063b 402d 433b 4a30 eb3a
00000150: 62cc 2fbb 8850 6f3b 43ef f93a d0b4 de39
00000160: e917 1d3b f916 88b9 21df d2b9 7f5c 823b
00000170: 1f14 323b 6024 e739 8d0b 323b 30c1 2d3a
00000180: b49b d5b9 c5a8 143b c516 8f3b 0417 f23a
00000190: d0f2 1e3a 188d a439 8a6c 343b 22bb 563a
000001a0: be2f fc38 5722 30bb c2b3 593a 1db3 313b
000001b0: 96a3 e23a 146b 6d3a dc78 9d3a 6480 18b9
000001c0: 341e 1d3b 2d51 8b3a 5a89 3ebb 34cf 033b
000001d0: 312f a23a 75cd 94b9 5e1e deba a293 a03a
000001e0: 45f2 28bb 238f 2f3b 7566 2b3b dd7b 883b
000001f0: 2efe 43ba 20e2 6cba 42f3 283a 6f37 00bb
00000200: 349c b13a 12bd 753b 1e0b 1b3b df8b 2e3b
00000210: 6d68 b93a 37f4 353a 473e d6ba e440 b639
00000220: 8ffa c53b c22f 8f3b 5a2a 863a 1e4f 63bb
00000230: 9227 973a 1085 f9ba b38a 6c39 444e ccba
00000240: 6add c53a a564 913b 8afe 033b c128 093b
00000250: 5b21 063b 51a0 e73a 08b1 0fba b053 d2b9
00000260: 022c ec3b a772 e8b8 0cdc f63a 365c bbba
00000270: a0ee 613b 7ebb 2e3b 4c33 713a 45f9 5e3b
00000280: cbde a83a dfd7 c83a f3ef c73a a9ec b33a
00000290: 14d6 81ba e71a eab9 7bf3 d53a 8119 083b
000002a0: 3912 853a 7427 333b afb6 183b 95b0 603b
000002b0: 3180 3c3b f910 373b c9b9 b9ba 5189 d9b9
000002c0: 9d4e 28b9 70ec b236 7b6b 8c3b 3f2b 473b
000002d0: 8a06 6e3b 78e3 2b3b 3845 923a f6a4 803b
000002e0: 1b6e 43bb 98a2 dd3a db47 853a 00f4 d13a
000002f0: bf5a af3b 3375 333a 0b60 70ba e597 8eba
00000300: 2c36 a53b 71b8 0e3b 3605 29ba 34ea 0dbb
00000310: 64d2 6b3b d5a5 c03b 7fcd ea3a 00c9 08ba
00000320: e938 8a39 6cdc bc3a f2d7 653b 2c4f ba3a
00000330: 9656 03b8 63e2 333b 021a 053b ce53 c63a
00000340: be65 5d3b 23e2 7c3a be43 103b 7954 273b
00000350: 3259 adba 0956 823b f5ab a13a 8ab7 84ba
00000360: 60a5 7cba 6561 8a3b 8c80 313a 22ed b83a
00000370: b5d8 f4ba 9762 d1ba 07f8 613b fe57 0e3b
00000380: b163 75ba e715 2b3b 1e89 8f3a 907b 203b
00000390: ef82 823b 2e61 af3a 9bf9 8c3b 0b44 6d3b
000003a0: c4f4 863a 0533 4a3a 76b6 f937 45aa 693b
000003b0: 3364 623b 9f55 b23b f812 9839 6e31 a3ba
000003c0: 6662 c5b9 4c3f d6b9 cd2b 2c39 6fc5 583a
000003d0: 24b1 f63a 7992 0bba 36f6 d1b9 9cb1 b83a
000003e0: d2ee a33b 39de f03a 7a30 133b 5dac 353a
000003f0: 28fd 403b 8c93 c23b dd32 663a 9fa2 d3ba
