results/Run 11/AgentController/AgentController-499977.onnx (onnx, 657373 bytes, 14 tensors)

83 f4 [116]
00000000: 40cf 833e 4fbf 253e fa06 533e c173 883e
00000010: 2985 8a3e 56c8 2c3e 1392 5f3e d3d6 883e
00000020: 43a8 813e 5f1a 263e 75ff 4c3e b1dc 883e
00000030: 2acc 903e dcdf 343e 7d4c 6a3e c44b 893e
00000040: 8bce 803e 4a7e 243e b8fa 4b3e d6a6 893e
00000050: ab16 903e d387 373e 6468 663e 0479 893e
00000060: 096e 7e3e ae01 233e e3df 483e b847 893e
00000070: bfe8 8a3e 1401 353e f249 5a3e 5d0b 8a3e
00000080: d605 7a3e dd2a 1e3e f8c2 463e 1739 883e
00000090: edac 863e 2d93 303e 2742 523e 6cc0 8b3e
000000a0: f2b5 7d3e bc1e 203e df28 4a3e 4b71 873e
000000b0: d29f 873e f3bf 343e b66d 513e 8055 8d3e
000000c0: 819a 803e 3eed 223e b9a4 4c3e 99af 863e
000000d0: 78aa 8b3e aaa2 403e e084 523e 7d17 8e3e
000000e0: 2f28 823e 3567 283e 8383 4c3e d9d4 853e
000000f0: d816 8c3e 9070 463e 7461 4e3e 91a5 8d3e
00000100: 9eee 833e 41ee 2d3e f9de 4c3e fda6 853e
00000110: 3482 873e ea10 3f3e 42df 473e 95ea 8b3e
00000120: 9a4c 843e 2836 343e 6589 483e 1021 853e
00000130: a72c 853e cf65 3c3e b58a 433e 4b6d 8a3e
00000140: b8ee 853e 60e3 3a3e 962f 473e 30df 843e
00000150: 65f8 893e 783c 4a3e b135 443e 257c 883e
00000160: 2c78 853e f7fa 3d3e cae4 423e 84d3 843e
00000170: 25ce 8e3e 8d78 553e 956f 473e 829b 863e
00000180: ce98 853e 9bfe 3f3e 4b49 413e 28e0 843e
00000190: 0509 903e 1741 583e 2c53 483e df12 853e
000001a0: fbc9 873e becc 463e 540c 413e 4c22 843e
000001b0: 2066 8d3e c745 543e 9d43 443e f51d 843e
000001c0: 2066 8d3e c745 543e 9d43 443e f51d 843e
0.25744057 0.1618626 0.2060813 0.26650813 0.27054718 0.16873297 0.21833067 0.26726398
0.25323686 0.16220997 0.20019324 0.26730874 0.28280765 0.1766352 0.2288074 0.26815617
0.2515758 0.160638 0.1991986 0.26885098 0.28142294 0.17922907 0.2250076 0.2685014
0.24846663 0.1591861 0.19616656 0.2681253 0.27130696 0.17676193 0.2131727 0.26961794
0.24416289 0.15446039 0.19410312 0.26606056 0.26303807 0.17243643 0.20533048 0.27295244
0.24776438 0.15636724 0.19742154 0.26453623 0.2648912 0.17651348 0.20452008 0.27604294
0.25117877 0.15910813 0.19984712 0.26305845 0.27278495 0.18812051 0.205585 0.27752295
0.25421283 0.1644562 0.19972043 0.26138952 0.27361178 0.19378877 0.20154363 0.2766538
0.25767988 0.16985418 0.20006932 0.26103964 0.26466525 0.18658796 0.1951876 0.2732741
0.25839692 0.17598784 0.19583662 0.26001787 0.2601063 0.18398212 0.19095881 0.2703651
0.2615869 0.18250799 0.19451746 0.2595153 0.26947322 0.1974963 0.19161107 0.26657215
0.26068246 0.18552767 0.19032589 0.25942624 0.2789165 0.20846768 0.19476159 0.26290518
0.26093143 0.18749468 0.18875615 0.25952268 0.2813188 0.2111858 0.19562978 0.2599096
0.26521286 0.1941404 0.18852359 0.25807416 0.27616978 0.20729743 0.19166417 0.25804105
0.27616978 0.20729743 0.19166417 0.25804105

86 f4 [3]
00000000: 738e ae40 89a1 443b 54c7 de40
5.454889 0.003000351 6.961832

action_model._continuous_distribution.log_sigma f4 [1, 2]
00000000: 2c32 5f3b eab1 023b
0.0034057004 0.001994247

action_model._continuous_distribution.mu.bias f4 [2]
00000000: 1bb4 0cbb ff6a 063b
-0.0021469656 0.0020510552

action_model._continuous_distribution.mu.weight f4 [2, 256]
00000000: b52b 04bc 30f5 9f3b c999 093c 51bb 6dbc
00000010: c341 463c 0d96 9dbc 6fe7 c63c 33b5 43bb
00000020: 721a 883c 4acc 50bc 1cdd 603c 058b 2dbc
00000030: c64a 13bc 0ec1 5abc a1dd ba3b 637c f9bb
00000040: cfc7 213c 9ae9 12ba 87de bbbc f63f 843c
00000050: 17d4 4bbb ded1 6839 1a59 7abc e6f4 b1bc
00000060: 0c30 673b 88ef 23bc 649f c8bc c39f 56ba
00000070: 50b9 9dbb 524f 62bc 4971 f53b 9dbe a93c
00000080: 8d89 f9ba aff5 393a 6688 f8bb 1546 cd3b
00000090: 4a4b 6aba 1b4b 6ebc a52c 193c 73a1 923c
000000a0: ec2e b1ba bda8 0d3d bddf bc3c 46af bcbc
000000b0: fa0a 313a d7cd daba df9c 35bc c741 783c
000000c0: fb04 e9bc 5cb9 ae3b 2f9b 21bc 4640 513c
000000d0: 6e54 123b 7639 383c 6c9c 9c3c a354 16bc
000000e0: 82da e23b 02bd 01bc 28a6 bb3b 7ad1 b5ba
000000f0: 7c6c a2bb ffab e1bb 71e5 f3ba b9ea cb3c
00000100: c024 a4bc d3ce 493c 7f4e 22bc 6f56 983c
00000110: dcb4 5fbc e2ff e53c 68ca 5fbc 4679 1c3c
00000120: b8b4 cb3c d67d 9bbc f0ca ec38 5251 80bb
00000130: 1e47 40bb 44e3 83bc 1af7 7e3c 900c d0bc
00000140: 58a9 97bb c52a 9fbc 9de6 bd3b eb08 c9bb
00000150: dc93 4aba 1674 81bc a8b9 7dbc c1f2 c4ba
00000160: d45e 903c 4f75 123b 62a3 90bb 8d8d 8e3c
00000170: eaaf 173b 30dc f73b bfcb 853b 6fa5 eebb
00000180: 41a2 2cbd c396 b4ba 4ace 10bc 5c26 d8bc
00000190: 48d9 d3bb 51a2 133a 5b74 3abc dbc7 233c
000001a0: b314 05bc fab8 393a 200a a7bc 816b 3bbc
000001b0: ab8e c43b 3ce9 5c3c 4742 47bb 0470 69bc
000001c0: bbb3 10bd 1b14 6cbc 995c 2bbb b103 ba3b
000001d0: 1879 1bbc 3e3e b8bc 7f79 503a 84d6 66bc
000001e0: aad4 ac3c 13c7 8f3b a45d 54bc 5277 093c
000001f0: 8017 debb f838 9fbc a00d 883b c32e 1bbb
00000200: 94bf 95bc a7bf ecbb d344 c0bb 54bc bbbc
00000210: 7ebd 8aba a21a 413c af71 01bc 5962 183d
00000220: 7043 cb3b 333c c5bb ac76 4e3b 7e16 1c3c
00000230: bfbe b9b8 fd20 e9bc a263 1b3c 2094 a6bb
00000240: 9a08 2bbc 6548 023c 5b90 84bc 418f 3dbb
00000250: 2890 af3b 7e60 083c 3cb3 283c e55b a2bc
00000260: b279 99bb ca14 fabb 18b0 0fbd 294a 743c
00000270: 3bae 523b 0f7b 4a3c 702f 2e3c ec61 6dbb
00000280: 9bb7 0b3c 6dff 653a 547b 09bd ae38 22bc
00000290: 48ba dcba 9495 c63b 0b33 903c a64a e93c
000002a0: 1651 8e3c e678 a0bc 945f 2b3b 53c3 83bc
000002b0: 9f82 0e3c 9024 87bc e168 de3b f18d 723c
000002c0: c500 1fbc b153 61bb 361a 043c 417c 033c
000002d0: 34d4 7c3c a603 43bc 8cf4 ac3b 048d 2e3c
000002e0: c39f 0f3c 7f5f c33b 24cc a7bb 88ef 023d
000002f0: b86c a73c 7772 a4bc eb45 5abc 32bf d3bc
00000300: d790 38bb b6e0 c33b 7208 22bc c7da 05bc
00000310: 5e3a f93c bb42 c1bc ad9e 6fbb b17f 213c
00000320: 8730 53bc 0a9e a23b 9f8c e9ba 0694 38bc
00000330: 0cbd 433b 9cba 91bb 513f e43c 69be a2bc
00000340: 9eef ffbb 7003 6dbb 4077 32bc 3b5f a8bb
00000350: cd18 133b 440b c7ba 64ce 20ba 33f2 c63c
00000360: 3b4d 8fbc c5ee 8f3c 66b8 103c 4f38 313c
00000370: 1284 023d 46f5 313b c8ad 7c3c e621 13bc
00000380: 7e86 7abc b53e c4bc 3b54 9c3b 9773 523b
00000390: b77c 49bb 9cf2 3b3c fe2f 16bc e6a8 babb
000003a0: 14fc 5cbc f0a3 1c3c 5a43 cc3b e358 483b
000003b0: fb3c 073c 9f20 723b 8a99 dbbb 6fae aa3b
000003c0: ec6a 01bc 6c1c 0b3c 981c 723b de51 6cba
000003d0: 2386 e5bb ee42 243c a8a6 dab9 605c f4bc
000003e0: 109f d3bb 77b3 67ba 200f 133c 149b 61bc
000003f0: 3a5d e93b 1858 a6bc ef3c b0bc 70a2 883c
-0.008067061 0.0048815235 0.008398482 -0.014509992 0.01210064 -0.019236589 0.024280278 -0.0029862642
0.016614173 -0.012744019 0.013724592 -0.010592227 -0.008989995 -0.013351692 0.0057026898 -0.007613705
0.009874298 -0.00056042674 -0.022933258 0.01614378 -0.0031101757 0.00022203426 -0.0152800325 -0.021723222
0.003527644 -0.010005839 -0.024490066 -0.00081872585 -0.0048133507 -0.013812857 0.0074903113 0.020720774
-0.0019038186 0.00070937996 -0.0075846193 0.006264458 -0.00089376105 -0.014544274 0.009349023 0.01789925
-0.0013518012 0.03458475 0.023055905 -0.023032796 0.000675365 -0.0016693425 -0.011084764 0.015152401
-0.028444758 0.005332155 -0.009863659 0.012771672 0.0022328156 0.0112441685 0.019117557 -0.009175452
0.006923021 -0.007918598 0.0057265945 -0.0013871633 -0.00495678 -0.0068869586 -0.0018607808 0.024892198
-0.020037055 0.012317377 -0.00990641 0.018595902 -0.01365396 0.028076116 -0.013659097 0.009550398
0.024866447 -0.018980902 0.00011291157 -0.003915944 -0.0029339264 -0.01609958 0.015561843 -0.025396615
-0.0046283416 -0.019429574 0.0057953135 -0.0061350963 -0.0007727721 -0.015802424 -0.015486158 -0.001502596
0.017623343 0.0022347753 -0.004414008 0.017401481 0.0023145624 0.00756409 0.0040831263 -0.007282905
-0.042146925 -0.0013777841 -0.008838246 -0.026385479 -0.006465111 0.0005631792 -0.01138028 0.00999638
-0.008122611 0.00070847536 -0.02039057 -0.011439205 0.0059984527 0.013483342 -0.0030404495 -0.014247898
-0.035327654 -0.01440909 -0.0026147722 0.0056767096 -0.00948932 -0.022490617 0.00079526746 -0.01408923
0.0210975 0.004387745 -0.012961779 0.008390265 -0.0067777038 -0.019436345 0.004152015 -0.0023678995
-0.018279828 -0.007224995 -0.0058675795 -0.02291695 -0.0010585038 0.011786135 -0.007900639 0.037203167
0.0062031075 -0.006019139 0.003150384 0.009526847 -8.857017e-05 -0.028458113 0.0094842035 -0.005083576
-0.0104390625 0.0079518305 -0.016182115 -0.0028924497 0.005357761 0.008323787 0.010296639 -0.01981921
-0.0046836967 -0.007631873 -0.035080045 0.014910259 0.0032147306 0.012358441 0.010631427 -0.0036221696
0.008527662 0.0008773718 -0.03356488 -0.009901209 -0.0016840184 0.0060603116 0.017602464 0.028477978
0.01737265 -0.019588899 0.0026149498 -0.016084349 0.008698135 -0.016496927 0.006787405 0.014804349
-0.009704773 -0.003438216 0.00806289 0.00802523 0.015431453 -0.011902725 0.0052781757 0.010653738
0.0087661175 0.0059623118 -0.005120771 0.031966716 0.020437583 -0.020074112 -0.013322334 -0.025848005
-0.0028162503 0.0059777154 -0.009889709 -0.008169836 0.03042334 -0.02359139 -0.0036563084 0.009857104
-0.012889988 0.0049626874 -0.0017818398 -0.01126576 0.002986732 -0.0044472944 0.027862223 -0.019866185
-0.007810547 -0.003616538 -0.010892689 -0.0051383055 0.0022445202 -0.0015185853 -0.000613427 0.024285411
-0.017492881 0.017569909 0.0088330265 0.010816648 0.031864233 0.002715425 0.015422292 -0.00898025
-0.0152908545 -0.023955682 0.0047707832 0.0032112354 -0.0030744502 0.011471417 -0.009166716 -0.005696404
-0.0134878345 0.00956057 0.006233615 0.0030570559 0.008254285 0.0036945713 -0.006701653 0.0052087824
-0.007899027 0.008490663 0.0036943313 -0.00090148847 -0.0070045157 0.010025723 -0.0004170437 -0.029829204
-0.0064581707 -0.0008838693 0.008975774 -0.013769884 0.007121709 -0.020305678 -0.02151343 0.016679019

action_model._discrete_distribution.branches.0.weight f4 [1, 256]
00000000: 6f0f df3a a70d b7bb f22a 1bbc adbe 75bb
00000010: a9a1 383b f3e6 863b 7313 32bc 781a a43a
00000020: 207d 8b3b 96ca bbbb 27b3 8cbb 2f4e 013b
00000030: 2ea5 b23b f6a2 17bb 6842 eb3b 1e15 153c
00000040: 8b13 a7ba 925a 8e3b f512 f9ba ccba 8dbc
00000050: b7b1 ea39 0814 323c e7ac 1fba 0f21 743a
00000060: 6819 99bb 912b 8a3b d3ab 13bc 2bb9 3dbb
00000070: 1222 283c 52fa 5cbb f953 14bb 0efb 93bb
00000080: cd94 9ebb 9cee bd3a 7960 bfbb 4b7f 71ba
00000090: 54a4 0ebb cb25 a0ba da54 463b ba34 eeba
000000a0: 7946 0ebc 2d76 e0ba f240 483b 59df a93b
000000b0: b080 e43b 2a08 53bb a080 b1bb 6052 a3ba
000000c0: 37bd 2dbc 83d1 60ba 7576 23bb 2ddb fe3a
000000d0: 1788 f9bb ece8 863a cf9a a7bb 97b3 3c3c
000000e0: 5584 0abc 237e abba 870e 8abb 38db a9ba
000000f0: c91a 17bc 928d b53b 0b99 f23a 48e8 9cba
00000100: 85f3 fd38 13a1 ce3b 4b24 5cbc 0271 633b
00000110: 6348 81bc d7d7 1e3b 653b da3a a80a d03a
00000120: 3f31 0b3b 33e4 86bb ede3 4d3b eb38 1b39
00000130: ceff a1ba a724 b23a d57a fdbb 1810 7e3b
00000140: 1c6e 37bb 3f2b 9aba 60e4 433b 3fcc 24bc
00000150: 1a8b 6dbc b36b 193c 03ab cf3b 7608 383c
00000160: aa8a 6e3b 61ad a639 145e 33bb 46bf 0dbb
00000170: f653 20bc 391d 803c 6da4 d6bb c7d5 353c
00000180: 54cf 9e3b 9629 2d3a c043 0b3c 2e97 c13b
00000190: e320 fc3b 9fae 05bc 5a68 57bb 122c 233c
000001a0: 8080 28ba dd0d 94ba 4ef9 c9ba 70cb 5b3c
000001b0: 93ed 053c 791e 1aba 92d9 03ba 679a f8bb
000001c0: 3dde 4b3a 03b5 3dba 4275 90bb e4a7 273b
000001d0: 48c5 83ba ce38 8bbb 6a1f 6dbb af53 25bb
000001e0: 5849 fb3b 2a4e 01bb 1f93 873c 488e ddbb
000001f0: bc68 893a 002c a13b 5784 e8ba 1299 093c
00000200: 3eda 3b3b c72d 69bb d443 023c db86 93bb
00000210: 4120 2c3b b0d0 41bc 9761 af3a 5005 1b3b
00000220: 3378 92bb 578d 053a 7320 84bb 6ac5 9f3b
00000230: 9cac 1cbb 33f3 b93b 29f2 4bbb 4b96 cabb
00000240: 8343 8bba 00c3 d53b a261 3e3c 5ee8 c9bb
00000250: d828 993b a49b 043c 7052 eb3b 2a25 7f3a
00000260: 136d e53b f7be 483a db3b 003b 701e 13bc
00000270: 5b52 4fbb 94da 223c 727d 8c3b b6e1 b33b
00000280: d088 fb3a 5347 cbba f42e 393a dd4c 6b3b
00000290: c47f c23b 9f6b b83b de38 1bbb 8842 8a3b
000002a0: b58e 5f3b fbdb e63b e636 0dbb 8db1 73bc
000002b0: 04fd 38bb 2383 01bb 7b57 54bb 484b e03a
000002c0: 422c 77bb 92db 12bc abf6 6d3b ab09 ce3b
000002d0: 8b08 43bb eb40 feba 14f9 25bb 5b23 bf3a
000002e0: 620b 153a db74 743a 933c 873b 176b 383c
000002f0: 5ba0 5ebb d7f5 0c39 5a71 0ebc 7748 a239
00000300: ae08 0d3c 4fb4 09ba 3d80 da3a 0e63 31ba
00000310: 8786 cbbb 33b7 82bb 62f5 8aba 761d a13c
00000320: 3aa8 aab9 38de eaba d273 0dbc 2c1e 8dbb
00000330: aaca 7aba f5af 46bc dcc4 2cbc 17c2 37bc
00000340: 8dd5 19bc cf7b 3bba 4c90 a43b 8578 24bb
00000350: ffdd a93b 2f49 0c3b 6285 10bc e6a0 bdbb
00000360: e358 3c3b 4504 d2bb 6bec 82bb 7b86 423b
00000370: 06bb a9bb 1399 873b a019 a3bb 9d07 f9bb
00000380: 8a34 213a 2f1f 50b7 1335 a33a 78fb ae3b
00000390: cab3 fabb 5586 463b b632 0abc 0d58 f1bb
000003a0: 8a28 8dba 937d 6fbb 0478 87ba 6b0f 80bb
000003b0: 855b 733b 87d6 98bb 886d 85bc b4f2 87bb
000003c0: 0791 9eba 9371 5d3c 12f7 cdba 0c49 3b3c
000003d0: 88b2 6dbc 5e19 8f3b d027 973b 3d8a 85bb
000003e0: 6b5d 403c 632f fcbb ab6c 16bc 22ff a8b9
000003f0: a303 8cba 5db0 553b 50c5 7d3b 2d53 f0bb
0.0017018149 -0.0055863443 -0.009470688 -0.0037497685 0.002817253 0.0041168868 -0.010868895 0.0012520095
0.0042568594 -0.0057309372 -0.0042938176 0.001973044 0.00545182 -0.0023137904 0.007179547 0.009099273
-0.0012746913 0.004344293 -0.0019002842 -0.017300986 0.00044764366 0.010869034 -0.0006091133 0.00093127874
-0.004672218 0.0042166193 -0.009013134 -0.002894948 0.010262029 -0.0033718538 -0.002263306 -0.004516012
-0.004839516 0.0014490667 -0.005840358 -0.00092123885 -0.0021765428 -0.0012218294 0.0030262978 -0.0018173673
-0.008683794 -0.0017125063 0.0030556289 0.005184096 0.0069733486 -0.003220091 -0.0054169446 -0.0012460463
-0.010604194 -0.00085761416 -0.0024942432 0.0019443982 -0.0076151 0.0010292805 -0.00511489 0.011517427
-0.008454402 -0.0013083856 -0.0042131576 -0.0012959009 -0.009222695 0.005540558 0.0018508745 -0.0011971081
0.00012109339 0.0063058226 -0.013436387 0.003470481 -0.015781587 0.0024237537 0.0016649781 0.0015872316
0.002123907 -0.004116559 0.0031416372 0.00014803155 -0.0012359561 0.0013591246 -0.00773559 0.0038766917
-0.0027989214 -0.0011762156 0.002989076 -0.010058462 -0.014498496 0.009364056 0.006337525 0.011232486
0.0036398568 0.00031791165 -0.0027369307 -0.00216289 -0.009785643 0.015638934 -0.006550363 0.011098332
0.004846493 0.0006605623 0.00850004 0.0059079146 0.00769435 -0.008159309 -0.0032868595 0.009959238
-0.00064278394 -0.0011295635 -0.0015409382 0.0134152025 0.008174318 -0.00058791746 -0.0005029674 -0.0075867656
0.00077769515 -0.00072367507 -0.0044085095 0.0025582248 -0.0010053301 -0.004248715 -0.0036182054 -0.0025226881
0.0076686554 -0.0019730427 0.016549645 -0.006761346 0.0010483484 0.0049185753 -0.0017739636 0.008398311
0.0028664018 -0.0035580264 0.007950742 -0.00450216 0.0026264342 -0.01182954 0.0013380524 0.002365429
-0.0044698953 0.00050946086 -0.0040321886 0.0048758285 -0.0023906594 0.0056747436 -0.003111968 -0.006182467
-0.0010624978 0.00652349 0.011619957 -0.0061617335 0.0046740584 0.008093748 0.007181458 0.0009733016
0.007001528 0.00076578505 0.0019566927 -0.008979425 -0.003163478 0.009939808 0.004287415 0.0054895533
0.0019190554 -0.0015508927 0.00070641865 0.0035903968 0.005935641 0.005628064 -0.0023685019 0.004219357
0.003411216 0.0070452667 -0.0021547615 -0.014873874 -0.002822698 -0.0019762001 -0.0032400775 0.0017112279
-0.0037715589 -0.008963482 0.0036310356 0.0062877736 -0.002975973 -0.0019398009 -0.0025325464 0.001458268
0.0005685595 0.0009325274 0.004127094 0.011256001 -0.003397009 0.00013443023 -0.008694017 0.00030953038
0.008608026 -0.00052530033 0.0016670298 -0.00067667745 -0.0062111053 -0.003989124 -0.0010601694 0.019667368
-0.00032550265 -0.001791901 -0.008633571 -0.0043065753 -0.00095669425 -0.012126912 -0.010544982 -0.011215708
-0.009389293 -0.0007151933 0.0050220843 -0.002509625 0.0051839347 0.0021405926 -0.008820863 -0.005787003
0.0028739504 -0.0064092004 -0.0039954684 0.0029682207 -0.0051797656 0.004138121 -0.00497742 -0.0075997845
0.00061494915 -1.2405027e-05 0.001245173 0.005340036 -0.007650827 0.003029247 -0.008434942 -0.007365233
-0.0010769528 -0.0036543354 -0.001033545 -0.003908088 0.0037133407 -0.0046642455 -0.01628758 -0.0041488055
-0.0012097665 0.013515848 -0.0015713891 0.01143099 -0.014507897 0.0043670377 0.0046129003 -0.004075317
0.011741023 -0.0076960786 -0.009181182 -0.00032233546 -0.0010682236 0.0032606341 0.0038722344 -0.007334134

network_body._body_endoder.seq_layers.0.bias f4 [256]
00000000: cb95 a2bb d2e9 9db9 6927 deba d736 223c
00000010: e805 3d3b 4690 c03a b55e e63b 6238 29bb
00000020: fba1 303b 262e b8bb 7d8d eb3a 1a54 7bbb
00000030: 3638 0cbb 45e8 fe3b 233c 2839 5a5a 983b
00000040: f619 863a 2d28 42ba 42ae cb3a ea63 0c3c
00000050: 74e3 b83b f37c 7cba 461f d7ba c437 5cbb
00000060: a082 4abb 79bf d23a 5a83 053b 4fc1 4a39
00000070: a792 82ba 3951 7d3b 8252 1d3b 0131 85bb
00000080: 16ce 12ba d8d3 9d3b 9a34 323b 1ebd 04bb
00000090: 4446 2cb9 316f be3b 8b26 e1ba 1983 a43a
000000a0: d0ee 9e3a f2c6 6539 7bba 36bb dbcd 4e39
000000b0: 487a 143b 318b fb39 5197 4d3b 8ae5 413a
000000c0: d4c0 87b9 74c3 003b 831d 1839 c846 74ba
000000d0: 2d1b 2dbb e7c9 0aba ca64 b43a 0f2f 0f3c
000000e0: 1131 823b 6467 5abb de38 913b b1cf 643b
000000f0: 3495 ef3a 2270 62ba 3af8 cd3b b66b 723b
00000100: 0e6b 67ba 08fc 4b3a 51fb 8239 68be 02bb
00000110: 86da 5d3b cdf7 6bbb 29db 05bb 2d8a 20bb
00000120: 14bc ce3a 51ff 82bb 226d 07ba b35d c73a
00000130: 57fa 1f3c ec54 693b f88d 15b9 1300 943b
00000140: e675 51bb c361 1a3b c565 043b 82d0 a23b
00000150: 25c0 953b bd46 fc3b 2abb 8c3a b150 493a
00000160: 12e1 9c3b ded5 1fbb fd33 2a39 fee1 c8bb
00000170: 4056 dd3b 4ecc 29bb 368f bb3b 5a2a d938
00000180: 4c2b e13a 3a4d 13ba 4105 26bb 1a12 cabb
00000190: 0548 25ba 0d5f 9b3a b147 423b 69d5 7e3b
000001a0: 4341 69bb ec29 153c ff9e 0c3b 02fb 42ba
000001b0: af35 faba d805 4b3b 5dce b9ba 5584 5d3b
000001c0: a74f 623b ff6c bd3a f02c c13a 508d 88ba
000001d0: 34bc c6bb a010 d3b9 bbfd b53a 345e 583b
000001e0: 0c03 d9ba 0867 c4bb 0408 0c3b f38b b338
000001f0: ee95 51bb fb7c d3ba 1c7e 9bb8 b57d e63b
00000200: ad28 dfba 8bc3 8e3b d6d6 893a 9f6c ce3b
00000210: cf99 243b 0bb1 513b 46c0 5dba 9006 5bbb
00000220: 9cb9 4d3b ea73 c2bb a1f2 a0b9 e543 9cba
00000230: c0a9 943b 5eb3 673a 6332 16bb 4010 a439
00000240: 6789 533b 365d e83a 94b4 9db8 13ce c23b
00000250: f823 44b9 0cfa 713b bc53 013b f692 3bbb
00000260: caf9 28bb 4ea5 e03b b653 583b 2077 82bb
00000270: 1e40 b43b 8e49 973b ecbb 7dbb 34e8 2c3b
00000280: c741 77ba 9c7d 453b fc48 1a3a 4ee7 0cbb
00000290: 90fb 6b3b 63a5 86ba dec8 03bb 3619 293b
000002a0: d543 49ba 4cc4 1cba 365e 863b c80d 38ba
000002b0: 4df7 fcb9 535e 173a 291a a13b c15f 713a
000002c0: a2c1 03bb b714 b33a a5d6 8cbb a88d 8cb9
000002d0: ca93 ec3b 73e7 24bb 35d5 49b8 c72e 103c
000002e0: e51a 593b 7cde a1bb a907 0e3b 86b7 3b3b
000002f0: 19d5 91ba 39b0 d03a a647 763b 1fdd a139
00000300: 614b 8b3b 5015 513b 5605 c83b 449e cc3b
00000310: cf74 853b 0c71 433b 8d76 14bc d97e ad3a
00000320: bca6 fe3a 2981 bb3b 70a9 84ba e1ad f63b
00000330: f460 923b 5322 d53b 05f6 0e3b 91a3 233b
00000340: 6e43 8c3b 3ec1 fb3a bbe1 053c d72b 8e3b
00000350: 8fd2 cd3a 79f1 5a3a 2d19 693b 9f40 36bb
00000360: 73de a9bb b62d 2d3b 2c0f bd3b 72bb 05bb
00000370: 70f5 c4ba 16ee 4f3a dbd6 c93b 5f97 cd3b
00000380: a938 e13b 4b7f 6f3b af04 9e3b 6d5c abba
00000390: e735 573a 0a92 9dba 1c7d 0d3c 8787 373b
000003a0: 8fba 9abb 98d5 e2ba 9550 b939 eb71 973b
000003b0: 9fad af3b be50 d1bb add9 5fbb 7452 193b
000003c0: 05cb 2abb 7290 653b 74e3 473b 7e68 1dbb
000003d0: f115 093c 85f8 17bb 9111 8e3a 0709 c4b9
000003e0: a859 b1bb 96bd 3f3b aeee c43b d83a c63b
000003f0: 81e0 a03b fdf5 d13a c7e0 0ebb 2773 0a3c
-0.0049617044 -0.00030119583 -0.0016949001 0.00990077 0.0028842632 0.0014691434 0.007030333 -0.002582096
0.0026952017 -0.0056207357 0.0017971244 -0.003834969 -0.002139581 0.0077791535 0.00016044131 0.0046494426
0.0010231126 -0.00074064994 0.0015539604 0.008568743 0.005642349 -0.0009631656 -0.0016412518 -0.0033602575
-0.0030900612 0.0016078792 0.002037248 0.00019336234 -0.0009961919 0.0038653149 0.0024005477 -0.0040646796
-0.0005600167 0.0048165135 0.0027191998 -0.0020254324 -0.00016429374 0.005811595 -0.0017177624 0.0012551277
0.0012125615 0.00021913255 -0.0027882147 0.00019722378 0.0022655893 0.00047978156 0.003137071 0.00073965697
-0.00025892875 0.001964775 0.00014506844 -0.00093184086 -0.0026413903 -0.0005294368 0.0013762948 0.008739247
0.0039731343 -0.0033325786 0.004431828 0.0034913833 0.0018278719 -0.0008637925 0.0062856944 0.003699047
-0.0008827903 0.0007781391 0.00024982778 -0.0019949917 0.0033852174 -0.0036005855 -0.002042482 -0.0024496422
0.0015772604 -0.0039977212 -0.00051661034 0.001521042 0.0097642755 0.0035603596 -0.00014262635 0.0045166104
-0.0031961142 0.0023556806 0.002020226 0.0049687037 0.0045700246 0.0076988623 0.0010736932 0.00076795655
0.0047875727 -0.002438895 0.0001623183 -0.006130456 0.0067546666 -0.0025909129 0.005723859 0.00010355255
0.0017179041 -0.00056191126 -0.0025332721 -0.0061667087 -0.0006304982 0.0011853889 0.0029644782 0.0038884527
-0.0035591878 0.009104233 0.0021457074 -0.0007437916 -0.0019089485 0.0030978825 -0.0014175881 0.00338008
0.003453234 0.0014452039 0.0014738124 -0.0010418091 -0.006064916 -0.00040257443 0.0013884822 0.0033015134
-0.0016556694 -0.0059937276 0.0021367082 8.561453e-05 -0.0031980234 -0.001613527 -7.414466e-05 0.0070340284
-0.0017025672 0.0043568066 0.0010516297 0.0062995697 0.002511609 0.0031996395 -0.0008459132 -0.003342066
0.003139115 -0.005934228 -0.0003069835 -0.001192209 0.0045368373 0.00088386785 -0.0022918216 0.00031292625
0.0032277943 0.0017727974 -7.519979e-05 0.005944976 -0.00018705416 0.0036922721 0.0019733747 -0.002862153
-0.0025783652 0.0068556434 0.003300888 -0.003981486 0.0055008074 0.0046169227 -0.0038716746 0.002638352
-0.0009432104 0.0030134683 0.00058855093 -0.0021500173 0.0036008097 -0.0010272678 -0.002010874 0.002580238
-0.0007677649 -0.0005980178 0.0041005863 -0.00070210965 -0.0004824944 0.0005774248 0.0049164486 0.0009207689
-0.0020104428 0.001366279 -0.0042980486 -0.00026808423 0.0072197663 -0.0025162369 -4.81207e-05 0.008800215
0.0033127603 -0.0049398523 0.0021672046 0.0028643324 -0.001112613 0.0015921659 0.0037579327 0.0003087306
0.004250929 0.0031903572 0.0061041517 0.0062444527 0.0040727626 0.002982202 -0.009061468 0.0013236656
0.0019428353 0.005722184 -0.0010121297 0.007528052 0.004467124 0.006504336 0.002181412 0.002496932
0.004280499 0.0019207371 0.008171494 0.004338722 0.001570301 0.0008352022 0.0035567984 -0.0027809513
-0.0051839887 0.002642495 0.005769631 -0.0020405916 -0.0015026759 0.0007931901 0.006159646 0.0062741484
0.0068732095 0.0036544378 0.0048223357 -0.001307381 0.0008209631 -0.0012021672 0.008635785 0.0028004365
-0.0047219465 -0.0017306088 0.00035345988 0.0046217344 0.0053612734 -0.006387799 -0.0034156844 0.0023395093
-0.002606095 0.0035028723 0.0030500563 -0.002401858 0.008367048 -0.00231889 0.0010838975 -0.0003739076
-0.005412299 0.002925729 0.006009898 0.006049495 0.0049095755 0.0016018745 -0.0021801458 0.008450306

network_body._body_endoder.seq_layers.0.weight f4 [256, 119]
00000000: df2e a53d 78ed e13c 86c6 7cbd 23a3 2c3e
00000010: 64a6 683d 41cf a3bd 8024 043d 1029 343d
00000020: e689 03be a349 9f3c 5c32 283d e8b5 463d
00000030: 8600 0cbd 8c79 19bc 4243 0dbc 0e55 27bd
00000040: f40c 6b3d 6a8b 2fbd e790 763d d7d4 fdbd
00000050: de23 b9bd e8bc 1d3e 173b a43c 2566 bfbd
00000060: f10e abbc b30f 30be 3829 2b3e 7c4a 9f3c
00000070: b591 b9bd fa3c 383d e323 093d d1d0 cfbd
00000080: f39f 7dbe d40c 9d3d 9873 1abe d1e5 7cbc
00000090: bc90 42bd 2a4d 5d3c 608b 153e ddd3 4abd
000000a0: 527e 333c 03d3 c8bd 26ba 993d f406 833c
000000b0: 4c09 41bd d775 9f3d 280e 0d3b 5d37 833e
000000c0: 4c4c f53d b200 88bd 5f2c b9bd 57a8 19bc
000000d0: cadd c23d 7cb8 ffbd 11c7 d83d aeb6 29bc
000000e0: 769e 89bc 08f2 0dbe 38d0 71be d58c d6bd
000000f0: 04c6 343d 5f83 d93d c232 89bd 5888 383d
00000100: 385e 0c3c 4310 213d 6628 be3d 12ce 01bd
00000110: 0f71 9d3d 6894 8b3d e53f 193d bf0f 87bd
00000120: a36b fb3d 4410 8bbd 46f8 b1bd 500d 5b3d
00000130: 4c92 293d f1a6 063d 36e4 2f3e 3abb 3bbd
00000140: 25d5 6bbe d3a3 10bd ab4e 323d 7927 733d
00000150: c548 c0bb 8c80 55be 9a2a 6a3d 030c 093e
00000160: 848b b63d 18ac ba3d 2651 513e d908 523d
00000170: 02eb d6bc 41d5 e6bd 1670 a0bb 5eea b5bc
00000180: 68d5 54bd ae18 283e 0d6c fe3c 4f21 d9bc
00000190: 1484 a83c 8bc1 a13d 6355 dc3d 3366 8b3d
000001a0: 8467 fcbd 1b93 3cbd f51e 8e3d e353 bf3d
000001b0: 4fc2 32bd 0906 243e 2598 7d3d 5b9b 223e
000001c0: 695f b63c 663f f53c c45f b4bd 9ee1 f6bc
000001d0: d68e 2cbc a0e6 c33d c13d c83d 0200 b73d
000001e0: e584 a4bd 8654 47bc f7d1 9d3d 796b df3b
000001f0: 311f a0bd 49fe c73d b8dc 993b f12c 603c
00000200: 7cc6 483d 7682 2b3e 4933 f6bc ae34 943d
00000210: 089a f5bd 539d ba3d 1223 e63a 44ab 06be
00000220: c97d 003d f51d a7bd 8032 7ebc f157 33bd
00000230: ad99 7ebc 5c85 b13c 2c15 04bd ffac a9bc
00000240: 61ce 63bd ccba 29bd 38ff 873d c8c3 01be
00000250: 820a 843c d8af 8ebd 45c8 8b3d 27a2 2c3e
00000260: 6908 6bbd 6ce8 d23b 60eb 983d e224 1e3e
00000270: 5a26 4cbc 38af 73bc 129f e2bd 1da3 81bd
00000280: b090 c8bd c5e6 f33b b3c1 9c3c 6846 253c
00000290: 6946 5a3e 293e fd3d 54aa 953b 712a c43d
000002a0: 2d11 dabd a504 323e 893d 44be 24f6 113d
000002b0: 9686 cb3d 911e 953d 5e7a 3ebd 6841 c93d
000002c0: 1438 8abd 16da 0abe c1a0 39be eeac 973a
000002d0: b11f 1a3d 2050 94bd b4a7 c23c 14ef 2abe
000002e0: 1615 303d 2cf1 d03d 4a82 30bd 6b33 ecbd
000002f0: 09a9 813c cb38 fdbd 2fca aabd e46c 2f3e
00000300: a605 ecbc f40c 03be 92b4 18bd 0794 e33d
00000310: a182 0ebc c3f3 c03d e235 22be 35a0 f4bd
00000320: 5c67 26bd dd48 03bd 545e 4b3d ec0c d0bd
00000330: 850a f13d bf49 a53d 397b ecbd 49ad 1bbe
00000340: dde7 50be ea24 303d 1a91 2c3d 3067 d83d
00000350: 4639 3bbd 683d 613d 15b8 0f3e 84e9 183d
00000360: 42b7 c9bd 8fc6 853d c51f d7bd e9f4 2fbd
00000370: e663 d9bd 5633 2abe cdf4 33bd fd25 b53b
00000380: 184d f2bc 7165 30be dfc7 69bd 1aac c5bd
00000390: bcd5 6a3d b1ba b3bc 63d6 1a3e c53b 4f3d
000003a0: 41b4 95bc c197 ffbd 31c5 65bc f995 3f3e
000003b0: 4823 faba 061b 91bd 8aca 953d 4d0f 903d
000003c0: d718 93bd 05e8 a0bd 6c5e 8abe d147 9ebb
000003d0: 7394 f23d c18c 09bd a653 103d f47c 68bd
000003e0: d1fd 5f3d 87a9 7abd 956c 47bd 8149 3a3d
000003f0: c953 1e3d 9581 013e fe1d 7a3d 3d4e 08be
0.080655806 0.027579054 -0.061712764 0.16859107 0.056799307 -0.07998515 0.03226137 0.043984473
-0.12845573 0.019444292 0.04106365 0.048513323 -0.034180187 -0.009367358 -0.008621993 -0.0408526
0.0573854 -0.042857565 0.060196783 -0.123941116 -0.09040044 0.15404093 0.020047707 -0.093456544
-0.020881148 -0.17193489 0.16714942 0.019444697 -0.090609945 0.044980027 0.03348149 -0.101472504
-0.24768047 0.076684624 -0.15083158 -0.015435652 -0.04750131 0.013507167 0.14603949 -0.049518455
0.01095541 -0.09805872 0.07506208 0.015994526 -0.047128007 0.07786148 0.002152333 0.25628176
0.11977443 -0.066407576 -0.09041666 -0.009378514 0.09514959 -0.124863595 0.10584844 -0.010358496
-0.016799193 -0.13861859 -0.23614585 -0.1047608 0.044134155 0.1062076 -0.066991344 0.045051903
0.008567385 0.03932215 0.09285049 -0.031690665 0.0768758 0.068154156 0.03741445 -0.065948
0.122763894 -0.06790212 -0.086899325 0.053479493 0.041399285 0.03287405 0.171769 -0.04583285
-0.23030527 -0.035312485 0.043532055 0.059363816 -0.00586805 -0.20849818 0.057169534 0.13383488
0.08913329 0.091148555 0.20441112 0.05127797 -0.026235107 -0.11271144 -0.004896174 -0.022206482
-0.051961333 0.16415665 0.031057382 -0.02650514 0.020570792 0.078982435 0.10758474 0.06806602
-0.123244315 -0.04603873 0.06939498 0.09342172 -0.04364234 0.16017927 0.061912674 0.15879576
0.022262292 0.029937457 -0.08807328 -0.03013688 -0.010532102 0.095654726 0.097774036 0.08935548
-0.0803316 -0.012166148 0.07706063 0.0068182317 -0.07818449 0.09765298 0.004695501 0.01368259
0.049017414 0.16748986 -0.030053752 0.0723661 -0.1199227 0.091120385 0.0017558059 -0.1315127
0.031369958 -0.08160011 -0.01551497 -0.04378504 -0.015539569 0.021670036 -0.032246754 -0.020712374
-0.05561674 -0.04143791 0.06640476 -0.12672341 0.016118292 -0.06967133 0.06825308 0.16858731
-0.057381067 0.0064363983 0.07466769 0.15443757 -0.012460316 -0.014873318 -0.110654965 -0.063299395
-0.09793222 0.0074432814 0.019135332 0.010087587 0.21315922 0.12365372 0.004567424 0.095784076
-0.10647807 0.17384584 -0.19164099 0.03563513 0.099377796 0.07281221 -0.046503417 0.098269284
-0.06748977 -0.13559756 -0.18127729 0.0011571923 0.03762788 -0.07241845 0.023761608 -0.16692764
0.04298886 0.1020225 -0.043093003 -0.11533245 0.015827673 -0.12364348 -0.08339345 0.17131382
-0.028811287 -0.1279791 -0.03728158 0.11112218 -0.008698137 0.09421494 -0.15840867 -0.119446196
-0.040625915 -0.03205191 0.049650505 -0.10158715 0.117695846 0.080707066 -0.1154694 -0.15202822
-0.20400949 0.043003954 0.042130567 0.105665565 -0.045708917 0.054990202 0.14035065 0.037332073
-0.09849407 0.06532013 -0.105041064 -0.042958174 -0.10614757 -0.16621146 -0.043934632 0.00552821
-0.029577777 -0.17226197 -0.057075378 -0.096519664 0.05733274 -0.021939607 0.15120845 0.05059411
-0.018274428 -0.12480117 -0.014024065 0.18709554 -0.0019084001 -0.070852324 0.07314022 0.070341684
-0.07182472 -0.07856754 -0.27025163 -0.0048303385 0.11844721 -0.0335815 0.035236023 -0.05675979
0.054685418 -0.06119683 -0.048687536 0.045480255 0.038654123 0.12647088 0.06106376 -0.13311096

network_body._body_endoder.seq_layers.2.bias f4 [256]
00000000: fa55 323b 81f9 9d3a dc99 a53a c848 6bb9
00000010: 89ba 373b 4d7c 823a 7343 1cba 1b6e 803b
00000020: e8aa ec3a 27d2 d739 85ea 20bb 7c07 8cbb
00000030: 5978 b1ba 6df0 453b bfce 1abb f402 1339
00000040: 2244 14bb 78eb 5abb eac3 833b 0dd2 083c
00000050: fbec 50bb 73fb b6b9 b7a2 71ba f814 253b
00000060: 983d c23b 91f8 23ba e234 0cbb 4e7e 9d3b
00000070: 6ca4 a43b 70a8 76bb aace 8e3b b584 623b
00000080: 185a 933b 9a76 0f3b 39c4 1e3b d8e8 88bb
00000090: 75d1 3cba 5b00 68b9 e758 6fba ca6d a53a
000000a0: f486 f4ba 7de3 19bb 43d4 8d3b 2ddf c93a
000000b0: af84 503b d922 43bb 9926 1bbb 2c8e cb3b
000000c0: 76cf d83b c941 443b e74a e63a 4c3b 88bb
000000d0: 9837 013b f4fa eb3a 9573 513b 7059 99bb
000000e0: e969 a8bb b96b c3bb 7e3e ba3a cf4b 1f3b
000000f0: 1e23 1eba 4092 c03b c3d8 30bb ec74 b8b7
00000100: 3e8a f2b8 ed00 223b b400 113a 9d0f bcba
00000110: c07f a1ba dfed 54ba 767e 15bb 9851 6b3b
00000120: 0fcf 4b3b c4e5 aab9 5c95 bcba 4cc8 3e3a
00000130: 2ee4 763a bf0c 9f3a a1d1 12bb 289a 853b
00000140: 6018 c6b9 1924 ffb9 f609 603b 4ff6 d439
00000150: 295f ddba c9cc 0f3b e73b 95b9 a7b4 123a
00000160: f081 41ba b068 13bb 42a4 fbba f38f 7d3b
00000170: 2d8c f339 7564 68ba 7df9 053b a61d c5ba
00000180: e56b a1b9 1140 a2ba adf4 d2ba 326f a83a
00000190: 2144 803b 58fb 253a 5a4e 3a3a a23c 9bba
000001a0: 59ea cb3a 360a e73b 19ff 15b9 8e8b c13a
000001b0: 62e5 21bb 8f5e 0eba 4d40 213b ac22 69bb
000001c0: f80e eb3a 593f 28bb 42b3 3839 4af2 d0ba
000001d0: 58eb 263b d031 d1bb 4282 89b9 24d1 9b38
000001e0: c95f cd3b a3d6 ae3a c725 d53b 13f6 333b
000001f0: cf0f 09ba 2916 bd3a c799 cdbb f529 8bba
00000200: 8aa4 8e3b d39d d13a 65c1 67ba 863f 9b3b
00000210: 89c3 81bb 7858 1d3b 049d 1a3b 8110 17ba
00000220: f5e7 083b 2426 a338 c67f 16bc 4ecb 5dbb
00000230: 4a8f 693b 9999 0e39 b252 0fbb 79b0 573b
00000240: fad1 583b dbee 763b 4fd9 853b c573 26bb
00000250: a0ec 7c3b 9fb3 bd3a 365c 863b ee80 16bb
00000260: 8cdb 8d39 3ffc bbbb 542a a03b 7990 e93b
00000270: b3be 883b e194 89bb 27d0 26bb 72ef 683b
00000280: eba6 913b 144b a13a 95de 6f3b fa00 c8ba
00000290: 1aab 2c3b f314 983a 6652 b43a bb0e ebba
000002a0: a3cf 273a 4224 c63b 9a40 98ba 3899 87bb
000002b0: f412 523a 4940 643b e097 e33b e05d 9dba
000002c0: c0d7 8a3a 588e 873b e245 b9ba a53d 13ba
000002d0: 2bb9 ee3b 36b5 b1bb 4022 1d3b 1cf8 b53b
000002e0: 9447 053b b8c0 ee3b 9b92 8c3a 65ce d2ba
000002f0: 7b4c c33a fea2 a73a de78 b039 2221 83ba
00000300: efe1 733a dd9a 12bb 2b99 193b a929 5a3b
00000310: 017a 563b 0704 853b 54da 083a bff4 22bb
00000320: 0c13 9b3b 2c5f 633b 68f4 49bb 3436 f5b9
00000330: 0627 cf3b 6993 06ba 9da8 803b 2322 0d3b
00000340: 5a29 a6bb 033a be39 0d40 97bb c098 613b
00000350: 5b9d 6f3b 5c22 4c3a d74c 8fba b93b dc3a
00000360: aae8 16bb 746c e6ba 311f 58bb ce43 a9ba
00000370: 3c72 023b 2831 87ba efaf d33b 0fc4 a2ba
00000380: ebeb 253a cce4 313a 51b3 143b 6f8f d5b8
00000390: 8638 d13b f6cd 603b 26aa d83a 5d41 a33b
000003a0: 4c36 3a3b 7cf2 beba b06c 0cba 654b 1d3b
000003b0: cbcf 4cba 0a61 b3ba e254 aeb9 3a25 423a
000003c0: fbbe e9ba 5850 4e3a 4057 9b3b 0ef3 07bb
000003d0: ea7c 88ba 0988 583b 0ebc ae3b 3d2f 88ba
000003e0: cbba 7d3b a64b cf38 57c7 963b 9f1b 9c3a
000003f0: 815c c039 629a a13b 7de1 f6b9 8adc 403b
0.002721189 0.0012052507 0.0012634355 -0.0002243846 0.0028034768 0.0009955257 -0.00059609785 0.0039193756
0.0018056305 0.0004116457 -0.0024553847 -0.004273353 -0.0013539895 0.003020312 -0.0023621765 0.00014020113
-0.0022623618 -0.003340451 0.0040211575 0.008350861 -0.0031879533 -0.0003490109 -0.0009217667 0.00251895
0.0059277527 -0.0006254996 -0.0021393825 0.0048063165 0.0050244834 -0.0037637018 0.0043581324 0.0034563963
0.004496824 0.002189076 0.0024225845 -0.0041781478 -0.00072028424 -0.00022125377 -0.0009130374 0.0012621221
-0.0018655942 -0.002348154 0.004328282 0.0015401595 0.0031817367 -0.002977541 -0.002367413 0.0062120166
0.006616528 0.0029946438 0.001756993 -0.0041574594 0.0019716974 0.0018003867 0.0031959761 -0.0046798512
-0.0051395786 -0.0059637693 0.0014209298 0.002430666 -0.00060324545 0.0058768094 -0.0026984669 -2.1988955e-05
-0.00011565209 0.002471979 0.0005531416 -0.0014347915 -0.0012321398 -0.0008122604 -0.0022810972 0.0035906788
0.0031098758 -0.00032596115 -0.0014387774 0.00072777714 0.00094181567 0.0012134536 -0.002240278 0.0040772147
-0.00037783664 -0.00048664285 0.0034185625 0.00040619305 -0.0016889322 0.002194213 -0.00028464125 0.00055963773
-0.0007381728 -0.0022492819 -0.0019198733 0.0038690537 0.0004645301 -0.0008865067 0.0020442896 -0.0015038743
-0.000307887 -0.0012378712 -0.0016094648 0.0012850522 0.0039143716 0.00063317036 0.0007107012 -0.0011843632
0.0015557512 0.007050778 -0.00014304779 0.0014766322 -0.0024703373 -0.00054309604 0.0024604977 -0.0035573645
0.0017933538 -0.0025672524 0.00017614386 -0.0015941348 0.0025469866 -0.006384112 -0.00026227726 7.4299314e-05
0.006267522 0.0013339113 0.0065047476 0.0027459904 -0.0005228491 0.001442616 -0.006274435 -0.0010617363
0.0043531107 0.001599247 -0.0008840769 0.004737797 -0.003960077 0.002400903 0.0023592124 -0.0005762652
0.002089021 7.77955e-05 -0.009185737 -0.0033843103 0.0035638385 0.00013599395 -0.0021869359 0.0032911582
0.003308414 0.003767899 0.004084743 -0.0025398594 0.0038593188 0.0014473087 0.004100348 -0.0022965032
0.0002705719 -0.005736857 0.0048878584 0.007127818 0.0041731237 -0.004198656 -0.0025453658 0.003554311
0.004444947 0.00123057 0.0036601175 -0.001525908 0.0026347102 0.0011602923 0.0013757467 -0.0017933467
0.0006401485 0.0060468027 -0.0011615932 -0.004138138 0.00080136885 0.0034828356 0.006945595 -0.0012006126
0.0010592863 0.0041368417 -0.0014135207 -0.0005616791 0.0072852573 -0.0054232134 0.0023976713 0.0055532586
0.0020336853 0.0072861575 0.0010724844 -0.0016083239 0.0014900112 0.0012789664 0.0003365939 -0.0010004381
0.0009303381 -0.0022370138 0.0023437242 0.0033288992 0.0032726529 0.004059318 0.00052205217 -0.0024865118
0.004732495 0.0034694178 -0.0030815843 -0.00046770426 0.0063217906 -0.000513366 0.0039263503 0.002153524
-0.0050708475 0.00036282846 -0.0046157897 0.0034423321 0.0036562297 0.00077871024 -0.0010932934 0.0016802467
-0.0023026862 -0.0017579929 -0.0032977576 -0.0012913884 0.0019904515 -0.0010314332 0.006460182 -0.0012418049
0.0006329405 0.00067861076 0.0022689889 -0.00010183348 0.006384912 0.003430245 0.00165302 0.004982157
0.002841371 -0.0014568116 -0.0005356772 0.0024001237 -0.0007812946 -0.0013685536 -0.0003325111 0.000740606
-0.0017833406 0.00078702485 0.0047406256 -0.0020744237 -0.0010413204 0.0033040068 0.0053324765 -0.0010390055
0.0038716074 9.88462e-05 0.0046014 0.0011910087 0.00036690015 0.004931734 -0.00047088778 0.0029428327

network_body._body_endoder.seq_layers.2.weight f4 [256, 256]
00000000: b84b 7f3a dda9 233e a866 fe3d ee05 1bbd
00000010: b3f1 943d 8473 893d 132d 4f3d f7be ddbd
00000020: fd3b cb3d 0335 13be b1ed 0c3d 3f77 f33b
00000030: 3d4d 3bbc e4e2 e33c fce5 333d 51b3 9e3b
00000040: eba0 d2bc 9a96 453e 601a 143d 5b67 733c
00000050: 93af e63d 4911 67bd 20c8 ab3d bdf1 8fbc
00000060: 0c92 a3bc cdf4 c63d b173 c23c 2035 e9bc
00000070: 7147 f9bc c5f8 013d af05 9e3d 118e 023c
00000080: 36b1 683d 86f8 ffbd d1de b23c 4c5b 92bd
00000090: 9428 c9bc 6e58 083d 55aa adb9 d0f2 49bc
000000a0: 2c1a 22bd 5e5a 313e 3a2d 0bbc 4186 f3bc
000000b0: e1b6 0c3c bad4 54bc 3dc9 103d e979 be3d
000000c0: 31de 853c 2368 193d 2054 153c d4d3 9a3c
000000d0: 2eeb 66bd 1b6d b93c 3c1f 483d dbc2 333d
000000e0: 5626 9dba ac40 01bd 7050 833c dbec 893d
000000f0: 6e38 fdbb d9a0 213d 8210 5d3c 2f55 1a3d
00000100: eaf8 0abe 0c3c 8abc ec13 88bb de97 b8bd
00000110: 0915 013d 9c33 afbc 5295 e33b 37c1 bb3c
00000120: a624 753d 496a 103d f67e b73b d164 37bd
00000130: 0acf 4e3d ee14 c6ba 20c3 9dbd 825f 88b9
00000140: 36c5 933d 4c2f d7bc a50e 96bd 0405 a538
00000150: 531f 32bc fc08 edb9 0852 da3d 1a4a 1dbe
00000160: b682 333d e876 753d b4b2 053c 8256 2b3d
00000170: c99f 2dbd de29 92bc ae48 09bd a75c 673c
00000180: b7e1 0dbc 8a78 e2bb 7bb0 acbd 17cf fdba
00000190: 7795 063b 5dd8 b23d e28f 6f3b 8698 9ebc
000001a0: 5f98 99bc 3dbe e3bb 5bed 483c ec3c e23c
000001b0: 13b0 8c3d e2f0 e23b c597 30bd c851 bdbc
000001c0: 0525 dfbc 5775 b3bd 1bb2 a03c 8859 a6bd
000001d0: 7226 213d d917 83bd fe47 0b3e b0af 643d
000001e0: 51b6 64bd e7f0 10bd 7c27 3fbc 0570 d03c
000001f0: cbb4 35bd 8d08 68bd 8f06 b63d f9ea b83d
00000200: 7fb6 81bd 373c 6cba d303 7f3b dd5e a9bd
00000210: 87ac 733d cf24 e43d e942 013d 1e2d 563c
00000220: 1200 e73c bd34 cbbd 9860 3d3d af26 9e3d
00000230: 33d5 c9bb bfae e73b a391 133e 8e5f be3c
00000240: 92b0 c9bd 5863 933c b8c0 bcbd 3150 033d
00000250: 621e e63d 2fbf 13bd 7eb6 1f3d 3de1 59bb
00000260: 0702 cd3d b2e1 a0bd 4a86 983d 5bf8 50bc
00000270: dad2 9a3c 296a 98bc c21f 36bd 2352 953d
00000280: 2029 31bd b148 adbc e2c7 cebd dbcf f4bc
00000290: b1de 9e3c b920 d5bc 6475 c73c a7a6 393e
000002a0: 366c c1bd 43c5 5abc 74fa 99bb 28bd 03be
000002b0: 9f01 56bd 0930 f1bd e707 09bd 0846 573b
000002c0: 8ece e63b 078d 57bc 9ab9 813d 7a58 473d
000002d0: b501 86bd c61f 52bc c1ff 3cbe ea9e 18bc
000002e0: 791f f7bc 3a92 52bc 9cdd 243b d5dd 98bc
000002f0: 50fd c83d 854c 0abd 87ca b4bd 696e 3f3d
00000300: ffa5 3abc ee1d a5bd 9e61 8a3c 0863 013c
00000310: 84e2 d8bd b94e d93d 91fa 013d ba93 c6bc
00000320: 8a0f d7bc 26f7 84bd a422 febd f701 b7bb
00000330: 1daf 09bd 6539 323c 4dea a13d c07a 803a
00000340: 7caf 06be 55f2 85bc bac8 833d 8ee1 97bc
00000350: e076 8abc 2cab 683d 6f60 da3c e369 82bd
00000360: 7a6f 20bc 63fa c63c 67eb 47bd 91ad 09bd
00000370: 5065 abbd daee bcbc 8e8e c2bd 9c95 b43d
00000380: 6885 073e 8520 2d3d 6d1a 263d c8a3 ee3a
00000390: 2f28 75bd 93cb 72bd d691 cebc 5acb dc3d
000003a0: 4fac 243d f9e8 043e 4642 803d 992d 69bd
000003b0: 1c98 12bd cb19 d4bc 6109 34bd f3fc 113b
000003c0: 3b8a 8d3d 1321 893d 392b 2fbd 8efa 0c3d
000003d0: d965 bcbc 6c1d a23d db1f 1dbd cf7a aebc
000003e0: 9aa7 80bc 4ba3 c73d 2a18 ea3d db20 8f3d
000003f0: f446 7a3d 1960 243d eac3 1dbe d830 c6bd
0.0009738761 0.15982766 0.12421924 -0.037847452 0.07272663 0.06711486 0.050580095 -0.10827439
0.09923551 -0.14375691 0.034406368 0.0074299867 -0.011431989 0.02781815 0.043920502 0.0048431535
-0.025711497 0.19295731 0.036157966 0.014856185 0.11263957 -0.05641297 0.0838778 -0.017571324
-0.019967102 0.09714661 0.023736807 -0.028467715 -0.030429574 0.031731386 0.07715928 0.007968442
0.056809627 -0.12498574 0.021834763 -0.0714632 -0.024555482 0.033287458 -0.0003312404 -0.012325957
-0.03957574 0.17319629 -0.00849467 -0.029727103 0.008588524 -0.012990171 0.035348166 0.09300596
0.0163413 0.03745283 0.009114295 0.018899836 -0.05637663 0.022635033 0.048857912 0.043887
-0.0011989574 -0.031555817 0.016029567 0.0673463 -0.007727674 0.039460037 0.013492705 0.037678894
-0.13571516 -0.016874336 -0.0041527655 -0.09013341 0.0315142 -0.021386914 0.0069452906 0.02291928
0.059849404 0.03525761 0.0055998517 -0.04477388 0.050490417 -0.0015112439 -0.07703233 -0.000260111
0.072153494 -0.02626767 -0.07327012 7.868747e-05 -0.010871726 -0.00045210856 0.106601775 -0.15360299
0.043825828 0.05992785 0.008160282 0.041830547 -0.04238871 -0.01784223 -0.03351658 0.014121211
-0.008659772 -0.006911342 -0.084320985 -0.0019364086 0.0020535865 0.08732674 0.0036554267 -0.019359838
-0.018749414 -0.0069501684 0.012263621 0.02761694 0.06869521 0.006925688 -0.04311349 -0.023110285
-0.027239332 -0.08762615 0.019616177 -0.081225455 0.039343305 -0.06401033 0.13601682 0.05583161
-0.055837933 -0.035385992 -0.011667129 0.02544404 -0.04436187 -0.05664878 0.0888797 0.090291925
-0.063336365 -0.0009011658 0.0038912192 -0.08270047 0.059490707 0.11139833 0.03155795 0.01307228
0.028198276 -0.099221684 0.046234697 0.07722222 -0.0061594485 0.007070392 0.14411025 0.023238923
-0.09848131 0.017991707 -0.09216446 0.0320589 0.11236264 -0.036071 0.038992397 -0.0033245825
0.10010152 -0.07855548 0.074474886 -0.012754525 0.01889937 -0.018605309 -0.04446388 0.07291057
-0.04325211 -0.021152826 -0.10096718 -0.02988427 0.019393297 -0.02601658 0.024347968 0.18129979
-0.09444468 -0.013352695 -0.004699046 -0.12865126 -0.05224764 -0.1177674 -0.033454802 0.0032848138
0.007043666 -0.013156182 0.06334229 0.048668362 -0.06543294 -0.012824958 -0.18456937 -0.009315232
-0.030166375 -0.012852246 0.0025156504 -0.018660465 0.098139405 -0.03376438 -0.088276915 0.046736155
-0.011392116 -0.08062349 0.01689225 0.007897146 -0.105900794 0.10610718 0.0317331 -0.024240363
-0.026252527 -0.06492452 -0.12408951 -0.005584951 -0.033614267 0.010877942 0.079060175 0.0009802207
-0.1315288 -0.016350904 0.0643477 -0.01854017 -0.016902387 0.056803867 0.026657311 -0.063678525
-0.009792203 0.024289316 -0.04880848 -0.03361279 -0.08368933 -0.023063112 -0.094998464 0.08817598
0.13234484 0.04226734 0.040552545 0.001820677 -0.059852775 -0.059276175 -0.025216024 0.10780974
0.04020339 0.12979497 0.06262641 -0.05692825 -0.035789594 -0.025891205 -0.043954257 0.0022276014
0.06911131 0.066957615 -0.04276583 0.034418635 -0.022997783 0.07915768 -0.038360458 -0.021298794
-0.015704919 0.097479425 0.1143039 0.069886886 0.061102822 0.04013071 -0.15406767 -0.09677285

network_body._body_endoder.seq_layers.4.bias f4 [256]
00000000: d297 873b 0c0d 09bb 8507 cdba 43fa 7a3b
00000010: c3e0 a1ba 92bd 843b 6004 0bbb b08e 0dbb
00000020: aa53 26bb 2b06 8339 e5c5 50bb abfe 213b
00000030: 3150 c23a bffc 1d3a e41c b2ba 0d5f 203b
00000040: adf6 06ba 073e 5c3b 87e0 1b3b 94d2 5d3a
00000050: e6df cbba e495 713a 610e 263b 9015 8d3b
00000060: 3edc 37bb 264f 8d3b c96a 783b 74e8 cfba
00000070: 0d66 d139 dd6d 323a 27ff efba 149d c6ba
00000080: 23bd 093b c50d 4dbb 3070 1d3b cea6 05bb
00000090: d8b5 51bb 4972 063b 156b bd3a 25a9 22ba
000000a0: cce9 aa3b 955f a0ba c8ac 9dba 099b d23a
000000b0: 1713 57ba f231 ceba 27be d53a b389 f138
000000c0: f835 2d3b 2523 863b 69cf 9a3a 0266 82ba
000000d0: ef48 fbba 362c 6e3b 7770 02bb dba3 823a
000000e0: 6f69 31b9 fb17 733b 0e10 08ba f32b 103a
000000f0: 4edd e7ba 1b94 693b c6f1 123a b5bf a53b
00000100: 3482 873a b681 9c3a 5aba 223b e65c 1ebb
00000110: a3ea 2a3b bc35 c2ba 080b c13a cda5 42bb
00000120: 2c6f 57bb e9f4 b83a 7786 dfba 9875 0fbb
00000130: 434e 913b 2e04 033a dd48 e6b9 9d21 903b
00000140: d60a 3d3b ceb6 a73b dfb2 2b3b 622a 603b
00000150: ab6f ff3a 69c0 e739 9e08 a2ba 3bd1 8d3b
00000160: 5b30 8639 9f3d 2a39 5c76 023b 5c34 efba
00000170: 6bb9 1a3a 2411 5fbb 22a3 293b b378 373b
00000180: 0bf0 8e3b a01c c039 9cc2 ad3b 0966 813a
00000190: a812 543b 4289 e6ba 44c7 6eb9 8185 2ebb
000001a0: 21f7 b0b8 6ca0 13bb 6fb6 853a 0e26 823b
000001b0: d87d 2a3b 9d9b c3ba b71b feb8 4f4a ef3a
000001c0: 9d60 3b3b ff9e 7c3b 57cb cdba a190 3c39
000001d0: dfd3 07ba 70cd 5a3b 12ea 1bbb 7508 513b
000001e0: cd4a 19ba 5973 05bb 28a9 63b9 d588 98ba
000001f0: b2e3 593b caf3 213b edd3 5f3a 8ac1 643a
00000200: 18b1 f13a 1d71 403b 75a8 be3b 6c6f 7b3a
00000210: 31b4 8036 6c63 49bb ba25 813b ce8f bf3a
00000220: 67cc 48ba 0d8a 053b f35f edba 9621 2c3b
00000230: 150c 82ba a422 9f3b 9d87 9fb9 c76f dc39
00000240: f5e4 343b 3279 82ba e8b7 583b 8ad0 6638
00000250: 2ebf aa39 5599 323a 27eb 5cbb b153 753b
00000260: 2777 ab3a 7fc0 c23a 1f5f 313b b8ea 4d3a
00000270: 514e 58bb b899 54bb 0d79 41b9 453e ab3a
00000280: 1a9d 9cba 67d6 00bb 72e1 973b 1869 5d3b
00000290: 15e7 443b 3d3d 1cbb dc32 abba 5fcf c4ba
000002a0: 60be e8b9 4c58 1d3b 83ef 4cb9 3df0 d93a
000002b0: c7ba ab3a 8c2d 833b 0351 bf3a 06ae 62bb
000002c0: c53c 283a fff5 703b 41db aeba 2b32 d5ba
000002d0: ae92 84ba 16c5 b53a 0ba3 0cbb 9af8 18ba
000002e0: 6707 3ebb 0143 203a fc19 113b 6405 f2ba
000002f0: 34e7 7dba a18d a738 4b23 353b 4426 e43a
00000300: 11d6 653b afea 4fba 8aaf 4e3b f58e ba3a
00000310: 5309 83ba 41bd 643b aa76 6c3b 7df3 9d3b
00000320: 4bf0 683b 5864 47bb a2b9 f9b9 9de5 b43a
00000330: b70b b3ba 1c4f ef3a 5146 c1ba 9271 0d3b
00000340: 3e6b 3c3a 5aff a7ba 186a 033b 2ba8 813b
00000350: 0944 d8bb 3fe0 94b8 e3a7 b13b 4342 63b9
00000360: 0cdb bd3a 31e9 64bb 93df 68bb 9ef8 5fbb
00000370: 6600 a93a 8d84 bcba 14d3 12bb 04b4 4b3b
00000380: 9bd2 8c3a 89cd c03a faaf ecba 62e6 503b
00000390: 5e79 db3a 35f0 b5ba 4849 303b 716c 843b
000003a0: 08e0 4e3b 8310 d3b9 0f46 23bb 7128 3dbb
000003b0: 9e90 dbba 1a77 3c3b d431 9cba 208e 50ba
000003c0: 6acc 883a 65c9 263a 6b64 50bb 4ead e039
000003d0: 2522 4f3b 8209 ddba fb4c 3d3b 65cd 533b
000003e0: 22a6 333b 8fdb c33a 8cf6 6aba c8f5 973b
000003f0: 3cd6 38bb d102 693b 025a 973b d1a2 2ebb
0.0041379714 -0.0020912318 -0.00156425 0.003829614 -0.0012350309 0.004050919 -0.0021212325 -0.002159994
-0.0025379458 0.00024990863 -0.0031856236 0.0024718444 0.0014824924 0.0006026737 -0.0013588932 0.0024470717
-0.0005148452 0.0033606307 0.0023784952 0.00084618595 -0.0015554398 0.0009215756 0.002533816 0.004305549
-0.0028054859 0.0043124137 0.0037905446 -0.0015862123 0.0003993962 0.0006806532 -0.0018310294 -0.0015153014
0.0021017275 -0.0031288725 0.0024023168 -0.0020393613 -0.0031999256 0.0020514897 0.0014451469 -0.0006205014
0.005215859 -0.0012235517 -0.0012029642 0.0016067933 -0.0008204444 -0.0015731438 0.001630728 0.00011517424
0.0026429873 0.004093545 0.0011811081 -0.0009948614 -0.0019171516 0.003634227 -0.001990346 0.0009967046
-0.00016919312 0.003709315 -0.00051903806 0.0005499713 -0.0017689855 0.0035641256 0.0005605485 0.0050582536
0.0010338486 0.0011940512 0.0024830312 -0.0024164259 0.0026079796 -0.001481704 0.0014728019 -0.0029700876
-0.003287266 0.0014111075 -0.0017053623 -0.002189016 0.0044343784 0.0004997876 -0.00043923306 0.0043985383
0.002884557 0.0051182276 0.0026199145 0.003420495 0.0019488236 0.0004420311 -0.0012362187 0.0043279207
0.000255945 0.00016235419 0.0019906973 -0.0018249857 0.0005902263 -0.0034037316 0.0025884588 0.0027995526
0.0043621114 0.0003664242 0.0053027403 0.0009872328 0.0032359753 -0.0017588513 -0.00022771681 -0.0026629867
-8.438365e-05 -0.0022526039 0.0010201464 0.0039718216 0.002601495 -0.0014923696 -0.00012116826 0.0018256399
0.0028591522 0.0038546917 -0.0015700859 0.00017982956 -0.00051814126 0.003338661 -0.002379064 0.003189591
-0.0005847633 -0.0020362942 -0.00021711423 -0.0011637459 0.003324729 0.002471196 0.00085383543 0.00087263493
0.0018439619 0.0029364296 0.0058184215 0.0009591493 3.8356743e-06 -0.0030729426 0.003941265 0.0014615001
-0.0007659853 0.0020376474 -0.001811026 0.0026265136 -0.0009921814 0.0048564244 -0.00030427883 0.0004204495
0.002760229 -0.0009954332 0.00330686 5.503049e-05 0.00032567367 0.00068130094 -0.0033709498 0.0037433917
0.0013081775 0.0014858394 0.0027064753 0.0007855105 -0.0033005665 -0.0032440256 -0.00018451009 0.0013064822
-0.0011948675 -0.0019659044 0.0046350295 0.0033784565 0.0030044962 -0.0023840212 -0.0013061422 -0.0015015415
-0.0004439233 0.0024008928 -0.00019544181 0.0016627383 0.0013101929 0.0040032323 0.0014596287 -0.003458859
0.0006417747 0.003676772 -0.0013340489 -0.0016265562 -0.0010114515 0.001386794 -0.0021459486 -0.00058353844
-0.0028996111 0.00061135 0.0022140732 -0.0018464741 -0.0009685636 7.989561e-05 0.0027639444 0.0017406424
0.003507022 -0.0007931394 0.0031537735 0.0014233278 -0.0009997286 0.0034902843 0.0036081471 0.004820286
0.0035543616 -0.00304248 -0.00047631288 0.001380134 -0.0013660108 0.0018257829 -0.0014745687 0.0021582586
0.0007187611 -0.001281719 0.002005225 0.0039568148 -0.0065999073 -7.098959e-05 0.005421625 -0.00021673091
0.0014484837 -0.0034929032 -0.0035533651 -0.0034175287 0.0012893796 -0.0014382765 -0.0022403644 0.003108264
0.0010743918 0.0014709692 -0.0018057816 0.00318756 0.0016744544 -0.0013880791 0.0026899148 0.0040412475
0.0031566638 -0.00040257358 -0.0024913584 -0.0028863216 -0.0016751473 0.0028757514 -0.0011916705 -0.00079557486
0.0010436897 0.00063624076 -0.0031798135 0.0004285373 0.0031606045 -0.0016863795 0.0028884995 0.003231847
0.0027412255 0.0014942753 -0.000896313 0.0046374537 -0.0028203866 0.0035554657 0.004618884 -0.002664734
