results/Run 11/AgentController/AgentController-1000124.onnx (onnx, 657373 bytes, 14 tensors)

83 f4 [116]
0.25674728 0.15751371 0.20838743 0.2616056 0.27352518 0.16464384 0.22514614 0.26303932
0.25484064 0.1593725 0.20451123 0.2627792 0.2869939 0.17401163 0.23620456 0.26421565
0.25565594 0.16084531 0.20448244 0.2651272 0.28301194 0.17801349 0.22806402 0.26476866
0.24734123 0.15710726 0.19628486 0.26436025 0.26639423 0.17165595 0.21053723 0.2657152
0.23686492 0.14972833 0.18806587 0.26106414 0.25791436 0.16651903 0.20311135 0.2689039
0.23973116 0.15018272 0.19149841 0.2588214 0.26691824 0.17595601 0.2078045 0.27249303
0.24694996 0.15685108 0.19595423 0.2566543 0.27460262 0.1889573 0.20746815 0.27296627
0.25134873 0.16355705 0.19655696 0.25410035 0.26905295 0.19053298 0.19792168 0.27050507
0.2545317 0.16996786 0.1956224 0.25196868 0.2554521 0.18081674 0.18714492 0.26638442
0.25584725 0.17814575 0.19021894 0.24922106 0.2506521 0.17822967 0.1825577 0.26343685
0.26331186 0.18760675 0.19220221 0.2489287 0.26706645 0.20038028 0.18475641 0.25991866
0.2653417 0.19260286 0.19031034 0.24976717 0.2797446 0.21846917 0.18461595 0.25571805
0.26298997 0.19773482 0.1812161 0.24986695 0.28011116 0.22239383 0.18032087 0.25191596
0.26507187 0.20498404 0.17624778 0.24951248 0.2726185 0.21627238 0.17509426 0.24974242
0.2726185 0.21627238 0.17509426 0.2497424
00000000: 6174 833e 464b 213e 8463 553e 2bf1 853e
00000010: 7e0b 8c3e 6598 283e b68c 663e 17ad 863e
00000020: 797a 823e 8b32 233e 646b 513e ff8a 863e
00000030: ddf0 923e 1b30 323e 9cdf 713e 4647 873e
00000040: 56e5 823e a2b4 243e d863 513e c1be 873e
00000050: f1e6 903e 2b49 363e 9d89 693e c28f 873e
00000060: 0547 7d3e bae0 203e e6fe 483e 3a5a 873e
00000070: d364 883e 94c6 2f3e 1297 573e d30b 883e
00000080: b88c 723e 6252 193e 5794 403e 33aa 853e
00000090: 5a0d 843e f783 2a3e 6cfc 4f3e c6ad 893e
000000a0: 167c 753e 80c9 193e 2918 443e 3d84 843e
000000b0: 82a9 883e d02d 343e b4ca 543e 3584 8b3e
000000c0: 73e0 7c3e 929d 203e 3aa8 483e 3168 833e
000000d0: b798 8c3e 067e 413e 8872 543e 3cc2 8b3e
000000e0: c8b0 803e 807b 273e 3a46 493e 7119 823e
000000f0: 4fc1 893e 141b 433e fbab 4a3e a47f 8a3e
00000100: fb51 823e 0e0c 2e3e 3d51 483e 0a02 813e
00000110: 9eca 823e 0628 393e eba2 3f3e 8a63 883e
00000120: 69fe 823e d76b 363e c1c8 423e ce33 7f3e
00000130: 7955 803e d781 363e 68f0 3a3e 32e1 863e
00000140: d0d0 863e fc1b 403e a8d0 443e 2ae7 7e3e
00000150: efbc 883e 7d30 4d3e c930 3d3e 0f14 853e
00000160: deda 873e af39 453e b7e0 423e f7c2 7f3e
00000170: af3a 8f3e 62b6 5f3e f70b 3d3e 7aed 823e
00000180: 9fa6 863e ff7a 4a3e b790 393e 1fdd 7f3e
00000190: bb6a 8f3e 35bb 633e 09a6 383e 21fb 803e
000001a0: 80b7 873e 56e7 513e 4c7a 343e 3380 7f3e
000001b0: a794 8b3e 8276 5d3e e94b 333e 7abc 7f3e
000001c0: a794 8b3e 8276 5d3e e94b 333e 79bc 7f3e

86 f4 [3]
6.38303 0.002157657 6.131836
00000000: c841 cc40 7a67 0d3b 0038 c440

action_model._continuous_distribution.log_sigma f4 [1, 2]
0.0021961215 0.003961288
00000000: ceec 0f3b b1cd 813b

action_model._continuous_distribution.mu.bias f4 [2]
-0.0023220098 5.655003e-05
00000000: dc2c 18bb 2230 6d38

action_model._continuous_distribution.mu.weight f4 [2, 256]
-0.009216181 0.0072215833 0.009360875 -0.016934669 0.011669305 -0.018204987 0.024482708 -0.0044434518
0.016036859 -0.013039237 0.015275018 -0.008991281 -0.0073478813 -0.013397758 0.0070413654 -0.007051502
0.009385416 -0.0013682522 -0.023686068 0.015723784 -0.0048754592 0.0013262659 -0.013794059 -0.021445077
0.0023474202 -0.01319445 -0.024557808 0.003060003 -0.0037261639 -0.014292761 0.008308867 0.021328263
-0.0031729967 0.00082461204 -0.00724819 0.0061610853 -0.004502202 -0.015514834 0.010957925 0.015944256
0.0016398758 0.035076637 0.024551634 -0.022959067 -0.0009412505 -0.00045228336 -0.011846875 0.014334806
-0.028832912 0.0039471644 -0.009642062 0.013796907 0.001890924 0.009190325 0.01744954 -0.011830907
0.00894383 -0.009032743 0.005811949 -0.0033468814 -0.0063814083 -0.0045228456 -0.004181222 0.025395475
-0.020660972 0.014939618 -0.0063072145 0.018022513 -0.013840359 0.029710475 -0.014964892 0.010151614
0.02564329 -0.021589862 0.00068634324 -0.006251842 -0.0033162152 -0.013985871 0.012970207 -0.02575313
-0.00690253 -0.02007342 0.006673421 -0.0052741542 -0.0033239725 -0.017624691 -0.016331665 -0.00021322764
0.019823758 0.00025268973 -0.006433749 0.018290116 0.00052617915 0.008211898 0.002212928 -0.010428312
-0.041259374 -0.00039160938 -0.006972229 -0.026598018 -0.007449783 0.003138925 -0.011170771 0.010844689
-0.008442273 -0.00026039142 -0.019978233 -0.0112383375 0.0088621555 0.012818315 0.00044907027 -0.014819545
-0.039075162 -0.014986861 -0.0044814195 0.006092592 -0.011344809 -0.022997322 -0.0013734914 -0.013399972
0.019460808 0.0046717925 -0.01075876 0.008511394 -0.0064129205 -0.017997533 0.0054745353 -0.0026823801
-0.018705217 -0.0069208974 -0.005855821 -0.022574225 -0.0024935764 0.012229397 -0.007352613 0.03830884
0.0066461693 -0.0046903985 0.0051002423 0.0092549175 -0.0014683693 -0.029481044 0.012907383 -0.0042262706
-0.010116935 0.005476157 -0.016133873 -0.0022378217 0.0070123277 0.010651611 0.012093421 -0.021957818
-0.003044068 -0.0062507237 -0.033115402 0.015767436 0.0014604608 0.013774425 0.010329434 -0.004332918
0.008399965 0.00044667942 -0.033213235 -0.0102800485 -0.0046000113 0.006549591 0.0186495 0.02741775
0.016053556 -0.019389775 -0.00040182093 -0.01607109 0.011468721 -0.015754715 0.008055943 0.013657681
-0.006605614 -0.004543759 0.009895797 0.008985344 0.015125395 -0.011978633 0.0041089933 0.012567469
0.006820447 0.0058862627 -0.005324863 0.033121645 0.021488028 -0.020430788 -0.01753517 -0.024841374
-0.002692658 0.0065326784 -0.01026052 -0.00877524 0.031423975 -0.021396803 -0.0022519939 0.010694785
-0.013711247 0.005804244 -0.00039513956 -0.012014504 0.0021711653 -0.004324165 0.030379621 -0.021123169
-0.011897645 -0.0032047154 -0.01296544 -0.005050117 0.0015947825 -0.00354465 0.0003312138 0.0243302
-0.017085081 0.017475666 0.008204912 0.012338094 0.031045483 0.0020308294 0.0140220625 -0.00819061
-0.013347986 -0.024436064 0.0023460146 0.004708701 -0.0047103157 0.012117387 -0.008949974 -0.0073666894
-0.010711601 0.009974712 0.00542868 0.0022324417 0.0077363057 0.003239063 -0.0066280323 0.0038738432
-0.0076237465 0.009023635 0.0059385193 -0.0033457943 -0.008589535 0.01188455 -0.002488252 -0.030309683
-0.00908601 -0.0012710653 0.0064823246 -0.011547729 0.0060843364 -0.018098239 -0.021718469 0.01652461
00000000: 77ff 16bc 08a3 ec3b 5b5e 193c 93ba 8abc
00000010: 9d30 3f3c a022 95bc f68f c83c 609a 91bb
00000020: bb5f 833c 86a2 55bc 1244 7a3c 2a50 13bc
00000030: 7fc6 f0bb 4582 5bbc 41bb e63b 4910 e7bb
00000040: 4ac5 193c ed56 b3ba 4909 c2bc 2acf 803c
00000050: 51c2 9fbb 19d6 ad3a 7a00 62bc 96ad afbc
00000060: 2dd7 193b 892d 58bc 752d c9bc 558a 483b
00000070: a832 74bb 2f2c 6abc ea21 083c 9cb8 ae3c
00000080: 0df2 4fbb c72a 583a 3a82 edbb eee2 c93b
00000090: 3587 93bb ee31 7ebc de88 333c 879d 823c
000000a0: 1af1 d63a 85ac 0f3d 8220 c93c a714 bcbc
000000b0: 40be 76ba 7220 edb9 6519 42bc 89dc 6a3c
000000c0: 0033 ecbc 3757 813b bdf9 1dbc 6c0c 623c
000000d0: e1d8 f73a 0493 163c 56f2 8e3c 6cd6 41bc
000000e0: 2489 123c 12fe 13bc 2972 be3b 5a57 5bbb
000000f0: 221b d1bb 6134 94bb a202 89bb 2c0a d03c
00000100: 3341 a9bc 4dc5 743c c0ac cebb f3a3 933c
00000110: acc2 62bc 6263 f33c 4e2f 75bc f552 263c
00000120: e011 d23c 39dd b0bc b7eb 333a 40dc ccbb
00000130: dc54 59bb ff24 65bc fe80 543c 3af8 d2bc
00000140: 9e2e e2bb 0371 a4bc b6ac da3b d0d2 acbb
00000150: 01d7 59bb a861 90bc fcc9 85bc dc95 5fb9
00000160: 6f65 a23c 717b 8439 33d2 d2bb 27d5 953c
00000170: 49ef 093a 328b 063c c506 113b 83db 2abc
00000180: 97ff 28bd ec50 cdb9 4c77 e4bb 16e4 d9bc
00000190: 4f1d f4bb 6cb6 4d3b 9c05 37bc ecad 313c
000001a0: 7651 0abc 2585 88b9 64a9 a3bc 0121 38bc
000001b0: 9332 113c e903 523c 3171 eb39 adcd 72bc
000001c0: 470d 20bd 738b 75bc dfd8 92bb 5ea4 c73b
000001d0: 94df 39bc e164 bcbc b906 b4ba 8e8b 5bbc
000001e0: 466c 9f3c d615 993b 8345 30bc 6073 0b3c
000001f0: 7a23 d2bb 906f 93bc bb63 b33b dfca 2fbb
00000200: af3b 99bc b2c8 e2bb 30e2 bfbb 95ed b8bc
00000210: 456b 23bb cf5d 483c 30ee f0bb bbe9 1c3d
00000220: 1cc8 d93b eab1 99bb ef1f a73b f0a1 173c
00000230: 4c76 c0ba 3b82 f1bc 7d79 533c 877c 8abb
00000240: 80c1 25bc 5671 b33b 2f2b 84bc 6ba8 12bb
00000250: abc7 e53b 1884 2e3c 7c23 463c e2e0 b3bc
00000260: fd7e 47bb dfd2 ccbb 04a4 07bd b62a 813c
00000270: ef6c bf3a 20ae 613c c93c 293c 27fb 8dbb
00000280: 02a0 093c 4c30 ea39 9a0a 08bd a66d 28bc
00000290: b1bb 96bb f49d d63b d6c6 983c 309b e03c
000002a0: bf82 833c 4ed7 9ebc 7eab d2b9 85a7 83bc
000002b0: 4de7 3b3c 0810 81bc 13fd 033c 77c4 5f3c
000002c0: e873 d8bb d0e3 94bb fb21 223c 4437 133c
000002d0: 81d0 773c 0742 44bc bca4 863b c9e7 4d3c
000002e0: 0e7e df3b 8de1 c03b 307c aebb 90aa 073d
000002f0: a907 b03c 785e a7bc eba5 8fbc 2380 cbbc
00000300: 4e77 30bb 1410 d63b bd1b 28bc 06c6 0fbc
00000310: 6db6 003d 5948 afbc 3096 13bb 2e39 2f3c
00000320: 23a5 60bc 8731 be3b bc2a cfb9 7bd8 44bc
00000330: 1c4a 0e3b bab1 8dbb afde f83c 7f0a adbc
00000340: 57ee 42bc 3406 52bb ff6c 54bc 747b a5bb
00000350: 0508 d13a 5c4d 68bb c4a6 ad39 2150 c73c
00000360: 03f6 8bbc 2129 8f3c e56d 063c b825 4a3c
00000370: 1953 fe3c aa17 053b cbbc 653c e931 06bc
00000380: 83b1 5abc 242e c8bc 98bf 193b 724b 9a3b
00000390: fe58 9abb 0188 463c e9a2 12bc 4564 f1bb
000003a0: b67f 2fbc f96c 233c 12e3 b13b 284e 123b
000003b0: d680 fd3b 7646 543b f72f d9bb 4ee0 7d3b
000003c0: 9fd0 f9bb ded7 133c e997 c23b 1d45 5bbb
000003d0: 1fbb 0cbc 6ab7 423c f111 23bb 034c f8bc
000003e0: 7ddd 14bc e099 a6ba ae69 d43b b032 3dbc
000003f0: 1d5f c73b c242 94bc eeea b1bc 9e5e 873c

action_model._discrete_distribution.branches.0.weight f4 [1, 256]
0.0017018149 -0.0055863443 -0.009470688 -0.0037497685 0.002817253 0.0041168868 -0.010868895 0.0012520095
0.0042568594 -0.0057309372 -0.0042938176 0.001973044 0.00545182 -0.0023137904 0.007179547 0.009099273
-0.0012746913 0.004344293 -0.0019002842 -0.017300986 0.00044764366 0.010869034 -0.0006091133 0.00093127874
-0.004672218 0.0042166193 -0.009013134 -0.002894948 0.010262029 -0.0033718538 -0.002263306 -0.004516012
-0.004839516 0.0014490667 -0.005840358 -0.00092123885 -0.0021765428 -0.0012218294 0.0030262978 -0.0018173673
-0.008683794 -0.0017125063 0.0030556289 0.005184096 0.0069733486 -0.003220091 -0.0054169446 -0.0012460463
-0.010604194 -0.00085761416 -0.0024942432 0.0019443982 -0.0076151 0.0010292805 -0.00511489 0.011517427
-0.008454402 -0.0013083856 -0.0042131576 -0.0012959009 -0.009222695 0.005540558 0.0018508745 -0.0011971081
0.00012109339 0.0063058226 -0.013436387 0.003470481 -0.015781587 0.0024237537 0.0016649781 0.0015872316
0.002123907 -0.004116559 0.0031416372 0.00014803155 -0.0012359561 0.0013591246 -0.00773559 0.0038766917
-0.0027989214 -0.0011762156 0.002989076 -0.010058462 -0.014498496 0.009364056 0.006337525 0.011232486
0.0036398568 0.00031791165 -0.0027369307 -0.00216289 -0.009785643 0.015638934 -0.006550363 0.011098332
0.004846493 0.0006605623 0.00850004 0.0059079146 0.00769435 -0.008159309 -0.0032868595 0.009959238
-0.00064278394 -0.0011295635 -0.0015409382 0.0134152025 0.008174318 -0.00058791746 -0.0005029674 -0.0075867656
0.00077769515 -0.00072367507 -0.0044085095 0.0025582248 -0.0010053301 -0.004248715 -0.0036182054 -0.0025226881
0.0076686554 -0.0019730427 0.016549645 -0.006761346 0.0010483484 0.0049185753 -0.0017739636 0.008398311
0.0028664018 -0.0035580264 0.007950742 -0.00450216 0.0026264342 -0.01182954 0.0013380524 0.002365429
-0.0044698953 0.00050946086 -0.0040321886 0.0048758285 -0.0023906594 0.0056747436 -0.003111968 -0.006182467
-0.0010624978 0.00652349 0.011619957 -0.0061617335 0.0046740584 0.008093748 0.007181458 0.0009733016
0.007001528 0.00076578505 0.0019566927 -0.008979425 -0.003163478 0.009939808 0.004287415 0.0054895533
0.0019190554 -0.0015508927 0.00070641865 0.0035903968 0.005935641 0.005628064 -0.0023685019 0.004219357
0.003411216 0.0070452667 -0.0021547615 -0.014873874 -0.002822698 -0.0019762001 -0.0032400775 0.0017112279
-0.0037715589 -0.008963482 0.0036310356 0.0062877736 -0.002975973 -0.0019398009 -0.0025325464 0.001458268
0.0005685595 0.0009325274 0.004127094 0.011256001 -0.003397009 0.00013443023 -0.008694017 0.00030953038
0.008608026 -0.00052530033 0.0016670298 -0.00067667745 -0.0062111053 -0.003989124 -0.0010601694 0.019667368
-0.00032550265 -0.001791901 -0.008633571 -0.0043065753 -0.00095669425 -0.012126912 -0.010544982 -0.011215708
-0.009389293 -0.0007151933 0.0050220843 -0.002509625 0.0051839347 0.0021405926 -0.008820863 -0.005787003
0.0028739504 -0.0064092004 -0.0039954684 0.0029682207 -0.0051797656 0.004138121 -0.00497742 -0.0075997845
0.00061494915 -1.2405027e-05 0.001245173 0.005340036 -0.007650827 0.003029247 -0.008434942 -0.007365233
-0.0010769528 -0.0036543354 -0.001033545 -0.003908088 0.0037133407 -0.0046642455 -0.01628758 -0.0041488055
-0.0012097665 0.013515848 -0.0015713891 0.01143099 -0.014507897 0.0043670377 0.0046129003 -0.004075317
0.011741023 -0.0076960786 -0.009181182 -0.00032233546 -0.0010682236 0.0032606341 0.0038722344 -0.007334134
00000000: 6f0f df3a a70d b7bb f22a 1bbc adbe 75bb
00000010: a9a1 383b f3e6 863b 7313 32bc 781a a43a
00000020: 207d 8b3b 96ca bbbb 27b3 8cbb 2f4e 013b
00000030: 2ea5 b23b f6a2 17bb 6842 eb3b 1e15 153c
00000040: 8b13 a7ba 925a 8e3b f512 f9ba ccba 8dbc
00000050: b7b1 ea39 0814 323c e7ac 1fba 0f21 743a
00000060: 6819 99bb 912b 8a3b d3ab 13bc 2bb9 3dbb
00000070: 1222 283c 52fa 5cbb f953 14bb 0efb 93bb
00000080: cd94 9ebb 9cee bd3a 7960 bfbb 4b7f 71ba
00000090: 54a4 0ebb cb25 a0ba da54 463b ba34 eeba
000000a0: 7946 0ebc 2d76 e0ba f240 483b 59df a93b
000000b0: b080 e43b 2a08 53bb a080 b1bb 6052 a3ba
000000c0: 37bd 2dbc 83d1 60ba 7576 23bb 2ddb fe3a
000000d0: 1788 f9bb ece8 863a cf9a a7bb 97b3 3c3c
000000e0: 5584 0abc 237e abba 870e 8abb 38db a9ba
000000f0: c91a 17bc 928d b53b 0b99 f23a 48e8 9cba
00000100: 85f3 fd38 13a1 ce3b 4b24 5cbc 0271 633b
00000110: 6348 81bc d7d7 1e3b 653b da3a a80a d03a
00000120: 3f31 0b3b 33e4 86bb ede3 4d3b eb38 1b39
00000130: ceff a1ba a724 b23a d57a fdbb 1810 7e3b
00000140: 1c6e 37bb 3f2b 9aba 60e4 433b 3fcc 24bc
00000150: 1a8b 6dbc b36b 193c 03ab cf3b 7608 383c
00000160: aa8a 6e3b 61ad a639 145e 33bb 46bf 0dbb
00000170: f653 20bc 391d 803c 6da4 d6bb c7d5 353c
00000180: 54cf 9e3b 9629 2d3a c043 0b3c 2e97 c13b
00000190: e320 fc3b 9fae 05bc 5a68 57bb 122c 233c
000001a0: 8080 28ba dd0d 94ba 4ef9 c9ba 70cb 5b3c
000001b0: 93ed 053c 791e 1aba 92d9 03ba 679a f8bb
000001c0: 3dde 4b3a 03b5 3dba 4275 90bb e4a7 273b
000001d0: 48c5 83ba ce38 8bbb 6a1f 6dbb af53 25bb
000001e0: 5849 fb3b 2a4e 01bb 1f93 873c 488e ddbb
000001f0: bc68 893a 002c a13b 5784 e8ba 1299 093c
00000200: 3eda 3b3b c72d 69bb d443 023c db86 93bb
00000210: 4120 2c3b b0d0 41bc 9761 af3a 5005 1b3b
00000220: 3378 92bb 578d 053a 7320 84bb 6ac5 9f3b
00000230: 9cac 1cbb 33f3 b93b 29f2 4bbb 4b96 cabb
00000240: 8343 8bba 00c3 d53b a261 3e3c 5ee8 c9bb
00000250: d828 993b a49b 043c 7052 eb3b 2a25 7f3a
00000260: 136d e53b f7be 483a db3b 003b 701e 13bc
00000270: 5b52 4fbb 94da 223c 727d 8c3b b6e1 b33b
00000280: d088 fb3a 5347 cbba f42e 393a dd4c 6b3b
00000290: c47f c23b 9f6b b83b de38 1bbb 8842 8a3b
000002a0: b58e 5f3b fbdb e63b e636 0dbb 8db1 73bc
000002b0: 04fd 38bb 2383 01bb 7b57 54bb 484b e03a
000002c0: 422c 77bb 92db 12bc abf6 6d3b ab09 ce3b
000002d0: 8b08 43bb eb40 feba 14f9 25bb 5b23 bf3a
000002e0: 620b 153a db74 743a 933c 873b 176b 383c
000002f0: 5ba0 5ebb d7f5 0c39 5a71 0ebc 7748 a239
00000300: ae08 0d3c 4fb4 09ba 3d80 da3a 0e63 31ba
00000310: 8786 cbbb 33b7 82bb 62f5 8aba 761d a13c
00000320: 3aa8 aab9 38de eaba d273 0dbc 2c1e 8dbb
00000330: aaca 7aba f5af 46bc dcc4 2cbc 17c2 37bc
00000340: 8dd5 19bc cf7b 3bba 4c90 a43b 8578 24bb
00000350: ffdd a93b 2f49 0c3b 6285 10bc e6a0 bdbb
00000360: e358 3c3b 4504 d2bb 6bec 82bb 7b86 423b
00000370: 06bb a9bb 1399 873b a019 a3bb 9d07 f9bb
00000380: 8a34 213a 2f1f 50b7 1335 a33a 78fb ae3b
00000390: cab3 fabb 5586 463b b632 0abc 0d58 f1bb
000003a0: 8a28 8dba 937d 6fbb 0478 87ba 6b0f 80bb
000003b0: 855b 733b 87d6 98bb 886d 85bc b4f2 87bb
000003c0: 0791 9eba 9371 5d3c 12f7 cdba 0c49 3b3c
000003d0: 88b2 6dbc 5e19 8f3b d027 973b 3d8a 85bb
000003e0: 6b5d 403c 632f fcbb ab6c 16bc 22ff a8b9
000003f0: a303 8cba 5db0 553b 50c5 7d3b 2d53 f0bb

network_body._body_endoder.seq_layers.0.bias f4 [256]
-0.0047056857 0.00040044295 0.001066468 0.012532092 0.0002093025 -0.00075489044 0.005993565 -0.00096213404
0.00358097 -0.0067703705 0.001615652 -0.0019160758 -0.00091233663 0.0061395373 0.002198897 0.0042497376
0.00089143176 0.0016258154 0.00056181004 0.008513136 0.0039590485 -0.0027776973 0.0002341422 0.00018081102
0.0006031714 0.00032525146 0.0015718761 -0.00082318345 0.0018852825 0.0055306153 0.0054406966 -0.0039098063
-0.0005254756 0.0053912983 0.00071886013 -0.0018749458 0.00025774108 0.005520894 -0.002649906 0.0040451298
0.00071965443 0.0030095195 -0.0008240067 0.0011448913 0.002716703 0.0021070363 -0.0008928225 0.001740781
0.0019055607 0.00049432344 0.0020084374 -0.0017067089 -0.0040229554 -0.0015511547 0.0021894132 0.0061514345
0.005234379 -0.001306599 0.0060566543 0.0046297046 0.0012114916 -0.0018117938 0.004506416 0.003221199
0.0011172972 0.0012168636 0.002263946 0.0005820316 0.001968084 -0.0009483265 -0.0023777601 -0.0009482791
0.0038349382 -0.0011045083 -0.0014848659 0.001679737 0.008680249 0.003093312 0.0011641482 0.0017750321
-0.0035096037 0.0035214247 0.0022609397 0.004206075 0.004617932 0.0070305057 0.0008599971 0.0022346512
0.0038804165 -0.0032089842 -0.0014013508 -0.0049592275 0.005182919 -0.00016540584 0.003340584 -0.00081207714
0.0005471718 -0.00049630046 -0.003019838 -0.005976234 -0.0019946871 0.0043976135 -0.00055278785 0.0038114302
-0.0022903665 0.008921949 0.00403184 -0.0007813956 -0.0037134672 0.0033309981 -0.003856917 0.0025706077
0.0026035781 0.0049178516 0.001679326 0.001285879 -0.0028549787 -0.0017287836 0.0002781924 0.0023942979
-0.002089182 -0.008112212 0.0020446782 0.0017947986 -0.0021438794 -0.0021421902 0.00043130948 0.0054583694
0.0001935005 0.0028935468 0.0017609884 0.005738513 -0.00021888338 0.0068388195 -0.00076870766 -0.0019368682
0.0025811836 -0.0052207 -0.00012692461 -0.0011910772 0.0020824482 0.0012652356 -0.00305385 0.0014523925
0.0038548235 0.0061164475 0.0018731442 0.005080404 -0.00064264896 0.001565629 0.0025118396 -0.00103239
-0.0017661869 0.005116644 0.004680135 -0.0017557351 0.007612224 0.0059171445 -0.0061608325 0.0018990082
0.0005884723 0.0039538066 -0.0007374849 -0.003640328 0.0022799785 -0.0011524699 0.0008124126 0.004859417
-0.00026329845 0.0005744382 0.0062539238 0.0021769546 0.0018449802 -0.001754155 0.002911412 3.9735398e-05
-0.0020730577 0.00026222752 -0.004593497 -0.002365074 0.005145923 -0.004442967 0.0006308137 0.009532607
0.0014296728 -0.006322533 0.0001363602 5.5700908e-05 0.0010457743 0.0010529348 0.0027754023 -0.0009977163
0.0056898044 0.0019402842 0.0054998524 0.0038043302 0.0032723802 0.003855864 -0.009564177 0.002579432
0.001923114 0.008725819 0.002193048 0.0072154747 0.0059220945 0.0049184356 0.0013183366 0.0022782846
0.0015264562 0.00062529807 0.0063653775 0.002969813 0.0015940411 -0.0019348586 0.0026501762 -0.0024630034
-0.0040016347 0.006799716 0.0035818545 -0.0026746108 0.0010843871 -0.00091277115 0.005360832 0.005494387
0.00549981 -0.00017001649 0.008538356 -0.0005959802 0.0007927858 0.00026713382 0.009144111 0.0058217063
-0.0037672217 0.0004676639 -0.0007927958 0.0030704741 0.0046028183 -0.005487649 -0.004649017 0.0029624915
-0.002424102 0.0027537467 0.0051202774 0.000176488 0.00797023 -0.002125462 0.00038732888 0.0027760244
-0.0052676206 0.004699973 0.004560189 0.005081646 0.008159092 0.0036785207 -0.0031442665 0.0072604315
00000000: 2732 9abb 8bf2 d139 bac8 8b3a 6753 4d3c
00000010: 3678 5b39 d7e3 45ba ab65 c43b b937 7cba
00000020: b5ae 6a3b fcd9 ddbb 49c4 d33a d624 fbba
00000030: e029 6fba 2c2e c93b 5f1b 103b 6241 8b3b
00000040: f9ae 693a 5019 d53a 6f46 133a ae7a 0b3c
00000050: e8ba 813b 070a 36bb 1184 7539 1798 3d39
00000060: 261e 1e3a 8386 aa39 6907 ce3a e8ca 57ba
00000070: 951b f73a 2a3a b53b df47 b23b d51d 80bb
00000080: 12c0 09ba 7da9 b03b e371 3c3a bec0 f5ba
00000090: 6c21 8739 9ee8 b43b 0caa 2dbb 028d 843b
000000a0: 31a7 3c3a 5c3b 453b 2702 58ba 2d10 963a
000000b0: b70a 323b 3416 0a3b 4e0c 6aba eb2a e43a
000000c0: 02c4 f93a 7c95 013a fd9f 033b a6b3 dfba
000000d0: ffd2 83bb 1d50 cbba 427c 0f3b f991 c93b
000000e0: 2785 ab3b 3042 abba e676 c63b c7b4 973b
000000f0: eaca 9e3a b679 edba 8faa 933b c01a 533b
00000100: 4672 923a 2b7f 9f3a b65e 143b 7b93 183a
00000110: f8fa 003b 1d99 78ba 32d4 1bbb ef95 78ba
00000120: 9653 7b3b 26c5 90ba d59f c2ba 9f2a dc3a
00000130: 9a37 0e3c 2ab9 4a3b 5596 983a 32a8 e83a
00000140: 6101 66bb b4c7 663b 462c 143b 1dd3 893b
00000150: 0552 973b 2860 e63b 6e71 613a 3a73 123b
00000160: 964e 7e3b d24d 52bb 88ad b7ba 0481 a2bb
00000170: 7ad5 a93b cb70 2db9 b3ed 5a3b 93e1 54ba
00000180: 1470 0f3a 291a 02ba 79e8 45bb 49d4 c3bb
00000190: 4cb9 02bb db19 903b f7e8 10ba 30c9 793b
000001a0: f919 16bb 5e2d 123c 861d 843b 92d6 4cba
000001b0: a45d 73bb e04c 5a3b 54c4 7cbb a477 283b
000001c0: cba0 2a3b ee25 a13b d41c dc3a f18a a83a
000001d0: 981a 3bbb 5a98 e2ba 5ada 9139 a7e9 1c3b
000001e0: a8ea 08bb 15e9 04bc 0200 063b 733f eb3a
000001f0: 5480 0cbb fd63 0cbb 6121 e239 1fdc b23b
00000200: 65e6 4a39 a9a1 3d3b f7d0 e63a 230a bc3b
00000210: 0f84 65b9 2d18 e03b 1983 49ba 83de fdba
00000220: 1329 293b 6812 abbb 1117 05b9 eb1d 9cba
00000230: af79 083b 43d6 a53a 1a23 48bb 355e be3a
00000240: 35a1 7c3b 7b6c c83b 4a84 f53a 8579 a63b
00000250: 7177 28ba cb35 cd3a ad9d 243b 4351 87ba
00000260: 667f e7ba 85a9 a73b d15b 993b b220 e6ba
00000270: f76f f93b 9be4 c13b cfe0 c9bb 24e8 f83a
00000280: b543 1a3a ef8e 813b c653 41ba 9292 6ebb
00000290: b16b 153b 790e 97ba 16f8 543a bf3b 9f3b
000002a0: 520b 8ab9 e595 163a b7ed cc3b 3dab 0e3b
000002b0: 43d3 f13a adeb e5ba 63cd 3e3b 8fa9 2638
000002c0: 23dc 07bb 957b 8939 0c85 96bb 5bff 1abb
000002d0: 219f a83b 4f96 91bb 315d 253a a72e 1c3c
000002e0: dc63 bb3a 402d cfbb eafb 0e39 65a0 6938
000002f0: 5d12 893a a102 8a3a 86e3 353b cec5 82ba
00000300: 8a71 ba3b 2251 fe3a 1b38 b43b 1252 793b
00000310: 6e75 563b aab2 7c3b 11b3 1cbc b00b 293b
00000320: ff10 fc3a bdf6 0e3c 3db9 0f3b ca6f ec3b
00000330: 210e c23b d42a a13b 09cc ac3a 464f 153b
00000340: 5f13 c83a 0beb 233a a894 d03b 32a1 423b
00000350: 25ef d03a 159b fdba 94ae 2d3b 576a 21bb
00000360: 2520 83bb 27d0 de3b 8cbd 6a3b 8648 2fbb
00000370: fe21 8e3a 0947 6fba eba9 af3b 420a b43b
00000380: c037 b43b 7446 32b9 76e4 0b3c 8e3b 1cba
00000390: f4d2 4f3a 180e 8c39 2ed1 153c 03c4 be3b
000003a0: 7ee3 76bb c930 f539 a0d3 4fba 023a 493b
000003b0: 3dd3 963b bcd1 b3bb c856 98bb 5c26 423b
000003c0: afdd 1ebb 3478 343b 00c8 a73b a30f 3939
000003d0: 9195 023c 564b 0bbb 6712 cb39 f6ed 353b
000003e0: 019c acbb 3b02 9a3b a36d 953b f083 a63b
000003f0: b6ad 053c 5613 713b 0a10 4ebb eae8 ed3b

network_body._body_endoder.seq_layers.0.weight f4 [256, 119]
0.0810844 0.027751124 -0.06285978 0.16794989 0.053912003 -0.079621255 0.035520036 0.04367719
-0.13033636 0.018973265 0.044010874 0.049331676 -0.036450986 -0.0088797 -0.0064558196 -0.03944668
0.058333505 -0.043644708 0.059658464 -0.12284435 -0.09196912 0.15345599 0.022556605 -0.092334464
-0.01894446 -0.17313027 0.16559184 0.018604536 -0.09126506 0.045387615 0.034019522 -0.10203125
-0.24772218 0.07642839 -0.15028602 -0.0155786285 -0.047836 0.013652284 0.14632244 -0.04972803
0.00971907 -0.097074114 0.075806424 0.017050793 -0.04801832 0.075945646 0.005014856 0.25751045
0.11914053 -0.06680351 -0.08938221 -0.0084032575 0.096231826 -0.124216944 0.10428691 -0.01167308
-0.013469286 -0.1430133 -0.2365129 -0.10519344 0.04319393 0.106445804 -0.06575724 0.0446066
0.00786248 0.0414251 0.09175489 -0.034868762 0.07632114 0.06762157 0.038921267 -0.06615068
0.11905493 -0.06468711 -0.08517993 0.053351436 0.04170211 0.03079448 0.1738466 -0.04473895
-0.2309977 -0.03373963 0.042666744 0.057701506 -0.00496789 -0.20764884 0.055190563 0.13357623
0.08751288 0.09509299 0.20285453 0.04795817 -0.027230067 -0.11163248 -0.0048044906 -0.022963775
-0.05188333 0.16385184 0.03125871 -0.027425509 0.019611761 0.08092286 0.10660487 0.06776151
-0.12584747 -0.042714678 0.0687489 0.09165787 -0.04611869 0.16273439 0.06198061 0.15840887
0.019785957 0.03249285 -0.08800536 -0.030523906 -0.00968382 0.095471166 0.09713267 0.092966914
-0.08202164 -0.015671939 0.07427168 0.0056913956 -0.07990406 0.09976744 0.004181857 0.013726207
0.048505064 0.16791679 -0.03125987 0.07105282 -0.1177605 0.09142438 0.0009206683 -0.13150655
0.03141043 -0.081702486 -0.015617601 -0.04299226 -0.01712885 0.021914693 -0.030129757 -0.020328
-0.054056413 -0.043463062 0.06590857 -0.12790486 0.017809395 -0.06995792 0.06966778 0.16763213
-0.059048086 0.008484748 0.074954174 0.15176862 -0.010995177 -0.01254939 -0.109465525 -0.065320745
-0.09670822 0.009059721 0.020197138 0.009367533 0.21382824 0.12339591 0.00505761 0.095321015
-0.10672999 0.17444813 -0.19132096 0.03717514 0.09811382 0.072095744 -0.046183147 0.09803685
-0.06678349 -0.13600412 -0.18163969 0.001255362 0.036879573 -0.07107623 0.025998278 -0.16776301
0.042584527 0.1036356 -0.043889873 -0.116637826 0.017117793 -0.123761244 -0.08376231 0.16871999
-0.024905326 -0.12833151 -0.037773844 0.11068931 -0.007386949 0.09286138 -0.16003387 -0.117628165
-0.040639315 -0.034685805 0.049095925 -0.1013487 0.11795046 0.07955949 -0.117753185 -0.1529351
-0.20395665 0.043865908 0.044195414 0.10540197 -0.0461524 0.05593459 0.13954993 0.037384786
-0.09986902 0.0665162 -0.10451555 -0.043875605 -0.10507469 -0.16709924 -0.044803876 0.0037543934
-0.027554858 -0.17299011 -0.05919264 -0.098182656 0.05906658 -0.022153253 0.15254204 0.048931185
-0.01654062 -0.12501487 -0.012690527 0.18727113 -0.0023065712 -0.07175074 0.074635305 0.06887624
-0.07229985 -0.080228366 -0.27163875 -0.0033614784 0.118652485 -0.03328955 0.035095062 -0.057482775
0.055029053 -0.060176607 -0.051052324 0.04685777 0.039929572 0.12762363 0.061348144 -0.13283098
00000000: 940f a63d 5356 e33c a1bc 80bd 0efb 2b3e
00000010: d5d2 5c3d 7810 a3bd 757d 113d dae6 323d
00000020: e576 05be d26d 9b3c bf44 343d 0310 4a3d
00000030: a14d 15bd 297c 11bc 578b d3bb d892 21bd
00000040: 1def 6e3d cbc4 32bd 6f5c 743d d295 fbbd
00000050: 4e5a bcbd 9123 1d3e a1c8 b83c da19 bdbd
00000060: 6a31 9bbc 1049 31be e890 293e 8a68 983c
00000070: 2de9 babd 5de8 393d 0e58 0b3d c3f5 d0bd
00000080: e2aa 7dbe 7d86 9c3d 94e4 19be 813d 7fbc
00000090: aeef 43bd d4ad 5f3c 8dd5 153e 9eaf 4bbd
000000a0: bc3c 1f3c cbce c6bd 6640 9b3d 1bae 8b3c
000000b0: dcae 44bd 6489 9b3d a953 a43b 69d8 833e
000000c0: f3ff f33d 47d0 88bd 050e b7bd d1ad 09bc
000000d0: 3115 c53d 7465 febd 6094 d53d 7240 3fbc
000000e0: 48ae 5cbc 1472 12be 7030 72be a96f d7bd
000000f0: 1eec 303d 4200 da3d bbab 86bd 69b5 363d
00000100: a2d1 003c 5ead 293d fde9 bb3d 8cd2 0ebd
00000110: 424e 9c3d 2d7d 8a3d e86b 1f3d 027a 87bd
00000120: 12d3 f33d ad7a 84bd d172 aebd 0987 5a3d
00000130: d5cf 2a3d b544 fc3c d804 323e 3040 37bd
00000140: a98a 6cbe 9132 0abd 53c3 2e3d 6a58 6c3d
00000150: afc9 a2bb e6a1 54be 800f 623d 35c8 083e
00000160: f439 b33d 1dc0 c23d 19b9 4f3e c96f 443d
00000170: 9711 dfbc 929f e4bd fd6e 9dbb 871e bcbc
00000180: 9d83 54bd c7c8 273e 2209 003d 76ab e0bc
00000190: d8a8 a03c e2ba a53d a753 da3d 8cc6 8a3d
000001a0: 29de 00be 96f5 2ebd 39cc 8c3d 1fb7 bb3d
000001b0: f4e6 3cbd d8a3 263e 61df 7d3d ef35 223e
000001c0: 2916 a23c 3917 053d 273c b4bd 450d fabc
000001d0: e3a8 1ebc 6386 c33d 7eed c63d 7065 be3d
000001e0: f6fa a7bd 7062 80bc c01b 983d e37e ba3b
000001f0: bda4 a3bd df52 cc3d f607 893b e3e3 603c
00000200: 3fad 463d 61f2 2b3e 590a 00bd 2484 913d
00000210: 6b2c f1bd b53c bb3d 0159 713a a7a9 06be
00000220: 39a8 003d a253 a7bd f7e0 7fbc a718 30bd
00000230: cd51 8cbc 7186 b33c aed2 f6bc e886 a6bc
00000240: 426a 5dbd 5306 32bd 13fb 863d 7ef9 02be
00000250: 02e5 913c 1946 8fbd fbad 8e3d c2a7 2b3e
00000260: 68dc 71bd 9d03 0b3c 9381 993d 3c69 1b3e
00000270: 1d25 34bc f59b 4dbc 762f e0bd e2c6 85bd
00000280: f60e c6bd 396f 143c 7874 a53c 487a 193c
00000290: caf5 5a3e ffb6 fc3d 4fba a53b aa37 c33d
000002a0: 4195 dabd 88a2 323e a4e9 43be f644 183d
000002b0: e6ef c83d efa6 933d 8a2a 3dbd 8bc7 c83d
000002c0: c8c5 88bd aa44 0bbe c1ff 39be f58a a43a
000002d0: 090f 173d 6a90 91bd 57fa d43c 11ca 2bbe
000002e0: 1d6d 2e3d e73e d43d dec5 33bd d0df eebd
000002f0: 9d3a 8c3c 8976 fdbd 938b abbd efc4 2c3e
00000300: 4106 ccbc 5669 03be bfb8 1abd 14b1 e23d
00000310: 380e f2bb 1b2e be3d ebdf 23be 09e7 f0bd
00000320: 6975 26bd b412 0ebd cf18 493d e88f cfbd
00000330: 0390 f13d 16f0 a23d 9528 f1bd 059b 1cbe
00000340: 03da 50be bdac 333d 4006 353d fddc d73d
00000350: 4d0a 3dbd ab1b 653d 2de6 0e3e ca20 193d
00000360: 2188 ccbd a539 883d 400c d6bd e8b6 33bd
00000370: 6631 d7bd 101c 2bbe 4584 37bd 450c 763b
00000380: baba e1bc 5224 31be fb73 72bd fd13 c9bd
00000390: ccef 713d bd7a b5bc fb33 1c3e 116c 483d
000003a0: 3280 87bc e603 00be eeeb 4fbc 01c4 3f3e
000003b0: d829 17bb 0df2 92bd 65da 983d fc0e 8d3d
000003c0: f211 94bd c54e a4bd 3c14 8bbe 404c 5cbb
000003d0: 1300 f33d a05a 08bd d7bf 0f3d 0f73 6bbd
000003e0: 2566 613d bf7b 76bd 3e1c 51bd efed 3f3d
000003f0: 318d 233d c5af 023e 3148 7b3d d804 08be

network_body._body_endoder.seq_layers.2.bias f4 [256]
0.0027114332 0.0036967103 0.0011306166 0.00032077462 0.0047061793 0.0023226377 -0.0026515261 0.005382067
0.0045873653 0.0011418245 -0.0002049179 -0.0039169993 0.001880831 0.0019626531 -0.00078957994 0.0031336606
-0.00024854275 -0.0041555134 0.003812306 0.006466666 -0.001450135 -0.00013206246 0.0012728152 0.0012711589
0.005759786 0.0010467331 -0.0027952944 0.0027493467 0.0035232136 -0.002775985 0.0026970757 0.0017249667
0.0030822859 0.0008397193 0.0022311665 -0.00550436 -0.0022161892 0.00029247577 -0.001101276 0.00021993266
-0.0015067027 -0.00075073424 0.0041846293 0.0035174314 0.0034575502 7.0483766e-05 0.00011613005 0.0034960767
0.005757616 0.005430719 0.004154407 -0.003865946 0.0011566702 -0.0009556323 -0.00017007375 -0.0060682786
-0.004656031 -0.0048781666 0.002298979 0.0004319648 -0.00052224996 0.0037379928 -0.00019042463 0.0016100452
-0.0011079505 0.002092162 -0.00065290346 -0.00051030744 -0.00042131278 0.0010668064 -0.00020133037 0.002234838
0.004264521 0.00063335255 -0.0004006661 0.0039219875 0.0018597727 0.00026938424 -0.0013586413 0.006113499
0.0015230238 0.0017922466 0.0033565958 0.0014514216 -0.0025344358 0.0055673975 -0.00018749923 0.000422622
-0.0011757051 -0.0014698138 0.0008668509 0.001709109 -0.0007253451 -0.0016130847 0.0020935398 -0.00021102649
-0.0013213939 -0.0018405054 -0.00051248807 0.002288846 0.0011637001 0.002194399 0.00045167186 7.153615e-05
0.0009384084 0.0055613564 -0.001603788 0.0029102326 -0.003648156 0.002071242 0.005110228 -0.0010081948
0.0005986828 -0.004363769 0.0039208313 0.00047121142 0.0009219396 -0.00424907 0.001773451 -0.00015872048
0.007572542 0.0042251386 0.0050206278 0.0010694774 0.0017997442 0.004336593 -0.005463133 -0.0034850335
0.002516158 0.0026881173 -0.0013429614 0.0038138782 -0.0012214435 0.0023549888 0.0021429267 -0.0003405581
-0.00084567635 0.001891548 -0.008824843 -0.0030776649 0.0037981449 -0.0012792101 0.0010417267 0.0009523127
0.0040279226 0.0023079265 0.0032398799 0.00022035895 0.0046932963 -0.0006402053 0.0019198338 -0.0033949623
0.0030188754 -0.004445409 0.004776998 0.0070927534 0.0036291224 -0.004496256 -0.003277263 0.0029888556
0.002156889 0.0014185043 0.0030690688 -0.0008662763 0.0028187882 0.0008633063 0.0024311708 -0.002144705
-0.00062233576 0.0053061834 0.0030291765 -0.0066068107 0.0021737202 0.00425739 0.0052242936 0.0017721866
-0.0014973764 0.0062320703 -0.00071907666 -0.002296935 0.0047814385 -0.0045697596 0.004476201 0.005556663
0.0012649716 0.0055974456 -0.000529358 0.00018358557 0.0024295603 0.0022340154 -0.0008018187 -0.00162781
-0.0005458701 0.0005296013 0.0011813974 0.003367364 0.0031640169 0.0020126612 4.4559045e-05 0.00023060395
0.0044122552 0.00056759856 -0.0037203792 0.0030844302 0.004869375 -0.0006641451 0.0036619366 0.0048877834
-0.0049147326 0.001413267 -0.0064400225 0.003806669 0.0031810093 0.0032301887 0.0009146302 0.0017590321
-0.0025568027 0.0008428888 -0.0009421299 -0.0011149731 0.0013832563 -0.00035204584 0.0038837863 0.00068970246
-0.00013145688 0.001459475 0.0010219814 0.00057086535 0.004926613 0.0016717697 6.8151594e-06 0.0025481218
0.002431921 -0.0005438009 0.00078738923 0.0042549917 0.0006725082 -0.0005474674 -0.0021243286 0.0019483074
-0.0012625924 -7.17584e-05 0.0027342786 -0.0002321301 -0.0010402312 0.0013951318 0.0027805136 -0.0026206763
0.0048135603 0.00217554 0.002399578 0.0036219915 0.0003987947 0.005996228 0.0019264393 0.0029831002
00000000: 4db2 313b 8244 723b 3331 943a a42d a839
00000010: 4b36 9a3b 6537 183b 3ac5 2dbb 0d5c b03b
00000020: 9c51 963b 46a9 953a 3bdf 56b9 2c5a 80bb
00000030: 3786 f63a db9f 003b d0fb 4eba 1a5e 4d3b
00000040: d84e 82b9 f92a 88bb e2d7 793b 53e6 d33b
00000050: 7512 beba 3f7a 0ab9 97d4 a63a 049d a63a
00000060: 96bc bc3b 8932 893a 4231 37bb 622e 343b
00000070: b7e5 663b 4ded 35bb 6cc1 303b 4718 e23a
00000080: 2d00 4a3b 9c20 5c3a c338 123b eb5d b4bb
00000090: 7c3d 11bb 6f57 9939 b158 90ba b99d 6639
000000a0: 8e7c c5ba eccc 44ba 371f 893b b584 663b
000000b0: 1198 623b afd0 9338 d98a f338 6f1e 653b
000000c0: 62aa bc3b 2cf4 b13b b121 883b d05b 7dbb
000000d0: 699b 973a 6683 7aba d355 32b9 69d8 c6bb
000000e0: 9e91 98bb 07d9 9fbb 78aa 163b 5679 e239
000000f0: 9ae7 08ba 1df9 743b b9ac 47b9 2708 d33a
00000100: a638 91ba a71c 093b 9c27 2bba 27c6 05ba
00000110: a5e3 dcb9 15d4 8b3a 361c 53b9 5c76 123b
00000120: 65bd 8b3b 9207 263a 7e10 d2b9 0484 803b
00000130: 9ec3 f33a 243c 8d39 7014 b2ba bf53 c83b
00000140: 33a0 c73a d1e9 ea3a 55fa 5b3b a13d be3a
00000150: c718 26bb b76e b63b 719b 44b9 5d93 dd39
00000160: 1e1a 9aba c4a6 c0ba 613d 633a 2f04 e03a
00000170: 1625 3eba 246e d3ba c533 093b fe46 5db9
00000180: 9f32 adba 1d3d f1ba 7e58 06ba 7700 163b
00000190: 4c87 983a e8cf 0f3b 5fce ec39 ae05 9638
000001a0: 86ff 753a 0a3c b63b 3236 d2ba 9ab9 3e3b
000001b0: e715 6fbb adbd 073b b373 a73b 6725 84ba
000001c0: ecf0 1c3a f3fd 8ebb 517a 803b ed0c f739
000001d0: 52ae 713a c83b 8bbb 2473 e83a 346e 26b9
000001e0: 1623 f83b 0873 8a3b 1484 a43b b52d 8c3a
000001f0: 65e5 eb3a fb19 8e3b 1504 b3bb 2965 64bb
00000200: 20e6 243b 202b 303b 4f06 b0ba 42f2 793b
00000210: d818 a0ba 2856 1a3b 5870 0c3b ef8c b2b9
00000220: 61b0 5dba d2ed f73a 1396 10bc a6b2 49bb
00000230: 4cea 783b 2bab a7ba 8c8a 883a a0a4 793a
00000240: aafc 833b 9540 173b 2a54 543b 2810 6739
00000250: 39ca 993b 73d3 27ba efa2 fb3a 047e 5ebb
00000260: 53d8 453b cbaa 91bb 5d88 9c3b 546a e83b
00000270: 92d6 6d3b 5455 93bb 59c7 56bb ade0 433b
00000280: 985a 0d3b 1bed b93a 6e22 493b d216 63ba
00000290: 6bbb 383b 814f 623a 4754 1f3b 2e8e 0cbb
000002a0: 3f24 23ba 7edf ad3b 2685 463b f27d d8bb
000002b0: f974 0e3b 9381 8b3b 8d30 ab3b b748 e83a
000002c0: 9d43 c4ba 6536 cc3b 6b80 3cba 2d88 16bb
000002d0: 9dad 9c3b ecbd 95bb 18ad 923b ab14 b63b
000002e0: 67cd a53a c76a b73b 9dc4 0aba e080 4039
000002f0: 4239 1f3b 8f68 123b 2431 52ba 3d5c d5ba
00000300: b918 0fba f1d4 0a3a 1ed9 9a3a feae 5c3b
00000310: 655b 4f3b dae6 033b e9e4 3a38 47ce 7139
00000320: ae94 903b e5ca 143a 9bd1 73bb 2724 4a3b
00000330: 478f 9f3b 061a 2eba 1afd 6f3b b329 a03b
00000340: c40b a1bb 5f3d b93a d306 d3bb 4f79 793b
00000350: 7b78 503b 93b1 533b cbc3 6f3a 538f e63a
00000360: 0890 27bb 4ff5 5c3a 44f9 76ba 4a24 92ba
00000370: 614e b53a cb92 b8b9 1f87 7e3b 26cd 343a
00000380: b0d7 09b9 db4b bf3a 01f4 853a 20a6 153a
00000390: 6d6f a13b 481f db3a c6ad e436 64fe 263b
000003a0: dd60 1f3b dc8d 0eba cc68 4e3a 756d 8b3b
000003b0: 434b 303a ea83 0fba 5238 0bbb 595e ff3a
000003c0: 927d a5ba ff7c 96b8 9531 333b f367 73b9
000003d0: 5e58 88ba dbdc b63a 4739 363b a7bf 2bbb
000003e0: 12bb 9d3b 8193 0e3b 3d42 1d3b ef5e 6d3b
000003f0: 5215 d139 027c c43b 9480 fc3a 1e80 433b

network_body._body_endoder.seq_layers.2.weight f4 [256, 256]
0.0028149567 0.15940031 0.12506884 -0.035944533 0.07194101 0.06743778 0.051393654 -0.10746464
0.10031524 -0.14437728 0.03246243 0.006435541 -0.012153236 0.028642371 0.04355487 0.0059061083
-0.025432365 0.1924627 0.036489155 0.01632105 0.11231759 -0.05790465 0.08356458 -0.018179238
-0.01949451 0.094367675 0.025071727 -0.028403271 -0.031233681 0.03210359 0.077269234 0.007810984
0.057533525 -0.1253169 0.021428365 -0.07064828 -0.023357574 0.034465622 -0.0013227285 -0.010821485
-0.039350126 0.17278707 -0.0071468595 -0.029927246 0.009045343 -0.012455944 0.03542698 0.09197932
0.017166197 0.037444614 0.008865591 0.018241705 -0.055937987 0.024757966 0.048912168 0.04579251
-0.0031396272 -0.033013377 0.016919076 0.068918735 -0.006852962 0.03979966 0.012335306 0.037683435
-0.13667749 -0.01651593 -0.004497507 -0.09270777 0.030036345 -0.021830047 0.00788079 0.021352103
0.059181083 0.03579455 0.0072426414 -0.045047812 0.050264306 -0.0020015202 -0.078223675 -0.00045654012
0.07339037 -0.026258245 -0.072438724 -0.0010363993 -0.010961962 -0.00066589523 0.10739863 -0.15347391
0.044287723 0.05956128 0.008258798 0.041261535 -0.041325983 -0.017982548 -0.034087185 0.010609243
-0.008768934 -0.0063977344 -0.084827 -0.0010670412 0.0022531594 0.08879155 0.0036869752 -0.018176524
-0.017395085 -0.0070105745 0.011574838 0.027143523 0.06865434 0.007178965 -0.043657772 -0.023198638
-0.026532546 -0.086661 0.018748607 -0.08133338 0.03700687 -0.062453177 0.13536024 0.055234384
-0.055578973 -0.037087847 -0.009952249 0.025731647 -0.045126252 -0.057315297 0.08913702 0.089854315
-0.06289288 -0.0040341853 0.0039619547 -0.081227995 0.06011235 0.11100289 0.032741465 0.014575316
0.026590392 -0.09908919 0.045767255 0.077621914 -0.0044669053 0.0036675627 0.14687525 0.022316942
-0.09806061 0.01817274 -0.09176164 0.032883823 0.11082543 -0.03535968 0.036691286 -0.0019983007
0.101085894 -0.07932535 0.073245816 -0.013030482 0.019143144 -0.018396214 -0.04522334 0.07350794
-0.044047154 -0.022176154 -0.09979361 -0.029782789 0.020511884 -0.025537614 0.023918718 0.18174243
-0.09714237 -0.013331539 -0.0034630897 -0.12767744 -0.052263472 -0.11754284 -0.034701373 0.002627018
0.007664698 -0.013791134 0.064870596 0.047988232 -0.06675058 -0.01205148 -0.18262123 -0.008414531
-0.030224735 -0.011590365 0.0023373163 -0.018417347 0.09824993 -0.033592336 -0.08946569 0.047152966
-0.009473288 -0.08038119 0.017752843 0.009186356 -0.104275554 0.1057751 0.029208353 -0.025199192
-0.026205355 -0.06626482 -0.124434225 -0.004723463 -0.033314884 0.011775228 0.07846839 4.027707e-05
-0.1325061 -0.017100004 0.06399835 -0.019035216 -0.016338352 0.056288835 0.02663993 -0.063834995
-0.008445084 0.02484043 -0.049141586 -0.03195147 -0.082971424 -0.023987003 -0.095605835 0.08746104
0.1328512 0.03889527 0.041394174 0.0040209224 -0.060018532 -0.06182024 -0.025235618 0.108873315
0.041162796 0.13093504 0.06402023 -0.055716682 -0.03683958 -0.024549386 -0.043694798 0.0039797323
0.068528175 0.06593627 -0.04275555 0.03321766 -0.024367427 0.08018769 -0.037784353 -0.020182528
-0.01583435 0.09803814 0.11485116 0.06902315 0.058988847 0.04091615 -0.15616532 -0.096506536
00000000: 237b 383b d639 233e 0c12 003e 933a 13bd
00000010: cf55 933d d21c 8a3d 2782 523d 6c16 dcbd
00000020: 1472 cd3d a3d7 13be 53f7 043d 3be1 d23b
00000030: 5e1e 47bc 68a3 ea3c 9766 323d 0788 c13b
00000040: 8957 d0bc f114 453e a775 153d b9b3 853c
00000050: c406 e63d 6d2d 6dbd e823 ab3d a0ec 94bc
00000060: f3b2 9fbc d743 c13d 3963 cd3c faad e8bc
00000070: c7dd ffbc 0e7f 033d 553f 9e3d 48f3 ff3b
00000080: 46a8 6b3d 1353 00be 8a8a af3c 0cb0 90bd
00000090: 6258 bfbc d32b 0d3d 675f adba 994c 31bc
000000a0: 992d 21bd 18ef 303e 3430 eabb fc29 f5bc
000000b0: eb32 143c 0414 4cbc e21b 113d a75f bc3d
000000c0: 20a0 8c3c 865f 193d fc40 113c a16f 953c
000000d0: 3b1f 65bd 38d1 ca3c 2058 483d ed90 3b3d
000000e0: 34c2 4dbb 0939 07bd e099 8a3c 4425 8d3d
000000f0: d08e e0bb f804 233d 061a 4a3c f259 1a3d
00000100: 2ff5 0bbe 6a4c 87bc d35f 93bb 92dd bdbd
00000110: c80e f63c edd4 b2bc 6e1e 013c 9bea ae3c
00000120: dd67 723d 4e9d 123d ae53 ed3b 0e84 38bd
00000130: f2e1 4d3d f02b 03bb bc33 a0bd c75b efb9
00000140: b14d 963d 881b d7bc c15a 94bd cad7 87ba
00000150: cd99 33bc 798f 2eba d0f3 db3d 4428 1dbe
00000160: 0b67 353d 87f6 733d e94f 073c db01 293d
00000170: 6f45 29bd 2350 93bc 019f 0bbd 64d2 2d3c
00000180: 93ab 0fbc 16a4 d1bb c7b9 adbd f6db 8bba
00000190: bea9 133b 58d8 b53d 2ea1 713b efe6 94bc
000001a0: 2380 8ebc f6b8 e5bb 64a4 3d3c 185c de3c
000001b0: a69a 8c3d 863d eb3b 7ed2 32bd 120b bebc
000001c0: c85a d9bc 537b b1bd ae96 993c 1d92 a6bd
000001d0: 8494 173d e7ce 7fbd e09b 0a3e 733d 623d
000001e0: c7a6 63bd 6de9 17bd c20e 23bc 2dcb d23c
000001f0: 4ed6 38bd 72c3 6abd 788d b63d 8a05 b83d
00000200: fbcd 80bd 3331 84bb 49d3 813b dd5a a6bd
00000210: 5e38 763d 7c55 e33d ea1b 063d 4ecd 6e3c
00000220: 18d4 d93c 46ef cabd 7276 3b3d 3df8 9e3d
00000230: 1e5f 92bb 7e5b 703b 7766 163e 05d2 b63c
00000240: 00d4 c8bd ffde 943c 87ed bbbd 30b1 063d
00000250: 71f8 e23d 50d5 10bd 9a49 163d ecf5 02bb
00000260: 1f06 cf3d 5475 a2bd e701 963d ce7d 55bc
00000270: 15d2 9c3c a8b3 96bc 1c3c 39bd 558b 963d
00000280: ca6a 34bd c4aa b5bc 9860 ccbd 09fb f3bc
00000290: 8a08 a83c 4234 d1bc 30f1 c33c b01a 3a3e
000002a0: 94f2 c6bd 876c 5abc 01f5 62bb e0bd 02be
000002b0: 3912 56bd 4dba f0bd 0723 0ebd 0c2a 2c3b
000002c0: 2628 fb3b 35f4 61bc e0da 843d 4f8f 443d
000002d0: 87b4 88bd 9273 45bc 0f01 3bbe 1add 09bc
000002e0: dd99 f7bc 84e5 3dbc a92d 193b fadf 96bc
000002f0: 4237 c93d 1e98 09bd ca39 b7bd 7823 413d
00000300: da35 1bbc e59e a4bd 696e 913c 5f82 163c
00000310: 6c8e d5bd 9ea0 d83d 5b46 ef3c 896e cebc
00000320: 9dac d6bc dab5 87bd 5fd7 febd 48c7 9abb
00000330: 3075 08bd e3ec 403c 09b4 a03d 2def 2838
00000340: aeaf 07be 4f15 8cbc 9111 833d beef 9bbc
00000350: 02d8 85bc 1f8f 663d fc3b da3c ecbb 82bd
00000360: 405d 0abc 287e cb3c b048 49bd 8bdf 02bd
00000370: ecec a9bd 6480 c4bc fecc c3bd c61e b33d
00000380: 250a 083e a650 1f3d f08c 293d f1c1 833b
00000390: fed5 75bd 3837 7dbd edba cebc f9f8 de3d
000003a0: 529a 283d d613 063e 0a1d 833d 2d37 64bd
000003b0: 19e5 16bd cb1b c9bc 51f9 32bd 6a68 823b
000003c0: 8058 8c3d 9809 873d 7220 2fbd 3e0f 083d
000003d0: 339e c7bc 7239 a43d c4c3 1abd d455 a5bc
000003e0: 0ab7 81bc 38c8 c83d 1637 eb3d 025c 8d3d
000003f0: 4a9e 713d b197 273d cde9 1fbe 38a5 c5bd

network_body._body_endoder.seq_layers.4.bias f4 [256]
0.0020147387 -0.00028344168 0.0008711589 0.003271018 0.0010616003 0.0026540093 -0.0019003978 -0.0019963067
-0.0024348567 0.00211126 -0.0017017864 0.0022613932 0.002013688 0.0011313384 0.00048278624 0.0032501093
-0.0017348016 0.0019820265 0.003487958 -0.00038489752 0.0008060264 -0.0006003997 0.0020867444 0.004039484
-0.0013218903 0.0052591697 0.0029362624 -0.0005039384 0.001981816 0.0014450339 -0.0016884031 6.310166e-05
0.0008799594 -0.0013496862 0.0028233172 0.00024235547 0.0003271347 0.00041383557 -0.0006598048 0.0009877294
0.002965927 -0.0012796842 0.00041317253 0.0030642457 -0.0023616792 -0.0011855806 0.003955251 -0.001263019
0.0028724747 0.0023089445 0.0032354535 0.001400661 -0.00028747995 0.0017846872 -0.0018277809 0.0029920647
-0.0003756419 0.0035408654 -0.002190411 0.0032310952 0.0003156724 0.0021705392 0.0015082464 0.0035148503
0.0013990354 -0.00016782062 0.0009117321 -0.0004871752 0.004552408 -0.0015909453 0.0039114645 -0.0025501114
-0.0029260647 0.0030157098 -0.00045830707 0.00015443294 0.002660812 0.0014327513 -0.001980479 0.004383595
0.0015612771 0.0057854904 0.0009747786 0.0017349216 -0.00023222486 0.0013141169 0.00057138817 0.0022792225
-0.00062588806 0.002342928 0.0026488076 -0.00037914634 -0.0014427475 -0.002446996 0.00038872758 0.0030603316
0.0036987257 -0.00013588651 0.003514303 0.0029557545 0.0024900015 0.0008727741 0.0013876046 -0.002230715
0.0016202199 -0.0039621983 0.0010829448 0.0028268734 0.0013981425 -0.0020323573 -0.0013882028 0.003985816
0.0036701513 0.003771215 -8.658174e-05 -0.00094158965 0.002069637 0.0023089396 -0.0005493761 0.0016586273
-0.00062245346 0.00019753422 0.00013576625 -0.0024205064 0.001443233 0.003465603 -0.0007212376 -0.0005709209
0.002976557 0.0020203637 0.0037838225 0.0024301049 -0.0011934527 -0.0016534887 0.0024220904 0.00038563824
-0.0015435766 0.0027065938 0.00073793717 0.00010209456 0.001250843 0.003772942 -0.0010845324 0.0015794022
0.0018682068 0.0012741035 0.0029254125 -0.0011874055 -0.00082361256 -0.00074498844 -0.0017820448 0.0035979315
-0.000387451 0.001560318 0.0015754633 0.0003255608 -0.0012168197 -0.0021997623 -0.001994574 0.0009044276
0.00024532623 -0.0022241818 0.004018065 0.0044193924 0.0017383336 -0.0017235727 -0.0011489366 -0.0006618989
-0.0017498329 0.0011983241 0.0023738558 0.00071252056 -0.000717252 0.0026525608 -0.00026921032 -0.0017909213
0.0011380089 0.0027853453 0.0013034862 0.0008812272 0.0006468409 0.002411825 -0.002786452 -0.001700788
-0.0016181432 -0.0009035511 0.0004797419 0.00021624829 0.001826179 0.0012824793 0.0048573054 0.00220056
0.0015709128 0.0016058416 0.0016184364 0.00051234005 4.9187485e-05 0.00314189 0.0012307687 0.0030055125
0.0028847374 -0.0008742708 0.0008901413 0.001318196 -0.0023983468 0.0029761624 0.0009142118 0.0022238716
0.0014302019 0.0013583424 0.001592686 0.0021962398 -0.007985626 0.0020211483 0.0037035055 -0.00057490636
0.0022316056 -0.002795435 -0.002969829 -0.0022027062 0.00025355862 -0.0030030422 -0.0004507076 0.0022974287
0.0016319635 0.002693891 0.00042265037 0.0014111062 0.00013270926 0.00094027066 0.0018987844 0.004766926
0.0015709156 0.0019351975 -0.00070615794 -0.0035524126 0.00045459621 0.00062312774 0.00040308895 -0.001622043
0.00011790142 -0.0005882681 -0.0020523248 0.003270795 0.0017090295 -0.0018770441 0.0014573591 0.002904959
0.00260164 0.0036305608 -0.0022842158 0.0030325404 -0.0010423488 0.0025116904 0.004454442 -0.0010996249
00000000: b509 043b e69a 94b9 7c5e 643a 935e 563b
00000010: 6525 8b3a e3ee 2d3b c516 f9ba 78d4 02bb
00000020: 1e92 1fbb 115d 0a3b 7a0e dfba e233 143b
00000030: 14f8 033b 6b49 943a 791e fd39 c9ff 543b
00000040: 4862 e3ba e3e4 013b 3a96 643b 12cc c9b9
00000050: 844b 533a 2464 1dba c3c1 083b a65d 843b
00000060: 4743 adba 1d55 ac3b 4f6e 403b bc1a 04ba
00000070: 5be1 013b 4b67 bd3a 684d ddba 7255 8438
00000080: 13ad 663a f4e7 b0ba 6707 393b cd20 7e39
00000090: 4783 ab39 12f8 d839 c0f6 2cba b376 813a
000000a0: ff5f 423b 14bb a7ba 149f d839 83d1 483b
000000b0: 67c6 1abb 7c65 9bba 0d9b 813b e38b a5ba
000000c0: 2140 3c3b a951 173b e709 543b 6296 b73a
000000d0: e8b8 96b9 2aec e93a 2692 efba 8416 443b
000000e0: cdf1 c4b9 dd0d 683b 008d 0fbb c8c0 533b
000000f0: d580 a539 9b3f 0e3b 5ab0 c53a 6759 663b
00000100: d75f b73a 01f9 2fb9 4e01 6f3a 8c6b ffb9
00000110: 5e2c 953b 4487 d0ba be2b 803b c51f 27bb
00000120: 38c3 3fbb 37a3 453b ef48 f0b9 47ef 2139
00000130: 0561 2e3b 28cb bb3a edca 01bb 43a4 8f3b
00000140: c4a3 cc3a 3694 bd3b 4988 7f3a 4f66 e33a
00000150: 6381 73b9 723e ac3a 36c9 153a 025f 153b
00000160: a312 24ba cf8b 193b 9e97 2d3b 29c8 c6b9
00000170: 931a bdba c85d 20bb 22ce cb39 d88f 483b
00000180: 5266 723b c27c 0eb9 3850 663b 55b5 413b
00000190: 4b2f 233b e1ca 643a 49e0 b53a 3031 12bb
000001a0: 8f5d d43a 54d5 81bb 99f1 8d3a 1143 393b
000001b0: e141 b73a 4c31 05bb 5bf4 b5ba 739b 823b
000001c0: ec86 703b 7d26 773b 3893 b5b8 03d5 76ba
000001d0: bfa2 073b 9451 173b 0204 10ba 4c66 d93a
000001e0: 252c 23ba 3021 4f39 7a5c 0e39 5ca1 1ebb
000001f0: dd2a bd3a 2c1f 633b 7011 3dba daa9 15ba
00000200: 5712 433b 1468 043b 02fa 773b 6542 1f3b
00000210: a16d 9cba e0b9 d8ba efbb 1e3b 7d2f ca39
00000220: d651 caba 1c61 313b 2072 413a 991b d638
00000230: 54f3 a33a 7643 773b de26 8eba f203 cf3a
00000240: 9ede f43a d2ff a63a 47b8 3f3b b8a2 9bba
00000250: b4e7 57ba 544b 43ba 8093 e9ba 46cb 6b3b
00000260: cb22 cbb9 9683 cc3a c77f ce3a 08b0 aa39
00000270: b27d 9fba e329 10bb 66b7 02bb 1c17 6d3a
00000280: 219f 8039 94c3 11bb f9a9 833b 8dd0 903b
00000290: ccd8 e33a 81e9 e1ba ea97 96ba 4983 2dba
000002a0: a65a e5ba 1611 9d3a b192 1b3b 72c8 3a3a
000002b0: f805 3cba 96d6 2d3b cc24 8db9 59bd eaba
000002c0: 3e29 953a 578a 363b bdd9 aa3a 2802 673a
000002d0: c290 293a b50f 1e3b e89c 36bb faec deba
000002e0: e017 d4ba 4adc 6cba de85 fb39 b5c0 6239
000002f0: 665c ef3a dd18 a83a 082a 9f3b 4537 103b
00000300: 16e7 cd3a 1a7b d23a b721 d43a 8f4e 063a
00000310: a94e 4e38 2be8 4d3b bf51 a13a 22f8 443b
00000320: dd0d 3d3b 522f 65ba 5f58 693a 51c7 ac3a
00000330: 952d 1dbb b80b 433b b7a7 6f3a 60be 113b
00000340: 9d75 bb3a 680a b23a adc1 d03a caee 0f3b
00000350: 25d6 02bc 3e75 043b 83b6 723b 50b5 16ba
00000360: 2140 123b 9e33 37bb 76a1 42bb 475b 10bb
00000370: 10f0 8439 b0ce 44bb f34c ecb9 7590 163b
00000380: 9ce7 d53a fe8b 303b 2c97 dd39 def4 b83a
00000390: df27 0b39 7f7c 763a a2e0 f83a e033 9c3b
000003a0: 2ee7 cd3a 74a6 fd3a 751d 39ba 98cf 68bb
000003b0: df56 ee39 6559 233a af55 d339 bb9a d4ba
000003c0: d841 f738 0136 1aba 4c80 06bb d65a 563b
000003d0: 8401 e03a 2607 f6ba db04 bf3a 2061 3e3b
000003e0: 4780 2a3b b4ee 6d3b c8b2 15bb 96bd 463b
000003f0: 6c9f 88ba 2c9b 243b 91f6 913b 4a21 90ba
