results/R1/AgentController/AgentController-499980.onnx (onnx, 657373 bytes, 14 tensors)

83 f4 [116]
00000000: 6b8c 8e3e b8dd 4a3e 567a 513e 8e06 883e
00000010: 783f 8f3e dc85 493e e2d4 543e fad5 873e
00000020: 3a08 8c3e 39eb 473e 07cc 4c3e 1243 883e
00000030: 03a5 8f3e 7146 483e 0d24 573e 2dfe 873e
00000040: dd85 8a3e 94b5 453e e56e 4a3e 9d9a 883e
00000050: b32d 8f3e 4c51 443e c95c 593e 224f 883e
00000060: b269 883e 0397 433e 9930 463e 650a 893e
00000070: 5dd8 8e3e ade7 3f3e ff3b 5c3e bee6 883e
00000080: b81f 853e bfdf 3f3e f3fb 3f3e e21a 893e
00000090: 5805 8d3e 15dd 3a3e 7457 5b3e 7b41 893e
000000a0: d9e0 823e 2f01 3b3e 8416 3e3e d056 893e
000000b0: f077 8a3e 39fe 353e 853d 583e febc 893e
000000c0: 18dc 813e 5638 373e f4b8 3e3e 039e 893e
000000d0: 16e0 883e 845a 323e 10c5 563e 6a4d 8a3e
000000e0: 5d9e 813e 5978 353e 1ca5 3f3e f39f 893e
000000f0: 8347 873e 81e4 2c3e 45cc 563e 1fe7 8a3e
00000100: bb31 833e 82c1 343e bede 443e 57f1 893e
00000110: d393 883e 591a 2e3e 045f 593e ce2e 8b3e
00000120: 4cb3 833e 738e 323e be41 483e bb9d 893e
00000130: 7574 8a3e 1ba7 303e 4f76 5c3e 372f 8b3e
00000140: f938 853e b8bb 323e 3a62 4c3e 142c 893e
00000150: 90d1 8c3e 86bd 373e e752 5d3e 6ace 8a3e
00000160: 7238 893e d352 383e f6d1 523e 4fd6 883e
00000170: 2492 8e3e bae6 3d3e 7324 5d3e f941 8a3e
00000180: d6ed 8c3e 782e 3d3e ff1f 593e 1fca 883e
00000190: 6581 903e 57a1 433e c4be 5d3e 54ac 893e
000001a0: 49da 8f3e 960a 413e 9719 5e3e f811 893e
000001b0: 053a 913e 0ddf 443e 17bc 5e3e e75c 893e
000001c0: 693a 913e 0ddf 443e 2bbd 5e3e e65c 893e
0.27841505 0.19811141 0.20456824 0.265675 0.2797811 0.1967997 0.20784333 0.2653044
0.27350026 0.19523324 0.19999705 0.2661367 0.2805558 0.19558121 0.21009846 0.26561108
0.27055255 0.19307548 0.19768865 0.2668046 0.27964553 0.19171637 0.21226801 0.26622874
0.2664314 0.19100575 0.19354476 0.26765743 0.27899447 0.18740721 0.21507262 0.26738542
0.26000762 0.18737696 0.18748455 0.26778322 0.2754314 0.18248399 0.2142008 0.2680777
0.2556217 0.1826217 0.18563277 0.26824045 0.2704463 0.1777276 0.21117218 0.26902002
0.2536323 0.17892584 0.18625242 0.26878366 0.26733464 0.17417341 0.20973611 0.27012187
0.25316134 0.1772169 0.18715328 0.26879844 0.26421747 0.16884042 0.2097636 0.27129456
0.2562388 0.17651942 0.19225594 0.2694194 0.2667528 0.17002238 0.21227652 0.27184147
0.2572273 0.17437153 0.19556329 0.2687815 0.27041975 0.17251246 0.21529506 0.2718446
0.2602003 0.17454422 0.19959345 0.2679144 0.27503633 0.17943391 0.21613656 0.27110606
0.26800877 0.18000345 0.20587906 0.26726004 0.2784587 0.18545046 0.21595936 0.27003458
0.27525204 0.18474758 0.21203612 0.26716706 0.2822372 0.19104515 0.21654803 0.26889288
0.28096226 0.18851694 0.21689449 0.26771522 0.28364578 0.19225712 0.21751438 0.2682869
0.28364876 0.19225712 0.2175185 0.26828688

86 f4 [3]
00000000: 360b c340 7b3b 953b 81e0 e940
6.0951185 0.0045542098 7.3086553

action_model._continuous_distribution.log_sigma f4 [1, 2]
00000000: 889f 1f3c a96e a73b
0.009742625 0.0051096273

action_model._continuous_distribution.mu.bias f4 [2]
00000000: d0ca 203a 594f 81ba
0.0006133737 -0.0009865566

action_model._continuous_distribution.mu.weight f4 [2, 256]
00000000: 7f52 21bb 9a19 e7ba 169d 94bb 68de 0fba
00000010: 2d66 d03b 5e5e 07bc ec1e cabc 53c1 273c
00000020: 463d 49bc cf69 35bc bf38 9dba e62c 5d3c
00000030: 57fd 213c d567 e6bb ca4f 993c e82b 8ebb
00000040: a387 c23c 9616 e5bb cce9 1bbc bf2d 823a
00000050: 792f 0a3d 7503 2dbc 3fe0 acbc 942f d7ba
00000060: ecf4 3d3c ed78 843a 04c1 153c 8364 65bc
00000070: b200 793c b7c6 8bbb 3faf 0abd 5970 993c
00000080: fbce 16bc 78af 1a3d cb36 10bb e2da 91bc
00000090: 163f 713c 7a27 0abd 743e c6bb b437 9bbb
000000a0: 5615 803c bc39 f0bc f2cd b2bc a6fd 863c
000000b0: a374 ee3c 9ea1 49bc b67b 67bb 0383 bb3c
000000c0: 493e d1bb e880 423a 0a84 903c 9339 3a3c
000000d0: a76c d03c bb07 8a3a 0649 97bc 4ba3 fa3c
000000e0: 3bc3 0c3c faf1 883c 99e8 a63b 9643 2e3b
000000f0: 3e5b d239 35ee 173c 38f6 bdbc 214a 23bc
00000100: 1aa4 c13c 2e39 09bc 69e0 2e3c 0bf1 6abc
00000110: 201c 05bb a364 25bb eb61 473c 069c d93b
00000120: 896e 28bc 4e23 1f3b 4618 1fbc a416 fcbb
00000130: 42f0 6fbc 4b08 9f3b 214f 573c ad9b a3bb
00000140: 5ac4 403c fd24 693b 7c85 1c3c 95b9 49bc
00000150: c76b d43b 4f24 0b3c a8e6 dcbc fc5d bfbc
00000160: b347 503c 14d3 733b 2d79 f13b bd23 443b
00000170: 6fce b53b b8a9 4838 3307 02ba e072 2dbb
00000180: bf13 9abb f3e2 6dbc 2b10 c93c a49e 7ebc
00000190: 466e c6bc 77a3 8f3b 2af9 513c 8231 6fbc
000001a0: 42bb 4e3c ad16 6dbc bf18 8abc 5466 86bc
000001b0: daa1 10bc 574f cb3b bd67 e63b 16a6 573c
000001c0: a1d8 20bc ac0b eabc f4a2 723c 809d 1cbb
000001d0: cf4b 91bc 0b28 a7bb 63ad a2bb 371d 2b3c
000001e0: b022 16bc 1902 3bbc efaa 173c 5a14 29bc
000001f0: 58f4 02bc 7b26 043c edad de3c 01e7 f93b
00000200: 5dd5 70bc 907c 95bc f590 613c 1089 32bc
00000210: 37c4 33bc 9cac 173c 1afb c0bc 029f c73a
00000220: d963 9e3c c0ed 973c b6c8 183c 6d82 f1bb
00000230: b9c8 e0bc b6b2 e1bc 8cda 993b 7430 f3ba
00000240: 1de6 25bb 4976 6dbc 37a9 8f3c ad3e a83c
00000250: 6147 92bc 5010 243c 303b 44bb 400e e4bb
00000260: ac7e 223c d7c9 b13b 1a0c 643c b1cf 6a3c
00000270: a67c 90bc 8b9d 3f3b 336a aebb f7e8 c1bb
00000280: 299b 5cbb ff14 8abc ca7f 8dbc 0add 493b
00000290: b414 01bb 6b4c 173c ee78 1cbc 1038 d4bb
000002a0: 0b84 ccbb 8009 9d3b d471 85bc 0b24 4c3c
000002b0: dd80 38bb 1ac7 1a3c 8d35 073a 95d6 deba
000002c0: ab10 04bc 2343 7b3c 9468 163c fe7d 9bbc
000002d0: 4335 e63c d563 d2bb 312a c53b 1bd9 9bbc
000002e0: cc56 bcbc 0c08 4b39 ab92 393c 5474 dc3c
000002f0: c8b2 f83b 77d6 bcbc 06fe bd3c a8b1 693c
00000300: 6d5f 9cbc 7955 76ba 521a 3b3c ca70 c83b
00000310: 68e5 a33c 0599 ad3b 0ff9 af3a 1a29 1fbd
00000320: b4d2 903b 1c1f d339 870e 3f3c 185f 2c3c
00000330: 2dfe 3b3c 7b81 163c 24b5 22bc 3dc4 0f3c
00000340: 7d62 e0bb 1443 98bc 3195 6ebb 00e8 373b
00000350: a885 b1bb aea9 48bc 5b80 7bbc 7b6a 1fbb
00000360: 8e15 22bc 2795 eb3a 8f1d a73a 69ac 103c
00000370: 3675 24bb 0420 4dbc 2bf7 4b3c e0e7 cfbc
00000380: bd6d 4ebc 6c1c ffbb 8e32 9cbc 0cfc 91bb
00000390: 39a4 e4bb c5d1 673c 514a 3abc 2621 87bb
000003a0: e195 44bc 0e0a 41bb ecb4 aebb 3be6 903c
000003b0: b7d4 e23b cbcf ac3a a1bb e5bb 888b 9c3c
000003c0: a62b 813c a67c c13b a026 6d3a af81 373c
000003d0: eec4 fe3c f2ef bbbb 3227 5cbb 7a6e a83b
000003e0: e165 e2bb cf79 0f3c b316 e5bb dc95 bd3b
000003f0: 31c2 c83c 6d4d 5a3c 11ce 223c 97f8 033c
-0.0024615822 -0.0017631531 -0.0045353277 -0.0005488158 0.0063598366 -0.008262245 -0.024672948 0.010238963
-0.012282675 -0.01107259 -0.0011995061 0.013499474 0.009887061 -0.0070314207 0.018714804 -0.00433873
0.023746317 -0.006991218 -0.009516191 0.0009931846 0.03373668 -0.010559906 -0.021103023 -0.0016417378
0.011594038 0.001010684 0.009140257 -0.014001015 0.01519792 -0.004265632 -0.033858534 0.01873033
-0.009204621 0.037764996 -0.0022005315 -0.017804567 0.0147245135 -0.033729054 -0.0060499255 -0.004736865
0.015635174 -0.029324405 -0.021826718 0.01647837 0.029108351 -0.012306599 -0.003532154 0.02288962
-0.006385599 0.0007419721 0.017641086 0.011366266 0.025442434 0.0010530868 -0.018467437 0.030595442
0.008591468 0.016716946 0.005093646 0.0026590577 0.00040122302 0.009273102 -0.023188695 -0.009966404
0.02363782 -0.008375449 0.010673621 -0.014339696 -0.0020310953 -0.0025236986 0.012169342 0.006640914
-0.01028026 0.0024282518 -0.009710377 -0.0076931287 -0.014644684 0.0048532835 0.013141424 -0.0049929232
0.011765564 0.0035575025 0.0095533095 -0.012312313 0.0064825746 0.008492543 -0.026965454 -0.023360245
0.012712407 0.003720467 0.0073691816 0.0029928528 0.0055482904 4.784178e-05 -0.0004960179 -0.0026466176
-0.004702061 -0.014519441 0.024543842 -0.015540753 -0.024222504 0.0043835 0.012815753 -0.014599206
0.012617888 -0.014470738 -0.016857503 -0.016406216 -0.008827651 0.0062045264 0.0070314095 0.013162157
-0.009817273 -0.028570019 0.014809359 -0.0023897588 -0.017736344 -0.005101209 -0.004964517 0.010443977
-0.009163544 -0.011414074 0.009257062 -0.010319794 -0.007992826 0.008065815 0.027182544 0.0076264148
-0.014699307 -0.018247873 0.013767471 -0.010896936 -0.010972074 0.009257462 -0.023557235 0.0015229883
0.01933472 0.018545985 0.009325197 -0.0073702843 -0.027439462 -0.027551036 0.0046952423 -0.0018553869
-0.002531416 -0.014493533 0.017536743 0.020537699 -0.017856302 0.010013655 -0.0029942505 -0.0069597065
0.009917896 0.0054256725 0.013918901 0.014331744 -0.017637562 0.002923819 -0.0053227185 -0.005917664
-0.0033661819 -0.016855715 -0.017272849 0.0030801916 -0.0019696178 0.009234528 -0.009550316 -0.0064764097
-0.0062413267 0.0047923923 -0.016289629 0.012459765 -0.002815298 0.009446884 0.0005157821 -0.0017001206
-0.008060615 0.015335831 0.009180207 -0.018980976 0.028101569 -0.0064205923 0.0060169925 -0.019024422
-0.022990607 0.00019362586 0.011326472 0.026910938 0.0075896718 -0.023051484 0.023192417 0.014263548
-0.019088471 -0.00093968917 0.0114198495 0.006116961 0.02000685 0.0052977824 0.0013425666 -0.038857557
0.004419649 0.00040268234 0.011661178 0.010520719 0.011474174 0.009186144 -0.009930883 0.008774814
-0.006847678 -0.018586673 -0.0036404843 0.0028061867 -0.0054175444 -0.012247486 -0.015350427 -0.0024324942
-0.009892834 0.0017973528 0.0012749898 0.008830168 -0.0025094277 -0.01251984 0.012449066 -0.025379121
-0.012599406 -0.0077853706 -0.019067075 -0.004455095 -0.0069775847 0.014149134 -0.0113702575 -0.0041238246
-0.011998625 -0.0029455456 -0.005331626 0.017687907 0.0069223302 0.0013184486 -0.0070108925 0.019109502
0.015767884 0.005904752 0.0009046588 0.011200353 0.031099763 -0.005735391 -0.0033592698 0.005140123
-0.0069091176 0.008757069 -0.0069912313 0.005785687 0.02450666 0.013324124 0.009936825 0.008054874

action_model._discrete_distribution.branches.0.weight f4 [1, 256]
00000000: 1751 b83b e12b 1bbb 55a2 47bc 902e 563b
00000010: 533d a33b c52a e0bb 6b8d 67bb 2be7 04b9
00000020: 75a4 163c f370 db3b f1bb c1bb 2742 33bb
00000030: df16 00bb 5a46 72bb 4b33 0939 6044 29bb
00000040: 6dfa b3b9 da8e f2ba f72c 91ba 8270 c1bb
00000050: 0723 aabb 9e4b c13b 7283 f0bb 38cf 013c
00000060: f05e 4bbc 7dc3 ddbb 80e5 a53a 6a27 fd3b
00000070: d541 763a c4e6 b53b 1688 02bb 48c0 993b
00000080: 615e ac3b 8ab6 a9bb e444 373b c86b d13a
00000090: 4730 773b 8256 13bb fd50 a63a 17fb 5d3b
000000a0: 047a 183b a473 8bb9 82d1 60b9 34e5 25bb
000000b0: 38b1 70bb 6701 2abc 9fc5 bf3b 4d62 0abc
000000c0: 494d 0aba f04a 613b b326 8f3b 9486 31bb
000000d0: 46e1 8b3b f98c 8a3b a9d3 c63b 0b0c d43b
000000e0: dbb6 50ba 082e 7fbb c85d 7dbb 900f 513b
000000f0: 70c7 f73b 8f18 13bb 29ed 87bc c8d5 e1bb
00000100: 0214 29bb bb9e a93b 1bfa df3b b9af 9b3a
00000110: eeff 933b c513 d83b e0a2 9fbb 0705 933b
00000120: 45ad 0c3b 53f5 b2bb b358 b23b 92f3 ec3b
00000130: d818 9f3b 4279 e13b 4baa 8e3b 0cda 303c
00000140: 5168 07bc e564 f2ba 3761 c13b 49b3 c13a
00000150: afbf aabb 02b0 ff3b 2299 023b f883 e23b
00000160: 4726 4a3c 0d69 633b 0a8d 063b 0711 a03b
00000170: f0dd 62bb 5fa0 bc3a 5a05 57bc 0adf 06bc
00000180: cebb 2a3b 2f32 b83b c1c1 88bb 3c96 0d3c
00000190: c53b 78bb 8cdc a8bb 5729 40b9 f77e 883b
000001a0: b132 cb3b e735 04bb 28f0 a039 971b 0e3c
000001b0: 00ec 763b f3fa 443b 6231 8fba 92f7 733b
000001c0: af7a bfb9 04ff 16bb 104e f5ba f177 473b
000001d0: 370f b33a 48c2 f9bb a84d dc3b 8375 71bb
000001e0: 2f15 11bc 5914 2c3b 78ef 583c 1bb4 05bc
000001f0: af09 a0bb 4b53 74bb cd92 f03a bc8d acba
00000200: b3c0 853b b2fe 54ba ae29 92b9 2fff 3ebb
00000210: 9821 773a ed21 243c 2d13 42bc 1ab9 e8bb
00000220: 654c 893c 2f06 d6bb 1b16 c53b daa2 d23a
00000230: 5f49 e43b 5f3e 433b a552 423b 687e c5bb
00000240: 7af6 d43b e562 99ba 3b2a f7bb 02af 02bc
00000250: 9f57 d43b f2a3 333b 7bd4 d6bb a179 ab39
00000260: 21c0 9cbb 3acf 06bb 78df 0a3c 4856 21bb
00000270: 4fa0 78bb c6cc 13bc 6fa8 d2ba 14ca 21bc
00000280: 9cbc 89bc 21ca 3b3c af7a 453b b484 8cbb
00000290: ea60 653a 4d98 fabb b2d5 71bb 2bcc b43b
000002a0: 47fa 063c 272d e83b 037d 69b8 b0ed 94bb
000002b0: 6549 1ebc 6519 303b 001c e1b9 058f e53a
000002c0: 1213 af3b 571f 74bb 2ee9 86bb 07ac fdbb
000002d0: c81a dbbb 6e79 013c baac 783b 3b9a a2bb
000002e0: afe9 eeb9 4b2b 97bb 836b b9ba 5322 9fbb
000002f0: 5fbd ffb9 68ef 2bbc 62b9 9eb9 7f01 a63b
00000300: 92b2 7c3b 6fb0 1e3a bdb1 513b 000e b6bb
00000310: 588d 87ba 2338 a03b a251 38bc db14 f43b
00000320: 0bf0 8b3b d33b f438 486d eabb 107a 1cbb
00000330: f4b3 3c3c 419f c5bb 0804 90bb 1592 10bb
00000340: e691 a53b 3329 223c 23cb 0a3c b6b4 c3bb
00000350: 9a51 5f3b 18fa b0bb a4af 493c 2ca2 8739
00000360: 58ff 5b3b 5ab8 cf3b 37fe 8a3b 138d ecba
00000370: 4fb7 f937 b1a9 a83b e0d2 bf3b 3580 873c
00000380: 88d4 d7bb c97e 12bb f0e0 2039 e4a0 b23b
00000390: 2317 633b a7d8 153c 145a 4aba b716 e23b
000003a0: ab45 b5bb 8818 5c3a d4ac 83bb 772b 06bb
000003b0: 3b92 ea3b 95ec 31bb 21cc 21bb bc6c 023b
000003c0: f72f 42b8 2b8b 47bb 6c07 48bb f90a ac3b
000003d0: 7afd f0bb c4d3 0d3c 1e87 b53b db12 273c
000003e0: ce61 463a 350f 5339 889c 2bbb ddd6 4e3c
000003f0: 6910 c6ba 5f4d 3cbb a781 81bb 3c7c ca3b
0.005624901 -0.0023677277 -0.012184699 0.0032681562 0.0049816757 -0.006841036 -0.0035332094 -0.00012674618
0.009194483 0.006696814 -0.005912297 -0.0027352662 -0.0019544882 -0.0036968202 0.00013084446 -0.0025828108
-0.00034328122 -0.0018505708 -0.0011076023 -0.0059033046 -0.005192164 0.005898907 -0.0073398883 0.00792294
-0.012412772 -0.006767689 0.0012656897 0.007725646 0.0009393965 0.005551191 -0.001991754 0.004692111
0.0052602743 -0.005179231 0.0027964646 0.0015977556 0.0037717985 -0.0022481983 0.0012688931 0.0033871585
0.0023266086 -0.00026598305 -0.00021440352 -0.0025313618 -0.0036726724 -0.010376311 0.0058524157 -0.008446288
-0.00052757986 0.0034376942 0.004368627 -0.0027088271 0.004268798 0.004228231 0.0060677123 0.006471162
-0.0007961818 -0.003893735 -0.0038660634 0.0031900145 0.0075616166 -0.0022445058 -0.016592579 -0.00689194
-0.002579928 0.005176393 0.006835235 0.0011877931 0.004516593 0.0065941536 -0.004871711 0.0044866833
0.0021465581 -0.005461374 0.0054427027 0.0072311843 0.0048552565 0.00688091 0.0043537966 0.010794174
-0.008264617 -0.0018493204 0.0059014815 0.0014778163 -0.0052108387 0.007802964 0.00199277 0.0069127046
0.012338228 0.0034700066 0.0020530843 0.0048848423 -0.0034617148 0.0014391056 -0.0131238345 -0.008231888
0.0026051882 0.0056212167 -0.004173488 0.008641776 -0.0037877422 -0.0051532444 -0.00018325947 0.004165526
0.0062011112 -0.002017373 0.00030696508 0.00867357 0.0037677288 0.0030056804 -0.0010924751 0.003722642
-0.00036521765 -0.0023040185 -0.0018715281 0.003043648 0.0013661151 -0.007622037 0.0067231245 -0.0036843724
-0.008855148 0.0026257245 0.013240688 -0.008160616 -0.004883967 -0.0037281092 0.0018354297 -0.0013164799
0.0040818094 -0.0008125111 -0.00027878344 -0.00291438 0.0009427308 0.010017854 -0.011845392 -0.007102144
0.01676006 -0.006531499 0.006014598 0.0016070262 0.0069667543 0.0029791815 0.002965131 -0.0060270317
0.006499109 -0.0011702446 -0.007542876 -0.007976295 0.006480172 0.0027410951 -0.0065560914 0.00032706282
-0.0047836457 -0.0020570294 0.008476131 -0.0024618078 -0.0037937348 -0.00902099 -0.0016071926 -0.009874839
-0.016813569 0.0114617655 0.003013294 -0.0042882804 0.0008750098 -0.00764755 -0.0036901054 0.005517503
0.008238382 0.0070854607 -5.5667955e-05 -0.004544936 -0.009661053 0.0026870605 -0.00042936206 0.0017513937
0.0053428495 -0.0037250125 -0.0041171527 -0.0077414545 -0.006686542 0.007902486 0.003794475 -0.0049622334
-0.00045569005 -0.004613315 -0.0014146421 -0.0048563867 -0.00048778483 -0.010494091 -0.0003027423 0.0050660963
0.0038558585 0.00060535123 0.003199681 -0.005555868 -0.0010341806 0.0048895045 -0.0112499315 0.007448775
0.0042705587 0.0001164597 -0.0071541406 -0.0023876466 0.011517514 -0.0060309474 -0.004395012 -0.0022059728
0.005052793 0.009897518 0.008471283 -0.00597247 0.0034075738 -0.0054009072 0.012309942 0.00025870034
0.0033568945 0.006339115 0.0042417306 -0.0018047414 2.9768473e-05 0.005147182 0.0058539957 0.016540626
-0.006586615 -0.0022353402 0.00015342585 0.0054513086 0.0034651242 0.009145892 -0.0007719111 0.0068996805
-0.0055319867 0.00083959894 -0.0040184055 -0.0020472684 0.0071585453 -0.002714907 -0.002468832 0.0019901237
-4.6297875e-05 -0.003044794 -0.0030522002 0.0052503315 -0.0073544355 0.008656446 0.005539789 0.010197367
0.00075676746 0.00020128193 -0.002618583 0.01262447 -0.0015111092 -0.002873264 -0.0039522233 0.0061793607

network_body._body_endoder.seq_layers.0.bias f4 [256]
00000000: b3af bfbb 681e 1b3b bded cf3b e047 d93b
00000010: 0b13 623b d057 633b 7a86 823b 6122 07ba
00000020: 32bd 403b 7a91 953b 2bbd 243c cad9 6b3a
00000030: 35e1 57bb c1ad a53b b019 6f3b 23e0 253c
00000040: ad1a 06bc 38ab 223b f7b8 1c3c 275f adba
00000050: 7f15 883a 2016 5c3b 5a28 c3ba 1897 0c3c
00000060: 785f d23b b30b a7bb e89c 503b ea51 363b
00000070: 308d b73b bbc6 913a bb89 fb3b 8b57 833b
00000080: 36c6 76ba 17ba f43b bddb e23b 2f30 e1ba
00000090: 53a0 c23a 0f8b e5bb 28a1 4d39 5912 e23b
000000a0: aadb 993b 1c0b 833b 3122 863b 65bc 4fba
000000b0: 7493 023c 8806 22bb f5cc 4eba 5f82 f7bb
000000c0: 5bb7 b73a 97d1 81bb ac97 2a3a b1ac 593b
000000d0: 921e 0d3b ae1a 923b b4aa 1b3c b887 373b
000000e0: c47d 40bc eeb3 8e3b 4211 033c 65c2 c3ba
000000f0: da92 773b acfd 8bb9 e4df e03b 7cb6 a23b
00000100: 0f6f 2f3c cf50 a2ba ce1d 823b 105a b33b
00000110: 3501 9cbb 5ac9 d13b ac54 203b 6a93 4a3b
00000120: 72a3 2f3b ad6b 2c3b 97ae 063c 186e 853b
00000130: adef 4839 480f 33b9 8689 b53b d2c4 d23b
00000140: 38a4 0a3b 556f 5d3b 621b a23a 4c41 eeb8
00000150: 4927 04bb 2c5a 9a3b df19 163b 9b2f d8b9
00000160: 59eb 103c ce7f 613b 3322 903b 2aea c93b
00000170: b940 1f3b b20b c63b 5bdb 203c c510 0d3b
00000180: a772 bf3a d87a b43b bffc 933b fc0b 0f3b
00000190: fd77 09bb 49be 96bb 6382 be3b df65 9f3b
000001a0: 6ea8 76ba f71c c0bb 60eb e23b 7955 3e3b
000001b0: edfe 9639 8407 823b 07c2 403b f466 62bb
000001c0: 3bd0 fdba 9a1f d93b 01ff a33b 9808 59bb
000001d0: 9460 233c 23c8 9f3b 155b 3dba 4229 023c
000001e0: d4f8 0f3c 8da9 7b3b 60da 8c3b 850b 0c3a
000001f0: 3ac3 843b 26a5 013b 631e 973b f7ce 2a3c
00000200: 56fd e63b fcf4 4eba b724 1538 a790 5f3b
00000210: b7c7 a43a dfdd 31bb 7854 c73b 24ec 283c
00000220: 31a6 b2ba 5a14 163b 589f 9039 2041 b13b
00000230: 57ab 9a3b 495a ce3b fb99 ec3b 4ada f039
00000240: 329d 3e3b 9697 52ba 7830 d93b 0abc fa3b
00000250: 8ff3 023c a0de 23bb d2fe 1e3a e1e3 b83b
00000260: 4cc6 663a bd93 743b 2ca6 af3b f767 60bb
00000270: e65d 7cba 982e 343b 77e1 653c 6987 423c
00000280: fda4 7e3b 321a a13a 9852 783b 7c2e 493b
00000290: 44e3 c43b 72d6 1abc 5790 c53b 6fe2 143c
000002a0: f6f6 013b 8034 d0ba c3de 0c3c c78b b6ba
000002b0: adbe 273b c4d8 963b 5ed1 003b bfbf 9b3a
000002c0: ba1a 8fbb 47eb c93a cca3 bdbb d820 183c
000002d0: 7014 153c afe5 293b 804e c1bb ef6b 193c
000002e0: cc1e c53a 45c2 9fba 26ed 4d3b c59a 8338
000002f0: c329 763b ef2a 073a ea31 c23b 4e5e b3bb
00000300: 4062 863b 87c5 1c3b 8089 4f3b 7b2b ccbb
00000310: 414c 593b 3fe6 483a f64c 6739 6167 8bbb
00000320: 97e3 c33a 9f35 a83a 376d 2cbb cf09 683b
00000330: c548 d5bb b960 0d3c 99b6 23bb 4226 153a
00000340: 8472 b73b c0ae c6ba 030c b73a adce 203b
00000350: 89ee 853b fe14 ab3b aad8 cdba af9c 67bb
00000360: 1641 8b3b bea3 163c 0e6b 0d3b 349e a3bb
00000370: ea38 573b 9249 023b 44da d7bb 8acb 5e39
00000380: 9b78 283b 64ed 363c 5642 4eb9 e534 93bb
00000390: 0192 cc3b 183f 793b 94a9 2d3b 0b3d baba
000003a0: e70a 983b 00c1 9bb9 7078 9bbb 3045 6e3b
000003b0: ee5a 733a 2a06 2b3c 65a3 093c adcc b03b
000003c0: 27d4 b23a cb7d 8f3b f831 ed3a 1f82 b63b
000003d0: 780c a63b c1c0 0fbb 611e 62bb 19c8 053b
000003e0: 3151 9b38 b72a ff3a 430a 913b ceaa dc3b
000003f0: 09be fc3a e5fd 933b ab28 133c 966c 3e3b
-0.0058498024 0.0023669247 0.0063454793 0.0066308826 0.0034496214 0.0034689792 0.003983316 -0.0005154964
0.0029409644 0.0045644613 0.010054867 0.00089969917 -0.003294063 0.0050561135 0.0036483817 0.010124239
-0.008185071 0.0024821293 0.009565583 -0.001322721 0.0010382383 0.0033582523 -0.0014889345 0.008580945
0.006420072 -0.00509783 0.0031831805 0.002781982 0.0056015477 0.0011121848 0.007676331 0.0040082387
-0.0009413691 0.0074684727 0.0069231675 -0.0017180498 0.0014848806 -0.0070051025 0.00019610359 0.00689916
0.0046953754 0.003999127 0.0040934314 -0.00079244963 0.007969726 -0.0024723131 -0.00078888173 -0.0075533832
0.0014016436 -0.0039617526 0.0006507586 0.0033214504 0.0021533114 0.004458747 0.009501148 0.0028004479
-0.011748735 0.0043549454 0.00799972 -0.0014935253 0.003777674 -0.00026701146 0.0068626273 0.0049656015
0.010707631 -0.0012383702 0.003970838 0.005473383 -0.004760886 0.006402177 0.002446453 0.003091062
0.0026800302 0.0026309297 0.008220336 0.004071962 0.00019162773 -0.00017076463 0.0055400757 0.006432154
0.002115501 0.0033788283 0.001236778 -0.00011360887 -0.0020165017 0.0047104564 0.0022903604 -0.000412342
0.008845174 0.0034408453 0.004398608 0.0061619477 0.0024300052 0.0060438747 0.009817923 0.0021524888
0.0014606313 0.005507808 0.0045162137 0.0021827212 -0.002097606 -0.0046003205 0.005813883 0.004864439
-0.0009409253 -0.005862828 0.0069250315 0.0029042645 0.00028800164 0.003968181 0.0029412524 -0.0034546228
-0.0019364426 0.0066260817 0.005004764 -0.0033116695 0.0099717565 0.004876153 -0.000722335 0.007944407
0.008787353 0.003840062 0.0042984933 0.0005342293 0.004051593 0.0019782274 0.0046117767 0.010425321
0.007049243 -0.0007894782 3.555856e-05 0.003411332 0.0012571727 -0.0027140302 0.0060830675 0.010310207
-0.0013629851 0.0022900314 0.0002758454 0.005409375 0.0047201323 0.006297384 0.0072205043 0.00045939005
0.0029085395 -0.00080334523 0.0066280924 0.0076518105 0.007992639 -0.002500452 0.0006065193 0.0056423997
0.0008803352 0.0037319504 0.0053603854 -0.0034241655 -0.0009627029 0.0027493592 0.014030806 0.011873105
0.0038855665 0.0012291132 0.0037891027 0.0030697873 0.0060085375 -0.009450542 0.0060291695 0.009087189
0.0019831038 -0.0015884787 0.008598032 -0.0013927155 0.002559583 0.004603477 0.0019656043 0.0011882706
-0.0043671997 0.0015405201 -0.0057873484 0.009285174 0.009099111 0.0025924256 -0.0058992505 0.009364112
0.0015039085 -0.0012188634 0.003142187 6.275395e-05 0.0037561513 0.0005156239 0.0059263604 -0.0054738885
0.004101068 0.0023921446 0.003166765 -0.006230769 0.0033157023 0.0007663704 0.00022058547 -0.004254267
0.0014945146 0.0012833363 -0.0026310214 0.0035406237 -0.006508919 0.0086290175 -0.0024980663 0.00056896
0.005598368 -0.0015158281 0.0013965372 0.002453725 0.0040872735 0.0052210083 -0.001570483 -0.0035341193
0.004249702 0.009194313 0.0021578702 -0.0049932245 0.003284032 0.0019880277 -0.0065872986 0.00021247394
0.0025706652 0.011164997 -0.00019670403 -0.0044923895 0.006242991 0.0038031992 0.0026498782 -0.0014208866
0.0046399715 -0.000297077 -0.004744582 0.0036357157 0.0009283264 0.010438481 0.008400773 0.005395493
0.0013643549 0.0043790094 0.0018096557 0.005569711 0.0050674044 -0.0021934959 -0.003450297 0.0020413457
7.406099e-05 0.0019467686 0.004426272 0.0067342287 0.0019282709 0.0045163506 0.008981864 0.0029056421

network_body._body_endoder.seq_layers.0.weight f4 [256, 119]
00000000: 9a17 20bd 351a 55be e292 23bd 51b6 393e
00000010: aa02 e63d 212c d43d 9a3b 0abd 75a4 e53d
00000020: 854c 293d 511a 8e3d 7021 e4bd 0ff8 a83c
00000030: b9b4 54be 279c 02be 6da7 673d b418 68bd
00000040: 6ee8 1fbd 3883 6d3d 1159 c6bb 8d52 76bd
00000050: f81a bd3d 807f 893e 4748 733d a5ab 67bd
00000060: 9784 8d3d 838d 3abd 17db c9bc 692a eebc
00000070: fcfb c63d b957 ebbd 769f 63bd 5814 9b3d
00000080: b73c 733c b933 8fbc 0f64 71be 37c0 dabd
00000090: 3d46 a0bd 1e6a 323d fbec 8bbe 9e82 7f3d
000000a0: f385 e2bd b24c bdbd af33 773d 2d56 92bd
000000b0: 7dd2 e8bd a54c c53d d05e 073e 95d8 79bc
000000c0: a042 293e 5141 08be 9580 5e3d 1234 263d
000000d0: 33da a6bd 4b5a 95be 013e cbbb 6506 8bbd
000000e0: 2a14 623c dd37 10bd a72b 52bd 78ff 913c
000000f0: b006 4e3d ea48 443d 7a89 e2bd 5a7f e33d
00000100: 77c4 e93d 5d3e 7dbd 5430 47bd 8010 933d
00000110: df9a e9bc fac2 523e b699 153e d676 df3c
00000120: 4958 a2bd 87f0 29bc 6840 d6bd fffa 523e
00000130: d732 393d 473d 833c bb07 38bc 08b6 823d
00000140: 9d9c a0bc 9130 a83d 49af d53d b4f7 10ba
00000150: 7aa0 89bd ff41 d73d 1573 8b3d 0a24 a13c
00000160: 4b05 b53d 506b 90bc 0b52 4d3c 3d05 10be
00000170: 76ba e8bc 8ca1 62be b809 b7bc 764b 523c
00000180: e413 0d3e 5e27 f13d 11a1 f3ba a9d9 003e
00000190: 53c5 d7ba 5589 96bc 399a f23d 3e40 6e3d
000001a0: c97b c03d 76f4 4ebd 6462 65be ef81 2fbe
000001b0: b330 39bd 7342 f93d 4a2c 0f3e 390a d73d
000001c0: 592a 3fbd 9bf1 5b3d ec4f 33be 369f 9e3d
000001d0: 1431 04be cd3a 1ebe 9d13 a1bd d442 bb3d
000001e0: c36f 423c f0e2 d53b cf39 91bd 8a32 053e
000001f0: aaf7 0dbe 7923 1dbe a4a2 bb3d d85d d03b
00000200: 069d 97bd f900 0fbe 8056 89bd 11cf f1bd
00000210: 9c1f 883d d0e6 dd3c f242 0ebd 1786 c93d
00000220: 1a64 f0bd 2fae cf3d a1eb d43d 6d79 aa3d
00000230: 99c3 54bd 80dc 833d 0cde 923d 8d19 1b3e
00000240: 18ec a0ba 5136 3d3d 7a97 4b3c 96af 3a3e
00000250: cf8f 123d 690c 013e 34ac 5d3c 641c ad3d
00000260: b16b dcbb cfd8 123d d3ee df3d 4a7f f3bc
00000270: 0545 513e 39e5 083d d43a 81be 713e 57bd
00000280: 12d5 003b 2a03 6c3d cc11 9cbd 62ac 9a3d
00000290: e6b9 d33c 237e 64bd e554 a0bd 1ae8 f4bd
000002a0: b552 d23d 2ccf 6cbd dd79 71be 6bb5 893d
000002b0: 85f8 adbc 6b0c 0b3e 2cd5 e5bd 52f3 adbd
000002c0: e472 b33d dabf b13d d75b 243d 969e 6d3d
000002d0: aa4c db3d e7c1 80bd 2c6e cbbd 529b 953d
000002e0: 9bea 5f3d 9c25 35be 8fbf 49bd 5697 3f3e
000002f0: 135c 8dbc 139b 29be d6b0 26bd 6f99 fcbc
00000300: 4e66 c33d 8996 3e3d 3607 9fbd acfa f63c
00000310: 3658 223e 7a42 46be cc7a f0bd 7f19 53bd
00000320: 5b84 193b 4d9c 223e accf 6f3d 3cda a63d
00000330: 32d0 37bc 53bb dabd 7dc4 cb3d ec2e 51be
00000340: 4406 243c f3b7 c23d 1211 843c a1e5 123d
00000350: 79af f83d 78ad 9abe 904f ac3d 9a26 fdbc
00000360: fda8 f03d 90e4 c7bc 8dc4 193d 07f9 03bd
00000370: 7807 fc3d a873 1a3d 50cb ee3d 2a94 5d3a
00000380: 83b3 1ebc 8780 ba3d eb24 c93d 2d1e 593d
00000390: c2f9 1a3d e504 b83c 17bb 39bc 0a00 a2bc
000003a0: 9db8 cebd bf22 1abd 758d a8bd 5457 1dbe
000003b0: 4a3f 16bd fd88 f53c a223 f0bd 1444 87bc
000003c0: 8c84 a73d 66c9 063d 54c4 ba3d 66c9 613d
000003d0: fb2e e93d dfe3 93bd 3d96 3d3c 9dd7 783c
000003e0: 120b 4d3d 5fb1 27bd 0316 cbbc da01 b3bd
000003f0: 2a38 a8bd cb4c 17be 330a 063e 229f 803d
-0.03908501 -0.20810778 -0.039935 0.18135954 0.11230977 0.103599794 -0.033748247 0.11213008
0.04133274 0.06938613 -0.1113919 0.020626096 -0.20772065 -0.1275488 0.056556154 -0.056664184
-0.03904002 0.057986468 -0.006053098 -0.06013732 0.092336595 0.26855087 0.0593951 -0.056560177
0.06910055 -0.045545112 -0.024640603 -0.029072957 0.09716031 -0.11491341 -0.055571996 0.0757224
0.0148460185 -0.017480718 -0.23573326 -0.10681193 -0.07825897 0.043558232 -0.2732924 0.062380426
-0.11060705 -0.09243144 0.060352024 -0.07145343 -0.113682725 0.096337594 0.13219762 -0.015249391
0.16529322 -0.13306166 0.054321844 0.040577002 -0.08147087 -0.2917045 -0.00620246 -0.06788329
0.013798753 -0.035209525 -0.05131116 0.017822012 0.050299346 0.0479211 -0.11061378 0.11108275
0.11414426 -0.061827052 -0.048630074 0.071808815 -0.028516231 0.2058219 0.14609417 0.027278345
-0.07926995 -0.010372288 -0.10461503 0.2060356 0.0452145 0.01602043 -0.011232312 0.06382376
-0.019605929 0.08212388 0.104338236 -0.00055300747 -0.067200616 0.10510635 0.068090595 0.019670505
0.088389 -0.017629296 0.012531768 -0.14064498 -0.028409224 -0.22131938 -0.022343501 0.012835374
0.13777119 0.11775087 -0.001858743 0.12583031 -0.0016462005 -0.018376032 0.11845822 0.058166735
0.0939861 -0.050526105 -0.22400814 -0.1713941 -0.04521246 0.12170877 0.13981739 0.10499997
-0.046671245 0.05369721 -0.17510957 0.07745211 -0.12909347 -0.15452118 -0.07865069 0.09143606
0.011867466 0.006527297 -0.07091104 0.1300756 -0.13864008 -0.15345563 0.091618806 0.0063588433
-0.07402997 -0.13965215 -0.06705952 -0.11807073 0.06646654 0.027087599 -0.034731813 0.09840029
-0.11737843 0.10140645 0.10396505 0.083239414 -0.05194435 0.064385414 0.07171258 0.15146466
-0.0012277393 0.04619438 0.012426252 0.18231043 0.035781678 0.1260239 0.013529826 0.08452681
-0.006726705 0.035851296 0.10934224 -0.029723782 0.20436485 0.03342173 -0.25240195 -0.052549783
0.001965825 0.057620205 -0.07620582 0.07552411 0.02584548 -0.055784356 -0.07828692 -0.11958332
0.10269681 -0.057814762 -0.23581643 0.06724056 -0.021236667 0.13578956 -0.112223 -0.08493675
0.08762148 0.08679171 0.040126648 0.058012567 0.10707982 -0.06286984 -0.09933123 0.073050156
0.054667097 -0.17690128 -0.04925495 0.18710074 -0.017255818 -0.16563062 -0.040695988 -0.030834882
0.095409974 0.04653028 -0.07765047 0.030148827 0.15853962 -0.19361296 -0.11742172 -0.051537987
0.0023424837 0.15879937 0.05854766 0.08147094 -0.011219071 -0.106802605 0.099495865 -0.20428056
0.0100112595 0.09507742 0.016121421 0.035863522 0.12142844 -0.3021047 0.08413613 -0.030902196
0.11750982 -0.02440098 0.03754096 -0.032219913 0.12306112 0.037707955 0.116598725 0.0008452559
-0.009686354 0.09106546 0.09821495 0.053007293 0.037835844 0.022463271 -0.01133611 -0.01977541
-0.10093806 -0.037630793 -0.08230106 -0.15365344 -0.03668145 0.029972548 -0.117255464 -0.016511954
0.08179578 0.032906912 0.09119478 0.05512371 0.11385914 -0.07221197 0.011571464 0.015188125
0.050059386 -0.04094064 -0.02479077 -0.087405875 -0.082138374 -0.14775388 0.13089828 0.06280352

network_body._body_endoder.seq_layers.2.bias f4 [256]
00000000: 4aad 09bb 07ca 79ba 5aef ff3a 4c8b 553b
00000010: d750 c7ba 3df1 843b ca0f 613b d5ec 9c3b
00000020: f9c1 aa3b 382a 223b f506 1a3b f9ce 683b
00000030: 1ca7 c83b a224 293b 57d5 bf3b e625 8c3b
00000040: 53b4 853b 9363 893b 5d65 953b e862 1538
00000050: 89f2 c83b 3a18 553a b1ab 283c 6449 16ba
00000060: 0368 1d3b 9ae1 293b e35c e7ba 0c58 9cbb
00000070: ff28 d53b a82a 943b 2406 1b3c 8ede 9bbb
00000080: faef 4d3b 0759 123c c37a 8a3b 9147 903b
00000090: 01f4 363b 7274 573a 09c8 1f3c 4ed9 0abb
000000a0: 883d 0c3c 3d24 603a 2e9b 05bb f642 7b3a
000000b0: ef33 963a 997f 1e3b 8ecd c53b 54f4 f737
000000c0: 3fe8 543b 3586 c43b 4ddd 163b 9802 5e3a
000000d0: f3ff 0939 ad94 2a3c cbb1 c33a 3503 4d3c
000000e0: e5bc c83a a1f8 453a a8b6 bebb 5847 373b
000000f0: ab00 9b3b 0067 d53b d8e7 c13b 984b 6f3b
00000100: 547b 00ba 0a1b 163c b33a 1d3b b14f babb
00000110: 20e5 8c3b bc03 06bb 7e15 db3b dcc0 d13a
00000120: 8b01 8c3b 0504 043c 68cf 2bba 45bd 033b
00000130: d799 db3b 7a0c e83b f06d 8f3b 1b7d 89b9
00000140: b75d 0c3a 501e 743b 6027 04bc 247b d33a
00000150: e36f 0d3b e807 723b fe34 603b 4f1e 903b
00000160: e60a 033c adf4 e33b ffc6 3cbc acd9 66bb
00000170: fb14 8f3b 4308 e23b e7a9 a63a dd8d 8cbb
00000180: 6427 e43b 5e74 9e3b 96e8 d93a 5faf 043c
00000190: 3599 f93b 5d02 0bb9 4e89 603a 0925 ec39
000001a0: c4bb e9b9 ef78 bdba 6128 9d3b 792e a43b
000001b0: 456f 2f3b 9a2e b23b 4ed7 f6ba 0e92 0c3b
000001c0: 47a2 f93a 3daa 07bb d094 9c3b 70b8 8a3b
000001d0: 1636 e03b a191 6c3b 9ffb b33a 6051 8f3b
000001e0: 6e8a 143c c74e 103b 8a19 a13b 3e57 463b
000001f0: 7dc8 963a ea19 9b3b d13f 4339 9465 913b
00000200: 1119 dd3b 2f19 373b 8289 1f3b bf0f 933b
00000210: 3bc0 b0ba e16e 443b 14f7 6cba 7b9f 20bc
00000220: 8041 2f3c 285b 453b 3304 fab9 48fe 70ba
00000230: 183a f23b d713 d13b b55d 623b 3aea 613b
00000240: b0d0 13bb 3bf8 0abb a3d1 6dbb 68f1 003b
00000250: e92f d53a f5f2 523b 7094 323b ce68 33bb
00000260: 91d8 e53a 98f4 7f3a 872d 4f39 d38c bc3a
00000270: 603b 95ba 1e31 d03b 0038 90ba 0909 6f3b
00000280: c87f 5a3b af8c 0f3c 73f9 df3b f70a b4ba
00000290: 1f8a 2a3b 07fb 983a f82f 1f3c 9337 1ebb
000002a0: 51f2 093a 02a7 73bb 1f2d 48ba ced6 63ba
000002b0: a676 ce3b 7cf3 e93b adb1 1e3b 2519 b73a
000002c0: 043f c73b 3496 4ebb c5c1 a93b 441e 4fba
000002d0: 527d 4ebb 8939 4a3a 642c e93b 4203 053b
000002e0: 8ae6 b93b beb2 4a3b c286 2ebb 9e73 d3b9
000002f0: 2ca1 943b 0d50 bfba e800 093b 85f2 303b
00000300: 3ed1 0d3b d936 253b 45cd a43b c8ed a03b
00000310: d0e1 093b fe78 f939 34f5 4abb fc94 263c
00000320: ff70 56bb 54b4 ff3b 36ec bd3b aea2 76ba
00000330: bde1 063c 482e 72b8 34ee 913a 8474 993a
00000340: e952 47ba e475 2f3b 3bdd 933a 01a1 ba3b
00000350: 891f d33a 17ac d5bb 773a cd3b d1d9 583a
00000360: 227d a9bb 1d2c f739 5dc2 d3bb 389f e7b9
00000370: 6895 b33a 4945 ae3b 4828 033a 50d4 2439
00000380: 37a3 343b 39d6 f53b db02 8c3b e7cf e83a
00000390: 65fb 203c b418 1fba c798 b13b 2608 6e3b
000003a0: 6a40 8f3a 18bf 063b 2b5d b13a 43f2 153b
000003b0: 2de5 f6ba 03e1 033c e375 5e3b a851 3c3b
000003c0: 98bb c9bb 7e91 f93a b9d4 423c ed8a 733b
000003d0: 931d d2ba 3766 153c 8960 7a3b 813c a4ba
000003e0: 5139 8a3b da2f 3a3b 7e7f 903b fa42 ca3b
000003f0: 51ca 0d3c bd29 12bb f0ea 643b 7380 063c
-0.002100783 -0.00095287006 0.0019526288 0.0032584248 -0.0015206587 0.004057078 0.0034341686 0.0047889748
0.0052111116 0.0024744403 0.0023502682 0.0035523756 0.0061234366 0.0025809188 0.0058542895 0.004276979
0.004080334 0.0041927784 0.0045592026 3.5616482e-05 0.006132428 0.0008128915 0.010294841 -0.0005732982
0.0024018295 0.0025921823 -0.0017651584 -0.004771238 0.0065051313 0.0045216866 0.009461913 -0.004756755
0.0031423555 0.008932359 0.00422606 0.0044030626 0.0027916434 0.0008218951 0.009752282 -0.0021186653
0.008559592 0.0008550322 -0.0020386684 0.0009584868 0.0011459569 0.002418494 0.006036467 2.9558469e-05
0.0032487062 0.005997444 0.002302009 0.00084690144 0.00013160687 0.010411424 0.0014930306 0.012512972
0.0015315084 0.0007552002 -0.005820114 0.0027966108 0.0047303042 0.0065125227 0.0059175305 0.0036513563
-0.000490119 0.00916172 0.0023991286 -0.0056857695 0.0042997748 -0.0020449003 0.0066859117 0.0016002911
0.004272645 0.008057599 -0.0006554038 0.0020101827 0.0067016887 0.0070815654 0.0043771192 -0.00026223887
0.0005354541 0.0037249513 -0.008066028 0.0016134721 0.0021581582 0.0036930982 0.0034211273 0.0043981443
0.007998204 0.006956658 -0.011522054 -0.0035224957 0.0043665147 0.0068979575 0.001271543 -0.0042893724
0.0069627035 0.0048356494 0.0016625102 0.008098452 0.0076171407 -0.00013256953 0.0008565382 0.0004504102
-0.0004458112 -0.0014455597 0.0047960733 0.005010423 0.0026769203 0.0054376842 -0.0018832476 0.002144936
0.0019045555 -0.0020700835 0.004778482 0.0042334124 0.006842385 0.0036097544 0.0013731605 0.0043737143
0.009066207 0.0022019611 0.0049163746 0.0030264403 0.0011503842 0.004733314 0.00018620423 0.004437158
0.006747373 0.0027938595 0.0024343436 0.004487961 -0.0013485024 0.0029973316 -0.0009039503 -0.009803648
0.010696769 0.0030114148 -0.00047686844 -0.00091931643 0.007392179 0.006380539 0.0034540717 0.0034471885
-0.0022554807 -0.0021205086 -0.0036288283 0.001967514 0.0016264889 0.003218827 0.002724912 -0.00273757
0.0017535855 0.00097639253 0.00019758019 0.0014385231 -0.0011385493 0.0063535115 -0.0011003017 0.0036473891
0.0033340324 0.008761569 0.0068351566 -0.0013736178 0.0026022268 0.0011671492 0.0097160265 -0.0024142012
0.0005262243 -0.0037178402 -0.0007636118 -0.0008691371 0.006300765 0.0071396213 0.002421479 0.0013969286
0.00608051 -0.0031522634 0.00518057 -0.0007900933 -0.0031507802 0.0007714262 0.0071158875 0.0020296131
0.0056732344 0.0030929293 -0.0026630615 -0.00040331198 0.0045358147 -0.0014596 0.0020905081 0.0027000022
0.002163961 0.0025209694 0.005029353 0.0049111582 0.0021039136 0.00047583127 -0.0030968906 0.010167357
-0.003272116 0.007803479 0.005795981 -0.00094083964 0.008232531 -5.77404e-05 0.0011133612 0.0011707698
-0.0007603602 0.002677315 0.0011281142 0.0056954627 0.0016107421 -0.006520759 0.006263073 0.0008272203
-0.0051723877 0.00047144378 -0.006462379 -0.0004417838 0.0013701143 0.005318318 0.0005003256 0.00015719351
0.0027563104 0.007502344 0.0042728013 0.0017762155 0.009825562 -0.00060690497 0.005419824 0.0036320775
0.0010929231 0.0020560678 0.0013531795 0.0022879995 -0.001883661 0.008049252 0.0033944778 0.0028735194
-0.006156396 0.0019040552 0.011891537 0.0037161664 -0.0016030542 0.009118608 0.0038204512 -0.0012530239
0.0042182584 0.002840987 0.0044097295 0.006172535 0.008654193 -0.002230271 0.0034930073 0.008209336

network_body._body_endoder.seq_layers.2.weight f4 [256, 256]
00000000: ccc0 c03c 1d99 11bd 5c7e 843d 8342 38bd
00000010: 5913 b7bc 806d da3d da1e d73d 0aec 55bd
00000020: 45e1 8d3d 0675 193d 5bad a0bb fc21 6abd
00000030: d119 d2ba b44b b2bd e956 42bb a3a3 983d
00000040: 8223 a23d 7a2e cc3c 24a1 e43d cdd2 bdbb
00000050: ed4d e8bd a6fd 553c 5df3 833d c520 53bd
00000060: c500 33bd 0fc8 94bb 804a c93c b659 0f3d
00000070: 1fbb 77bc a2cc 6f3d 822f e7bd 8dcf 3dbd
00000080: c5ce ddbd 8786 053d 8e84 3fbd 7f54 3d3a
00000090: ee45 88b8 69d0 8fbc 163c 67bc d975 d63c
000000a0: 8c95 733c e562 04bd 98ef 81bd 4f13 85bc
000000b0: 4c56 153d 9b4c 943d 3e32 f83c 05b4 2ebd
000000c0: 66a8 38bd 9cf8 053d 9529 b53d fa98 e43c
000000d0: 17cc 633d a03c 433d 4fc7 c5bb c38c 8d3d
000000e0: 80e1 f3bd ae00 f93b 95d9 70bd ef4f ae3d
000000f0: 9128 a63c 4de9 013d bbd0 a83d 0ce3 1abd
00000100: 231d 1dbc 6996 ab3c ff25 cdbc 630d 01bd
00000110: 1ec3 35bd a53e 6abd ba83 af3c 7301 253d
00000120: 0917 55bd b7df f53c ccdc 553d b7d9 4bbc
00000130: 9865 6bbc 2876 833c 95cc 793d f3de 143d
00000140: 7c42 5e3c 420b e23d 6e98 09bd 8e46 20bb
00000150: 297a 1cbd 9d43 b2bd d5c3 253d 3c1d 94bd
00000160: 2ff7 93bd c4be 963d 5cdf ee3b 1bef 3bbd
00000170: a038 903d ef91 363d d52d 57bd 9aee 35bc
00000180: 2273 8d3c 8b91 093d ff36 413a 1fd3 ccbb
00000190: 037d 293d 00ba 9b3d 8be5 dc3b d1f7 4fbb
000001a0: 13c2 abbd 5705 a33c f0c4 37bb 1d8b a5ba
000001b0: a6b4 d53d 00aa 12bc 4106 13bc e0b5 cebc
000001c0: 1156 b7bd 97a3 393d 0448 883d 06c2 36bc
000001d0: 1094 aa3a fb60 15bd 51cc bdbc 4072 073d
000001e0: 7ca3 54bc f6d3 113e 7d23 da3d 2f25 95bc
000001f0: 77b7 dd3d a3b5 293d 6600 51bd 3e8c fdbc
00000200: f451 42bd 5ccd cdbc 7186 70bd 5836 d4bc
00000210: af46 953d edc2 823d cd2a a2bd ae9d 19bd
00000220: 3a7c 3d3d 7b02 91bc a77a 4b3d 9a85 d33d
00000230: 0952 0fbd 9fc1 6f3d 69a5 bb3d b230 933d
00000240: 8f4e 873d ac1c c7bb 1373 a33c 7de1 093d
00000250: d68c 94bd e21f 4f3d c654 5dbc fa27 c4bd
00000260: 1ad6 febc d306 17bd b943 84bd 38e0 853c
00000270: f9b5 86bd e272 72bc af33 bd3d 18cc 8a3d
00000280: 1f09 593b 3161 033d eab3 5c3d f604 763d
00000290: 9fcf 063d fd48 123c 7625 67bd 57d1 cfbd
000002a0: f109 4d3d b170 ef3c 6efc 16bd 52e1 f6bd
000002b0: 321f 6e3d 3917 b33d 0505 bfbd 9029 08be
000002c0: 48d0 b73d bbf7 a93d 3368 5dbd 9980 983c
000002d0: 89a5 8bbd 4933 04bc 63c7 32bd f735 073e
000002e0: d6b5 fd3c 4d83 1c3d cfb2 933c 6bce 3abd
000002f0: 411c 713d f4f0 253d 831e a73d 55fc a53c
00000300: f311 473d 6cd0 2ebc e878 603c f969 bcbd
00000310: a1be 3b3d 4101 ee3d 8173 84bc 666a 0c3d
00000320: 7679 913b 49e3 36bd 705f 253d d531 d2bd
00000330: caf9 b6bc b659 743d 3bad 313d 655a 0bbd
00000340: c967 c03c 1128 b0bc d5f0 0ebd 26e8 223c
00000350: e7a1 b63d 1fe1 9dbd 4236 953d 2363 94bc
00000360: e575 95bd ad9b 903c 517c c83d c47b 7abd
00000370: e6da b2bb f835 e8bc 3475 71bd f14c 393d
00000380: 8798 3ebd bf95 2bbd b6db 063d c89a bfbd
00000390: 7a3d 103e 26da 683d 4a5f 5a3d 478e e8bd
000003a0: cff8 09bd cf90 093c bfb4 253d 1f3e 27bd
000003b0: 4490 e73c 7b00 e2bc c904 acbc 2345 a33d
000003c0: 8fea 03bd 068c a6bc aed1 cf3c ac63 d53d
000003d0: 808a cfbb 6825 c83b d36d 153d 664e babc
000003e0: 599b 4e3c 287a a23d eda6 ebbd 3384 c73b
000003f0: 6e40 2b3c ccab c93c 93b0 37bc 82d4 3e3d
0.023529433 -0.03554641 0.06469414 -0.044985306 -0.022348093 0.10665417 0.10503931 -0.052227058
0.069277324 0.037465118 -0.004903478 -0.057161316 -0.0016029422 -0.087058455 -0.0029653853 0.07453086
0.07916929 0.024924506 0.11163548 -0.0057929517 -0.11342988 0.013060963 0.06442902 -0.051544923
-0.043701906 -0.0045404504 0.024571657 0.034997664 -0.015120297 0.058544762 -0.11288358 -0.046340514
-0.10830454 0.032599 -0.046757273 0.0007222369 -6.498011e-05 -0.017555432 -0.014113447 0.026179241
0.014867198 -0.032320876 -0.06344527 -0.016244559 0.036459252 0.07241174 0.030297395 -0.04265215
-0.045082472 0.032707796 0.08845822 0.027904976 0.055614557 0.04766524 -0.0060357223 0.06911614
-0.11908245 0.007598958 -0.058801252 0.0851134 0.020283015 0.031716634 0.08242937 -0.037814185
-0.009589466 0.020945745 -0.025042532 -0.031506907 -0.04437553 -0.05718865 0.021425117 0.040284585
-0.05202392 0.030013902 0.05221252 -0.012442044 -0.014367484 0.016047552 0.06098612 0.036345433
0.013565656 0.110373035 -0.033592634 -0.0024456116 -0.03820244 -0.087043025 0.040469963 -0.072321385
-0.07224881 0.073606044 0.00728981 -0.045882326 0.0704205 0.044572767 -0.052533943 -0.01110425
0.017266814 0.033586066 0.0007370561 -0.0062507535 0.041378986 0.07603836 0.006741231 -0.0031733403
-0.08386626 0.019900007 -0.0028040968 -0.001262996 0.104348466 -0.008951664 -0.008973659 -0.02523321
-0.08951963 0.045322027 0.06654361 -0.011154657 0.0013014097 -0.03646944 -0.023168715 0.03306794
-0.012978431 0.14241013 0.106513 -0.018206207 0.10826009 0.041432988 -0.05102577 -0.030950662
-0.047441438 -0.025122337 -0.058721963 -0.02590482 0.072888725 0.063848354 -0.0791832 -0.03750389
0.04626105 -0.017701378 0.049677517 0.10328217 -0.034990344 0.05853426 0.09162409 0.07187022
0.06606781 -0.006076416 0.019952333 0.033662308 -0.07253425 0.050567515 -0.013508981 -0.095779374
-0.031107951 -0.036871742 -0.064582296 0.016342267 -0.06577677 -0.014797898 0.092383735 0.06777209
0.003311701 0.03207511 0.053882517 0.060063325 0.032912847 0.008928535 -0.05643221 -0.1014735
0.05005831 0.02922854 -0.03686183 -0.12054695 0.05813522 0.08744664 -0.09327129 -0.13297105
0.08975273 0.08299204 -0.05405445 0.018616008 -0.06818683 -0.008068868 -0.04364718 0.1320418
0.030970495 0.038211156 0.018029599 -0.04560701 0.058864836 0.040512994 0.081601165 0.020261923
0.048601102 -0.010669809 0.013700701 -0.091999 0.045836095 0.11621333 -0.016168358 0.034281157
0.004439528 -0.04465035 0.04037422 -0.10263411 -0.022335906 0.059655868 0.043378096 -0.034021754
0.023486989 -0.02150348 -0.034897644 0.009943044 0.08917599 -0.07708954 0.072857395 -0.018113678
-0.07297877 0.017652357 0.097893365 -0.06115319 -0.0054582236 -0.028346047 -0.058949664 0.045239393
-0.04653218 -0.041890856 0.032924376 -0.09355694 0.14085951 0.056848668 0.05331353 -0.11355262
-0.033684548 0.008396341 0.040455576 -0.040830728 0.028267033 -0.02758812 -0.020998375 0.07972171
-0.032206114 -0.02033044 0.025368538 0.104194015 -0.006333649 0.006107975 0.03648169 -0.022742461
0.01261028 0.07933456 -0.11506448 0.0060887574 0.010452373 0.024618052 -0.011211532 0.046589382

network_body._body_endoder.seq_layers.4.bias f4 [256]
00000000: 6107 9eb9 4d62 ac3b a141 c1b9 58d8 ef3a
00000010: f219 0a3b 05bc 843b 3cf7 193a 0637 233b
00000020: da15 25bb c19e ebba 6b51 813b c583 cd3b
00000030: 6493 3b3a 9d6c 8e3b cf64 75ba c306 0a3a
00000040: 3dde 793b dc3b a9b7 a5dd 1c3b 925b d63a
00000050: b51d 623a 4a1c 383b ef57 9cba a2ce 8c39
00000060: f8ae 483b 2f74 5cb9 55cd ce3b 29c0 ea3a
00000070: 2693 88b9 6a4b 053b 93d4 123b 6894 393b
00000080: 2745 493b 18e9 c53a 5e98 3e3b a8a0 a23a
00000090: c165 f63a ad95 43ba 6246 043a 49e2 403a
000000a0: 2e2a 373b 2591 203b a547 b03a 5ab2 823b
000000b0: 014f 723b 0415 d1b9 4b48 e43a 9413 2a3b
000000c0: 4a4f 0c3b e3b5 283a fc43 aa3a 249e a7ba
000000d0: ffe2 eb3a 4917 173b c983 753a c176 493b
000000e0: 94dd ad3a 5d04 863b 3f3a 8eba ec1a 2fba
000000f0: 998f 6b3b 4b8c 923b 204a 51bb 3362 003a
00000100: 0ac8 fc3a dc9b 8bba 934b 583b ac15 0e3b
00000110: e18c 353b a49c ee3a 3c95 5f3a 926d 043b
00000120: 538a fcba 57fa 083a 7141 273b 2623 a237
00000130: c16a 193a 3fa4 623b 3768 a6b9 df19 a73a
00000140: fd05 1b3b 8deb 023b 6cce ce3a 95c5 4139
00000150: aecd 623b adc1 2a3b 741b 9239 3047 473b
00000160: 23d4 003b 6a1d af3b 797f 6c3b d12e 873b
00000170: d618 573a 53ec 473b a4ad dbba 4156 28ba
00000180: 6573 bf39 d9b3 b13a 84e0 413b 612e fb38
00000190: cd93 a03a 8072 bc3b 4128 743a c91f 8b3b
000001a0: 573a 2e3b 2d7d 483b 0ada f4ba dec7 2a3b
000001b0: 68f7 99b9 dcff e938 616f dbba 53d8 0e3c
000001c0: 194c 6f3a 1407 f73a 5525 6e3b 7b95 82b9
000001d0: cc14 db3a ac3f 03bb 4729 98ba 4125 cd3a
000001e0: 3f29 3839 be69 0dbb fab8 bd3b 0a81 023a
000001f0: 6786 9239 9392 c73b fdbe d43a d6c1 083c
00000200: 31d2 3c3b 682d 5cbb 8100 283b 9e69 363b
00000210: b526 0ebb d456 103b c028 783a 2131 dc3a
00000220: 7a7e b63b 8f3b 303b 2702 6d3b bbc4 033b
00000230: 0f4b a73a 0330 8a3b f4bf cab9 ccf5 5fba
00000240: d6d5 30bb 82f7 b1b7 6415 b73a aac9 493b
00000250: 7012 59ba 3864 423b d0d5 293b 5cf7 dfba
00000260: dafd 103b 96f1 78ba 2eba 2b39 9169 ac3a
00000270: 0712 0f3a 8494 03ba c701 0d3b 8fd5 e73a
00000280: d2f5 be3a d974 793a 3a1a ecb9 37de df3b
00000290: 6642 f13a 95bb 593b 1a49 403b 7897 6a36
000002a0: 6d8c 48ba 7761 273b aecb 273b a990 d03a
000002b0: bd7c 92ba 8ee7 173b a383 2eba dcff 3e3b
000002c0: ae88 55ba 7136 1c3b cc99 3f37 4a2e 4d3b
000002d0: 54a8 323b 6cfc 503b 96d1 693b aad5 0e3a
000002e0: 4862 123a 338e 23ba 700c 493b 8cdc 083b
000002f0: c861 7d3b 99aa 0ab9 ccaa 1a3b 7dbb 123b
00000300: 2e88 883b 3d60 18bb 4496 df3a e14f 77ba
00000310: 9ce3 843b 5e5a 4e3b 5e5c a7b9 a8f9 0c3b
00000320: 3b2e bd39 0f86 233a 12b9 8a3b 8709 aa3a
00000330: 6e72 a03a c562 b33a d908 e539 85f2 043b
00000340: 8789 69ba 25e6 553a 4214 0f3b f978 633a
00000350: e7d1 09ba 3d99 12ba ebbe 523a 4e43 10bb
00000360: 2ade 2f3b e5d2 643a 674d 4c3b 7174 053b
00000370: ce4d 54ba 0ea9 153b f624 823b 5188 8e3b
00000380: 1014 053b 9fdf 57ba 2d9f e83a 8119 adba
00000390: ffe0 b0ba 5c76 193b cfb6 723a c7c2 513b
000003a0: 5062 16bb 8a4b 0d39 bff2 45ba 894b 8a3b
000003b0: bdba 31b9 1d3d 863a 388f 12bb ddd9 523a
000003c0: 1373 353b 2bc9 ad3b dc8f ebba f371 0c3b
000003d0: 5985 c23b 6d13 0cbb d7f1 413b 35a0 5eba
000003e0: 23bb b439 f37f 423b c9d5 723a 36e5 a73a
000003f0: addb 013b 404d 4dba eb1b 6d3a 76b6 a03b
-0.00030141606 0.005260742 -0.00036860726 0.0018298728 0.0021072594 0.004050734 0.00058733276 0.0024904623
-0.0025190026 -0.001797639 0.0039464734 0.0062718117 0.0007155447 0.004346444 -0.000936103 0.000526529
0.003812685 -2.0174244e-05 0.0023935821 0.0016354194 0.00086256425 0.0028093033 -0.0011928062 0.00026856834
0.0030621868 -0.00021024117 0.0063110986 0.0017910051 -0.00026049576 0.002033914 0.0022404536 0.0028317217
0.0030711384 0.0015099375 0.0029082517 0.0012407498 0.0018798636 -0.0007460963 0.0005045888 0.0007357938
0.0027948725 0.0024500575 0.0013449086 0.0039885463 0.003697336 -0.00039879244 0.0017416565 0.002595161
0.0021409565 0.00064357946 0.0012990232 -0.0012788218 0.0017996727 0.002305465 0.0009365646 0.003074095
0.0013264888 0.0040898756 -0.0010851099 -0.0006679732 0.0035943745 0.0044722906 -0.003193505 0.00048974453
0.001928569 -0.0010651308 0.003300403 0.0021680398 0.0027702379 0.0018204642 0.00085290126 0.002020691
-0.0019267298 0.0005225292 0.0025521184 1.9328272e-05 0.00058523944 0.0034582762 -0.00031739633 0.0012748799
0.0023654692 0.0019976825 0.0015778071 0.0001847952 0.0034607458 0.0026055381 0.00027867744 0.0030407421
0.0019657693 0.0053440826 0.0036086722 0.004125454 0.00082053 0.003050585 -0.0016760123 -0.0006421544
0.00036516335 0.0013557627 0.0029583285 0.000119772514 0.0012251079 0.005750954 0.00093138596 0.0042457324
0.0026585066 0.0030592189 -0.0018680703 0.0026059072 -0.00029366766 0.00011157963 -0.0016741568 0.008718568
0.0009128466 0.0018846714 0.003633817 -0.00024906904 0.0016714572 -0.0020026965 -0.0011608981 0.0015651361
0.00017562973 -0.002157792 0.005789873 0.0004978335 0.00027947428 0.006090471 0.0016231235 0.008346995
0.0028811807 -0.00335964 0.0025635066 0.002783395 -0.0021690552 0.002202441 0.00094665214 0.001679931
0.0055692764 0.0026890968 0.0036164613 0.0020106274 0.0012763458 0.004217149 -0.0003867146 -0.00085434015
-0.0026982925 -2.1215299e-05 0.0013968167 0.0030790367 -0.00082806405 0.0029661786 0.0025914796 -0.0017087269
0.0022123964 -0.00094964483 0.00016377188 0.001315402 0.00054577034 -0.0005019384 0.0021515952 0.0017687547
0.001456911 0.0009516008 -0.00045032968 0.00683191 0.0018406629 0.003322338 0.0029340447 3.4956884e-06
-0.00076503196 0.0025540271 0.002560358 0.0015912253 -0.0011176091 0.0023178789 -0.00066571886 0.0029144203
-0.0008145672 0.002383616 1.1420296e-05 0.0031308108 0.0027260976 0.0031888736 0.0035677901 0.00054487085
0.0005584103 -0.0006239146 0.003067758 0.002088341 0.0038663018 -0.00013224258 0.0023600338 0.0022389584
0.0041666245 -0.0023250722 0.0017058332 -0.0009434205 0.0040554535 0.0031486969 -0.0003192154 0.0021511111
0.00036083334 0.0006237933 0.004233488 0.001297281 0.0012241134 0.0013686052 0.00043684876 0.0020286154
-0.0008908738 0.00081595994 0.0021832143 0.0008677389 -0.0005257413 -0.00055922923 0.0008039313 -0.0022012773
0.00268353 0.00087289355 0.0031174065 0.0020363594 -0.0008098752 0.002283636 0.0039716912 0.0043497463
0.0020306148 -0.0008234921 0.0017747633 -0.0013206453 -0.0013494788 0.0023416495 0.0009258808 0.0032006965
-0.0022946782 0.00013474948 -0.00075511256 0.0042204303 -0.00016949601 0.0010241602 -0.0022363197 0.00080433284
0.0027686998 0.005303522 -0.0017971951 0.0021430224 0.0059363064 -0.0021373883 0.002959361 -0.00084925006
0.00034471703 0.0029678314 0.0009263424 0.0012809399 0.0019814775 -0.00078316405 0.00090449926 0.0049045635
