results/R6/AgentController/AgentController-499978.onnx (onnx, 657373 bytes, 14 tensors)

83 f4 [116]
0.24811722 0.18294464 0.173937 0.26457715 0.24858788 0.18179601 0.17584954 0.26414883
0.24820584 0.1830868 0.17391504 0.265566 0.24892189 0.18065526 0.177543 0.26525447
0.2476878 0.18277863 0.17343569 0.26733598 0.24924368 0.17980073 0.17889029 0.26639035
0.24864161 0.1824443 0.1752465 0.26917678 0.24679492 0.17730685 0.17773801 0.26780978
0.25074622 0.18268433 0.17820497 0.27118656 0.24600798 0.1747822 0.17905729 0.26937538
0.2545751 0.18430361 0.18235037 0.2717874 0.24980603 0.17620443 0.18325701 0.27061436
0.25725836 0.18421938 0.18645142 0.27260983 0.25668296 0.1795875 0.18997875 0.27225953
0.25954324 0.1859511 0.18806872 0.271665 0.2609348 0.18092585 0.19499302 0.27240536
0.26057783 0.18420248 0.19135447 0.27039945 0.26633647 0.18223329 0.20158249 0.27221155
0.26272222 0.1840081 0.19470054 0.2691833 0.26680356 0.18220448 0.20227422 0.27093986
0.26498082 0.18392842 0.19806814 0.26779708 0.26791555 0.18212804 0.2039256 0.26894125
0.26695156 0.1839825 0.20088503 0.2667995 0.26800722 0.18161029 0.20450236 0.26718777
0.27005014 0.18444918 0.20490898 0.26597396 0.2689751 0.18146965 0.2059828 0.26597467
0.27011913 0.18485796 0.20464672 0.2648661 0.27138972 0.1851184 0.20623125 0.26513937
0.27138972 0.1851184 0.20623125 0.26513937
00000000: 7112 7e3e d755 3b3e 8a1c 323e a876 873e
00000010: d28d 7e3e bc28 3a3e e711 343e 843e 873e
00000020: ac29 7e3e 1b7b 3b3e c916 323e 44f8 873e
00000030: 61e5 7e3e b1fd 383e d5cd 353e 6fcf 873e
00000040: dfa1 7d3e 522a 3b3e 2099 313e 43e0 883e
00000050: bc39 7f3e af1d 383e 042f 373e 5164 883e
00000060: e89b 7e3e aed2 3a3e d273 333e 8ad1 893e
00000070: cfb7 7c3e ed8f 353e f400 363e 5d1e 893e
00000080: cf61 803e 9a11 3b3e 5d7b 363e f7d8 8a3e
00000090: 84e9 7b3e 1bfa 323e cb5a 373e 92eb 893e
000000a0: ab57 823e 16ba 3c3e 0eba 3a3e b827 8b3e
000000b0: 27cd 7f3e ef6e 343e baa7 3b3e f78d 8a3e
000000c0: 5eb7 833e 01a4 3c3e 1fed 3e3e 8493 8b3e
000000d0: f36b 833e c9e5 373e ca89 423e 9a65 8b3e
000000e0: dae2 843e f769 3e3e 1695 403e ad17 8b3e
000000f0: 3f99 853e a044 393e 40ac 473e b778 8b3e
00000100: 756a 853e 939f 3c3e 6df2 433e cc71 8a3e
00000110: 415d 883e 5d9b 3a3e a46b 4e3e 505f 8b3e
00000120: 8783 863e 9f6c 3c3e 945f 473e 65d2 893e
00000130: 7a9a 883e d093 3a3e f920 4f3e a1b8 8a3e
00000140: 91ab 873e bb57 3c3e 60d2 4a3e b31c 893e
00000150: 3a2c 893e c67f 3a3e dfd1 503e abb2 893e
00000160: e0ad 883e e965 3c3e ceb4 4d3e f299 883e
00000170: 3e38 893e 0cf8 393e 1169 513e d6cc 883e
00000180: 0344 8a3e 3fe0 3c3e a9d3 513e bd2d 883e
00000190: 1bb7 893e 2ed3 393e 28ed 523e d52d 883e
000001a0: 0e4d 8a3e 684b 3d3e e98e 513e 889c 873e
000001b0: 98f3 8a3e ae8f 3d3e 492e 533e 59c0 873e
000001c0: 98f3 8a3e ae8f 3d3e 492e 533e 59c0 873e

86 f4 [3]
4.1698675 0.005473294 7.731966
00000000: 8e6f 8540 5159 b33b 446c f740

action_model._continuous_distribution.log_sigma f4 [1, 2]
0.007855549 0.0023276922
00000000: 90b4 003c 328c 183b

action_model._continuous_distribution.mu.bias f4 [2]
-0.0043903673 -0.0010515314
00000000: 12dd 8fbb 8ad3 89ba

action_model._continuous_distribution.mu.weight f4 [2, 256]
-0.018401328 -0.022130914 0.006107908 -0.014167492 -0.0046652677 0.0033749412 0.016341187 0.009536408
-0.0035075585 0.0017384412 0.024276963 -0.008798471 0.0005771961 0.014255627 -0.0049788523 0.006183955
-0.005235925 -0.01598956 0.026472282 0.009229557 -0.02320052 -1.6251412e-05 -0.025017662 0.00022624215
0.0004075232 -0.011702063 0.008857776 -0.025262821 0.0017050944 -0.010031663 0.0023557025 0.0147931175
-0.007160764 -0.0010194897 -0.031973895 -0.031312257 0.014992782 -0.0034104069 0.020660436 0.004261202
0.020980442 0.023923896 0.017177425 -0.017521592 -0.020420127 0.025932696 -0.009821596 0.0029996883
-0.0072461213 -0.015006503 0.006697295 -0.008156639 -0.007897411 -0.0054679075 0.023695014 -0.022444341
-0.01400674 0.010585727 -0.00816568 -0.026362607 0.014644135 0.0002810006 -0.0049622883 0.007296024
-0.01024995 -0.025822133 -0.0004415346 0.005106555 -0.021433398 0.0032761586 0.023321467 0.0010510557
0.020463526 -0.027453395 0.015766298 -0.021387666 0.0064926064 0.0125417 0.0056319167 0.009163905
-0.025608683 0.0027362558 0.016487308 -0.026737005 0.01320661 0.010132314 0.003298747 -0.007978101
0.024713472 -0.0046367734 0.02330123 -0.002414091 -0.0044730627 0.0040495885 0.004919117 -0.016178552
-0.012001136 -0.009612865 -0.02887643 0.025230648 -0.0015917843 -0.0224122 -0.009344918 0.005901216
0.0013740127 -0.00014424467 0.014719565 -0.0031615095 0.019352864 -0.0043025147 -0.007880298 -0.0030604429
0.0151448 0.007970283 -0.021024462 -0.01665362 -0.0089827515 0.006817842 0.0114410315 -0.024470745
0.013002227 -0.017796064 0.0071371817 -0.008469374 0.0016456663 0.01041766 -0.01227879 0.0017211036
0.00051178364 0.007781459 -0.012242984 -0.00833431 0.00053002447 0.011115514 0.031506967 0.028791117
-0.016257638 0.017370246 0.029188955 0.009970959 0.0037604317 0.015200448 -0.012540367 0.0055597355
0.033867784 -0.016226877 -0.016165525 -0.019434156 0.008088378 0.013430761 0.004664457 0.04004025
-0.00536209 -0.008354238 -0.0011819074 -0.005045616 0.008366602 0.0102596935 0.027996697 -0.020966487
-0.005321665 0.018540675 -0.017277006 -0.010802735 0.014097971 0.025098974 0.040121537 0.0010743876
-0.018677348 -0.0036431097 -0.0060111713 0.019019445 0.027768107 0.0063361432 -0.0072787674 -0.0076441984
-0.021559296 0.020310448 0.011571635 -0.01815404 -0.0038386001 -0.011999933 -0.0067521464 -0.010361754
0.00500464 0.007137352 -0.00706216 0.01746834 0.007251315 -0.0019784006 0.002779543 -0.011118859
-0.009045011 -0.019574445 0.0044364235 0.028641973 0.0075795674 0.0056702746 -0.016032076 -0.004954831
-5.155217e-05 -0.008150463 0.006246261 -0.009431964 -0.0212562 0.008001998 0.00272286 0.017176287
0.014135444 -0.021678478 -0.01978109 -0.0013344669 -0.0043168995 -0.0019872936 0.006071147 -0.0032199332
-0.0026890128 -0.01340541 -0.0059409263 0.019345362 -0.024121348 0.0030937952 0.013949793 -0.002964771
0.00045561264 -0.0027183895 -0.01408111 -0.0077501936 -0.012142695 0.0003431686 0.0016069885 0.01649112
-0.015780425 -0.008049544 0.0063567185 -0.01150632 0.0034729745 0.0049764793 -0.00037761632 -0.016169213
0.027282907 -0.00434532 0.013039977 -0.014802582 0.0038227616 -0.009810922 -0.011545086 0.015044032
-0.0018248085 -0.0039005033 -0.011511322 0.018080113 0.0030128385 -0.006525048 0.005734143 0.00625094
00000000: 62be 96bc e44b b5bc d924 c83b c51e 68bc
00000010: 1adf 98bb 1e2e 5d3b f4dd 853c 983e 1c3c
00000020: 11df 65bb 68dc e33a 7be0 c63c 7627 10bc
00000030: f94e 173a 6f90 693c a425 a3bb c6a2 ca3b
00000040: 1f92 abbb 8afc 82bc 66dc d83c 9137 173c
00000050: 040f bebc a453 88b7 d7f1 ccbc 6a3b 6d39
00000060: d7a8 d539 02ba 3fbc 3520 113c faf3 cebc
00000070: 797d df3a d85b 24bc 2162 1a3b d55e 723c
00000080: d8a4 eabb 66a0 85ba 0ff7 02bd 4841 00bd
00000090: 49a4 753c 2281 5fbb 1340 a93c 8ea1 8b3b
000000a0: 2ddf ab3c 0cfc c33c acb7 8c3c 7189 8fbc
000000b0: 1c48 a7bc ce70 d43c c2ea 20bc 6b96 443b
000000c0: df70 edbb d6dd 75bc fb74 db3b 6ca3 05bc
000000d0: 2464 01bc 222c b3bb 0c1c c23c 32dd b7bc
000000e0: 877c 65bc c26f 2d3c 58c9 05bc 65f6 d7bc
000000f0: f4ed 6f3c 4353 9339 b19a a2bb 7c13 ef3b
00000100: 68ef 27bc f088 d3bc c57d e7b9 e354 a73b
00000110: 1895 afbc d2b4 563b a90c bf3c 94c3 893a
00000120: 20a3 a73c f1e5 e0bc 5328 813c 3035 afbc
00000130: eebf d43b b47b 4d3c f18b b83b 3424 163c
00000140: 4dc9 d1bc c152 333b 6410 873c 9007 dbbc
00000150: 8a60 583c 0102 263c ca2f 583b 95b6 02bc
00000160: e873 ca3c 13f0 97bb 39e2 be3c ba35 1ebb
00000170: c592 92bb 69b2 843b 8b30 a13b e288 84bc
00000180: 6aa0 44bc 477f 1dbc 438e ecbc 81b0 ce3c
00000190: 6ba3 d0ba ca99 b7bc 6d1b 19bc fd5e c13b
000001a0: 3718 b43a 6240 17b9 552a 713c 5431 4fbb
000001b0: e689 9e3c 1cfc 8cbb 5e1c 01bc b691 48bb
000001c0: e521 783c ca95 023c 7e3b acbc 2c6d 88bc
000001d0: 642c 13bc 3468 df3b 2a73 3b3c df76 c8bc
000001e0: 4b07 553c 0dc9 91bc 05df e93b 21c3 0abc
000001f0: 66b3 d73a d5ae 2a3c fa2c 49bc a796 e13a
00000200: 3829 063a 9cfb fe3b cc96 48bc a18c 08bc
00000210: 57f1 0a3a d81d 363c 730d 013d 59db eb3c
00000220: bd2e 85bc 0c4c 8e3c ad1d ef3c 3c5d 233c
00000230: 9371 763b 4d0b 793c 1d76 4dbc 712e b63b
00000240: f2b8 0a3d 3aee 84bc 906d 84bc 6134 9fbc
00000250: 1e85 043c b20c 5c3c 4dd8 983b 3f01 243d
00000260: 79b4 afbb 37e0 08bc 3bea 9aba b255 a5bb
00000270: 1214 093c 4618 283c 5459 e53c e9c1 abbc
00000280: 5d61 aebb 9de2 973c 8288 8dbc f4fd 30bc
00000290: 2dfb 663c 5d9c cd3c 7b56 243d 77d2 8c3a
000002a0: 3d01 99bc 3dc1 6ebb 5cf9 c4bb abce 9b3c
000002b0: f179 e33c 6c9f cf3b ba82 eebb 2f7c fabb
000002c0: 1f9d b0bc 1962 a63c f496 3d3c c8b7 94bc
000002d0: 0691 7bbb 5e9b 44bc 1c41 ddbb 59c4 29bc
000002e0: f7fd a33b 73e0 e93b b169 e7bb c419 8f3c
000002f0: 709c ed3b 0ea8 01bb fe28 363b e02b 36bc
00000300: 8731 14bc 965a a0bc 6b5f 913b 92a2 ea3c
00000310: 055e f83b b6cd b93b b355 83bc 235c a2bb
00000320: b939 58b8 8589 05bc 6fad cc3b 8688 1abc
00000330: 7b21 aebc d01a 033c 0372 323b 49b5 8c3c
00000340: 5998 673c 1097 b1bc f40b a2bc 47e9 aeba
00000350: c774 8dbb 413d 02bb 79f0 c63b 8405 53bb
00000360: 263a 30bb 5da2 5bbc 1aac c2bb 2a7a 9e3c
00000370: 229a c5bc 45c1 4a3b ac8d 643c 9a4c 42bb
00000380: 4bdf ee39 0227 32bb 75b4 66bc 56f5 fdbb
00000390: 27f2 46bc 4feb b339 96a1 d23a 6318 873c
000003a0: f345 81bc 3ce2 03bc 054c d03b 0185 3cbc
000003b0: d89a 633b bc11 a33b cefa c5b9 4c75 84bc
000003c0: 6780 df3c 3063 8ebb a1a5 553c 8786 72bc
000003d0: 4c87 7a3b fdbd 20bc 9a27 3dbc 3e7b 763c
000003e0: 6a2e efba 969f 7fbb fc99 3cbc bf1c 943c
000003f0: 0b73 453b 12d0 d5bb 7ae5 bb3b afd4 cc3b

action_model._discrete_distribution.branches.0.weight f4 [1, 256]
0.008878194 -0.0026080543 -0.0024632826 -0.007869883 0.00039440903 0.0015290932 0.0036604689 0.0033970333
0.0025831626 -0.004222782 0.004745111 -0.00010895841 0.004672594 -0.0050249496 0.00279708 0.0059895823
-0.0028655892 0.0039145155 -0.0025226432 -0.0023792447 -0.00014083569 -0.002806207 -0.0017746048 0.0069507794
0.00755054 0.0038092048 0.0012903833 -0.011656811 0.0058788643 0.004408132 0.00041230602 -0.00057171594
-0.007090218 -0.00993119 -0.005731763 0.009575592 -0.0009145985 -0.008303765 0.0034509401 -0.0006316837
-0.0024597545 -0.011082342 0.008862066 -0.0021693346 0.004865823 -0.0033857443 0.0014906186 0.0006426919
-0.0044076205 0.008481486 -0.0071819276 -0.008453714 0.009953922 0.011383024 -0.0007625234 0.0012180186
-0.0005524519 -0.012744309 -0.0011272285 -0.005992348 0.009902321 0.00062214147 0.0082417615 0.005540993
0.0021553908 0.006692053 -0.00018835474 -0.0032067248 0.0053434796 0.001812097 -0.008204188 -0.011505522
0.0022764232 0.010638352 -0.002788509 3.8588052e-05 0.0019662674 -0.005076228 -0.005070759 0.0022413298
-0.00062256184 -0.0046797623 0.0037027386 -0.002116202 -0.0024851186 0.010082033 -0.008430305 -0.0044358475
-0.0007743407 -0.0012966752 -0.001075538 0.003571843 0.004420459 -0.0067441403 0.013875479 0.0020945852
-0.011047459 0.0044838265 0.007636089 0.006737997 0.0035348535 0.0029675239 0.005828247 0.0009927092
0.008179785 0.0050953394 -0.00020380695 -0.0035838303 -0.006081333 -0.0015958584 -0.005349695 0.0107751805
-0.0035002336 0.0021574467 0.0035356325 -0.006555911 0.00096459145 -0.008712627 -0.0052242256 -0.004332347
0.008817389 -0.0042166593 0.00048109057 0.008850249 0.005271057 0.00846609 0.002131339 -0.0070145177
0.006837565 -0.0074457075 0.00611525 0.004842167 0.003450507 0.004474249 0.0005654282 0.005299685
-0.008707207 0.0053522894 -0.0026914398 0.0015433291 -0.005099222 0.0052360035 0.0003567693 0.0040958743
0.006416739 -0.007299894 0.018008677 -0.0022234514 -0.0029292258 -0.008706931 0.006526932 0.015725838
0.0072411904 0.0009919306 -0.005007451 0.0018694919 0.009992897 -0.0059904526 0.01047675 0.0017411485
-0.007059784 0.007948313 -0.0015814932 0.00039892184 -0.0018858062 0.0039226473 -0.0062489915 -0.013338894
-0.005674838 -0.0014776628 -0.0015679881 -0.0024437893 0.0014483164 0.0020888422 -0.0010419865 -0.0012300538
0.007400685 -0.0039737583 -0.0044506583 0.0043579903 0.00027676168 -0.011498909 -0.001088785 -0.002331146
0.0019835194 -0.003629598 0.0064255977 -0.0012343356 0.008767724 -0.008674711 -0.00090778305 0.0071648294
-0.0048808022 0.0008164208 -0.0021950174 -0.0057534915 -0.0005125773 -0.009284137 0.007176192 0.0020319126
0.009588418 -0.0014264907 -0.010036677 0.01171873 0.009113786 0.0012562939 -0.0034520538 0.0057551856
0.013302094 -0.0102077825 0.0017357825 -0.008653479 -0.0021003853 0.0010955691 0.0033625984 0.003927899
0.006485153 -0.0059567946 0.0016309152 -0.01047561 -0.0038160875 -0.011490538 -0.0059919767 -0.0043454207
-0.017917296 -0.00910937 -0.00057728187 0.0017587211 0.00078171253 0.0010164811 0.008802476 -0.015440847
-0.0030965619 -0.0015107085 0.00025408808 -0.00048979576 -0.0006931513 -0.0066348026 -0.007072101 0.005010273
0.0061744857 0.0021332572 0.00019746661 -0.0031269633 -0.0020254063 0.006479539 -0.015179172 0.0053787003
-0.00084573746 0.0047558923 0.010751972 0.00086968037 0.0024246676 0.00609627 0.0004254616 -0.004048848
00000000: d875 113c e4eb 2abb 066f 21bb aff0 00bc
00000010: afc8 ce39 db6b c83a 7ae4 6f3b c3a0 5e3b
00000020: 474a 293b 435f 8abb e07c 9b3b 9a80 e4b8
00000030: 8f1c 993b 55a8 a4bb 374f 373b 4244 c43b
00000040: 9ccc 3bbb 5645 803b ee52 25bb 1aed 1bbb
00000050: 4bad 13b9 57e8 37bb db99 e8ba 5dc3 e33b
00000060: 856a f73b daa3 793b 1422 a93a 36fc 3ebc
00000070: 7da3 c03b 1772 903b c72a d839 35df 15ba
00000080: 0f55 e8bb 6eb6 22bc 83d1 bbbb f2e2 1c3c
00000090: abc1 6fba 840c 08bc 2b29 623b 9397 25ba
000000a0: d533 21bb b692 35bc 3332 113c 652b 0ebb
000000b0: 7b71 9f3b 5de3 5dbb dc60 c33a 537a 283a
000000c0: cd6d 90bb eef5 0a3c 6056 ebbb 7281 0abc
000000d0: c615 233c dd7f 3a3c 14e4 47ba eca5 9f3a
000000e0: 6bd2 10ba 82cd 50bc 83bf 93ba 755b c4bb
000000f0: 583d 223c 3517 233a 7408 073c 3891 b53b
00000100: 7541 0d3b 0249 db3b 1781 45b9 ea27 52bb
00000110: 5b18 af3b e383 ed3a dc6a 06bc a881 3cbc
00000120: 0b30 153b 7b4c 2e3c 6bbf 36bb 9bd9 2138
00000130: 7edc 003b 7d56 a6bb 9c28 a6bb 46e3 123b
00000140: 6b33 23ba b158 99bb a5a9 723b faaf 0abb
00000150: 5fdd 22bb 1d2f 253c 431f 0abc 965a 91bb
00000160: 20fd 4aba 33f5 a9ba 11f9 8cba 9515 6a3b
00000170: 7fd9 903b f3fd dcbb fa55 633c 4f45 093b
00000180: 6700 35bc 10ed 923b 2838 fa3b 6aca dc3b
00000190: 00a9 673b ca7a 423b e1fa be3b cb1d 823a
000001a0: 8104 063c cef6 a63b 03b5 55b9 b2de 6abb
000001b0: eb45 c7bb 1f2c d1ba 7f4c afbb 628a 303c
000001c0: 2d64 65bb f363 0d3b 12b6 673b f8d2 d6bb
000001d0: a3dc 7c3a 68bf 0ebc fb2f abbb 5cf6 8dbb
000001e0: cf76 103c e72b 8abb e23a fc39 a300 113c
000001f0: d5b8 ac3b 5bb5 0a3c efad 0b3b 0ada e5bb
00000200: a70d e03b 1ffb f3bb 6f62 c83b 0aab 9e3b
00000210: e721 623b b99c 923b 3f39 143a fba8 ad3b
00000220: aca8 0ebc 4262 af3b de62 30bb 8849 ca3a
00000230: 6017 a7bb c892 ab3b c40c bb39 af36 863b
00000240: 8243 d23b f333 efbb ef86 933c 53b7 11bb
00000250: 41f8 3fbb 84a7 0ebc e0df d53b 79d3 803c
00000260: 8247 ed3b ab03 823a 8b15 a4bb bd09 f53a
00000270: 3fb9 233c 8f4b c4bb ada6 2b3c 4037 e43a
00000280: c355 e7bb a439 023c 1b4a cfba 6226 d139
00000290: 282d f7ba 8d89 803b 57c4 ccbb 608b 5abc
000002a0: fef3 b9bb 23ae c1ba f384 cdba fb27 20bb
000002b0: 6fd5 bd3a f5e4 083b 4493 88ba c239 a1ba
000002c0: 7281 f23b 4d36 82bb d4d6 91bb 79cd 8e3b
000002d0: 531a 9139 ec65 3cbc 90b5 8eba 24c6 18bb
000002e0: effd 013b 8dde 6dbb d28d d23b 6ec9 a1ba
000002f0: 80a6 0f3c 6020 0ebc 4af8 6dba f2c6 ea3b
00000300: 23ef 9fbb 1305 563a 48da 0fbb c987 bcbb
00000310: 7b5e 06ba 7e1c 18bc 4326 eb3b d629 053b
00000320: bd18 1d3c 16f9 baba e070 24bc ebff 3f3c
00000330: fd51 153c 3aaa a43a da3b 62bb ff95 bc3b
00000340: 07f1 593c 8b3e 27bc 3283 e33a 52c7 0dbc
00000350: 9ea6 09bb 3399 8f3a 0a5f 5c3b 9bb5 803b
00000360: 6881 d43b 3731 c3bb 6fc4 d53a e5a1 2bbc
00000370: 5317 7abb cf42 3cbc 5858 c4bb 0864 8ebb
00000380: 4bc7 92bc 783f 15bc bb54 17ba e384 e63a
00000390: d7eb 4c3a 723b 853a 4338 103c 9bfb 7cbc
000003a0: b0ef 4abb f702 c6ba 2037 8539 a365 00ba
000003b0: 99b4 35ba c268 d9bb 15bd e7bb 372d a43b
000003c0: 5753 ca3b 1ece 0b3b 0a0f 4f39 bded 4cbb
000003d0: aebc 04bb 5052 d43b 10b2 78bc cf3f b03b
000003e0: 7bb4 5dba 51d7 9b3b 0a29 303c 43fb 633a
000003f0: 2ce7 1e3b 38c3 c73b 7d10 df39 33ac 84bb

network_body._body_endoder.seq_layers.0.bias f4 [256]
0.009381483 0.0064481134 0.0024369599 0.01026369 0.007919878 0.005262793 0.004939192 -0.0054138484
0.007557687 0.0022771934 -0.0073130685 -0.002511256 0.009106425 -0.0014632375 0.0039143786 0.0050840755
0.008043196 -0.00045059543 0.008275396 -0.0020329796 -0.002324761 0.0020849174 -0.003867969 0.005360709
0.00045184215 0.0062423903 0.0003066088 0.003703912 0.003334875 0.0035002418 0.005322466 0.010959685
0.0012018414 0.010079869 -0.0075064814 -0.0058936463 0.0006499985 0.00066864945 0.003567042 0.0014174167
0.010319144 -0.00017816237 0.005165911 -0.0011619844 0.0027442987 -0.0022559888 -0.0040092943 0.006139192
0.004914016 -0.0024876855 0.008136976 0.0050296215 -0.0019457281 0.003230459 -0.0036366016 0.009209222
0.0047153374 -0.002243092 0.0050663636 -0.0022542067 -0.0048810723 0.00061580335 -0.0054886374 0.008111628
-0.005704824 -0.0057142624 0.0074266074 -0.001015287 0.00403382 -0.00031408083 -0.0031609898 0.000882474
0.005751261 0.0046149115 0.010055729 0.010739102 0.011003136 0.0062462785 0.0060073105 0.0015895138
0.007338647 0.00032291177 0.0014067105 -0.0008951708 0.008634443 0.0060544373 -0.0012369802 -0.0067074755
0.007049869 0.0070055793 0.00029408777 0.0035801963 0.012511789 0.0040096594 0.001284735 0.0019646408
0.008999479 -0.0037864817 0.008803016 -0.005210322 0.0016440473 0.012193568 0.00663555 0.0048371274
0.009161138 -0.0085098315 0.0023016548 0.0025777754 0.007833007 -0.005135037 0.006879318 -0.008155615
0.013298257 0.0037817536 0.0061564655 -0.002391903 0.0029545566 0.0018373862 0.007315334 0.006287117
-0.001114355 -0.005936535 0.0041476088 0.0016348509 -0.0022093044 0.007483234 0.0050478023 -0.0042926273
0.0051414357 -0.005531766 0.0027855376 0.0038601852 0.0037717212 0.008030267 0.0051313294 0.001671892
-0.004458455 0.0027868818 -0.0023676206 0.016225506 0.00480677 0.0043336377 0.0048293 0.0029353774
0.0051610447 0.005131574 -0.002647978 -0.0006188775 0.0022812737 0.010284006 -0.0012323516 0.006297956
0.0016354369 0.005782653 0.0059312265 0.0054764496 -0.007493358 0.008352991 0.0014401474 0.003252989
0.004494491 0.0059178933 0.0019994539 0.0021389488 -0.000716804 0.008222759 0.0064478125 -0.0018060821
0.0022644054 0.0049017067 -0.0031127827 -0.0018835482 0.006235471 0.0068792957 -0.0033217352 0.0023047705
-0.0011298627 0.0039979164 0.0061171083 -6.433511e-05 -0.0013104831 0.0047829947 0.00043851993 0.0068197553
0.012434739 -0.0005517437 0.006816374 0.00260394 -0.0048644333 0.0040390575 -0.006654187 0.0019811708
-0.002367214 0.0031615351 0.0017012656 0.0019708811 -0.0026726343 0.01061739 -0.0033205228 0.0030182768
0.0038032483 0.0039755334 0.0030604524 0.0066649434 0.0046764696 0.009395209 0.0050455565 -0.0023289078
0.008200335 0.0022791668 0.010750282 0.0059265993 0.000119938704 0.0074840453 0.0056800605 0.0030943647
-0.0034568356 0.009621804 0.005865783 0.009465928 0.004270121 0.0051097497 0.003797369 -0.007314912
-0.003951238 0.0007414231 0.006749912 0.0020034574 0.006592602 -0.0052268323 -0.006225804 2.3904731e-05
0.008038571 0.00892348 0.005088133 0.0055758366 -0.0059997425 -0.00047134262 0.0075582834 0.007400695
0.0018769414 0.007467618 0.0065486496 0.0044699283 0.008517022 0.012221436 0.004243037 0.0062564355
0.0040860297 -0.006344747 0.008663717 0.009843398 0.007001135 0.0024261263 0.0031014723 0.0071996427
00000000: cbb4 193c b24a d33b 67b5 1f3b 0929 283c
00000010: 60c2 013c 8273 ac3b f2d8 a13b a766 b1bb
00000020: 79a6 f73b f73c 153b 77a2 efbb e293 24bb
00000030: 1d33 153c 1aca bfba 3044 803b 5198 a63b
00000040: 9cc7 033c e53d ecb9 8795 073c bd3b 05bb
00000050: 045b 18bb 1ca3 083b c07d 7dbb e3a8 af3b
00000060: 3ae5 ec39 f78c cc3b 56c0 a039 55bd 723b
00000070: eb8d 5a3b 5064 653b 1568 ae3b 4090 333c
00000080: 1b87 9d3a 0926 253c eef8 f5bb 7d1f c1bb
00000090: a964 2a3a 4e48 2f3a 09c5 693b 9dc8 b93a
000000a0: a111 293c 19d1 3ab9 cd46 a93b ba4d 98ba
000000b0: b1d9 333b 36d9 13bb 6660 83bb 462b c93b
000000c0: c105 a13b 7008 23bb f350 053c 86cf a43b
000000d0: cd07 ffba 1cb6 533b 0d54 6ebb 47e2 163c
000000e0: 1e83 9a3b d700 13bb bd03 a63b 50bb 13bb
000000f0: 67f1 9fbb dd6d 213a 07da b3bb a2e6 043c
00000100: 88ef babb b53e bbbb e65a f33b 6113 85ba
00000110: 222e 843b 37ab a4b9 9c28 4fbb d455 673a
00000120: 1375 bc3b af38 973b c9c0 243c 0ff3 2f3c
00000130: 7f46 343c 95ad cc3b f9d8 c43b 3c57 d03a
00000140: 0879 f03b 7c4c a939 5f61 b83a e5a9 6aba
00000150: 7b77 0d3c 4d64 c63b 2b22 a2ba 62ca dbbb
00000160: 9602 e73b 0f8f e53b cb2f 9a39 baa1 6a3b
00000170: 3ffe 4c3c 7663 833b 8e64 a83a 34c1 003b
00000180: 8d72 133c 9f26 78bb 863a 103c 59bb aabb
00000190: 137d d73a 88c7 473c 076f d93b c480 9e3b
000001a0: 9918 163c d26c 0bbc 5cd7 163b e5ef 283b
000001b0: 0356 003c d043 a8bb e76b e13b 219f 05bc
000001c0: efe0 593c 4cd7 773b 2dbc c93b 79c1 1cbb
000001d0: 3ca1 413b 73d4 f03a 78b5 ef3b 2904 ce3b
000001e0: 8d0f 92ba 4487 c2bb aae8 873b 7e48 d63a
000001f0: fac9 10bb eb35 f53b 0968 a53b 2ba9 8cbb
00000200: 7d79 a83b d143 b5bb 918d 363b 29fb 7c3b
00000210: fb2e 773b 6291 033c b624 a83b 6323 db3a
00000220: 3b18 92bb 1ea4 363b 152a 1bbb 5aeb 843c
00000230: 1c82 9d3b 3001 8e3b 1b3f 9e3b 765f 403b
00000240: fb1d a93b c326 a83b b389 2dbb 2a3c 22ba
00000250: 6c81 153b 3f7e 283c dc86 a1ba 165f ce3b
00000260: 285c d63a 697c bd3b bc5a c23b ca73 b33b
00000270: d88a f5bb fcda 083c 54c3 bc3a 1930 553b
00000280: 8646 933b e3ea c13b 4509 033b 9b2d 0c3b
00000290: e7e7 3bba c0b8 063c 2c48 d33b 0fba ecba
000002a0: 6b66 143b 7f9e a03b d4ff 4bbb 64e1 f6ba
000002b0: ec52 cc3b b76b e13b 78b1 59bb a20b 173b
000002c0: e717 94ba f400 833b 0672 c83b a6eb 86b8
000002d0: 84c4 abba abba 9c3b 26e9 e539 4178 df3b
000002e0: 13bb 4b3c e5a2 10ba e45b df3b dda6 2a3b
000002f0: d365 9fbb 125a 843b 5e0b dabb 88d6 013b
00000300: 4323 1bbb c231 4f3b 00fd de3a e629 013b
00000310: 5d27 2fbb 90f4 2d3c 219d 59bb 48ce 453b
00000320: eb3f 793b 3145 823b df91 483b 9965 da3b
00000330: 123d 993b 5dee 193c 3255 a53b 97a0 18bb
00000340: b35a 063c 135e 153b f321 303c eb33 c23b
00000350: 9a87 fb38 b93c f53b cd1f ba3b d3ca 4a3b
00000360: 148c 62bb c5a4 1d3c c135 c03b fb16 1b3c
00000370: 5fec 8b3b b06f a73b 48dd 783b eeb1 efbb
00000380: 6379 81bb 105c 423a 5e2e dd3b 704c 033b
00000390: c106 d83b d945 abbb d401 ccbb 0587 c837
000003a0: 36b4 033c ca33 123c 5aba a63b 82b5 b63b
000003b0: 7d99 c4bb 891e f7b9 7aab f73b 8781 f23b
000003c0: b403 f63a ecb2 f43b 0e96 d63b 7a78 923b
000003d0: fb8a 0b3c 6b3c 483c 2d09 8b3b c902 cd3b
000003e0: 1ae4 853b 98e7 cfbb 43f2 0d3c 3446 213c
000003f0: c769 e53b a5ff 1e3b 1242 4b3b fbea eb3b

network_body._body_endoder.seq_layers.0.weight f4 [256, 119]
0.038231567 0.057134613 0.08782284 0.009283661 -0.04413561 -0.028111946 -0.13602586 -0.09393502
0.06973865 -0.037994076 0.10145135 -0.05009616 0.048665814 0.05657633 0.08665717 0.04886641
-0.12288086 -0.12586911 0.11285846 0.055444203 0.05781999 0.15291384 -0.04094475 0.03729844
0.069979385 -0.0060626897 -0.0032530222 0.17681192 0.033125896 -0.07308329 -0.07827779 -0.14498462
0.08012858 0.04966413 0.04543277 0.11043302 -0.022350451 -0.048758954 0.022740863 -0.09369132
-0.007063628 0.00014105187 0.063947245 0.06373753 0.12772405 -0.0048072985 0.08365875 0.09916471
0.0074128057 0.07707945 -0.03516446 0.099496566 0.052502032 0.028562922 0.09925309 -0.0049151746
0.009739358 -0.16969417 0.018996695 0.062071055 -0.041802935 -0.056180544 -0.030296773 -0.2597261
0.10645258 -0.08995445 -0.047192667 -0.063592196 -0.05212355 -0.031238094 0.020838082 0.1901095
0.08110824 -0.0294991 0.1020598 -0.114084736 0.108197324 0.07761365 0.10668367 0.06605851
0.10663677 0.045578014 0.20731357 0.09585164 0.16837065 0.19135307 -0.051292047 0.025190089
-0.04734178 -0.18338051 -0.00086545484 0.16812377 -0.09944629 0.0862159 0.13687181 0.13590203
0.19236138 0.051321313 0.124388635 0.19796495 -0.06763735 0.015583719 0.098543815 -0.13511692
0.00605244 0.16317444 0.084444776 0.03738312 0.056122728 -0.11191118 -0.07643229 -0.00791574
0.06698246 -0.09872362 0.012546147 0.044227958 -0.031028382 0.06709981 -0.0029464618 0.07419617
-0.032887228 0.11739877 0.19884637 -0.039746076 0.11813553 -0.014399748 -0.23565301 0.010500987
0.03563062 0.16604225 0.08179724 -0.17085329 -0.04232029 -0.1191835 -0.16704606 0.12225422
-0.21992645 0.11990376 -0.105539195 -0.05818706 0.009789172 0.06474427 0.09399668 0.06233438
-0.021741606 -0.012827224 0.11173772 0.028472206 -0.02883865 -0.023961173 0.13203254 -0.013638958
0.004255014 0.028995559 -0.13625076 -0.021451965 -0.01637704 0.0028424994 -0.037036244 0.19217946
-0.034849197 0.052081298 0.032779176 0.08100653 -0.0061636255 -0.08066479 0.06590616 -0.13642153
-0.12208768 -0.08968001 0.03529441 0.014718486 0.1127936 0.09228444 0.09754743 0.00029044936
-0.07761937 0.03123693 0.0016417614 0.04774303 0.049405776 0.12990586 0.20397562 0.1389134
0.046157893 0.06124936 0.012627013 0.07008645 -0.07768176 0.0828841 0.029340254 0.0025389453
-0.034106854 -0.004122011 0.06142743 0.04408786 -0.046110608 -0.05732223 -0.1113692 0.0006925692
-0.03694048 0.014013323 0.0024982793 -0.14650261 -0.0939768 -0.083855204 0.18618794 0.011321345
-0.04664367 -0.1022435 0.016174821 -0.0086407075 0.007290425 0.04961671 0.18378167 0.0015445958
0.031455833 0.07521609 0.078321144 -0.15824343 0.13521294 -0.1924099 0.01702211 0.06582668
-0.14049087 0.053253148 -0.117488146 0.036242798 0.050668612 0.036510132 -0.019581567 0.091915496
0.0070245448 -0.039361548 -0.042673454 -0.03391019 0.073820345 0.07169548 -0.04099241 -0.1410896
-0.022979667 -0.058881074 -0.0077383905 0.052441135 0.026449358 0.09776289 0.12343018 0.0070021367
-0.02923559 -0.057086475 0.046164274 -0.013427016 -0.18015906 0.037756696 -0.04666228 -0.079471864
00000000: b498 1c3d fc05 6a3d 76dc b33d 7f1a 183c
00000010: 8bc7 34bd 064b e6bc 5d4a 0bbe 0161 c0bd
00000020: 23d3 8e3d ad9f 1bbd bac5 cf3d a231 4dbd
00000030: ce55 473d 95bc 673d 5079 b13d 2528 483d
00000040: f6a8 fbbd d5e3 00be 5622 e73d 7619 633d
00000050: a7d4 6c3d 7295 1c3e afb5 27bd 40c6 183d
00000060: 5a51 8f3d 87a9 c6bb a830 55bb 2f0e 353e
00000070: 05af 073d b1ac 95bd 1b50 a0bd d976 14be
00000080: 741a a43d 9d6c 4b3d b617 3a3d b52a e23d
00000090: 4b18 b7bc 78b7 47bd 0c4b ba3c 3ce1 bfbd
000000a0: 0276 e7bb 53e7 1339 c6f6 823d d288 823d
000000b0: 18ca 023e 8b86 9dbb 4755 ab3d de16 cb3d
000000c0: 1fe7 f23b d5db 9d3d 9c08 10bd dbc4 cb3d
000000d0: 5f0c 573d cafc e93c 3445 cb3d 790f a1bb
000000e0: d491 1f3c 4fc4 2dbe f59e 9b3c 383e 7e3d
000000f0: 8e39 2bbd 921d 66bd f030 f8bc d2fa 84be
00000100: cf03 da3d 0a3a b8bd 194d 41bd a03c 82bd
00000110: 817f 55bd 08e7 ffbc a0b4 aa3c 11ac 423e
00000120: 141c a63d 19a8 f1bc ba04 d13d 42a5 e9bd
00000130: 8f96 dd3d e8f3 9e3d f87c da3d af49 873d
00000140: 6164 da3d 03b0 3a3d 024a 543e dd4d c43d
00000150: 5b69 2c3e 0ff2 433e 9c17 52bd 725b ce3c
00000160: 74e9 41bd 1ac8 3bbe b1df 62ba a328 2c3e
00000170: 7faa cbbd f691 b03d 2028 0c3e e729 0b3e
00000180: 62fa 443e 4c36 523d 78bf fe3d 53b7 4a3e
00000190: 7385 8abd db52 7f3c 57d1 c93d 175c 0abe
000001a0: 8c53 c63b 3317 273e 62f1 ac3d 0b1f 193d
000001b0: f2e0 653d b031 e5bd 8888 9cbd 05b1 01bc
000001c0: 1a2e 893d 9c2f cabd 5b8e 4d3c 6028 353d
000001d0: 3c2f febc a06b 893d 6d19 41bb 29f4 973d
000001e0: c2b4 06bd c46e f03d 629e 4b3e c8cc 22bd
000001f0: 0af1 f13d ecec 6bbc 064f 71be 550c 2c3c
00000200: 6af1 113d fb06 2a3e 5085 a73d 2af4 2ebe
00000210: 0a58 2dbd 7b16 f4bd 1f0e 2bbe 6c60 fa3d
00000220: 6634 61be 1a90 f53d ef24 d8bd 8e55 6ebd
00000230: c362 203c a598 843d 5581 c03d 5652 7f3d
00000240: 741b b2bc 4729 52bc bfd6 e43d 8b3e e93c
00000250: 083f ecbc 394a c4bc 8a33 073e f075 5fbc
00000260: a56d 8b3b 1888 ed3c 5285 0bbe 08bc afbc
00000270: 2429 86bc 3a49 3a3b 51b3 17bd b1ca 443e
00000280: 08be 0ebd 3353 553d 7543 063d c0e6 a53d
00000290: 3df8 c9bb 9533 a5bd cff9 863d 16b2 0bbe
000002a0: 1b09 fabd 27aa b7bd df90 103d ce25 713c
000002b0: 5500 e73d a0ff bc3d f2c6 c73d 7447 9839
000002c0: e7f6 9ebd 97e4 ff3c 5f30 d73a 328e 433d
000002d0: b65d 4a3d 0b06 053e fcde 503e 503f 0e3e
000002e0: 0f10 3d3d 9ce0 7a3d 88e1 4e3c 7c89 8f3d
000002f0: 9d17 9fbd 24bf a93d f95a f03c 6f64 263b
00000300: a1b3 0bbd ef11 87bb 549b 7b3d 7995 343d
00000310: 7ade 3cbd b7ca 6abd 8915 e4bd 888d 353a
00000320: e74e 17bd 2398 653c 2cba 233b c804 16be
00000330: e976 c0bd 47bc abbd 0da8 3e3e 2a7d 393c
00000340: 6f0d 3fbd 0a65 d1bd 0f81 843c c191 0dbc
00000350: 84e4 ee3b e43a 4b3d 4331 3c3e 0974 ca3a
00000360: d5d7 003d e50a 9a3d d666 a03d 910a 22be
00000370: 4375 0a3e 1a07 45be f471 8b3c 23d0 863d
00000380: d7dc 0fbe f91f 5a3d a09d f0bd 5473 143d
00000390: e489 4f3d a68b 153d 8669 a0bc 313e bc3d
000003a0: 272e e63b 9339 21bd 5cca 2ebd 69e5 0abd
000003b0: 1f2f 973d 14d5 923d a8e7 27bd cb79 10be
000003c0: db3f bcbc 482d 71bd 5392 fdbb 84cc 563d
000003d0: 53ac d83c e937 c83d f6c8 fc3d 2e72 e53b
000003e0: 7a7f efbc 82d3 69bd c016 3d3d fdfc 5bbc
000003f0: 9e7b 38be c4a6 1a3d f220 3fbd 25c2 a2bd

network_body._body_endoder.seq_layers.2.bias f4 [256]
0.008657313 -0.00029037063 -0.0015985832 0.005593588 0.00714173 0.0041264086 0.00036269758 0.0022443994
0.009381303 0.0038673873 0.0028187719 0.00044417824 -0.0031010252 0.0016470673 -0.0030361381 -0.0063283355
0.0011626668 -0.0025524658 0.000357296 0.0008890994 -0.0015215299 0.001401444 0.001291358 0.0052628303
-0.0017442439 -0.0008973703 -0.0031762745 0.006131404 -0.000723111 0.004228215 0.0028253114 0.009481395
0.0011254186 -0.002909174 -0.0024689345 0.0026025912 0.00073720305 0.0034883164 0.0011619966 0.007272943
0.0014850509 -0.0017314232 -0.0028198415 -0.00031247968 0.0062700133 0.0035835172 0.00020647954 0.0027706944
0.0019628757 0.0050739665 0.0057267966 0.002058179 -0.0024632565 -0.0043803724 0.012759939 -0.0008717141
-0.0036289874 0.008450402 0.0027617863 -0.0026109465 0.004243504 0.004969559 -0.0024411415 0.0023566019
0.0017075407 6.338243e-05 -0.005596636 0.0013678009 0.0027958725 -0.0043574125 -0.0012697837 -0.003791103
0.00034927268 -0.004483358 -0.00417527 0.005726146 0.00075526227 0.00066326023 0.0005837901 -0.0047422242
-0.006589662 0.005053232 0.0050599305 -0.0034371682 0.002828078 0.008660516 0.0042978004 -0.0012344642
-0.00030259832 0.002565667 -0.004941288 0.011715427 0.0034497199 -0.0038829888 0.009382307 -0.00091160345
0.004040442 0.008911476 0.003457696 -0.0001740035 0.0015679004 0.002509402 0.0012065265 -0.0050787637
0.0020311845 0.008467764 0.0039114594 0.0042896485 -0.0010357497 0.00048522293 0.002902251 -0.0018262493
-0.001500165 0.000100393074 0.0021140045 0.0010480444 0.004957486 7.013161e-05 0.002336193 0.005501859
0.0002519274 0.0017330077 0.00018991035 -0.002977979 -0.0062145484 -0.0029432045 -0.001001377 0.00097078993
0.004792902 0.0021324567 0.006024977 0.008030235 0.0023497655 0.004796411 -0.0035406393 -0.0048109745
0.0057774354 0.005379315 0.004015334 -0.0010825574 0.005256478 0.004074254 0.0074668718 0.012311225
0.0036295848 0.0060284096 -0.00080744486 0.009571899 0.006409041 0.0004672539 0.0016844543 0.0042439178
0.0041326606 -0.006500456 0.00061823113 0.0056933323 0.0065470636 0.004823528 -0.0046648006 0.005325341
-0.004600489 0.005102505 0.00018291737 0.006858721 0.0006861593 -0.0021942044 0.006486463 0.004243153
-0.0005399716 0.0026696469 0.003006408 -0.00417955 0.008065638 0.0011980708 0.0027351347 -0.0003107384
-0.0009206955 0.0053543225 -0.0023961545 -0.005467528 -0.0015180147 0.00057474093 -0.0052961884 0.0077460445
0.0015913411 -0.0065789805 0.009054424 0.0018650522 0.00058101205 0.0037907124 0.0019896808 0.00891368
0.008784284 0.003893137 -0.0038476815 0.006008878 0.004537533 0.0063571054 -0.0021587457 0.011850693
-0.0055178064 0.002606752 -0.001734266 -0.00049652904 0.0034406707 0.0028084898 -0.00048854353 0.0024305712
0.0054797954 0.0109468885 -0.0033359786 0.006061874 0.0077663907 0.006004272 0.010339713 0.0058560604
0.008796063 0.0035148324 -0.004502878 0.007126881 -0.0011492072 0.0026675686 0.004363535 -0.0041231285
0.0044660703 -0.0024784436 -0.0033097018 0.001100995 0.0019158674 0.0019986816 -0.0016936141 -0.004470787
0.0003450302 0.0055066845 0.0045522056 0.005726488 0.0045063416 -0.0021101707 0.004066809 0.0045201285
0.0012346759 0.0036600877 0.0032480047 -0.0023971244 0.0005333962 -0.0014905034 0.008753498 -0.0012526009
0.00923099 0.007887992 -0.0006342299 0.0030368262 0.003633391 0.0013965787 0.005006176 -0.0027273654
00000000: 67d7 0d3c e33c 98b9 8d87 d1ba 6b4a b73b
00000010: 2c05 ea3b d336 873b 7228 be39 c616 133b
00000020: 09b4 193c fe73 7d3b 25bb 383b 98e0 e839
00000030: 923a 4bbb 68e2 d73a f2f9 46bb ed5d cfbb
00000040: a064 983a 4547 27bb 7553 bb39 7312 693a
00000050: 126e c7ba a8b0 b73a c942 a93a d273 ac3b
00000060: 1d9f e4ba 803d 6bba 0b29 50bb f2e9 c83b
00000070: 288f 3dba d78c 8a3b dc28 393b da57 1b3c
00000080: c882 933a d7a7 3ebb d9cd 21bb 3c90 2a3b
00000090: dc40 413a 3d9c 643b 234e 983a de51 ee3b
000000a0: 0aa6 c23a ecf0 e2ba 17cd 38bb 50d4 a3b9
000000b0: af74 cd3b 71d9 6a3b 6e82 5839 8a94 353b
000000c0: 97a3 003b 8443 a63b daa7 bb3b 83e2 063b
000000d0: 966e 21bb 3a89 8fbb 100f 513c be83 64ba
000000e0: 4ed4 6dbb 8e73 0a3c 16ff 343b 6a1c 2bbb
000000f0: 170d 8b3b afd7 a23b 8ffb 1fbb 3871 1a3b
00000100: 8fcf df3a 2fec 8438 fc63 b7bb c847 b33a
00000110: f53a 373b a0c8 8ebb df6e a6ba 2774 78bb
00000120: 961e b739 22e9 92bb b4d0 88bb 65a2 bb3b
00000130: cbfc 453a a4de 2d3a 7e09 193a a964 9bbb
00000140: 17ee d7bb 9595 a53b c6cd a53b 1d42 61bb
00000150: 4757 393b d6e4 0d3c 90d4 8c3b bfcd a1ba
00000160: 0fa6 9eb9 c024 283b 87ea a1bb 10f2 3f3c
00000170: b214 623b be79 7ebb 3fb8 193c acf8 6eba
00000180: af65 843b 7001 123c 839a 623b b574 36b9
00000190: 0282 cd3a c874 243b 5024 9e3a c26b a6bb
000001a0: 9f1d 053b 60bc 0a3c b32b 803b 2e90 8c3b
000001b0: fec1 87ba 8565 fe39 b133 3e3b c25e efba
000001c0: 2fa1 c4ba 1f8a d238 1c8b 0a3b 895e 893a
000001d0: 6872 a23b 9f13 9338 d11a 193b f048 b43b
000001e0: 2015 8439 1726 e33a ac22 4739 322a 43bb
000001f0: 69a3 cbbb c7e2 40bb a340 83ba 9c7c 7e3a
00000200: c70d 9d3b b0c0 0b3b 2c6d c53b 3f91 033c
00000210: 86fe 193b 362b 9d3b 120a 68bb 61a5 9dbb
00000220: a450 bd3b f744 b03b 1093 833b 99e4 8dba
00000230: 893e ac3b 5281 853b a9ac f43b 05b5 493c
00000240: 54de 6d3b f789 c53b b5aa 53ba 74d3 1c3c
00000250: ef02 d23b c2f9 f439 e8c8 dc3a 9010 8b3b
00000260: 456b 873b c701 d5bb ca10 223a 228f ba3b
00000270: c088 d63b b00e 9e3b 2fdb 98bb 3380 ae3b
00000280: b3bf 96bb ea32 a73b 82cd 3f39 1fbf e03b
00000290: 5fdf 333a a4cc 0fbb 658c d43b 260a 8b3b
000002a0: e18c 0dba 3ef5 2e3b 2807 453b 9bf4 88bb
000002b0: bd25 043c 9608 9d3a f23f 333b 9aea a2b9
000002c0: d45a 71ba 5073 af3b cd08 1dbb f328 b3bb
000002d0: 1ff8 c6ba 36aa 163a a68b adbb 88d2 fd3b
000002e0: 8c94 d03a 7d94 d7bb 0259 143c c474 f43a
000002f0: 0f4f 183a 9a6d 783b 4e65 023b af0a 123c
00000300: f5eb 0f3c 0024 7f3b 6229 7cbb 1fe6 c43b
00000310: 96af 943b 444f d03b be79 0dbb 6929 423c
00000320: b7ce b4bb 0bd6 2a3b 5050 e3ba 8029 02ba
00000330: e07c 613b a40e 383b 9a11 00ba 384a 1f3b
00000340: db8f b33b 945a 333c 6fa0 5abb afa2 c63b
00000350: 357d fe3b 7cbf c43b e667 293c 32e4 bf3b
00000360: 5d1d 103c 1a59 663b e18c 93bb 9c88 e93b
00000370: ffa0 96ba 60d2 2e3b fcfb 8e3b 4f1b 87bb
00000380: 1d58 923b 626d 22bb 95e7 58bb 434f 903a
00000390: d81d fb3a 50fc 023b 42fc ddba ae7f 92bb
000003a0: 2be5 b439 6b71 b43b ab2a 953b 43a5 bb3b
000003b0: efa9 933b ca4a 0abb de42 853b 961d 943b
000003c0: d9d4 a13a 15de 6f3b 7adc 543b 1319 1dbb
000003d0: 9dd3 0b3a ff5c c3ba d56a 0f3c 502e a4ba
000003e0: 943d 173c a33c 013c 7342 26ba 7d05 473b
000003f0: 301e 6e3b 680d b73a d90a a43b 99bd 32bb

network_body._body_endoder.seq_layers.2.weight f4 [256, 256]
0.024322536 0.121324636 0.07223569 0.017110433 -0.049130395 -0.09288465 -0.083197914 -0.041163463
-0.10398181 0.06882126 0.057758853 0.1268584 0.014415088 -0.08585753 0.023649948 0.014625014
-0.033826362 -0.048564527 -0.004652025 -0.07538797 0.01670085 -0.106701985 -0.027032226 0.07591812
0.15789543 0.040385462 0.08330941 -0.01833786 -0.06613611 0.052719373 -0.017861431 0.029706426
-0.008554951 -0.08299324 -0.030854387 0.03168582 0.014295433 -0.11349611 0.06475919 -0.06927663
-0.037030153 -0.010320519 -0.021650644 0.0054596104 0.051728185 -0.13455933 -0.03934227 -0.0051648286
0.025926374 0.07890047 0.019430969 0.119022794 0.052156758 0.058577772 -0.08755287 0.05038505
0.019566508 0.09500306 0.07848201 -0.04395862 -0.014872353 0.068880074 0.022644196 0.06709693
0.04557236 0.040701747 -0.0937217 -0.03167571 0.041240394 -0.012508152 -0.0011752115 -0.08515097
0.057079773 -0.03447125 0.05122523 -0.08537407 -0.00065892807 -0.09195166 0.01865563 -0.026872069
-0.01767262 -0.081554525 -0.023175234 -0.07933141 -0.04628925 0.06671576 0.016798468 0.05169332
0.032928906 0.14158039 -0.00045439575 0.0028940346 -0.04356385 -0.06713522 0.046764355 0.098383635
0.04331896 -0.020072676 0.13940126 0.039460786 0.025320023 -0.03456706 0.06016451 0.10945383
-0.10534288 -0.032594383 -0.08663609 -0.051860623 0.066943854 0.023080783 0.005787788 -0.061163947
-0.01017314 0.02650825 0.01212719 0.062689446 -0.041293852 0.0031871833 0.051818326 -0.064345576
0.07357898 0.064259455 -0.028107513 -0.043379158 -0.021295138 0.18237433 0.005847536 0.11347485
0.026190024 -0.014133506 0.06278474 -0.0077897087 0.05181863 -0.066981226 -0.012795061 -0.029418549
-0.04317496 -0.09664841 -0.0955693 -0.036077052 0.06819202 0.0649937 0.021352265 0.06723043
0.046501625 0.00017888634 0.043493092 -0.028096987 0.068001665 -0.053318158 -0.029676719 0.081798926
-0.020022394 0.030116407 -0.02114345 -0.103074506 0.123567894 -0.021563632 0.0013190241 -0.0010397371
-0.055314623 0.054180756 0.076293856 -0.008435545 0.0065372037 -0.0834232 0.05003189 -0.015469477
0.012898092 -0.092944 0.042934764 -0.05062529 0.04915134 0.064093046 0.023377333 -0.14969772
0.024685217 -0.08003433 0.08043105 0.016393235 -0.041069232 0.07106805 0.062146116 0.0016144171
0.026727825 0.101452045 -0.03523708 0.005238036 0.045165103 0.040671043 0.11698858 -0.080806896
-0.0010155374 -0.09390927 0.094443224 -0.0038036406 0.01952006 -0.054487284 0.027971754 -0.074772954
0.0042054257 0.074798316 -0.030512588 -0.13457072 -0.04183385 0.011686974 -0.014140719 -0.024551017
-0.080651164 0.0996308 0.05557198 -0.0013344521 -0.045859467 0.071153946 0.01893603 0.11910734
-0.047505178 -0.0036090456 0.044748656 -0.014505704 -0.11375103 0.09720985 0.0731765 -0.057508867
0.06151174 0.11406676 -0.054367762 -0.048254333 -0.08024501 0.05381362 -0.059268102 0.015380546
0.10586298 0.04561408 -0.0010703218 -0.013629514 -0.06726389 -0.0025712366 0.042073544 0.032978382
-0.05989971 0.047374595 0.10931573 0.015731424 -0.01186546 -0.13421296 0.06355889 -0.11255725
0.018436464 0.01101672 0.016982 0.051800247 0.024607996 0.03194051 -0.106151626 0.025051836
00000000: 0e40 c73c 0d79 f83d 4ef0 933d 2e2b 8c3c
00000010: f43c 49bd 4f3a bebd ab63 aabd 059b 28bd
00000020: 6af4 d4bd 29f2 8c3d 8c94 6c3d 2be7 013e
00000030: 432d 6c3c 13d6 afbd 89bd c13c c19d 6f3c
00000040: 838d 0abd 99eb 46bd 0470 98bb 0265 9abd
00000050: 39d0 883c 9286 dabd b072 ddbc f67a 9b3d
00000060: 57af 213e 3a6b 253d 209e aa3d 4839 96bc
00000070: 5e72 87bd 45f0 573d 2352 92bc e45a f33c
00000080: 112a 0cbc 5cf8 a9bd 57c2 fcbc fec8 013d
00000090: 6437 6a3c a670 e8bd 77a0 843d e8e0 8dbd
000000a0: eeac 17bd 6517 29bc b15c b1bc 88e6 b23b
000000b0: efe0 533d ecc9 09be 5c25 21bd b93d a9bb
000000c0: 8c63 d43c 9296 a13d b22d 9f3c 39c2 f33d
000000d0: 53a2 553d 3fef 6f3d eb4e b3bd 8e60 4e3d
000000e0: f149 a03c f790 c23d 2dbb a03d f40d 34bd
000000f0: 2bab 73bc ff10 8d3d 5280 b93c 1e6a 893d
00000100: 15aa 3a3d e0b6 263d 2af1 bfbd 64be 01bd
00000110: b0eb 283d feee 4cbc 8e09 9aba a263 aebd
00000120: 7bcc 693d ba31 0dbd 8cd1 513d 9ad8 aebd
00000130: eabb 2cba 2751 bcbd b1d3 983c d022 dcbc
00000140: 2cc6 90bc 0f06 a7bd fdd9 bdbc 8278 a2bd
00000150: cc99 3dbd 46a2 883d f19c 893c 60bc 533d
00000160: 76e0 063d 73fa 103e f73b eeb9 d8a9 3d3b
00000170: 0270 32bd 317e 89bd fb8b 3f3d 5c7d c93d
00000180: 396f 313d 746f a4bc 34bf 0e3e a2a1 213d
00000190: f06b cf3c 3196 0dbd 106f 763d 5429 e03d
000001a0: 02be d7bd b081 05bd 436e b1bd ce6b 54bd
000001b0: dc19 893d e913 bd3c 7ca7 bd3b 0c87 7abd
000001c0: 3ead 26bc d427 d93c 1fb1 463c 5363 803d
000001d0: be23 29bd 10e0 503b 743f 543d 9dc7 83bd
000001e0: 94b0 963d 769a 833d ba41 e6bc 58ae 31bd
000001f0: 2473 aebc 56c0 3a3e b09c bf3b 8165 e83d
00000200: 768c d63c 3990 67bc 4995 803d d040 ffbb
00000210: c63f 543d 742d 89bd 60a2 51bc 2bff f0bc
00000220: 3ad8 30bd 9aef c5bd d6b9 c3bd 88c5 13bd
00000230: 42a8 8b3d 6b1b 853d f2ea ae3c 1cb0 893d
00000240: 7d78 3e3d 7093 3b39 d025 323d a72b e6bc
00000250: 7544 8b3d 2464 5abd 971c f3bc 3286 a73d
00000260: 0106 a4bc afb6 f63c 0735 adbc ba18 d3bd
00000270: 2a11 fd3d 37a6 b0bc 1be3 ac3a ca47 88ba
00000280: 9691 62bd a4ec 5d3d f43f 9c3d 3d35 0abc
00000290: 0a36 d63b c8d9 aabd 3dee 4c3d b073 7dbc
000002a0: 8552 533c 6d59 bebd 5ddc 2f3d 775c 4fbd
000002b0: ea52 493d 3743 833d d281 bf3c 5c4a 19be
000002c0: a738 ca3c 0ae9 a3bd 09b9 a43d 1b4b 863c
000002d0: 3638 28bd 208c 913d ed8c 7e3d d99a d33a
000002e0: 50f4 da3c 17c6 cf3d c254 10bd d5a3 ab3b
000002f0: 0bff 383d ae96 263d b597 ef3d 167e a5bd
00000300: c81b 85ba 8153 c0bd 736b c13d 8046 79bb
00000310: 88e8 9f3c 0f2e 5fbd 0525 e53c 9022 99bd
00000320: abcd 893b dc2f 993d 89f5 f9bc e8cc 09be
00000330: f959 2bbd b97a 3f3c 79ae 67bc 371f c9bc
00000340: 702c a5bd 3c0b cc3d 729f 633d c8e8 aeba
00000350: 23d7 3bbd 29b9 913d bc1f 9b3c 8dee f33d
00000360: ca94 42bd bd85 6cbb 5e4a 373d 55a9 6dbc
00000370: 4df6 e8bd f515 c73d 90dd 953d 6b8e 6bbd
00000380: bcf3 7b3d d59b e93d bbb0 5ebd 56a6 45bd
00000390: 7f57 a4bd ac6b 5c3d 1cc3 72bd b0fe 7b3c
000003a0: b1ce d83d d4d5 3a3d 0a4a 8cba 534e 5fbc
000003b0: a6c1 89bd 3182 28bb 4f55 2c3d 5714 073d
000003c0: 6659 75bd dd0b 423d ede0 df3d 30df 803c
000003d0: 5967 42bc 1f6f 09be 2a2b 823d 6a84 e6bd
000003e0: 1108 973c 797f 343c d61d 8b3c 7f2c 543d
000003f0: b596 c93c 0dd4 023d 0666 d9bd 8239 cd3c

network_body._body_endoder.seq_layers.4.bias f4 [256]
0.005473455 0.0023115706 0.0040721735 0.004768943 0.004962528 -0.0047121383 -0.0008936523 -0.0029389085
0.0033196153 0.0067112357 -0.004084519 0.0026092862 0.00092045224 0.00080893433 0.0025306598 0.0036755744
-0.0011109797 0.004900472 -0.00587376 -0.00062387355 0.0058446373 -0.0037082443 0.0055521526 0.0017255672
-0.0022899865 0.0043990216 0.0020558278 0.0050830836 0.0022281685 0.0062665436 -0.0035349915 -0.0024784552
0.0027091373 0.005674588 0.0067921183 0.0054731304 -0.0037704168 0.00063393585 -0.003701049 -0.0034602683
-0.0021806178 -0.0049437294 -0.0027553304 0.0027052988 0.0036399236 -0.0031566594 0.004390094 0.00083493185
0.0015521675 0.004773323 -0.0037024391 0.004866725 0.0071805003 0.0045406376 -0.0036816923 0.005305606
0.005407011 -0.0050619883 0.003540721 0.0058511235 0.0008042955 0.00052591 0.0033937239 0.0016499681
0.005208569 0.005312602 0.0023483394 0.0028840483 0.0064919493 0.002687544 -8.98515e-05 -0.0015810775
-0.00320525 0.005031341 -0.0024490398 0.0049705473 0.0022160981 -0.0036895317 0.0013271642 -0.0015132396
0.004264667 -0.0020875337 -0.003652696 0.0055210586 -0.0051060338 -0.0042572194 -0.0035600094 0.005800434
-0.0013986982 0.0032992938 -0.0045599453 0.0037898321 0.0037028426 -0.0024128987 -0.0018284058 0.005411822
0.003609952 0.005076066 0.0055135237 -0.0038922767 0.0029645665 0.0069326167 0.0010582003 0.0047514555
-0.0025690794 0.00454963 -0.003608453 0.0021036088 -0.0037355684 0.0029105642 0.0036380466 -0.0011580632
-0.0037754655 -0.004210422 0.0054375464 0.004431734 0.003961733 -0.0023212612 -0.0032023657 0.0027311097
0.0064307917 0.0046529025 0.0027001312 0.0057491795 0.00095600233 -0.0036474224 0.0053079156 5.5074644e-05
0.006556241 -0.0019711892 0.0076685147 -0.001002025 -0.00043521082 -0.003156427 -0.0027452768 -0.0017153692
0.006244142 -0.0030818486 -0.0025262465 -0.0032445323 -0.00054616487 -0.0013062689 0.0049001495 0.00075588835
-0.0027261083 0.0044662366 0.002986275 0.00512685 0.0027756859 -0.0019053862 -0.00036544123 -0.003985365
0.0048397123 0.0032697378 -0.0005207598 0.0057067396 -0.0032412242 0.0074406127 -0.00012865754 0.005658865
0.00422534 -0.003943578 0.005340019 0.0032402345 -0.00037312534 -0.0037077505 -0.003088875 0.0044142925
0.0028218282 0.005420893 0.001819614 -0.003766013 -0.00093961175 -0.0030618666 0.0016217349 0.005256347
0.005136003 -0.0039574546 -0.004138458 0.005239861 0.004029388 0.0036184152 0.002279982 0.0053030527
-0.0044527855 0.004560255 0.003511413 -0.0061238063 -0.0057687284 0.002939943 0.0020234007 0.0049593598
0.0039486047 0.004616981 -0.0010746939 -0.0034878107 0.00012454874 -0.0043267985 0.0049424516 0.004402843
-0.0026138397 0.0012998481 -0.0036303175 0.007036764 0.0033820884 0.00014787073 0.0037595779 -0.004070932
-0.003167762 0.0040612477 0.003955643 0.00042099724 0.0074369633 0.0011681659 0.0056000585 0.0032933725
0.0019764563 0.0051388796 0.0009387312 0.001600321 0.003267805 0.004165719 -0.0035592697 0.0008747813
6.244956e-05 0.0012001409 0.0057279444 0.0032151337 0.00494128 -0.00065842207 0.00322344 -0.0043619177
0.0045701014 0.0017688591 0.0058493307 0.006688093 -0.0040185037 0.001084452 0.0048401984 0.0038301195
-0.0021295084 0.0017139533 -0.0032097057 0.004129589 0.003686151 0.0026073097 0.00412863 0.0031469446
-0.0022096743 0.0008464034 0.004282276 -0.0030093996 -0.0013774591 0.0030299483 -0.0046719606 -0.0018261366
00000000: ab5a b33b b87d 173b de6f 853b cb44 9c3b
00000010: b49c a23b 4868 9abb fe43 6aba b49a 40bb
00000020: e78d 593b ede9 db3b 6ed7 85bb 8f00 2b3b
00000030: 814a 713a aa0e 543a 6dd9 253b e8e1 703b
00000040: 4b9e 91ba 2394 a03b ac78 c0bb 728b 23ba
00000050: 5f84 bf3b 0406 73bb d5ee b53b 6d2c e23a
00000060: 9913 16bb ab25 903b 11bb 063b ff8f a63b
00000070: 7706 123b 9457 cd3b 51ab 67bb 946d 22bb
00000080: c88b 313b e5f1 b93b 6b90 de3b f257 b33b
00000090: 1919 77bb b72e 263a 4c8d 72bb abc5 62bb
000000a0: b2e8 0ebb 02ff a1bb c692 34bb 624b 313b
000000b0: c98b 6e3b f5df 4ebb c7da 8f3b 54df 5a3a
000000c0: 1972 cb3a 8969 9c3b 9fa4 72bb 0c79 9f3b
000000d0: 674a eb3b a1c9 943b 8c48 71bb a6da ad3b
000000e0: 4c2d b13b 09df a5bb 710b 683b c8ba bf3b
000000f0: 5bd7 523a 39dd 093a 3d69 5e3b be43 d83a
00000100: a5ac aa3b 5615 ae3b 99e6 193b 4d02 3d3b
00000110: 6bba d43b 8221 303b a86e bcb8 283c cfba
00000120: 2c0f 52bb f3dd a43b 1280 20bb f9df a23b
00000130: f53b 113b 12cc 71bb 3ef4 ad3a e557 c6ba
00000140: 9fbe 8b3b 01cf 08bb 1262 6fbb ffe9 b43b
00000150: 8450 a7bb 2580 8bbb 0c4f 69bb 9111 be3b
00000160: 8654 b7ba f738 583b 986b 95bb d55e 783b
00000170: 64ab 723b b921 1ebb 1ea7 efba a755 b13b
00000180: f294 6c3b 2155 a63b caaa b43b 9115 7fbb
00000190: 2c49 423b 012b e33b 4fb3 8a3a 19b2 9b3b
000001a0: 005e 28bb 1015 953b cc7b 6cbb b3dc 093b
000001b0: 70d0 74bb 2abf 3e3b 4b6c 6e3b 27ca 97ba
000001c0: cd6d 77bb 94f7 89bb 722d b23b 1438 913b
000001d0: 6dd1 813b 4d20 18bb c8de 51bb 6bfc 323b
000001e0: 64b9 d23b 6077 983b aff4 303b 9d63 bc3b
000001f0: 3b9c 7a3a 9809 6fbb 06ee ad3b f3ff 6638
00000200: bcd5 d63b 112f 01bb 2a48 fb3b 6156 83ba
00000210: 022d e4b9 0fdc 4ebb 1aea 33bb 3dd6 e0ba
00000220: a99b cc3b d7f8 49bb 628f 25bb 38a2 54bb
00000230: 812c 0fba 1c37 abba 6f91 a03b cf26 463a
00000240: 82a8 32bb 8259 923b 61b5 433b 23ff a73b
00000250: 48e8 353b 27be f9ba b198 bfb9 aa97 82bb
00000260: 7396 9e3b 1949 563b 9983 08ba 9aff ba3b
00000270: b86a 54bb 62d0 f33b 3fe8 06b9 006e b93b
00000280: b974 8a3b 2139 81bb 53fb ae3b 1d5a 543b
00000290: 09a0 c3b9 bbfd 72bb b96e 4abb c5a5 903b
000002a0: 6cee 383b bfa1 b13b 1d80 ee3a 37cf 76bb
000002b0: 4750 76ba 99a9 48bb 6590 d43a 6f3d ac3b
000002c0: ea4b a83b 89ad 81bb e79b 87bb 24b3 ab3b
000002d0: f508 843b ef22 6d3b c06b 153b 3bc5 ad3b
000002e0: ace8 91bb 316e 953b bc1f 663b 36aa c8bb
000002f0: 9a07 bdbb 0fac 403b 089b 043b 2082 a23b
00000300: 4c63 813b 0b4a 973b bedc 8cba c193 64bb
00000310: 4c99 0239 d1c7 8dbb 4af4 a13b b945 903b
00000320: f44c 2bbb aa5f aa3a 9fea 6dbb a894 e63b
00000330: 07a6 5d3b bf0d 1b39 4063 763b 7465 85bb
00000340: 3a9a 4fbb 3714 853b 579e 813b 4bb9 dc39
00000350: c5b1 f33b 251d 993a b280 b73b 9fd5 573b
00000360: 6f87 013b 0c64 a83b 2f15 763a ddc1 d13a
00000370: ac28 563b 9580 883b a342 69bb 9451 653a
00000380: 5af7 8238 0c4e 9d3a 7bb1 bb3b feb4 523b
00000390: 76ea a13b f599 2cba 5940 533b 6bee 8ebb
000003a0: cac0 953b 10d9 e73a beab bf3b ca27 db3b
000003b0: a7ad 83bb 2c24 8e3a 879a 9e3b be02 7b3b
000003c0: 398f 0bbb bba6 e03a ed59 52bb 8151 873b
000003d0: 5a93 713b 66df 2a3b 7549 873b f83c 4e3b
000003e0: 2fd0 10bb 2ce1 5d3a 5652 8c3b 5939 45bb
000003f0: dc8b b4ba 1992 463b 3f17 99bb fa5a efba
