results/H6/AgentController/AgentController-1000058.onnx (onnx, 657373 bytes, 14 tensors)

83 f4 [116]
0	0x3e6c6a6c	0.23087472
1	0x3dff5c33	0.124687575
2	0x3e4a540b	0.19758622
3	0x3e845d17	0.25852272
4	0x3e753bf0	0.23948646
5	0x3e030324	0.12794167
6	0x3e5301de	0.20606181
7	0x3e82ddec	0.25559938
8	0x3e64b9c3	0.22336487
9	0x3dfb01cf	0.12256204
10	0x3e425096	0.18976054
11	0x3e85d3ac	0.26138055
12	0x3e79e216	0.24402651
13	0x3e034feb	0.12823455
14	0x3e586cdf	0.21135281
15	0x3e8153a2	0.2525912
16	0x3e6134de	0.21992823
17	0x3dfaacb7	0.12239974
18	0x3e3e2002	0.18566898
19	0x3e8705f9	0.26371744
20	0x3e7c1727	0.24618207
21	0x3e03e567	0.12880479
22	0x3e5abe76	0.21361718
23	0x3e80b128	0.2513516
24	0x3e631942	0.22177604
25	0x3dfaeae3	0.12251832
26	0x3e40578d	0.18783398
27	0x3e87995e	0.26484197
28	0x3e7d2d0d	0.24724217
29	0x3e03eb19	0.12882651
30	0x3e5c052e	0.21486351
31	0x3e81bab1	0.25337747
32	0x3e65b4f5	0.22432311
33	0x3dfb6f03	0.12277033
34	0x3e435bd8	0.19078004
35	0x3e873de4	0.26414406
36	0x3e79c272	0.24390581
37	0x3e014a4e	0.12626001
38	0x3e596904	0.21231467
39	0x3e83d93c	0.25751674
40	0x3e6692a4	0.22516876
41	0x3e00184f	0.12509273
42	0x3e42f1aa	0.190375
43	0x3e85ee51	0.26158383
44	0x3e7338e4	0.23752171
45	0x3dfe0483	0.12403204
46	0x3e52e5e2	0.20595506
47	0x3e864ad4	0.26228964
48	0x3e659016	0.22418246
49	0x3dfcf64f	0.12351667
50	0x3e42b87f	0.19015692
51	0x3e840709	0.25786617
52	0x3e6efdf9	0.2333907
53	0x3e006c85	0.12541397
54	0x3e4cf599	0.20015563
55	0x3e88489e	0.26617903
56	0x3e64025a	0.22266522
57	0x3df94574	0.1217145
58	0x3e41ef3b	0.18938915
59	0x3e82b369	0.25527504
60	0x3e732a70	0.23746657
61	0x3e026de9	0.1273724
62	0x3e50da2e	0.20395729
63	0x3e8a50c5	0.27014747
64	0x3e666e3b	0.22502987
65	0x3dfc8cbe	0.12331532
66	0x3e43e1f2	0.1912916
67	0x3e8224b6	0.25418633
68	0x3e7e179b	0.24813692
69	0x3e067403	0.13130192
70	0x3e5bb29c	0.21454853
71	0x3e8be0bc	0.27319896
72	0x3e6b2a87	0.22965442
73	0x3e031ec7	0.1280471
74	0x3e46af7c	0.1940288
75	0x3e8234a2	0.2543078
76	0x3e850d90	0.2598691
77	0x3e0a4432	0.13502577
78	0x3e67f6a5	0.22652681
79	0x3e8cbe07	0.2748873
80	0x3e72a1b6	0.236945
81	0x3e0abf5e	0.13549563
82	0x3e4b09a7	0.19827901
83	0x3e82a5ef	0.25517222
84	0x3e88d46d	0.26724568
85	0x3e0c899b	0.13724367
86	0x3e6fc00c	0.23413104
87	0x3e8c4812	0.27398735
88	0x3e795809	0.24349989
89	0x3e109dc4	0.14122683
90	0x3e4f8f9f	0.20269631
91	0x3e8311e5	0.2559959
92	0x3e8905bf	0.26762196
93	0x3e0f761a	0.14009896
94	0x3e6e9ab4	0.23301202
95	0x3e8a7a3c	0.27046382
96	0x3e80f063	0.251834
97	0x3e17fe8c	0.14843196
98	0x3e556dd6	0.2084268
99	0x3e83c342	0.25734907
100	0x3e8809ca	0.26569968
101	0x3e147354	0.14497119
102	0x3e695ec7	0.22790061
103	0x3e886a2b	0.266435
104	0x3e844ce5	0.25839916
105	0x3e1b731e	0.15180632
106	0x3e5ba37d	0.21449085
107	0x3e84b627	0.2592022
108	0x3e867d61	0.26267532
109	0x3e1a90f1	0.15094353
110	0x3e61bf75	0.22045691
111	0x3e8658dd	0.26239672
112	0x3e867d61	0.26267532
113	0x3e1a90f1	0.15094353
114	0x3e61bf75	0.22045691
115	0x3e8658dd	0.26239672

86 f4 [3]
0	0x40c81530	6.2525864
1	0x3b5ae19d	0.0033398636
2	0x40d4bd12	6.64808

action_model._continuous_distribution.log_sigma f4 [1, 2]
0	0x3c120435	0.008912136
1	0xbc8cc2c0	-0.017182708

action_model._continuous_distribution.mu.bias f4 [2]
0	0xbbb67c43	-0.0055690124
1	0x3ae505a6	0.0017472997

action_model._continuous_distribution.mu.weight f4 [2, 256]
0	0xbbf48d4b	-0.0074631325
1	0xbc6b7138	-0.014370255
2	0x3c26c539	0.0101788575
3	0xbd3fb14e	-0.04679995
4	0xb9ed6693	-0.00045280586
5	0x3c325635	0.010884811
6	0x3c76fd2b	0.015075008
7	0x3ab2ea63	0.0013650175
8	0xbb834b9b	-0.0040068156
9	0x3b6dc6e5	0.003628188
10	0x3c1ce3df	0.009575813
11	0xbc12ddd2	-0.008964019
12	0x3ba4df2f	0.0050314884
13	0xbcea068e	-0.028567579
14	0x3c9d9a44	0.019238599
15	0xbb5b5eda	-0.0033473284
16	0xbc210bba	-0.009829456
17	0x3c5a1288	0.013310082
18	0x3bf08d93	0.0073410957
19	0x3c227627	0.009915865
20	0xbb9e6a2f	-0.0048344354
21	0x3bba62d9	0.005688053
22	0x3ce941b5	0.028473714
23	0xbc5a8c9a	-0.013339186
24	0xbb388a9f	-0.0028158796
25	0xbbfc8c21	-0.0077071344
26	0x3a146022	0.0005660077
27	0xbc9c2183	-0.019058948
28	0x3c9a9ecf	0.018874554
29	0xbc5a9e59	-0.013343417
30	0x3ca91431	0.02063951
31	0x3c2ee907	0.010675675
32	0x3cb45ccb	0.022016903
33	0x3a479d8c	0.0007614724
34	0xb9c66110	-0.0003783782
35	0x3c030b69	0.007998326
36	0x3c4d2f21	0.012523443
37	0xbc967465	-0.018366048
38	0xbb9e2272	-0.0048258835
39	0x3cde2606	0.02711774
40	0xbce37f43	-0.027770644
41	0xbb4558e1	-0.003011279
42	0xbcb7597f	-0.022381542
43	0x3cb4f194	0.02208785
44	0xbbf015a3	-0.007326798
45	0xbc3f556e	-0.011678083
46	0x3c9246a4	0.01785595
47	0xb99757ff	-0.00028866527
48	0xbbbfe27c	-0.0058558565
49	0xbc62e278	-0.01384794
50	0x3b7ad72b	0.0038275223
51	0x3acea655	0.0015766124
52	0xbbb83b7b	-0.005622325
53	0x3c456a00	0.012049198
54	0x3c4dca5e	0.012560455
55	0x3c0cfae2	0.008604737
56	0x3c6501b7	0.01397746
57	0x3c094f6b	0.008380751
58	0x3d2fa34e	0.04288035
59	0x3c560463	0.013062569
60	0x3cc34f30	0.02384147
61	0x3bce8416	0.006302367
62	0x3b451b25	0.0030075994
63	0x3c8b2e5c	0.01698988
64	0x39faecd4	0.00047860167
65	0x3cd151c6	0.025551688
66	0xbcd040c5	-0.02542151
67	0x3b502d76	0.0031765378
68	0x3bc3366f	0.0059574167
69	0x3cab512a	0.020912725
70	0xbb954fb5	-0.004556621
71	0x3c6d315e	0.014477102
72	0xbccce47c	-0.025011294
73	0x3b326526	0.0027220934
74	0xbbd1f44d	-0.0064072968
75	0x3b95a12d	0.004566333
76	0x3bc8d719	0.0061291573
77	0xbcb06ca0	-0.021536171
78	0xbbaa7eaa	-0.005203088
79	0x3c8f4f78	0.017493948
80	0xbbed8507	-0.007248524
81	0xbba84b65	-0.005135941
82	0x3ced9c09	0.029005067
83	0xbc8c12c5	-0.017098794
84	0xbc017b12	-0.007902877
85	0x3a912695	0.001107412
86	0x3ca5127e	0.02015042
87	0x3c0b6460	0.008507818
88	0xb818e4a9	-3.645258e-05
89	0x3b117c95	0.00221995
90	0xbc0cb39d	-0.008587745
91	0xbbb36293	-0.0054743974
92	0xbc910388	-0.01770188
93	0xbcaf98ea	-0.02143522
94	0xbd440f51	-0.04786617
95	0x3c1a7909	0.009428271
96	0xbb9a20c5	-0.0047036135
97	0x3bce62c7	0.0062983963
98	0xbc207f41	-0.009795965
99	0x3cb3fcb6	0.021971088
100	0x3b073e4b	0.0020636495
101	0xbd21f441	-0.03953958
102	0x3b9fab62	0.0048727253
103	0x3d0a0169	0.03369275
104	0xbabb2b9c	-0.0014279964
105	0xbca844b5	-0.020540575
106	0x3c56b957	0.013105712
107	0xbc7f350b	-0.015576611
108	0x3c584c7c	0.013201829
109	0x3a912a55	0.0011075238
110	0x3cda40c0	0.026642203
111	0x3c93116d	0.017952645
112	0xbb384701	-0.0028118494
113	0x3aa4a203	0.001256049
114	0x3d4ae17f	0.049531456
115	0x3c625459	0.013814055
116	0x3c652b14	0.013987321
117	0x3b6caaa9	0.0036112464
118	0x3c56096a	0.013063768
119	0x3beef99f	0.0072929407
120	0x3a79689d	0.0009514185
121	0x3c3d342f	0.011548086
122	0x3bc6d4a8	0.006067831
123	0xbc5b2b85	-0.013377075
124	0xbbccef32	-0.0062541002
125	0x3baa93f1	0.0052056243
126	0xbbdab4e7	-0.0066743973
127	0x3ba37659	0.0049884734
128	0x3c99ca88	0.018773332
129	0x3a7ebf66	0.00097178516
130	0xbcd309c6	-0.025761496
131	0xbcb73f70	-0.022369117
132	0x3d2361fe	0.039888375
133	0x3ccb7dc4	0.024840243
134	0x3c5a4115	0.013321181
135	0x3c54691a	0.012964511
136	0xbc362b94	-0.011118788
137	0xbc018f30	-0.007907674
138	0x3c987306	0.018609535
139	0x3b47af6d	0.0030469552
140	0x3ccc6de1	0.024954738
141	0xbc948594	-0.018130101
142	0x3cabda42	0.020978097
143	0xbcb84c2c	-0.02249726
144	0x3ce8d30b	0.028420946
145	0xbce2dfa1	-0.027694525
146	0x3c0907f7	0.008363715
147	0x3c1c656c	0.009545665
148	0xbcb5d916	-0.022198241
149	0x3bfbfbaf	0.007689915
150	0x3cf30364	0.029664703
151	0x3cb5bf8f	0.022186069
152	0x3c2e4536	0.010636618
153	0x3c6f2bdd	0.01459786
154	0xbc0bf524	-0.008542333
155	0x3c270583	0.010194185
156	0x3c28b148	0.010296173
157	0xbc7ca0f1	-0.015419231
158	0xbcb90693	-0.022586143
159	0x3c00c5f4	0.007859696
160	0x3b1d1eb4	0.00239746
161	0xbd0a97ac	-0.03383605
162	0xbd0e9614	-0.034811094
163	0xbcf00154	-0.029297508
164	0xbae776aa	-0.0017659266
165	0xbcacc9f9	-0.021092402
166	0xbc93b936	-0.018032651
167	0x3b76ed6e	0.003767814
168	0xbbfac22a	-0.0076525407
169	0x3c5f1c45	0.01361758
170	0x3cb6274e	0.022235539
171	0x3c838a6c	0.016057216
172	0x3c81e283	0.01585508
173	0xbc2f1d96	-0.010688206
174	0x39826e23	0.0002487759
175	0xbd07cf6f	-0.03315681
176	0xbbb72957	-0.005589645
177	0x3c3cfc4f	0.011534764
178	0x3bfb6f0a	0.007673149
179	0xbba498a4	-0.005023079
180	0xbbee4765	-0.0072716945
181	0xbcab905e	-0.020942863
182	0x3d019fbd	0.03164648
183	0x3c9c1741	0.019054057
184	0xbc8fbcd1	-0.01754609
185	0x3c4b35c3	0.0124029545
186	0xbbe6271a	-0.0070237042
187	0xbc77d737	-0.015126995
188	0xbcc48b0e	-0.023992088
189	0xbc19d4dd	-0.0093891295
190	0xbd09872b	-0.03357617
191	0xbd01874d	-0.031623174
192	0xbb81c400	-0.0039601326
193	0x3c5ed5a4	0.013600741
194	0x3d25d5bf	0.040487047
195	0xbc9726f5	-0.018451193
196	0xbc294be3	-0.010333034
197	0x3ae9618b	0.0017805559
198	0x3b611cf2	0.0034349528
199	0xbcbc207e	-0.022964712
200	0xbaa97dd6	-0.0012931179
201	0x3c469fb7	0.01212304
202	0xbc33bf49	-0.010970899
203	0xbd5baab4	-0.053629592
204	0x3c2cef2f	0.010555073
205	0x3b889662	0.0041683177
206	0x3c8637db	0.016384056
207	0x3b067af5	0.0020520065
208	0xbc0d4139	-0.008621507
209	0x3c9dea3b	0.019276729
210	0xbc1fb9ac	-0.0097488575
211	0x3b6f4999	0.0036512373
212	0x3cea7214	0.02861885
213	0xbc74e701	-0.014947654
214	0x3c99b8f9	0.01876496
215	0xbd0a9eda	-0.0338429
216	0x3ca257ec	0.019817315
217	0x3ab4679b	0.0013763787
218	0xbc8b908e	-0.017036702
219	0x3b829db8	0.0039860867
220	0xbc0d0b32	-0.008608626
221	0xbd0b3457	-0.033985462
222	0xbb13a485	-0.0022528481
223	0x3d08c798	0.033393472
224	0xbc1ca03c	-0.009559687
225	0xbc5f7719	-0.013639235
226	0x3c873bef	0.01650807
227	0x3bdae745	0.0066804015
228	0xbb537731	-0.0032267089
229	0x3b9be691	0.0047577103
230	0xbc2fcda0	-0.010730177
231	0x3cd0e25b	0.02549856
232	0xbc315aeb	-0.010824899
233	0xbd0332fd	-0.032031048
234	0x3c8a2f42	0.016868237
235	0xbc9298ff	-0.01789522
236	0x3bfd91c1	0.0077383225
237	0xbd70c90b	-0.05878548
238	0x3b948c9a	0.0045333626
239	0xbc830c42	-0.015997056
240	0xbc72c712	-0.01481797
241	0x3c3d1d67	0.011542655
242	0xbc57e991	-0.013178245
243	0x3ced895f	0.028996168
244	0xbcce2cb6	-0.025167804
245	0x3ceef51a	0.029169608
246	0xbcae2b0c	-0.02126076
247	0xbcce898b	-0.02521207
248	0x3ca7d0e3	0.020485347
249	0x3c504188	0.012710936
250	0xbc717ea6	-0.014739668
251	0xbc564c7f	-0.0130797615
252	0xbaa74d78	-0.0012764176
253	0x3c4c477f	0.012468218
254	0xbcbd8a3e	-0.023137208
255	0x3cbe21e0	0.023209512

action_model._discrete_distribution.branches.0.weight f4 [1, 256]
0	0xbc047fdd	-0.008087126
1	0x3bd82c7b	0.0065970994
2	0xbb22d044	-0.0024843374
3	0x3c18e621	0.009332211
4	0xbb33da9c	-0.0027443534
5	0xbb60e460	-0.003431581
6	0x39e92b40	0.00044473447
7	0xbb743ebf	-0.0037268845
8	0x39201dfa	0.00015269956
9	0xbbaf922f	-0.0053580026
10	0x3b23681b	0.0024933878
11	0xb93cc402	-0.00018002096
12	0xbb1e996f	-0.002420034
13	0xbb33e9ab	-0.002745251
14	0x3b875d67	0.0041310075
15	0xbba7bce8	-0.005118955
16	0x3b3c6149	0.002874451
17	0xbc1ded6e	-0.009639127
18	0xba6bad0b	-0.0008990324
19	0xbc1a6345	-0.009423082
20	0x3b959f67	0.0045661214
21	0x3a934f97	0.001123893
22	0xbb7f72cb	-0.0038978334
23	0x3b5c77df	0.0033640785
24	0xbb07c86f	-0.0020718833
25	0xbba7972b	-0.005114456
26	0x3b9848e7	0.0046473625
27	0x39d2ebb5	0.00040229937
28	0xbc0cc439	-0.008591705
29	0x3b51e815	0.00320292
30	0xbc21919e	-0.009861378
31	0x3b63987a	0.0034728334
32	0x3b4cfe85	0.0031279635
33	0xbc25e803	-0.010126117
34	0x3c1aadd3	0.009440857
35	0xba921f12	-0.0011148176
36	0xbbaaa890	-0.0052080825
37	0x3c199987	0.009374983
38	0xbbfb45c5	-0.0076682293
39	0xbc2fa184	-0.010719661
40	0xbb943cdb	-0.004523856
41	0x3bd985b8	0.006638255
42	0x3b12d9ca	0.0022407644
43	0xba5df452	-0.00084668875
44	0xbba43a78	-0.005011853
45	0xbc4a00a5	-0.012329255
46	0xbb934ff1	-0.0044956137
47	0x3b0cce4f	0.0021485274
48	0xbb024960	-0.001988016
49	0xbc0cce57	-0.008594117
50	0xb9c79629	-0.00038068116
51	0x3affc343	0.0019513149
52	0x3c73e8e5	0.014887069
53	0x3bbc954a	0.0057551013
54	0xbb96db3e	-0.0046037724
55	0xbb46577c	-0.0030264547
56	0x3b4396c3	0.00298445
57	0x3b92df2c	0.0044821706
58	0xbade9025	-0.0016980214
59	0xbbfc61d0	-0.00770209
60	0x3b8631da	0.0040952982
61	0x3b254487	0.0025217847
62	0x3b8cf992	0.004302212
63	0xbc1334d6	-0.008984765
64	0x3beaa213	0.007160434
65	0x3c2983b7	0.010346345
66	0xbb7fb907	-0.0039020197
67	0xbbbd182e	-0.0057707047
68	0xbb310cab	-0.0027015607
69	0x3c3f42a1	0.0116736
70	0xbbde67a2	-0.0067872563
71	0xbb154e88	-0.0022782404
72	0xbc352ae2	-0.011057587
73	0xbbb208f2	-0.0054331953
74	0x3a75d91d	0.00093783607
75	0xbc075f0f	-0.00826241
76	0x3b7c8dca	0.0038536661
77	0x3c300c02	0.01074505
78	0x3c4751c4	0.012165491
79	0xbbc27970	-0.0059348866
80	0x3ad8c7bf	0.0016539021
81	0x3c84b5a7	0.0161999
82	0x3bf4c72d	0.0074700327
83	0x3c40fe30	0.011779353
84	0x3bc24659	0.0059287963
85	0xbad91752	-0.0016562736
86	0x3b01844c	0.0019762693
87	0xbae517cf	-0.0017478409
88	0x3ae1e7aa	0.0017235179
89	0x3bff1508	0.0077844895
90	0xbb75b1ff	-0.0037490127
91	0xb978fcfa	-0.00023745364
92	0x3b975be5	0.004619109
93	0xbae872db	-0.0017734425
94	0xbb9c6fe8	-0.0047740825
95	0xbb70d6fb	-0.0036749232
96	0xba4eb345	-0.00078849896
97	0x3c435fdb	0.011924709
98	0xba930052	-0.0011215305
99	0x3b013caf	0.0019720008
100	0x3ba3f7bf	0.005003899
101	0xbba8aace	-0.0051473146
102	0x3b702793	0.0036644682
103	0x3bc7a4e6	0.0060926555
104	0xbaa92225	-0.0012903853
105	0x3b1bbe6a	0.0023764619
106	0x3c143c6a	0.009047607
107	0x3b835723	0.0040081902
108	0x3bb80ca0	0.0056167394
109	0xbbf95ac0	-0.007609695
110	0xbbef153f	-0.007296234
111	0xbae877e7	-0.0017735929
112	0xbb6e7cba	-0.003639026
113	0xba915700	-0.001108855
114	0xbb820747	-0.0039681527
115	0x3c406c97	0.01174464
116	0xbb6e4603	-0.0036357648
117	0xbc0b4da3	-0.008502397
118	0xbbe26bbb	-0.006909815
119	0x3b5993bd	0.003319963
120	0x3c7629b7	0.015024594
121	0xbb13e8c1	-0.0022569152
122	0xba41de37	-0.00073954783
123	0xbbf68625	-0.0075233155
124	0xba2017b3	-0.0006107047
125	0xbb7dd17b	-0.0038729596
126	0x3b6f033a	0.003647043
127	0xbb078608	-0.0020679254
128	0x3b0f8132	0.0021897075
129	0x3b764ccb	0.0037582393
130	0xbb2713ed	-0.0025494054
131	0xbb33f2b6	-0.00274579
132	0xbbb2d775	-0.0054578134
133	0x3a31b8af	0.0006779534
134	0x3ba3007c	0.004974423
135	0x3b046d9a	0.002020693
136	0xbb5e8550	-0.0033953972
137	0xbbfb4b12	-0.007668861
138	0xbc0a1149	-0.008426973
139	0xbc6dc148	-0.014511414
140	0xbb8e648b	-0.0043454817
141	0x3b441d1f	0.0029924584
142	0xbafaf5f2	-0.0019146784
143	0xbae8f7f3	-0.001777409
144	0x3c704a50	0.014666155
145	0xbb09f294	-0.002104913
146	0x3b8cf03c	0.004301099
147	0x3b0db48b	0.0021622505
148	0xbbc031ee	-0.005865327
149	0xbc131789	-0.008977779
150	0xbbcbed39	-0.0062233475
151	0xbc14e8d8	-0.009088717
152	0xbacc8848	-0.001560458
153	0x3be3fd9d	0.0069577233
154	0xbb95a917	-0.004567276
155	0x3b9be87b	0.0047579384
156	0x3c0258c5	0.007955735
157	0x3bd4e7ad	0.0064973445
158	0x3bf2d737	0.0074109095
159	0x39bb0270	0.00035669236
160	0xbbc6382c	-0.0060491767
161	0x3c06d8d6	0.008230409
162	0x3b852433	0.004063153
163	0x3bf21b68	0.007388521
164	0x3ad94d92	0.0016578904
165	0x3c1158e0	0.008871287
166	0xbc4049c3	-0.011736336
167	0x3ab9c443	0.001417287
168	0x3b6820e7	0.0035420002
169	0xbc2f7401	-0.01070881
170	0x3c294265	0.010330771
171	0xbbb8de69	-0.0056417477
172	0xbb18d178	-0.0023318212
173	0x3c21a23f	0.009865343
174	0x3c6938ca	0.014234731
175	0x3c5d3cab	0.013503234
176	0xba9aab88	-0.0011800388
177	0xbb170125	-0.0023041454
178	0x3bb64c04	0.005563261
179	0xbc564667	-0.013078309
180	0x3b8b76d8	0.0042561106
181	0x3b74674f	0.0037293022
182	0xba9f6fcb	-0.0012164054
183	0xbb303566	-0.0026887297
184	0x3c164123	0.009170803
185	0xb9a5c5d9	-0.0003161866
186	0x3b9c5b3a	0.0047716172
187	0x3bae816f	0.0053254883
188	0xbc55f737	-0.013059429
189	0x3b5b265a	0.0033439607
190	0x3b3bdf64	0.0028667087
191	0xbc0e783b	-0.008695657
192	0x3bfeb78b	0.007773345
193	0x3c31749f	0.010831027
194	0xbc37b06f	-0.011211499
195	0x3b84d17a	0.004053292
196	0xbbe5562f	-0.0069987993
197	0x3c080376	0.008301606
198	0xbb62bc08	-0.0034596939
199	0xbc0f3421	-0.008740456
200	0x3ac6418f	0.0015125739
201	0x3c54e24a	0.012993405
202	0x39b9e56f	0.0003545689
203	0xbc33b09c	-0.0109674
204	0xbb52e56f	-0.003218021
205	0x3b2213bb	0.0024730999
206	0xbc256b1f	-0.01009634
207	0xbc012514	-0.007882375
208	0xbc5fef45	-0.013667886
209	0x3a25b33b	0.0006320958
210	0x3ba77773	0.005110675
211	0x3c4cb35f	0.012493937
212	0xbb2913e3	-0.0025799207
213	0xbbe6648a	-0.007031028
214	0x39bf9a6b	0.0003654541
215	0xbb23daf7	-0.002500234
216	0xbba95b6d	-0.0051683695
217	0x3c0915db	0.008367027
218	0x3b5b5f50	0.0033473559
219	0xbb35c660	-0.002773665
220	0x3a7a9875	0.0009559461
221	0xb9dec453	-0.00042489413
222	0xba54458b	-0.0008097521
223	0xb9997f31	-0.000292772
224	0xbc2b2325	-0.010445391
225	0xbb27ad6f	-0.0025585552
226	0xbb6865dd	-0.0035461106
227	0xbc0582a0	-0.008148819
228	0xbbf24bc7	-0.0073942873
229	0xbb9e4f2f	-0.0048312168
230	0xbb84aed3	-0.004049161
231	0x3c306c91	0.010768072
232	0xba988473	-0.0011636153
233	0xbbb21d31	-0.005435609
234	0xbac2a7b0	-0.0014851
235	0xbaaee283	-0.0013342652
236	0xbb96875c	-0.004593773
237	0xba1e2438	-0.00060326187
238	0xbba20d69	-0.0049454463
239	0x391565aa	0.0001424762
240	0xbc817ed3	-0.015807545
241	0x3b4f903d	0.0031671666
242	0x3b469938	0.0030303728
243	0x3a614ee0	0.0008594822
244	0x3be42f48	0.006963644
245	0x3b599768	0.0033201817
246	0x3bddf2c7	0.006773326
247	0xbb32aa4f	-0.0027262156
248	0xbb978d1d	-0.0046249763
249	0x3ac9a0bf	0.0015382989
250	0xba82c3f3	-0.000997661
251	0xbb85c42b	-0.004082223
252	0xbc261a0f	-0.010138049
253	0x3b936cb9	0.0044990447
254	0xbb8f6e87	-0.0043771896
255	0xbbb711ef	-0.0055868546

network_body._body_endoder.seq_layers.0.bias f4 [256]
0	0x3c3e7934	0.011625577
1	0x3be515fd	0.0069911466
2	0x3aa305db	0.0012437658
3	0xb88843bf	-6.497604e-05
4	0xb9afd6cf	-0.00033538646
5	0x3bac9b0d	0.005267507
6	0x3774bdd6	1.4587733e-05
7	0x3aab9501	0.0013090671
8	0x3c4c2c0f	0.012461676
9	0x3bb6e887	0.0055819186
10	0xbc29a099	-0.010353231
11	0x3aff0788	0.00194572
12	0x3c04721e	0.008083848
13	0x3ba6bea2	0.005088643
14	0x3b80e720	0.0039338022
15	0x3b1cf984	0.0023952434
16	0x3b84c6e1	0.0040520285
17	0x3b5cd5b7	0.003369672
18	0xbc1b87d2	-0.009492831
19	0x3ba5e152	0.0050622607
20	0x3bdcefb4	0.006742442
21	0x3b9de8da	0.004819018
22	0x39f37873	0.00046438313
23	0x3ba6b2b1	0.0050872196
24	0x3b9d0e15	0.0047929385
25	0x3c3a786f	0.011381253
26	0xbb4372f6	-0.002982316
27	0x3b6d8f1d	0.0036248632
28	0x3b6d984f	0.0036254113
29	0x3c3efeb7	0.011657408
30	0x3c6fe505	0.014642005
31	0x3ad030e3	0.001588371
32	0x3bbc2411	0.005741604
33	0xba12ba9a	-0.0005597264
34	0x3bab211e	0.0052224537
35	0x3c94ff41	0.01818812
36	0xbb041996	-0.0020156852
37	0x3bd1a860	0.0063982457
38	0x3b66329f	0.0035125387
39	0x3bbfdbed	0.0058550746
40	0xbba69c5b	-0.005084557
41	0x3c57d576	0.013173452
42	0x3b5d45fd	0.003376364
43	0xba352014	-0.0006909382
44	0x3ba129e5	0.0049183243
45	0xbb87d5d0	-0.0041453615
46	0x3aca96c5	0.001545631
47	0x3c082356	0.008309206
48	0x3c285192	0.010273354
49	0x3bd8671b	0.006604088
50	0x3bc10af1	0.005891197
51	0x3c2e48ad	0.010637444
52	0x3bca579a	0.0061749937
53	0xbbd4228f	-0.0064738463
54	0xbbfebd1c	-0.0077740084
55	0xbb850d14	-0.004060397
56	0x3b4eafa2	0.003153779
57	0x3ac15e46	0.0014752827
58	0x3c1869b1	0.009302543
59	0x3bf29a13	0.007403621
60	0x3be00528	0.006836552
61	0x3c7a0142	0.015259089
62	0xba4e8496	-0.0007878033
63	0x3c50ff38	0.012756161
64	0x3b237506	0.0024941578
65	0xbc2c3537	-0.010510734
66	0x3c2954bf	0.010335146
67	0x3c033d56	0.008010229
68	0x3c523e36	0.012832215
69	0x3c053043	0.008129182
70	0x3bed26fb	0.007237313
71	0xbb2b5793	-0.0026144728
72	0xbb0cd04a	-0.0021486455
73	0x3bd53b93	0.006507346
74	0x3c9d0182	0.019165758
75	0x3c1ba4d9	0.009499752
76	0xbbadabf4	-0.0053000394
77	0xbc0d7322	-0.008633407
78	0x3c1cb0c9	0.009563633
79	0x3c38f5ba	0.0112890545
80	0x3b8ee879	0.004361209
81	0xbacd54b8	-0.0015665507
82	0x3b662e0a	0.0035122656
83	0x3c63271c	0.013864305
84	0xb839df79	-4.4315562e-05
85	0x3bc202e8	0.0059207566
86	0xbb96366e	-0.0045841252
87	0xb98f131c	-0.00027289323
88	0xbc05fee7	-0.008178449
89	0xbc01fd9b	-0.007933999
90	0x3b5dc764	0.003384077
91	0x3c6f51ee	0.014606936
92	0xba27232f	-0.0006375787
93	0x398029bb	0.00024445154
94	0x3af5f304	0.0018764441
95	0x3c05829b	0.008148815
96	0x3c80acb3	0.01570735
97	0x3c88775c	0.016658477
98	0x3bf84784	0.0075768847
99	0x3c6e6398	0.014550112
100	0x3c25adf4	0.010112274
101	0x3bfadecf	0.0076559554
102	0x3c5449f6	0.012957087
103	0xba7c8a56	-0.0009633651
104	0x3c6c3962	0.014417978
105	0x3b3298ce	0.0027251723
106	0xb75f3891	-1.3305006e-05
107	0x3c26de25	0.010184799
108	0x3c1a0790	0.009401217
109	0x3c0211e4	0.007938836
110	0x3c6f15c4	0.014592592
111	0x3b03b90a	0.0020099306
112	0x3bb277f8	0.0054464303
113	0xbb0e6598	-0.0021728035
114	0x3b81dc6a	0.003963043
115	0xbb474fcb	-0.003041255
116	0x3955877c	0.00020363735
117	0x3be001b2	0.0068361396
118	0xbc7fa634	-0.015603591
119	0x3bc064cb	0.0058713905
120	0x3af27332	0.0018497466
121	0x3c06719e	0.008205799
122	0x3b72a6c9	0.0037025681
123	0x3c8daa0a	0.017292995
124	0xba983211	-0.0011611601
125	0x3b165f56	0.0022945008
126	0x3bf55a9b	0.0074876077
127	0x3be2c36e	0.0069202697
128	0x3c0d2510	0.008614793
129	0x3b87d321	0.0041450416
130	0x3b5dbf28	0.0033835862
131	0x3c0c932e	0.008580012
132	0x3c434930	0.011919305
133	0xbaf877b5	-0.0018956574
134	0x3b6a3343	0.003573612
135	0x3ba7f682	0.0051258216
136	0x3bdf3f60	0.006812975
137	0x3ba8a866	0.005147028
138	0xb9dff50a	-0.00042716443
139	0xb9857da9	-0.0002546136
140	0xbbe2f297	-0.0069258916
141	0x3b1aece0	0.0023639724
142	0x3bee1f6e	0.0072669303
143	0x3bc4eb37	0.006009485
144	0x3bf0f1c7	0.007353041
145	0xbb161cd5	-0.0022905369
146	0x3c084fb1	0.008319781
147	0x3b17664f	0.0023101752
148	0x3b924215	0.004463444
149	0x3a2a7c23	0.0006503483
150	0x3b4b3ccf	0.0031011587
151	0x3c06063c	0.008180197
152	0x3be1d60a	0.0068919705
153	0x3b92fd40	0.004485756
154	0x3beb3dc5	0.0071789944
155	0x3c7c7e66	0.015410995
156	0x3c7bdce1	0.015372486
157	0xba0e5a79	-0.00054303516
158	0x3c882825	0.016620705
159	0x3cf7ed9c	0.030264668
160	0x3af84569	0.0018941584
161	0xbbe9acf6	-0.0071312143
162	0x3c47f4a1	0.01220432
163	0xbab0944e	-0.0013471933
164	0x3c125679	0.0089317495
165	0xbb9aa3b7	-0.0047192234
166	0x3b80d909	0.0039321226
167	0xbb386a88	-0.002813967
168	0x3c87da31	0.016583534
169	0x3b7908b2	0.0037999568
170	0xbc005ce8	-0.007834651
171	0x3c0d4b9f	0.0086239865
172	0x3c3e3c6f	0.011611088
173	0xbb90670d	-0.004406816
174	0x3bbadf03	0.0057028546
175	0x3bc5d731	0.0060376157
176	0x3c7118d8	0.014715396
177	0xbbd7e009	-0.0065879864
178	0x3bd402a5	0.006470042
179	0x3bc433d3	0.0059876232
180	0x3bf21666	0.007387924
181	0x3c0c3da6	0.00855962
182	0xba783afa	-0.00094692374
183	0x3a8d6ded	0.0010790207
184	0x3c61c1cb	0.013779114
185	0x39ae5612	0.00033251994
186	0xbb2cebad	-0.002638559
187	0x3bb50416	0.0055241687
188	0x3b38c6e9	0.0028194732
189	0xbb1316fa	-0.0022444115
190	0xbc584b9a	-0.013201619
191	0x3c103c0a	0.008803377
192	0x3c59f60e	0.013303293
193	0x3bab0b2d	0.005219838
194	0x3bd41c25	0.0064730817
195	0x3bf8e1c1	0.0075952713
196	0x3bd9710e	0.0066357916
197	0x3c4f31b8	0.012646131
198	0x3c6db78e	0.014509095
199	0x3c9c61d3	0.019089615
200	0xba1c9dbc	-0.0005974432
201	0x3a473b61	0.00076000957
202	0x3bede7d7	0.0072603035
203	0x3b7dd1b3	0.0038729727
204	0x3bdeb43a	0.006796387
205	0xbbecddbd	-0.0072285817
206	0x3c6f7b06	0.014616733
207	0x3874c488	5.8357167e-05
208	0xbbbdbc42	-0.0057902643
209	0x3c76623e	0.015038071
210	0x3c1e3e88	0.009658463
211	0xba132f54	-0.00056146574
212	0x3b1fc9b0	0.002438169
213	0x3b702ee3	0.003664904
214	0x3bcc66ca	0.0062378393
215	0x3bdf25ce	0.0068099266
216	0x3c0a8879	0.008455389
217	0xbb60d9bb	-0.0034309465
218	0xb9d75f22	-0.00041078875
219	0x3b41dab2	0.0029579815
220	0x3ae52bd7	0.0017484379
221	0x3c3385fb	0.010957236
222	0x3b7fa256	0.0039006672
223	0x3ca2e134	0.019882776
224	0x3be3e525	0.0069548064
225	0x3aa39d63	0.0012482818
226	0x3a869bc0	0.0010269806
227	0x3b867270	0.0041029975
228	0xbae9f828	-0.0017850446
229	0x3c818f3c	0.01581537
230	0x3b8eaa9f	0.0043538357
231	0x3b9f4e4c	0.0048616286
232	0x3be05640	0.0068462193
233	0x3b4f3f6e	0.00316235
234	0x3bf7f052	0.00756649
235	0x3a2962df	0.00064615713
236	0x3c2b1891	0.010442869
237	0x3c081f7a	0.008308286
238	0x3b4fbdbe	0.0031698789
239	0xbba6bd49	-0.0050884825
240	0x3c2b8ace	0.010470105
241	0x3c40a7b5	0.0117587345
242	0x3c18ac8e	0.009318484
243	0x3ab8b098	0.0014090715
244	0xbac2cc37	-0.0014861886
245	0xbb9ca6b2	-0.004780614
246	0x3be946d3	0.0071190386
247	0x3bf37b7a	0.007430491
248	0xbb21a0bc	-0.0024662456
249	0x3526e6de	6.2175775e-07
250	0x3bf5c5a1	0.007500366
251	0x3b40d60d	0.002942446
252	0x3bccf6da	0.006255013
253	0x3c3ca04c	0.011512827
254	0x3be617f2	0.0070218975
255	0x3bb4230d	0.0054973424

network_body._body_endoder.seq_layers.0.weight f4 [256, 119]
0	0xbda50d21	-0.08059145
1	0xbd9060ae	-0.0704969
2	0x3b5ae262	0.0033399095
3	0xbd5746da	-0.052557804
4	0xbd6c6db5	-0.057721812
5	0x3cfae194	0.030625142
6	0x3df892db	0.121373855
7	0x3ca5a53a	0.020220388
8	0x3e1b4714	0.15163833
9	0x3df8a1e2	0.12140252
10	0xbdc36572	-0.095408335
11	0xbd6e3907	-0.058159854
12	0xbcbf0f49	-0.023322718
13	0xbc984daa	-0.01859172
14	0xbd991a9b	-0.07475778
15	0xbd82006b	-0.06347736
16	0xbd0b56b7	-0.034018245
17	0xba1dd518	-0.0006020828
18	0x3e17f1bf	0.14838313
19	0xbd36ebab	-0.044658344
20	0x3c65f8ff	0.014036416
21	0xbe0ab90e	-0.13547155
22	0x3cfc50e2	0.030800287
23	0xbcc28311	-0.023744138
24	0x3d4eb59d	0.05046617
25	0x3d6dba18	0.0580388
26	0xbe16ec42	-0.14738563
27	0x3d9d23ed	0.07672868
28	0x3c4dbb34	0.01255684
29	0xbd89014c	-0.066897005
30	0xbdd2677d	-0.10273645
31	0x3c47cadd	0.0121943625
32	0xbc6e0f5f	-0.014530032
33	0xbdde22a9	-0.10846455
34	0x3cab3438	0.020898923
35	0xbcc27f50	-0.023742348
36	0xbe2c171f	-0.16805695
37	0x3dfa3e4e	0.12218915
38	0x3e4dd142	0.20099357
39	0x3da14d8f	0.07876121
40	0x3e355de8	0.17711604
41	0xbd7536d2	-0.059866734
42	0x3dc818a9	0.097703286
43	0x3d320a45	0.043466825
44	0xba389a2d	-0.0007042017
45	0x3ce6e7eb	0.028186759
46	0xbdbcb56d	-0.09214292
47	0x3b93544b	0.0044961325
48	0x3c6f381f	0.014600783
49	0xbe0defea	-0.13861051
50	0x3ce6d9cc	0.028180026
51	0x3c6ba51b	0.014382626
52	0xbd9c2b12	-0.076254025
53	0xbda422df	-0.08014464
54	0xbced14f0	-0.028940648
55	0xbdd2beec	-0.10290322
56	0xbe14db7d	-0.14536853
57	0x3e2e4aa9	0.17020668
58	0x3d1e606e	0.03866618
59	0xbe06bc99	-0.13157882
60	0xbd940520	-0.0722754
61	0x3c06829e	0.0082098525
62	0xbdbc20ed	-0.091859676
63	0xbd48cf03	-0.049025547
64	0x3df20c29	0.118187256
65	0x3d2e4d63	0.04255427
66	0xbd4212c2	-0.04738117
67	0xbe164e4e	-0.14678308
68	0x3d117b4c	0.035517976
69	0x3c97d4d1	0.018534096
70	0x3d8eebaf	0.06978547
71	0xbdc574d6	-0.09641425
72	0xbdc445a7	-0.09583598
73	0xbd3b4200	-0.04571724
74	0xbc2d81eb	-0.010590057
75	0x38a926c3	8.065768e-05
76	0x3dc872ba	0.09787507
77	0xbc6f09ef	-0.014589771
78	0x3db7bdc5	0.089717425
79	0xbd5c512d	-0.053788353
80	0x3cd34983	0.025791889
81	0x3d0eba6c	0.034845755
82	0xbe541eac	-0.20714825
83	0xbdc39741	-0.09550334
84	0xbd37bf52	-0.04486019
85	0xbd4dd8d4	-0.05025561
86	0xbe0daba0	-0.13835001
87	0x3d487cf7	0.0489473
88	0x3df15655	0.11784045
89	0x3d9d5b64	0.07683447
90	0xbd5e3cf4	-0.05425735
91	0xbdcb53c6	-0.09928088
92	0x3dfb4d57	0.12270611
93	0xbda4dcb2	-0.08049907
94	0xbda9bc81	-0.082879074
95	0xbdaf3eec	-0.08556923
96	0x3c242bca	0.010020206
97	0xbdd24457	-0.10266941
98	0xbd777247	-0.060411718
99	0x3d9ad8ef	0.07560908
100	0xbd2b3f5d	-0.041808475
101	0x3cedb189	0.02901532
102	0xbd64fd38	-0.05590555
103	0x3dd0be77	0.10192578
104	0xbd9d97c6	-0.07694964
105	0xbe92248b	-0.28543505
106	0x3d0715a2	0.032979615
107	0xbd086f56	-0.033309303
108	0x3b2c8e58	0.002632996
109	0xbe0bd432	-0.13655165
110	0x3d482fa5	0.048873562
111	0xbd808d2e	-0.06276928
112	0x3d109855	0.035301525
113	0x3e1a97de	0.15096995
114	0x3bad5793	0.0052899807
115	0x3da138ac	0.078721374
116	0xbd503dd6	-0.05084022
117	0xbe21a0f5	-0.15784056
118	0xbc8b5c27	-0.017011715
119	0xbd4b39e3	-0.049615752
120	0xbd83c5ab	-0.064341865
121	0xbe0f1ecf	-0.13976596
122	0xbe0fa4be	-0.14027688
123	0xbe0636cb	-0.1310684
124	0x3e0ceb5a	0.13761654
125	0xbb713013	-0.0036802336
126	0x3c9dcd6e	0.019262996
127	0xbe171f01	-0.14757921
128	0xbd80dc18	-0.062919796
129	0xbdc8c79e	-0.09803699
130	0xbd8e1b65	-0.06938819
131	0x3e33525d	0.17511888
132	0x3d088dcd	0.033338357
133	0xbc5d7d4b	-0.013518642
134	0xbdb40161	-0.087893255
135	0x3bfd020b	0.007721191
136	0x3d44dace	0.04806023
137	0xbb4538ef	-0.003009375
138	0xbdacad05	-0.08431438
139	0xbd9f4639	-0.07777066
140	0xbdcbf279	-0.09958357
141	0x3d8ad292	0.06778444
142	0x3dcf3554	0.101175934
143	0x3dba143c	0.09085891
144	0x3d0765b7	0.033055987
145	0xbde00e1c	-0.10940191
146	0xbd16f4d1	-0.03685457
147	0xbceab6c0	-0.028651595
148	0xbdbd0dbb	-0.092311345
149	0x3c8ccc74	0.017187335
150	0x3c8f99c7	0.017529381
151	0x3dc4ae60	0.09603572
152	0xbd74c8c0	-0.059761763
153	0x3e2e35fa	0.17012778
154	0x3e075119	0.1321453
155	0x3e361a4d	0.1778347
156	0xbc61343a	-0.013745362
157	0x3db122f4	0.08649245
158	0xbd47f696	-0.048819147
159	0x3e3432e2	0.17597535
160	0xbc1a8965	-0.0094321715
161	0x3da8aed2	0.08236469
162	0xbe317e97	-0.17333446
163	0xbcdceca3	-0.026968306
164	0x3d082dfd	0.033246983
165	0x3b892e96	0.0041864617
166	0x3da0e6bf	0.07856511
167	0xbc6d8745	-0.014497583
168	0xbda9eed3	-0.08297505
169	0xbda4dbe5	-0.08049754
170	0x3d7105c3	0.058843385
171	0x3e1e8efb	0.1548423
172	0x3c276dc1	0.010219038
173	0x3d2fd637	0.0429289
174	0x3d4af235	0.049547393
175	0xbb636a76	-0.0034700907
176	0xbe0ac5a1	-0.13551952
177	0x3b5ce7ee	0.0033707577
178	0x3d025550	0.03181964
179	0xbcee8792	-0.02911738
180	0xbcea7830	-0.028621763
181	0xbe0122fb	-0.12611
182	0x3cd90e0d	0.026495958
183	0xbd9ab102	-0.07553293
184	0x3e59a505	0.21254356
185	0x3e428baf	0.18998598
186	0xbd3a612a	-0.04550282
187	0x3d78740e	0.060657553
188	0xbe19b4e6	-0.15010414
189	0x3c1e5762	0.009664388
190	0x3da91b4b	0.08257159
191	0x3d8d9f6e	0.069151744
192	0x3d810aaf	0.06300866
193	0x3bc2ffa0	0.005950883
194	0xbd1983d5	-0.03747924
195	0xbd565be5	-0.05233373
196	0xbd2a555d	-0.041585315
197	0x3c81062f	0.015750019
198	0x3cc38db4	0.02387128
199	0xbda11657	-0.07865589
200	0x3dbd2691	0.092358716
201	0xbd262641	-0.040563826
202	0xbd23456f	-0.03986114
203	0xbdb14ed4	-0.086576134
204	0x3d5ec8e9	0.05439082
205	0x3dd4528d	0.10367308
206	0xbd591d4c	-0.053006455
207	0xbda93668	-0.0826233
208	0x3defaf6a	0.117033795
209	0x3c92c05a	0.017913986
210	0xbe8e2c32	-0.27768093
211	0x3dabba8a	0.08385189
212	0xbd2a3c17	-0.041561212
213	0x3d90599a	0.0704834
214	0xbdb7d8b9	-0.089768834
215	0xbdf974fa	-0.12180515
216	0xbe1f852e	-0.15578148
217	0xbc0b8584	-0.008515719
218	0x3d456fd1	0.04820234
219	0x395a59c0	0.00020823535
220	0xbd909a84	-0.070607215
221	0xbd88f5c4	-0.06687501
222	0x3cf9cd73	0.030493474
223	0x3dad5818	0.08464068
224	0x3de1406e	0.10998617
225	0xbd9f3058	-0.07772893
226	0xbe4314e4	-0.19050938
227	0xbc27ca64	-0.010241125
228	0xbc8a98f5	-0.016918639
229	0xbdb01702	-0.085981384
230	0x3c2416b0	0.010015175
231	0xbe1693d3	-0.14704828
232	0xbd105c1e	-0.0352441
233	0x3e5b1398	0.21394193
234	0x3d26bf88	0.040710002
235	0xbe4fbe5f	-0.20287465
236	0xbd92b93b	-0.07164236
237	0xbd342568	-0.043980986
238	0x3d38fbac	0.045161888
239	0xbb862be8	-0.0040945895
240	0xbd8d76f7	-0.06907456
241	0xbde9a180	-0.11407757
242	0x3d914a6b	0.07094272
243	0x3d10798c	0.035272166
244	0x3c88d7f2	0.016704533
245	0xbe5e93dd	-0.21736093
246	0x3cb574a7	0.02215035
247	0xbc32a461	-0.010903449
248	0x3c675ed5	0.014121731
249	0xbdbad7da	-0.09123202
250	0xbd23d034	-0.03999348
251	0xbe136f3c	-0.14397901
252	0xbd88e0d1	-0.06683505
253	0x3c2fd7cc	0.010732602
254	0xbd8e2352	-0.069403306
255	0x3d96140b	0.07328042

network_body._body_endoder.seq_layers.2.bias f4 [256]
0	0x3c028ae2	0.007967683
1	0x3c46c72c	0.012132447
2	0x3c0ca597	0.008584402
3	0x3c59eed6	0.013301572
4	0x3b8a5769	0.004221846
5	0x3bf87f39	0.0075835255
6	0x3b4b0c6d	0.0030982748
7	0x3c69c10a	0.0142672155
8	0x3c9b4b65	0.01895685
9	0x3b9cf43a	0.0047898563
10	0xbbebdcb3	-0.0071979403
11	0xbb293d17	-0.0025823766
12	0x3b8abbbe	0.0042338064
13	0x3affdfab	0.0019521614
14	0x3b8ac886	0.00423533
15	0x3c02e851	0.007989959
16	0x3c50bba0	0.012740046
17	0x3c007cab	0.007842223
18	0xbbf907f0	-0.007599823
19	0x3cab09a7	0.020878626
20	0xbba76fca	-0.005109762
21	0xbc21f6e2	-0.009885522
22	0x3c0b5fe2	0.008506747
23	0xbba00cd8	-0.0048843436
24	0x3b7cd4bd	0.003857895
25	0x3ba58ded	0.0050523193
26	0xbab6b6db	-0.0013939993
27	0x3b2d9e41	0.0026492032
28	0xbb16e096	-0.0023022047
29	0x3c219f15	0.009864588
30	0xbb059494	-0.002038275
31	0xbb1b2a84	-0.0023676464
32	0x3c28d91b	0.010305668
33	0x3b95baab	0.0045693717
34	0x3b50ea08	0.0031877775
35	0x3ba9d47b	0.0051828003
36	0x3a60bc35	0.0008572967
37	0x3a38f1b1	0.0007055058
38	0x3af33b4d	0.0018557102
39	0x3ad14000	0.0015964508
40	0xbb1731b2	-0.0023070392
41	0x3c735e52	0.014854031
42	0x3a2b5049	0.0006535096
43	0x3c04b426	0.008099591
44	0x3bd6d9a8	0.0065567084
45	0x3a84ea4a	0.0010140624
46	0x3b5efff7	0.0034027079
47	0xbbcc3040	-0.006231338
48	0x3b4001ab	0.002929787
49	0x3ba71c8f	0.00509984
50	0x3c0b007d	0.008484003
51	0x3c1a4c16	0.009417554
52	0xba90a6dc	-0.0011036056
53	0xbc0758b1	-0.008260892
54	0x3bb1f448	0.005430732
55	0x3c9a5194	0.018837728
56	0x3bceba62	0.0063088397
57	0xbb0c5044	-0.0021410147
58	0x3b513225	0.0031920758
59	0x3b398286	0.0028306558
60	0x3c273874	0.010206331
61	0x3c07b195	0.008282085
62	0x3c1a106c	0.009403329
63	0x3bf49465	0.007463979
64	0xbbd5fd4c	-0.0065304395
65	0xbb8358dc	-0.0040083956
66	0x3b9af265	0.0047286027
67	0x3c118135	0.008880903
68	0xbb11d82c	-0.0022254093
69	0x3bb78dd8	0.005601626
70	0xbb061dd8	-0.0020464566
71	0x3928991a	0.00016078763
72	0x3bfed95b	0.0077773756
73	0xbb36140d	-0.0027782947
74	0xbacd5514	-0.0015665614
75	0x3b3f5741	0.0029196294
76	0x3c308c93	0.010775703
77	0x3b86dc5a	0.0041156234
78	0xbbe2612c	-0.0069085564
79	0xbb697e0c	-0.0035628108
80	0x3bab4206	0.0052263765
81	0x3c0fcfb2	0.008777546
82	0xbafe8406	-0.0019418008
83	0xbbbd92c4	-0.005785318
84	0x3bc73e5f	0.0060804333
85	0xbbf5c249	-0.0074999672
86	0x3c47a358	0.01218494
87	0x3998ddc2	0.00029156922
88	0x3b0d26a5	0.0021537927
89	0xbc6ec946	-0.0145743545
90	0x3b6bc86a	0.003597761
91	0x3a0cbd1a	0.00053687545
92	0xbbab674d	-0.0052308203
93	0x3c197c14	0.009367961
94	0x3bf3bc95	0.007438252
95	0x3c3e5e1b	0.011619116
96	0xbb563dbe	-0.003269061
97	0xbafe5783	-0.0019404743
98	0x3c223f7b	0.00990283
99	0xbb243a65	-0.002505922
100	0x3a064a13	0.0005122732
101	0x3b52c80d	0.0032162697
102	0x3c0a052e	0.0084240865
103	0x3abede88	0.0014562169
104	0x3b7a5d83	0.003820271
105	0x3c535f0f	0.012901082
106	0x3b591d4f	0.0033129042
107	0x3bb0dbbd	0.0053972886
108	0x3c3660ea	0.011131505
109	0x3bf925dc	0.00760339
110	0x3c40f941	0.011778177
111	0xba805760	-0.0009791665
112	0xba904884	-0.001100794
113	0x3be633fc	0.00702524
114	0x3ae22ade	0.0017255207
115	0x3b884d08	0.0041595735
116	0x3c5eaf45	0.013591592
117	0x3c92eddf	0.017935691
118	0xbc852633	-0.016253566
119	0x3b56795d	0.0032726147
120	0x3bc131c7	0.0058958265
121	0x3c4fc1b4	0.01268046
122	0x39fdd6cb	0.00048415954
123	0x3b2edf51	0.00266834
124	0x3a50d297	0.00079659506
125	0x3b9aa96f	0.004719905
126	0x3b340e2a	0.0027474263
127	0xbc1e2cc4	-0.009654228
128	0x3bc4166f	0.0059841196
129	0xbbcf55f1	-0.0063273837
130	0xbb2469c4	-0.0025087455
131	0x3a72efb7	0.00092672877
132	0x3be1d017	0.0068912613
133	0xbb06e20f	-0.0020581519
134	0x3c3aba3a	0.011396939
135	0x3c20126d	0.009770018
136	0xbb9c2ec3	-0.0047663166
137	0x3b8d59e8	0.004313696
138	0x3be88298	0.007095646
139	0xbb3d0fed	-0.0028848604
140	0xbb9f9707	-0.004870299
141	0x3bd8c339	0.006615069
142	0x3a536ec5	0.0008065517
143	0x3c0632ea	0.00819085
144	0x3c16fb12	0.009215133
145	0x39f1dc9b	0.00046131466
146	0x39ce44cb	0.00039342637
147	0x3c50ac62	0.012736412
148	0x3b26cc54	0.002545138
149	0x3b192724	0.0023369277
150	0x3ca7afd6	0.020469587
151	0xbbecd2c5	-0.007227274
152	0x3c427f38	0.011871152
153	0x39eb9d54	0.00044939911
154	0x3c1ef538	0.009702019
155	0x3b684913	0.0035443946
156	0x3c100256	0.008789619
157	0x3ba1faef	0.0049432437
158	0xbbe71c03	-0.0070529
159	0xbb5945e8	-0.003315324
160	0xbbe12c28	-0.006871719
161	0x3b2603d3	0.002533187
162	0xbb372694	-0.0027946578
163	0x3b81a1d4	0.003956059
164	0x3a9368b2	0.0011246412
165	0x3c7bf8bd	0.015379128
166	0x39f0f960	0.00045962166
167	0x3bb93da7	0.0056531015
168	0xbbb802b9	-0.005615559
169	0x3b8c9cc8	0.0042911507
170	0xbbac5726	-0.0052594123
171	0x3c2b325c	0.010449018
172	0x3ba9c28b	0.005180662
173	0xbb7cdd86	-0.0038584187
174	0x3ae067fc	0.0017120834
175	0x392fcd16	0.00016765701
176	0x3c45cb83	0.012072447
177	0x3a800632	0.0009767471
178	0xb9404d14	-0.0001833926
179	0x3bebd6c3	0.0071972325
180	0x3bd4168d	0.006472415
181	0x3c1b3296	0.00947251
182	0x3c87292a	0.01649912
183	0x3bbfd76a	0.005854537
184	0xb955361a	-0.00020333417
185	0xbc087fc0	-0.008331239
186	0x3c25acc4	0.010111991
187	0x3c069ec6	0.0082165655
188	0x3bc86c4a	0.0061164247
189	0xbb95f635	-0.0045764693
190	0xbb82269a	-0.003971887
191	0x3ae939c8	0.0017793709
192	0xbb78da34	-0.0037971856
193	0x3a8b5c7f	0.0010632424
194	0xbb9de39b	-0.0048183925
195	0x3b106a8e	0.0022036168
196	0xbb19debf	-0.0023478714
197	0x3ba6e1de	0.0050928434
198	0x3bb5ead7	0.0055516767
199	0x3baa4f19	0.0051974175
200	0x3b1763a2	0.0023100157
201	0x3b869628	0.0041072555
202	0xbb18f537	-0.0023339519
203	0x3c075bef	0.008261665
204	0x3b25c34a	0.0025293403
205	0x3c3561e5	0.011070703
206	0xbbde862b	-0.0067908964
207	0x3b6b107b	0.0035867977
208	0x3bf2beff	0.0074080224
209	0x3c695835	0.014242222
210	0x3c570eae	0.0131260585
211	0x3b0846f8	0.0020794254
212	0x3c2691dc	0.0101666115
213	0x3bc90852	0.006135025
214	0x3c48493d	0.012224493
215	0xbbfe7cda	-0.0077663483
216	0x3baf6244	0.0053522903
217	0x3b7a2aa9	0.00381724
218	0x3baf7113	0.0053540557
219	0xbbb983cc	-0.0056614634
220	0x3af241de	0.0018482765
221	0x3a438140	0.00074579194
222	0x3bce943f	0.0063042934
223	0xbbaf5ee1	-0.0053518866
224	0xbbdc1c80	-0.0067172647
225	0xbb1f7ada	-0.00243347
226	0x3c4440fb	0.011978383
227	0xbaa631b6	-0.001267961
228	0xbac32731	-0.0014888999
229	0x3bb95833	0.005656266
230	0x3c00c0d4	0.007858474
231	0x3c5e8b2f	0.013582989
232	0xbb2d991c	-0.0026488965
233	0x3bbc539e	0.0057472726
234	0xbb263e79	-0.0025366826
235	0x3c591404	0.013249401
236	0xbb9452af	-0.004526458
237	0x3add9afb	0.001690715
238	0x3c223c09	0.009902009
239	0xba799b90	-0.0009521777
240	0x3ae9bded	0.0017833092
241	0x3bdf53e9	0.006815423
242	0x3b9744a9	0.004616339
243	0xbbd5341c	-0.006506456
244	0x3bf1b561	0.0073763584
245	0x3bc3b375	0.0059723207
246	0x39be8408	0.00036337995
247	0x3c5066c2	0.012719812
248	0xbb5a774f	-0.0033335274
249	0xbaf0d970	-0.0018375348
250	0x3a8541d1	0.001016671
251	0xbb37b7de	-0.0028033177
252	0x3bd5ad0d	0.0065208734
253	0xbafc333d	-0.0019241344
254	0x3b0550e8	0.0020342413
255	0x3bbe7981	0.0058128242

network_body._body_endoder.seq_layers.2.weight f4 [256, 256]
0	0xbcb45cbd	-0.022016877
1	0xbda00cd7	-0.07814949
2	0xbd8d1c48	-0.0689016
3	0x3d04f26f	0.032457765
4	0xbda252cb	-0.07925948
5	0x3d09cdc8	0.033643514
6	0x3d9980bc	0.07495257
7	0xbbafcda3	-0.00536509
8	0xbc5383be	-0.012909828
9	0x3d1499d3	0.03627951
10	0xbdff8554	-0.12476602
11	0xbc982670	-0.018573016
12	0xbccc7b0e	-0.02496102
13	0xbd9b1830	-0.07572973
14	0x3cbb9414	0.022897758
15	0x3db0c39f	0.08631062
16	0x3cedbc6b	0.029020509
17	0x3dcf887f	0.101334564
18	0xbcec0057	-0.028808756
19	0x3be4b2af	0.0069793086
20	0xbc82d88f	-0.015972404
21	0xbdbd30f3	-0.09237852
22	0xbd8ac5bb	-0.06775995
23	0x3d00495f	0.031319972
24	0xbbba666e	-0.00568848
25	0x3ca2462e	0.019808855
26	0xbcebf6c8	-0.028804198
27	0x3db16df7	0.08663552
28	0xbd425763	-0.04744662
29	0x3d3777d3	0.044792008
30	0x3c05e1f7	0.00817155
31	0x3d692cfd	0.05692767
32	0x3c26e608	0.01018668
33	0x3ca162a4	0.019700356
34	0xbd7f234a	-0.062289514
35	0xbb84b244	-0.004049571
36	0x3d60e202	0.054903038
37	0x3d80fdf5	0.062984385
38	0xbcf2fbae	-0.029661026
39	0x3d86d082	0.065827385
40	0x3dc61305	0.096715964
41	0x3c9394ec	0.018015347
42	0xbd3bb796	-0.045829378
43	0x3d5ca681	0.053869728
44	0x3daf8c77	0.085717134
45	0x3d1aba5e	0.03777539
46	0xbc26fded	-0.010192377
47	0x3d9afaa9	0.07567341
48	0x3dd76d50	0.105188966
49	0xbdaebf90	-0.085326314
50	0x3d3a6c1a	0.04551325
51	0x3db33d4f	0.08751928
52	0xbce35c3a	-0.027753938
53	0xba71b226	-0.00092199666
54	0xbba56df7	-0.005048509
55	0xbd1c3752	-0.038138695
56	0x3dafc425	0.085823335
57	0xbe140840	-0.14456272
58	0xbbe8dc9b	-0.0071063763
59	0xbdb10e82	-0.08645345
60	0x3d058996	0.032601915
61	0x3dcd4cf2	0.10024442
62	0xbcc135d5	-0.02358524
63	0x3dbdf463	0.09275129
64	0xbd3b96a5	-0.045797963
65	0x3c6f1e40	0.0145946145
66	0xba890bf9	-0.0010455839
67	0xbdbdfb7a	-0.09276481
68	0x3d87e116	0.066347286
69	0xbd0559e5	-0.032556433
70	0xbd261977	-0.04055163
71	0x3d8f600a	0.0700074
72	0xbdaa200b	-0.08306893
73	0xbd35bb08	-0.04436782
74	0x3da98fe0	0.08279395
75	0x3d7ca6ce	0.061682515
76	0xbdc0de17	-0.0941736
77	0xbd60db06	-0.054896377
78	0xbdd4b810	-0.1038667
79	0x3c86eb1c	0.01646953
80	0xbc173f07	-0.0092313355
81	0x3d2b084c	0.04175596
82	0xbc42e0d1	-0.011894421
83	0x3dc5b534	0.096537024
84	0x3c0637a6	0.008191979
85	0xbd8903b0	-0.066901565
86	0x3db86107	0.090028815
87	0x3d360a76	0.04444357
88	0x3af66dd8	0.0018801047
89	0xbe15efc3	-0.14642243
90	0xbc29037e	-0.010315774
91	0x3c88a180	0.016678572
92	0xbc18f56c	-0.009335857
93	0xbd54a138	-0.051911563
94	0xbcb31bae	-0.021863785
95	0x3d5e358f	0.054250296
96	0xbc3c8434	-0.011506129
97	0x3d8844c9	0.06653745
98	0xbd1e99eb	-0.038721006
99	0x3bb9d295	0.0056708553
100	0xbd34a2cd	-0.04410057
101	0xbe1dcad3	-0.15409403
102	0x3d082e66	0.033247374
103	0xbdc44045	-0.09582571
104	0x3c4828a1	0.012216718
105	0x3c58f0fa	0.013241047
106	0x3e0aea13	0.13565855
107	0xbe03fd02	-0.12889484
108	0xbd097fa6	-0.033569
109	0x3d0b30ad	0.033981968
110	0xbd167633	-0.036733817
111	0xbd02d2ac	-0.031939194
112	0xbdb14228	-0.086551964
113	0xbd34f030	-0.044174373
114	0x3e1de03d	0.15417571
115	0xbc4581a1	-0.012054832
116	0xbdc8d357	-0.09805935
117	0xbd85266c	-0.06501469
118	0xbc8bebe7	-0.01708026
119	0xbc05c4e0	-0.008164614
120	0x3d670c20	0.056408048
121	0xbcf5c208	-0.029999748
122	0xbdf15483	-0.117836975
123	0xbce37f13	-0.027770555
124	0xbd3f5076	-0.046707593
125	0xbcf23687	-0.029567016
126	0x3ca66e7e	0.020316359
127	0x3dd2ac3a	0.10286756
128	0xbd61705e	-0.055038802
129	0x3c0e74af	0.008694812
130	0xbd538608	-0.051641494
131	0x3dd832f0	0.105565906
132	0x3d93dad5	0.07219473
133	0xbd31c63d	-0.043401945
134	0x3d7dc69b	0.061956983
135	0x3da66e4d	0.08126507
136	0xbca673cc	-0.020318888
137	0xbdba1415	-0.090858616
138	0xbe066631	-0.1312492
139	0x3dc5e06e	0.09661947
140	0x3db1af4f	0.086760156
141	0x3d53abcb	0.051677506
142	0xbc63c443	-0.013901773
143	0x3d7f1015	0.062271196
144	0xbcbec379	-0.023286568
145	0xbd431567	-0.047627833
146	0x3cd2589c	0.025677018
147	0x3d20c9bf	0.0392549
148	0xbd4775fa	-0.048696496
149	0x3d6ecc50	0.058300316
150	0x3d7a4334	0.061099246
151	0xbc15958a	-0.009129891
152	0xbcc27542	-0.023737554
153	0x3d5e4e08	0.054273635
154	0x3d30e006	0.043182395
155	0xbc42362e	-0.011853738
156	0xbb792543	-0.0038016594
157	0x3daabd7e	0.08336924
158	0x3e0708ec	0.13186997
159	0xbd54cdbb	-0.051954012
160	0xbce00b91	-0.027349265
161	0xbc4bb0ba	-0.012432272
162	0xbcb23ce8	-0.021757558
163	0xbe04cacf	-0.1296799
164	0x3c1893d1	0.009312586
165	0x3bcbdab4	0.00622114
166	0xbcd6df8e	-0.026229646
167	0xbc18de60	-0.009330362
168	0xbbce023f	-0.006286889
169	0x3c4d6058	0.012535177
170	0xbbde57c2	-0.006785364
171	0xbd214255	-0.0393699
172	0x3d813891	0.06309617
173	0xbd1497b4	-0.036277488
174	0x3d04c246	0.032411836
175	0xbdd165be	-0.10224484
176	0x3d488779	0.04895732
177	0xbcdb6765	-0.0267827
178	0x3d81f95a	0.06346388
179	0x3c44c0d3	0.0120088635
180	0x3b9a6537	0.004711773
181	0x3d9185d6	0.07105605
182	0x3ce72b26	0.028218817
183	0x3caf8bba	0.021428932
184	0xbdcdc8cc	-0.100480646
185	0x3da3a5af	0.07990586
186	0xbc573450	-0.013135031
187	0x3d381e85	0.04495098
188	0x3dbcdcb6	0.09221785
189	0x3e2c5bf2	0.1683195
190	0xbe0e1915	-0.13876756
191	0xbd462ad5	-0.04838069
192	0x3ce94a26	0.02847774
193	0x3d5aef62	0.05345095
194	0xbc223512	-0.009900348
195	0x3d745361	0.05964983
196	0x3ceca334	0.028886415
197	0x3d796d50	0.060895264
198	0x3d0c5b77	0.034266915
199	0xbd3a1938	-0.045434207
200	0xbd02da4d	-0.03194647
201	0x3d93e467	0.07221299
202	0xbcda8d24	-0.02667863
203	0xbcf090e0	-0.029365957
204	0xbd6dcd8c	-0.058057353
205	0x3c351933	0.011053371
206	0x3b58487c	0.0033002188
207	0xbc9119a7	-0.017712427
208	0xbd538d1e	-0.05164825
209	0x3d48648b	0.04892401
210	0xbd6ff653	-0.058584522
211	0x3d4dc7fe	0.050239556
212	0xbd6b6f87	-0.057479408
213	0xbd10ba1c	-0.035333738
214	0xbdcbb00c	-0.09945688
215	0xbc234790	-0.009965792
216	0xbe30fbe9	-0.17283596
217	0xbc07f5a9	-0.008298316
218	0x3dc03665	0.09385375
219	0x3dd1da91	0.10246766
220	0x3d822974	0.06355563
221	0xbc85c2b5	-0.016328195
222	0x3d914174	0.07092562
223	0x3c77b3a2	0.015118511
224	0xbc558c51	-0.013033942
225	0xbddd1fcb	-0.1079708
226	0xbd3e1f3a	-0.0464165
227	0xbd4ece44	-0.05048968
228	0x3d8ad4c9	0.06778867
229	0xbd04d0fc	-0.032425866
230	0x3cd2d08d	0.02573421
231	0x3cb6eda1	0.022330107
232	0xbd38d3c8	-0.045123845
233	0xbd2aa34b	-0.041659635
234	0xbd04f8f2	-0.032463975
235	0x3db9ab74	0.09065905
236	0xbcc4a6cd	-0.024005318
237	0xbd7d2d59	-0.061810825
238	0x3d7eb3cf	0.062183198
239	0xbd2e3d67	-0.042539027
240	0xbd77ee16	-0.06052979
241	0xbd1fa21b	-0.038972955
242	0x3c46fb32	0.012144851
243	0xbca9256e	-0.02064773
244	0xbe105f30	-0.14098811
245	0xbc92071d	-0.017825658
246	0xbc15aea7	-0.009135879
247	0xbc650f4a	-0.013980696
248	0x3d9e2e79	0.07723708
249	0x3d1ed57e	0.03877782
250	0xb9e17fdf	-0.00043010616
251	0xbd58ad4f	-0.052899655
252	0xbd3371f8	-0.04380986
253	0x3d48360e	0.048879676
254	0x3da1a39f	0.07892536
255	0xbd9c73e3	-0.07639291
