results/H14/AgentController/AgentController-499972.onnx (onnx, 657373 bytes, 14 tensors)

83 f4 [116]
00000000: 2511 923e ed63 343e 56ff 6d3e 8632 833e
00000010: 8b60 933e d8a2 323e e4af 723e 9a60 833e
00000020: 4f50 8e3e b1de 343e 49a3 633e 4008 833e
00000030: cd4b 953e 205e 2f3e 60db 793e ed61 843e
00000040: 264f 893e 3e18 323e 063b 583e cec9 823e
00000050: 3286 983e cf6d 2d3e b1a6 813e 25e0 853e
00000060: 37a4 833e 4b26 2c3e 2f8b 4d3e bb70 823e
00000070: 61be 9a3e ba6f 2c3e 29bd 843e bb55 873e
00000080: 3251 803e 439a 283e c159 473e 64dd 813e
00000090: 4f4b 9a3e 8a82 2b3e e772 843e 97bb 883e
000000a0: 9034 7f3e decd 233e 1947 493e d97a 813e
000000b0: 3a99 983e 11bd 2b3e 5942 823e 2d9e 893e
000000c0: a1d1 803e 4c26 243e c845 4c3e 1971 803e
000000d0: 06e7 953e bfa8 2e3e 91d4 7b3e f8ea 893e
000000e0: 3645 833e 8fc1 283e b735 4f3e 5511 7e3e
000000f0: f981 923e 31bf 2f3e 1368 723e b167 893e
00000100: 87a2 833e 106d 2c3e 9b46 4d3e e161 793e
00000110: a51d 8e3e 828b 2f3e 240e 673e 28d5 873e
00000120: 7c1b 823e 1bb5 2a3e f584 4a3e 2a84 753e
00000130: dea6 893e 43ad 2e3e dcd1 5b3e e1af 853e
00000140: f8da 7f3e 06f7 283e 02f9 453e acbf 723e
00000150: bb90 843e 07f7 2a3e f7ff 503e f92e 833e
00000160: a7e5 7d3e 397e 273e b37d 443e e715 723e
00000170: 6d86 7f3e a226 263e a1d7 473e 89ab 803e
00000180: 3349 793e e6db 263e 64a8 3e3e 1563 723e
00000190: fc9a 783e f9b0 233e 8565 403e 1422 7c3e
000001a0: c052 763e 4dcd 253e f773 3b3e b34f 743e
000001b0: 7c1e 763e 5234 243e 4f8c 3c3e 1fc9 773e
000001c0: 7c1e 763e 5234 243e 4f8c 3c3e 1ec9 773e
0.28528705 0.17616244 0.23241934 0.25624484 0.28784594 0.17444932 0.2369991 0.2565964
0.27795646 0.17663075 0.22230257 0.25592232 0.29159394 0.1712575 0.24400091 0.2585596
0.26818198 0.1739206 0.21116266 0.2554459 0.29789883 0.1693642 0.25322488 0.2614757
0.25711223 0.16811483 0.20072626 0.25476632 0.30223373 0.16839495 0.25925568 0.26432595
0.25061947 0.16465096 0.19467832 0.2536422 0.3013558 0.16749015 0.25868914 0.2670562
0.24922395 0.15996501 0.19656028 0.25289038 0.29804403 0.16771342 0.25441244 0.2687849
0.25159934 0.16030234 0.19948494 0.25086287 0.2927782 0.17056559 0.24592806 0.2693708
0.2563874 0.16480087 0.20235334 0.24811299 0.28614786 0.17162777 0.23672514 0.26836923
0.25709936 0.16838479 0.20046465 0.24353744 0.27756992 0.17143062 0.22563988 0.26529813
0.25411594 0.16670649 0.19777282 0.23976198 0.26885122 0.17058282 0.21466774 0.26110747
0.24985874 0.16500482 0.1933327 0.2370593 0.2589167 0.16695796 0.20410143 0.25621775
0.24794637 0.16356744 0.19188575 0.23641168 0.24953623 0.16225675 0.1951585 0.2513087
0.2434433 0.16294822 0.18618923 0.2367061 0.24277872 0.15985478 0.18788727 0.24622375
0.24055004 0.16191597 0.18305956 0.23858528 0.24035066 0.16035584 0.18412898 0.24197815
0.24035066 0.16035584 0.18412898 0.24197814

86 f4 [3]
00000000: b28b ee40 d93f 963b d06e 0841
7.4545527 0.004585248 8.527054

action_model._continuous_distribution.log_sigma f4 [1, 2]
00000000: f5cf a4bb 8290 d3b9
-0.005029673 -0.00040352723

action_model._continuous_distribution.mu.bias f4 [2]
00000000: cfa5 28b8 a339 14bb
-4.0208743e-05 -0.0022617362

action_model._continuous_distribution.mu.weight f4 [2, 256]
00000000: 68e1 eb3c eeff 91bc 34a5 9f3b 1911 edbb
00000010: 0037 be3c c5c7 87bc 0e8f 51bc 3f38 ecbc
00000020: 2ed8 7ebc 68f8 2fbb b9f3 b63b a993 0d3c
00000030: b050 a53c 1ca0 973c 1ef3 c93c 872f 9b3c
00000040: f286 ad3c 8c7d 2fbd f7c3 203c 071b ffba
00000050: adcf bd3c ed56 53bc 7d2f cc3c 05cb 3c3c
00000060: c270 e0bc 24cb 2cbb fd2f 13bd 87c9 aa3c
00000070: 31fe 643d 156c 0ebd f96b 9f3b 2b89 e9bc
00000080: a504 a0bc e461 863c 1cdb 113d 4cca 673a
00000090: d7d0 acbc 2bf0 9ebc 9495 bebc f8dc cebb
000000a0: d937 cd3b 1dc7 c7bc b0fc 70ba 8818 a1bc
000000b0: 6aa5 533c 30e4 01bd dce3 8f3c 4506 1fbd
000000c0: 545a b73c 42f0 48bc adcd a63c aef7 f23c
000000d0: 204d 473c 422e ed3c c0b4 fabc a6be 2bba
000000e0: 3ad6 b7bc cd61 52bc a0a2 593c 2cdc 633c
000000f0: a891 373b cecb 713c 6d95 6cbb 5320 16bc
00000100: 552f cebc fd76 d7bc 7664 e839 8951 cd3c
00000110: 6c8d 933c 51e9 663c 7166 333c 660b a5bc
00000120: b529 dcbc b0cd 053d 1db9 23bc 5ecc d43b
00000130: 2f16 df3b fc26 893c 6d7d 293c 5179 8fbc
00000140: e495 98bc b5b6 52bc 5d47 1bbc 1bd0 4e3b
00000150: c130 ffbb 31df 11bd 4d79 a93b dd87 ec3c
00000160: 7145 9f3c 037b f33c 78bb ce3b 96c8 1c3c
00000170: 37be edba 24e3 eebb 23a9 bb3c 4928 1abb
00000180: bd0a 1cbd b755 a93c 7747 d3bc 31e4 eebc
00000190: ecd5 10bd 5625 c637 609e d9bb 709c 02bd
000001a0: 3410 283d 19ec 8cbc d213 19bc 9ac9 68bb
000001b0: 3200 c03c 006b 7c3b 0a98 233c 7574 9a3c
000001c0: fc53 2bbc 3f57 3abb 7416 643b 191b 4fbb
000001d0: 2064 0d3d 739d 98bc 2cda 8fbc 0e5b 843c
000001e0: 0083 023c 8b61 a5bc bdbf f13b dedf 29bd
000001f0: 4eb6 2abb c079 803b cd7f 2ebb 8649 733c
00000200: 73f9 583c bb71 e03c 45de c3ba dc21 053d
00000210: 337d 8b37 791c b7bc dffc 443d 4207 41bc
00000220: 27c7 9ebb 44dc 393c 9ca3 ad3c db56 9d3c
00000230: 7caf cb3b 41b2 1e3c 46a2 183d f0bf 19bd
00000240: 3a0f 0dbd 8986 a83c 751c f3bc 1f4f 4cbc
00000250: f08b 06bd 8f4c 77bc dd0a fdbc 7b70 c3bc
00000260: 4783 543c 9d91 c9bc 7388 21bc 76bf ef3c
00000270: d897 423c dcb9 c13b 331c 1abd a16a d9bc
00000280: 3087 513c af74 a9bc f078 24ba 0483 ebbc
00000290: 8771 983c 7413 803c 2512 ab3a 314f b43c
000002a0: a9c4 b63b 4650 0d3d 128d 2e3c 1503 6b3c
000002b0: 0087 f9bc 0743 dc3c 3ea4 1cbc 233f 243c
000002c0: 3fdb cb3b e083 e83c ea81 0d3c ca04 033a
000002d0: edd0 a5bc 491d 6c3c 439b 82bb 9fd5 123c
000002e0: 2c56 c03c 886d 3e3c 98ff aebc c3ff 46bc
000002f0: a8a7 603b d0b4 cd3c 2da0 8fbb d8fe f7bc
00000300: 14b8 a7bb 2f68 1dbd c12d b2bb d5a1 fcbc
00000310: 49d8 c73c 91da 063c bc03 143b 59fa c33c
00000320: 6374 4c3c 5cd3 04bc 4180 423c 052b cd3c
00000330: c783 613c 9e3f 59bc 45a2 1f3d 8612 13bb
00000340: d21a 963c 8205 95bc 5167 e63c e05e 09bd
00000350: 54f5 9bba 110d 87bc 812b 58bc 8bff 203a
00000360: 7e64 c839 ac26 6bbc bd99 d43c b2f2 95bb
00000370: fb3a c9bc efb2 163c ea49 523d cb01 ae3c
00000380: aa62 1eb9 9f6a bc3c dd71 81bc c3c9 9a3c
00000390: 9f71 c4bc 4c8a f9bc b2d5 fd3b c796 793c
000003a0: 64db 9e3c 09f6 d93c d17e 443d b765 06bd
000003b0: 4e0d 9ebc 4263 35bc ab95 bd3b 18b9 02bd
000003c0: a2a2 9abb d893 2dbc b113 b83c e7e5 bd3c
000003d0: cd85 f1bb a49c 9eba 55bc e43c f8fb e9bc
000003e0: a7ea 143d 4215 54bc 2ccc 9b3c 9810 4dbc
000003f0: c597 5cbc d081 2d3c 2ff4 ca3c d7f3 123b
0.028794006 -0.017822232 0.0048719887 -0.007234704 0.023219585 -0.01657475 -0.012790455 -0.028835414
-0.015554471 -0.0026850943 0.005583253 0.008641162 0.020180076 0.018508963 0.02465206 0.018943561
0.021182511 -0.04284434 0.009812347 -0.0019463011 0.023170317 -0.012899143 0.024924988 0.011523013
-0.027397517 -0.0026366198 -0.035934437 0.020848049 0.05590648 -0.034771044 0.0048651663 -0.02850779
-0.019533465 0.0164041 0.03560935 0.0008842095 -0.021095676 -0.01940163 -0.023264684 -0.0063129626
0.006262761 -0.024386937 -0.0009192927 -0.019665018 0.012917856 -0.031711757 0.017564707 -0.03882434
0.022381939 -0.012264313 0.020361746 0.029659119 0.012164384 0.028952722 -0.030603766 -0.0006551541
-0.022441018 -0.0128407 0.013283402 0.013907474 0.0028010402 0.0147580635 -0.0036099807 -0.00916298
-0.025169054 -0.026301855 0.00044325338 0.025063293 0.018011771 0.014093713 0.010949717 -0.020147037
-0.026875356 0.032666862 -0.009992865 0.006494089 0.0068080644 0.016742222 0.010344845 -0.017513903
-0.01862616 -0.012860944 -0.009477464 0.0031557146 -0.0077877943 -0.035613243 0.005171931 0.028873378
0.019442292 0.029721742 0.006308969 0.009569308 -0.0018138353 -0.007290261 0.0229078 -0.0023522547
-0.03809618 0.020670755 -0.025790913 -0.029161545 -0.03536026 2.3620825e-05 -0.006641194 -0.03188747
0.041031078 -0.017202424 -0.009343104 -0.0035520555 0.023437593 0.0038515925 0.009984979 0.01885436
-0.010457035 -0.002843335 0.0034803422 -0.0031601845 0.034519315 -0.018629765 -0.017560087 0.0161567
0.007965803 -0.020188114 0.0073775933 -0.041473262 -0.0026048603 0.0039207637 -0.0026626468 0.014849072
0.013243067 0.02739798 -0.0014943561 0.032502994 1.6628392e-05 -0.022352444 0.04809272 -0.011781516
-0.004845518 0.011344019 0.02119618 0.019206455 0.0062159877 0.009686054 0.03726413 -0.03753656
-0.03443835 0.020571964 -0.029676655 -0.012470036 -0.0328483 -0.015093937 -0.03088897 -0.023857346
0.012970752 -0.024605567 -0.009859192 0.0292661 0.011877023 0.0059120487 -0.03762455 -0.026540102
0.012788579 -0.020685522 -0.00062741246 -0.028748997 0.018608822 0.015634276 0.0013051672 0.022010418
0.005577643 0.034500383 0.010653751 0.0143439965 -0.03045988 0.02688743 -0.009560643 0.010024819
0.0062212045 0.028383195 0.008636931 0.0004997967 -0.020241225 0.014411279 -0.003985794 0.008962064
0.02347859 0.011622794 -0.021362111 -0.012145939 0.0034279618 0.025110632 -0.004383108 -0.030272886
-0.0051183794 -0.038429435 -0.005437583 -0.030838886 0.024395125 0.008230821 0.0022585234 0.023923086
0.012478921 -0.008107033 0.011871398 0.025044927 0.013764328 -0.013259796 0.03897311 -0.002244146
0.018323336 -0.018191103 0.028125437 -0.033537745 -0.0011898675 -0.016485723 -0.013193966 0.00061415945
0.00038221845 -0.014352482 0.025952214 -0.0045760507 -0.024564257 0.0091979345 0.05134002 0.02124109
-0.0001510481 0.02300006 -0.015801365 0.018895036 -0.02397996 -0.030461453 0.0077464217 0.015233702
0.019391723 0.026606577 0.047972504 -0.032811847 -0.019293454 -0.011071028 0.005785664 -0.0319148
-0.0047190944 -0.010594331 0.022470327 0.023180915 -0.0073706866 -0.0012101126 0.027921835 -0.02856253
0.036356594 -0.012944521 0.019018255 -0.012516163 -0.013463919 0.010590032 0.024774639 0.0022423172

action_model._discrete_distribution.branches.0.weight f4 [1, 256]
00000000: 3a90 b53b e25c db3b 7a04 01bb 6f1c 0b3b
00000010: 15df 683b 9846 e939 f3fd 013c 57ee 5a3a
00000020: 8964 8c3a 72e2 a43b 3aff ebba b075 143c
00000030: 9541 3db9 1d2b 4f3c de15 2fbc 0b8a 0dbb
00000040: 25bc 7cbb a8ff 9e3a 46ad 8c3b 30c2 3ebb
00000050: 0213 4e3c 058a 0dbc aa93 f33a b648 873b
00000060: 86a0 013c aba6 c03b e19f beb9 869b 0cbc
00000070: 3785 563b 6212 243a 39fa 203b 1b77 e83b
00000080: f95c 20bc 9f8f 0dba 0812 65bb bf09 403b
00000090: a49d 0dbb d74b 88bb 9e1b a73b b2a0 ff3b
000000a0: 836a 47bc 9262 77b9 df32 4b3b b3f0 91bb
000000b0: 9166 173b 902b d4bb a3b7 db3b 1f15 fb3b
000000c0: ba8c 47ba 0de2 4fb7 431a f93b ca05 8c3a
000000d0: 2f79 5f3b d3a3 f5bb f857 2e3b 4ada 79ba
000000e0: 6089 fb3b 2b68 ad3b dbef ddba 531f fcbb
000000f0: 98f1 63bc fd87 ac3b 1073 173c dd69 d33b
00000100: 3799 b63b fdc3 683c 3033 4d3c 2ac2 cf3b
00000110: c358 52bb 0727 ed3b 7f5a 22bb 21d6 85bb
00000120: a7a5 f4bb bcdc 29bb 5818 56bb 7f6c a2bb
00000130: 5bc3 41bc becf 46bc ceb7 c7bb 2d68 593b
00000140: 78c5 fdbb 8213 40bc fed0 4a3c 8f9d b9b9
00000150: ed4f d43a 9f4c e33a 1cad 08bc 13f3 bebb
00000160: edbb 7b3b ddf8 dfbb 0d62 123b 7f94 f6bb
00000170: 1ff1 13bc ab4b 06bc f5b2 a0bb a29b a0ba
00000180: 9926 9a3b 476d 033c da8b 943b 8bfb 89ba
00000190: 6356 823b 6f45 043a 418b 973b 2060 8a3b
000001a0: d146 1fbb c3be d23b f70d 6d3b 0b6f e6bb
000001b0: 229e b13b a7ae 5ebb 825b 2c3c c2c4 0a3c
000001c0: 4b52 bb3a c8ad 0f3b aaeb fabb 530b 533b
000001d0: f35d 873b 995a 29bc b1ac c23b 03ce 90bb
000001e0: 17d6 323b c7f2 79ba 22a2 cd3b ac00 9cbb
000001f0: 02dd 543b 16c2 cb3b 5e32 0bbb ef20 0cbb
00000200: 6f83 e5bb ecd9 32bc 6bda 713a 7037 843c
00000210: 28c1 bf3a 953e 943a b3c8 163b e381 91bb
00000220: 73bf 1dbb 0b88 dd3a 130c b3bb 0b9b 3f3b
00000230: 45bb e53a 1f2b 9039 29a3 123b 9f42 bb39
00000240: 01ef aebb 509f c13b bbf0 c53b 0adc 77bb
00000250: cb4c 213c f655 143c 0941 243c 470b e23a
00000260: fa16 e4ba b37c a7ba 6a27 f93b 8717 053c
00000270: 682d 93bb 9464 013b f320 723c 83b7 f3bb
00000280: faca 673a db72 753b 57af 24bb 4574 753b
00000290: af74 30bb d71d e73a a7d4 4dbc da56 4f3a
000002a0: c690 393a 202b 70bb b531 623b 907e 433c
000002b0: af10 a63b 85ad b8bb adbf a8bb 4b93 c23b
000002c0: 15d2 113c 1d6e d539 87f4 21bc 6a56 243b
000002d0: ab8c 813b 9294 c5ba da34 7f3b c3b1 82bc
000002e0: c0e6 afbb 4c8e 90ba 67fa 08bc d36f bebb
000002f0: eced 04bb 6401 84ba 98e6 89ba b67a 403c
00000300: cbef 0fbb 5f38 7bbc ea56 6f3b dd50 903b
00000310: ab80 e139 484d 723a 6409 153c 7bb0 4f3b
00000320: 6b2b feb9 c591 b03a b957 37bc 014f 01bc
00000330: 665a a9bb 85d2 79bb 9dc3 fabb e20c 23ba
00000340: b68a 0f3c 4238 c0bb 6c4b aebb 3a72 d33b
00000350: 1d5e afbb c600 423a eda0 abbb 3a7d 6c3c
00000360: 15fd 7239 9904 0f3c 8f2f 6abc d5ec 623a
00000370: 8f7b a3ba 7fdf 05bc 8a9b 59bb 8f18 a2bb
00000380: 3a19 93bb d36d b1bb 2886 d4b9 3e54 12bb
00000390: d372 c13b 53a7 7dbb b07f 5c3c 6118 25ba
000003a0: a5d9 a1ba 551c d6bb 8bbc 1d3b b9e6 aebb
000003b0: 9590 6eba 9372 333c 45e7 973b 1068 ebbb
000003c0: dac9 0abc abd1 92bb ea75 153c 23c3 04bb
000003d0: 85a6 583c 5420 91bb 58ef 453c 647c 2bbc
000003e0: 7b69 083b bace d63b 8f8a 2d3b ad35 5dbb
000003f0: ef39 543c 9aa5 4aba c38e d1ba a5c5 0d3c
0.005540875 0.006694422 -0.0019686506 0.0021226665 0.0035533358 0.0004449382 0.007934081 0.00083515554
0.0010711114 0.005031877 -0.0018005141 0.009061262 -0.00018048876 0.012644556 -0.010686366 -0.0021597173
-0.0038564291 0.0012130635 0.0042931167 -0.0029107444 0.012577774 -0.008638863 0.0018583436 0.004128541
0.007911807 0.0058792434 -0.00036358743 -0.008582002 0.003273321 0.0006258843 0.0024563207 0.0070942766
-0.009787791 -0.00054001244 -0.0034953374 0.0029302684 -0.0021608854 -0.0041594314 0.005099728 0.007801139
-0.0121713905 -0.00023592476 0.0031005663 -0.0044537424 0.0023101906 -0.0064749196 0.006705241 0.00766243
-0.00076122175 -1.2390793e-05 0.0076020076 0.0010682878 0.003409933 -0.007496336 0.0026602726 -0.0009531124
0.0076762885 0.005291959 -0.0016932444 -0.007694164 -0.013912581 0.0052652345 0.009243742 0.006451829
0.005572464 0.0142068835 0.012524411 0.006340285 -0.0032096363 0.0072373184 -0.0024773178 -0.004084364
-0.0074660364 -0.0025918921 -0.0032668319 -0.0049567814 -0.0118263615 -0.012134491 -0.0060949093 0.0033173666
-0.0077444874 -0.011723401 0.012378929 -0.0003540334 0.0016198136 0.001734156 -0.008342054 -0.0058273165
0.0038411573 -0.0068350867 0.0022336275 -0.0075250263 -0.009029656 -0.008196752 -0.004904146 -0.0012253413
0.004704308 0.008021659 0.004533273 -0.0010527236 0.0039775833 0.0005045747 0.0046247547 0.004222885
-0.0024303684 0.006431432 0.0036171654 -0.0070322803 0.005420462 -0.0033978613 0.010519864 0.008469762
0.0014291493 0.002192365 -0.007657488 0.0032202795 0.0041310727 -0.010336542 0.0059409966 -0.0044190898
0.0027288252 -0.0009534773 0.0062754313 -0.0047608223 0.0032480364 0.006218205 -0.0021239738 -0.0021381935
-0.0070041935 -0.010916214 0.0009225967 0.016139716 0.0014629709 0.0011310155 0.002300781 -0.0044405325
-0.0024070411 0.0016901506 -0.005464086 0.00292367 0.0017527124 0.00027497948 0.0022375083 0.00035717056
-0.00533855 0.005908884 0.00604066 -0.0037820362 0.009844969 0.009053698 0.010025271 0.0017245793
-0.0017401867 -0.0012778252 0.0076035755 0.008123285 -0.004491497 0.0019743787 0.0147783635 -0.007437648
0.00088421965 0.0037452492 -0.0025128925 0.0037453335 -0.0026925018 0.0017632794 -0.012562907 0.0007909365
0.0007078763 -0.0036646798 0.003451449 0.01193203 0.005067907 -0.0056359195 -0.0051498027 0.005937969
0.008900185 0.00040708567 -0.00988496 0.002507592 0.0039535365 -0.0015074185 0.0038941414 -0.015953904
-0.0053680837 -0.0011028736 -0.008360482 -0.0058116703 -0.0020283414 -0.0010071215 -0.0010520993 0.011748007
-0.0021962996 -0.015333264 0.003652031 0.004404171 0.0004301121 0.0009243083 0.009096477 0.0031690884
-0.00048479004 0.0013471177 -0.011190348 -0.007892371 -0.005168247 -0.0038119864 -0.0076527135 -0.0006219876
0.008761099 -0.0058660815 -0.0053190496 0.006452826 -0.0053517953 0.0007400628 -0.0052376897 0.014434153
0.00023173199 0.0087291235 -0.014293565 0.00086565065 -0.0012472736 -0.008170961 -0.003320428 -0.0049467753
-0.004489091 -0.0054147034 -0.00040535745 -0.0022328044 0.0059035807 -0.003870447 0.013458177 -0.0006297883
-0.0012348188 -0.006534139 0.002406868 -0.005337563 -0.0009100524 0.01095261 0.004635724 -0.007184036
-0.008470977 -0.004480561 0.009122351 -0.0020257912 0.013223295 -0.0044289026 0.01208099 -0.010466669
0.0020814824 0.0065554054 0.0026480292 -0.0033753917 0.012953266 -0.0007730365 -0.0015987981 0.008653079

network_body._body_endoder.seq_layers.0.bias f4 [256]
00000000: 7183 0a3c 7b93 623c aa22 783c a591 d63a
00000010: 89a7 ba3b 0898 b73c 68e1 ee3b 7d4b 503b
00000020: 3f58 3f3b 3a0f 183c d151 063c 30c6 aa3b
00000030: 2cdb b83a e4a1 a739 ed73 1c3c 0310 383c
00000040: 0767 053c 8c7f ae3b 452c b43c 138a 073c
00000050: 7c2a b33b 4665 b73b f994 a43b d11c 5eba
00000060: 9e75 913a 328a 973b 4506 2f3c e4e5 0a3c
00000070: 80f9 f73a 09e5 023c 7c46 153b b3e9 64bb
00000080: be06 df3a 02a4 c5bb 5dfe debb c2e1 5f3c
00000090: 45c8 c7bb 49b4 8cba 32e6 c33c 201c 4f3c
000000a0: 0331 833c da38 cb39 911e bc3a 5af8 d83b
000000b0: 994f 703b fc83 483c 277f 89bc 4f3d 0e3c
000000c0: f311 f23a af60 4c3b 4c98 f73a b726 9e3b
000000d0: 8bf0 f13b 9df2 b4bb af21 b73c bd5c d53b
000000e0: 5d28 ac3b 964a 4cba cbe3 063d a9bf 5a3b
000000f0: 8c55 3e3c f329 82ba 74e5 ab3b 3d02 2b3c
00000100: 5aa1 443c 8fce 02bb 6e88 803b 8fa4 443b
00000110: dd26 7ebb 7d99 213c f872 a83a 0873 6f3b
00000120: 46d1 0fbb f328 2d3a 8215 75ba 1641 ac3b
00000130: dc0c 56bb 5de8 8f3a bbac bdbb d314 213c
00000140: 111e 583b 25ac 43bb 5092 593c 0b91 e7b8
00000150: c0e3 203c a176 e93b ae35 383c b99e 9137
00000160: a582 9b3c cc34 523c 7da1 183c 607a 103c
00000170: 13fd a13b 43a2 743b 8e48 d83b 7f03 023b
00000180: 0faa a6ba 5407 7a3c 5464 26bb 42d5 9cb8
00000190: b682 d0ba ee69 d43b 433a d73b 0cf4 dc3b
000001a0: ad5f 06bb 7ec7 463b 54e2 933c 6ce9 d43b
000001b0: 981c c9ba 3c32 b03b 72b2 d73b 65d4 a43b
000001c0: 0308 0c3c f7d5 113c 88c4 7b3c 6156 9bbb
000001d0: 65ba c8bb 52c1 853b d53f 043c 424c 6d3c
000001e0: 4dfb e53b f859 d23b 01be 883b 7a91 d13b
000001f0: 8c4f 313c 9ddf b2bb 4d61 933b 1f4b 913c
00000200: de94 75bb e80d 873c 9781 783c 4240 753c
00000210: 17c1 2c3c 67b6 1f3c 88fb 03bb e8c6 21bb
00000220: 1eef 403c c0c1 693b 24aa ae3c 7f20 553c
00000230: 51b4 8d3b 2545 043c 5c84 d43b a3d2 beba
00000240: 43ae b93b ece4 243b 8075 d7b9 12d2 cc3b
00000250: 74d9 a53b f177 66bb 0a00 943b b230 d03b
00000260: 94e7 9b38 cd07 08ba f151 3bbb 8956 9c3c
00000270: cc7a 053c 643c a3bb d1f9 483c 51d3 083c
00000280: d8d5 d53b 7b50 2f3c 4143 88bb f870 f53b
00000290: 8487 043b af47 003c 3ee2 e3bb 5dff 223c
000002a0: 0a9c 7b3c 8cfc 1e3b cb7f 7c3b e321 0aba
000002b0: 5b20 b23b 0ac8 783b ad95 f73b f0d7 ff3b
000002c0: 8185 313c 6006 02bb 0770 8c3c 486e f33b
000002d0: 8f7d 863c b405 9b3b 4832 783b ebf4 503c
000002e0: ed70 13bb 60cd 843c 1bc5 f23b e246 17ba
000002f0: 5bee 34bb 71cd d23b ea9f 103b f9e5 1c3c
00000300: 40a1 f6bb 2d67 623c 9ab0 92bb 2daa 2d3b
00000310: 9806 a33a ce77 123b 1f43 e73a 2f55 723c
00000320: 58f3 953c d7e2 b33b a31c 803c 6302 b23b
00000330: f5fc 5e3c 1130 2c3c 101e 553c a9d1 9b3b
00000340: 93d8 053c 9324 b23b f713 0e3c 7aaa 9c3c
00000350: b367 113b a22f ca3b be94 24bb 3fa6 713c
00000360: dccb d33b cee1 bd3b d377 073c 6c54 6c3b
00000370: cde8 7abb 818b 223c dd0c a9ba 6578 1d3c
00000380: 91ae 943b f4b0 23bc 7ee3 353c 91e5 793c
00000390: 9809 a03c 3a5d 053c 0467 8f39 fdc5 89ba
000003a0: 03e8 d4bb 0f59 923b e471 00bc 37ea 2d3c
000003b0: 7c65 23bb 2580 04b9 8906 b6ba d9a7 243b
000003c0: 2403 973b 9039 353c 92b0 933b b6d5 563b
000003d0: 3f3c 293c 042c 7a3c a2fe 303c 36c4 dc3b
000003e0: 6a54 c53b 2297 13ba 9655 c23b 1409 b53b
000003f0: f8f8 e33b ad43 4f3a ff46 7bba 14a4 02bb
0.00845419 0.013829107 0.015144983 0.001637031 0.0056962413 0.022411361 0.007290054 0.0031783276
0.0029196886 0.009280974 0.0081982175 0.005211614 0.0014103404 0.0003197334 0.009549123 0.011234286
0.008142239 0.0053252634 0.021993766 0.008272666 0.005467711 0.0055967895 0.0050226417 -0.0008472922
0.0011097675 0.0046246285 0.010682647 0.008477662 0.0018918961 0.007989177 0.0022777608 -0.0034929335
0.0017015559 -0.006031514 -0.006805225 0.013664665 -0.006096872 -0.0010734882 0.023913477 0.012640983
0.016014582 0.00038761535 0.0014352371 0.0066214027 0.0036668538 0.012238499 -0.016784264 0.008681609
0.0018468484 0.0031185558 0.0018889992 0.0048263925 0.0073834113 -0.005522086 0.022354929 0.0065112994
0.005253835 -0.00077930966 0.032932084 0.0033378399 0.011617076 -0.0009930715 0.005245859 0.010437545
0.01200136 -0.0019959544 0.0039225137 0.003000531 -0.0038780489 0.009863255 0.0012851646 0.003653707
-0.0021944805 0.0006605528 -0.0009349213 0.0052567823 -0.0032661473 0.0010979284 -0.0057884133 0.009831625
0.0032976905 -0.0029857245 0.0132795125 -0.00011041955 0.009819925 0.0071247374 0.011243267 1.7359258e-05
0.018983195 0.012829971 0.009315846 0.008818239 0.004943499 0.003732816 0.006600446 0.001983851
-0.0012715476 0.015260536 -0.002538939 -7.478382e-05 -0.0015908096 0.0064823544 0.0065682246 0.00674296
-0.0020503805 0.003033131 0.018052258 0.0064975526 -0.0015343605 0.005377082 0.0065825516 0.005030202
0.008546832 0.008901111 0.015366681 -0.004740522 -0.0061257356 0.0040818835 0.008071859 0.014483513
0.007018483 0.0064194165 0.004173041 0.006395516 0.010822188 -0.0054587857 0.004497683 0.017736016
-0.0037472765 0.016486123 0.015167615 0.014968934 0.010544083 0.009748078 -0.0020138938 -0.0024685208
0.01177576 0.0035668463 0.021321364 0.013008236 0.004324474 0.008073126 0.006485505 -0.0014558624
0.0056665256 0.0025160862 -0.0004109554 0.0062506283 0.005061323 -0.0035166705 0.004516606 0.006353461
7.434111e-05 -0.00051891507 -0.0028582776 0.019084232 0.008146953 -0.0049815644 0.012266592 0.008351163
0.0065257363 0.01070034 -0.004158408 0.0074902736 0.0020222375 0.007829591 -0.0069544604 0.009948579
0.015357027 0.0024259416 0.003852832 -0.0005269332 0.005435986 0.003796103 0.0075556845 0.007807724
0.0108350525 -0.0019840226 0.017143263 0.007428918 0.016417293 0.0047309045 0.0037871767 0.0127537055
-0.002249773 0.016211212 0.0074087507 -0.0005770755 -0.0027607891 0.006433182 0.0022067972 0.009576314
-0.0075265467 0.013818544 -0.004476619 0.0026499138 0.0012437878 0.0022349241 0.0017643905 0.014790817
0.018304512 0.005489688 0.015638655 0.0054324134 0.013610114 0.010509507 0.013007656 0.004755218
0.008169311 0.005436489 0.008671752 0.019124258 0.0022187054 0.006170229 -0.0025113071 0.014749109
0.006463511 0.0057947403 0.008268314 0.0036061062 -0.0038285733 0.009920956 -0.001289751 0.009611224
0.0045374115 -0.009990919 0.011101602 0.015252487 0.019535825 0.008139903 0.00027351838 -0.0010511276
-0.0064973845 0.004466183 -0.007839654 0.010614923 -0.0024932316 -0.00012636239 -0.0013887446 0.002512446
0.0046085287 0.011061087 0.004507133 0.003278119 0.010329305 0.015269283 0.010802897 0.0067372574
0.006022026 -0.00056301255 0.005930613 0.005524764 0.0069571696 0.0007906508 -0.00095854694 -0.0019934224

network_body._body_endoder.seq_layers.0.weight f4 [256, 119]
00000000: 5776 34be 7118 5d3c 0179 d6bd 35a0 2fbd
00000010: 736e 20be 4ac9 bc3c bd53 01be 4cc5 e73d
00000020: b755 313d 8bf9 dd3c 04c9 ebbc b970 1d3d
00000030: 1a4d 623e 23fb e13d 9a3d 42bd a94c 51bd
00000040: bf65 8a3d e93d 4abe 4247 5b3d e9e4 853d
00000050: 77dd 0e3e 7fb9 6a3d 74b0 f6bd 4bc2 263d
00000060: b426 0dbe d934 81bc 0875 c23d d428 333d
00000070: 472b 37bb b6e7 10be a957 5cbd 6c7f e5bd
00000080: 0141 a1bd 557a 65bd 8155 8c3b 64a9 023e
00000090: 4458 d3bc e80a 4cbc 3619 923d 5c5c 983d
000000a0: 808c fdbc 6ee1 45bd 0837 d0bc 5bab 393d
000000b0: 6298 d5bd 7ad0 7a3d 9876 69bc 9dfc 833d
000000c0: da01 6a3d e258 9fbd 5727 803b 6a37 b83d
000000d0: 5978 8fbd 07e6 423d ab2c 69bd e937 d83c
000000e0: 6329 da3d 62d8 c63d c5cd f9bb 4692 3d3c
000000f0: 1b6c d5bd 8280 8bbd 9874 e43b 96ee 7a3e
00000100: ba04 c2bc 07eb d5bd 92df f53d 343e e83d
00000110: 67c0 6c3c 1db0 45bc 3888 6c3e 98ec 7f3b
00000120: 962a 183d c55c ca3c f5c5 80bd 5645 9d3d
00000130: 87b5 3b3d d898 53bd 5e7a 13be 7fdf 98bd
00000140: 2825 6fbd 4c10 db3d 7775 e73d 7ae4 44bc
00000150: 8767 6a3c ab20 923c f277 1bbd e4a3 ae3c
00000160: a67b 463e 5b17 273d 0187 adbd b4fe 31bd
00000170: 56a4 1ebe 50b8 b43d d56b cabc b240 a9bd
00000180: f4db 0dbc a8c8 cf3c 1971 b93d 97a6 5a3e
00000190: 0895 55bc 9d86 043e 7a00 29bd 9f04 a5bd
000001a0: ee49 ffbc 8cdd 883d 24f7 923d 089b 613d
000001b0: d0d2 a43d ab47 133e 02d5 983c 5b37 583d
000001c0: c47a 7e3d 64eb 8e3d 7c14 393e f7e4 27be
000001d0: f015 02bc f1bf 403d f0f2 82bd b2ea 193e
000001e0: 1a7a 84bc f379 e13b d165 123c 8b11 863d
000001f0: 24d1 e2bd e370 07bd 4d1d dabb e410 4d3d
00000200: 9401 bc3c e53b 173e b33c c0bd 75aa 21bd
00000210: a644 fd3d 0986 193e d2c6 573d 0b66 a93d
00000220: 10e5 32be 168b afbd d989 a7bc e76c 0fbc
00000230: 252f cb3d c266 e9bc 21dc b43d 6226 1f3d
00000240: 2178 2ebc abb7 053e 4fb8 b83d 682c 833d
00000250: e78f 4bbd c46a aabd d67a 743d adce 62bc
00000260: b268 2e3d 79e0 afbc 05c0 113e 1415 8b3e
00000270: 86fa 00be d5a8 11be 5e75 a93d 7716 a83c
00000280: 63ff f13d 6735 0d3d 1cd7 363e 90ce cbbd
00000290: 7993 13be 632f a5bd 4cc7 103d d595 243e
000002a0: 85a2 543e 4905 343d 8148 1e3d 3c20 53bd
000002b0: 9859 c53c 14b8 adbd 998d 22bc 0425 fe3d
000002c0: ac3c 79bd e3c7 933d 3422 1c3e f2e2 99bd
000002d0: de3e 70ba c9c0 473d 5f76 e5bd 6374 f63d
000002e0: 56f7 d4bd 37b9 1bbe 1b3f 453e 1cca 283e
000002f0: 7f6d ffbc adc1 13be 8e27 c2bd 0d27 91bd
00000300: ef2a 0d3d 2e65 b33d 5a8f 08be 8979 19be
00000310: 518a 80bd f5e6 9bbd 0444 1abe d196 57bd
00000320: 2dc0 f43d 6e1a c0bd 6906 f53c eb24 84bd
00000330: 1986 a23c 629b 773d 8aeb d53b 34b2 443e
00000340: e7ce 3abe bed6 8abd 76a5 293e 8074 c93d
00000350: cffd c53d f407 ec3d bb10 41bb 9347 a9bd
00000360: 91e5 d73b 3b89 3f3e d50e e8bc 8d2e d73d
00000370: 6a69 603d 50e9 f4bc a7d7 27be c0df b53d
00000380: 0aac 87be 86dd f13d 594f d9bd a10f 773d
00000390: 69f0 093d 4313 753d 16a8 373d 88de 91bd
000003a0: 315b b0bc 3ca2 0bbe 97ee a53d 9db9 ba3d
000003b0: ebf5 f5bd 07bf 2abc ff6e 19be e666 a03d
000003c0: 2523 1bbe 7dfc 2dbc d046 a73d 394f 163d
000003d0: 0603 3f3c 4b17 0fbe 042a 383c c08d 3ebd
000003e0: 6730 153e 3499 b1bc 07d6 ad3d e42e 94bc
000003f0: 23fc 193e a00b e73c 86a5 773c b9b1 e1bd
-0.17623268 0.013494597 -0.104722984 -0.042877395 -0.15667133 0.0230452 -0.126296 0.11316928
0.043294635 0.02709653 -0.028782375 0.03843758 0.22099724 0.11034229 -0.04742203 -0.0510985
0.06757688 -0.1975018 0.053534754 0.06537802 0.1395167 0.05730581 -0.120453745 0.040712636
-0.13784295 -0.01577227 0.09494978 0.04374011 -0.002794938 -0.1415089 -0.053794537 -0.112059444
-0.07873727 -0.056024868 0.004282654 0.1275993 -0.025798924 -0.012453772 0.07133715 0.07439491
-0.030950785 -0.04831069 -0.025416866 0.045329433 -0.10429455 0.061233975 -0.014249466 0.064446665
0.057130672 -0.07780625 0.0039109397 0.089949444 -0.07005376 0.047582652 -0.056927364 0.026393848
0.10652425 0.097092405 -0.0076234066 0.011570519 -0.1042101 -0.0681162 0.006971907 0.24505076
-0.023683894 -0.104452185 0.12005533 0.11339989 0.014450169 -0.012065914 0.23098838 0.0039050933
0.037149988 0.02470244 -0.06287757 0.076792404 0.045827415 -0.051659435 -0.14402148 -0.074645035
-0.058385044 0.10696468 0.113017015 -0.012017364 0.014306909 0.017837843 -0.037956186 0.021318384
0.19383106 0.040793758 -0.084730156 -0.043455794 -0.15492377 0.08824217 -0.024709621 -0.08264293
-0.008658398 0.025364235 0.09054775 0.21352611 -0.01303602 0.12941976 -0.04126022 -0.08057522
-0.031163182 0.06682882 0.071760446 0.05507949 0.08048022 0.14382808 0.018656258 0.052787166
0.062128797 0.06978491 0.1807422 -0.16395937 -0.007939801 0.04705805 -0.06393993 0.15030935
-0.016171504 0.0068809926 0.008935408 0.06546315 -0.11075047 -0.03306664 -0.006656325 0.050064936
0.022949971 0.14768942 -0.093865775 -0.0394692 0.12366609 0.14992537 0.052679844 0.08271416
-0.17470193 -0.085714504 -0.020451473 -0.008753992 0.099211015 -0.028491382 0.08831049 0.038854964
-0.010648758 0.13058345 0.09019529 0.06404954 -0.049697783 -0.08321145 0.059687458 -0.013843221
0.042580314 -0.021469342 0.14233406 0.2716452 -0.12595567 -0.1422456 0.08274339 0.020518525
0.11816289 0.034474757 0.17855495 -0.09951508 -0.14411725 -0.08065679 0.035346314 0.16072781
0.20765121 0.043950353 0.038643364 -0.051544413 0.024090573 -0.08482376 -0.009921455 0.12409404
-0.060848877 0.0721586 0.15247422 -0.075139895 -0.00091646414 0.04876784 -0.11204218 0.12033918
-0.10398738 -0.15207373 0.19262354 0.16483349 -0.031180141 -0.1442935 -0.09480201 -0.070875265
0.034464773 0.08759533 -0.13335934 -0.14987768 -0.06276382 -0.07612411 -0.15065008 -0.052634064
0.11950717 -0.09380041 0.029910283 -0.06452354 0.019839333 0.06045092 0.0065283226 0.19208604
-0.1824299 -0.0677924 0.16567025 0.09836674 0.09667551 0.115249544 -0.0029459435 -0.08265605
0.0065886457 0.18704693 -0.028327385 0.10506926 0.05478803 -0.029896408 -0.16390859 0.088805676
-0.26498443 0.1180983 -0.106108375 0.06031764 0.03367654 0.059832823 0.044838034 -0.071225226
-0.021527858 -0.13636106 0.08102148 0.09117434 -0.12009796 -0.010421521 -0.14983748 0.07832126
-0.15150125 -0.01061928 0.08167803 0.036696646 0.011658436 -0.1397373 0.011240486 -0.046521902
0.14569245 -0.021679498 0.08488088 -0.018088765 0.15037589 0.028203785 0.015115147 -0.11020226

network_body._body_endoder.seq_layers.2.bias f4 [256]
00000000: 2996 ea3b 28c1 8e3b 2052 853c 0a2f 1f3c
00000010: 5ca6 fb3b eb87 88ba 68c3 003c 9b67 c73b
00000020: 9502 303c 3aa0 0d3b c778 123c a406 b73b
00000030: 136e 4e3b 753d 4a3b e79f bd3b 1e7b a6ba
00000040: eef2 e03b bff4 bb3b dd11 943b 2278 8439
00000050: fbd2 6d3b 3328 b7ba 14e8 78bb dc29 6a3b
00000060: 8f6f 023b a0da 2b3c a8a1 2c3a cdb2 473b
00000070: f2aa 703c ef5a 41bb 9245 1c3c 7cc9 143c
00000080: 1e68 bb3b a9fd 433b 6a5e 013a 8652 883c
00000090: a26d 503a 56e5 8dbb 745f 13b9 5079 d63b
000000a0: 781d 34bb 671c 873b fac5 d13a 0d67 20ba
000000b0: 6cf5 8dbb 60a6 f33b f08e 033c 8630 d03b
000000c0: c123 2a3b d36e 683b 2992 a43c b481 c23b
000000d0: 99d3 14bc e40e 423b f2d1 96ba 0e28 d2bb
000000e0: 2dd9 6b3b 1eee dd3b b4b2 8eb9 21f7 20bc
000000f0: 7fd0 333b 1cf4 59b8 7b7e 7b3b aec4 963b
00000100: 46b6 1f3a 108e 8d3a 1c43 323b ad3f 0c3c
00000110: 3ef4 523b ac70 8d3b fce8 673a b37c c93b
00000120: 6d71 ebb9 1fd6 343b 4179 9bbb 148d 6e3b
00000130: 6473 8a3b 3491 843b 942a 053c 6cf9 693b
00000140: eb20 433c ad5e b33a e71d 133c 6a11 cb3a
00000150: 0c38 463b ee41 483c cbf4 983b debd 88b9
00000160: fee6 6d3c 7cc2 c3ba 92e9 233c 074a 79ba
00000170: d94c 22bc 72d5 943b eb65 793c a70e ca3a
00000180: 2718 123c 79a6 c23c 63cb b73b 78c9 003c
00000190: fa4e fb3b 90b6 cb3b 8ae4 113c 036e 0a3c
000001a0: 7dcf 5c3b e421 0ebb 0106 003b cd0d 9a3b
000001b0: 3f65 e33b 86a0 383c c258 f8ba 4424 cc3b
000001c0: a9fe c53a eb7d 233c 539f 85ba 6bae e439
000001d0: 9cf8 453c bed8 9a3b e06b 0d3c a7fc 223c
000001e0: 5b0a e93b f53c 043c d8d0 9f3b b23a af3a
000001f0: 6510 2dba 17c1 203c b83c 68bb 03af 633b
00000200: a1d5 e33b c6a5 3d3a 0be2 563c 571b 413b
00000210: f210 66bb 8708 0d3b 3979 1b3b 833c afbb
00000220: d866 1b3b 0e95 843c c87f 5e3b a57e 203c
00000230: e923 8b3c 3671 1f3b aafc 033c c998 3d3c
00000240: 3b45 3fbc 6ad4 353c 9847 dd3a db28 763c
00000250: 87f3 3e3c 7cf2 8b3a 480e 05ba d24a 98bb
00000260: 0f96 753b b741 e63a 3452 723c b3e7 013c
00000270: 5ea5 17bb a18f 573b 4dd6 c33b 2da8 bb3b
00000280: 6243 093c f6f3 fdba ad96 7a3b d145 073b
00000290: cce1 c3bb 14f5 5e3c 21ae 9eb9 0190 a23b
000002a0: 1a42 a63c 92cb 41bb c750 b13b 157b 063c
000002b0: ad99 233c eae4 cc37 cb66 293b c19d 04bb
000002c0: 04f3 1c3c 4e30 a83b fc3c a13b 779f e53a
000002d0: 73a8 6e3a bfa0 af3b b24e 2f3c c73c 4b3c
000002e0: 154b 6e3b 4909 e43b 77a1 ff39 22b1 ed3b
000002f0: 1623 0d3c b821 24b9 259d 833c 476f a5bb
00000300: 02a2 33bc 88c1 843c 2f6b 2ebb c3a9 8fbb
00000310: 1842 0c3b 2bde 083b 543a 233c 94f5 b03b
00000320: c476 173c a0ff 1cbb 9ae1 2a3c a669 2abb
00000330: c54e 9a3b 60e0 873c 4ddf 683b f26c 3dbb
00000340: ed19 f43b 4c85 c23a 5378 c83a 47c0 8d3b
00000350: e6f5 433a f8d6 94bb e2a3 573b 1639 6a3b
00000360: 1b17 373b f184 bf3a 73aa 743b b72f 963c
00000370: dd1b d9ba bc16 4e3b 8669 a039 9995 f7bb
00000380: b851 6cbb 2df0 123c 934a 4f3a deaf 5dbc
00000390: 92a2 94bb 2595 2f3c c3df 30ba fd7d a9bb
000003a0: f534 07ba 2fbf d1ba 0b21 c93b d497 c538
000003b0: f7f6 163c 29e0 283a 3946 113c a48b 113c
000003c0: dbe6 fa3a 8d7f 7a39 097b 673c bfc2 ee3b
000003d0: 1601 953b 632c 0abb fa33 063c 1a01 053c
000003e0: 58c0 3d3c e6d9 a23a 9d14 913b bf7c 0abb
000003f0: d9c7 59ba 697c 1a3b 0a55 cc3b f675 0f3c
0.0071590138 0.004356522 0.016274512 0.009715805 0.0076797437 -0.0010416483 0.0078590885 0.006085349
0.010742803 0.0021610395 0.008939928 0.0055855084 0.0031498715 0.0030859385 0.005786884 -0.0012701487
0.006864897 0.005735963 0.004518731 0.00025266508 0.0036289084 -0.0013973772 -0.0037980126 0.0035730517
0.001990292 0.010489136 0.0006585368 0.0030471564 0.014689194 -0.0029503664 0.009538071 0.009081241
0.005719199 0.0029905832 0.0004935028 0.016640913 0.0007950907 -0.0043303175 -0.00014054572 0.0065452233
-0.0027483385 0.004123259 0.0016004436 -0.00061188714 -0.004332235 0.007435605 0.008029684 0.0063534407
0.0025961252 0.0035466447 0.020089226 0.005935872 -0.009083652 0.0029610926 -0.001150666 -0.0064134663
0.00359876 0.0067727705 -0.00027217495 -0.009824545 0.0027437506 -5.1964176e-05 0.0038374949 0.0046010828
0.00060925295 0.0010799784 0.0027200645 0.008560103 0.0032189037 0.00431641 0.0008846668 0.0061488985
-0.00044907202 0.0027593446 -0.004744679 0.0036400007 0.0042251814 0.00404563 0.008127827 0.0035701646
0.011909704 0.0013684832 0.008979297 0.0015492861 0.003024581 0.01222275 0.0046678535 -0.00026081403
0.014520405 -0.001493528 0.010004418 -0.0009509627 -0.009906017 0.004542046 0.015222053 0.0015415744
0.008916891 0.023761021 0.0056089624 0.007860534 0.007669327 0.0062168315 0.008904586 0.00844908
0.0033693009 -0.002168768 0.0019534829 0.004701352 0.0069395597 0.0112687405 -0.001894735 0.006229909
0.0015105802 0.009978752 -0.0010194577 0.000436175 0.012083199 0.0047255447 0.008631676 0.009947932
0.00711183 0.008071174 0.004877191 0.0013368933 -0.0006601869 0.009811661 -0.0035436582 0.0034741766
0.006952957 0.000723448 0.013115416 0.0029465759 -0.0035105315 0.0021519975 0.0023723377 -0.0053477897
0.0023712423 0.016184356 0.0033950675 0.009795819 0.016984897 0.0024328954 0.008055845 0.011572071
-0.011674221 0.011098007 0.0016882299 0.015024389 0.011654741 0.0010677124 -0.00050756754 -0.004647591
0.0037473475 0.0017567192 0.014790107 0.007928777 -0.0023139338 0.0032892006 0.0059764744 0.005726835
0.008377882 -0.0019375074 0.0038236782 0.002064098 -0.005977845 0.013608236 -0.00030265845 0.0049610143
0.020295192 -0.00295708 0.0054112407 0.008208056 0.00998537 2.4425291e-05 0.0025848623 -0.002023563
0.009579424 0.0051327115 0.0049206 0.0017518838 0.00091040804 0.0053597386 0.010699915 0.012404627
0.003636067 0.0069591147 0.0004875769 0.007253782 0.008614322 -0.0001565282 0.016066143 -0.0050486657
-0.010963919 0.016205564 -0.002661418 -0.004384251 0.00214017 0.0020884376 0.009962637 0.005400369
0.0092446245 -0.0023956075 0.010429764 -0.0026002913 0.004709097 0.016586483 0.0035533488 -0.0028904048
0.0074493797 0.0014840751 0.0015294648 0.0043258998 0.00074753014 -0.004542228 0.0032904078 0.0035739592
0.0027937356 0.0014611763 0.003733304 0.0183333 -0.001656409 0.0031446656 0.000305962 -0.007555675
-0.003605945 0.008968395 0.0007907536 -0.0135307 -0.0045359815 0.010716711 -0.000674721 -0.0051724897
-0.00051577325 -0.0016002412 0.006137972 9.421972e-05 0.009214154 0.0006442094 0.00886684 0.008883391
0.0019142287 0.00023889374 0.014128455 0.007286399 0.0045472486 -0.0021083585 0.008191103 0.008117938
0.011581503 0.0012424558 0.004427506 -0.0021131483 -0.00083076727 0.002357269 0.0062357234 0.008756151

network_body._body_endoder.seq_layers.2.weight f4 [256, 256]
00000000: e7c6 533b 7a1a 083d 711d 913d b46e 36bd
00000010: dadc 27bd 4f5f b7bd c6a4 c7bc 66e5 223d
00000020: 3d55 afbb bc42 68bd e6af 0b3b 64fa 5b3d
00000030: 6983 64bc 2902 ca3d c90b 123e 5101 aabd
00000040: 5ee9 32bd b311 983c 2afc acbb 020c e1bc
00000050: 73ce 513d 7140 cabc a43d 87bd 39eb 17bd
00000060: f63a e63c 027e a6bd 08d5 bc3c 051c bd3c
00000070: 3a8c 543d 4739 14bd 37a1 b33d 1357 2abc
00000080: 32dc 66bd 6711 183d ccb1 123e cee2 a03c
00000090: 4461 b1bd d3a9 20bd dad8 813d c1a8 813c
000000a0: 4209 a33c e693 f23b b4e5 15bb 932e 9b3b
000000b0: c433 8e3c 9dfe 833c 8bba 393d 696d 3f3d
000000c0: 955c a7bd afdd 2e3c 98d9 423d a6f5 9d3d
000000d0: 0cae 873c b28f 26bd 6c3d ab3b 90b0 a8bc
000000e0: a5b7 af3d b399 34bd 4808 d2bd 8e80 883d
000000f0: 4f1a 7dbd 0e4a be3b 2b2f 913d 8d83 cd3d
00000100: f97e bdbd 8cea 0fbd 9c5e d0bc 2b6d a1bd
00000110: 36ad 8b3d 574f 8fbc e83b 3bbd 309b 9bbd
00000120: 8c7f fd3d 6a15 a53c d450 71bd b6ef d13d
00000130: d031 8f3d e292 063e a7f2 353e a21f 723d
00000140: df44 a8bd aa5b b93c da03 2e3c bce1 9ebd
00000150: a0f2 8c3d 8f74 d13d 2293 aebc ff56 013e
00000160: 0381 833d 9c1e 1dbd 0fa6 82bd 999c 313c
00000170: e962 d3bc 31d1 0bbb 5602 0fbc ba86 7f3d
00000180: c065 a4bd 4514 58bc f834 f33c 0baa 763d
00000190: 022f 79bc 2266 94bd 7eba 6d3c 287c c7bd
000001a0: abd1 98ba 9e8d 553c 3768 49bd 3285 0d3e
000001b0: c82c 79bd 1a93 c4bd 02f2 83bd 5e90 033e
000001c0: 2ea2 643c 0ee5 83bd f454 6c3b 5af8 9b3d
000001d0: 9ee6 483d 0289 f8bd 8e4f 803d c1bc 0d3c
000001e0: c47e 243e 634b 393d ac5a 57bd 5aa6 04bd
000001f0: 80fa f5bc 76d2 00bd 68bb fdba 1e1a 0dbd
00000200: fb7f ba3d 4d09 263d e9ad 40bc 22f2 bebc
00000210: e1ab f0bb 3f4c 97bd d9d2 e7bc c502 a6bd
00000220: 0c94 1ebb c530 51bd c7a8 293d 1429 8ebd
00000230: 8f5e 6ebd 7e8b 17bd bf10 ec3c c8fe 923d
00000240: 657d 143d 9216 2dbc fca1 933d d2df a0bc
00000250: 4e07 bebc 371e 413d 1aea 4d3d 6b51 cb3d
00000260: fe97 933d c7a5 743c 0e86 0c3e 3c63 eb3d
00000270: eadf 23be b6a9 313d 3c7d 863d 3ad1 4a3d
00000280: 8f1d 873c ca79 54bc d4d8 cbbc ea1b 29bc
00000290: 918e 09bd 2f3f 98bd d2a3 36bb 6f86 abbd
000002a0: 18be 833d d268 c93d f7fb 713d 3840 953c
000002b0: 4f83 bdbc 0c94 01bd be2e 39bd 7692 493d
000002c0: 75d4 35bd b021 9dbc 5e74 533c 0933 87bc
000002d0: e7e7 693d 6ade 373d b0a5 e13c 01c7 f53d
000002e0: a246 033e df58 733d 886f 95bc 9363 133d
000002f0: 1de9 e43d c90c d13c 15c3 5abd 1230 42bd
00000300: 6ee8 113e acc1 c83d 06a7 453c bc1d e63d
00000310: c664 c43d 96a7 aabc 9844 77bd c841 edbc
00000320: 556e 563c 2289 eabd 1c17 053d ba2e 92bd
00000330: cc1e f43c 5a74 05ba 801d f9bb ae40 203d
00000340: 3f89 39bd 7fac 05be 6905 a6bd 182d 113d
00000350: 0fcb bf3c d3f3 6cbd eb6e eb3c d7b2 2c3d
00000360: 6406 9abd b897 b03c e1c3 1e3d 9c67 0ebd
00000370: 24b5 f43c 944f b8bc cd3a 5abd a416 7abb
00000380: f471 4f3d bbf1 143c eb80 bdbd 8a2b 4ebd
00000390: f42d 793c 92c1 9f3d e31b b33d 3aad 3ebd
000003a0: 4523 b23d 092e 943d 82ee 50bc 3c8b 52bd
000003b0: a4de f73c d008 70bd 8093 aa3c 8ed2 a1bd
000003c0: 6d97 9e3b 4a88 d8bd 3923 b83d b834 66bd
000003d0: d708 413d a59d 03be 2fea b4bd fa79 1c3d
000003e0: 1235 03bd 9ee8 743c 12ce 4a3d 0691 1d3d
000003f0: fc5e 7fbd 03a4 553c 4faf 673c 89d3 a03d
0.00323146 0.033228375 0.07085694 -0.04453917 -0.040982105 -0.089537255 -0.024370562 0.039769553
-0.0053507374 -0.056704268 0.002131456 0.053705588 -0.013947346 0.09863693 0.14262308 -0.08301032
-0.043679588 0.018563127 -0.0052790837 -0.027471546 0.051222276 -0.024688931 -0.06603554 -0.03708956
0.028104287 -0.08129503 0.0230508 0.02308465 0.051891543 -0.036187436 0.08770984 -0.010396737
-0.05636234 0.03712597 0.14325637 0.019639399 -0.0866113 -0.039224457 0.06340189 0.015827538
0.019901875 0.007402885 -0.002287251 0.0047357767 0.017358668 0.01611262 0.045343917 0.0467352
-0.081719555 0.010672971 0.047570795 0.07712869 0.016562484 -0.040664382 0.005225828 -0.020592004
0.08579949 -0.04409189 -0.10255486 0.06665145 -0.061792668 0.005807168 0.07089075 0.10034857
-0.09252734 -0.03513579 -0.025435738 -0.0788215 0.06820147 -0.017493887 -0.045711428 -0.07597959
0.12377843 0.020151813 -0.058914974 0.10250799 0.06991923 0.13141969 0.17768346 0.0591122
-0.08216261 0.022626717 0.0106210355 -0.07757899 0.068822145 0.1022731 -0.021310393 0.12630843
0.064210914 -0.03835927 -0.063793294 0.010840558 -0.025804 -0.0021334405 -0.008728584 0.062384345
-0.0802722 -0.013188426 0.029688343 0.06022076 -0.015208961 -0.07246043 0.014509795 -0.09740478
-0.0011659166 0.013034252 -0.049171653 0.13820341 -0.060833722 -0.0959837 -0.06442644 0.1284804
0.013954682 -0.06440173 0.0036061378 0.07615729 0.04904806 -0.12135507 0.06265174 0.0086509595
0.16063982 0.04523791 -0.052576706 -0.032385208 -0.030026674 -0.03145071 -0.001935822 -0.034448735
0.091064416 0.040536214 -0.011760213 -0.023308817 -0.0073447083 -0.0738759 -0.028298782 -0.08105997
-0.002419713 -0.0510719 0.041420724 -0.06941429 -0.058195647 -0.036998264 0.028816579 0.07177502
0.036252398 -0.010564463 0.072086304 -0.019637976 -0.023196843 0.047147956 0.050272085 0.099276386
0.072067246 0.0149321025 0.13723013 0.11493537 -0.16003385 0.04337474 0.06566855 0.04951594
0.016493587 -0.01296849 -0.024883665 -0.010321597 -0.033583228 -0.07433926 -0.002786864 -0.083752505
0.06432742 0.09834446 0.059078183 0.018219098 -0.023133902 -0.03163533 -0.045210592 0.04921194
-0.044392068 -0.019181103 0.012906162 -0.016503828 0.057105925 0.044889845 0.027544826 0.120008476
0.12819913 0.059410926 -0.018241659 0.035983633 0.11177275 0.025518792 -0.0534087 -0.047409125
0.14248821 0.09802565 0.012063747 0.1123614 0.095895335 -0.020831864 -0.06036815 -0.028962031
0.013087829 -0.11451937 0.032492742 -0.07137819 0.029799841 -0.0005090885 -0.0076023936 0.039124183
-0.045296904 -0.13054083 -0.08106501 0.035443395 0.023412256 -0.057849716 0.028739413 0.042162742
-0.0752075 0.02155672 0.038761023 -0.03476678 0.02987153 -0.022498883 -0.053278733 -0.0038160468
0.050645784 0.009090836 -0.09253105 -0.05033449 0.01520871 0.078005925 0.08745553 -0.04655192
0.086981334 0.07235343 -0.012752177 -0.051402315 0.03025753 -0.058602154 0.020822287 -0.07901488
0.0048398287 -0.1057287 0.08991093 -0.05620262 0.04712757 -0.12853105 -0.088337295 0.038202263
-0.032033034 0.014948038 0.04951293 0.038468383 -0.062346444 0.013039592 0.014140918 0.07852847

network_body._body_endoder.seq_layers.4.bias f4 [256]
00000000: 29ce 983b 203d 4e3b 1401 61bb 3a67 a53a
00000010: c318 d73b 03ce c83b 3401 ce3b 197b 163c
00000020: 90a7 19b9 f438 983a 5e72 5fbb 1b5a d93b
00000030: 48fa 463b 5a00 97ba 1d73 093c 9b96 8e3a
00000040: 6576 83b8 51f5 a43b bac6 d53a c57e d73b
00000050: faf5 6c3b 6a78 473a 8bfc a03b 7803 3a3a
00000060: 3150 363b b6bb c83b ff7c ea3a 58e9 833b
00000070: 5753 ad3b 7dba a33b 78fe a7ba 8d58 833b
00000080: f2fd 34b9 6141 eb3b 4fc5 b13b 4613 8f3a
00000090: 8c0c a03b 28a1 e13a 465b da3b 50c1 8239
000000a0: ab3c 0d3b dba6 083c 70f1 96ba f313 c7ba
000000b0: 6453 48bb 6f00 083c fde6 3d3b 4df9 823b
000000c0: 2af8 0eb7 127b 763b 7917 883b 08ec 083b
000000d0: 363d 293c 76af 5d3b 7494 6b3b db75 e03b
000000e0: b684 763b c9f8 b23b 8d0c ea3b 0df4 643b
000000f0: 0ac3 813b dee7 0a3c 9de6 733b 38a1 ac3b
00000100: 02be f53b 913f 2c3b 05da 003c 8f5b aa3b
00000110: 7d42 ceba 3101 053b 3e84 46b9 0aaa 2e3a
00000120: e2d2 f13b 4ea0 8f3b cb0a ca39 f2ca 0b3b
00000130: dcec 76b9 eeec 3c3b 9098 b3bb 3bc1 fc3b
00000140: 5c0a 5a3b 696b 093b 9ad2 863b dffb bc3b
00000150: 8693 8f3b d1b4 b03b a278 013c 4bc3 183b
00000160: e902 c53b 4c4b 7b3b f287 ffb9 1ef4 353b
00000170: d96d 01bb f959 ca3b 92c9 b63b 4f60 a33b
00000180: 83b1 d33b 8453 4139 5692 a33b 1498 bb3a
00000190: b593 c33a ad0a 863b a13f 07bb ce43 223b
000001a0: 0ea8 d03b cc6d cf36 df69 2a3c 7b22 95b8
000001b0: 96e2 983b 64bc 9c3b 4a63 683b 71b7 763b
000001c0: e2a3 b53a 69d1 023c 31da c2ba e293 df3a
000001d0: 7560 0c3b fad9 cfba 91a9 a23b be1c 2f3c
000001e0: f303 5a3c 9292 813b f432 063b 49f4 963b
000001f0: fa6a 923b 3cdc 893b 877b 023c 2154 9d3b
00000200: d849 8a39 75cc a43b 3f47 ab3b acb4 ee3a
00000210: 21b6 423b 1fff c53b 3523 243b 02fc 363c
00000220: a71c 463c ee31 2cba e1dd 513b 29c9 d83a
00000230: 64d4 623c 07f2 c4ba f31e 9b3b ea91 973b
00000240: 798c dcb9 94cf 273c 924f d13b 1445 483b
00000250: 3c79 deba 1365 873b 6c17 7d3b 7935 113b
00000260: 2a66 a03b 4a8d 043c bdf5 ea3b f2f3 c93b
00000270: 97b1 da3b 3313 ec3b e761 cb3b abce b83b
00000280: 2e1a 283c e007 a33b 2fab bc39 cd61 453a
00000290: e1d4 ae3a 08ea 073a 351a 07bb d0ff bb3a
000002a0: 1d42 023b 314b fd3a 4a19 c33b bb86 513b
000002b0: 5f9b 8b3b 3b06 c83b 0c5b b13b 0d03 9e39
000002c0: 01a5 ea3a 2bbb 913a 1fcd 813b 3e74 333c
000002d0: 9835 0d3b 48c7 a43b 43bc f33b b0ad 1c3b
000002e0: fc48 533b bb33 073c 216c 223b 708f 2b3b
000002f0: d917 013c bbe1 193c 5e6c 24bb 41bd c03b
00000300: fde3 c6bb b2aa 2c3c 226c 45bb 201a 343b
00000310: f241 97ba 5779 0d3b d435 963b 5dde 163b
00000320: bf51 d13b 1c30 d7b9 3414 363b 2364 bd3b
00000330: 7031 103b 4a7a 013c 631b f23b 9606 2c3b
00000340: 8253 0fbb 3fe4 0b3b 01ec 513b 35a9 a63b
00000350: dd05 cb3b f4e8 803b 9f13 203c ac7e 023c
00000360: 28d3 a33a 85a5 4239 ae90 02ba 4d2d f03b
00000370: 6d60 2c3b 5154 663b 26a7 a53b bc3c 443b
00000380: 1b26 c73b f317 833b 368a c93a 7db2 063b
00000390: c48e e13a 2e9a 8e3b 0206 90ba 0acd 083c
000003a0: 4ad2 01ba 786d c83b 8e82 9a3b c820 cd3b
000003b0: 366c 853b bd64 053b 0080 8b3a 3413 d83b
000003c0: 802b 6e3a 6416 3737 f6ce 943a ab38 0c3b
000003d0: 6f49 f83a 46cd 0d3b 96c8 5b3b 6bd6 823b
000003e0: b787 603b 7c58 a53b 2112 b13a 19c4 5bbb
000003f0: 5a94 023b 3e21 233b 3cf5 933b 0675 5cb9
0.004663248 0.0031469539 -0.0034332918 0.0012619265 0.006564231 0.006128074 0.0062867645 0.009184622
-0.00014653639 0.0011613653 -0.0034095268 0.006633056 0.0030361582 -0.001152049 0.008389262 0.0010878624
-6.2686195e-05 0.005034127 0.0016309835 0.0065763914 0.0036157356 0.00076091907 0.004912918 0.0007095854
0.0027818794 0.0061258925 0.0017890035 0.0040256195 0.005289476 0.0049965964 -0.0012816926 0.004008359
-0.0001726074 0.0071794246 0.0054251323 0.0010915778 0.004884308 0.0017214166 0.0066637127 0.0002493956
0.0021551054 0.008340563 -0.0011516046 -0.001518844 -0.0030567283 0.008300885 0.002897679 0.003997004
-8.52164e-06 0.0037609977 0.004153189 0.0020892639 0.010329535 0.0033826507 0.003594664 0.006849987
0.0037615723 0.0054617864 0.0071426095 0.0034935505 0.003960018 0.008478133 0.0037216314 0.005268242
0.0074994573 0.0026283006 0.00786448 0.005198903 -0.0015736368 0.00202949 -0.00018932016 0.0006662911
0.0073798755 0.0043831235 0.00038536484 0.0021330682 -0.00023548625 0.0028827745 -0.0054808334 0.0077134646
0.0033270335 0.0020968562 0.004114461 0.00576733 0.0043816 0.0053926487 0.007902296 0.0023309763
0.00601231 0.003834444 -0.00048738677 0.0027763913 -0.0019749312 0.0061752764 0.0055782283 0.004985846
0.00646037 0.00018437026 0.00499181 0.0014312291 0.001492134 0.004090628 -0.002063729 0.0024759653
0.00636769 6.181863e-06 0.010401218 -7.111296e-05 0.004665683 0.0047832 0.0035459572 0.003764596
0.0013858045 0.007984498 -0.0014866051 0.0017057622 0.0021419798 -0.0015857809 0.0049640615 0.010688005
0.013306606 0.00395424 0.0020477148 0.004606758 0.004468319 0.004207162 0.0079640215 0.0048012887
0.0002637643 0.005029256 0.005226999 0.0018211803 0.0029710608 0.0060423757 0.00250454 0.011168482
0.012091792 -0.00065687194 0.003202312 0.0016539443 0.013844583 -0.0015025743 0.004733914 0.0046255486
-0.0004206633 0.010242362 0.0063876593 0.0030558752 -0.0016973387 0.004131922 0.0038618697 0.0022157116
0.0048949914 0.008090327 0.0071704076 0.0061631138 0.0066740024 0.007204437 0.006206739 0.005639871
0.010260148 0.004975304 0.00035985696 0.0007529527 0.0013338589 0.00051847147 -0.0020614986 0.0014343206
0.0019875832 0.0019324777 0.0059539424 0.0031971175 0.004260465 0.0061042584 0.005412465 0.0003013838
0.0017901958 0.0011118402 0.00396122 0.010953007 0.0021546837 0.005028639 0.007438214 0.0023907237
0.0032239547 0.00825208 0.0024783688 0.0026178025 0.007879221 0.009392197 -0.0025089006 0.005881936
-0.006069659 0.010538744 -0.0030124267 0.0027481392 -0.0011540039 0.0021587217 0.0045840535 0.0023020722
0.0063879187 -0.0004104384 0.0027783038 0.0057797595 0.0022002123 0.007902691 0.0073885187 0.0026249043
-0.0021869843 0.0021345762 0.0032031538 0.005086089 0.0061957673 0.00393402 0.009770303 0.007964771
0.0012498843 0.00018562943 -0.00049806654 0.007329619 0.0026302591 0.0035145471 0.005055326 0.0029943427
0.0060775406 0.0040006577 0.0015376273 0.0020553165 0.0017208685 0.0043518757 -0.0010988119 0.008349666
-0.0004952295 0.0061165653 0.0047152704 0.0062600113 0.0040717376 0.0020354234 0.0010643005 0.006594086
0.00090854615 1.0912863e-05 0.0011353183 0.0021396081 0.0018942783 0.0021637245 0.0033536307 0.003992846
0.003426058 0.0050459486 0.0013509431 -0.0033533631 0.001992485 0.002489164 0.004515318 -0.0002102443
