results/R2/AgentController/AgentController-499994.onnx (onnx, 657373 bytes, 14 tensors)

83 f4 [116]
00000000: a14a 893e 9b2d 2f3e de78 5a3e 1ad9 883e
00000010: c939 883e ff3d 2c3e 3edc 593e 44df 883e
00000020: e9c3 883e cf34 313e ee74 573e 9dae 883e
00000030: a093 883e 78a9 2b3e ac3c 5b3e e56b 893e
00000040: 7d54 883e d0b0 333e 5841 543e e372 883e
00000050: 6391 873e c359 2a3e 5c8b 593e e0bd 893e
00000060: b1e4 863e 3343 313e 5b4a 523e d495 883e
00000070: e99e 873e 3a03 2a3e 98ed 593e cf37 8a3e
00000080: b2c5 853e a98d 2e3e d46b 513e 758b 883e
00000090: 4b16 873e 8631 273e da9b 5a3e 0eef 8a3e
000000a0: b81f 843e ecd3 293e e9b5 503e df84 883e
000000b0: accf 873e 7a55 243e 4d8a 5e3e f08c 8b3e
000000c0: 3646 843e 8e0b 283e 427c 523e 987e 883e
000000d0: 69c0 883e 8e53 263e 2886 5f3e 6c95 8b3e
000000e0: 2897 843e b8d6 273e b777 533e f94b 883e
000000f0: 6288 893e 3fa2 283e 02fa 5f3e 2448 8b3e
00000100: f667 843e f13f 253e a7f1 543e 9c2e 883e
00000110: 83c3 8a3e 763f 2d3e 9fdf 5f3e aca6 8a3e
00000120: b130 833e a322 223e 460d 543e 6515 883e
00000130: 2413 8c3e 9717 323e f6bc 5f3e c4e1 893e
00000140: 8b0a 833e 2a07 233e bf01 533e f6db 873e
00000150: cf78 8d3e c3e4 343e 8359 613e 705b 893e
00000160: 4867 853e cfd0 283e 58eb 543e 89fd 873e
00000170: bfc9 8e3e 686d 3b3e 21ca 5f3e b0ac 883e
00000180: cb63 883e 6e8c 2f3e f4bb 573e fa07 883e
00000190: 12ea 8e3e a572 3b3e 1121 603e 1e75 883e
000001a0: de7a 8b3e 9289 353e 5368 5b3e 9c17 883e
000001b0: a71d 8e3e 7e29 3b3e 2c23 5e3e 6541 883e
000001c0: a71d 8e3e 7e29 3b3e 2c23 5e3e 7541 883e
0.2681475 0.17107241 0.2133517 0.26728135 0.26606587 0.16820525 0.21275422 0.26732838
0.26711968 0.17305301 0.21040699 0.2669572 0.2667513 0.16763866 0.21409863 0.2684013
0.2662696 0.17547917 0.20728052 0.26650152 0.2647811 0.16635804 0.21244568 0.26902676
0.26346353 0.1731079 0.20536177 0.2667681 0.26488426 0.16602793 0.21282041 0.26995704
0.26127392 0.17046227 0.2045129 0.26668897 0.26384196 0.16327485 0.21348515 0.2713551
0.2580545 0.16584748 0.20381893 0.26663873 0.2652563 0.16048232 0.21732445 0.27255964
0.25834817 0.16410658 0.20555213 0.26659083 0.26709297 0.16242811 0.2182852 0.27262437
0.25896573 0.16390502 0.20651136 0.26620463 0.26861864 0.16468142 0.21872714 0.27203476
0.25860566 0.16137673 0.20795308 0.2659806 0.2710229 0.1691874 0.21862648 0.27080286
0.25623086 0.15833525 0.20708188 0.26578823 0.27358353 0.17391811 0.21849427 0.26930058
0.2559398 0.15920702 0.20606135 0.26535004 0.27631232 0.1766539 0.22006802 0.26827574
0.2605536 0.16485904 0.20792902 0.2656062 0.27888295 0.18303454 0.2185445 0.2669425
0.26638636 0.17143413 0.21067792 0.26568586 0.27912956 0.18305452 0.21887614 0.26651853
0.27242178 0.1772826 0.21426515 0.26580513 0.27756998 0.18277547 0.21693105 0.26612392
0.27756998 0.18277547 0.21693105 0.2661244

86 f4 [3]
00000000: c715 fe40 d2d4 983b 39fa f240
7.9401584 0.004664042 7.5930448

action_model._continuous_distribution.log_sigma f4 [1, 2]
00000000: 1819 123b c6ca 303a
0.002229279 0.0006744083

action_model._continuous_distribution.mu.bias f4 [2]
00000000: 9c2f 35ba b1ca 653a
-0.00069116964 0.000876586

action_model._continuous_distribution.mu.weight f4 [2, 256]
00000000: b438 10bc 2bec 033c d563 39bc 260a 113c
00000010: 3ccb 55bc 9972 6abb 594a 783c 1676 42bc
00000020: 5c31 87bc d8e1 31bc 12d3 64ba 8db5 d53c
00000030: 014a d4bc e66b b7bb bd8f 3cbc 6d22 6e3c
00000040: 33af 833b 6240 b03c bd37 683c a25d 6e3c
00000050: b023 61bb cce2 93bc 5e63 f0bb f5df 7dbc
00000060: e1e9 9fbc 1498 0c3d da73 403c 15c4 4fbc
00000070: d74d 2dbc b247 0f3d c5bf 443b 5918 49bc
00000080: 0806 703c 4467 a23c 48b6 88ba fd7d c7bc
00000090: 6034 1dbb a1f6 e7bb 59d3 013d 996f 1abb
000000a0: 02d4 aa3b 2e2b 063b 9f4c 363c e77e 9f3b
000000b0: 3b8e 623c 1490 ecbb e22e 88bc 64a9 0d3c
000000c0: 6339 0a3c 1164 0ebd 2765 81b9 806b 99bc
000000d0: 74fb e5ba 7e33 193d ffe1 85bb b6e1 c33b
000000e0: 3480 3a3c e625 043c 0bba a0bc 2c74 ce3c
000000f0: 0f48 053d 4172 a63c 1f67 7ebc 2119 103c
00000100: 3e96 ba3b b288 443a ab95 4dbc a8a1 81bb
00000110: 8d64 2dbc 2fdc 6c3c 1fc6 623c db28 743c
00000120: 9373 5cbc e062 f239 3007 eeba 9fb9 3538
00000130: b71f 96bb 6613 b93c 3761 6fbb cede a53b
00000140: 3983 ca3c e7cc 72bb 92f1 68bb 1875 fb3b
00000150: a06a c5bb b21d 8cba 9798 5ebc cdce 93bc
00000160: 31a1 edbc 7f42 b2bc f4a8 0bbb c2fb f2ba
00000170: c6bd 81bc bc66 22bb 7082 63bb 6ada 033d
00000180: c5ed 5ebc 325a 7d3a 6e1e 80bb 2c03 493c
00000190: 6f7f 0ebc b5fe 0cbb 6e3b a4ba c63c 5abc
000001a0: 3aab 2fbc 1527 0fbc c5b8 efbb 02b3 39bc
000001b0: 1959 06bc 273a 033c c9f8 cfbb bbf2 153c
000001c0: 2a8f 523c 7cca 8d3c c2b0 8c3c 6b40 7cbc
000001d0: d207 7e3c 6c48 57bc 3e80 12bc 80bd 12bb
000001e0: 3b22 b7bc f181 e7bb 41bb 99bc f3cf e63b
000001f0: 2f72 dabc c115 e93c 2efb c8ba 9c9f d7bb
00000200: 63a5 9b3b 6f4b 9cbb d28b 953c 2810 49bb
00000210: cfa6 603c 7f73 5cbc d663 01bc 8d4b 183c
00000220: 6106 afbc 1722 2cbc 357a a63c bfef 023c
00000230: ebc7 d7bb e348 36bc d942 a6bb 337e c8ba
00000240: 54c6 e6bc e9b7 ff3b de3a dd3a 3473 71bc
00000250: 80e2 5e3c 26ee 35bc a2b1 81bc 06d1 e03c
00000260: 7a8f 463a dd2a 11bc 08d8 ca3c 1052 d6bb
00000270: 2664 05bc 47c0 0b3c b48b 933c e331 5fbc
00000280: c1c3 313c 1c39 b53c af9d 21bc 324a 3a3c
00000290: d2fb ba3c 29e2 c93c d363 b5bc 5438 6fba
000002a0: 102d 4ebb 9996 593c dcb3 bebc 7ae1 13bc
000002b0: 3e11 f3b8 3b16 a3ba 9125 f13b 4170 173c
000002c0: da53 1bbc 1c0a e5bc 5017 da3a e5ee c43c
000002d0: 110d 1639 40fd 463b 883d 653c e089 e0bc
000002e0: 476f e5ba 38a9 fdb9 f451 643b 3712 33bb
000002f0: ec1d a5bb a351 7a3b 1f7f 36bb fd90 ebba
00000300: 770c e4ba 6043 babc 4eec 58bc 7f4c 76bc
00000310: de62 013d 4d6d 423b 3994 5cbb dce9 aa3a
00000320: 37da ce3c b3a0 813c 1d29 2ebc 293b c9bc
00000330: 70f1 16bb cdff 663b 95cb f3bc 4efd 6cbb
00000340: ac68 b4bb e312 9fbc 9c11 1abd 76ce f838
00000350: f636 b13b 3b09 1c38 6a7e 25bc 7ee4 d6bb
00000360: 2d4e 353b 9552 dc3b 7bca 513b d419 77bc
00000370: ab9a 0fbd 880b b4bc 5fc0 9abb a5e6 2ebc
00000380: 5454 423b 6bc6 3bbb c4eb 22bc c36f 2abc
00000390: 440e 353c f847 96bc ce48 adbc 8fa7 81bb
000003a0: 76d9 c7bc 1733 cdbb 27b4 86bc b7e1 33bb
000003b0: 2e1d ae3c 1a52 0a3c 017b 793c ae2c 863c
000003c0: bede b6bb 2828 ecbb 6018 fd3c fe04 6b39
000003d0: b830 05bd 2f5f 9c3c 8b93 0abd c8aa f13b
000003e0: c292 4bbc 7136 0a3c 8fa7 483c 9409 a93c
000003f0: 69fc ad3b f4c1 5d3c 163a e6ba 4729 dabb
-0.008802582 0.008051912 -0.011315306 0.008852517 -0.013048943 -0.0035773872 0.015154445 -0.011868974
-0.016503029 -0.010857068 -0.00087289617 0.026087547 -0.025914194 -0.0055975793 -0.011508879 0.014534575
0.004018688 0.021515075 0.014173445 0.014548691 -0.0034353547 -0.018052481 -0.0073360642 -0.01549529
-0.019520702 0.03432472 0.011746371 -0.012681027 -0.0105776405 0.034980483 0.003002153 -0.012273871
0.014649875 0.019824632 -0.0010430301 -0.024352068 -0.0023987517 -0.007078961 0.031695697 -0.0023565053
0.0052132616 0.0020472514 0.011126666 0.004867423 0.013827856 -0.007219324 -0.016623918 0.008646343
0.008436534 -0.0347634 -0.00024680162 -0.018728018 -0.0017546252 0.037402622 -0.0040857787 0.0059778346
0.011383105 0.008065676 -0.019619962 0.02520188 0.032539424 0.020318152 -0.015527516 0.008795054
0.00569418 0.0007497176 -0.012547891 -0.0039560385 -0.010583055 0.014456793 0.013841181 0.014902319
-0.013455289 0.00046231505 -0.0018160101 4.3326636e-05 -0.0045814174 0.022592258 -0.003652645 0.005061961
0.024720775 -0.00370484 -0.0035544378 0.007673871 -0.0060246736 -0.0010690002 -0.013586185 -0.018042946
-0.029007526 -0.021760223 -0.002131042 -0.0018538164 -0.015837561 -0.0024780473 -0.0034715198 0.032190718
-0.013606493 0.0009664624 -0.0039098775 0.012268823 -0.008697375 -0.0021514122 -0.0012529918 -0.013320154
-0.010721976 -0.008737345 -0.0073157274 -0.011334183 -0.0081999535 0.00800947 -0.006346796 0.00915211
0.012851516 0.017308466 0.017174128 -0.015396218 0.015504794 -0.013139825 -0.008941708 -0.0022390783
-0.02235519 -0.007065051 -0.018766047 0.0070438324 -0.026665775 0.028452756 -0.0015333646 -0.006580306
0.0047499402 -0.0047697346 0.018255148 -0.0030679796 0.013711645 -0.013455271 -0.007897338 0.009295356
-0.021365346 -0.0105061745 0.020321945 0.00799173 -0.0065851114 -0.011125776 -0.005073887 -0.0015296399
-0.028170742 0.007803906 0.0016878506 -0.014736939 0.0136038065 -0.011104142 -0.015831772 0.02744342
0.000757448 -0.008860317 0.024761215 -0.0065405443 -0.008141553 0.008529729 0.018010952 -0.013622734
0.010849894 0.022121958 -0.009864255 0.011370229 0.022825155 0.024643974 -0.022142326 -0.000912552
-0.0031459965 0.013280534 -0.023279123 -0.009025926 -0.000115903546 -0.0012442538 0.0073592146 0.009243072
-0.009480441 -0.027958922 0.0016639028 0.024039695 0.00014309982 0.003036335 0.013991721 -0.027409494
-0.0017504477 -0.00048381998 0.0034838887 -0.002732409 -0.0050389674 0.0038195632 -0.0027846766 -0.0017972287
-0.0017398734 -0.022737205 -0.013239933 -0.0150328865 0.031588428 0.00296672 -0.0033657684 0.0013039666
0.025250537 0.015823698 -0.010629919 -0.024564343 -0.0023032092 0.0035247684 -0.029760161 -0.0036161724
-0.005505642 -0.019418186 -0.03761445 0.00011864018 0.005408163 3.7201895e-05 -0.01010094 -0.006558
0.0027665005 0.0067237117 0.0032011557 -0.0150818415 -0.035059612 -0.021978155 -0.0047226395 -0.010675107
0.0029652314 -0.0028652202 -0.009943906 -0.010402623 0.0110507645 -0.018344864 -0.02115288 -0.003956742
-0.024395686 -0.006262194 -0.016443325 -0.002744777 0.021254148 0.008442426 0.01522708 0.016378727
-0.005580752 -0.0072069354 0.030895412 0.00022413206 -0.032517165 0.019088356 -0.033832114 0.007375095
-0.0124251265 0.008435831 0.01224698 0.02063445 0.0053096307 0.013535012 -0.0017564918 -0.0066577527

action_model._discrete_distribution.branches.0.weight f4 [1, 256]
00000000: 2f86 163c b2bd d83b b4bf b63b 9ee2 353a
00000010: a31f 82b9 9a16 913b e18c 143b 7b94 8e3b
00000020: b288 97bc b223 d43a 3fc9 723a bf80 873b
00000030: ab00 3dba f93c 453b 3d1a b83b 8a5e 63bb
00000040: 7134 443b efb8 b7bb d8ac b8bb c753 043c
00000050: 48dd 53bb aa45 2bbc 1bfb 5ab9 b922 973b
00000060: 8c53 8a3b 47ed 043c f3f0 82bb 0c64 953a
00000070: 84b9 ccbb 9758 1bbc c2bd af3b e7b0 113c
00000080: 8713 9ebb 966f 14bc 5fc2 5cbb 0c25 18bc
00000090: 8476 9e3b 4741 88ba 75d2 09bb e3b9 863b
000000a0: eba4 2b3c 3577 95bc b381 db3a 016a c83b
000000b0: 001e a23c efa9 f6bb b571 7739 f47d ae3a
000000c0: 046e 84bb a0cc b6bb f032 51ba 5dff a43b
000000d0: 3b11 b73b ebdc afbb 432a 07bc 173c 13b9
000000e0: 7a2d 8c3b 82fe cc3b 282d e2bb d384 e63b
000000f0: 0043 25bc 3313 b4bb 57aa 1bbb c8fb 3fbb
00000100: 121e 3bba 0843 4f3b b3ed 8d3b 4cb9 c8bb
00000110: 8e37 393c 6042 96bb 0b4c 093c c396 7b38
00000120: c8f2 81bb f53c 65bb 8ffe 8bba a72b 53bb
00000130: 0b95 f43a 0f65 843a d2b7 fcba 4c08 8bbb
00000140: 448e c53b c8fb 2fb9 d724 a6bb 6b96 f6bb
00000150: 8046 9c3b 67fd 6db9 3f85 9a3b f908 8db9
00000160: 322b 39bc eb00 a93a e70c 09bb e05b f43a
00000170: c83b 3f3a b5ed 133c c7eb 013b f101 3c3b
00000180: 3398 8d3b f6dc c5bb e2e4 c6bb fcfc 053c
00000190: 5aaa cf3b 506b 953b 2791 bf3b c513 df3b
000001a0: df7b c0b9 9744 113a 15f4 0fba 08fc a3b9
000001b0: 5502 df3a a739 84ba 8883 7e3b a39d ca3a
000001c0: 5260 d93a 302a da3a 6280 e13a a59d d8ba
000001d0: cc07 093b 76ba 133c 94a4 b8bb 0bf3 09ba
000001e0: 9bd0 0e3b b052 4fbc 6c47 203c 3057 003c
000001f0: 5818 91bb 915a acbb 76a9 a23b 3a2a b6bb
00000200: eb68 3c3b 4fe4 ab3b 296a 16bc 5565 4abb
00000210: 2088 6fbb 05d1 ab3a fa3b a2b8 bad9 83bc
00000220: 087e 05b9 9a85 7abb a014 e03b 234b 003c
00000230: eaea 7d3b bfdc 16bc 4956 a0bb 4aae 5f3c
00000240: c36b b0bb eef2 90bb 0e5f adbb d647 c0b9
00000250: 1a30 3f3b 4e40 ae3a b590 923b 97b6 9fbb
00000260: fc8e 36bc 8f54 263b d35e e2bb e550 1a3c
00000270: f718 8bba 70f1 a23b 4e16 96bb fda5 e5ba
00000280: cdbb 303b 0346 c2bb c9c7 163c 5099 74ba
00000290: ff9f dcba 8b5b cbbb a8f8 92bb 5111 2f3c
000002a0: bc01 29bb 37f5 153c 04c0 9d39 cd6e a638
000002b0: cfa8 a13b 118f 443b ea25 5dbc eed2 bbbb
000002c0: 8ce0 203b ba00 56bb edd8 44bb 1fa8 8bbc
000002d0: 4be5 e4ba f48d a539 b5c8 543b 9b0e 1fba
000002e0: b7ff ab3b 407e e03a efd1 5f3a 87ed 8d3b
000002f0: e5a3 f6bb 6f33 55bb 3405 91bb 7dd2 053c
00000300: b950 063c 2dd9 ca3b e70f deb9 c30e 1c3c
00000310: ce9d 94b9 97f2 bfbb a2f4 eb3b 8b69 02bc
00000320: 4af9 58bb 6dea 1cbb aa11 813b 46bc 333c
00000330: afb7 bb3a e582 23bb 27a2 5a3b b0d7 823b
00000340: cf51 ec3b 885a 6aba 68f5 983b eaaa a93b
00000350: 23af 61bb 1e8f 203b c4b5 013b 1725 003c
00000360: 3ff5 4abc 7451 0fbb e6a3 94bb 9e15 883b
00000370: 79be 80bb d526 adba 68f6 cfbb e40a 3fbb
00000380: 095b 02ba 3e3f 803b 80d2 103a 9433 a1bb
00000390: 0870 0a3c 37a3 0bbb abdb 593b 3f18 18bc
000003a0: 65f3 2cbc cbc0 103a bd49 223b 7ab1 bb3a
000003b0: aeea a5bb dc27 4a3c d85a 133c 255e 683a
000003c0: 5f0f 5c3c 3883 373c f881 ff3b c836 35bb
000003d0: ff8e 8bbb a740 19bb 7d69 aa3a f50b 923b
000003e0: 82c6 8dbb c0e6 4dbb 44d1 07bb 9949 20bb
000003f0: 04b6 2e3c 37f4 983b 11b3 163c 9fb1 b5bb
0.009187265 0.0066144103 0.005577052 0.00069383706 -0.00024819103 0.004427743 0.0022666978 0.0043511963
-0.018497799 0.0016184954 0.00092615554 0.004135221 -0.00072098774 0.0030096157 0.005618362 -0.00346938
0.0029938484 -0.0056067626 -0.005635839 0.008076615 -0.0032327939 -0.010453621 -0.00020883644 0.0046122936
0.0042213853 0.008113212 -0.0039960085 0.0011397614 -0.006247701 -0.009481571 0.005363197 0.008892274
-0.004824105 -0.009059807 -0.003368519 -0.009286176 0.0048359055 -0.0010395431 -0.0021029983 0.004111515
0.010476331 -0.018245319 0.0016747027 0.0061161523 0.019789696 -0.007527582 0.00023598115 0.0013312683
-0.004041435 -0.0055785924 -0.00079803076 0.0050353245 0.005586771 -0.0053669116 -0.008249822 -0.00014041398
0.004277882 0.0062559256 -0.0069023557 0.007034877 -0.010086775 -0.005495453 -0.0023752654 -0.002929436
-0.0007137965 0.0031625647 0.0043313145 -0.0061256047 0.011304749 -0.0045855492 0.008379946 5.998347e-05
-0.0039657094 -0.003497896 -0.0010680723 -0.0032222064 0.0018660141 0.0010100919 -0.0019280857 -0.0042429324
0.0060289223 -0.00016783096 -0.0050703096 -0.0075252554 0.0047691464 -0.00022696481 0.004715591 -0.000269003
-0.0113018025 0.001289395 -0.0020912231 0.0018643104 0.000729498 0.009028842 0.0019824372 0.002868768
0.004321122 -0.0060383035 -0.0060697654 0.008177992 0.006337446 0.004559912 0.005846161 0.0068077766
-0.00036713385 0.0005541532 -0.0005491388 -0.0003127756 0.0017014245 -0.0010087983 0.0038835723 0.0015458356
0.0016584492 0.0016644653 0.0017204399 -0.0016526474 0.0020909188 0.009016624 -0.0056348536 -0.00052623515
0.002179182 -0.012653992 0.009782653 0.007833287 -0.004427951 -0.00525982 0.004964049 -0.005559233
0.002874906 0.0052457224 -0.009180584 -0.0030883153 -0.0036549643 0.0013108557 -7.7359335e-05 -0.016095031
-0.00012730819 -0.0038226605 0.006838396 0.007830414 0.0038744756 -0.009207903 -0.0048930985 0.013652394
-0.00538394 -0.0044234907 -0.0052908724 -0.00036674616 0.0029172958 0.0013294311 0.004472817 -0.0048740613
-0.011142489 0.002537999 -0.0069082766 0.009418701 -0.0010612299 0.0049726292 -0.0045802956 -0.0017520782
0.0026967407 -0.005928756 0.009202906 -0.00093307067 -0.001683235 -0.006205981 -0.0044852085 0.010685281
-0.0025788387 0.009152702 0.00030088436 7.936135e-05 0.0049334536 0.00299925 -0.013497809 -0.005731932
0.0024547903 -0.0032654242 -0.0030036524 -0.01704794 -0.0017463354 0.00031577016 0.0032468264 -0.0006067545
0.0052489894 0.0017127469 0.00085380574 0.004331294 -0.007526862 -0.0032531878 -0.004425669 0.00816786
0.008197957 0.00619044 -0.00042354988 0.009525004 -0.00028346333 -0.0058577764 0.0072007934 -0.007959734
-0.0033107572 -0.002394344 0.0039388733 0.010970181 0.001432171 -0.0024949845 0.003336081 0.003992997
0.007211901 -0.0008939882 0.0046679266 0.0051778452 -0.0034436665 0.0024499367 0.0019792179 0.007821343
-0.012387573 -0.0021868618 -0.00453614 0.0041529676 -0.003928956 -0.0013210425 -0.0063465126 -0.0029150778
-0.0004972672 0.003913789 0.0005524531 -0.0049194787 0.008449562 -0.0021307 0.0033242505 -0.0092831245
-0.010556077 0.00055218925 0.002476319 0.001431986 -0.0050633764 0.012338605 0.008993827 0.0008864126
0.013431399 0.011200719 0.007797476 -0.002765106 -0.00425899 -0.0023384483 0.0013001409 0.004456992
-0.0043266425 -0.0031418055 -0.0020724097 -0.002445793 0.010663513 0.0046677846 0.009197966 -0.0055448557

network_body._body_endoder.seq_layers.0.bias f4 [256]
00000000: e092 ec3b 65f5 62bb 163f 8abb 2f57 2bba
00000010: eebf a83a 95cb 9e3b 4492 1d3b 1798 433b
00000020: 81e9 833b 278c 21bc c4e5 2f3c 266c 9d3b
00000030: 55f5 62bb 2e3d a13b 340a a33b e92d 183c
00000040: 2ea7 9a3b 25b5 c73b 4391 023c cb8c 8abb
00000050: 9368 ed3b cc2e 0aba 1a28 0f3c fb70 47ba
00000060: 6c0a c4ba 8ead 743b b308 80bb 806c 5f3a
00000070: 47fb 453b 543d 30bb be4b ca3b 8eca 103a
00000080: 24cd 173a c8f7 9f39 6bd6 e23b c63b f23b
00000090: 3344 343c 3cc8 f339 c06b 9e3b f2e0 6bbb
000000a0: 506d 42bb c670 e23b 8b59 0a3b 6994 723b
000000b0: a0d2 5fbb 255d fe3a 48d5 893b e4ab 9e3b
000000c0: 43e9 a83b 9092 233b 2fbc 86bb 8949 133c
000000d0: 0d85 c239 18fa 833b 9c18 433b 73a4 25b9
000000e0: 0960 a43b 6082 143b 019a 113c 391e 843b
000000f0: 8aa0 d9ba 7875 bf3b e07c 933a 74aa 823a
00000100: 5e66 aa3b aa73 a33b a484 8cba 2c40 dc3b
00000110: 7e27 ad39 b433 d9ba c511 153a d208 683b
00000120: b2ce 133c a4c8 58ba 5bcc a03b 1c98 2abb
00000130: 8ca9 4ebb 35fe f63b c64a 3c3b 83e0 dbba
00000140: 12d5 823b 9913 003b 5ecd f2b9 3cb4 453b
00000150: 5240 8d3b 18d7 013a b50f ba3b 37e2 9a3b
00000160: 3d6d f23a bfb3 1ebb 3d76 6b3b 5f20 9a3a
00000170: 71d9 133c c060 b93b 9832 153c cb6a d4ba
00000180: 7280 7aba 1971 2d3b 0623 fe3b 989b 763b
00000190: 5020 723a d540 263c 49a1 20bb d5fb 563b
000001a0: 2857 cbba ac77 a73b f50e 053c 7e42 063b
000001b0: b732 c03b 2c1a 88ba 5751 083c 72f2 063c
000001c0: d009 a5b8 c833 533b 6429 e63a f2e1 81bb
000001d0: c0f4 1cbb e654 10bb 0a4e 2e3b eb03 013c
000001e0: 8c74 a23b 889c 943a 14da 8d3a 150d ce3a
000001f0: 67dc 743b e0d7 af3b 1d7f 893a 25b2 b9bb
00000200: a481 153c 018d 1f3c 8371 38ba 4e8a 27bb
00000210: 1419 6c3b 3d2f fb3b 9ac8 763b 6f5b 6c3b
00000220: cff9 09bc b9c0 493b a178 ae3b d6da e43b
00000230: 8b74 99ba 2f2d 453b ddc5 b73a 3efc b03b
00000240: 8f90 123b 3e42 2d3b 0992 193b 72b9 6e3b
00000250: c18c 143a 72a8 3c3b 5169 ac3b 956f f03b
00000260: 3f0e 3c3b 209b 353b fa80 353a b53f 6b3b
00000270: fde3 c7b7 a9f2 053b e473 1fbc 8cfc ce3b
00000280: 4c8f bebb c76d 6a3b 72cc 9e3a 158b 18bc
00000290: 5a62 cfbb de2d 6cbb 137f ffbb ca39 983b
000002a0: 63ad 22bb bd2f 103c f569 4fbb e912 ac3b
000002b0: fb4b 49bb 401d fe3a 1a80 a13b 55f2 243b
000002c0: 59e3 743b 0bc3 043c aba6 e23b f17c ce3b
000002d0: 66d7 993a 1450 ee3a 0a4c 053c 0312 6f3b
000002e0: 2b4c 013b b579 9e3b c519 b5ba 9f5b 1a3c
000002f0: 8495 f13b c4cf 77bb 5e9d 7dba d9e3 5439
00000300: 7258 e23a 6c38 8bbb b11a cc3b 4f4c 3d3b
00000310: b8d7 183c aa50 033c 1ebf 5b3b fcbe 223a
00000320: d2bc c23a 779c 5a3b 2c64 443b 3541 783b
00000330: 3f84 2eba e617 de3a 3f64 9a3b 0654 5b3b
00000340: 889c 2a3b cb2e b03a 495b cf3b 2fc7 98bb
00000350: 9769 f83a 4b49 e93b c9bc 043b 4159 2d3b
00000360: 99dd f73a d0c7 863a fcac e93b 45a8 353c
00000370: 47b9 d639 020b 263b 19d8 853b 3096 203b
00000380: f88b 473b fd23 df3b 899c e6b9 f977 87ba
00000390: 0146 aa3b 04c7 9ab9 44cb 6b3b 07e5 daba
000003a0: d5b0 08bb 8e6b 193a ccff bebb a3f4 343c
000003b0: f4d2 12ba b088 e63b fc63 613b 9939 1a3b
000003c0: ed41 e93b 16a1 e7ba 646e 3239 adcd 643b
000003d0: c869 423b b8d8 d43b 5790 e9ba 8adc c13b
000003e0: eb63 9fbb 2a62 323b d0c0 383a 7b4f 193b
000003f0: 58d0 363b e321 ce3b 2209 5fbb a2b6 aab9
0.0072196573 -0.003463113 -0.004218946 -0.00065361237 0.0012874582 0.004846046 0.002404348 0.0029845291
0.0040256386 -0.009860075 0.010735933 0.004804152 -0.0034631093 0.0049206233 0.0049755815 0.00928829
0.0047196364 0.006094592 0.007969203 -0.0042282096 0.0072451322 -0.00052712555 0.008737588 -0.0007608083
-0.0014956719 0.0037334892 -0.003907287 0.00085229427 0.0030209587 -0.0026892023 0.00617358 0.0005523347
0.0005790761 0.00030511455 0.0069225333 0.0073923795 0.011002588 0.00046497758 0.004834622 -0.0035992232
-0.0029667206 0.0069104163 0.00211105 0.003701473 -0.0034152642 0.0019406421 0.0042063333 0.0048422683
0.00515476 0.0024959184 -0.0041117887 0.0089897 0.00037101694 0.004027616 0.0029769307 -0.00015796888
0.005016331 0.0022660717 0.008886815 0.004031923 -0.001660363 0.005842861 0.0011252426 0.0009969012
0.0052001914 0.0049881535 -0.0010720682 0.006721517 0.00033026555 -0.0016571195 0.0005686547 0.0035405648
0.009021448 -0.0008269644 0.0049071736 -0.0026030606 -0.0031534163 0.007537628 0.0028731092 -0.0016775284
0.003992685 0.001954293 -0.00046310847 0.0030167243 0.004310646 0.0004953011 0.005678142 0.004726674
0.001849569 -0.0024216024 0.003592863 0.0011758915 0.00902401 0.0056572855 0.009106301 -0.0016206143
-0.0009555883 0.0026465117 0.00775564 0.0037629362 0.00092363823 0.010147293 -0.0024510196 0.0032803912
-0.0015513645 0.0051107015 0.008121242 0.002048641 0.0058654207 -0.0010383776 0.008320174 0.008236514
-7.869641e-05 0.003222691 0.0017559943 -0.0039637024 -0.0023949593 -0.002202326 0.0026596808 0.007874469
0.004957741 0.0011338154 0.0010822439 0.0015720451 0.0037362815 0.0053663105 0.0010490153 -0.0056669884
0.009125147 0.009738208 -0.00070359575 -0.0025564614 0.003602569 0.0076655434 0.003765619 0.003606524
-0.008421375 0.0030785038 0.0053244387 0.006984095 -0.0011707706 0.0030086746 0.001402076 0.0054011634
0.0022363996 0.0026437188 0.002343299 0.0036426452 0.0005666726 0.0028786925 0.005261578 0.0073375204
0.0028695015 0.002771087 0.0006923821 0.0035896127 -2.3828814e-05 0.0020438826 -0.00973222 0.006316727
-0.005815422 0.0035770999 0.0012115373 -0.0093105035 -0.006328863 -0.003603808 -0.007797131 0.004645561
-0.0024822585 0.008800444 -0.0031648849 0.0052512777 -0.0030715454 0.0019387379 0.004928601 0.0025168855
0.0037366955 0.0081031425 0.006916841 0.0063015153 0.0011737167 0.0018181824 0.008135805 0.0036479242
0.0019729238 0.004836286 -0.0013816884 0.009421258 0.00737256 -0.0037813047 -0.00096746336 0.00020302775
0.001726879 -0.0042486694 0.006228768 0.0028884595 0.009328775 0.008014837 0.0033530663 0.00062082685
0.0014857298 0.003335742 0.0029966934 0.0037880663 -0.00066572794 0.0016944378 0.0047116573 0.003346683
0.0026033241 0.001344168 0.0063280207 -0.0046624164 0.0018952367 0.007119333 0.0020254126 0.0026450905
0.0018910646 0.0010282937 0.007131217 0.011087482 0.00040955303 0.002533615 0.0040845987 0.0024503581
0.0030448418 0.00680971 -0.00043985646 -0.0010335437 0.0051963334 -0.00029521447 0.003597931 -0.0016700336
-0.0020857353 0.0005852514 -0.005828833 0.011044654 -0.00056008925 0.0070353374 0.003439187 0.0023532866
0.0071184547 -0.0017671909 0.00017016527 0.0034912631 0.0029665101 0.0064955615 -0.0017819506 0.005916183
-0.004864206 0.0027219155 0.0007047774 0.0023393321 0.0027895179 0.0062906607 -0.0034032543 -0.00032561

network_body._body_endoder.seq_layers.0.weight f4 [256, 119]
00000000: d940 10be a3e0 afbd a7fd 103c 0678 65be
00000010: 7c46 833e 9dc3 ab3d 393f 443d dead c5bc
00000020: 7c29 773d 0808 5fbd 65d3 f2bb 4de4 dabd
00000030: f48e d93c c190 f3bd 8807 393d fd74 003d
00000040: f630 d63d e502 12be ebcc 74bd d8ae 31bc
00000050: 53b1 0abd 15d0 4d3d 88fb ca3d 6e98 433d
00000060: fe87 29be c6e2 893d 0ea2 f2bd 8f5a d2bc
00000070: 4c62 85bc 35c3 72bd 3a24 073e edfa 3fbd
00000080: 831e 09be fb93 b13c ed14 38be fc3d 053e
00000090: b643 ed3a ed71 1fbe 63cd f0bc e59e 393c
000000a0: 3864 74bd 790d a7bd a9f9 f33d f575 d93c
000000b0: 1e98 6fbd c897 3b3d 550b e9bd 3da2 e3bc
000000c0: 3c8e 29bc ca95 503d 7932 f53c 66c4 253e
000000d0: 8626 003e a1b3 c4bd cff7 15bd e77d 683d
000000e0: b8f4 513e eff8 b3bd 2a55 b0bd c938 f03d
000000f0: 1ec3 6fbd 3f0b b13c 98af 8d3d 90f5 06be
00000100: 040d 9e3b 65fd cd3d 0b3c a1bc a96b 803d
00000110: c351 01be 4152 50bd 77fb fd3b 6fcf 4dbd
00000120: acb1 f2bc 9512 dc3d 3bc8 e8bd b0e4 e6bb
00000130: 7654 c9bd c4fc aa3d 0c22 8f3d fab6 b03b
00000140: a0c1 313d 0def b4bd a4e7 2bbd 61cd 2c3e
00000150: fb36 53bc 666b 823c 6076 c4bc 8476 2abe
00000160: b53b 203d 8c96 52bd 3828 8ebc 4705 19be
00000170: 42f6 afbc cf59 8b3d b1ce 07be cfd8 3d3d
00000180: b189 5bbe 9b70 3c3e cda6 3ebe 004b 6c3c
00000190: 26c9 68bd b613 a03d 2566 79bd 5d5c 7fbd
000001a0: 4390 683e b181 e4bd 4194 15be 7256 2b3d
000001b0: 465b 193d 2d49 58bd 71fd 72bb c554 1a3d
000001c0: c5ce e33c dcb6 fe3c 06a3 93bb e4b9 a5bd
000001d0: f595 313e 28e5 72bd cd2d d2bc 9753 8ebd
000001e0: c9f6 e63d 8280 2ebd 32ab 36bd 558a 7fbe
000001f0: f7f4 c83d 0884 b3bb edb5 793d 44ac abbc
00000200: 0e9c 333c c30f 063e f5d3 08be dbf3 283e
00000210: 7154 363e 5af1 a5bd 2509 233d d1e7 47be
00000220: 1e6e 2cbd 9318 203e ed9f 8e3d aa2f aabd
00000230: a70c 29bc b874 21bd 40a0 f8bd 0fda ab3c
00000240: 19df d2bd 9fbf 0b3e 3880 1dbe 19fc fdbd
00000250: ff3b e03c d6db 683c 4377 9cbd a238 363c
00000260: 35a2 79bb bc07 a0bc ad4a e7bd 50df 31be
00000270: 55c1 d83c 2c2d 0d3e d658 9abd 3f11 a4bd
00000280: df5d 133e fcd6 003d 3092 133d ae99 36bd
00000290: 0907 003d dc19 013e 411c 643d 42d0 97bd
000002a0: b389 ccbc f0af c2bc 3169 9b3d 8c9c 52bd
000002b0: cb63 2dbe 16b3 853c 8ebd 02be 5e03 46be
000002c0: 9070 bfbc a831 a1bc bb35 f93d f232 ddbd
000002d0: fe5f b13d be48 05be 9fe5 b43c 9192 283d
000002e0: e21e 9abd fc0d 18bc 2589 063e 3d96 42bd
000002f0: 8622 9a3d 972c 42be c389 c9bc 3489 0dbe
00000300: 7b04 81bd e8df c83a d8a9 a2bb 0f42 04bc
00000310: 6b0d 1dbd 7e8c 0ebe 77ab ae3d 6966 6abd
00000320: 6622 aa3d 7378 003e 258d 69bc b759 b93d
00000330: b441 25bd 9c02 ffbd e41b ec3c 58dc fc3c
00000340: 3500 073d 8477 873c 9736 a0bd 2d54 eebc
00000350: 8856 b63c d630 623d e153 d03d 24ec 15bc
00000360: aef0 c2bd 893c 293d 9ef6 03bc 7a3e f93a
00000370: 0c75 3cbe 1043 6f3d 604b 8dbd ea64 1ebe
00000380: 2f0f 393c 5edc 50be ddae 7d3d 641b c13d
00000390: 63ff be3d 4aa4 7a3d 97a9 35be ec69 303e
000003a0: d3de e5bd 813a 043e cc62 5b3e 4298 c5bc
000003b0: 9889 d43c 2f0e 17bd 3194 863d bc53 e0bd
000003c0: 1af1 09bc 4489 d43d 1e58 a73d affa 0dbd
000003d0: 6777 a6bd 6bc2 f8bd 9d50 23be 8eb2 c43d
000003e0: 9a64 173d 4612 09bd 7171 c9bd 1983 683c
000003f0: 7fcf 55bd 8f08 b73d 50ca 2fbd e0fb be3d
-0.14087237 -0.08587768 0.008849538 -0.22409067 0.25639713 0.0838692 0.047911856 -0.024130758
0.060342297 -0.05445102 -0.007410454 -0.10688076 0.026557423 -0.11892844 0.045173198 0.03136157
0.10458557 -0.14258917 -0.059765738 -0.010844909 -0.033860516 0.05024727 0.09911257 0.04775279
-0.16555783 0.06732707 -0.11847316 -0.025677947 -0.016282223 -0.059268195 0.13197413 -0.04687016
-0.13390546 0.021677008 -0.17976733 0.13011926 0.0018101844 -0.15570803 -0.029394811 0.011329387
-0.05966589 -0.081568666 0.11912853 0.026545504 -0.05849468 0.045799047 -0.113791145 -0.027787322
-0.010348853 0.0509241 0.029931294 0.16188201 0.12514696 -0.09604574 -0.03661328 0.056760695
0.20503509 -0.08787715 -0.08609994 0.11729581 -0.058535688 0.021611808 0.069182575 -0.13179612
0.004823329 0.10058097 -0.019681951 0.062705345 -0.12628846 -0.050859693 0.007750924 -0.050246652
-0.029625736 0.10745732 -0.11366316 -0.0070463046 -0.09830563 0.083489925 0.06988916 0.0053929063
0.043397546 -0.08834658 -0.041968957 0.16875221 -0.012891526 0.015920352 -0.023982227 -0.16646773
0.03911944 -0.051413104 -0.017353162 -0.1494342 -0.02147973 0.06804239 -0.1326244 0.046349343
-0.21439244 0.1840233 -0.18618317 0.014422178 -0.056832455 0.078162596 -0.06088843 -0.062343944
0.22711281 -0.11157549 -0.14607336 0.041830488 0.03744056 -0.05280416 -0.0037077332 0.0376785
0.027808556 0.031093054 -0.004505518 -0.080920964 0.1734236 -0.05930057 -0.025656605 -0.06949537
0.11277539 -0.042603023 -0.04459686 -0.24955113 0.09812348 -0.005478386 0.060964514 -0.020956166
0.010962499 0.1309195 -0.13362105 0.16499273 0.1780565 -0.08102675 0.039803643 -0.19522025
-0.042097203 0.15634374 0.06964097 -0.083098724 -0.010317958 -0.039417952 -0.1213994 0.020978002
-0.10296459 0.13647316 -0.15380943 -0.124015994 0.027372358 0.014212569 -0.07639935 0.011121901
-0.0038091068 -0.019534938 -0.1129354 -0.17370343 0.026459375 0.13786763 -0.07536475 -0.08011102
0.14391278 0.031455025 0.036028087 -0.044580154 0.03125671 0.12607521 0.055691008 -0.07412769
-0.024968004 -0.023765534 0.07588423 -0.051418826 -0.16932599 0.016320746 -0.12767622 -0.19337222
-0.023369104 -0.019676998 0.121684514 -0.10800733 0.08660887 -0.1301603 0.022082148 0.0411554
-0.07525422 -0.009280678 0.13138254 -0.04750656 0.07526116 -0.18962322 -0.024601823 -0.1382187
-0.06299683 0.0015325518 -0.0049640946 -0.00807239 -0.038342874 -0.13920781 0.08528798 -0.057226572
0.08307342 0.12545948 -0.014254843 0.09050315 -0.040345863 -0.124516696 0.028821893 0.030866787
0.03295918 0.016536482 -0.07822912 -0.029092873 0.022258058 0.055222355 0.10172249 -0.009150539
-0.09518562 0.041317496 -0.008054404 0.0019015812 -0.18404025 0.058413565 -0.06899142 -0.15468183
0.011295124 -0.20396563 0.06193434 0.094290525 0.09326055 0.061191835 -0.17740475 0.17227906
-0.11224141 0.12912942 0.21424407 -0.024120454 0.025944516 -0.03687876 0.06571234 -0.10953471
-0.0084192995 0.10377744 0.08171104 -0.0346629 -0.08128243 -0.12146457 -0.1594872 0.09604369
0.036961176 -0.033464693 -0.0983609 0.014191412 -0.052199837 0.08937179 -0.04291755 0.09325385

network_body._body_endoder.seq_layers.2.bias f4 [256]
00000000: c2ba 883b 22b7 f83a 5513 253a f86e cb3b
00000010: a5fc 3b3b 6f79 24bb 70d5 1d3c 251e 94ba
00000020: aeaa 0538 a059 f63a 683d 23bb 4a58 3b3b
00000030: 247e d73b d523 9cbb 7358 1c3b 584b df3a
00000040: 86b6 46bb 0ae3 08bb de0d e5b9 6b9b cdba
00000050: 86b6 c039 f8d7 9e3b f600 94ba b933 483b
00000060: d016 1a3c d7fa 6d3b 232d 143b 4b09 003c
00000070: 23e9 b93b b729 663a 3b06 4e3b d88e 8738
00000080: 4d93 82ba 0e44 c938 3abb bf3b f15d 683b
00000090: a3f7 abbb d718 4bba ddb8 153a da1d d63b
000000a0: 7230 6bba 7dec 5d3a 0c9b aa3b 7672 b33b
000000b0: 16f2 90b9 ae3c 233a e191 713b 2ee2 223c
000000c0: 06e9 b2ba c5b1 393a 3e60 ac3a 6437 493b
000000d0: d021 903a 6b39 b8ba e749 a33a ee2f 45bb
000000e0: ebde f93a 7218 c83b 69ee ce3a de98 d93a
000000f0: 9c72 703a da90 513b 75fd 693b ae79 3d3b
00000100: b3f8 8f3b a8c9 4b3a dfc8 3f3b f617 60bb
00000110: 48fe 35ba 2d96 abbb a888 993b 9a4b 8e3b
00000120: 7c7d e1bb 7dd6 c73b 630f da3b f23e 7939
00000130: 0cdf d93a 8a1e bf3b 0135 963b 6159 203a
00000140: 1e8b c13a 7664 903b cb60 d839 e1ad c23b
00000150: 97d0 3abb 055c dc3a 8adc f83b 95bf e239
00000160: 7ced 4cba be69 4a3b d0e1 793b f199 8fba
00000170: f526 e73b 9690 5f3a b981 0cb9 990e a538
00000180: 7784 2e3b a2fd bc3a d338 253b fd61 143b
00000190: 17ba 8939 fc00 c9ba 58ad 8f3a f85b a739
000001a0: 859b bb3b 1418 e73b 50f3 713b c9f0 c73a
000001b0: 40fe cab7 de62 5f3a f02f 2b3a eb71 163b
000001c0: cdc4 f1ba d04d 6c3b a3e9 6bbb 03dd c138
000001d0: 8cb8 853b 4b24 8f3b 2ecb 553c 39c4 af3b
000001e0: 1617 883b 576b cc3b 4e73 93ba 40ac eb3a
000001f0: ffc4 923b 6595 a93b 7c70 f9b8 e4dd bd3a
00000200: 32e3 9db8 d695 34bb d62f 34ba f9a2 0b3c
00000210: 4e18 733a 1835 9f3a c46e 733a 191f 13bb
00000220: 9f10 1e3c 4ee3 49ba 24b4 143c a702 bd3b
00000230: ca1d 9a3b 3d48 de39 5d07 723b 6d02 983b
00000240: fc41 09bb f879 b9ba 2628 83b9 2d20 8a3b
00000250: 05d9 c13b 544f 8e35 d3f8 54ba 91eb a03a
00000260: 7e2b 003c c942 90b9 7cb7 313b 9353 a93a
00000270: 210e 0d3a 45b2 363b 86b1 a33a 5dee a53b
00000280: 3563 2e3b 022b 583b 9961 6fb8 4cda 5bba
00000290: 546a 3b3b d8fd 823b 14c7 393b fbbb 32bb
000002a0: 117a 253b 0096 4139 d15a bd39 f22b 853b
000002b0: 0b69 893b f487 433b de0b 983b 96c1 193b
000002c0: 56c9 3f39 b9cd a5bb aa82 ea3a 196a 303b
000002d0: e1f3 1b3c 87cb d0b8 9e6a 0f3c 3d2c 9f3b
000002e0: 8340 2ebb 6322 bb3b 5c40 3d39 a294 c5b9
000002f0: 583e 1b3b 3323 84bb 0975 483b d722 833a
00000300: c97a 743b b627 b1ba 5f92 dd3b c006 543b
00000310: f1ae c53b 1449 d7b8 cfb2 5cba a5cf dd3b
00000320: 54fb fa3a b7d9 ad3a fdf0 843b b2b2 a53b
00000330: a264 8b3b 99af 533b 1693 8f3b 9e02 bdba
00000340: c33f 9f3b c53e 763b 8e61 303b 666d 25bb
00000350: 78ed e83b 1a93 0a3b c104 873b 0b69 a238
00000360: 91ee aeba 1ddc 543b 5212 1e3b e5b0 18bb
00000370: 6607 7cba e5f9 923b 950a 883a ac6e cf3a
00000380: 46a5 1abb 2612 f4b9 6fc0 a339 b6e6 ea3b
00000390: e5cb a8ba 3bfb b53b b3cc 793b e078 203a
000003a0: 68bb fc3b cecc 99bb 4843 053a 9bca b13b
000003b0: 41c4 da3b 78b6 1d3c 8d38 e53a da88 03bc
000003c0: df7f a63b 3377 103c 4174 83bb 4763 fc3b
000003d0: d39a 34ba 02b5 413c f7fc 10bb e101 cf3b
000003e0: 118f b53b 2e62 9bbb 66a3 de3b e115 273b
000003f0: 65c1 cc39 791c aeba 2542 2b3c f390 0abb
0.004172654 0.0018975476 0.0006297131 0.006208297 0.0028684523 -0.0025096794 0.009633407 -0.0011300488
3.186863e-05 0.0018795021 -0.0024908427 0.002858656 0.0065763164 -0.0047650137 0.002385643 0.0017036004
-0.0030321195 -0.002088728 -0.00043688616 -0.0015686577 0.00036757084 0.004847523 -0.001129179 0.0030548407
0.009404853 0.0036312842 0.0022609911 0.007814716 0.005673544 0.00087800197 0.003143682 6.463908e-05
-0.0009962112 9.597103e-05 0.0058511766 0.0035456384 -0.0052480265 -0.0007747537 0.00057114457 0.0065343203
-0.00089717575 0.00084657205 0.0052064713 0.0054762913 -0.00027646188 0.00062269985 0.0036860632 0.009941621
-0.0013649769 0.00070836797 0.0013151241 0.0030703181 0.0010996405 -0.0014055198 0.0012457938 -0.0030088383
0.0019063627 0.0061064297 0.0015787604 0.0016601344 0.00091723516 0.0031977207 0.003570405 0.0028911638
0.004393661 0.00077738846 0.0029264016 -0.003419397 -0.0006942493 -0.005236408 0.00468548 0.0043425085
-0.006881414 0.006098567 0.0066546663 0.0002376994 0.0016622259 0.005832498 0.0045839553 0.0006116834
0.0014766192 0.004406507 0.00041270847 0.005941138 -0.0028505677 0.0016812092 0.0075946497 0.0004324882
-0.00078173704 0.003088578 0.003812898 -0.0010955912 0.0070542046 0.000852832 -0.00013399766 7.870532e-05
0.0026629248 0.001441885 0.0025210872 0.0022641413 0.00026269324 -0.0015335376 0.0010961695 0.00031921244
0.0057253265 0.007052431 0.0036918707 0.0015254255 -2.419867e-05 0.0008521507 0.00065302756 0.0022956084
-0.0018445492 0.0036057122 -0.0035997413 9.244124e-05 0.0040808376 0.00436834 0.01304893 0.0053639677
0.0041531427 0.006238382 -0.0011249573 0.0017980412 0.00447905 0.00517528 -0.00011894197 0.0014485684
-7.528662e-05 -0.002755513 -0.0006873583 0.008522742 0.0009273336 0.001214656 0.000928622 -0.0022448956
0.009647517 -0.00077014125 0.009076152 0.0057681384 0.004703258 0.0004239696 0.0036930658 0.004638961
-0.002094387 -0.0014150729 -0.0002501618 0.0042152614 0.0059157633 1.0602912e-06 -0.0008124236 0.0012277236
0.007822869 -0.0002751558 0.0027117422 0.0012918584 0.00053808285 0.0027877253 0.0012488819 0.0050638155
0.0026609425 0.003298462 -5.7072935e-05 -0.0008386716 0.0028597312 0.0039975457 0.002834742 -0.002727269
0.002524976 0.00018461794 0.00036116553 0.0040640766 0.0041934303 0.0029835673 0.0046400866 0.0023461333
0.00018290183 -0.0050599244 0.0017891724 0.0026918708 0.0095185945 -9.956123e-05 0.008753447 0.0048575685
-0.0026588745 0.0057108863 0.0001804842 -0.00037685508 0.0023688283 -0.0040325164 0.0030587337 0.001000489
0.003730463 -0.0013515863 0.0067618336 0.0032352656 0.0060328175 -0.00010265611 -0.00084189785 0.006769138
0.0019148388 0.0013263737 0.0040570484 0.0050567025 0.0042539397 0.003230071 0.0043815477 -0.0014420336
0.004859896 0.0037574035 0.0026913616 -0.0025242209 0.0071083866 0.0021144808 0.0041204398 7.744328e-05
-0.0013346245 0.003247983 0.0024119806 -0.0023298797 -0.00096141396 0.004485356 0.001037913 0.001582583
-0.0023597046 -0.00046552828 0.00031233157 0.007168616 -0.0012878148 0.0055536306 0.0038116395 0.00061215274
0.0077127703 -0.004693604 0.0005083573 0.005425764 0.0066762273 0.0096260235 0.0017488167 -0.008028233
0.0050811614 0.008817482 -0.0040116613 0.0077022645 -0.00068895257 0.011822941 -0.0022123435 0.0063173627
0.0055407365 -0.0047419285 0.006794381 0.0025495219 0.00039054002 -0.0013283632 0.010452782 -0.0021143525

network_body._body_endoder.seq_layers.2.weight f4 [256, 256]
00000000: 5b86 c73a 59af 19bd dea9 f83c 1853 a8bd
00000010: f4c8 a33d 16e3 5a3c 43e0 a83c a7c6 303d
00000020: 960a f2bb b6b3 a5bd 16aa 9fbd 1442 553d
00000030: 1be2 25bc e0bf 0cbd 1303 0abd 52fb 26bd
00000040: 5927 babd 23df 46bd 9357 e4bd b28e 0d3d
00000050: 83d5 efbc e3c0 ecbc b782 5dbd eec5 a0bd
00000060: 1ad5 babc 43b4 393b 3c1f 55bb 6644 5fbc
00000070: ad33 353d c75d 50bd ea8e 103c 25cb 1c3d
00000080: 28e3 9bbc 44e7 af3d 0b3c 16bd 3d85 043d
00000090: bd77 87bd d574 a03d 84dc 67bd 8554 cbbc
000000a0: 3179 0ebe a4a8 cb3c a2f9 27bd d136 e7bc
000000b0: ef30 dabd 8dc8 1e3d cc6b 0bbd d472 243d
000000c0: e848 883d d911 443d 68ad eabd fdd9 8c3c
000000d0: 8698 b83d 8937 67bc 5e4c ef3c a49d 09be
000000e0: 55a5 cdbc 98d4 083d 921e e7bc 4034 9abd
000000f0: 72f3 8d3d 692f ea3c f18d b5bc 6312 99bd
00000100: 6274 123d d955 b43c 382c f0bb 5e65 663a
00000110: 6b63 0f3d 0f89 553b 1ac1 723c ac45 df3c
00000120: 21bb 9fbd bc1e 213b ed97 61bc a9a4 0b3d
00000130: ab10 823c eb4f 203d 1688 b3bc 58de 4e3c
00000140: ff3a 4b3d 8b30 c2bc 32c5 663d cf92 5abd
00000150: 15cc 70bc 7e39 01bd 6d67 c5bd 50d4 dcbc
00000160: 2263 5fb9 7129 c3bd c4ab b1bd d1e0 7cbd
00000170: a70a ddbb f218 e43a f462 ba3c 3ee0 a5bd
00000180: 7de7 0cbd bd7b bc3c 9b7a 89bd a2b0 24bc
00000190: 4d10 cabd 4343 5bbc 477a 86bd 6e41 e9bc
000001a0: e83e b5bd 2a7d 78bd b9e2 9c3d 2a41 263d
000001b0: 7a20 bc3d 1fdd 02bc d342 9bbd 42df d93c
000001c0: 9b7c 193d 8548 f83b 1677 5dbd 4093 033e
000001d0: 78fc 7b3d cfa6 123d 739f 7eba ea44 fcbd
000001e0: 9c51 05bd 16c3 2dbe 7a95 2d3d a991 54bd
000001f0: 4c8c fb3c d7a7 093e 6848 5cbd ef05 203d
00000200: c17f 223c 94cd 5d3d b08d d93c ee64 ccbb
00000210: c210 d1bc 650c e53c 1c20 fbbc 927c 113d
00000220: b949 c83c 9060 ddbd 3a76 44bc 44d8 1dbd
00000230: c312 9ebc 91e8 6cbc d765 883d f59c 653d
00000240: 4451 b43d aa1b 443c b8ac 1cbd 69b9 45bc
00000250: 9c0d 0e3d 3f5e 58bd 180b 873d 43d4 c0bc
00000260: 7a3b 23ba ea84 833d 084a 753d ebff ddbd
00000270: 02ff debd e9e1 693d 20ba 17bd 406f e7bc
00000280: 67f3 67bb 7c1f 0bbe 9dad af3d 0888 45bd
00000290: 0c39 893d 881a 8ebc abec a03c a2ea 0cbc
000002a0: c4a1 ad3c 423a 003e dd49 af3d f34b c0bd
000002b0: a8ac 1b3d 5fb0 b23d 50ce 103d eba8 47bd
000002c0: aa3d 2c3d 11ec 893d fe08 1f3d 329e 973c
000002d0: ee8c 28bd 11a1 1dbd 8919 363d ff06 fdbc
000002e0: 23e2 94bd 1809 f8bc c623 6c3d 984e 3bbd
000002f0: b2fb e5bd 4b61 0abd 3113 0c3d d911 9ebc
00000300: c892 64bd 2845 803d fa83 213d 1373 ea3d
00000310: 37fd 6c3d 044e e0bc e684 2abd efec e1bc
00000320: 258e 823d 435c 67bd 6147 a13d 571c 69bb
00000330: e1da f13d 6587 853d 89df c2bd f9e6 78bc
00000340: 6f53 aa3a 4cd4 ab3d d7b8 f4bd 189a 7fbb
00000350: 6c7d 7c3c db21 5abd 684a 08be e354 65bd
00000360: 4c62 013c 26c0 d53d 8802 cbbc 72f4 a0bb
00000370: d87d cdbd 871b ed3c c223 df3b 3277 003c
00000380: 150d 8d3c 70c1 be3d 048b 913d 4240 15bd
00000390: 018e 68bc ac5d e6bd 973f 413d 485a 84bd
000003a0: 6886 113d 9933 3f3d 2ef0 a23d 242e 3b3d
000003b0: be91 b0bc de4a d6bb 7841 613c 834c 963d
000003c0: 25f2 b63d 935b c23c 42a8 5cba fb4f 433c
000003d0: 7d6c ecbd 6f78 e13c 65ae 7b3d 65e6 8e3d
000003e0: a030 5fbc af73 0cbe fb52 543d aa2f 35bd
000003f0: a6a0 bbbc 5c75 f33c 2c7c d5bc d6c8 203c
0.0015222536 -0.03752074 0.030354436 -0.08218974 0.07997313 0.013359806 0.020614749 0.0431582
-0.007386516 -0.08090918 -0.07796113 0.05206497 -0.0101247085 -0.034362674 -0.033694338 -0.04076702
-0.09089536 -0.048552644 -0.11149516 0.034559913 -0.029276615 -0.02890057 -0.054079738 -0.07850252
-0.022806693 0.0028336204 -0.0032519838 -0.013627147 0.044238735 -0.050870683 0.008823136 0.03827967
-0.019029215 0.08589032 -0.036678355 0.03235363 -0.06614635 0.07834784 -0.056606784 -0.024820575
-0.13913418 0.024860688 -0.041009553 -0.02822438 -0.106538646 0.03876548 -0.03403835 0.04014857
0.06654531 0.047868583 -0.11458856 0.017193789 0.090134665 -0.014112362 0.02921122 -0.13439041
-0.02510325 0.03340587 -0.02821282 -0.07529497 0.06931199 0.02858706 -0.02216241 -0.0747421
0.035755523 0.022013592 -0.00732949 0.00087889086 0.03500692 0.0032582914 0.014816547 0.027254902
-0.07799364 0.002458497 -0.013769132 0.03409258 0.015877089 0.039138716 -0.021915477 0.012626253
0.04961681 -0.023704788 0.056340404 -0.053362664 -0.014697094 -0.03154897 -0.096388675 -0.026956707
-0.00021303867 -0.09529389 -0.0867534 -0.06173784 -0.0067456546 0.0017402454 0.022752263 -0.080994114
-0.034400452 0.023008222 -0.06712838 -0.010051878 -0.098663904 -0.013382736 -0.06566291 -0.028473582
-0.08849889 -0.06066624 0.076604314 0.04058949 0.09185882 -0.00798729 -0.07581105 0.026595715
0.03747235 0.0075770044 -0.054068647 0.1284914 0.06152007 0.035803612 -0.0009713091 -0.12317832
-0.032548532 -0.1696895 0.04237888 -0.051896725 0.030706547 0.13442932 -0.05377999 0.03906816
0.009918154 0.054151133 0.02655682 -0.0062376177 -0.025520686 0.027960012 -0.03065496 0.03551919
0.024449216 -0.108094335 -0.011991078 -0.038536325 -0.019296056 -0.014459745 0.066600494 0.05605789
0.08804563 0.011969486 -0.038250655 -0.012068131 0.034680948 -0.052824255 0.06593913 -0.023538714
-0.0006226819 0.06421836 0.059885055 -0.10839828 -0.10888483 0.05710021 -0.037042737 -0.02825129
-0.0035392882 -0.13586229 0.08578036 -0.048225433 0.06700334 -0.017346635 0.019644102 -0.008600863
0.0211953 0.12522224 0.0855901 -0.09389486 0.038006455 0.08725046 0.035353005 -0.048745077
0.042050995 0.06734479 0.038826935 0.01850805 -0.041150026 -0.038483683 0.044457946 -0.030887125
-0.07269695 -0.030277774 0.057651304 -0.04572925 -0.11229648 -0.033784192 0.03419799 -0.01929562
-0.055804044 0.062631905 0.039432503 0.1144773 0.057858672 -0.02738095 -0.041630648 -0.027578799
0.06374768 -0.056484472 0.078749426 -0.003556987 0.11809326 0.06519965 -0.09515292 -0.015191787
0.0012994836 0.08390102 -0.11949318 -0.003900176 0.015410762 -0.053254943 -0.13309634 -0.055989157
0.007896971 0.1043704 -0.02478148 -0.0049119527 -0.100337684 0.02894379 0.0068096826 0.007840918
0.017218152 0.09314239 0.07106593 -0.036438234 -0.014194013 -0.11248335 0.047179785 -0.06462532
0.03552857 0.046680067 0.07955967 0.0456983 -0.02155387 -0.0065396866 0.013748519 0.07338812
0.08932904 0.023725307 -0.00084174064 0.011920924 -0.1154413 0.027523248 0.061445612 0.06977538
-0.013622433 -0.13716005 0.05183695 -0.04423491 -0.022903752 0.029719047 -0.026060186 0.009813508

network_body._body_endoder.seq_layers.4.bias f4 [256]
00000000: 1da1 83ba 900d adba 94b1 223b 98eb 66ba
00000010: 8e56 4d3a 5d9d 8e3a 0b8f 12bb 1356 8239
00000020: d4fe 593b 5a74 0e3a ac87 45ba 806e a239
00000030: 323b 453b 6ac7 de39 ec81 2f3b fde6 4a3b
00000040: c82d 6a3a 4cda 91ba fd69 7c3a 6d93 f0b8
00000050: 2fd7 7d3b 4d51 163b ba38 d53a bd47 0d3b
00000060: 8bbe 143b 2438 b13a 4006 efba d72c d2ba
00000070: 3650 0d3b daa4 323b a207 513b e1cc d93a
00000080: 1a53 85b9 b29a 9939 0878 ba3a 126d 943a
00000090: 2464 e53a da9b a33b b4a4 e0b9 ba0e c3ba
000000a0: ef45 a83b bc72 513b 289f d13a 4cd6 843b
000000b0: 204c 9a3a c2cc 8939 dc82 d43a 45a3 583a
000000c0: 4c56 873b d7b3 fc3a efee a13b 84e4 ba3b
000000d0: fd4a edba 6609 a23a d1e8 0a3b dbc0 9b3b
000000e0: fbdf 51ba 3c21 11b9 4f8e d73a 2487 293a
000000f0: 1430 d239 d24f 013a 8f53 25ba 8aa9 1ab7
00000100: c613 81ba 42d7 9d3a b38a 233b e06e 153a
00000110: 037f 4f3b 5cbc 253b 7b79 213b 911f 0e3b
00000120: 9d29 283a 265f 753b e24a 5e3b 52d5 213b
00000130: b5f3 d53b 8a82 6e3b f4ae 893b 2fff 923b
00000140: 2fc4 163b 921c 5639 081f 4039 10db cf3a
00000150: 40dd 8a3b 0e90 7bba 843e c53a 7dd1 ea3a
00000160: e21e 973a a3cc 973b adc8 423b ea98 7b3b
00000170: 5384 843b e26c ec3a 4e87 45ba b1ae 913a
00000180: b8e9 d6b8 8ee2 9cba 2563 2a3a 0c0c 9d3b
00000190: a833 763b f296 6f3b c93f 303b d43f 8c3b
000001a0: a0fb 9c3b 5159 cf3a c31a 153b fc6d 9a39
000001b0: d2ef 1aba a724 073a 44f1 a33a 5e02 8fba
000001c0: 9c2f 8aba f661 73ba a31d f539 b8f0 693b
000001d0: 2ec8 2c3a 8292 493b 25f9 273b 4d16 023b
000001e0: 913c 09ba 1249 eb3a 4500 ec39 2b1a 873b
000001f0: 190e 0f3a e294 df3a f9d3 46b9 3460 15ba
00000200: e9d1 a53b 0717 8e39 b6e7 79ba f393 7c3b
00000210: f455 7a3b 609e ff3a 70a1 6b3a c1d2 613b
00000220: 3746 213a 6781 213b e54e 813a c08a 913a
00000230: d388 12ba f361 4a3b 9fb6 1a39 47f7 1239
00000240: 38ab 7b3b e932 a13a c746 68ba 0f5d 623b
00000250: f8d0 8738 563d 923b ac75 183b 8aa0 6339
00000260: 1ede c03a 1210 8cba 72f1 a13a b760 f0b9
00000270: 2757 413b 10d7 a639 8e07 5db7 a443 cb3a
00000280: 3219 edb9 aae5 d039 cd12 5438 cdd0 143a
00000290: 1b9a c73a d310 dc3a 4626 633a 09e9 1a3b
000002a0: 2ce4 0a3c 7daf a4ba 5744 a73a da10 4e38
000002b0: cd47 8e3a 46b0 4f3b aa3f 9c3b eb16 433b
000002c0: c258 873a d256 303b 7c25 173b e229 ea3a
000002d0: e482 733a a157 0439 fd00 5c3a 8398 493b
000002e0: b3cb cc3a 48cb aeba 5e2b 34ba 7f63 5138
000002f0: 6c54 a33a e482 353a 2020 a03a 018c 6f3b
00000300: 4f0b 2b3a f651 7f3a 9c40 c739 24b2 a43a
00000310: c5f5 163b 9ba7 8f3a 3d69 7e3b a44a 05bb
00000320: 6eed 043b 2323 3bba d4c0 0c3a 11c1 723b
00000330: dbd6 c93a b1b2 5eba 93aa 663b bf94 4dba
00000340: 4122 bcb9 62b4 3d3b d679 073b 1ec2 8c3b
00000350: 382e 2d39 b668 653a 024b db3b 5fc1 a8ba
00000360: 51e3 f9ba 296b 5eba 61fe 9c3b 8c6c e73a
00000370: b29c 173b c435 b13a 705a ab3b 2e43 c43a
00000380: 4d6e 7a3b 42ce 253b 3431 6a3b 40f5 9d3b
00000390: 5f71 853b b81b 263b d3f2 093b 07f6 6a3b
000003a0: d68f a33b 54db bc3a 672f 70b9 ba2b 583b
000003b0: d97b 2c3a 9ff9 e43b 6ebb bb3a e2ef 8d3a
000003c0: 4942 163b 8548 aa3b 7dad 953a 6729 813b
000003d0: 737f 053b 3836 603a 4aef 6a3b d6ca 63ba
000003e0: 0bfc a03b a4e5 86b8 8bba 0a3b 6e1c 6539
000003f0: 0560 253b c2a2 ed3a ef49 663b fd16 bc3a
-0.0010042522 -0.0013202894 0.0024825083 -0.000880891 0.0007833027 0.0010880638 -0.0022363092 0.00024859663
0.0033263462 0.0005434208 -0.00075351703 0.00030981377 0.0030095098 0.00042491715 0.002678032 0.0030960434
0.00089332135 -0.001112768 0.00096288306 -0.00011471552 0.0038732996 0.0022936643 0.0016267516 0.0021557652
0.002269658 0.001352076 -0.0018236116 -0.0016035092 0.0021562702 0.0027258904 0.0031895419 0.0016616845
-0.00025429652 0.0002929769 0.0014226446 0.0011324009 0.0017501158 0.004992944 -0.00042847323 -0.0014881708
0.00513529 0.0031959256 0.0015992867 0.0040538665 0.0011771955 0.00026283233 0.0016213316 0.0008264075
0.0041301604 0.0019279671 0.004941813 0.0057035107 -0.0018104013 0.001236242 0.0021195898 0.004753215
-0.0008006093 -0.00013840658 0.001644561 0.0006466976 0.00040090142 0.00049328536 -0.00063067017 -9.218589e-06
-0.0009847812 0.0012042301 0.0024954497 0.00057004206 0.0031661398 0.0025289273 0.0024639058 0.0021686296
0.0006414892 0.0037440746 0.0033919145 0.00246938 0.0065292963 0.0036393725 0.0042017642 0.0044859867
0.0023005118 0.00020419274 0.00018322107 0.0015858132 0.004237801 -0.0009596356 0.0015048538 0.0017915216
0.001152959 0.004632549 0.0029721663 0.0038390704 0.0040440946 0.0018037821 -0.00075351156 0.0011114684
-0.00010247849 -0.0011969374 0.0006499759 0.004792696 0.003756741 0.0036558476 0.0026893488 0.00428007
0.004790738 0.0015819465 0.0022751547 0.00029455114 -0.000591037 0.0005155303 0.0012507816 -0.001091074
-0.0010542753 -0.00092843117 0.00046752123 0.0035696458 0.00065911084 0.0030757491 0.002563068 0.0019849718
-0.00052351604 0.0017950854 0.0004501363 0.0041229925 0.0005457118 0.001705792 -0.00018961717 -0.00056982343
0.0050604236 0.00027101507 -0.0009533124 0.0038540333 0.0038198205 0.0019502155 0.00089885946 0.0034457895
0.00061521254 0.002464378 0.0009865431 0.0011103973 -0.00055898464 0.0030881136 0.00014754616 0.00014015763
0.0038401615 0.0012298498 -0.00088606443 0.003454033 6.476225e-05 0.004462878 0.0023263497 0.00021708212
0.0014714634 -0.0010685942 0.0012355282 -0.00045848425 0.002950141 0.0003182222 -1.31743855e-05 0.0015507829
-0.00045222935 0.00039843965 5.056225e-05 0.00056768657 0.0015228422 0.0016789682 0.0008665066 0.0023637435
0.008477252 -0.0012564507 0.0012761456 4.912992e-05 0.0010855139 0.003169076 0.0047683315 0.00297683
0.0010326135 0.0026907218 0.0023063114 0.0017865265 0.00092892186 0.00012621145 0.0008392481 0.003076107
0.0015624672 -0.0013335729 -0.00068729173 4.9922146e-05 0.0012461073 0.0006924106 0.0012216605 0.0036551955
0.00065248174 0.0009739691 0.00038004376 0.0012565297 0.0023034674 0.0010959985 0.003882005 -0.0020338679
0.002028312 -0.00071387197 0.000536931 0.0037041346 0.0015399115 -0.0008495255 0.0035196885 -0.0007842294
-0.00035883675 0.0028946628 0.0020671985 0.0042956015 0.00016515783 0.000875126 0.0066922912 -0.0012875012
-0.0019064938 -0.0008484596 0.0047910665 0.0017656251 0.002313417 0.0013520052 0.005229287 0.0014973634
0.0038212717 0.0025299941 0.0035734894 0.004820496 0.004072353 0.0025346112 0.0021049276 0.003585221
0.004991512 0.0014408627 -0.00022905842 0.0032985047 0.0006579734 0.006987765 0.0014322826 0.0010828937
0.0022927693 0.0051966333 0.0011419501 0.003941703 0.0020370155 0.0008553001 0.0035848194 -0.00086895877
0.0049128584 -6.432392e-05 0.0021168317 0.00021849733 0.0025234234 0.0018130171 0.0035139283 0.0014350113
