results/H1/AgentController/AgentController-499987.onnx (onnx, 657373 bytes, 14 tensors)

83 f4 [116]
0	0x3e87d2c1	0.2652798
1	0x3e2e0e62	0.16997674
2	0x3e57604a	0.21032825
3	0x3e860282	0.26173788
4	0x3e89f078	0.26941276
5	0x3e34cb87	0.17655765
6	0x3e57c8d8	0.2107271
7	0x3e864773	0.26226386
8	0x3e881c37	0.26584026
9	0x3e2d418d	0.16919537
10	0x3e58c3cf	0.21168445
11	0x3e865a1f	0.26240632
12	0x3e8bbc0d	0.2729191
13	0x3e3b3a60	0.18283987
14	0x3e576dd7	0.21037994
15	0x3e86b91e	0.26313108
16	0x3e8b61a0	0.2722292
17	0x3e327c12	0.17430142
18	0x3e5d8c8e	0.21635649
19	0x3e87726c	0.26454484
20	0x3e8ad152	0.27112824
21	0x3e3f7c9c	0.18699878
22	0x3e5117a6	0.20419177
23	0x3e86f39a	0.26357728
24	0x3e8ca96d	0.27473012
25	0x3e3345e3	0.17507128
26	0x3e6064ce	0.21913454
27	0x3e888424	0.26663315
28	0x3e87a117	0.2649009
29	0x3e3ff67a	0.18746367
30	0x3e47540c	0.19465655
31	0x3e86d90a	0.26337463
32	0x3e8bbde5	0.27293316
33	0x3e2fc4be	0.17164895
34	0x3e60967f	0.2193241
35	0x3e894ff7	0.2681882
36	0x3e85f374	0.26162302
37	0x3e40e6c7	0.18838035
38	0x3e4168ec	0.18887681
39	0x3e86eb4f	0.263514
40	0x3e8a8794	0.27056563
41	0x3e2d2896	0.16910014
42	0x3e5f4da0	0.21806955
43	0x3e897c9e	0.26852888
44	0x3e858a86	0.26082247
45	0x3e40a572	0.18813112
46	0x3e406e9c	0.18792194
47	0x3e87027f	0.26369092
48	0x3e8af653	0.27141055
49	0x3e2f1e38	0.17101371
50	0x3e5efba6	0.21775684
51	0x3e89f2b1	0.2694297
52	0x3e848ee6	0.25890273
53	0x3e3d94ab	0.18513744
54	0x3e406fe5	0.18792684
55	0x3e86b873	0.263126
56	0x3e8acd7a	0.2710989
57	0x3e30ff22	0.17284825
58	0x3e5d179b	0.21591036
59	0x3e8a1bd9	0.2697437
60	0x3e825fd5	0.2546374
61	0x3e37fa04	0.17966467
62	0x3e3f7cdc	0.18699974
63	0x3e85d5a6	0.26139563
64	0x3e88770e	0.26653332
65	0x3e30e293	0.17273931
66	0x3e56de3c	0.20983213
67	0x3e89977e	0.26873392
68	0x3e82e8aa	0.25568134
69	0x3e34ce9d	0.17656942
70	0x3e440274	0.19141561
71	0x3e84fdc7	0.25974867
72	0x3e88822c	0.26661813
73	0x3e32e065	0.17468412
74	0x3e556445	0.20839031
75	0x3e890556	0.26761883
76	0x3e85c087	0.2612345
77	0x3e36c404	0.17848212
78	0x3e4a6224	0.19764
79	0x3e845e29	0.25853088
80	0x3e88b975	0.26703992
81	0x3e37d58f	0.1795256
82	0x3e51de00	0.20494843
83	0x3e87ec0a	0.2654727
84	0x3e87d115	0.26526704
85	0x3e38aabf	0.18033884
86	0x3e4e92c0	0.20173168
87	0x3e838483	0.25687036
88	0x3e8ab98d	0.2709469
89	0x3e3b3ab5	0.18284114
90	0x3e549726	0.20760784
91	0x3e8712f8	0.2638166
92	0x3e88aa7a	0.26692563
93	0x3e3a3f7d	0.18188281
94	0x3e4f9bca	0.20274273
95	0x3e82a32b	0.25515112
96	0x3e8ba695	0.2727553
97	0x3e3e9d7a	0.1861476
98	0x3e5446cb	0.2073013
99	0x3e859057	0.26086685
100	0x3e889b73	0.26681098
101	0x3e3a6b8a	0.18205085
102	0x3e4f4c00	0.20243835
103	0x3e823ad0	0.25435495
104	0x3e8a24a1	0.2698107
105	0x3e3cac79	0.18425168
106	0x3e51aed1	0.20476843
107	0x3e840d59	0.25791433
108	0x3e885c62	0.26632982
109	0x3e3a5cd9	0.18199481
110	0x3e4ea4ed	0.20180102
111	0x3e828637	0.25493023
112	0x3e885c62	0.26632982
113	0x3e3a5e2c	0.18199986
114	0x3e4ea3c0	0.20179653
115	0x3e828631	0.25493005

86 f4 [3]
0	0x40d611fb	6.689695
1	0x3bab867f	0.005234539
2	0x40fb275c	7.8485546

action_model._continuous_distribution.log_sigma f4 [1, 2]
0	0x3c1859c0	0.009298742
1	0x3b539004	0.0032281885

action_model._continuous_distribution.mu.bias f4 [2]
0	0xbb1a989c	-0.0023589497
1	0xbb8087a6	-0.0039224206

action_model._continuous_distribution.mu.weight f4 [2, 256]
0	0x3c4e4bc7	0.012591309
1	0xbcfcfd1a	-0.030882407
2	0x3c3450c1	0.011005581
3	0x3bb6269e	0.0055588027
4	0x3ceec090	0.029144555
5	0xbc20563a	-0.009786183
6	0x3d3bf885	0.045891304
7	0xbca35af1	-0.019940825
8	0x3c9ca91d	0.019123608
9	0x3c8d3f21	0.017242016
10	0xbc0bb049	-0.008525916
11	0xbc6cb7aa	-0.014448086
12	0x3cde5949	0.027142184
13	0x3c400206	0.011719232
14	0x3c0dcb67	0.008654452
15	0xbb50b989	-0.0031848869
16	0xbb96ce97	-0.004602264
17	0x3bbfd19d	0.0058538453
18	0xbcd13753	-0.025539076
19	0xbc446ef0	-0.01198934
20	0xbc7fbba1	-0.015608699
21	0x3a443ee5	0.00074861787
22	0x3be9e1c7	0.0071375105
23	0x3b4b7a87	0.0031048374
24	0x3c243714	0.010022897
25	0xbbcecdef	-0.0063111703
26	0x3ca00388	0.019532934
27	0xbc4f7d3f	-0.012664138
28	0x3cb4d6c8	0.022075072
29	0xbbb39ac3	-0.0054810955
30	0x3c83cafc	0.016088001
31	0x3b8dee1b	0.004331363
32	0x3c770f3c	0.015079316
33	0x3c380dda	0.011233771
34	0xbb83d844	-0.0040235836
35	0x3a31d6ac	0.0006784003
36	0x3b8d4426	0.0043111024
37	0xbbd8b6ef	-0.0066136043
38	0xbc9f6b03	-0.019460207
39	0xbd04097e	-0.032235615
40	0x3cba78d3	0.022762692
41	0x3cd84763	0.026401227
42	0x3bbd5d87	0.0057789716
43	0xbcc731c6	-0.024315726
44	0x3bac71e2	0.0052625993
45	0xbccfbf46	-0.025359761
46	0xbc62a393	-0.013832944
47	0xbc332539	-0.010934168
48	0xbb6bfe5b	-0.0036009762
49	0x3c051dc0	0.008124769
50	0x3cd067f6	0.025440197
51	0x3bcf4a03	0.0063259616
52	0xbb8cb39a	-0.004293871
53	0xbc6d0c31	-0.014468239
54	0xbbb86a47	-0.0056279036
55	0xbbf400f7	-0.007446404
56	0x3cf3b6db	0.029750278
57	0xbcdff490	-0.027338296
58	0xbc54394d	-0.012953115
59	0xbcb869b4	-0.02251134
60	0xbaee9bf9	-0.0018204442
61	0xbd854f6e	-0.06509291
62	0x3ca84c8e	0.020544317
63	0x3c9a733d	0.018853778
64	0x3c4b8db1	0.012423919
65	0x3d0022fb	0.03128336
66	0x3c2cd80c	0.010549556
67	0xbc57af4e	-0.0131643545
68	0xbbd1cb56	-0.0064024134
69	0x3c609a16	0.013708612
70	0xbd091a49	-0.033472333
71	0x3b9e7b91	0.0048365076
72	0xbc24dbec	-0.010062199
73	0xba9a0f74	-0.0011753873
74	0x3b590796	0.0033116094
75	0x3c251cba	0.01007765
76	0xbc8d7018	-0.017265365
77	0xbcb8f35b	-0.022576978
78	0x3b47bdf2	0.0030478206
79	0x3af2946e	0.001850737
80	0xbc0cc007	-0.008590705
81	0x3bed3f16	0.0072401864
82	0xbcaa98bf	-0.020824788
83	0xbbf0abd3	-0.007344702
84	0x3b60e6ba	0.0034317211
85	0xbcc7a46a	-0.02437039
86	0x3c6ae90a	0.014337787
87	0x3b06b3f5	0.002055404
88	0xbc108684	-0.0088211335
89	0x3afd8880	0.0019343048
90	0x3cf77692	0.030207906
91	0xbaa15a24	-0.0012310189
92	0xbae452a9	-0.0017419654
93	0xbcb4b3ac	-0.02205833
94	0x3b847027	0.00404169
95	0x3b76620c	0.0037595062
96	0x3c9ddba7	0.019269777
97	0x3c0ed11a	0.008716846
98	0x3b047ba6	0.0020215302
99	0xbc3c3c28	-0.011488952
100	0x3c7f17cc	0.015569638
101	0xbb34f7bf	-0.0027613488
102	0xbbeabc90	-0.0071635917
103	0x3c5ec61a	0.013597036
104	0xbc72658a	-0.014794717
105	0xbc6cd524	-0.014455114
106	0xba7c8b84	-0.00096338266
107	0x3c7d9b04	0.015478853
108	0x3cbd25e4	0.023089357
109	0xbd18c00f	-0.037292536
110	0x3c72a8c6	0.014810747
111	0x3c17e9e9	0.009272077
112	0xbbd58c10	-0.006516941
113	0x3c01fc7b	0.007933731
114	0x3c858d08	0.0163026
115	0x3be2f4de	0.006926163
116	0x3ca0e5d9	0.01964085
117	0xbc97ac20	-0.018514693
118	0x3c8f7e21	0.017516198
119	0xbc4bfcb2	-0.012450384
120	0x3cb43160	0.0219962
121	0xbc9549f7	-0.018223746
122	0x3b706168	0.0036679152
123	0x3c38921f	0.011265307
124	0xbb0344f5	-0.0020030115
125	0x3bb25e99	0.005443406
126	0xbc20fa6d	-0.009825331
127	0x3bd54428	0.006508369
128	0xbbb64b87	-0.005563203
129	0xbcb0c501	-0.021578314
130	0x3cbf9da6	0.023390602
131	0xba4e073e	-0.00078593555
132	0xbc8bf943	-0.01708663
133	0xbc51201a	-0.012764001
134	0x3c1e8558	0.009675346
135	0xbbac8694	-0.0052650664
136	0xbc9c8ff9	-0.01911162
137	0x3b252bf2	0.0025203195
138	0xbb685f58	-0.003545722
139	0x3c7a23bc	0.015267309
140	0x3cb493a2	0.022043053
141	0x3cb4add3	0.022055542
142	0xbcf1041e	-0.029420909
143	0x3c7a7aec	0.015288096
144	0x3c762e04	0.015025619
145	0xbbb5b571	-0.005545311
146	0x3a1e7dd8	0.0006045974
147	0xbc4142ff	-0.011795758
148	0xbb4993e4	-0.0030758316
149	0x3ba9bc5f	0.0051799263
150	0x3c17e0df	0.009269922
151	0xbceb009c	-0.028686814
152	0xbc5fb4c6	-0.01365394
153	0xb9692f83	-0.00022238311
154	0xbc35bf93	-0.011093038
155	0x3cd4e184	0.02598644
156	0x3cfb4eb4	0.030677177
157	0x3c8347b3	0.0160254
158	0xbcd72fc1	-0.026267888
159	0xbb4905fa	-0.0030673728
160	0xbcac8c60	-0.02106303
161	0xbab5de5a	-0.001387547
162	0xbbb63780	-0.0055608153
163	0xbccc966e	-0.024974074
164	0xbbe5976a	-0.0070065754
165	0x3b28a630	0.002573382
166	0xbc36922d	-0.011143249
167	0x3bb6d299	0.0055793044
168	0x3af73f36	0.0018863443
169	0xbc8928ab	-0.016743025
170	0x3c419659	0.011815631
171	0x3c187503	0.0093052415
172	0x3b78ee65	0.003798389
173	0x3b820954	0.003968397
174	0xbcea4e4f	-0.028601794
175	0xbc568e3d	-0.013095436
176	0xbc9f6e1a	-0.01946168
177	0x3c15af2c	0.0091360025
178	0xbca1af19	-0.019736813
179	0xbb6e1cff	-0.00363332
180	0x3ca790f9	0.02045487
181	0x3c08335c	0.008313026
182	0x3b9e4a6e	0.00483065
183	0x3cb902a9	0.022584276
184	0xbc185af9	-0.009299033
185	0x3ca5c34c	0.020234726
186	0x3b0de923	0.0021653853
187	0xbc84a358	-0.01619117
188	0x3c00e3e1	0.007866831
189	0xbb806dc8	-0.003919337
190	0xbc667119	-0.0140650505
191	0xbb3652ce	-0.0027820352
192	0x3c3a7522	0.011380466
193	0x39fe966f	0.00048558737
194	0xbc76aef5	-0.015056361
195	0x3c973fc5	0.018463025
196	0xbc456261	-0.012047381
197	0x3ce057d6	0.027385633
198	0x38dbf370	0.000104880775
199	0x3d0a1614	0.03371246
200	0x3c9ae28f	0.01890686
201	0x3bfa23a2	0.0076336423
202	0xbceb1e78	-0.028701052
203	0x3c2977ec	0.010343533
204	0xbcdd94ca	-0.027048487
205	0x3b80ceb9	0.0039308933
206	0xbc36d4fa	-0.011159176
207	0xbc910d1f	-0.017706452
208	0xbc2ac849	-0.010423728
209	0x3cae12c2	0.021249179
210	0x3b9933aa	0.0046753483
211	0x3c7b8023	0.015350374
212	0xbce4133c	-0.027841203
213	0x3ba3d42b	0.0049996576
214	0x3cbd417f	0.02310252
215	0xbcb6b748	-0.022304192
216	0xbc32de37	-0.010917238
217	0xbbf1d730	-0.0073803887
218	0xbd122d8f	-0.03568798
219	0x3bbb4702	0.005715252
220	0xbb6839de	-0.0035434882
221	0x3c8f5c32	0.017500017
222	0xbc12a1ce	-0.00894971
223	0x3c6c0ae7	0.014406896
224	0xbc0b71fb	-0.008511062
225	0x3d3727f7	0.044715848
226	0xba55aee4	-0.0008151366
227	0xbb802d1a	-0.0039116265
228	0x3c8f225e	0.017472442
229	0xbd24e9d5	-0.040262062
230	0x3bfae5b3	0.007656777
231	0x3c627740	0.013822377
232	0x3c04c529	0.008103647
233	0xbc33bd04	-0.010970358
234	0x3b826613	0.0039794534
235	0xbcce1353	-0.025155699
236	0xbb9eb0c5	-0.00484285
237	0x3b14443f	0.0022623686
238	0xbcb67130	-0.022270769
239	0x3c92a2a7	0.017899824
240	0x3cd43148	0.025902405
241	0xbac00d0f	-0.0014652329
242	0xbcaa2b98	-0.02077274
243	0xbc55f784	-0.013059501
244	0xbbf87276	-0.007582004
245	0x3c14d1e6	0.009083247
246	0xbc41e659	-0.011834704
247	0x3c9745c6	0.018465888
248	0x3cd4b8b4	0.02596698
249	0xbc421be0	-0.011847466
250	0xba3718ad	-0.0006984573
251	0x3c009cd3	0.00784989
252	0xbc2a3c0d	-0.010390294
253	0xbbe047b9	-0.0068444875
254	0x395c1219	0.00020987577
255	0xbc03afc5	-0.008037512

action_model._discrete_distribution.branches.0.weight f4 [1, 256]
0	0xb9ea9412	-0.0004474228
1	0x3bbbaf21	0.005727664
2	0xbb2bb6b8	-0.0026201438
3	0xbbc87dd7	-0.006118517
4	0x3ba252c6	0.004953715
5	0x3bb1cc29	0.005425949
6	0xb9b23db9	-0.00033996793
7	0x3c08989e	0.008337168
8	0xb96dba6f	-0.00022671533
9	0x3be2d5b2	0.006922447
10	0xbbc26501	-0.0059324508
11	0x3bb14c7e	0.00541073
12	0xbb473899	-0.0030398725
13	0xba17c7bf	-0.00057899574
14	0xbc11252f	-0.008858963
15	0x3bb27d9f	0.005447104
16	0x3b8fcd27	0.0043884697
17	0x3b5abf1b	0.0033378068
18	0xbc046437	-0.008080534
19	0xbbb703ef	-0.0055851857
20	0xbbf34667	-0.007424164
21	0xbb9a17a9	-0.0047025275
22	0x3a677f50	0.0008830922
23	0xbc190af4	-0.00934099
24	0x3a547832	0.00081050687
25	0xbad90b8b	-0.0016559226
26	0xba1cb49f	-0.00059778424
27	0x3a0688bf	0.0005132071
28	0xbb21bbb3	-0.0024678528
29	0xbb601923	-0.003419467
30	0x3b6a4b9d	0.0035750635
31	0x3bd12bd3	0.006383398
32	0x3ad07deb	0.0015906667
33	0x3ac3b550	0.0014931355
34	0xbc5eb5a7	-0.013593114
35	0x3b7a27d2	0.0038170707
36	0x3b93cc13	0.0045104115
37	0xbbb54140	-0.00553146
38	0xb958525d	-0.00020630048
39	0xbbbcfc77	-0.005767401
40	0xbbdc3235	-0.0067198523
41	0x3bbcd6e3	0.005762921
42	0x3b0c66a1	0.0021423476
43	0x3b912c6b	0.004430344
44	0x3bdc829b	0.0067294366
45	0x3ba37532	0.004988336
46	0xba1176ab	-0.0005548994
47	0x3a954d87	0.0011390903
48	0x3bb70a06	0.0055859117
49	0xb9cd267f	-0.0003912933
50	0x3c7b6437	0.015343717
51	0x3c3e74ef	0.011624559
52	0x3b3ece0b	0.002911451
53	0x3adb0cd8	0.0016712202
54	0x3a3c1125	0.00071741856
55	0x3a80efa9	0.0009837049
56	0xbb242281	-0.002504498
57	0x399c6797	0.0002983182
58	0xba232d56	-0.0006224712
59	0x3c5d207a	0.013496513
60	0xbb77cf55	-0.0037812789
61	0x3b5fe64b	0.0034164365
62	0xbb10a7ca	-0.0022072666
63	0xbb3cad1b	-0.0028789702
64	0xbbae7593	-0.0053240745
65	0x3ab51fe1	0.0013818705
66	0x3a077c1b	0.00051683345
67	0xbabeb3c6	-0.0014549426
68	0x3c08c7b3	0.008348393
69	0xbb02d93f	-0.0019965915
70	0x3a71563f	0.0009206272
71	0x3ab3fba3	0.001373161
72	0xb9a0c4e1	-0.00030664264
73	0x3a2c4306	0.00065712666
74	0xbad454d7	-0.0016199601
75	0xba77da6a	-0.00094548485
76	0xb9a5b4cf	-0.00031605965
77	0x3aea2252	0.0017863011
78	0x3c9907ad	0.018680418
79	0x3c18360a	0.009290228
80	0xbad49b2b	-0.001622056
81	0xbb94b1d0	-0.0045377985
82	0x3b8c00b7	0.004272546
83	0x3bcf0402	0.0063176164
84	0xbbe18270	-0.0068820044
85	0xbc1d544f	-0.00960262
86	0x3c35d030	0.011096999
87	0x3bd7e9ea	0.006589164
88	0xbba6dd8f	-0.00509233
89	0xbc30b8bb	-0.010786231
90	0xbbd2621b	-0.0064203865
91	0x3b2fe374	0.0026838453
92	0x3bbc0278	0.005737599
93	0x3b9b84fb	0.004746077
94	0xba73584a	-0.00092828705
95	0xba8efded	-0.0010909416
96	0x3a8d559d	0.0010782961
97	0x3a2abab0	0.0006512804
98	0x3c8922bb	0.016740194
99	0xbbbdd467	-0.0057931426
100	0xba9dfff9	-0.0012054435
101	0xbb4a1dff	-0.0030840633
102	0x3b73cd1f	0.003720112
103	0x3b84d8db	0.0040541715
104	0xbbf05aef	-0.007335059
105	0xbc734bab	-0.014849584
106	0x3c1ab2c7	0.009442038
107	0x3b4a193a	0.003083779
108	0xbb79a8a5	-0.0038094905
109	0xbb01bd2b	-0.001979659
110	0x3c67e25b	0.014153088
111	0xb998dbfd	-0.00029155603
112	0x3b695780	0.0035605133
113	0x3a8f36f3	0.001092641
114	0xb7cbe60b	-2.4306608e-05
115	0xbc026599	-0.007958793
116	0xbaa4933e	-0.0012556089
117	0xbb641c63	-0.003480696
118	0x3b7d5a6d	0.0038658634
119	0xbc805ab2	-0.015668247
120	0xbaadada6	-0.0013250604
121	0xbb7d153d	-0.0038617395
122	0xbb0fb760	-0.0021929368
123	0xba5b2158	-0.00083591556
124	0x3b66ca0d	0.0035215646
125	0x3ba6a7bf	0.005085915
126	0xbc030ad4	-0.007998187
127	0x3c68a54d	0.014199567
128	0xbc3778db	-0.011198248
129	0xbb2ea261	-0.0026647078
130	0xbaaac14b	-0.0013027576
131	0xbb878368	-0.004135538
132	0xbba80e53	-0.0051286607
133	0xbbbccfb2	-0.005762064
134	0xbbcc77d7	-0.006239872
135	0xbc20fc2d	-0.009825748
136	0xbb447994	-0.0029979693
137	0xbbc6b1a7	-0.0060636583
138	0xbb2d2a00	-0.002642274
139	0x3b61124d	0.0034343184
140	0x3ab3da0b	0.0013721598
141	0x3bf2253b	0.007389692
142	0x3c005393	0.007832426
143	0x3be39d58	0.006946247
144	0xbae8fe7d	-0.0017776039
145	0x3c17e5a3	0.009271058
146	0x3b57602f	0.0032863726
147	0x3b869c12	0.0041079605
148	0x3c632dbb	0.013865883
149	0x3c2c3cb4	0.01051252
150	0xbb11c80d	-0.0022244484
151	0x3ba41863	0.00500779
152	0xbb1cb390	-0.0023910739
153	0xbba119e5	-0.004916417
154	0xbaef147f	-0.0018240361
155	0x3c01063c	0.007875022
156	0xbb53af7a	-0.0032300637
157	0x3c04d6d6	0.0081078615
158	0x3a5d02fd	0.0008430926
159	0xba3b6326	-0.0007148258
160	0xbb179826	-0.002313146
161	0xbaac39c6	-0.0013139776
162	0x3b8ab2d6	0.0042327447
163	0x3ba97e29	0.00517251
164	0x3b780597	0.0037845129
165	0xbb2cb6c3	-0.0026354052
166	0x3b9b575f	0.00474064
167	0xbba59c9b	-0.005054069
168	0xbb25934f	-0.0025264805
169	0xbb1d507b	-0.002400427
170	0x3c8e283c	0.01735317
171	0x3a684322	0.0008860101
172	0xb9fe07b3	-0.00048452392
173	0x3c107652	0.008817272
174	0x3b6181b7	0.0034409591
175	0xba944681	-0.0011312516
176	0x3bdc9773	0.0067319213
177	0xbb0a380a	-0.002109053
178	0x3c2a671c	0.01040056
179	0xbb3a4b8b	-0.0028426375
180	0xbb580a9a	-0.0032965303
181	0xb935575c	-0.00017294049
182	0xbb7578f0	-0.0037456118
183	0x3b6e1cea	0.0036333152
184	0x3badc1e3	0.005302654
185	0xbbd1dcd8	-0.0064045005
186	0xbb8534ab	-0.0040651164
187	0x3c0f0643	0.00872952
188	0xbc169ec5	-0.009193127
189	0xbb6da84f	-0.003626365
190	0xbbb88455	-0.0056310096
191	0x3c635aed	0.013876659
192	0xbc1160bc	-0.008873161
193	0x3b1045d2	0.0022014272
194	0x3bbd1152	0.005769887
195	0xbbdd367f	-0.006750881
196	0x3bd900f5	0.0066224285
197	0xbab8dfb9	-0.001410476
198	0x3b0941f2	0.0020943847
199	0x3bed16a8	0.007235367
200	0xbbeb70d5	-0.0071850815
201	0xbb2b7887	-0.002616437
202	0xbb0fbe6d	-0.002193357
203	0xbad9e5f2	-0.0016624315
204	0xbc2f357f	-0.010693907
205	0x3b8c086f	0.0042734663
206	0xba30a510	-0.00067384634
207	0x3b41640e	0.00295091
208	0x3ace0fb3	0.0015721231
209	0x3bae1b1f	0.0053132917
210	0xbb9d697c	-0.0048038345
211	0x3b6324e3	0.0034659437
212	0xbb0e8764	-0.002174818
213	0x3b1437d6	0.0022616289
214	0x3b30c6f0	0.0026974045
215	0x3bece8f2	0.0072299177
216	0x3a4a5e1c	0.0007719712
217	0xbc10d9f7	-0.008841029
218	0x3aef84dd	0.0018273849
219	0xba2369f5	-0.00062337454
220	0xbb5a94da	-0.0033352883
221	0x3bbd22d2	0.005771973
222	0xbacfecef	-0.0015863458
223	0xbb0f6421	-0.002187975
224	0x398f3a5a	0.0002731856
225	0xbafebe1b	-0.0019435318
226	0x3c31e1cb	0.010857056
227	0xbc037da9	-0.008025565
228	0xbabbb90a	-0.0014322114
229	0xb847ec87	-4.766558e-05
230	0xbb894e0f	-0.0041902135
231	0x3baad4a6	0.005213338
232	0x3c25fd0f	0.010131135
233	0xbaa8ca74	-0.0012877719
234	0x3bcf92e3	0.006334649
235	0x39f49e78	0.00046657375
236	0x3b4cd6d5	0.003125598
237	0xbaa4396c	-0.001252932
238	0xbbee48e0	-0.007271871
239	0x3a8ef591	0.0010906925
240	0x3a9ac15b	0.0011806892
241	0x3b228db2	0.0024803695
242	0xbc61298b	-0.013742815
243	0x39012b8f	0.00012318626
244	0x3bf5890b	0.0074931434
245	0xb9f2c250	-0.0004630261
246	0xbaa1615b	-0.0012312339
247	0xbbf22c7f	-0.0073905583
248	0xbb57f4a8	-0.0032952223
249	0x3bb28f8f	0.0054492424
250	0x3c03f6e3	0.008054468
251	0x3ba9ee5f	0.0051858868
252	0x3b8f11db	0.004366142
253	0xbba6acdc	-0.0050865244
254	0xbbc3807b	-0.005966244
255	0xbb891e1a	-0.0041844966

network_body._body_endoder.seq_layers.0.bias f4 [256]
0	0x3af95dcc	0.0019025146
1	0xbab1e625	-0.0013572617
2	0xbb67ff9c	-0.0035400158
3	0x3c0b8201	0.008514882
4	0x3b89adaf	0.004201613
5	0x3b4e3266	0.0031463145
6	0xbbfa9d9b	-0.0076481826
7	0xb9224553	-0.00015475349
8	0x3c2bd159	0.010486924
9	0x3c0223c2	0.007943096
10	0x3aa6b386	0.0012718297
11	0x3c015549	0.007893869
12	0x3c1cd7da	0.009572947
13	0xbbedf1f7	-0.0072615105
14	0xbc236e8e	-0.009975089
15	0xbb3c36e4	-0.002871924
16	0xbb1e6c3d	-0.0024173402
17	0x38e5acc2	0.000109517496
18	0xba16a4e8	-0.0005746619
19	0x3c152afb	0.009104486
20	0xbb991a52	-0.004672327
21	0xbb4aeed4	-0.0030965107
22	0xbc178d39	-0.009249979
23	0x3b203ccc	0.00244503
24	0x3bfc402c	0.0076980796
25	0x3c212c25	0.009837185
26	0x3b521cfb	0.003206073
27	0x3b92fc4a	0.0044856416
28	0x3b3634fe	0.0027802582
29	0x3b95eebf	0.00457558
30	0x3bdb5ca3	0.0066943928
31	0xba93fcbb	-0.001129053
32	0x3bc19b67	0.005908418
33	0xbbda0d7a	-0.0066544386
34	0x393feb83	0.00018302914
35	0x3b1b3e0f	0.0023688113
36	0x3bbceb77	0.0057653743
37	0xbb13fc94	-0.0022580968
38	0xbbbcb37f	-0.0057587023
39	0x3c997f50	0.018737465
40	0xbbfea1f8	-0.007770773
41	0x39bb3a74	0.0003571097
42	0x3b6bffea	0.003601069
43	0x3b143c05	0.0022618782
44	0x3c0df2da	0.008663857
45	0x3b3983ed	0.0028307394
46	0x3c0c8650	0.0085769445
47	0x3b84024c	0.004028594
48	0x3c1d1e23	0.009589705
49	0x3c3309a9	0.010927596
50	0x3bf60e7a	0.00750905
51	0x3ad1c364	0.0016003666
52	0x3b616eef	0.0034398397
53	0x3c274b4b	0.010210822
54	0x3a585e9b	0.00082538434
55	0x3c5b5b4f	0.013388469
56	0x3be609ed	0.007020226
57	0x3bc4e5ed	0.0060088546
58	0x3c18da38	0.009329371
59	0x3976dd2d	0.00023542783
60	0x3c1bc79a	0.009508038
61	0x3bbe6728	0.005810637
62	0x3c1f76c3	0.009732905
63	0x3a2b953a	0.0006545369
64	0x3c33f77d	0.010984299
65	0x3a482498	0.00076348474
66	0x3c0d1332	0.008610534
67	0x3abe2360	0.0014506392
68	0x3c6b3260	0.014355272
69	0x3bbfc957	0.005852859
70	0xbc23af80	-0.009990573
71	0xbbb3cfa8	-0.005487401
72	0x3be336e3	0.0069340332
73	0x3c1f3e05	0.009719376
74	0x3c6cb3ca	0.014447162
75	0x3b2360ac	0.0024929447
76	0xbb92de6d	-0.0044820816
77	0x3c2cd2e9	0.010548332
78	0x3a9c2c94	0.0011915141
79	0x3b73dec7	0.0037211643
80	0x3ac86b90	0.0015290845
81	0x3b8bb2ef	0.004263274
82	0xbbba146d	-0.0056787045
83	0xbb04b4f4	-0.0020249458
84	0x3bee3d2b	0.0072704754
85	0x3a36a2e9	0.00069670245
86	0x3c15d6f7	0.00914549
87	0x3b928929	0.004471917
88	0x3b636871	0.0034699703
89	0x3c44b147	0.012005157
90	0xbb27cb47	-0.002560334
91	0x3c26baeb	0.010176401
92	0x3b8e90c3	0.004350753
93	0xbbd1caa7	-0.006402332
94	0x3ac7908e	0.0015225576
95	0x3b98d045	0.0046634995
96	0x3bcc144d	0.006228006
97	0xbbfec4a0	-0.0077749044
98	0x3c657706	0.014005428
99	0x3aa2a30e	0.0012408213
100	0x3bd811a3	0.0065938993
101	0xbc317802	-0.010831835
102	0x3c1b6f82	0.009487035
103	0x3bda4169	0.0066606295
104	0x3b2f3886	0.0026736571
105	0xbb8be595	-0.0042693117
106	0x3aff7d0d	0.0019492224
107	0x3b11beb6	0.0022238917
108	0xbb275c8a	-0.0025537335
109	0x3b7792e5	0.0037776765
110	0xbb30811d	-0.0026932426
111	0x3ba65b76	0.005076821
112	0x3c4a0c5c	0.012332048
113	0x3b9c5b9f	0.0047716643
114	0x3c001740	0.007818043
115	0x3b2e62f5	0.0026609276
116	0x3bc4628a	0.005993192
117	0xbabe6d33	-0.0014528394
118	0xb9969532	-0.0002872139
119	0x38dce6c8	0.00010533404
120	0x3a45e6c0	0.0007549338
121	0x3be164bf	0.006878465
122	0x3b93a129	0.004505296
123	0xbc04fccd	-0.008116913
124	0x3c18cc1c	0.009326007
125	0xbb8d33d3	-0.0043091564
126	0x3bbde790	0.0057954267
127	0x3ba382d3	0.0049899607
128	0x3b5368ea	0.0032258579
129	0x3b5c9751	0.0033659528
130	0x3b4ccf0e	0.0031251344
131	0x3a8a4c65	0.0010551332
132	0x3a4fe83e	0.000793103
133	0x3c08a999	0.0083412165
134	0x3bf3dc2b	0.0074420176
135	0x3acf5702	0.0015818777
136	0x3c2cc686	0.010545379
137	0x3bdccd40	0.006738335
138	0x3bb0d964	0.0053970087
139	0xba6d5885	-0.0009054023
140	0x3bba7af0	0.005690925
141	0x3c42884d	0.011873317
142	0xbb427214	-0.0029670047
143	0x3be93552	0.007116952
144	0x3c6ce5e8	0.014459111
145	0x3bca3b7d	0.0061716423
146	0x3b593ba8	0.003314713
147	0x3a812b34	0.0009854794
148	0xbad07914	-0.0015905225
149	0xbb1ee766	-0.002424681
150	0x3bd3177f	0.00644201
151	0x3c27db9d	0.010245231
152	0x3a0b1fdd	0.0005307177
153	0xb9b19047	-0.00033867566
154	0x3b00d0c9	0.0019655696
155	0x3bf6e93a	0.007535127
156	0x3bbad8ed	0.005702129
157	0x3c0ed5dc	0.00871798
158	0x3adde8c3	0.001693033
159	0xbb8ae3c2	-0.0042385766
160	0xba4e4691	-0.00078687916
161	0x3b294ea3	0.0025834225
162	0xba5a0814	-0.0008317244
163	0x3b255994	0.0025230395
164	0xbbd58f72	-0.006517344
165	0xba825c4e	-0.0009945722
166	0x3b8dc7c6	0.0043267934
167	0x3c35d159	0.011097276
168	0x3b7544d7	0.0037425065
169	0xb94ea2d0	-0.00019706343
170	0x3c70339c	0.014660742
171	0x3b7344e8	0.0037119929
172	0x3ba35322	0.0049842754
173	0x3c377699	0.0111977095
174	0x3c1196a7	0.008886016
175	0x3b557357	0.0032569969
176	0xba888b00	-0.0010417402
177	0x3bd98048	0.006637607
178	0x3bd3377e	0.006445824
179	0x3bbc0485	0.0057378435
180	0xba30e1ff	-0.0006747543
181	0x3bf15e6f	0.0073659937
182	0x3bcbed74	0.006223375
183	0x3b84e515	0.004055629
184	0x3bc29199	0.0059377667
185	0x3b9cf82d	0.004790327
186	0xbbcc7d7e	-0.006240546
187	0x3b810263	0.003937052
188	0x3ba9a1a7	0.005176741
189	0x3b13a016	0.0022525839
190	0x3c27d722	0.010244163
191	0x3c0267e5	0.007959341
192	0x3c2cf3e3	0.010556194
193	0x3c956fbb	0.018241754
194	0xba7c8256	-0.00096324587
195	0xbc16350d	-0.009167922
196	0xbad93801	-0.0016572477
197	0x3a302b10	0.0006720284
198	0x3c1d9ee6	0.009620404
199	0x3adbbadb	0.0016764061
200	0x3bfc059a	0.0076910974
201	0x3bb27284	0.00544578
202	0x3bf50bbd	0.007478206
203	0x3b9ce240	0.0047877133
204	0x3c08f826	0.008359944
205	0x3bec17a6	0.0072049676
206	0xbb8318e8	-0.004000772
207	0xbbacb826	-0.0052709756
208	0x3bfa9cdc	0.0076480936
209	0xbb260fcb	-0.0025339003
210	0xba4d0473	-0.00078207924
211	0xb94327a0	-0.0001861141
212	0x39e0ed54	0.00042901433
213	0x3bc13b02	0.005896927
214	0x3b85188b	0.0040617636
215	0x3c22cfe8	0.009937264
216	0x3bbdf937	0.005797531
217	0x3b23360d	0.0024904043
218	0x3a979d32	0.0011567234
219	0x3c88a4a0	0.016680062
220	0x3b92c40c	0.004478937
221	0x3c93efa9	0.018058615
222	0xba967e90	-0.001148181
223	0x3b4de1c8	0.0031415094
224	0x3c0cea44	0.008600775
225	0x39888092	0.00026035734
226	0x3bd15606	0.0063884286
227	0x3c0bf360	0.008541912
228	0xbbabc4bd	-0.005241959
229	0xbbf1b3ec	-0.0073761847
230	0xbb5fb3b5	-0.0034134213
231	0x3b138394	0.0022508847
232	0x3bfaf63e	0.007658749
233	0x3badd4f8	0.005304929
234	0x3af1706d	0.0018420346
235	0x3c5a735f	0.013333171
236	0x3c20e152	0.009819346
237	0x3c0a9d38	0.008460335
238	0xbbc6779b	-0.0060567386
239	0xbade3132	-0.0016951917
240	0x3ac39c5b	0.0014923917
241	0x3ac4b320	0.0015006997
242	0x3c02f27b	0.007992382
243	0xbb078a51	-0.0020681808
244	0x3b92b994	0.004477689
245	0x3b16873a	0.0022968785
246	0x3c437a1f	0.011930971
247	0x3b1ecbd8	0.0024230387
248	0x3ba9cc4a	0.005181824
249	0x3b649ee9	0.0034884757
250	0x3c0c055c	0.0085462
251	0x3c14c7ba	0.009080822
252	0x3abd8548	0.0014459277
253	0x3b469f1b	0.0030307237
254	0x39fe9365	0.00048556473
255	0x3b43ab3b	0.00298567

network_body._body_endoder.seq_layers.0.weight f4 [256, 119]
0	0x3d7db8e7	0.061943915
1	0x3de3efca	0.111297205
2	0xbcc73f00	-0.024322033
3	0x3cbf18b4	0.023327209
4	0x3d86f038	0.06588787
5	0x3c618b63	0.013766143
6	0x3e563413	0.20918302
7	0x3d80c8e4	0.06288317
8	0x3d9e698f	0.077349775
9	0x3b5cf0f6	0.003371296
10	0xbcb17e71	-0.021666737
11	0x3d6e9150	0.05824405
12	0xbc07712f	-0.008266731
13	0x3c29e197	0.010368726
14	0xbe296a38	-0.16544425
15	0xbe649e68	-0.22326052
16	0xbdec4dec	-0.115383
17	0xbdfc9fe6	-0.12335186
18	0xbe0bcb40	-0.13651752
19	0xbe061d3e	-0.13097093
20	0xbd298d03	-0.041394245
21	0x3dc7d5a3	0.09757545
22	0xbe2b0422	-0.16700795
23	0xbd4038bc	-0.046929106
24	0x3beaa7ac	0.0071611013
25	0x3df69cce	0.12041627
26	0x3e286956	0.16446432
27	0xba3ac7f6	-0.00071251334
28	0xbbfb06a1	-0.0076607023
29	0xbd91388e	-0.07090865
30	0xbd75ee9e	-0.060042016
31	0xbc27e9b3	-0.010248589
32	0xbcbfe9d9	-0.023426937
33	0x3c8f6bc9	0.01750745
34	0x3d88ab19	0.06673259
35	0x3d62b327	0.055346634
36	0xbdbda1af	-0.09259354
37	0xbd008ef0	-0.031386316
38	0x3dbc7f4b	0.09203967
39	0x3d1a83d2	0.03772337
40	0xbe0c2b8f	-0.13688491
41	0xbe55823d	-0.20850463
42	0xbe04216a	-0.12903371
43	0x3d27c63f	0.040960547
44	0xbd07a149	-0.033112798
45	0xbcf2ffd9	-0.029663013
46	0x3e110dfe	0.14165494
47	0xbc26d395	-0.010182281
48	0x3dc67f34	0.09692231
49	0x3cc25b96	0.023725312
50	0x3d77af01	0.06046963
51	0xbdb0ffdd	-0.08642552
52	0x3d7783ca	0.06042842
53	0x3d767a56	0.060175262
54	0xbd3c8660	-0.046026587
55	0xbe0d5f8f	-0.13805984
56	0x3e0bade3	0.13640551
57	0x3d83e507	0.06440168
58	0xbdb22958	-0.08699292
59	0x3ab41144	0.0013738056
60	0xbe1fb78f	-0.15597366
61	0xbc3bc28a	-0.011459956
62	0x3dcd8a89	0.10036189
63	0x3c66ecc8	0.014094539
64	0xbcc46ce5	-0.023977706
65	0xbb71882e	-0.003685485
66	0xbccc92aa	-0.024972279
67	0x3d6c4876	0.05768629
68	0x3e2f1f1d	0.17101713
69	0x3e20691d	0.15665098
70	0xbe207e66	-0.15673217
71	0xbce9f1ed	-0.028557742
72	0xbd8ccbea	-0.06874831
73	0x3e658859	0.22415294
74	0xbd92a77c	-0.07160851
75	0x3d47d6cf	0.04878884
76	0xbd9577c9	-0.07298238
77	0x3d8a6ee5	0.06759433
78	0xbdb87ba0	-0.090079546
79	0xbb2f858f	-0.0026782488
80	0x3d226abe	0.03965258
81	0x3e14858d	0.1450407
82	0x3d62af56	0.055342995
83	0xbc40237c	-0.01172721
84	0xbd3e29c1	-0.04642654
85	0x3c6cc274	0.014450658
86	0x3e45f977	0.19333445
87	0x3df61409	0.1201554
88	0xbe197aea	-0.14988294
89	0x3e09e839	0.13467492
90	0xbdc453ad	-0.095862724
91	0x3d71adca	0.05900363
92	0x3daf9e15	0.08575074
93	0x3b48a464	0.0030615563
94	0xbde4c8c9	-0.11171109
95	0xbca55dac	-0.020186268
96	0x3cecabfd	0.028890604
97	0xbe11f870	-0.14254928
98	0xbd9b86be	-0.075940594
99	0x3d1c6990	0.03818661
100	0x3cd39dd7	0.0258321
101	0x3e17d484	0.14827162
102	0x3c46b398	0.012127779
103	0xbdbd33a1	-0.09238363
104	0x3b39aefc	0.0028333059
105	0xbdda6d21	-0.10665346
106	0xbea0700a	-0.3133548
107	0x3dcd73e4	0.1003187
108	0xbdc264c5	-0.094918765
109	0xbe02b90b	-0.12765901
110	0xbdc0bbbf	-0.0941081
111	0x3a787f08	0.00094793784
112	0x3e8216a9	0.25407913
113	0x3d08739f	0.03331339
114	0xbd706762	-0.058692344
115	0xbd997fed	-0.07495103
116	0xbb69a0c3	-0.00356488
117	0xbd8ff756	-0.070295975
118	0x3dbda857	0.09260624
119	0x3e305ff1	0.17224099
120	0x3dbb81b8	0.09155601
121	0xbe0145d6	-0.12624297
122	0xbcbf33b7	-0.02334009
123	0xbd6e7b2b	-0.05822293
124	0xbc0900da	-0.008362019
125	0x3cc93dbf	0.024565576
126	0x3dcadf31	0.09905852
127	0xbcccfb3a	-0.025022138
128	0xbe13391d	-0.14377256
129	0xbd214215	-0.03936966
130	0xbd6be83c	-0.057594523
131	0xbd130177	-0.03589007
132	0xbd7fe0cd	-0.062470246
133	0x3be9829f	0.007126167
134	0xbd516cff	-0.051129337
135	0xbdd2ff77	-0.10302632
136	0xbe047666	-0.1293579
137	0x3e26d0ca	0.16290584
138	0xbe17d9c2	-0.14829162
139	0xbe5806e4	-0.21096379
140	0x3c3df47a	0.011593932
141	0x3bf628cc	0.0075121876
142	0xbc9001b6	-0.01757894
143	0x3ca1ebf0	0.019765824
144	0x3de10091	0.10986436
145	0xbb50121c	-0.0031749075
146	0x3dadbbd8	0.08483094
147	0xbda0cf0f	-0.07851993
148	0x3e2f087a	0.17093077
149	0xbc8e2455	-0.017351309
150	0xbcc442d2	-0.023957644
151	0xbc68582b	-0.014181177
152	0xbde8bf85	-0.113646545
153	0xbd8e18ef	-0.069383495
154	0x3e10b182	0.14130214
155	0x3dcccbd0	0.09999812
156	0x3e304bfb	0.17216484
157	0x3e1b7e4a	0.15184894
158	0x3e0f9b00	0.14023972
159	0x3d524aef	0.051340993
160	0xbd0ce41b	-0.034397226
161	0x3d0f2149	0.034943853
162	0xbd52b7e2	-0.051444896
163	0xbd545976	-0.05184313
164	0xbdb72bc2	-0.08943893
165	0xbde0e208	-0.10980612
166	0x3cb94f3a	0.022620786
167	0x3cc0137b	0.023446789
168	0x3dcebd12	0.10094656
169	0xbd2845af	-0.04108208
170	0xbbdc5d4e	-0.00672499
171	0x3dda900c	0.10672006
172	0x3d3265f7	0.043554273
173	0x3d9c559e	0.07633518
174	0xbe3b46c9	-0.18288721
175	0x3dd6b607	0.10483938
176	0xbdad181c	-0.08451864
177	0xbe193c5a	-0.14964429
178	0xbdeae91b	-0.114702426
179	0x3c98953b	0.018625846
180	0x3b8537cc	0.0040654894
181	0x3cbdaa42	0.023152474
182	0xbe7204bd	-0.2363462
183	0xbc590d6d	-0.01324783
184	0x3d7dfe53	0.06201012
185	0xbcfc976d	-0.030833924
186	0xbdbb31e7	-0.091403775
187	0xbd43654a	-0.04770402
188	0xbdb563b6	-0.08856909
189	0x3c0b1a5b	0.00849017
190	0xbcbb78d2	-0.02288476
191	0x3daebeb7	0.0853247
192	0xbd08e540	-0.033421755
193	0x3d70a015	0.058746416
194	0xbd84dd35	-0.064875044
195	0x3e1f1304	0.15534598
196	0x3da62629	0.08112747
197	0xbe20cda6	-0.15703449
198	0xbd54cf77	-0.051955666
199	0xbd794f49	-0.060866628
200	0x3cc3ae8c	0.023886941
201	0x3ca239c4	0.019802935
202	0xbdeb8d04	-0.11501506
203	0x3c1c8282	0.0095526
204	0x3dcb96c8	0.099408686
205	0x3dbe1761	0.09281803
206	0xbd8ef92c	-0.069811195
207	0x3dc300b4	0.095216185
208	0xbe69b16d	-0.22821589
209	0x3d3dada8	0.04630819
210	0xbe138193	-0.14404897
211	0x3c59c05e	0.013290493
212	0x3bd83c4f	0.006598986
213	0xbdb49359	-0.08817167
214	0x3d559b3b	0.052149992
215	0xbdab8118	-0.08374232
216	0x3e66768b	0.22506158
217	0xbda98714	-0.08277717
218	0xbcaa88a1	-0.020817103
219	0x3cf5596a	0.029949863
220	0x3d9dd0a4	0.07705811
221	0xbdea1008	-0.11428839
222	0xbde6ebcc	-0.112754434
223	0xbe5bf45c	-0.21479934
224	0xbe1b1128	-0.15143263
225	0xbceb127a	-0.028695334
226	0x3dd138dc	0.10215923
227	0x3e090e72	0.13384417
228	0xbe0be3db	-0.13661139
229	0x3db20995	0.08693234
230	0xbd55ac8f	-0.052166518
231	0xbd09313c	-0.03349422
232	0xbbb4df7e	-0.0055198064
233	0xbe0681fc	-0.13135523
234	0x3dd37ae7	0.10326176
235	0xbce26892	-0.027637754
236	0xbdba56ce	-0.09098588
237	0xbd77e8c5	-0.06052472
238	0x3e03893c	0.1284532
239	0x3d976532	0.07392348
240	0xbced129a	-0.028939534
241	0x3cc3bf09	0.023894804
242	0xbcb7deb0	-0.022445053
243	0x3dac7084	0.08419898
244	0x3d1fc112	0.039002486
245	0x3e6dbd77	0.23216806
246	0x3d1139e2	0.035455592
247	0x3c78316c	0.015148502
248	0xbe2af397	-0.16694485
249	0xbde3cdec	-0.11123261
250	0xbe1ae875	-0.15127738
251	0x3d9d3ec6	0.07677989
252	0xbc2e6f90	-0.010646716
253	0x3d4d5852	0.050133057
254	0xbd335e36	-0.04379102
255	0xbd4eaf45	-0.05046012

network_body._body_endoder.seq_layers.2.bias f4 [256]
0	0x3c292583	0.010323885
1	0xbb4427af	-0.002993088
2	0x3aeb7cbf	0.0017966254
3	0x3a05fd9f	0.000511134
4	0xbb80056d	-0.003906897
5	0x3b4ac144	0.003093795
6	0xba31e0ff	-0.0006785541
7	0x3bc5c35d	0.006035252
8	0xba23d6c2	-0.0006249958
9	0x3c0407d6	0.008058509
10	0xb7a0c669	-1.9165878e-05
11	0xb8a9efc2	-8.103206e-05
12	0x3be41e15	0.006961594
13	0xb97bff83	-0.00024032411
14	0x3bb9ae0c	0.0056665
15	0xbaf41308	-0.0018621394
16	0xbb82b068	-0.0039883144
17	0x3bec29f0	0.007207148
18	0xba74ea26	-0.0009342752
19	0xbb7dbd53	-0.0038717582
20	0x3a4c58ee	0.0007795234
21	0xbb08fc1a	-0.0020902217
22	0xbad33f67	-0.0016116918
23	0x392fdaee	0.00016770858
24	0x3bc7e81f	0.006100669
25	0x3b936a39	0.0044987467
26	0x3c3bd723	0.011464867
27	0xbb8a83b6	-0.004227127
28	0x3b42e75b	0.002973995
29	0xbbbc0357	-0.005737703
30	0x3bbecfc0	0.0058231056
31	0x3a146f39	0.00056623254
32	0x3bb73bd6	0.00559185
33	0x3c339c55	0.010962565
34	0x3bb973a7	0.005659539
35	0x3a47817d	0.0007610543
36	0x3c0c1a41	0.008551181
37	0x3bd345a9	0.006447513
38	0xbbaf6c1b	-0.0053534633
39	0x3b4138a7	0.002948323
40	0x3b3a6fab	0.0028447907
41	0x3c008912	0.00784518
42	0xba70b8d7	-0.0009182817
43	0x3c080683	0.008302334
44	0x3af5e76e	0.0018760988
45	0xbbb8aeea	-0.0056360858
46	0x3bb3062b	0.0054633818
47	0xbb256b16	-0.002524083
48	0x3bee0e21	0.007264868
49	0xbaffd674	-0.0019518868
50	0x3a31d4e3	0.0006783737
51	0xb88e4253	-6.7834415e-05
52	0x3bc63f65	0.0060500377
53	0xbba7bb88	-0.005118791
54	0x3c9f60f4	0.01945541
55	0xbbd3d001	-0.006464005
56	0x3ba440c8	0.0050126053
57	0x3b1f493d	0.0024305128
58	0xbb6f2c4f	-0.0036494916
59	0x3a0c461d	0.0005351024
60	0xbadc5de5	-0.0016812651
61	0x3c0a604e	0.008445812
62	0xb9d132b9	-0.00039901378
63	0x3c34ee70	0.011043176
64	0xbb460913	-0.003021781
65	0x3b056da1	0.0020359533
66	0x3b9a6852	0.004712143
67	0xbb12b423	-0.0022385202
68	0xbb0a6d9a	-0.0021122457
69	0xbb947af4	-0.0045312587
70	0xba824133	-0.0009937644
71	0x3b8dc480	0.004326403
72	0xbad64354	-0.001634697
73	0x3bb82299	0.0056193587
74	0x3b82a7f1	0.0039873053
75	0x3ba61635	0.0050685653
76	0x3bcb3e84	0.006202521
77	0xbbabb105	-0.005239608
78	0x3bfe0c26	0.007752913
79	0xbb487ad1	-0.0030590782
80	0x3c203101	0.009777308
81	0x3b4972ea	0.003073866
82	0x3c2c1324	0.01050261
83	0x3c3a1e80	0.011359811
84	0x3c182395	0.009285827
85	0xbaf082b1	-0.0018349496
86	0xbb436ec3	-0.0029820658
87	0xbaf62521	-0.0018779376
88	0x39d8b6b2	0.0004133485
89	0x3bf58461	0.0074925874
90	0x3bbe0607	0.0057990584
91	0x3b18f034	0.0023336532
92	0xbbfdf08a	-0.0077496218
93	0xba6ab046	-0.00089526584
94	0x3bcc1fb9	0.0062293676
95	0x3bdfcffd	0.006830214
96	0x3b165419	0.002293831
97	0xbbc8a748	-0.006123457
98	0x3c21c8c9	0.009874531
99	0x3a616a3f	0.0008598901
100	0x3c17190b	0.009222279
101	0x3c645e2f	0.013938471
102	0xbb4e911e	-0.0031519602
103	0x3ba5f52a	0.005064626
104	0x3a703e62	0.0009164569
105	0x3b6f973b	0.0036558646
106	0x3b74847b	0.003731041
107	0x3b86f1c2	0.0041181752
108	0x3b83a3c1	0.0040173237
109	0x3bfc2a0d	0.0076954425
110	0xba8df6f4	-0.0010831044
111	0x3c8e048c	0.017336152
112	0x3a9b9bb9	0.001187197
113	0xbae4b297	-0.0017448243
114	0x3b822eaf	0.0039728503
115	0xbb314c0a	-0.002705338
116	0x3bdb3547	0.0066897008
117	0xbb155fef	-0.0022792777
118	0x39f1baa3	0.00046106157
119	0x3c029cf6	0.007971993
120	0x3bc2c43d	0.0059438036
121	0x3c3d9efe	0.011573551
122	0x3b67002d	0.0035247908
123	0xbbdb2b76	-0.0066885306
124	0x3c41c3b5	0.011826445
125	0xbc418208	-0.011810787
126	0x3a13dccc	0.0005640506
127	0x3c188614	0.0093093105
128	0x3a6a2794	0.0008932289
129	0x3acbb3a6	0.001554121
130	0xbaa399ae	-0.0012481713
131	0xbc2a6bea	-0.010401705
132	0x3b6bf52b	0.0036004286
133	0x3bc77068	0.006086398
134	0x388b8467	6.652698e-05
135	0xbb819a7b	-0.003955183
136	0x3bb9190c	0.005648738
137	0x3c37fbf9	0.011229509
138	0x3c1a4a13	0.009417075
139	0x3c465264	0.012104604
140	0x3aec4812	0.001802685
141	0x3c34f231	0.011044071
142	0x3b64e69d	0.0034927495
143	0x399cfd3b	0.0002994331
144	0x3c30e570	0.01079689
145	0xbbfcd937	-0.0077163237
146	0x3b8594df	0.0040765847
147	0x3c0cf899	0.008604192
148	0xbac46a69	-0.0014985326
149	0x3c1acaff	0.009447812
150	0x3c122811	0.008920685
151	0x3b2063e4	0.0024473602
152	0x3c3516c8	0.011052795
153	0x3c135f41	0.008994878
154	0xbc22b7d4	-0.009931523
155	0xbb07db17	-0.0020729953
156	0x3b4d4175	0.0031319533
157	0xbab9818e	-0.001415299
158	0x3a331a96	0.000683227
159	0x3c4500be	0.012024103
160	0xbad455aa	-0.0016199846
161	0x3af2ff6e	0.0018539259
162	0x3b65b9e1	0.003505342
163	0xbad4f78a	-0.0016248089
164	0x3c56ce01	0.013110639
165	0xbb29a8fc	-0.0025888076
166	0xbba57b60	-0.005050108
167	0x3c459f78	0.012061946
168	0x3be5343d	0.0069947527
169	0x3bb2af71	0.005453043
170	0xbbd9b1b2	-0.0066434974
171	0x3937b9ee	0.00017521504
172	0x3bbb6408	0.0057187118
173	0x3c0115b2	0.007878708
174	0x3882681a	6.2182735e-05
175	0x3a8b1437	0.0010610883
176	0x3bd826d9	0.006596428
177	0x3b637008	0.0034704227
178	0x3b69af5f	0.0035657508
179	0x3b89906b	0.004198124
180	0x3b5e7b14	0.0033947872
181	0x3b3e567d	0.002904325
182	0x3c670bb2	0.0141019095
183	0x3aee6382	0.0018187615
184	0x3b114d9f	0.002217151
185	0xba6fba7f	-0.00091449165
186	0x3c07a8cf	0.008279993
187	0xbb030bd3	-0.0019996061
188	0xbae39f11	-0.0017366131
189	0x3a1bd431	0.00059444
190	0x3b5b456b	0.0033458124
191	0xbba7fdc0	-0.005126685
192	0x3c0f19cc	0.008734178
193	0x3b8c5b74	0.004283363
194	0x3a30deb1	0.0006747051
195	0x3a95e8c0	0.0011437163
196	0x3b91fe7f	0.004455387
197	0x3b0756db	0.0020651135
198	0x3b8ee69c	0.004360987
199	0x399494d5	0.00028339648
200	0x3b22ef90	0.0024862029
201	0xba934b22	-0.0011237601
202	0x3bcfd534	0.0063425545
203	0x3bc019ba	0.005862442
204	0x3b3e6128	0.002904961
205	0x3b91af8f	0.004445977
206	0x399164d6	0.00027731684
207	0xbc153127	-0.009105957
208	0x3c1c224b	0.00952966
209	0xba920d99	-0.0011142968
210	0xb980069d	-0.0002441899
211	0xba9c47e2	-0.0011923278
212	0x3b82a40e	0.003986842
213	0x3bfca440	0.00771001
214	0x3b4fb380	0.0031692684
215	0x3b80aa76	0.0039265705
216	0x3b684578	0.0035441797
217	0xbc00e770	-0.007867679
218	0xbb7e1019	-0.003876692
219	0x3b0ecb86	0.002178879
220	0xbb6c1ac6	-0.00360267
221	0x3c300eeb	0.010745744
222	0x3b469dbe	0.0030306424
223	0x3bdc5a04	0.006724598
224	0xbbcd0056	-0.0062561436
225	0x3b2281e0	0.002479665
226	0x3b9f7d3c	0.004867224
227	0x3c210961	0.009828896
228	0x3bd78154	0.0065766964
229	0x3b76c521	0.003765412
230	0xbaf286e3	-0.0018503334
231	0x3c07ed24	0.008296285
232	0xba61d1c0	-0.0008614324
233	0x3b8d6d97	0.0043160426
234	0x3c293aea	0.010328988
235	0x3888d9c1	6.525545e-05
236	0xbba5d525	-0.005060809
237	0xb9155805	-0.00014242537
238	0x3c09a37a	0.008400792
239	0x3c1b46e6	0.009477353
240	0x3c10bb5e	0.008833734
241	0x3b700f97	0.0036630386
242	0xba404f75	-0.0007336059
243	0x3b79a09a	0.003809011
244	0x3af86077	0.0018949647
245	0x3af193a9	0.0018430847
246	0x3c026a9f	0.007959991
247	0x3ba9b1ed	0.005178681
248	0xbb992c14	-0.004674444
249	0xbbd7094a	-0.0065623866
250	0x3a596b6c	0.00082939
251	0xbb0f3db8	-0.0021856856
252	0x3994ad5c	0.00028357923
253	0x3bb1dd6b	0.0054280064
254	0x3baf707a	0.0053539844
255	0xbb072d61	-0.0020626413

network_body._body_endoder.seq_layers.2.weight f4 [256, 256]
0	0xbdc5e99e	-0.096636996
1	0xbd70ce75	-0.058790643
2	0xbd5e6a3f	-0.054300543
3	0xbd3d58c5	-0.046227235
4	0xbd03f3d4	-0.032214954
5	0x3cde466f	0.027133195
6	0x3d571c10	0.052516997
7	0xbc47a45d	-0.012185183
8	0xbab501f2	-0.0013809784
9	0xbd884133	-0.06653061
10	0x3b8e4a1c	0.0043423306
11	0x3d1c45f0	0.038152635
12	0xbdd2eb07	-0.10298734
13	0xbd8e4382	-0.0694647
14	0x3dbbc42d	0.09168277
15	0x3d8dec27	0.06929808
16	0x3d7263a3	0.059177052
17	0xbd9d5726	-0.07682638
18	0xbc4ff134	-0.012691785
19	0x3d6c81e9	0.05774108
20	0x3d74b792	0.05974538
21	0x3c375631	0.011189983
22	0xbd189e68	-0.037260443
23	0xbd573567	-0.052541163
24	0x3d160cbf	0.03663325
25	0xbc869286	-0.01642729
26	0x3d9129e1	0.07088066
27	0x3d6be139	0.057587836
28	0x3decdbe4	0.11565378
29	0xbc9f59c6	-0.019451987
30	0x3df55242	0.1197858
31	0x3c2b7942	0.010465922
32	0x3a4e8577	0.0007878164
33	0xbc70b845	-0.014692371
34	0x3c77183c	0.0150814615
35	0xbc917e1d	-0.01776033
36	0xbd02b9f0	-0.031915605
37	0x3d0f7335	0.03502198
38	0xbd113745	-0.0354531
39	0x3df6fc40	0.120598316
40	0x3d022632	0.031774707
41	0xbc9e9ca3	-0.0193618
42	0x3c02220f	0.0079426905
43	0x3d32156c	0.04347746
44	0xbcaf26ac	-0.021380745
45	0x3d8ac84f	0.06776487
46	0xbb398274	-0.0028306516
47	0x3db4ef14	0.08834663
48	0xbd4931ad	-0.04911964
49	0x3ce63d98	0.028105542
50	0xbd1ec88c	-0.038765475
51	0xbd8bc744	-0.06825116
52	0x3da9ac0c	0.082847685
53	0x3d399942	0.045312174
54	0x3d8f1a86	0.06987481
55	0xbccba5b7	-0.024859292
56	0xbd05dca6	-0.03268113
57	0xbc8515ce	-0.016245749
58	0x3cae1fc2	0.021255378
59	0xbd1f271c	-0.038855657
60	0x3d24f7ea	0.04027549
61	0x3cf4d321	0.02988583
62	0xbdc4c56e	-0.09607969
63	0xbdea76f2	-0.11448468
64	0x3c94ba78	0.018155321
65	0x3d33e056	0.043915115
66	0xbdbbecbf	-0.09176015
67	0x3b81a477	0.0039563733
68	0x3d539355	0.05165418
69	0x3cc3f7dc	0.0239219
70	0xbd8f4ae0	-0.06996703
71	0x3d2079a7	0.039178517
72	0x3d12f620	0.035879254
73	0x3dd28320	0.10278916
74	0xbd458887	-0.048225906
75	0x3d885cc1	0.066583164
76	0x3b2979a6	0.0025859862
77	0x3cb510e8	0.022102788
78	0xbd167def	-0.036741193
79	0xbda53280	-0.08066273
80	0xbd7506a9	-0.059820805
81	0xba0a391f	-0.0005272794
82	0xbd812ae6	-0.0630701
83	0xbd0cc0a9	-0.034363423
84	0xbd991829	-0.07475311
85	0x3c8c5653	0.017131006
86	0xbd5f7817	-0.054557886
87	0x3c1c7377	0.009549013
88	0x3cab8a3f	0.020939944
89	0x3d3d8341	0.04626775
90	0x3ceedd04	0.029158123
91	0x3c81b986	0.015835535
92	0xbd6468dd	-0.055764068
93	0xbd8ab098	-0.06771964
94	0xbd5b58f8	-0.053551644
95	0xbd962a79	-0.0733232
96	0xbc15ed2b	-0.0091507835
97	0xbe26f19b	-0.16303103
98	0x3dfc4b67	0.12319069
99	0xbc0cf406	-0.008603102
100	0x3d3ff004	0.046859756
101	0xb80d669c	-3.3712582e-05
102	0xbdb74dc0	-0.089503765
103	0xbd8dd938	-0.06926197
104	0x3d014d22	0.0315677
105	0xbd834003	-0.06408694
106	0xbd3fc797	-0.046821203
107	0x3d5c0ae0	0.05372131
108	0xbd91cb8d	-0.07118902
109	0xbd1289aa	-0.035775818
110	0x3d4b04a4	0.049564973
111	0x3ccde4a0	0.025133431
112	0x3d9a75fe	0.075420365
113	0xbbd097cf	-0.0063657532
114	0xbdfb7ca2	-0.12279631
115	0x3cfd98e7	0.030956699
116	0x3d93acd2	0.07210697
117	0xbd143133	-0.036179733
118	0xbdda0404	-0.10645297
119	0xbb342090	-0.002748523
120	0x3d63bd55	0.055600483
121	0x3c4c8dd0	0.012484983
122	0x3d8079b1	0.06273211
123	0x3d88f917	0.06688135
124	0x3b897f0c	0.0041960534
125	0xba658e51	-0.00087568635
126	0xbcc87b88	-0.024472967
127	0xbd596a2e	-0.053079776
128	0x3d8e3c89	0.0694514
129	0xbd5441f5	-0.051820714
130	0x3c065175	0.008198132
131	0x3e01eb68	0.12687457
132	0xbd9e660f	-0.0773431
133	0xbd30677f	-0.04306745
134	0x3cb1c0e9	0.021698432
135	0xbe098ceb	-0.13432662
136	0x3db603bb	0.0888743
137	0x3dd9ddbb	0.10637995
138	0xbc49889f	-0.012300639
139	0x3dd7eab0	0.1054281
140	0xbc7dad17	-0.015483162
141	0x3d9214d5	0.0713288
142	0xbb43eb69	-0.0029894954
143	0xbc982e87	-0.018576873
144	0x3baed79c	0.0053357612
145	0x3df41d53	0.11919656
146	0x3dad6600	0.084667206
147	0x3d864bd3	0.06557431
148	0xbc2f4717	-0.0106981015
149	0x3d88d2ed	0.06680856
150	0x3c03861b	0.008027579
151	0x3ce68ac9	0.02814235
152	0x3d9a361b	0.07529851
153	0xbd7591d0	-0.05995351
154	0x3d04cf0c	0.032424018
155	0x3c3d6560	0.011559814
156	0x3dc627d5	0.09675566
157	0x3d2564c4	0.0403793
158	0xbda08963	-0.078387044
159	0x3da9e9d5	0.08296553
160	0xbd3bd71e	-0.04585945
161	0xbcd59f53	-0.026076948
162	0x3cffc530	0.031221956
163	0xbd35b9bc	-0.044366583
164	0xbdfdd598	-0.123942554
165	0xbd9f7339	-0.07785649
166	0xbaf64266	-0.0018788099
167	0x3da97ba0	0.08275533
168	0x3da1031c	0.07861921
169	0x3d2a49d5	0.041574318
170	0xbd8279ba	-0.06370874
171	0x3dc5f48f	0.096657865
172	0xbe4594e0	-0.19295073
173	0x3dd45ee2	0.1036966
174	0x3c13f8d4	0.009031493
175	0xbd814740	-0.06312418
176	0x3ce01a9e	0.027356442
177	0xbbf6dbfc	-0.0075335484
178	0x3bf2718c	0.0073987897
179	0xbc9b915a	-0.018990207
180	0x3d45bd7f	0.04827642
181	0xbd072be0	-0.033000827
182	0xbe0aa580	-0.13539696
183	0xbd801aa6	-0.06255083
184	0xbca9c51c	-0.020723872
185	0xbdaab5da	-0.08335467
186	0x3db01abc	0.08598849
187	0x3d34dd6b	0.044156473
188	0xbd5191f5	-0.051164586
189	0x3dbc2f09	0.09188659
190	0xbda5efe9	-0.081024
191	0xbdce1e4e	-0.10064374
192	0x3dc304fe	0.095224366
193	0xbd918942	-0.07106258
194	0xbdbf4ed3	-0.093412064
195	0xbcc661fd	-0.024216646
196	0xbc5a42d5	-0.013321598
197	0x3c11874d	0.008882356
198	0xbc258bb9	-0.010104113
199	0x3bb3d391	0.005487867
200	0x3d9f049a	0.077645496
201	0x3dba3055	0.0909125
202	0x3d7593e2	0.059955485
203	0x3b48c340	0.0030633956
204	0x3d967257	0.07346027
205	0x3c0236a8	0.007947601
206	0xbd869415	-0.06571213
207	0xbdf0d953	-0.11760201
208	0xbcc7eea2	-0.024405781
209	0xbd913cb7	-0.070916586
210	0xbc9ca034	-0.01911936
211	0x3b9a6d29	0.00471272
212	0x3d0bb3c1	0.034106974
213	0xbcbc52d8	-0.022988722
214	0x3c910a67	0.017705156
215	0x3b11a40c	0.0022223024
216	0x3d2b8b0a	0.041880645
217	0x3d600770	0.054694593
218	0x3bf2a5b9	0.0074050096
219	0x3ceb51c7	0.028725518
220	0xbd89d15f	-0.067293875
221	0x3d3834ce	0.044972233
222	0x3ba7e37f	0.005123555
223	0xbd7d32f6	-0.06181618
224	0xbc849962	-0.01618642
225	0xbe1af3ee	-0.15132114
226	0x3e0e2421	0.1388097
227	0x3dea3ede	0.11437772
228	0x3cfa028b	0.03051879
229	0xbd67ddac	-0.056607887
230	0xbaea21e5	-0.0017862885
231	0xbdda0b54	-0.10646692
232	0x3e1bc59a	0.15212098
233	0xbd695ec5	-0.056975145
234	0x3d7edb47	0.062220838
235	0xbdb1c24a	-0.08679636
236	0xbda450a8	-0.080231965
237	0xbcdc990d	-0.026928449
238	0xbd67515f	-0.056474086
239	0x3db6dc05	0.08928684
240	0x3d2a0069	0.041504297
241	0xbc5022de	-0.0127036255
242	0xbde23f8e	-0.11047278
243	0x3ce47256	0.02788655
244	0x3e422f11	0.18963267
245	0xbb774530	-0.0037730448
246	0xbc32a9eb	-0.010904769
247	0xbd11002e	-0.035400562
248	0xbdc4a575	-0.09601871
249	0xbd200b20	-0.03907311
250	0x3d00685c	0.031349525
251	0xbdafa7d3	-0.08576932
252	0xbcbfdda1	-0.02342111
253	0x3be936f8	0.0071171485
254	0xbda6e3f5	-0.08148948
255	0xbc8f9955	-0.01752917
