results/Run 12/AgentController/AgentController-1000002.onnx (onnx, 657373 bytes, 14 tensors)

83 f4 [116]
00000000: 7928 7a3e 11c1 1d3e 903d 473e 4bb7 833e
00000010: d45b 7c3e 5ec4 113e 5e97 523e 64ae 823e
00000020: 9f50 703e 38a1 1c3e f5f1 3a3e e7da 843e
00000030: 6726 893e 6e6b 0c3e 7291 703e 2d28 843e
00000040: 1c78 643e aed8 173e dcca 2e3e 0682 853e
00000050: bb1e 993e 3acd 123e c98a 893e 2868 873e
00000060: 5c95 573e a19f 143e 28b7 1f3e f5df 843e
00000070: b4e3 9d3e 1c12 163e 975e 8e3e 5c3a 8a3e
00000080: 7057 4a3e 76c3 0e3e 215c 123e f0c5 833e
00000090: d367 9a3e 6752 173e f2fa 893e 4570 8e3e
000000a0: 99bc 413e d3b7 0b3e d9df 083e 138a 823e
000000b0: 5f81 913e 00e9 183e afdd 7d3e c0fa 913e
000000c0: 7323 463e e8c0 113e c721 093e 1c3f 823e
000000d0: 6f48 873e c534 1b3e 7a51 633e a151 923e
000000e0: 32dd 4d3e 7dca 173e 4856 0e3e 47cb 823e
000000f0: f9ea 843e 0009 1d3e 7324 5c3e f858 923e
00000100: f7e1 523e 0e09 173e ada2 163e 42b8 833e
00000110: 4884 8c3e 006b 283e 25e4 673e 49a5 923e
00000120: 1268 5c3e d4af 193e 0edc 213e a9c8 833e
00000130: eccb 913e 7cbb 323e 987b 6e3e d3d5 903e
00000140: 7da2 6d3e 420b 2a3e f612 2b3e 6c53 833e
00000150: 2487 923e 6b52 383e 3461 6c3e f565 8d3e
00000160: 9ae5 7d3e 38cc 3b3e ee5b 313e ae52 823e
00000170: 9ef6 8f3e 4207 403e 9b4b 5f3e 4026 893e
00000180: f6bd 843e 9d53 453e 4a26 393e 0830 813e
00000190: 8b23 8b3e 19e7 4a3e a121 473e 2666 843e
000001a0: dd15 873e 26c5 4a3e 0b9d 3a3e 9257 803e
000001b0: 9f88 893e a50d 4e3e f0c8 3e3e 74d5 813e
000001c0: 9f88 893e a50d 4e3e f0c8 3e3e 73d5 813e
0.24429502 0.1540568 0.19457078 0.2572578 0.24644405 0.14235064 0.20565554 0.25523674
0.23468255 0.15295875 0.18256362 0.2594826 0.2678711 0.13712856 0.23492983 0.25811902
0.22311443 0.1482875 0.17069572 0.26075763 0.29906258 0.143361 0.26863697 0.26446652
0.2105307 0.14514019 0.15597212 0.25952116 0.30837786 0.14655346 0.2780654 0.2699765
0.19759917 0.1394175 0.14292957 0.25736952 0.30157337 0.14777528 0.2694927 0.2782003
0.189196 0.13644342 0.13366641 0.25495967 0.28419015 0.14932632 0.24791597 0.2851162
0.1934946 0.14233744 0.13391791 0.25438774 0.2642245 0.15156849 0.2219905 0.28577903
0.2010391 0.14823337 0.13900101 0.25545713 0.2596052 0.15335464 0.2149828 0.28583503
0.20594011 0.14749548 0.14710493 0.25726515 0.27444673 0.16447067 0.22645624 0.28641728
0.21524075 0.1500848 0.158066 0.2573903 0.28475893 0.17454332 0.23289335 0.28288135
0.23206516 0.16605857 0.16706452 0.25649583 0.2861873 0.1800019 0.23083955 0.2761685
0.24794617 0.18339622 0.17320225 0.25453705 0.2811784 0.18752769 0.21806185 0.26786995
0.2592618 0.19270177 0.18081012 0.25231957 0.27175555 0.1981472 0.19446422 0.25859183
0.26383868 0.19801769 0.1822397 0.2506681 0.26862046 0.20122392 0.18631339 0.25358164
0.26862046 0.20122392 0.18631339 0.2535816

86 f4 [3]
00000000: 6358 e540 e13b 123b f1ac d040
7.1670394 0.0022313523 6.521111

action_model._continuous_distribution.log_sigma f4 [1, 2]
00000000: 06ef d33b 5cf1 283b
0.006467703 0.0025778627

action_model._continuous_distribution.mu.bias f4 [2]
00000000: 3ead 98ba 9cf8 19bb
-0.001164831 -0.002349413

action_model._continuous_distribution.mu.weight f4 [2, 256]
00000000: c51c 573c 2d0f 323c 9ebe 963c 8aa9 023c
00000010: 1d52 55bc 0519 c63b 6d51 6bbb 2b73 293c
00000020: 11a8 72bc e55d c6bc a2e1 7f3c 3868 c63c
00000030: fce1 f43b bced 33bc 805b fbbc 2100 0a3d
00000040: b90c cbbb b5a1 8dbb 2079 053c 9d24 e43a
00000050: 2f43 a0b9 98c7 98bb cb48 6fbc 8ba0 8dbb
00000060: 65c9 a03c f8d7 1c39 8090 1dbc 187c 763b
00000070: 9a00 c7bc 7ea7 903c 1afc a93c 7f5f 4fbc
00000080: 3473 cdbb d347 ccbc 0509 c5bb 2854 563c
00000090: cce3 f33c 916d 00bc cb29 acbb c42f e2ba
000000a0: ed97 96bc 505c 6eb9 19c9 3b3c bc70 853c
000000b0: 5e8a a53a 6fe6 383c 0f1a ebbc 15ca 5b3c
000000c0: 9b9d 5f3b aa1b d03c e908 463b 71b7 a5bc
000000d0: 5d4b 96bc f1fe 333b f540 92ba 8bd5 ef3a
000000e0: 0dfa 673c d9ba 81bb 2109 94bb 0759 46bb
000000f0: 0e8b 57bc e3e7 bcbb b7a3 483c c8d0 eb3c
00000100: 3dda 8ebb 58b3 d03c b613 b73b 003f 88bc
00000110: 0f1d e4bb 9f40 92bc 37d4 90bc 1aab 963c
00000120: 6afd 7abb 8d35 b83b 4d49 4bbb 9db7 05bd
00000130: 7418 0dbc 033a 1d3b 72bf 62bb 62ca f53b
00000140: 5e5e 913c 0357 8fbc 0d70 d23b 1731 a7bb
00000150: 6fb3 ca3c 71bb 57bb c39e aebb 1cb1 f239
00000160: 7b5d 25bc 5062 cf3b 84a8 60ba 5b07 0d3d
00000170: 4b6c eb3c 006a c83c 1eb9 13bc 8dd4 aabc
00000180: 745d 28bc 2e99 033d ed90 cdbc 66a4 163c
00000190: ebde 75bc d563 2ebc 63a0 903b 54a4 a63b
000001a0: 19cd d23c 3731 d5bb 29d5 0fbc d3ba 183c
000001b0: 2063 f7bc 8d1d 85bc 0f0a 52bb c577 7fbb
000001c0: 17dc f13b fdc2 9bbc a6ac 283b d63e e5ba
000001d0: d2f1 7fbb 30f2 963b 8e31 c8bc ea00 e8bb
000001e0: 6b8d 8c3b c7a9 b63c 5134 793c 90e4 0cbc
000001f0: c66c 493c 3a50 5dbc 0c0c 26bc ce69 753c
00000200: 4e5b 913c 15ae 933c f9fc f53b ac8d d73b
00000210: 56ca 8dbc 504e d53c 8adc bebb 4183 9ebc
00000220: bdb1 f6bb 008c 543b f4aa 9a3c 22e1 32bc
00000230: 6315 1a3d 8f8d c63c 8b98 d33b fdc3 033c
00000240: dd87 b73c f353 a13c e609 933b c735 a73c
00000250: b8e3 83bc 9179 183d c568 c43b 11fb 043d
00000260: e545 8a3c e004 163b 661b ae3c dac8 cdbc
00000270: df1b 20bc 5b50 f5bb 1c27 8b3c 4331 8e3b
00000280: ef93 f83c 0497 183c 1529 743c 2a7b baba
00000290: f8ea 02ba 6610 f3bc d4a4 1ebc 3c80 16bd
000002a0: 964b 4bbb 0dd6 84bc 85f3 d33b 06ae d9bb
000002b0: 972d 8ebc 1c84 7b3b 7294 c03c 453f d33a
000002c0: 17b1 063c 4e02 50bb 2a46 d4b9 26ff 7cbc
000002d0: 25fa 8abc c3b2 b0bc c33b cfbb d741 8bbb
000002e0: be4e b23b 1e3f c53c aa6c efbb 59a8 813c
000002f0: 226c 52bc e1cc 853b 9501 693c edb7 32bb
00000300: 9fbb 17bc be26 cfbc 919c 16ba ff5c b63c
00000310: 5766 7abc fca7 393c 2e49 f9bb 4314 82bc
00000320: 8a59 133c daaf 903c 1711 2dbc 327d bf3c
00000330: 1a79 91bc e4c2 153c a477 553c 616d 86ba
00000340: 81df bbbb 58b3 96bc 6d76 a6bc 7944 7a3b
00000350: f983 063b 10ef b23b 6e42 62bc 1c4d 6bbc
00000360: 0055 2a3a 9ecf 063d a4cd d23a 6bee 6cbb
00000370: 33d0 933c 4a1d cbbc 581d a239 a744 51bc
00000380: 438f 8dbc 008d 973c 3403 913b 7139 adba
00000390: bac9 e1bb a6d9 d33b 3e90 22bc a115 69bc
000003a0: 0c8c 4cbc 04ae 873c 265c 94bb e458 debc
000003b0: 139f 6fbc e25f 72bc 0c18 46bc 8888 36bb
000003c0: 9dd9 e5bc 05c5 ec3c 97d0 57bb 6ff7 19bc
000003d0: 30e5 0f3b af4b 843c 4cd6 09bd db03 6a3a
000003e0: 5e7c 39bb 4fd3 e6bc f1d6 923a 7512 993b
000003f0: 5790 993b 6eda 5d39 7a7c 2b3c 5086 81bc
0.013129418 0.010867876 0.01840144 0.007974992 -0.013020066 0.006045463 -0.0035906688 0.0103424
-0.014810578 -0.024214694 0.01561776 0.024219617 0.0074732285 -0.010981973 -0.030683279 0.03369153
-0.006196585 -0.0043222555 0.008146554 0.0017405931 -0.00030567634 -0.0046624653 -0.014604758 -0.0043221167
0.019627282 0.00014957774 -0.009616971 0.0037610587 -0.024292279 0.017657991 0.020750094 -0.012657045
-0.006269837 -0.024936592 -0.006013038 0.013081588 0.029771708 -0.007838623 -0.0052540055 -0.0017256667
-0.01838299 -0.00022731838 0.01146152 0.016289108 0.0012629738 0.011285408 -0.02869895 0.013414879
0.003412104 0.025403816 0.0030217713 -0.020229073 -0.018346483 0.002746519 -0.0011158275 0.0018297894
0.014158738 -0.0039590416 -0.00451769 -0.0030265467 -0.013155712 -0.0057649477 0.012246064 0.028786078
-0.004359512 0.025476143 0.0055870665 -0.016631603 -0.006961472 -0.01785308 -0.017679317 0.018392134
-0.003829802 0.005621618 -0.0031019032 -0.03264581 -0.008611787 0.0023990877 -0.0034598974 0.0075009326
0.017745193 -0.017497545 0.006422049 -0.0051022875 0.024743764 -0.003291812 -0.0053289845 0.00046289794
-0.010093088 0.0063288584 -0.00085700327 0.034430843 0.028738162 0.024464607 -0.009016303 -0.020853305
-0.010276187 0.032128505 -0.02509352 0.009194469 -0.015006761 -0.010643919 0.004413651 0.0050855074
0.025732564 -0.006506111 -0.008778849 0.009321886 -0.030198634 -0.016249442 -0.0032049452 -0.00389813
0.007380973 -0.019013876 0.0025737672 -0.001749004 -0.0039054048 0.0046065077 -0.024437692 -0.007080187
0.0042893193 0.022297753 0.015210227 -0.008599415 0.012294 -0.013507897 -0.010134708 0.014978839
0.017743733 0.018027345 0.0075069633 0.006578168 -0.017308395 0.026038319 -0.00582463 -0.019349696
-0.0075285123 0.003243208 0.018880345 -0.010917934 0.037618052 0.024237422 0.0064573935 0.008042333
0.022403652 0.01969335 0.004487264 0.020411385 -0.016099796 0.03722531 0.005993935 0.032465998
0.016879031 0.002289109 0.021253299 -0.025120188 -0.00977227 -0.0074863858 0.016986422 0.0043393685
0.030343978 0.009313349 0.014902373 -0.001422738 -0.00049941195 -0.029670905 -0.009682853 -0.036743388
-0.0031020395 -0.016215349 0.006468239 -0.0066430597 -0.017355723 0.0038378304 0.023508284 0.0016116878
0.008220932 -0.0031739655 -0.00040488067 -0.0154416915 -0.016964981 -0.021569615 -0.006324263 -0.004249792
0.0054415157 0.024077948 -0.007306655 0.015827345 -0.012843164 0.0040832614 0.014221569 -0.0027270273
-0.009261041 -0.025287028 -0.0005745376 0.02226114 -0.015283189 0.0113315545 -0.0076076007 -0.015878802
0.008993516 0.017661978 -0.010563157 0.023375127 -0.017757941 0.009140704 0.013029013 -0.0010255986
-0.005733431 -0.018396065 -0.020320142 0.0038187786 0.002052544 0.0054606274 -0.013809783 -0.014361646
0.00064976513 0.032912843 0.0016083014 -0.003615285 0.018043613 -0.02479424 0.0003092091 -0.012772716
-0.017280227 0.018499851 0.0044254307 -0.0013215971 -0.0068905028 0.0064651547 -0.009922085 -0.014226348
-0.012484562 0.01656247 -0.0045275865 -0.027141996 -0.014625329 -0.014793368 -0.012090694 -0.0027852375
-0.028057868 0.02890254 -0.0032930726 -0.009397372 0.0021956675 0.01614937 -0.033651635 0.0008926966
-0.0028302888 -0.028176932 0.0011202974 0.0046713897 0.004686396 0.00021157574 0.010466689 -0.015811116

action_model._discrete_distribution.branches.0.weight f4 [1, 256]
00000000: 9d26 d7b9 f966 85bb 7dec d8bb 964b bdbb
00000010: 736b 79bb 2e7d 0fbb 3d93 333b 0a1a 59bb
00000020: acd4 8ebb 020e 4e3c 95f2 f83b 0280 e23a
00000030: e29f d8ba efa9 42bb fbf8 173c 27a2 5d39
00000040: 5f79 0bbc 476f 583c 38ed 143c 2723 56bb
00000050: 36ed 0fbc 5769 9f3b 7ddd e5ba 7b38 803b
00000060: 22fe cfbb 9674 233c bd71 26bc 4a2b d6bb
00000070: 407d 1abc 7f5c 7e3b 3f34 1c3b 2440 1dbc
00000080: f523 6fbb 17e2 133b 73d5 223b d7c5 cebb
00000090: 0245 d23b 6806 023c 6714 24bc 069b 90bb
000000a0: 5f54 023c cf66 cb3b 5747 d1bb f2f1 1cbb
000000b0: 6d30 f43b cf33 c83a d890 453c 6548 c739
000000c0: 4a25 fbbb 2ca3 07bc 7f0c 30bc 0bd3 82ba
000000d0: 38d4 4ebc ae16 853b 1faa cfbb 476c 5c3a
000000e0: 3981 2cbc e2f3 72ba 97a4 93bb ae8f aabb
000000f0: bfeb a1ba b464 123c 0321 08bb f7b0 2aba
00000100: c286 273c 5f4c 613b 6f53 6abb 6a09 9739
00000110: af4e f1bb f341 0bb9 a28c 003a a378 06ba
00000120: eb5b 933a 803c 9e3b 1ea0 2c3c c28d e3bb
00000130: c728 033b c21b d1bb f897 503b f3f2 dabb
00000140: 7c8e 0a3b 2bc4 ecba 171d 273c 2203 9f3b
00000150: a865 9a3b 9bfa 733b a866 c13a 81e1 b9bb
00000160: 2041 a33b 0aa4 2cba e311 70bb 6168 863b
00000170: d353 c8bb fa3b 04b9 bb33 0bba 5be5 6abb
00000180: 506a cd3a 8290 f33a 6340 403c f7f5 d13a
00000190: 5f9f cdbb da48 b8ba 166d 443a eeab 033c
000001a0: 7f2a ea3b 4fff 28bc e0b0 c23a 4210 663a
000001b0: dd9e 31bb 820a ba3b efac 40bc a7d3 55ba
000001c0: 6bde 113c 819c 8f3a ca5a 093c 58e0 00bc
000001d0: 5f4b f1b9 9dd1 8c3b 7810 683a 8285 4dbb
000001e0: 3372 73bb fbfa ba3b 2765 c7bb faf3 bbba
000001f0: 578a 3f3a 8f04 0cbb cd4f ec39 f86f f43b
00000200: 2f61 51bb 332d 753b 03b1 c8bb 06cd cb3b
00000210: 9343 c9bb 127a 4dbb 5992 bdbb 0d7e c7bb
00000220: 9367 f53b db5a 19bc 5211 ebbb 0980 4a3c
00000230: 3a2f 4ebc 12a2 11bc af25 513b e256 90bb
00000240: 1fd1 c23b 189b e1bb c008 6ebc c05c fbbb
00000250: 1d1e 21ba 881b 433c a1a8 c43a 26a2 3e3b
00000260: 18ac 9b3b 9bd5 263b 9096 d73a e73b 8b38
00000270: 3f25 043b 4b7d 54bb 7290 0cbc 451e 8fbb
00000280: 05a9 06bc fd70 663b 5a0f 913a 5a2c 083c
00000290: 7f0e 9b3b ce07 303b e928 06bc 0738 5ebc
000002a0: e2e6 ea3b 845b bfbb 4b51 e63b 7020 6cbb
000002b0: 7f94 cfba e5a9 a5bb 47b1 7dbc 8ff2 52bb
000002c0: 3bd9 0abc ae48 cb3b 6be6 993b 4b09 003a
000002d0: 2ff9 353c 5fc8 d13b 20ef 3a3c f81d 193b
000002e0: 87c8 6c3b 6200 4ebc 0569 83bb 9e08 3cbc
000002f0: 66cc 32ba 5b37 c0bb 3780 ffbb 5f08 ed3b
00000300: 0bce 9bbb 1d84 dd3a e3b4 a3bb cbbe 5939
00000310: 3345 5a3b c9f4 983c b627 b53a 136f b1bb
00000320: ebd2 eebb f8fc a23b ab4f 983b bbfd c03b
00000330: ba3a 16bc 5d00 86ba b8d9 353b aec5 9ebb
00000340: 6b90 90bb eb2f 15bc 8bf0 edba 1bcc b3bb
00000350: 5849 e4ba 0f68 ff3a 0b81 273c 7c45 b0bb
00000360: 2811 ecbb ef77 103b b554 083c 052f 83ba
00000370: b585 ec3b 8d37 f2bb e868 ed3b ec7e c0bb
00000380: 1341 afba 36b4 8cbb 0b0f 5b3b 2f6d 89bb
00000390: e352 77bb 3921 a1bb 1784 d53b 09a8 89bb
000003a0: 42ea 8b3b c48e 433a 242a 013c ab50 b4ba
000003b0: 07fc 543c 822d f7bb b7eb bfba df34 2f3b
000003c0: 23a6 a4bb e283 7abb 5ad9 ecbb 0fb1 48b9
000003d0: 77b2 64ba 058f 133b 2abd 8b3b f0e8 0b3c
000003e0: d85f d63b 3d16 d83b cc62 00bc 2151 11bb
000003f0: 7b94 703b 7a37 2fbb da74 61bb 48dd 233c
-0.00041036765 -0.004071113 -0.0066199885 -0.005776833 -0.003805843 -0.0021894681 0.0027400993 -0.0033127093
-0.0043588486 0.012576582 0.0075972774 0.0017280581 -0.0016527141 -0.002970334 0.00927567 0.00021136609
-0.008512824 0.013210124 0.0090897605 -0.003267476 -0.008784583 0.0048648524 -0.0017537322 0.003912983
-0.0063474337 0.009976527 -0.010158953 -0.006535922 -0.009429276 0.0038812456 0.0023834852 -0.009597812
-0.0036489938 0.002256518 0.0024846464 -0.0063102054 0.006416918 0.007936098 -0.01001463 -0.0044130115
0.007954686 0.006207324 -0.006386678 -0.0023947922 0.007452062 0.0015274229 0.012058459 0.00038010176
-0.0076643573 -0.008278649 -0.010745167 -0.0009981109 -0.012623839 0.0040615415 -0.0063374187 0.00084084686
-0.010528856 -0.0009267909 -0.0045057046 -0.0052051162 -0.0012353583 0.008935142 -0.002077163 -0.0006511355
0.010225 0.0034377796 -0.0035755297 0.00028807978 -0.007364116 -0.00013280641 0.00049037684 -0.00051296706
0.0011242604 0.0048289895 0.010536222 -0.006944389 0.002001332 -0.006381483 0.0031828862 -0.006681794
0.0021142056 -0.0018063834 0.010199807 0.0048526684 0.0047118254 0.003722823 0.0014755325 -0.005672634
0.0049821287 -0.0006585723 -0.0036631755 0.0041017984 -0.0061135083 -0.00012610844 -0.00053101376 -0.0035842273
0.0015671942 0.0018582495 0.011734101 0.0016018738 -0.006275102 -0.0014059797 0.0007493062 0.008036597
0.007146179 -0.010314777 0.0014853738 0.00087762263 -0.0027102747 0.005677522 -0.011759981 -0.0008156844
0.008903126 0.0010956676 0.008383462 -0.007865988 -0.00046023258 0.004297449 0.00088525517 -0.0031360094
-0.0037146925 0.0057061887 -0.0060850563 -0.0014339678 0.0007306686 -0.0021365022 0.00045072884 0.007459637
-0.0031948795 0.0037410974 -0.006124617 0.006219509 -0.0061420887 -0.0031353277 -0.0057852683 -0.0060880245
0.0074891536 -0.009360041 -0.0071736956 0.0123596275 -0.012584502 -0.008888738 0.003191333 -0.0044048885
0.0059453393 -0.0068849437 -0.014528453 -0.007670969 -0.000614615 0.011908419 0.0015003869 0.0029088347
0.00475074 0.0025456909 0.0016448069 6.639194e-05 0.0020163802 -0.0032423313 -0.00857936 -0.004367622
-0.008219008 0.003516256 0.0011067197 0.0083113555 0.0047319527 0.002686012 -0.008188465 -0.013563163
0.0071686367 -0.005839767 0.007028734 -0.0036030076 -0.0015837102 -0.0050556534 -0.015484161 -0.0032188033
-0.008474643 0.0062037325 0.0046966574 0.0004884197 0.011106773 0.00640206 0.011409551 0.002336381
0.0036130266 -0.012573333 -0.004010322 -0.011476664 -0.0006820619 -0.005865974 -0.007797267 0.007233664
-0.004754787 0.0016900335 -0.0049959286 0.00020765809 0.0033305406 0.01867141 0.0013821039 -0.0054148524
-0.007288327 0.004974004 0.004648169 0.005889622 -0.009169275 -0.0010223497 0.0027748179 -0.0048453426
-0.004411747 -0.009105663 -0.0018153352 -0.0054869778 -0.0017416878 0.0019485968 0.010223637 -0.005379377
-0.0072041936 0.0022044142 0.008320977 -0.001000852 0.0072180876 -0.007391876 0.007245172 -0.0058745053
-0.0013370834 -0.0042939438 0.0033425714 -0.004193924 -0.0037738613 -0.0049172905 0.0065159905 -0.0042009396
0.004269869 0.00074599334 0.007883582 -0.0013756951 0.012999541 -0.0075432668 -0.0014642392 0.0026734394
-0.005024688 -0.003822558 -0.0072280588 -0.00019139446 -0.0008724103 0.0022515666 0.0042644935 0.008539423
0.006542187 0.006594448 -0.007836055 -0.00221736 0.0036709595 -0.0026735947 -0.0034401924 0.010001488

network_body._body_endoder.seq_layers.0.bias f4 [256]
00000000: 7fd2 fc3a b515 e0bb 9e14 c839 8cce e93b
00000010: 2212 e2bb 8bd8 bfba fbf1 ac3b c11c ed3b
00000020: 53ca ee3b 3981 063c c758 123c acfd d93b
00000030: ed57 173b 568e ee3b d3ce 243b 54d7 45bb
00000040: f6f1 c6bb c294 d13b 7622 993b 6598 843b
00000050: 9899 d0b9 14df 1fbb 967e 093b 49b4 9f3b
00000060: 135e 613a b06d 0d3a 2956 c83b efdd a039
00000070: c818 213b 79bc b33b fd16 e23b 13fc 4f3b
00000080: 1da3 913a ee9c 323a f2dc f23b cfc2 d23a
00000090: ddee c73a 7c39 d43b b5c5 36bb 22a0 ac3a
000000a0: 2f18 b43b 7a85 ddb9 67b4 5abb f903 5eba
000000b0: e7db 8bba 40d2 9f3b 307d 46bb dcd4 f8bb
000000c0: 9ad5 4a3c 2cf8 7f3b 6253 6a3b 2c01 ad3b
000000d0: 5daf e53b 37d6 5d39 3e67 2d3c 6ec6 6b3b
000000e0: 8c2f fb3b 5007 76bb ab37 213b 9133 e23b
000000f0: 08b7 b03a ea80 f43a da17 81ba 39af 973b
00000100: 06d8 1b3b 824c fe3b a415 0a3c 896c 86bb
00000110: 3a8d 353c 7946 c13b 96d4 293b 5b38 11ba
00000120: eea0 e83b ef7d 503b f095 183b 642b 673b
00000130: 5768 523b 4bca 6cba 3a95 b73b e6da fcbb
00000140: f425 c73b dd66 07ba e3b7 273c 04ed fc39
00000150: aff8 43ba 31bf 1d3b 623b 213b a0b5 293b
00000160: f60e b43a 5a09 823b e7a3 613a debb 543b
00000170: b3a2 b0ba 0ad5 b43b ad32 333b 09d1 543b
00000180: 9d49 003b b98a c63a 03c4 e039 a677 103c
00000190: f460 6e3b 9360 4ebb 0277 813b 7826 803b
000001a0: 4587 afba 3ed1 4a3b 6f53 ab3b b4b5 a73b
000001b0: 1a4f 043c 0a16 41ba 8824 4bbb 7122 083b
000001c0: a2f0 173c a788 6d3a 2960 dd38 69ad 893b
000001d0: f86a 233c 6988 ac3a 045a 8fbb 6cab d23b
000001e0: c099 ee3a 19b5 83bb 8070 b43b b0e5 bb3b
000001f0: 2b9c cc3b de63 933b 6529 333b 29c3 943b
00000200: 6436 acba 6744 773b 4b52 e73b 54a5 1dbb
00000210: 7a65 62bb dd5e 9f3b 534b 3dbb 3704 3ebb
00000220: 26eb 443b 24a2 66bb e407 963b 70c3 ae3b
00000230: 36d7 1f3b 0e09 69ba 10b9 983b 480b bc3a
00000240: b208 613a 343f c33b 2b6f a3b9 ce0a d03b
00000250: 30e0 233b 9c76 df3b 0e81 fe3b f65c c83a
00000260: 12b9 a23b 6818 a5bb abab 89bb 949e c93b
00000270: 29d6 ffb8 0f7d 2c3b e75f 0eba f28c cf3a
00000280: 48bd 523c ca66 9e3b fc70 903b 2a16 183b
00000290: 9143 78ba 5ecf b4b8 433b 4d3c 8da2 a33b
000002a0: 51ca c83b 5ced 20bb 7360 39ba 3487 6337
000002b0: 66d8 5c3b f6f1 353c bdf2 263b 0d7f afba
000002c0: cec0 5fba 8b6c c13b 3584 f63b 7b59 a2b9
000002d0: 5497 b1ba 62f7 8d3b fa22 1b3b 43d3 103b
000002e0: 1cb6 d03a 5882 b5ba aabf b7ba 6492 043b
000002f0: fc3b 823a 252e 9f39 549a cb38 9975 1ab9
00000300: 6c30 b0ba 5287 803b d547 263b 6a4a 29bb
00000310: 7e56 d5bb c39b 223c f799 743a 5652 413c
00000320: 859b 133a d52a 1b3c 4ad3 cf3b d8df 8c3b
00000330: 4296 12bc a2db 3fbb 23ef 423a 5dc4 5a3b
00000340: c455 6b39 5a97 fe3b 6da0 4cbb 8b98 5b3b
00000350: 68b8 113b a739 2d3b 0155 033c 8ff5 323b
00000360: 4f07 f5ba aff7 573b aa4a d73a 5305 3d3c
00000370: 114b 973b 8129 c33b 8208 c23b ea7b 17b9
00000380: f99f 993b 15bb e93b b3d5 33bb 773b 183c
00000390: 795a f3bb 42cf 503b 64e6 d5bb 9ed9 893a
000003a0: af25 0f39 a020 a13b 9be7 b43b 2742 a73b
000003b0: 3546 6fb9 a9de b2bb d400 de3b 60c3 1fbb
000003c0: 2e21 37ba 8f13 043a 97d5 9d39 7c6a 023c
000003d0: 6473 6dba d12c 633b 7efd 023c 23ec c03b
000003e0: 2df5 04bb 82af 933a 80a7 bb3a 5e12 973b
000003f0: 45fc 763b 3d7b 173a 7fef 203b 7c9b b53b
0.0019288807 -0.006838525 0.00038162334 0.007135218 -0.0068991343 -0.0014636678 0.0052778698 0.0072360937
0.0072873025 0.00820952 0.008932299 0.0066525545 0.002309318 0.0072801514 0.002514769 -0.003018816
-0.0060713245 0.006395907 0.0046732975 0.004046487 -0.00039787288 -0.002439444 0.0020979992 0.0048737866
0.0008597087 0.0005395068 0.0061137867 0.00030682932 0.0024581421 0.005485114 0.006899713 0.0031735941
0.0011111234 0.00068135455 0.0074115926 0.0016079786 0.0015253682 0.0064765792 -0.0027888839 0.0013170282
0.005496047 -0.00042251853 -0.0033371688 -0.000846922 -0.0010670394 0.0048773587 -0.003028702 -0.007593734
0.012380028 0.0039057834 0.0035755266 0.0052796807 0.0070094303 0.00021156004 0.010583697 0.0035976428
0.00766558 -0.003754098 0.002459983 0.00690312 0.0013482282 0.0018654142 -0.0009849027 0.0046290425
0.0023779883 0.0077605853 0.008428011 -0.004102294 0.011081034 0.0058982936 0.0025914065 -0.00055397087
0.0070992624 0.0031813344 0.002328273 0.0035273666 0.0032105648 -0.00090328295 0.005602506 -0.0077165244
0.0060775224 -0.0005165169 0.010236713 0.00048241776 -0.00074757164 0.0024070258 0.0024602045 0.002589561
0.0013737369 0.0039684 0.0008607492 0.003246061 -0.0013476223 0.0055185603 0.0027343438 0.0032473227
0.0019575127 0.0015147544 0.0004287065 0.008817589 0.0036373707 -0.0031490668 0.0039509544 0.003910836
-0.0013391754 0.0030947472 0.005228452 0.0051180962 0.0080755 -0.000736565 -0.0030997116 0.0020772482
0.00927368 0.00090611953 0.000105560124 0.0042015803 0.009974234 0.0013163212 -0.0043747444 0.0064291265
0.001820378 -0.0040193913 0.005506575 0.005734168 0.0062442026 0.004497989 0.0027337905 0.0045398665
-0.0013138768 0.003772998 0.0070593706 -0.0024054842 -0.0034545348 0.0048636035 -0.0028884008 -0.0028994211
0.0030047386 -0.0035191858 0.0045785774 0.0053333566 0.002438975 -0.0008889594 0.004660733 0.0014346624
0.00085843646 0.005958462 -0.0003117261 0.0063489443 0.0025005452 0.0068195593 0.0077668494 0.0015286494
0.0049659098 -0.00503831 -0.0042013726 0.006152937 -0.00012199238 0.0026319658 -0.00054311607 0.0015834852
0.012862511 0.0048340308 0.004408 0.002320657 -0.00094705174 -8.621694e-05 0.012526336 0.004993743
0.0061276336 -0.002455554 -0.0007071562 1.3561734e-05 0.003369832 0.011105051 0.0025474273 -0.0013389305
-0.0008535505 0.005902832 0.0075230845 -0.00030965716 -0.0013549128 0.004332469 0.002367197 0.0022098578
0.0015923413 -0.001384805 -0.0014018912 0.0020228857 0.000993609 0.00030361224 9.70854e-05 -0.00014730393
-0.0013442165 0.0039223814 0.0025372405 -0.0025831708 -0.006510555 0.009924832 0.0009330804 0.011799416
0.0005630779 0.009470661 0.0063423263 0.004299145 -0.008946957 -0.0029275198 0.0007436147 0.0033381202
0.00022443297 0.0077695074 -0.003122355 0.003350767 0.0022235159 0.0026432069 0.008015872 0.002730701
-0.0018694195 0.0032954027 0.001642545 0.011536914 0.004617103 0.0059558754 0.0059214244 -0.00014446644
0.0046882597 0.0071328976 -0.0027440607 0.009291521 -0.0074265567 0.0031861817 -0.006527709 0.0010517125
0.00013651581 0.0049172193 0.0055207736 0.0051043215 -0.0002281897 -0.005458672 0.006775001 -0.0024377927
-0.000698584 0.0005038315 0.0003010451 0.007959958 -0.0009058027 0.0034664164 0.007995008 0.0058875247
-0.0020287738 0.0011267515 0.0014316887 0.004610344 0.0037686985 0.0005778557 0.0024556813 0.005542217

network_body._body_endoder.seq_layers.0.weight f4 [256, 119]
00000000: 0a92 d9bc 64c7 8abd 8380 00be 6bde 0b3c
00000010: 60b9 dc3d 8337 3f3e 1cee 96bd 9490 2fbd
00000020: bcf0 9e3d 5e57 d2bd f85f 4ebd 0972 ab3c
00000030: da01 16bc fa02 c4bb 2ae4 b8bd 6691 aebd
00000040: be23 0a3d 7ccf 2fbd 7b51 203e ff4f a6bd
00000050: 06ba b0bd 386e 2a3e 47f6 2a3e 7d49 7a3c
00000060: deff 143e 3e74 223d f9de e43d a670 ca3d
00000070: 7032 573d 314a a13d 4fe5 183c f872 48bd
00000080: e319 853d 50b7 083d 592f a43d 27e7 02be
00000090: ca74 0abd 1c42 7f3d 63d9 70bd 745d 363e
000000a0: faba 173d 0651 33be 031e 133d a918 8a3c
000000b0: 661a db3c e43c 8fbd 8e27 acbd 8b8c 86bd
000000c0: 361f 993c 8f63 86bd 987b 03be 09a3 953d
000000d0: 9e99 15be 6d11 3c3c eb93 4bbc 7b33 fbbd
000000e0: 7a04 373d 5556 2d3e 5ef2 8f3d b079 df3c
000000f0: d8d4 bbbc 71fc af3c bdb9 433d 2439 6a3c
00000100: b1ff 55bd 7a34 bb3d 35a5 6abd 49f6 f23b
00000110: 97b9 6ebd e48d d73c eef4 693d b781 fa3c
00000120: 70fe 2b3d 259a 7b3d ab2b 78be eeaf 46bd
00000130: 5036 1bbe 6c66 773b 6735 d6bc 77f8 22be
00000140: 88af ffbc 8042 c13d 90c6 bb3c 767c 2d3e
00000150: 668b 853d fd63 ccbd 8744 153d 53c0 783d
00000160: 223b a4bd 4de9 bbbd 9afc 9c3d eb4e 14bd
00000170: d7a6 7bba 1c76 9fbc 8d27 ee3d bb75 dcbc
00000180: 6f9c 4abd 0bd7 22bd 4a9e 9dbc cbe5 c93c
00000190: 2d72 12be ac4e 27bb 9c75 08be 5cf8 19bc
000001a0: 5bba 733e 99c5 343d 2e44 bfbd a121 b8bd
000001b0: efaa d8bb 6e4d 843d 838e 6cbd c106 95bd
000001c0: 7c04 273d fdea cc3d e52e e23d ad50 dbbd
000001d0: a877 b8bd ef4e 4e3d bd47 443d 4b2b e3bb
000001e0: eb26 443d 953b b0bd b5a1 9b3d ef7e 5c3d
000001f0: aeed b0bc 5ed9 6ebd 9930 a63d 5bf5 af3d
00000200: f48f 193d b1de 05bd 19b9 be3d 969e 323e
00000210: 9588 e63d f5a0 b9bd 8be0 ca3c 225d 083d
00000220: 1964 603e 0bac 24be 7994 b3bd adea 6abc
00000230: 42b3 693d 97ec 92b8 7a0c f8bd e538 01ba
00000240: c0a3 22be 65cb dcbd ddd3 8a3d 27ca 113d
00000250: 296d 30be a9f8 46bd 2cb3 cc3d 0721 033d
00000260: e6f5 ad3d 32f1 19be d6fb 3a3d c4ff 0a3e
00000270: 66ab e33c eea7 533c 1fd0 843d 2e83 8fbd
00000280: 8d4f 5cbd 0a86 3c3d d791 623c 5083 723d
00000290: 8072 fd3c 2016 ecbd f469 013e 7a05 c73d
000002a0: b4bb a7bd 0a2a b63d 8859 74bc 0f21 a93d
000002b0: cda7 10bd 3a41 bdbc 3bdc 723d 7303 483c
000002c0: abcb ae3c 0ef1 f13c 8229 68be f444 32bc
000002d0: d2cd dcbd 30d6 033e 5a20 b5bd da0e 51bd
000002e0: 83da febd 4022 f63c 894d 05bd 6603 35be
000002f0: 99d8 6b3d 496d 53bd 0c68 b93d 5727 cebc
00000300: 43b6 863d 0c94 903c 7478 e1ba efb1 a93d
00000310: 4c55 27bd f323 223d 5af6 0cbe 2956 edbd
00000320: 8d27 273d 8467 aabd c9a9 503e 1144 81bd
00000330: dbd3 d33d 03de 2fbd f63c 2b3c 7c4c b2bb
00000340: 4a14 5d3d e887 323e b9c0 0c3d e0ac 2b3d
00000350: 1a76 303a 0b57 4a3e a3de 3a3e 8eef b9bc
00000360: 5b11 b5bd 82ba 05bd 14c1 74bd cee3 973d
00000370: 12ab 593e 97ae c1bd 53df 22bd a926 84bc
00000380: ccf2 4e3e 826b a63c 0fb4 7abd 53ab 49bd
00000390: ed14 843e bd24 1bbb 7b61 d53d f518 09be
000003a0: 73c2 c9bc 67fc 95bd 8c62 573d 49ef 42be
000003b0: efa4 953d ee90 ce3d 522b a4bd e498 8b3d
000003c0: ce1d b0bc da5d 34bd 03d1 e33c d0f9 733c
000003d0: 3b66 c7bd 49a8 b13a 1c87 d2bb 49cf 243d
000003e0: ed23 98bc 5d74 0cbe 7f76 c73d a0a2 9f3d
000003f0: 099d 98bc 0899 febd b224 17bd f8df d4bd
-0.026558895 -0.06776312 -0.12549023 0.008536915 0.10777545 0.1867352 -0.073696345 -0.04286249
0.0776076 -0.1027057 -0.05038449 0.0209284 -0.009155715 -0.0059818 -0.09027894 -0.08523826
0.033725493 -0.042922482 0.15656082 -0.08120727 -0.08629231 0.16643608 0.1669551 0.01527631
0.1455073 0.03966164 0.11175341 0.09884767 0.052538335 0.07875479 0.009332015 -0.048937768
0.06499078 0.033377945 0.08016843 -0.1278349 -0.033802785 0.062318906 -0.058801066 0.17809087
0.03704355 -0.17511377 0.035917293 0.016857462 0.026745986 -0.06994036 -0.08405982 -0.06569775
0.01869164 -0.06561958 -0.12840116 0.07306487 -0.14609382 0.011478764 -0.012425403 -0.122656785
0.044682004 0.16927464 0.0702865 0.027279705 -0.02292864 0.021482678 0.047784556 0.01429585
-0.0522458 0.091408685 -0.05728646 0.0074146134 -0.05828246 0.026312776 0.05711835 0.030579431
0.041990697 0.0614263 -0.24235408 -0.048507623 -0.15157437 0.0037750257 -0.026148511 -0.15915094
-0.03121163 0.09436512 0.02292183 0.1694201 0.06520729 -0.09980009 0.036442306 0.06073029
-0.08019091 -0.09175358 0.076653674 -0.036208075 -0.0009599751 -0.019465499 0.116286375 -0.026911607
-0.049465593 -0.039755862 -0.019240517 0.024645707 -0.14301367 -0.002552907 -0.13326114 -0.009397592
0.23801558 0.044133756 -0.09339176 -0.08990789 -0.0066121737 0.06460081 -0.057753097 -0.07276679
0.04077576 0.10005758 0.11044101 -0.10708747 -0.090071976 0.050368246 0.047919977 -0.006932651
0.047888678 -0.08605114 0.075992025 0.05383199 -0.02159771 -0.058312766 0.08114738 0.0859172
0.0374908 -0.03268308 0.09312648 0.17443308 0.1125652 -0.09063903 0.024765274 0.033291943
0.21913184 -0.16081254 -0.08768553 -0.014338178 0.05705572 -7.005891e-05 -0.12111755 -0.00049294374
-0.15882778 -0.10780982 0.06778691 0.035593178 -0.17229141 -0.048576985 0.09995112 0.03201392
0.08494167 -0.15033415 0.045650326 0.1357413 0.02779169 0.0129184555 0.064850084 -0.070074424
-0.053786803 0.046026267 0.013828716 0.05920726 0.030938387 -0.115276575 0.12638074 0.097178414
-0.081900984 0.08894737 -0.014913924 0.082582586 -0.035316277 -0.023102392 0.05929206 0.012207854
0.02133735 0.02953389 -0.22672084 -0.0108806975 -0.107814446 0.12874675 -0.08844061 -0.051039554
-0.124440216 0.030045629 -0.032544646 -0.17677078 0.05757961 -0.051617894 0.090530485 -0.025165243
0.065777324 0.01764872 -0.0017202036 0.08285891 -0.04085283 0.039585065 -0.1376585 -0.11588699
0.040809203 -0.08320525 0.20377268 -0.06311811 0.103431426 -0.042936336 0.010451546 -0.0054412466
0.053974427 0.17434657 0.034363482 0.041912913 0.00067314657 0.19759767 0.18248992 -0.022697236
-0.08841201 -0.03264857 -0.059754446 0.07416497 0.21256664 -0.094571285 -0.03976376 -0.016131716
0.20209807 0.020314936 -0.061206874 -0.049235653 0.25797215 -0.002367302 0.104189835 -0.13388427
-0.024628853 -0.073235326 0.052584216 -0.19036593 0.07306849 0.10086237 -0.08016075 0.06816271
-0.021498587 -0.044034816 0.027809625 0.014891103 -0.09736296 0.0013554181 -0.0064247977 0.040236745
-0.018571818 -0.13716264 0.09739398 0.0779469 -0.018629568 -0.12431532 -0.03690023 -0.10394281

network_body._body_endoder.seq_layers.2.bias f4 [256]
00000000: 9c74 353b c840 d33b 1387 c5b9 8763 81bb
00000010: 772d bc3a a361 f33a c0d1 04ba a111 ee3b
00000020: b06d 933a 0c0f 6c3b 9579 d63b c577 a9b9
00000030: a1f8 a439 eae1 6bba b12d de3b 009e db3a
00000040: 25f5 05bc 2026 4ebb a376 d53b ac09 a4ba
00000050: 5f2b 04bb c03c ba3a 735f a53a e2d1 53ba
00000060: 5eaa 4c3b f5f3 5fbb 953b 1bba 7ed5 19bc
00000070: 1aed 063c 8435 3c3b 057c 33bb 25d4 133c
00000080: c2ce 1cbb 4932 0f3c 6b57 bf3a 35c2 da3a
00000090: 5b1e f5ba 2de2 9abb 0f84 8fb8 c2a2 54ba
000000a0: e8e2 32bb f3bb a839 4a09 fa3b f87f e43b
000000b0: 322e 663b f4d9 a23b e1a7 9d3b 80e7 753b
000000c0: 0504 c43b c10c b63a 1225 6d3b 060f 893b
000000d0: 2c22 053b f54d d73b aa76 7d3b 5a1c 493b
000000e0: 7581 ad3b d8c6 2f3b bbb8 e93a 0658 83bb
000000f0: 63ad ce3a cc63 79ba fc35 f43a f281 f239
00000100: 1499 033b 6b50 023c 0f49 2e3b 777e 1ebb
00000110: 65dc 6b3b 255a 04bb b20b 903b 1e07 11bb
00000120: 95eb ca3b 1034 c4ba 7829 32ba 2bce cc3a
00000130: 8153 b43b 64f4 f43a 7de6 1d3b fc56 273b
00000140: 63ba dc3a 4a92 183b 210d 0e3b 1983 e73b
00000150: 3d81 413a fa97 d83b ec69 7cb9 eed2 f13a
00000160: 18d0 dd3a 9aba db3b a208 773b 3eca 053b
00000170: a84e 7f3a f5aa deb8 08ab 193b 96a5 e73b
00000180: a693 38bb c590 19bb 8fba 6f3b e10f 35bb
00000190: c967 28bb 70ef ceba 2acc 193c c35f 443a
000001a0: 1025 b6ba d930 063b d29d 8b39 997c 583a
000001b0: 627a 223b ce7c 263b dbb1 9139 4fad e33b
000001c0: 6768 bf3b 3cfa cc3b 91b3 533b 8254 abba
000001d0: 1d8a a33a 73e8 a73a 1ba2 043b baf2 21bb
000001e0: b89a d13b dfa7 96bb 4296 503b 601b cd3b
000001f0: 3711 b33a 0fb3 80ba e8d2 8f3b d9cd 6f3b
00000200: d57a eb3a 4949 923b 8ad2 b739 a970 ff3a
00000210: 0295 b0ba 7dca d33b 6655 303b 7eff e7b9
00000220: f4a1 58b9 42e9 023b 5c2e 31bb 8ded 963b
00000230: fd74 7e3b ba54 27ba 7d67 acbb 8742 9f3b
00000240: c348 19ba 4c4c 0cb9 f3c1 943b 1b16 763b
00000250: 9008 04ba 694c e03b f144 473b 6acb 54bb
00000260: f883 233b 6979 98ba 9624 653b b453 ce3b
00000270: 780f 8e37 e06b 4d3b 6e85 423b 0dd7 383b
00000280: 9223 a83b 2519 ae3b 002f c53a 0af5 e2b9
00000290: 4466 db3b e019 a43b fe30 7e39 a97e 2abb
000002a0: 9521 7c3a 6036 013b 5eb5 bd3b eafd 2ebb
000002b0: 9c4f b03b 3d21 6e3b 8cef 8ebb a979 1bba
000002c0: 7d03 603a aa1e d039 c7da 1f3b cbdb 9f3b
000002d0: aedc 593a 4015 92bb 637c b13b 13ae 813b
000002e0: f411 6f3b e626 f03a ceb5 013c 9896 e7bb
000002f0: c460 20ba 354a f1b9 ea4c eeba 205b c7b8
00000300: c808 473a 39d6 f53b ad50 673b f14a 993b
00000310: 1a28 453a 88ae 9f3a bb5d 20bb 99b5 f7ba
00000320: 7388 12ba fbbb 6dba 0e30 173b bc9b b63a
00000330: b074 8c3b 0b32 0bbb 3239 803b 418e 663b
00000340: 6a4a f73b 640b f239 0711 a8ba 6729 2d3b
00000350: 0a56 1fbb 53e5 5e3a 6f55 c53a b7fa ad3a
00000360: d73f 37bb 2ebd 67ba 07b7 96ba 9ebe d53a
00000370: 581b 80bb 5d75 adb9 88f6 71bb c46e d1ba
00000380: eae7 1a3a 030b 133b fbf4 833a 7d70 8d3b
00000390: b5e6 563b 2f98 dabb 21bd b53b 081e 4a3b
000003a0: d9ec 19bb 65bd 6d3b 267c 0e3b ae05 c23a
000003b0: 32f9 9b3b cd26 933a 8add da3a cc1b a43b
000003c0: 095f b43b 671c dd3a 5bed 333c 9d42 243b
000003d0: a94e 55bb 06ec 82b9 3e6e 6a3b 4cca 103b
000003e0: a489 f33a f2c5 df3b 9dc0 fd3b d5ba 23bb
000003f0: 7c80 153b 71ec fcba f2c5 733b 1134 bb3a
0.0027687913 0.0064469315 -0.00037675406 -0.003948632 0.0014356811 0.0018568527 -0.00050666556 0.007265285
0.0011247899 0.003601971 0.0065452554 -0.00032323427 0.0003146576 -0.00089982024 0.006780349 0.0016755462
-0.008176123 -0.003145583 0.0065143867 -0.001251509 -0.0020167453 0.0014208779 0.0012616947 -0.0008080286
0.0031229476 -0.003417251 -0.0005921659 -0.009389279 0.00823524 0.0028718421 -0.0027387154 0.009022747
-0.0023926948 0.008740016 0.0014598196 0.0016689958 -0.0018701063 -0.0047266693 -6.843369e-05 -0.0008111411
-0.0027295891 0.0003218349 0.007630502 0.006973263 0.003512275 0.0049698297 0.0048112725 0.0037522018
0.0059819245 0.0013889299 0.0036185426 0.004182699 0.0020314557 0.0065705725 0.0038675466 0.0030687065
0.0052949735 0.00268214 0.0017831543 -0.004008296 0.0015768226 -0.0009513467 0.0018631811 0.00046254654
0.0020080255 0.007953743 0.002659384 -0.0024184266 0.003598952 -0.0020195332 0.0043959254 -0.0022129486
0.0061926343 -0.0014969129 -0.00067963405 0.0015625408 0.0055031185 0.0018688557 0.002409368 0.0025534024
0.0016840216 0.0023280554 0.0021675306 0.0070651886 0.0007381624 0.006609914 -0.00024072052 0.0018449703
0.0016922979 0.0067055942 0.0037694355 0.0020414735 0.0009739199 -0.00010617628 0.002344789 0.0070693
-0.0028164177 -0.0023432237 0.0036579703 -0.0027627873 -0.0025696626 -0.0015787911 0.009387055 0.0007491076
-0.0013896544 0.0020475893 0.0002662973 0.00082583126 0.0024792184 0.002540398 0.00027789068 0.00694815
0.005841303 0.006255416 0.0032303075 -0.001307145 0.0012477074 0.0012810364 0.0020238224 -0.0024711327
0.0063966177 -0.0045976485 0.0031827842 0.006259367 0.0013661747 -0.0009818989 0.0043891557 0.00365912
0.0017965684 0.0044643027 0.00035061344 0.0019488531 -0.0013472142 0.0064633475 0.002690637 -0.0004425011
-0.00020659697 0.0019975458 -0.002703569 0.004605955 0.0038827055 -0.00063831697 -0.00526136 0.0048602256
-0.0005847329 -0.00013379863 0.004539722 0.0037549797 -0.00050366763 0.0068450463 0.0030406083 -0.0032469877
0.0024950486 -0.0011632863 0.0034964434 0.0062965993 1.6934922e-05 0.0031344816 0.002968158 0.0028204352
0.0051311934 0.005313056 0.0015043914 -0.00043288647 0.0066955406 0.0050079674 0.00024241579 -0.0026015437
0.0009618041 0.0019716248 0.005789443 -0.0026701638 0.005380584 0.003633573 -0.0043620523 -0.00059309095
0.00085454417 0.00039695698 0.0024391876 0.0048784963 0.0008310777 -0.0044580996 0.0054164394 0.003957519
0.0036479207 0.001832214 0.007916881 -0.0070675127 -0.0006117935 -0.0004602239 -0.0018180881 -9.506033e-05
0.0007592556 0.007502344 0.003529589 0.004678123 0.0007520929 0.0012182752 -0.002446993 -0.0018898725
-0.00055897905 -0.0009068844 0.0023069414 0.001393191 0.004286371 -0.0021239545 0.003913068 0.0035180005
0.0075467126 0.00046166324 -0.0012822457 0.0026422383 -0.0024312758 0.00085028 0.0015055368 0.0013273571
-0.0027961635 -0.00088401407 -0.0011498638 0.0016307419 -0.0039095096 -0.00033084574 -0.0036920626 -0.0015978445
0.00059091917 0.0022436983 0.0010067517 0.004316388 0.003279132 -0.0066709737 0.0055462276 0.0030840654
-0.002348712 0.0036276218 0.0021741479 0.0014802718 0.004759931 0.0011226773 0.0016698104 0.0050081965
0.005504493 0.0016869426 0.010981883 0.0025064119 -0.0032548106 -0.00024971383 0.0035771276 0.0022093235
0.0018580449 0.006829017 0.0077439086 -0.0024983187 0.0022812178 -0.0019296539 0.0037196842 0.0014282485

network_body._body_endoder.seq_layers.2.weight f4 [256, 256]
00000000: d4bf a5bc d46b 78bc 9434 90bc e5a7 16be
00000010: 70a1 6abd 20c3 c73c 1360 943d 2565 e63c
00000020: d6c8 063d d9c5 8fbd 866f 693d c623 cc3d
00000030: b566 34bb ab41 593c cf39 ee3b 639b 63bb
00000040: eb08 f6bd 9772 18bd 9380 fc3b 8fdd a5bd
00000050: cbec 233b de7e 88bd 1948 f5bc bac4 f9bc
00000060: eeee 633d 93b0 85bb 7d72 8c3c 023d 32bd
00000070: a2f0 38bd 9464 40bd a1af 033d 6dfb 8c3d
00000080: 45fb 9bbc 492e 89bd f744 d43c 5933 733d
00000090: ffdd a8bc 8f37 a3b7 ba1f b4bc 86da 99bd
000000a0: 0ffe a5bd 563a 87bd 2938 283d f917 23ba
000000b0: 2492 623b cdec eabc baf9 3ebd bab9 ccba
000000c0: af34 683d 2156 d2bd f9b9 30bd 56c3 aa3b
000000d0: 2f3d 0dbd 6c4d f7bd 02fb 97ba a5bf 883c
000000e0: ac71 aabc 4b59 ee3d 8eb1 503c 4f76 cebd
000000f0: 83c3 7fbc adf5 6abd 380f 7ebc a8f9 373d
00000100: b809 dabc 2597 adbd 17e7 293d 8e03 97bd
00000110: 2b30 313c 81c7 503e 55dc 99bc fa98 88bc
00000120: 3037 64bd 8a34 b2bc 0c8a c7bd 4dca 3fbd
00000130: 4a48 a23d b4ff 163d e2ae a8b8 d52b febc
00000140: 94e5 faba 2d2a 57bc a19f 0a3d 653f ef3c
00000150: a51e a03c e8de ba3c d49c 0a3d efc8 adbd
00000160: 4cf0 903d b0c8 01bd 0928 26bd aedf bb3c
00000170: d338 f23b 365a b53d 2f0d aabd 417f 53bd
00000180: 4ee8 eb3c 09a0 6a3c 5bed 453a c8a8 a83d
00000190: 6470 fc3c c32f e63d d715 393d 5439 1e3c
000001a0: 94eb 77bd e309 e5bc 8d1b 253d b2cb 513c
000001b0: e8ab 0e3b fea3 28be c585 733d 7113 a1bd
000001c0: 0d54 113d 7a7a 05bd 2bf9 293d 6ab0 02be
000001d0: 78e8 45bd 21b3 c03d 8282 a93d 0bc8 e63d
000001e0: 23c0 8e3d 6194 3d3c 77ff 423d 5a17 113c
000001f0: a7db 8a3c 8eca 073d 7988 f6bd eb7e dbbb
00000200: a3e5 96bd e824 30bc 1870 ac3b 3791 29bb
00000210: 5010 f4bc 769f 82bd f4cf d83d 03b7 c2bd
00000220: 29d2 863d 0615 f53d 8aee 0c3d 667c 13bd
00000230: 7135 31bc 8032 54bd 23f0 d73d e6c4 a63c
00000240: b666 053d e325 8cbb 1766 b43d b1ed 00bc
00000250: 7962 d83d c153 603d faa4 eebc 4371 a53d
00000260: 4bb5 6bbd fb0f 123c 4736 9e3c 712c b4bd
00000270: 858c ba3c 3981 09bc d77a 04be d8ec 413c
00000280: c9f2 583d f665 963c bc38 84bd 642e 9abd
00000290: 16c1 723d 6ae1 3b3d 56e6 d0bd 8ca9 a53d
000002a0: 1bad 553d af28 073d 9869 723d 5408 a23c
000002b0: 5aa6 edbc 5463 c73d 3fe2 e6bc 785b c63c
000002c0: 2a7a 8dbc 16f8 e5bc bda9 623d 7f7a 2b3d
000002d0: 0ed3 17be f187 293c 5985 2e3e 834f 72bd
000002e0: a829 80bb 7319 183d c573 483d de97 acbd
000002f0: dd9f 853c 000e 5b3d 4f1d 893c 0e73 acbc
00000300: 14c7 c23d 9c41 c5bd 79ff 98bb 8825 63bd
00000310: 2127 f2bc dfee 8abc 2c2b 7b3c 508a 173d
00000320: eee4 2bbc deca f53d f01a c43d 365c d1bc
00000330: a28c 0dbc c257 9dbc 3b01 083e a41c 933d
00000340: ce30 83bd bc6c 47bc 4702 823c dcc7 b23d
00000350: 59f7 9abd 4b00 923c 788b 123d 8589 e33c
00000360: 55be 9fbc 81f9 f23c 1ebb c73c fbd6 b03c
00000370: 17e7 e43c cf1d 14bc 9f4a b7bd bd0b 11be
00000380: f8f6 59bd 8ebc a0bd 8b7c d6bd 99e6 833b
00000390: 1d09 9a3c 3982 c13d 8437 f23c f43b a53b
000003a0: dc50 55bd 1716 90ba dac8 aaba bf48 023c
000003b0: 83c7 c73d 0832 35bc c56f b93c 665c a43c
000003c0: ec08 413d 1f1f a9bd f462 9fbd d5cc 623d
000003d0: 32ea 1c3d ab4e d6bd a169 86bd 0553 01bd
000003e0: fcfe ba3c 5b13 82bd c5fa 4cbb 56a7 cf3a
000003f0: b94c d53d 22ec aa3c ee1b 7d3d e88e 9e3c
-0.020233072 -0.015162427 -0.017603196 -0.14712484 -0.057282865 0.024385035 0.07244887 0.028124401
0.032906376 -0.07020158 0.056991123 0.09967761 -0.0027527038 0.013260285 0.007270075 -0.003473007
-0.1201342 -0.037218656 0.007705757 -0.080988996 0.0025012966 -0.06664823 -0.029941605 -0.030489314
0.055647783 -0.004079887 0.017144436 -0.043515213 -0.04515136 -0.04697092 0.032149915 0.06883893
-0.019040713 -0.06698281 0.025911791 0.05937514 -0.020613668 -1.9456986e-05 -0.021987785 -0.07512383
-0.081050985 -0.066029236 0.041069183 -0.0006221529 0.003457197 -0.028677369 -0.046624877 -0.0015619316
0.056690868 -0.10270334 -0.043146107 0.005211274 -0.034482177 -0.12075314 -0.0011595192 0.016692946
-0.020806156 0.11638125 0.012737645 -0.10081159 -0.0156105785 -0.0573632 -0.015506558 0.044915825
-0.026615962 -0.08476094 0.04148015 -0.07373725 0.010814707 0.20388605 -0.01878182 -0.016674507
-0.055716693 -0.021753568 -0.09743127 -0.04682379 0.07923944 0.03686495 -8.043439e-05 -0.03102676
-0.0019141906 -0.013132614 0.03384364 0.029205034 0.019545862 0.022811368 0.03384097 -0.08485591
0.07077083 -0.03168553 -0.040565524 0.022933807 0.007392028 0.08855097 -0.08303296 -0.05163503
0.028797295 0.014320382 0.00075503223 0.082353175 0.03081531 0.112395786 0.045186844 0.009657223
-0.0605274 -0.027958816 0.040309478 0.012804912 0.0021769945 -0.16468808 0.059453744 -0.07865036
0.035480548 -0.032587506 0.04149739 -0.12762609 -0.048317403 0.09409166 0.082768455 0.11268624
0.06970241 0.011571021 0.04760691 0.008855665 0.016950442 0.033152156 -0.12037749 -0.0066984794
-0.073680185 -0.010750987 0.005262386 -0.0025873908 -0.029792935 -0.06378071 0.10586539 -0.09507563
0.065830536 0.119669005 0.034407176 -0.036007307 -0.010815964 -0.051805973 0.10543849 0.02035756
0.032568656 -0.0042769774 0.088085346 -0.00786917 0.10565657 0.054767374 -0.029131401 0.080782436
-0.05754594 0.008914943 0.01931299 -0.08797539 0.022772083 -0.0083926255 -0.12937485 0.011836253
0.052965913 0.018359166 -0.06456134 -0.075283796 0.059266172 0.04586927 -0.10200183 0.08088979
0.05216704 0.032997783 0.059182733 0.019779362 -0.029009987 0.09735742 -0.028184054 0.024213538
-0.017270166 -0.028072398 0.055337656 0.04186487 -0.14826605 0.010347352 0.17043056 -0.05915786
-0.003911216 0.037133645 0.04893853 -0.08427404 0.01631158 0.05348015 0.016737608 -0.021050956
0.095106274 -0.096316546 -0.0046691266 -0.055455714 -0.029559674 -0.016959606 0.015330117 0.03699714
-0.010491593 0.120015845 0.095754504 -0.025556665 -0.0086394865 -0.019206885 0.1328172 0.07183197
-0.06405793 -0.01217192 0.015870227 0.087295264 -0.07566709 0.017822405 0.03577754 0.027775535
-0.019499937 0.029659988 0.024381217 0.021586886 0.027942223 -0.00904031 -0.0894978 -0.14164634
-0.053214043 -0.07848464 -0.104729734 0.004025292 0.018803174 0.09448666 0.029567488 0.0050425474
-0.052079067 -0.0010992911 -0.0013029829 0.007951914 0.09754851 -0.011059292 0.022636304 0.02006359
0.04712765 -0.08257889 -0.07782546 0.055371124 0.038309284 -0.104642235 -0.06563116 -0.031573314
0.022826664 -0.06351348 -0.00312774 0.0015842717 0.10415024 0.02086455 0.061794214 0.019355252

network_body._body_endoder.seq_layers.4.bias f4 [256]
00000000: b838 20bb 42f9 d9ba f11a 5e3b c239 ddba
00000010: 285f c5b9 e88e 1bbb 884f 90ba 4808 ae3a
00000020: b739 813b 009c 943b b655 b93a b297 673b
00000030: 1386 fe39 22ae 423b 5f23 4f3b bf98 fd3a
00000040: 72dd 6e3a 204d e5b9 e30a 623a 6c04 193b
00000050: bc57 10ba 59d0 1c3a 0c10 933b 8adf 443b
00000060: 122b 4039 15df 823b 0639 78b9 99d0 d5ba
00000070: 0c4e a03a 93ee c539 40c9 9c3b 8090 a13a
00000080: fc99 413b e5b6 423b 039a d839 1e60 a9ba
00000090: fac4 0d3b 6d63 6f3b e787 313b d9c7 8e3b
000000a0: f991 5f3b d1d2 49bb ae7f 9139 f78f 6bba
000000b0: e5a6 bc3a 3205 8cba 2888 0b3b 1b34 993b
000000c0: a5e9 b0ba f400 2a3b be26 353b f336 083b
000000d0: 67f1 663b 52cc 0a3b aa4d 773b ee5c f7ba
000000e0: aeff 0f3a 8342 e0ba ff9b b03b d663 013b
000000f0: 57d9 c43a 86ea aa3a 885a 823b d67b 163b
00000100: 1287 efb9 c175 043a fe45 a13b f179 683b
00000110: 673b 8d3b ff00 bc3a 39f2 973a 4aef 1939
00000120: cf52 f8ba 2f1a 0eba 2237 72bb 1b8f be3a
00000130: bbb5 fdb9 c732 7f3b f0a6 32b8 bab9 9839
00000140: ec52 1dbb f202 8c3b 0b1d a13b 43f4 733a
00000150: 9750 533b c8ce 9a3b d2fe 2cba a221 a83b
00000160: b50d 15ba 3eac b63b 60fe 0e3a 10b3 7e3a
00000170: 2e82 173b a0e3 ac3a cb33 213b 5817 6c3a
00000180: e046 d13a f8ff 903b 3170 0a3a e003 b6ba
00000190: 2ed2 00bb 1353 46ba 7a29 b23a b71e 8c3b
000001a0: 95b7 553b 3cb1 653b 94bd 943b cf53 b2ba
000001b0: 4332 e63a 3fdf 603b 1514 d0ba 9f43 94ba
000001c0: 4204 9838 2dcb 183b 713e 2e3b 6cf8 ca3a
000001d0: 54f5 f9ba f81e 29b8 5124 783b c484 a13a
000001e0: 2c3d f6ba 56a9 a23a 36d0 0eba 6cd1 96ba
000001f0: 1c6a 213b 701b 42ba 7e7f 773b 3118 3e3b
00000200: 9171 543a e4b8 4239 ee7d b73a 6c08 d43b
00000210: 0274 9bba ebee 3d3b 3cf3 623b 7cc3 ac3a
00000220: 37dd 093b 88d6 5a3b 6026 813b 0c07 9f3b
00000230: 39ce eab9 3ed5 d23a c43d 6c39 1475 7a3b
00000240: 1804 b838 38c2 b4ba 0cdb 743b 2160 8a3b
00000250: 448c 9b3a b01c 093b b1ed 3b3a 3b3f 393a
00000260: ca71 bf3a 969c 5fba 281f b4b9 4f8b 833b
00000270: 88fb 493b 7d2f e73a bd5a 42ba b5d2 1b39
00000280: 39e0 323a e5e6 6539 5cb9 ba3a 0416 c73a
00000290: f3e1 ed37 1d05 a8b9 02b4 af3a 8045 3d3a
000002a0: f3ad 363b a60a 753b 4732 06ba 49c4 bd3a
000002b0: f9fd c93a 8149 07bb dce5 143b d59a 0c3b
000002c0: 9d5a e33a 5ce7 89ba c682 d83a 8b57 513b
000002d0: 2f5a 7b3a 9f8b 7c3b 58a8 d2ba be31 d8ba
000002e0: ea54 723b 4008 02b9 a90e 793a 9261 203a
000002f0: 3e80 613b b2a2 8e3b beab 72ba fd42 85b9
00000300: a8dc c2b9 986d 793b afa1 9b3a c2f5 dbba
00000310: e768 a23a 492c 61ba 5c70 21bb 24a9 a43a
00000320: 4a3c 3a3b dbd9 f039 501c 44bb e66d d7b8
00000330: b7fd 4f3b b280 bd3b 693c 543b 6139 cc3a
00000340: ace3 4c3b 3a69 ecb9 a0fd 293b e9bf 06bb
00000350: 5b9c 713b 5b67 b23b fef3 7fba 133d 483b
00000360: f520 7f3a 7781 303b 8257 8c3b 7b23 573b
00000370: 2540 5fba 3787 df3a ecd1 1c3a af59 d63b
00000380: cf77 853a d600 db3a c1dc 04b9 1db1 883b
00000390: 6b91 113b 113f 393b 7f64 9c3a ae14 dbba
000003a0: 6618 853b f058 883a e8ac 9d39 d51c ff3a
000003b0: 35cf 48ba 7fc3 f4ba d78d 273b 3ad5 893b
000003c0: 6f95 853a 24ac d33a c2ca 0b3b 5d59 143b
000003d0: 91e2 713a 7b73 8dba 9bf5 453b 45b8 a33a
000003e0: 6476 8e3b 032b 743a 5572 7e3a d129 6d3b
000003f0: 9e76 863a c535 233b ad96 abba 0633 94ba
-0.002444787 -0.0016630071 0.003389057 -0.0016878175 -0.00037645665 -0.0023736302 -0.001101003 0.0013277614
0.0039436477 0.004535198 0.0014139924 0.003533822 0.00048546548 0.0029705842 0.0031606776 0.001934789
0.00091119774 -0.00043735746 0.0008622838 0.0023348583 -0.00055062375 0.0005981974 0.004487997 0.0030040466
0.00018326592 0.0039938786 -0.00023672366 -0.0016312777 0.0012230291 0.0003775252 0.004784733 0.001232639
0.0029541245 0.0029711064 0.00041313478 -0.0012922322 0.00216323 0.0036527768 0.002708906 0.00435732
0.0034114106 -0.0030795822 0.00027751684 -0.0008985991 0.0014393 -0.0010682701 0.0021290872 0.004675401
-0.0013497366 0.002594051 0.00276415 0.0020784705 0.0035239102 0.0021178913 0.00377355 -0.00188723
0.00054931163 -0.0017109666 0.00538969 0.0019743345 0.0015018386 0.0013039864 0.0039780773 0.0022961996
-0.00045686268 0.0005052947 0.004921674 0.0035473073 0.00431006 0.0014343559 0.0011592574 0.00014680359
-0.0018945577 -0.0005420772 -0.0036959131 0.0014538498 -0.0004839132 0.0038940178 -4.259398e-05 0.00029130076
-0.0024005724 0.004272812 0.0049167923 0.0009306112 0.003224408 0.0047243573 -0.00065992505 0.0051309625
-0.00056859414 0.005574732 0.0005454775 0.00097160134 0.0023118365 0.0013190396 0.0024597521 0.0009006164
0.0015966557 0.004425045 0.0005281 -0.0013886653 -0.0019656527 -0.00075654796 0.0013592683 0.0042761224
0.0032610644 0.0035048267 0.004539201 -0.0013605299 0.0017562587 0.0034312753 -0.0015875126 -0.0011311657
7.248718e-05 0.0023314462 0.002658751 0.0015485412 -0.0019070306 -4.032158e-05 0.0037863443 0.0012322892
-0.0018786541 0.0012410085 -0.0005447896 -0.0011506504 0.0024629897 -0.0007404601 0.00377652 0.0029006118
0.0008104081 0.00018570159 0.0013999322 0.0064707305 -0.0011860135 0.0028981518 0.0034629842 0.0013180817
0.0021036395 0.003339203 0.0039413422 0.004853135 -0.00044785606 0.001608528 0.00022529723 0.0038216757
8.774566e-05 -0.0013790792 0.0037362007 0.0042228852 0.0011867364 0.002092164 0.00071689027 0.0007066612
0.0014606055 -0.0008530108 -0.0003435549 0.0040144096 0.003082009 0.0017638054 -0.0007414034 0.00014860446
0.0006823573 0.00021925157 0.0014245915 0.0015189056 2.8357817e-05 -0.00032047267 0.0013405087 0.0007220134
0.0027874678 0.003739038 -0.0005119186 0.0014478053 0.0015410773 -0.0020643177 0.0022720015 0.0021454592
0.001734573 -0.0010521221 0.0016518466 0.0031943049 0.00095883285 0.003853537 -0.0016071899 -0.0016494317
0.0036976882 -0.0001240084 0.0009500781 0.0006118055 0.0034408714 0.004352891 -0.0009257159 -0.00025417647
-0.00037166965 0.0038059708 0.0011873747 -0.0016781616 0.0012390882 -0.0008589668 -0.0024633622 0.0012562615
0.0028417283 0.00045938682 -0.0029924102 -0.00010272469 0.003173692 0.005783164 0.003238464 0.0015581065
0.0031263633 -0.00045091828 0.0025938526 -0.0020561165 0.0036866877 0.00544445 -0.00097638357 0.0030553981
0.0009732389 0.0026932636 0.0042828927 0.0032827544 -0.0008516333 0.0017053847 0.00059822085 0.006541453
0.00101828 0.0016708623 -0.00012670738 0.004171504 0.002221192 0.002826635 0.0011931806 -0.0016714537
0.0040617464 0.0010402482 0.000300742 0.0019463549 -0.0007660271 -0.0018673985 0.002556672 0.004206327
0.0010191629 0.0016149324 0.002133057 0.0022636272 0.00092271814 -0.0010791862 0.0030206207 0.001249083
0.0043476094 0.00093142706 0.0009706368 0.0036188255 0.0010258739 0.0024903875 -0.001309117 -0.001130671
