results/R7/AgentController/AgentController-499973.onnx (onnx, 657373 bytes, 14 tensors)

83 f4 [116]
00000000: 98e0 923e 3a5e 3e3e eeb5 683e 3e99 893e
00000010: 59e2 913e 05a0 3c3e b95c 673e daa5 893e
00000020: 23c2 923e d864 3e3e 9d5b 683e 5de5 893e
00000030: f908 913e da44 3d3e eb84 643e d8af 893e
00000040: 13e2 903e 940c 3e3e ee76 633e 70b2 893e
00000050: ba18 903e 519d 3c3e d274 623e 4301 8a3e
00000060: c65f 8f3e b059 3c3e 5caa 603e 23ca 893e
00000070: 2201 8f3e 5506 3e3e 5745 5e3e 2bda 893e
00000080: c6ff 8c3e b5ed 383e f1de 5c3e 24c8 893e
00000090: d130 8e3e 6453 3f3e 85e2 5a3e 5ed7 893e
000000a0: 6f7b 8b3e 573d 373e c90a 5a3e 74bc 893e
000000b0: 8ffb 8c3e 64b1 413e 1461 553e d369 893e
000000c0: 0983 893e 4632 343e 0f16 573e af87 893e
000000d0: fcf2 8b3e 3aaa 413e 214a 523e 711f 893e
000000e0: 12fd 863e 9542 323e 8cae 513e 13c8 883e
000000f0: 45db 8a3e a42a 433e 3cce 4d3e 785b 883e
00000100: 8ed0 853e aea5 343e 916c 4c3e f28f 873e
00000110: 48f5 8a3e c501 463e b468 4b3e a581 873e
00000120: 626d 863e ede9 383e 1666 4a3e 9c5c 863e
00000130: 6966 8b3e 0460 4b3e f265 473e 1a6c 863e
00000140: db07 883e 608a 3e3e 13e1 493e 5246 853e
00000150: 5300 8d3e 5bcb 523e 7b94 443e 7518 853e
00000160: 79ec 8a3e c32c 463e 672a 4b3e 828a 843e
00000170: c14f 8d3e dfd1 553e b23a 423e 6d39 843e
00000180: afe0 8b3e fb07 4b3e a339 493e e7a1 833e
00000190: 76b0 8e3e 12aa 593e 9559 423e 4b78 833e
000001a0: 4acd 8c3e 78ee 503e 6af6 453e 0030 833e
000001b0: 2d1c 8e3e 4c55 563e 9138 443e 1c19 833e
000001c0: 2d1c 8e3e 4c55 563e 9138 443e 1c19 833e
0.28686976 0.18590632 0.2272565 0.26874727 0.28493002 0.18420418 0.22593965 0.26884347
0.2866374 0.18593156 0.22691198 0.26932803 0.28327158 0.18483296 0.22316329 0.2689197
0.2829748 0.18559486 0.22213337 0.2689395 0.28143865 0.18419386 0.22114876 0.26954088
0.28002757 0.18393588 0.21939987 0.2691203 0.27930552 0.18557103 0.21706139 0.2692426
0.2753889 0.18059428 0.2156942 0.26910508 0.2777162 0.18684155 0.21375473 0.26922125
0.2724261 0.17894493 0.21293177 0.2690159 0.27535674 0.18915325 0.20837814 0.2683855
0.26857784 0.17597303 0.21004508 0.2686133 0.2733382 0.18912593 0.2053609 0.267818
0.26364952 0.17408212 0.2047674 0.26715145 0.27120414 0.19059235 0.20098203 0.26632285
0.26135677 0.17641327 0.1996329 0.2647701 0.2714026 0.19336613 0.1986416 0.26466098
0.26255327 0.18057986 0.19765505 0.2624253 0.2722657 0.19860846 0.19472483 0.2625435
0.26568493 0.18607473 0.19714765 0.26030213 0.2753931 0.20585386 0.19197266 0.25995222
0.2713354 0.19353013 0.19840394 0.25886923 0.2759991 0.2088084 0.18967703 0.25825062
0.27319857 0.19827263 0.19650893 0.2570946 0.27869004 0.21256283 0.18979485 0.25677714
0.27500373 0.20403469 0.19332281 0.2562256 0.2775587 0.20930976 0.19162203 0.25605094
0.2775587 0.20930976 0.19162203 0.25605094

86 f4 [3]
00000000: 78c5 c040 0bd2 c13b fa6f 0e41
6.024105 0.0059149317 8.902338

action_model._continuous_distribution.log_sigma f4 [1, 2]
00000000: b493 103c 6d67 9d3a
0.008824278 0.0012008973

action_model._continuous_distribution.mu.bias f4 [2]
00000000: ac64 e0ba b732 0cba
-0.0017119846 -0.0005348133

action_model._continuous_distribution.mu.weight f4 [2, 256]
00000000: ccac 4d3c 4848 133c bddf 06bc 7174 1abb
00000010: 4917 a1ba ef7b 66bb 0346 29bc 46b8 96bc
00000020: 06d9 0bbc 5cd0 41ba 56c2 d53c 936f 20bc
00000030: 48b7 8d39 878b 6e3c 3891 953b a700 30bc
00000040: df07 883c bfdf a1bc 1dfc 56bc 5364 f1bc
00000050: 62fe f9bb aaf2 e6ba a3ae 09bc 36bc c53c
00000060: 4568 c43c fa9e 433b 0fcc faba 76c9 d3bc
00000070: 373c 7539 3f46 0d3c f891 e1b8 0222 043c
00000080: ec1c 963c 2736 b83b a346 adbc 8fda 95bc
00000090: 5ecb ca3b 5c2f 7a3b c8e1 59bc 7d2e 5cbc
000000a0: f3a6 81bc bfec a13c ce0b c438 4b4c 783b
000000b0: 3f14 823c 7e18 5dbc 3b5c e0bc f1d9 dabc
000000c0: 15e9 343c aa28 31bc f03c d03b e535 d0bb
000000d0: 1aff 6ebc 6e02 3bbb c4d4 bd3b 358b aabb
000000e0: bc07 6c3c 0165 f83c 74df 82bb fdf6 03bd
000000f0: 7d44 ce38 214f b4bc cea9 18bc 1794 303c
00000100: e22d 703b 8505 fc3b e423 4e3c b894 a43b
00000110: a61c 30bc 0c78 af3c d9ed 28bb 067a 6ebc
00000120: f133 46bc 0d6b d1ba f9ac d1bb f57d 1d3c
00000130: 14fc 9bbc ab7b ec3c 994a 5c3c 9748 e73c
00000140: eb98 823c 2e47 30bc e451 f73b 6e0f 51bc
00000150: 7039 d7bc 5941 0f3d 9726 93bc 601c 02bb
00000160: c278 68bc 88ef 5f3a 6d7f 823c 09aa 25bc
00000170: 103f a138 762b 023c 81d7 7e3b 5939 66bc
00000180: 52cd 9c3c bc08 0abd 9246 a2bb f0ea fc3b
00000190: bdbb 23bc d657 4bbb 6ead 863c 28b1 e53b
000001a0: ab2c 3bbc e238 eb3c 3a6a 86bc bbbd 913c
000001b0: 0487 ffbb 9e24 63bc 2b23 2a3b 1e3c 793c
000001c0: ad3e b6ba 7d6a 8dbc 725f e83b 603b 28bc
000001d0: 5e70 2cbb 79a2 2abc 8d77 c2bc ed0d 18bc
000001e0: 3236 53bc 0cea c43b 8bd6 a93c d61c d93c
000001f0: bcd4 4cbc 1ecc 593c 03e6 4bbd 7f2a 1cbc
00000200: b50f 393c 4b9b 953c 233c 073d e8fd c6ba
00000210: e8e8 ff3a 533a 8dbc 8fed 953b 67d5 97bb
00000220: 9dbd 833b 949f 3c3b 4894 12bc f631 653c
00000230: 99ba 0b3c 1123 2bbb 5a04 cb3c f4f0 d7bb
00000240: 1903 c33a 6dda 523c 30c6 423c 4c86 2ebd
00000250: 87c8 0c3c bdfb c5bc 54eb cbbb da46 d43c
00000260: adae 1bbc 5687 1abb b949 833c 368b aabb
00000270: 2515 f43a 05b1 a2bb 89c8 3dbc dcf7 f0bc
00000280: 9551 29bb 1a07 dfbb 7406 3f3c 4c6f f63b
00000290: 839c acbc 44aa 1cbc 82ba 553b 7c13 abbc
000002a0: b9da 323b 05da c43b e524 663c 5297 69bc
000002b0: 7bb6 04bc ea61 19bb c56a 89bc edb9 063c
000002c0: da88 763c 8597 983b 7fb1 82bc 203b 2c3b
000002d0: a4c4 a2bb b02b 5dbc 0d78 d7bb 2b6c 933c
000002e0: cf78 7a3c b50c ae3c 367b 88bc 4ec2 943c
000002f0: 9ce4 a8bb 97c7 0b3c f4df 65bc f2b1 e13b
00000300: 4887 8abb dcb7 c03b a20f 853c 3300 93bc
00000310: d1d0 353c 8d0e a63c 82c3 053c 0ef1 af39
00000320: e30b 81bc 0c3b c03c 9091 403b fa55 8b3c
00000330: 5000 dcbb f300 29bc a5d2 873c d3b2 d43b
00000340: a232 a9bb 9805 eebb 95d9 2cbc 0935 be3c
00000350: c876 81bc ff5a ae3c bf14 d33c dbb6 713c
00000360: af9f 9439 4f0b 96bb da7c 0bbc 410c f2bb
00000370: 837c 1a3d e524 813c ff00 e63b ed23 5bb9
00000380: 462e b03c 9307 92bc 96c9 123c 5bf7 9fbb
00000390: b0b5 ff3c 3785 8dba c012 fe3b 96e1 96bb
000003a0: 08e9 a0bb 7a68 4cbc 1b8a 05bc 23e7 1d3c
000003b0: 94e8 dbba b02b 86bc 1cd5 2a3c 7769 143c
000003c0: 0f79 5a3c cac8 1cbb 0f26 0e3d 49e5 063c
000003d0: e5a6 923c 5b7a 73bc 12db 8bbc 3af6 4a3b
000003e0: 8822 f0bb 6645 6bbb dccb 69bc 2011 913c
000003f0: 7acf fb3c 6904 363c 171b 0e3c b676 dabb
0.012553405 0.008989401 -0.008232054 -0.002356794 -0.0012290265 -0.0035169085 -0.0103316335 -0.018398415
-0.008535629 -0.00073934137 0.026093643 -0.009792226 0.0002703017 0.014559633 0.0045644306 -0.010742343
0.016605316 -0.01976001 -0.013121632 -0.029466784 -0.0076292017 -0.0017619927 -0.008403453 0.024137598
0.0239755 0.0029849396 -0.00191343 -0.0258529 0.00023387453 0.008622705 -0.00010756025 0.008064749
0.018324338 0.00562169 -0.021151846 -0.018292693 0.006188794 0.00381752 -0.013298459 -0.013438818
-0.015826678 0.01976621 9.348207e-05 0.003788727 0.015878795 -0.013494609 -0.027387729 -0.02671525
0.011041899 -0.010812918 0.0063549206 -0.006354081 -0.014587188 -0.0028535384 0.005793186 -0.005204583
0.014406141 0.0303216 -0.003993923 -0.03221797 9.8356024e-05 -0.022010388 -0.009317828 0.010777495
0.0036648442 0.0076910877 0.012581799 0.0050226115 -0.010749018 0.021419547 -0.0025776534 -0.01455546
-0.012097345 -0.0015977338 -0.006398794 0.00961255 -0.019041099 0.028867563 0.01344552 0.028232856
0.015942058 -0.010759158 0.007547604 -0.012760026 -0.026272506 0.03497443 -0.017962737 -0.0019853339
-0.014188947 0.0008542468 0.015929902 -0.01011134 7.6888246e-05 0.007944932 0.0038885775 -0.014051759
0.019140873 -0.033699736 -0.0049522603 0.0077184364 -0.009993491 -0.0031027696 0.01644012 0.007009644
-0.011424224 0.028713647 -0.016408075 0.017790666 -0.0077980775 -0.013863711 0.0025960903 0.015212087
-0.0013904177 -0.017262692 0.007091456 -0.010268062 -0.0026312093 -0.010414713 -0.023738647 -0.009280664
-0.012891339 0.006009346 0.020732185 0.026503008 -0.012501892 0.013293294 -0.049779903 -0.009531616
0.011295249 0.018262526 0.033016335 -0.0015181871 0.0019524368 -0.017239725 0.0045754383 -0.004633594
0.0040204064 0.002878164 -0.008946486 0.013988962 0.008528375 -0.002611343 0.024782348 -0.006590003
0.0014878243 0.01286946 0.011888072 -0.042608544 0.008592731 -0.02416789 -0.0062231217 0.02591269
-0.009502095 -0.0023579202 0.016026365 -0.0052045835 0.0018622024 -0.00496495 -0.011583456 -0.029415064
-0.002583598 -0.0068062665 0.011659253 0.007520592 -0.021070724 -0.009562079 0.0032612388 -0.020883314
0.0027291013 0.0060074353 0.014046882 -0.014257269 -0.008100147 -0.0023404309 -0.016774544 0.008223039
0.015047276 0.0046567344 -0.015953777 0.0026280358 -0.004967289 -0.013499185 -0.0065755905 0.017995914
0.015287592 0.021246294 -0.016660314 0.018159058 -0.0051542055 0.008531473 -0.014030445 0.006887668
-0.0042275526 0.0058812927 0.016242806 -0.017944431 0.011097149 0.02027061 0.0081642885 0.000335582
-0.015752738 0.023465656 0.0029383637 0.01700877 -0.0067139044 -0.010315168 0.016579935 0.006491044
-0.0051635066 -0.0072638504 -0.0105499225 0.023218649 -0.01580371 0.021283625 0.025766728 0.014753069
0.00028347733 -0.004578985 -0.008513654 -0.0073867147 0.0377164 0.015764663 0.0070191617 -0.00020898851
0.02150644 -0.017825877 0.008959195 -0.004881782 0.031214565 -0.0010797147 0.0077537 -0.0046045287
-0.004910592 -0.012476081 -0.008150603 0.009637627 -0.0016777688 -0.016378254 0.010426786 0.009058348
0.013334527 -0.002392339 0.034704264 0.008233377 0.017901847 -0.014860715 -0.017072234 0.0030969516
-0.007328335 -0.003589952 -0.014269795 0.017708361 0.030738581 0.01110945 0.008673451 -0.0066669835

action_model._discrete_distribution.branches.0.weight f4 [1, 256]
00000000: f912 163b f63f 113c fa40 5bbc 4cec 3bb9
00000010: 17a1 013c 6f23 76bb 1f8e 2f3c f3e4 58bb
00000020: bdb9 f63b 765d b8bb 3361 6b3c ca17 ecbb
00000030: 4340 153c d3f0 07ba 3161 22bb 5344 29bc
00000040: 135f 723b 05ed 6cba 8253 bc3a 8c11 2dba
00000050: f04a feba 17bd 57bb f7a2 25bb c10a 073c
00000060: 636d 443b 55c0 103b c94e 82bc 3fdb ed3a
00000070: 83f6 ae3b 8869 0cbb a53e d3b9 4697 15bb
00000080: b2f5 413c 6ff0 a93a e504 553b 8ff3 1cbb
00000090: 238e e5bb 3899 51bb 7802 873a 9d41 2e3b
000000a0: 6921 bfbb bf2f 473b 22ee 253a 3809 f6ba
000000b0: 70b9 6d3c 71f0 9f3b 3de7 533c ab34 91b9
000000c0: 3b06 52ba 266c 8d3b d328 0ebb 5e78 bc3b
000000d0: ef92 053c 3b56 a73a f857 39bb 5d69 583b
000000e0: 7bdc 34bb c8f4 0d3b b7be 9c3a a3ee 253b
000000f0: 204b 7739 b4ff 923b ffcd b73b 5374 bcbb
00000100: 1b4d ca3a 3852 59bb 5813 6e3b cb74 9c3b
00000110: 5518 9eba afbf 1a3c 2fd3 8ebb 57e3 b33b
00000120: b751 f53b 8c43 a0ba 0380 0dbb d06a db3b
00000130: cabc 6ebb 2bc5 673b afc4 f2bb d7e8 af3a
00000140: c306 1a3b 9e56 01bc 538f 0db9 19e2 42bb
00000150: ea71 cfbb eb16 8f3a e8d3 60bb 773d 8cb9
00000160: 3398 96ba 2365 1739 3bf2 ce3a 6001 79ba
00000170: ee4a 0dbc 0a26 9dbb c0a6 90bb b7a6 8a3b
00000180: 9f40 67bc c307 b2b9 3862 233b f2f3 0a3a
00000190: a730 25bb 6fb3 063c 77e7 cb3b 014f 2abb
000001a0: 8547 82ba cb0c c439 3909 01bc 9504 d0ba
000001b0: cbbb cebb 1433 b7bb 9ea1 34ba d774 8a3a
000001c0: dbd1 3ebc af3e d9bb 785e cfbb 4f1d f93b
000001d0: 46e3 9dbb 6317 fcba ca52 cdba c00b 7dbb
000001e0: 62e4 1fbb 3dae d6bb 8ad5 b6bb b58b 873b
000001f0: 2bc2 6e3b 982c 563a 1528 8d3b e43f 123b
00000200: f727 323a cc16 0d3b 3a7d 0c3a ca72 1dbc
00000210: df78 b3bb 58f3 36bc 2bb2 7ebc 0709 0e3c
00000220: e737 08bc 4386 433a 0a20 11bb c898 7cb9
00000230: e4da 13bc 3fb6 77bb 61b4 483b dafe 1fbc
00000240: e36e 853b 5a9f f8bb cc2b 0b3c 236a 9e39
00000250: 8a47 4c3c a1c9 81bb 2a35 773b 78de 6abb
00000260: 2712 523c 8f8f c13b 0029 1cbb 4bde 03bc
00000270: c3a5 5dbb 3f97 2bbb ade8 39bb 839c 86bb
00000280: 4725 963b 45f8 533b 672a 29bb b93f 2d3c
00000290: 959c 0fbb 00a7 573b e4fa 8f3b 5a61 d9bb
000002a0: 51a9 94bb 9f04 bf3b 3701 ffba 3331 f238
000002b0: 15ba 65bb cfc4 c5bb acd1 94ba fbf1 d1bb
000002c0: 8f7a 2a3b 88dc 55bb 2dac d73b 72dd ffbb
000002d0: f8fd 0a3c 053f 413c f032 ea3b 450a afbb
000002e0: 88db 0cbc 5b9d 993b 523e caba d79e 0c3a
000002f0: 5bd6 b3bb 3f2c 0a3c 428d 97bb cb31 1a3b
00000300: 02fd 5e3a 9fc6 16ba 4f76 143b f6cd b33b
00000310: 4233 6dba 7805 ad3a 79f1 903b 973d 4dbc
00000320: 57a4 57bb 5f1f bfbb fb7b f43a 67cc a339
00000330: 05dd 83bb 0007 6b3b c820 0abc 670c 413c
00000340: 3232 7cba 8bd5 15ba cc98 873b 5f64 6f3b
00000350: dfa1 283b 1b53 1a3c ea84 babb 32ff 88b9
00000360: d2f6 c73b 6169 36bb a3b9 d8bb adde cf3b
00000370: 8be7 413b 4830 613c 5bc8 90ba 4fea 1cbb
00000380: 538f 49bc a350 e93b ef21 ed39 ec4e 473b
00000390: eb5a 8db9 57f3 b1bb 22dd c83b 54d6 ca3b
000003a0: d883 66ba 260f c0bb c742 813b c6f8 3bbc
000003b0: 34fe 22bc 47b0 06bc 29f5 09bc 50b5 243b
000003c0: 0583 ebba f72a f83b 2616 0a3a ee55 953b
000003d0: 8bd5 8eba 6fae 4bbc 8e55 0abc bbb5 e33a
000003e0: 487f a2bb 9df2 503c 3a64 393b 5361 023b
000003f0: 217d c6bb bc56 a9bb 228d 843c 75f4 ceba
0.0022899492 0.008865347 -0.013382191 -0.00017921737 0.007911942 -0.003755774 0.010715037 -0.0033095449
0.007529466 -0.005626376 0.014366436 -0.0072049843 0.0091095595 -0.0005185727 -0.002477717 -0.010331231
0.0036982938 -0.0009038004 0.0014368149 -0.0006602041 -0.0019400995 -0.0032919103 -0.0025274137 0.00824231
0.0029972426 0.0022087295 -0.015906708 0.0018147005 0.005339445 -0.0021425206 -0.0004029173 -0.0022825762
0.0118383635 0.0012965332 0.0032504138 -0.0023948883 -0.0070054694 -0.0031982195 0.0010300418 0.0026589402
-0.00583284 0.003039345 0.0006329735 -0.0018771058 0.014509544 0.004880958 0.0129335495 -0.00027695796
-0.00080117927 0.004315871 -0.0021691814 0.0057516536 0.0081527075 0.0012766788 -0.0028281193 0.0033021786
-0.0027597237 0.0021660794 0.0011958693 0.002531924 0.00023583742 0.0044860486 0.0056092734 -0.0057511716
0.0015434356 -0.0033160578 0.0036327448 0.004774665 -0.0012061695 0.009445115 -0.004358671 0.0054897475
0.007486548 -0.0012227162 -0.0021591194 0.0066960827 -0.0036428445 0.0035365324 -0.0074087004 0.0013420832
0.0023502565 -0.007894186 -0.000135002 -0.0029736815 -0.0063307183 0.0010916864 -0.0034305993 -0.00026748676
-0.0011489451 0.00014438159 0.0015788743 -0.0009498801 -0.008623822 -0.0047957944 -0.0044144094 0.0042312997
-0.014114528 -0.0003395659 0.002493037 0.0005300633 -0.0025206 0.008221491 0.006222661 -0.0025987031
-0.0009939527 0.00037393565 -0.007875734 -0.0015870506 -0.0063090078 -0.005590806 -0.0006890538 0.0010563385
-0.011646713 -0.006629787 -0.0063284 0.007602371 -0.004818353 -0.0019233044 -0.0015664932 -0.003861174
-0.0024397601 -0.0065515325 -0.005579655 0.0041365274 0.003643165 0.0008170097 0.0043077567 0.0022315914
0.00067961164 0.002152848 0.00053592364 -0.009609887 -0.0054770554 -0.011166416 -0.015545408 0.0086691445
-0.008314109 0.0007458666 -0.002214434 -0.00024089508 -0.009024356 -0.0037797836 0.0030625092 -0.009765351
0.0040720566 -0.0075873556 0.008494329 0.00030215186 0.012468228 -0.0039608036 0.0037720897 -0.0035838168
0.012821711 0.005907006 -0.002382815 -0.008048604 -0.0033820726 -0.002618268 -0.0028367445 -0.004108013
0.0045820805 0.0032344025 -0.0025812627 0.010574275 -0.0021913399 0.0032905936 0.004393922 -0.0066339197
-0.0045367857 0.0058294083 -0.0019455318 0.00011548623 -0.003505354 -0.0060354243 -0.0011353991 -0.00640702
0.0026012992 -0.0032632668 0.0065818042 -0.0078083808 0.008483402 0.01179481 0.0071471855 -0.0053418004
-0.008597262 0.0046879477 -0.001542995 0.0005364245 -0.0054881996 0.008433401 -0.0046249935 0.0023528214
0.0008506329 -0.0005751643 0.0022653525 0.005487199 -0.00090484705 0.0013200482 0.004423317 -0.012526891
-0.003290435 -0.005832597 0.0018652672 0.00031242074 -0.0040241503 0.0035862327 -0.008430667 0.011782742
-0.0009620517 -0.00057157193 0.004138088 0.0036528332 0.0025731248 0.009419228 -0.005692114 -0.00026130077
0.0061024213 -0.0027833807 -0.0066139265 0.0063436837 0.0029587473 0.013744421 -0.0011046039 -0.002394337
-0.012302238 0.0071202083 0.00045229445 0.0030412031 -0.00026961355 -0.0054306197 0.0061298767 0.0061901007
-0.000879345 -0.005861181 0.003944728 -0.011472886 -0.009948302 -0.008220739 -0.008420267 0.0025132485
-0.0017968124 0.007573481 0.00052675826 0.0045573628 -0.0010897381 -0.012431725 -0.008443249 0.0017372885
-0.0049590208 0.012753156 0.00282885 0.0019894436 -0.006057397 -0.0051678102 0.016180579 -0.0015789407

network_body._body_endoder.seq_layers.0.bias f4 [256]
00000000: 791a 293c 3e5e 06ba 86fb 8b3b 518d 4ebb
00000010: 14ea d73b b75b 953b a3a6 99ba ec01 ac3b
00000020: 397c bfbb 183a 4d3b eadf ab3b ddd4 fdbb
00000030: 5181 293c b5cd 953b b020 803b 9043 5e3c
00000040: 060a e6ba ba31 5d3b 5889 a53b f847 9d3b
00000050: 9c19 deba 38f7 2c3b e1c2 bd3b 5b76 3d3c
00000060: c51d 863b 962b 7739 0884 f23b 7412 c53b
00000070: d39b bfba ff97 e2ba 05d3 e03b 763f df3b
00000080: a5df b33b 0523 033c 88f8 b83b 5d2a 593a
00000090: 81da 2fbb a62d 13bb cb89 933a 9251 87bb
000000a0: 6cd8 d9ba 273e ffbb bb88 51ba 5a1e 573b
000000b0: 6a01 c03b 4ab4 393b 15fd cb3b db24 1c3b
000000c0: 8c30 00b8 af7c e03a b2a7 053c 3f8e 8a3b
000000d0: b9fd 013c b1a1 90bb 5b9d 6e3c 0316 873a
000000e0: cf33 7b3b ba7f 1d3c 3854 b83b 54ec 693b
000000f0: ea6a 9739 f026 11bb 8027 58bc 28bb 183c
00000100: 4cac d3ba 9b40 0939 8e6c 16ba e07c 713b
00000110: 85f7 cd3a 6218 dc3b b2b2 ca3a 84b5 0fbc
00000120: 1137 5dba 4ed6 f63b a20b 99bb 6bc7 463b
00000130: e78d da3b 1544 943b 65df 5b3b a67d fd3a
00000140: 72f7 353c 5399 ec3b beda 2c38 959c 993a
00000150: 602b 1eba 58b3 163c 29b5 123a 2267 343b
00000160: baf2 503b aea6 3dbb 69ee bfbb 8f64 cc3a
00000170: a5b3 903b 5203 643c acde 723b 4fe8 e5b9
00000180: 7f0a 1cb9 34bb 0fbb 049d 913a 4648 f03a
00000190: 6d0d 4bba 5d93 733a 41c2 a33b f0d5 ac3b
000001a0: 957f 4fba 4fdd 08bc 26a3 f83b 9833 e93a
000001b0: ac0c f2ba f6c9 8e3b 2970 98bb 8b91 823a
000001c0: fb4f a53b 3443 31bb 51a9 f2ba f190 8a3b
000001d0: 58ee 993b cf50 483b 9b61 e93b d18c 293a
000001e0: 7f13 53bb 31fa b1ba 1803 2a3b d008 133c
000001f0: 6683 2a3c 6bd6 af3b 6b75 013c 8505 103c
00000200: bb42 093c 55fe 22ba b3ed 253b c9b6 06b9
00000210: bc2d d63b 492c 323c b297 da3b 3d77 f33b
00000220: 3db3 673b d35b f4bb 481d 91bb f4bb 1aba
00000230: 7ad6 2cbb d030 eb39 5afc 463a 5d4e 013b
00000240: e2cf e0bb 8f4a 63b9 1494 713b e113 d639
00000250: acad 503b 281f 91bb 3814 d73a 7cd5 3a3a
00000260: 442d 813a 0e9f ce3a 7c7c 003c 3681 163c
00000270: c44e c93a bc1b 1e3b f035 3d3c e5be e3ba
00000280: 36d8 93bb 84eb 4b3b 12f3 d8bb 49da e33b
00000290: 9aaa 5e3b 08aa 1fbb c28e ac3b b31f acba
000002a0: ce03 f0b9 4bb8 cc3b 2988 393c aa3c 5cb8
000002b0: 5d00 f8ba 870a a939 af75 ad3a 6f83 9b3a
000002c0: 95e4 393c 1fe4 d33b f366 ef39 118c a33b
000002d0: 162d 073c c2e5 743b 8732 123c 4dc0 a5bb
000002e0: dd9c 213c 3621 a2bb 4e9d da3b 1a6d f23b
000002f0: eb17 2c3b 694a 123c 4d05 923b fb6b e7ba
00000300: 8cff 5eba 0431 a5ba 8f8f 923b 6f8f 013b
00000310: 8163 ba3b cf8e fc3b d333 1b3c ee53 e4ba
00000320: 9e25 873b 09c4 cd3a f6fc a2ba bbbc b3ba
00000330: 211d 713b 1224 11bb b913 66bb 8ea5 bb3a
00000340: 9224 2e3b 55b0 4c3a 10cd f73a 4d30 233b
00000350: 67fc e53a 3249 843b bf37 733b 4097 5fbb
00000360: 4051 34bb bbf8 1bba 74c1 803b 011f b9b9
00000370: e8c4 173c 7057 613b b02e 1bbb d635 37bb
00000380: 6b1f 51bb c5fa 043c 1b32 583b 9c13 b6bb
00000390: 61b6 043b 084d 113b 2901 45bb 9057 323b
000003a0: df68 4cba 8bac 803a 68b9 063c 5f20 523a
000003b0: 1603 513b 0554 833a f548 323c 5371 a438
000003c0: bae8 453b 3da6 f23a 85c5 aa3b 9ea4 053c
000003d0: 4953 073c b466 253b a5af d33b 4744 ab3b
000003e0: 057f 123b 942a c03b 4f74 39ba b876 c739
000003f0: 048e 153c 0b2b ab3b 456a bd3b 86b3 d33b
0.010321253 -0.00051257375 0.0042719273 -0.0031517337 0.0065891836 0.0045580524 -0.0011722635 0.0052492525
-0.005843666 0.0031315144 0.0052451985 -0.0077463225 0.010345773 0.0045716413 0.0039101467 0.013565913
-0.0017550595 0.0033751563 0.005051773 0.004799839 -0.0016944888 0.002639247 0.0057910536 0.011563863
0.0040929043 0.00023571993 0.0074009933 0.0060141627 -0.0014618583 -0.001728773 0.006861093 0.006812985
0.005489307 0.008003955 0.0056448616 0.00082842057 -0.002683312 -0.0022457629 0.0011256275 -0.004129597
-0.0016620285 -0.0077893916 -0.0007993092 0.0032824487 0.0058595436 0.002833622 0.006225238 0.0023825679
-3.056279e-05 0.0017127002 0.008157657 0.004228383 0.007934027 -0.0044138064 0.014563884 0.0010306243
0.003833044 0.009612972 0.005625274 0.003569384 0.00028880622 -0.0022148453 -0.013193011 0.009321965
-0.0016149371 0.00013089406 -0.0005738222 0.0036848113 0.0015714025 0.006716774 0.0015464632 -0.008771304
-0.00084386865 0.0075328713 -0.004670576 0.0030331265 0.006669748 0.0045247176 0.0033549902 0.0019339814
0.011106359 0.007220426 4.1211715e-05 0.0011719639 -0.0006033685 0.009198032 0.0005596453 0.0027527292
0.0031882958 -0.002893846 -0.005857278 0.0015593934 0.0044159465 0.013916807 0.0037058992 -0.00043851367
-0.0001488123 -0.002193165 0.0011109416 0.0018332086 -0.0007745836 0.0009291673 0.004997522 0.005274527
-0.00079154345 -0.008353545 0.007587808 0.0017791865 -0.0018466911 0.0043575717 -0.0046520424 0.0009961588
0.005044935 -0.0027048113 -0.0018513595 0.004228704 0.0046976022 0.0030565744 0.007122231 0.00064678217
-0.0032207665 -0.0013578591 0.0025941785 0.008974269 0.010407304 0.005366137 0.00790153 0.008790378
0.008377726 -0.0006217708 0.0025318682 -0.00012847329 0.0065362137 0.010874816 0.0066709155 0.007429986
0.0035354637 -0.0074572354 -0.0044285394 -0.0005902641 -0.0026372955 0.0004485906 0.0007590704 0.0019730546
-0.006860719 -0.00021676182 0.0036861943 0.00040832072 0.0031841798 -0.004428763 0.0016409224 0.00071271486
0.0009855409 0.0015763955 0.007842179 0.00918608 0.0015358557 0.0024125418 0.011548504 -0.0017375617
-0.0045118583 0.003111572 -0.006620773 0.006953512 0.0033976198 -0.002436282 0.0052660415 -0.0013132006
-0.00045779202 0.0062475554 0.011323967 -5.2508585e-05 -0.0018921007 0.00032242035 0.0013233925 0.0011864732
0.011346002 0.006466403 0.00045662335 0.0049910625 0.008250495 0.0037368392 0.0089231795 -0.0050583244
0.009864059 -0.0049478067 0.006671584 0.00739826 0.0026259373 0.008928874 0.0044561983 -0.0017656082
-0.00085067074 -0.0012603109 0.00447268 0.001976933 0.0056881313 0.007707454 0.009472805 -0.0017420033
0.0041243574 0.0015698682 -0.0012435007 -0.0013712862 0.0036791044 -0.0022146744 -0.003510697 0.0014316307
0.002657209 0.0007808258 0.0018905718 0.0024900616 0.0017546535 0.004037046 0.0037112085 -0.0034117252
-0.002751425 -0.00059498445 0.0039293114 -0.0003530905 0.009263255 0.0034384392 -0.002367895 -0.0027955673
-0.0031909596 0.008116429 0.003298885 -0.005556537 0.0020250308 0.0022171158 -0.0030060506 0.0027212836
-0.00077976094 0.0009817047 0.008222915 0.0008015688 0.0031892709 0.0010019547 0.010881652 7.841238e-05
0.003019853 0.0018512678 0.0052115344 0.008156924 0.008259603 0.0025238218 0.0064601474 0.005226645
0.0022353542 0.0058644507 -0.0007074521 0.0003804469 0.009128097 0.005223637 0.0057804906 0.00646061

network_body._body_endoder.seq_layers.0.weight f4 [256, 119]
00000000: 2cd9 133d e466 b3bd b112 09be 64c8 27bd
00000010: fc27 b5bd 604e 503d cd07 17bc 181b 15bd
00000020: 1811 68be de7f 2f3c ab2e d3bc 1f17 10bd
00000030: 384d 22bd 3d3c 393c 3c52 24be 5f29 eb3d
00000040: 0d0e 003d 0d63 0e3c cda7 2a3e 8bbd 88bd
00000050: 4e11 8b3c 14c7 14be 290e 5c3d cc03 673e
00000060: d60a ccbd e56b a13d 7375 8f3d 24f4 eabd
00000070: 7a6f 1abe 3807 13be 1115 19bd 6d89 45bd
00000080: 53b6 1fbe 9809 373e b444 653c 15eb 8e3d
00000090: 20de 513c 2e13 e7bb c687 a9bd e4e1 19bd
000000a0: cf31 353d 5a6d ecbc 61e2 2d3d ec11 7e3d
000000b0: 1234 7dbd 8581 6fbc fcde b0bb 7f02 a23d
000000c0: 0610 c43d 7c68 f13d eb17 76bb 4db5 febd
000000d0: 4faa 883d 692e b5bd bb16 b13d c14a 173e
000000e0: 33e2 18bc 3268 e33d d4bc 11bd e7ca a33d
000000f0: 6316 bebd ffd3 31be 42c6 24bd d4ae 84bd
00000100: 7937 f3bc fcc1 b43c ae89 9f3d db62 ffbd
00000110: c697 b8bb 9327 54bc 815f 8bbd f606 bf3d
00000120: 5ddc 9dbd 123f 0abd b289 3f3d 1f07 203e
00000130: 40e1 1ebc 23fd 5e3d 0f21 1a3e 0869 34bd
00000140: 2310 04bd f5b1 f03d f397 3c3c 8de4 ce3c
00000150: 18b2 8b3d 88d0 943d 947a dc3c b7f4 243d
00000160: 7e31 3cbe 6aa4 20bd 8662 7e3d 4a5c 703d
00000170: eda9 843d 23e2 723d a539 9cbd 32fd 9e3d
00000180: 9e06 333d ae31 723d 441a db3d e820 573d
00000190: 1c5f 45bd 6571 363e df40 d03c 1575 103e
000001a0: 8fc4 a43c c876 d5bc 69dd 223d a616 483e
000001b0: cbd3 48bd 6ff2 82bd d6aa 013e 3b68 0cbe
000001c0: a687 c8bc 848c 49bd b8b9 a6bc febd 7bbd
000001d0: 9fa7 94bd 33df 3ebd 0f37 6c3e 8265 3fbd
000001e0: 1cc5 ea3d 9c12 cdbc 2bf6 923d c84b b63d
000001f0: 50eb 073d cc2e 85bd 10bf 823d feb5 c1bd
00000200: a93b c1bd 2e2e 953c b1c1 a3bd b32d e6bd
00000210: 1e16 393e 71b2 0bbe e272 dd3c 3335 e1bd
00000220: 5fe7 f93c 1318 04be b8b8 db3c 6c28 a7bd
00000230: de6c 983d 2194 1e3c 55e3 c43d 1a38 50be
00000240: c74f 5ebd c22c f53c a923 b2bd bad1 073d
00000250: 7611 3f3d e9f0 ebbd 04f6 0d3d 6908 ec3c
00000260: 8a24 573b c246 2ebe 67da bd3b 3938 113d
00000270: 6d87 663d 1f64 fdbc a8d2 afbd 2373 7bbd
00000280: eacb 2cbd 6bcb 493d ed9b bb3d 7d3e de3d
00000290: 1027 bab9 f8f4 553d f510 4a3e ebb0 003b
000002a0: b0c1 213d b9c7 303c aae2 c63c 30ce a53d
000002b0: 28eb 213c 28d3 583d c964 963d fb8d 933d
000002c0: fb34 acbb 1d97 85bd 0be1 c6bd 023b 20bc
000002d0: dd9f 7e3c e30d ed3d 0e11 d5bc e9e7 003e
000002e0: 9b86 d03c d830 183e 20e8 24bd 0110 343c
000002f0: 86b1 06be beb5 a93d 57ee 2cbd ece0 87bd
00000300: 4c6f 3e3b 2716 423e 86fe 0fbd 7f26 e53d
00000310: 2323 92bc 67ca 223c 710f 54bb 0d15 803b
00000320: 8a85 0bbd 20ce 7dbd ff96 54bd 55ca 90bc
00000330: 54eb 11bd aa31 f73c 91f2 d5bd 5e41 dd3d
00000340: 793c acbc 393f ccbd be2f 4abd dfa9 0ebe
00000350: 56c8 7c3c 8b97 46bd 802b fbbd fe1c 67bd
00000360: 9096 bbbd 7082 483e 5db8 553d 85d3 c83c
00000370: 5b89 c7bd b405 13be 8811 113d fa04 10bd
00000380: 1f46 d43c 7669 f2bd f82d 87bd 7509 853c
00000390: 6f02 803c 28fc 3cbe 66dd ce3c eb85 243d
000003a0: 908c ab3d e06b ef3d 1d3c 11be 09a8 3f3d
000003b0: 4c0b 9cbd 5100 123e 3c66 88bc 5a2b 463d
000003c0: ad39 ed3b 4014 413b 26bd 2c3e bc57 c6bd
000003d0: b0ef 36be ea13 9bbd 63fb 893d dc0b c2bd
000003e0: 244e fdbc 79c6 2bbe 317b 03be 658c 0a3d
000003f0: b967 d4bc f37d 77bd 7090 db3d 5ae8 f3ba
0.036095783 -0.08759859 -0.13386036 -0.04096259 -0.08845517 0.050855994 -0.009218168 -0.03640279
-0.22662771 0.010711638 -0.025779089 -0.0351783 -0.039624423 0.011305866 -0.16046995 0.114825
0.0312634 0.008690608 0.16665573 -0.066767775 0.016976025 -0.14529067 0.05372444 0.22560042
-0.09963004 0.078819074 0.070048235 -0.114723474 -0.15081587 -0.14358222 -0.037373606 -0.048226763
-0.15596895 0.17874753 0.013993431 0.06978432 0.012809306 -0.007051847 -0.0827785 -0.03756894
0.044236954 -0.028860737 0.04245222 0.06202881 -0.061817236 -0.014618282 -0.0053976756 0.07910632
0.09573369 0.11787507 -0.0037550877 -0.12436924 0.06673109 -0.08846743 0.086469136 0.1477461
-0.009331274 0.11103858 -0.03558047 0.07997685 -0.09281614 -0.17366026 -0.040228136 -0.06478658
-0.029689537 0.022065155 0.07789932 -0.12470027 -0.005633327 -0.012948888 -0.06805325 0.093274996
-0.077080466 -0.033751555 0.046762176 0.15627716 -0.0096972585 0.05444063 0.15051673 -0.044045478
-0.03224195 0.117526926 0.011510837 0.025255466 0.06821078 0.07266337 0.026913919 0.04027244
-0.18378255 -0.039219297 0.062105678 0.058681764 0.06477723 0.059297692 -0.07628182 0.07763137
0.043707483 0.05912941 0.10698369 0.052521616 -0.048186406 0.17816694 0.025421558 0.14107163
0.020113258 -0.026057616 0.039761934 0.1953989 -0.049030107 -0.06393897 0.12662825 -0.13711636
-0.024478745 -0.04920627 -0.02035223 -0.061460488 -0.07258534 -0.046599578 0.23067878 -0.046727665
0.11463377 -0.025033288 0.07175859 0.08901173 0.033183396 -0.065030664 0.063840985 -0.094585404
-0.094352074 0.018210497 -0.07995928 -0.11239185 0.18074843 -0.13642289 0.02703232 -0.10996475
0.030505834 -0.12899809 0.02682148 -0.08162007 0.0744264 0.009678871 0.09613673 -0.20333901
-0.0542753 0.029928569 -0.08698208 0.033158995 0.04664751 -0.11520559 0.034658447 0.028812604
0.0032828175 -0.1701918 0.005793858 0.03545401 0.056281496 -0.03093153 -0.08585101 -0.0613891
-0.042186655 0.04926626 0.091606 0.108517624 -0.00035505788 0.052235574 0.19733031 0.0019636701
0.039491355 0.010789805 0.024278004 0.08095968 0.009882726 0.05293575 0.07343442 0.07204815
-0.005255339 -0.06522963 -0.09710892 -0.009779694 0.015541044 0.11574914 -0.026009109 0.12588467
0.02545481 0.14862382 -0.040260434 0.010990144 -0.13153657 0.08286618 -0.042219486 -0.06634697
0.0029058037 0.18953763 -0.03515484 0.11188983 -0.01783902 0.009935952 -0.0032357837 0.0039087594
-0.0340629 -0.061964154 -0.051901814 -0.017674604 -0.035624817 0.030175049 -0.104466565 0.108034834
-0.02102493 -0.09972996 -0.049361937 -0.13931988 0.015428623 -0.048484366 -0.12264156 -0.056424133
-0.09159577 0.19581008 0.052177776 0.024514923 -0.09742995 -0.14357644 0.03541711 -0.035160996
0.025912343 -0.11836521 -0.06600565 0.016239861 0.01562616 -0.18455565 0.025252055 0.040166777
0.083764195 0.116904974 -0.14183088 0.04679111 -0.07619342 0.14257933 -0.016650312 0.048381187
0.0072395415 0.0029461533 0.1686903 -0.09684703 -0.17864871 -0.07572158 0.06737401 -0.09474918
-0.03092105 -0.1677493 -0.12839963 0.033825297 -0.025928365 -0.06042285 0.10720909 -0.0018608675

network_body._body_endoder.seq_layers.2.bias f4 [256]
00000000: 6975 ed3b 0475 8d3a 1486 c93b 8e48 5c3a
00000010: 9e77 a3ba c9ac 893b 2a02 11bb 1d4d fe3a
00000020: 41c7 6e3b 9d94 693b 1e6f 1138 cc49 063b
00000030: 5cd2 ffb9 394e a73b 1503 81bb e37e f03b
00000040: c31d 253b c16c 4a3a 3f56 96bb 5aef 9f3b
00000050: 7a38 b5bb fb5d fb3b 7a4b 7fbb baab 843a
00000060: 9678 3b3a c5d1 943b 514f 32ba 3649 a639
00000070: e13a 62bb e87c 813a b1a4 1ebb c0bb 633b
00000080: 23e4 63bb 7367 0cbb a0c1 89ba a88e 483b
00000090: b881 2f3b 388c 763a 5b44 823b 7c85 1c3b
000000a0: 514b 823b 215a 9a3b d85a b138 f101 eabb
000000b0: f7c4 753a daa5 01bc 6ed6 d03b b8c0 f9ba
000000c0: 83d6 923b 1063 8f3a 2d46 54ba 136e 95ba
000000d0: 5a6a c83b a89c a33b fbba d63a a89a 0cba
000000e0: d99b 993b c806 a33b 0ed0 563b e504 2d3b
000000f0: 5c70 e03a eefb 0f3c 5259 29bb 6e53 503b
00000100: 8e63 fe3b 592f 383c e12e 873b eb51 ba3b
00000110: cdbc e13b 050b 773b 7ab8 103c 0dea cdbb
00000120: a424 0d3b 886c 6a3a 6f1a 0f3c a7d0 7c3b
00000130: 47ff 923a 5fe8 10ba 7f93 ca3a 4c8b 583b
00000140: a905 ba39 766f bf3b 1182 67bb 44be 9e3b
00000150: bf3c 85bb 151a dc3b 5151 a33b 6078 443a
00000160: 4821 5b3b 47a7 423b 9216 3cbb addc 8d3a
00000170: 8ba1 da3b 7d5c 893b 5452 923b c072 243c
00000180: 8ca1 5a3b a30a 8c3b 2863 8c3b 1b94 bb3b
00000190: 0084 36bb 4d5f ac39 7811 c23b 8699 133b
000001a0: b129 7c3b 31cd d23b 83bc 1e3b 5b8a a43b
000001b0: 5aca 133b 937b 95ba fd7f eb3b 76d6 943b
000001c0: f450 e23b afd1 b93a a25c b23b 9f58 8f3a
000001d0: 4039 7c3b 4eb6 3e3a e755 923a 4478 5d3b
000001e0: c126 a4bb 8834 9a3a e497 b93b 7c39 ee3b
000001f0: b5f3 aeba 6061 d03b 1368 d33b 3dca 043b
00000200: 4b01 0f3b bbeb 223b 6210 b13b 624e 983a
00000210: 2102 7c3a 0fa4 a5bb 4620 e83b 4bb3 6d3b
00000220: f688 d33b 255f 87ba 421e 2bbb b64a 813b
00000230: 8cb8 df3b 5cb0 b9ba e7fa a33b 9376 17bb
00000240: ff63 283b cb7b 603b fbf0 dcb9 aa2e b4bb
00000250: 6a13 a2bb 52f4 c63a 836c 10bb cafe 1c3c
00000260: 95c1 e53b 6806 00bb b998 f33b db71 433c
00000270: 676f c63b f6e4 28bb 5fd8 22bb 7d9f 7d3b
00000280: af43 013b 09ea 8d3a f7b6 933b 5395 103a
00000290: e2b1 413c 6eb9 3a3b 49ad f23b 839d 883b
000002a0: 30da 75bb 5fec 97bb cc52 f8ba 10d0 97ba
000002b0: 56b5 a83b f50e c63b 9334 fd3a b0d6 77b9
000002c0: b200 58ba 1fb9 42bb b8e5 2e3b b319 13bb
000002d0: 45fd 9a3b cc93 7a3b ff22 86ba 89e1 9b3b
000002e0: 6c13 903a 96a1 7c3b fed6 5d3b 67c5 7c3b
000002f0: 7e0d c33a 2d08 11ba c302 723b 735a 603b
00000300: 049b 203b 8b3a c83b aeef 843b 308f 2cbb
00000310: 5a45 07bc 1881 c03b edd3 933b 45dd a73b
00000320: e44d 683b 4c90 47ba a672 97ba b903 42bc
00000330: 3cc1 933b 31b8 9d3a 3c57 eabb 9719 3a3b
00000340: 4793 813b 999c d9ba 59df e43b 0eb2 c8b9
00000350: cd44 f33b 1f4d fcb9 d3bf 923b 4a2b 943b
00000360: 9838 bb3a 72f7 a0ba 5f42 563b 58dc 893b
00000370: e77f ab3a fe94 9cbb a07c 163c 1412 093c
00000380: 42cc c33b 7f04 283c 1864 983b 5942 e83a
00000390: 7ed2 9d3b a255 0bba fa60 0d3b 170c 153b
000003a0: 0e70 803a 65db 4239 5e96 ec3a b216 fa3b
000003b0: 56cf bc3b 89f4 783b 8443 5b3b e54b c13b
000003c0: 4e23 6ebb 4df0 353b d489 5e3a b785 0036
000003d0: 2f99 91bb b847 793b 915c f5ba 5e26 c83b
000003e0: 701a 8f3b 1c45 22bb e7d2 53ba dd06 e23b
000003f0: 023f b7bb fb5c e73a 19d5 f53b cdad 033c
0.0072466624 0.001079232 0.0061500166 0.00084031455 -0.0012471562 0.004201506 -0.0022126534 0.0019401644
0.0036434683 0.003564156 3.467418e-05 0.0020490764 -0.0004879412 0.0051057604 -0.003937135 0.007339345
0.0025194741 0.0007721894 -0.004587918 0.004880828 -0.005530414 0.0076711155 -0.00389549 0.0010121979
0.00071514526 0.004541608 -0.000680198 0.00031716534 -0.0034519958 0.0009879144 -0.002420705 0.003474936
-0.0034773431 -0.0021423965 -0.0010509975 0.0030602608 0.00267802 0.00094050495 0.0039754338 0.0023883274
0.0039762636 0.0047104512 8.456939e-05 -0.0071413447 0.00093753583 -0.007913077 0.0063732183 -0.0019054627
0.004481138 0.0010939557 -0.0008097615 -0.0011400603 0.0061161937 0.00499304 0.0016382629 -0.0005363622
0.004687768 0.0049751736 0.003277782 0.0026400622 0.001712333 0.008788092 -0.0025840593 0.003178801
0.0077633327 0.011241757 0.0041254614 0.005686035 0.006888962 0.0037695777 0.008833045 -0.0062840045
0.0021536732 0.0008942564 0.00873433 0.0038576515 0.0011214995 -0.000552779 0.0015455334 0.0033042012
0.00035480902 0.0058421446 -0.0035325328 0.004844459 -0.0040660794 0.0067169764 0.004984059 0.0007494744
0.0033436585 0.0029701756 -0.0028699976 0.0010823213 0.0066720895 0.0041919337 0.0044653807 0.010037124
0.003336045 0.004273729 0.0042842813 0.0057244427 -0.0027849674 0.000328774 0.0059224926 0.0022521927
0.0038476998 0.006433152 0.0024221248 0.005021376 0.002255103 -0.0011404626 0.0071868883 0.0045421673
0.006906623 0.001417687 0.0054431716 0.0010936445 0.0038486272 0.00072750903 0.0011164517 0.0033793608
-0.0050095026 0.0011764923 0.0056638587 0.0072700363 -0.0013347777 0.0063592643 0.0064516156 0.0020262145
0.002182084 0.0024859745 0.0054035643 0.001162004 0.00096133543 -0.0050549577 0.0070839254 0.0036270197
0.006455536 -0.0010328038 -0.0026110564 0.003945674 0.0068274196 -0.0014166939 0.005004275 -0.0023111447
0.0025694368 0.0034253474 -0.00042141214 -0.005498727 -0.004946162 0.0015179014 -0.0022037334 0.009582231
0.007011602 -0.0019535068 0.0074339774 0.011929001 0.0060557607 -0.0025771237 -0.0024848206 0.0038699799
0.001972418 0.0010827194 0.004507895 0.0005515415 0.011822196 0.0028491872 0.007405911 0.0041691675
-0.0037514083 -0.004636332 -0.0018945574 -0.0011582393 0.00514857 0.0060442635 0.0019318037 -0.00023635733
-0.00082398497 -0.0029712392 0.0026687216 -0.0022445738 0.004729899 0.0038235066 -0.0010233818 0.0047571105
0.0010992116 0.003854846 0.003385007 0.003856981 0.001488134 -0.00055325293 0.0036927916 0.00342336
0.002450646 0.0061104945 0.0040568924 -0.0026330464 -0.008256281 0.005874764 0.0045113475 0.005122813
0.0035446817 -0.00076127495 -0.0011554554 -0.011841708 0.0045091193 0.0012033043 -0.0071515124 0.00283966
0.0039543244 -0.0016602456 0.006984633 -0.00038279634 0.007423973 -0.00048122645 0.0044784336 0.004521762
0.0014283834 -0.0012280776 0.003269337 0.004207175 0.0013084383 -0.0047785034 0.009184986 0.008366127
0.005975277 0.010254978 0.004650604 0.0017719968 0.0048163524 -0.00053151895 0.0021572695 0.0022742802
0.000979902 0.00018583013 0.0018050184 0.0076321 0.005762021 0.0037987551 0.003345699 0.00589894
-0.0036336961 0.0027761639 0.0008489166 1.9151319e-06 -0.0044433097 0.0038037132 -0.0018719604 0.0061080894
0.0043671653 -0.002476043 -0.0008080438 0.006897791 -0.005592228 0.0017651612 0.00750221 0.008037043

network_body._body_endoder.seq_layers.2.weight f4 [256, 256]
00000000: f911 dcbc 0e2e 783c efc6 b93b b046 153d
00000010: 56c6 8e3d 0cd1 823c 677f f3bc 196e 0c3d
00000020: 3f5a 343d c867 f5bb 2873 3abd f94d 903d
00000030: 4e50 5fbd 3c65 ac3c 4a53 8ebd 7fa8 d2ba
00000040: 3f7a 08be f4e3 863c c7e8 e3bc 87a5 62bd
00000050: 42c5 883d 8dd8 05be 2c35 403d 646e 82bc
00000060: 3f3c b1bd 0372 bd3d f1e5 e7bc 2b1e 21bd
00000070: d2a5 fa3d 4004 66bd bd33 243e 39ba 143d
00000080: 0ed0 773c 5fb5 ddbd 454b f3bd a216 6c3c
00000090: a03d 4ebc 3a72 8dbb 7945 a5bd 7513 5b3d
000000a0: 4b7d f93c 24e0 c1bd f72c 5fbd 2eb6 58bd
000000b0: f054 04bd 5f0f 7f3d 3adc 86bd 8cb2 a13d
000000c0: 17f0 1abd 10ae 17bd 9d0b 30bd 79f5 8abd
000000d0: 1d76 db3d 30aa 003d ef80 7bbd 3556 afbd
000000e0: e9f3 093e 2982 ad3d 5bc3 353d 0529 c5bd
000000f0: 1e64 2a3b e542 fabc 0820 22bd 4479 733d
00000100: 2e59 50bd 5782 b4bd fc0b c1bd c0ff 01bd
00000110: 07e1 7dbd 3ccb 1b3e bbdb 2fbd 7e20 52bd
00000120: fad7 f73c f6d6 13bd a85c 0bbd ac9e 6dbc
00000130: 0a8a b8bd fb85 d6bd a49a 61bc 6094 c7bd
00000140: 323b e7bd 8724 573d 91a7 6d3d f79c 44bd
00000150: 40ee 86bd 2f7a 4cbd b876 093d 5c32 35bd
00000160: 623c 24bb 4568 3b3d 3c34 89bc 6d0c d8bd
00000170: dad3 4bbd 1146 483d 4f84 1d3c 23f1 25bd
00000180: d698 6c3c 03e1 af3a 64ce 293d 05e9 8dbd
00000190: b548 cf3d 71f9 a8bd cefa 03be e426 5e3d
000001a0: 47e5 e63c d36c 16bc b721 adbd d6c3 a2bd
000001b0: 53d1 f7bd 95ec 673d b1ca cbbd 8cdd a23a
000001c0: 2560 87bd 509f d7bd 3db4 22bd 1fb9 dd3a
000001d0: 066e 58bd 875e 833b b81e 123d 0f52 b1bd
000001e0: 5c3f 13be fe4d 683d d907 42ba bae7 37ba
000001f0: 1a66 16bd 2440 e33d 9d54 0cbd f1ef 84bd
00000200: a6f2 9dbd f52f 863c d3dc 7cbd 0603 3ebe
00000210: d4eb 273d b711 98bb 04b0 e4bc ffbe 313c
00000220: 018c cd3d 77be 65bc 3cec c6bb 7080 e9bd
00000230: 47f6 d5bd 7b95 b6bd 0b6e f33d a3c1 383d
00000240: 1c3d d6bc a75f 123b 6e09 923d b44c 12bd
00000250: 2642 efbc 803f 1ebd a14e 1c3d faa5 303d
00000260: 2643 34bd 1d9f 94bd 4abf 693d 7121 373e
00000270: ba2a 60bd a9a2 0bbd 00bb 7abc a653 17bd
00000280: 40b9 25be 6630 53bd 21e8 eabd 9690 c2bd
00000290: 9e23 c4bc e5c4 013d 9308 143c 4cfc a43d
000002a0: 7ab4 443d b357 763d 0ddc 34bd 9fa8 123d
000002b0: dfde 153d 08bf 1ebd da71 de3d db02 abbc
000002c0: 2de6 c4ba 1016 ae3d 26b6 1d3d 9ed0 1c3c
000002d0: 80f9 423d 34ed 60bd 1677 c2bd a285 e83c
000002e0: e138 803d eb2c f2bc e346 c73d 0530 dfba
000002f0: 24e7 0bbe bc63 963b 647e 90bc 1dee 733c
00000300: 9d84 7fbd 7a49 9c3d 93fc d0bd 52e6 b73a
00000310: 0907 e23d d126 363d da38 793d 66c2 b03b
00000320: d77b be3d c877 2abc 9391 f4bd ba24 15bd
00000330: d1b6 6dbd 16e4 0b3c 10c5 92bd ca85 613c
00000340: 20fe 45bd 14b6 33be 187c 0a3d 91bc 093d
00000350: 6d5c c3bd 5f75 bebd 67da 98bd b571 5cbd
00000360: 5bad 823d 9bc7 243e 96ba d33d fde8 1abd
00000370: 89b2 613d 7818 753d eb49 d83c 0627 293d
00000380: b367 b5bc 61aa 2cbd 294a 49bd a222 03bd
00000390: 0785 6fbd df4b d63d 1237 d03a 96fa 35bd
000003a0: 57fd b7bc 19b6 74bb eef4 aebd 4468 abbb
000003b0: 0db2 99bd e2af bc3c 7eab e03c 6e36 ef3d
000003c0: 4e58 8cbd c1f7 06bc ae1c 29bd 45cc b9bd
000003d0: e686 f7bc 7958 b13d 8fac 94bc a610 71bd
000003e0: 89d0 313d ea56 863c 48e7 e3bb c259 2c3e
000003f0: b603 b0bd 8561 a0bc e281 013e 290e cf3d
-0.026864039 0.015147699 0.0056694667 0.036444366 0.06971423 0.015968822 -0.029723836 0.034284685
0.044031378 -0.0074891783 -0.045519978 0.07046122 -0.054519944 0.021044366 -0.0694948 -0.0016071944
-0.13327883 0.016466118 -0.027820958 -0.05533364 0.06678249 -0.13070889 0.04692571 -0.015921779
-0.08654069 0.09250262 -0.028307887 -0.03933541 0.12238659 -0.056156397 0.16035362 0.03631041
0.015125288 -0.108256094 -0.11879591 0.014409693 -0.012587935 -0.0043165954 -0.080698915 0.053485353
0.030455252 -0.094665796 -0.05448624 -0.052908115 -0.032307565 0.06227052 -0.06584974 0.07895383
-0.037826624 -0.037031233 -0.042979825 -0.067851014 0.10715888 0.031412303 -0.061402258 -0.085613646
0.1347195 0.08472092 0.04437576 -0.096269645 0.0025999616 -0.030549476 -0.03958133 0.05944182
-0.0508663 -0.08813923 -0.09426114 -0.031738043 -0.06198218 0.15214247 -0.04293416 -0.05130052
0.030254353 -0.036093675 -0.03402391 -0.014503162 -0.09010704 -0.104747735 -0.013769779 -0.09745097
-0.112905875 0.05252507 0.058021132 -0.048001256 -0.06588411 -0.04992121 0.033560485 -0.04423748
-0.0025060405 0.045753736 -0.01674854 -0.10549245 -0.049762584 0.048894946 0.009614064 -0.04051317
0.014440736 0.0013418499 0.041456595 -0.069292106 0.1012129 -0.08250702 -0.12888643 0.054236308
0.0281855 -0.009181219 -0.08453696 -0.07947509 -0.12100472 0.056622107 -0.0995077 0.0012425645
-0.06610135 -0.10528433 -0.03972267 0.0016916132 -0.0528393 0.0040090713 0.035673827 -0.086582296
-0.14379638 0.056715004 -0.0007401682 -0.0007015426 -0.036718465 0.11096218 -0.03426038 -0.06491078
-0.07712297 0.01638029 -0.061734032 -0.18555841 0.040996388 -0.0046407836 -0.027915962 0.01084876
0.10036469 -0.014022461 -0.006070642 -0.11401451 -0.10447364 -0.0891523 0.118862234 0.04510654
-0.026152186 0.0022334845 0.07130705 -0.03571768 -0.029206347 -0.038634777 0.038160924 0.043127038
-0.04400935 -0.07256911 0.057067193 0.1788385 -0.054728247 -0.03409067 -0.015303373 -0.036945008
-0.16183949 -0.05155983 -0.11470056 -0.09500234 -0.023942765 0.031681914 0.009035247 0.08055934
0.04802368 0.06014223 -0.04415517 0.03580534 0.0365895 -0.0387564 0.10861559 -0.020875385
-0.0015022211 0.08500302 0.03850379 0.009571223 0.047601223 -0.054913715 -0.0949537 0.028384034
0.06260849 -0.029562434 0.097303174 -0.0017027861 -0.13662392 0.004589526 -0.017638393 0.014888314
-0.06238233 0.07631202 -0.10204425 0.0014030433 0.11036498 0.044470612 0.060845234 0.005394268
0.09300964 -0.010404535 -0.119418286 -0.03641198 -0.058035675 0.008538267 -0.07166493 0.013764808
-0.048338056 -0.17549926 0.03380975 0.033627097 -0.09539113 -0.092997305 -0.07463532 -0.053819377
0.06380721 0.16091768 0.10338323 -0.03781985 0.055101905 0.05983779 0.026402434 0.04129698
-0.022144174 -0.042154673 -0.04914299 -0.03201545 -0.058476474 0.1046369 0.0015885553 -0.04442843
-0.022459669 -0.0037339984 -0.085428104 -0.0052309353 -0.075046636 0.023033086 0.027425524 0.116803035
-0.0685278 -0.00823778 -0.041287117 -0.090721644 -0.030215692 0.08659453 -0.018148689 -0.058853768
0.043411765 0.016398866 -0.006955061 0.16831115 -0.08594458 -0.019577751 0.12647203 0.10110123

network_body._body_endoder.seq_layers.4.bias f4 [256]
00000000: 4e20 053a 6139 82bb 201a ab3a 1fc7 153a
00000010: ea20 193b ec42 e5ba 7489 c03b 1f7d 933b
00000020: fb35 213b 6d88 b63b 3370 9bba 479e 803b
00000030: 7c8d f139 1198 d1ba ca54 843a aa93 fd3a
00000040: 23ab 873b e18f 523b 297e d53a 65f4 163b
00000050: 690f 283a 168e e93b 0218 273b 9682 2839
00000060: 0dc4 e5ba d64c ef3a 2138 be3a 4725 333a
00000070: 8647 df3b fa24 ba3a 794f 543a ff1d beba
00000080: baf8 693a 82b2 7ebb ae47 393b e53f 4c3b
00000090: 8abf 603b 0a25 86b8 9272 003b 6089 dc3a
000000a0: 6d3d 2a3b cc7f cbba 923b 853a b611 33bb
000000b0: fc69 313b 6ece 6d3b e442 fe3a a260 dd3a
000000c0: 01cf 63bb 2fd5 053b d47e 1b3b cf51 4c3b
000000d0: a8fb c33b 4694 14b8 7984 043c 9ae5 103b
000000e0: 1016 053a 8279 0cbb 665b 433b 7cc1 4b3b
000000f0: 839a 31bb f5f7 8d3a 288c 3e3b 4c5f 7eba
00000100: c945 b73b 3be8 83b9 11b0 653a 97e8 fdb9
00000110: e12c 063b e720 b13a b021 c1ba 07e7 c33b
00000120: 1c09 753a 6ed4 243b 085a e33b 906f d13a
00000130: 23b9 623b e6ef a83b 11c5 7eb9 4c20 0cba
00000140: 6e06 90ba b28f ef3a 10eb 23ba 5075 c43a
00000150: d1af 6b3b beb2 8839 90e3 6f3b a5fb 62ba
00000160: 93d0 883b a0a3 5c3a 0436 93ba 084b cf3b
00000170: ed40 393b 1bc8 533a f5f2 6e39 8098 e639
00000180: c82f 69ba 52c2 583a d189 9e3b 51fc 95ba
00000190: 3cb0 573b 446d 643b 2ce1 c139 85c7 4dbb
000001a0: 58f2 233b 99bb 9f3a cfaa f43a 5442 7aba
000001b0: 3ccf 953b 3822 5d3b 3683 243b c599 dd3a
000001c0: a1d0 b03a c9da 433b db3a 203a ce42 a73a
000001d0: 5e55 06b9 ccd7 673b 83b8 443b 1dda f63a
000001e0: 31d6 883b 2dbc 2c3b e630 62b9 9e4e 9a3b
000001f0: 90fd 5b3b cbd5 a23a 7827 bf3b 7595 423b
00000200: 3163 f13a 3e09 1dbb 80da 9ab7 53c2 133b
00000210: 7607 24bb 4622 b43b 3d54 98ba aa06 573b
00000220: d60b 8f39 3889 323b d40c 98ba 5a28 253b
00000230: 24a8 a3b9 3a5b 02bb 0097 923a 9822 cb3a
00000240: f0f4 47bb d9a3 8539 cc22 313b b81b 073b
00000250: 04f5 2239 782b 5d3b 52c9 da3a 52dd dcba
00000260: 483b 903b 4345 b3ba 4fb2 56ba d6e1 d03b
00000270: 5610 a03b 3be7 523b 4332 3e3b 7e71 fe3b
00000280: 1169 183b 9ff9 b53a 46e1 edba 76bb 0abb
00000290: 73e3 813b 9315 f6b9 08c7 67ba 58f7 1d3b
000002a0: 06e3 48ba 53e4 32bb 5255 eeba 618f 0b3b
000002b0: 1f9c 313a 161c 583b 4351 623b 3e3e 2637
000002c0: 72db 1ebb cb40 20bb ae7c c93b 2a64 7139
000002d0: 1d35 5a3b ac98 2b3b e45b 5c3b f419 fa3a
000002e0: e7c1 b1ba 6926 0f3b 25a1 6f3a 6996 7d3a
000002f0: 154a e939 38a1 5cbb 4c8a 573b c64f 10b9
00000300: bcf5 adba 2812 d3ba 2dcd 25ba c3bd 593b
00000310: 83bb 7c3b 2fa6 38bb d65f c33a 6208 003b
00000320: 2ae6 903a 45f7 adba c918 7cba d31a 9f38
00000330: ea57 1a3a 32a1 3a3b ab72 1e3a 6440 9c3b
00000340: a80c ff3a 7aa6 993b a8d0 743b 2a39 3e3b
00000350: c14b 9839 7941 893a 6561 a03a 1876 c93a
00000360: 389e cc3b c7f6 c33b 5248 2d3b 0e5a a93a
00000370: 869f d939 da11 9839 dfb3 5f3b 84d3 953b
00000380: ec26 253b f88f ab3b fae1 723b 3b2d 383a
00000390: 9c2c 363a 48c5 283b 7421 ca39 008f ab39
000003a0: 41c3 573a 2c16 5c3b 3bc4 fd3a 7629 f639
000003b0: 21d4 8a3b db02 843b e51b 613b 05e0 12bb
000003c0: b5fc 083b b44e 8c3b e84c 4a39 1cfc 89ba
000003d0: 9b3c 11ba 4a75 263b 8e09 8c3b 735a da39
000003e0: fe1f 943b c633 2d3b a111 373b 4b0e f639
000003f0: 53c3 463a b550 8e3b 7264 c1ba 3a13 793b
0.0005078361 -0.0039741253 0.001305405 0.000571357 0.0023365566 -0.0017491258 0.0058757607 0.0045009996
0.0024598825 0.0055704624 -0.0011859 0.003925118 0.00046072516 -0.0015990754 0.001009607 0.0019346375
0.004140274 0.0032129216 0.0016288209 0.0023033854 0.00064109877 0.0071275337 0.0025496488 0.00016070376
-0.0017529741 0.0018257152 0.0014512577 0.0006833863 0.006813946 0.0014201694 0.00080990006 -0.0014504789
0.0008925308 -0.0038863723 0.0028271484 0.0031166014 0.0034293854 -6.396517e-05 0.001959954 0.0016825609
0.0025976554 -0.0015525757 0.0010164848 -0.002732379 0.0027071228 0.0036286372 0.0019398597 0.0016889761
-0.0034760835 0.0020421257 0.0023726719 0.0031176691 0.0059809275 -3.542404e-05 0.008088225 0.002210951
0.0005076835 -0.002143473 0.0029809116 0.0031090667 -0.0027100153 0.0010831343 0.002907524 -0.00097035314
0.005593036 -0.00025159292 0.00087618927 -0.00048429213 0.0020473527 0.0013513834 -0.0014734771 0.0059784683
0.00093473657 0.0025151032 0.006938223 0.0015978683 0.0034595213 0.0051555512 -0.0002429674 -0.0005345389
-0.0010988244 0.0018277077 -0.00062529836 0.0014988575 0.003596295 0.00026073115 0.0036604144 -0.0008658714
0.0041752546 0.0008416716 -0.0011231308 0.006326083 0.0028267459 0.0008078829 0.00022787957 0.0004398264
-0.00088953646 0.0008268702 0.0048382063 -0.0011442994 0.003291144 0.0034855166 0.00036979595 -0.003139944
0.0025016274 0.0012186646 0.0018666628 -0.0009546627 0.0045718234 0.003374232 0.0025102622 0.0016906789
0.0013489911 0.0029885045 0.0006112286 0.0012760998 -0.00012811038 0.0035376428 0.0030017204 0.0018833313
0.004175924 0.0026357279 -0.00021571256 0.004709079 0.0033567883 0.0012423334 0.0058335625 0.0029691134
0.0018416402 -0.0023961808 -1.8459978e-05 0.0022546246 -0.002502886 0.00549725 -0.0011621785 0.0032810369
0.00027283904 0.0027242433 -0.0011600503 0.0025201053 -0.00031215057 -0.00198908 0.0011183918 0.0015497981
-0.0030510984 0.00025489813 0.0027028797 0.0020615887 0.000155408 0.0033747833 0.0016692078 -0.0016850627
0.004401598 -0.0013677258 -0.0008190022 0.006374578 0.00488476 0.003218128 0.0029021658 0.007764994
0.0023255984 0.0013883597 -0.0018148802 -0.0021168864 0.0039638816 -0.0004693685 -0.00088416087 0.0024103727
-0.00076632237 -0.0027296736 -0.0018183386 0.0021295177 0.0006775278 0.0032975725 0.00345333 9.908863e-06
-0.0024239686 -0.0024452682 0.006148896 0.00023020865 0.0033295818 0.0026183529 0.0033624107 0.0019081221
-0.0013561816 0.0021842963 0.0009141139 0.0009673597 0.0004449642 -0.003366543 0.0032888828 -0.00013762628
-0.0013272087 -0.0016103433 -0.0006324824 0.003322468 0.0038563914 -0.0028175225 0.0014905881 0.0019536247
0.0011054922 -0.0013272545 -0.00096167304 7.586707e-05 0.0005887734 0.0028477428 0.00060443085 0.004768418
0.0019458728 0.004689035 0.0037355814 0.0029025772 0.0002904814 0.0010471783 0.0012236057 0.0015370278
0.006244447 0.005980346 0.0026440811 0.0012920515 0.0004150832 0.00029005 0.003413431 0.004572334
0.0025200201 0.0052356683 0.0037060962 0.0007025783 0.00069493963 0.0025752354 0.00038553367 0.00032722205
0.0008230694 0.0033582551 0.0019360849 0.00046951667 0.0042367135 0.0040286607 0.0034348902 -0.0022411358
0.0020902578 0.004281843 0.00019292871 -0.0010527405 -0.0005540342 0.00253995 0.0042736 0.0004164759
0.0045204153 0.0026428564 0.0027934092 0.00046931425 0.0007582206 0.004343117 -0.0014754666 0.0038005845
