results/Run 3/AgentController.onnx (onnx, 657373 bytes, 14 tensors)

83 f4 [116]
000000 a2 db 88 3e 2f 02 03 3e f5 b3 74 3e b0 d7 94 3e
       0.26730067 0.12793802 0.23896773 0.29070807
000010 fd 1d 85 3e c5 d4 fd 3d 2a e6 6d 3e 5c 34 94 3e
       0.25999442 0.12394098 0.23232332 0.28946197
000020 f5 73 8d 3e 3c 70 02 3e 84 99 7f 3e a1 cc 95 3e
       0.2762753 0.12738127 0.24960905 0.29257682
000030 06 84 85 3e be 13 f9 3d ec df 6f 3e ac e3 93 3e
       0.26077288 0.12161969 0.23425263 0.28884637
000040 7e 33 8e 3e 12 a5 01 3e dd d6 80 3e c4 b2 95 3e
       0.2777366 0.12660626 0.25163928 0.2923795
000050 11 37 87 3e e1 50 f7 3d 26 26 74 3e f7 6d 93 3e
       0.264092 0.12075973 0.23842677 0.28794834
000060 3f ae 8f 3e 50 45 04 3e 44 f2 81 3e f3 87 95 3e
       0.28062627 0.12917066 0.25380147 0.29205284
000070 5b e7 88 3e 69 12 f5 3d e0 7e 78 3e 0e 2f 93 3e
       0.2673901 0.11966402 0.24267149 0.28746837
000080 75 e0 8f 3e 30 02 03 3e b9 74 82 3e c5 b7 95 3e
       0.28100935 0.12793803 0.25479677 0.29241768
000090 69 ff 8c 3e 0e 2d 00 3e 70 51 7f 3e f4 02 94 3e
       0.27538612 0.12517187 0.2493341 0.28908503
0000a0 f6 fb 91 3e d6 8c fa 3d 11 15 86 3e aa f9 95 3e
       0.28512543 0.122338936 0.26187947 0.2929204
0000b0 4e 6f 8e 3e 13 7a f6 3d 36 5e 82 3e a5 87 95 3e
       0.27819294 0.120350026 0.25462502 0.2920505
0000c0 06 26 96 3e 09 31 fb 3d 87 b0 8a 3e 8a 49 96 3e
       0.29325885 0.12265212 0.27087805 0.2935298
0000d0 fb 1b 92 3e de 5a 00 3e c5 6b 85 3e 56 28 96 3e
       0.28536972 0.12534663 0.26058784 0.2932765
0000e0 dd 7d 96 3e 80 d2 f5 3d bb 97 8b 3e 68 69 96 3e
       0.293929 0.1200304 0.272642 0.29377294
0000f0 1c b1 95 3e bc 77 01 3e 8b 49 89 3e 7f ef 96 3e
       0.29236686 0.12643331 0.2681392 0.29479596
000100 bc 47 99 3e 79 b7 e8 3d 48 de 8f 3e b6 3b 97 3e
       0.2993754 0.1136312 0.28099275 0.29537743
000110 07 dc 99 3e 2d 01 ff 3d 3f 64 8e 3e 6f ec 96 3e
       0.3005068 0.12451396 0.27810857 0.2947726
000120 18 21 9b 3e 3f ec e6 3d 2e 0f 92 3e ac 43 97 3e
       0.30298686 0.11275529 0.28527206 0.29543817
000130 c0 ae 9c 3e b5 68 f7 3d 31 40 92 3e a7 f2 96 3e
       0.30602074 0.12080518 0.285646 0.29482004
000140 d3 1a 9c 3e 44 a7 ef 3d 84 66 92 3e a0 3a 97 3e
       0.30489215 0.11701825 0.28593838 0.29536915
000150 a0 ea 9d 3e 64 2f f3 3d c0 01 94 3e a3 be 96 3e
       0.30843067 0.118742734 0.28907585 0.2944232
000160 1c 6f 9f 3e c9 cc f8 3d 0d 4a 95 3e 96 aa 97 3e
       0.31139457 0.12148435 0.2915806 0.29622334
000170 63 95 a0 3e 7c 49 fd 3d ab 15 96 3e d1 4d 97 3e
       0.31363973 0.12367532 0.29313406 0.29551557
000180 cb 49 9f 3e 19 b2 f4 3d 90 7b 95 3e 9a 5c 98 3e
       0.31110987 0.11948032 0.29195833 0.2975815
000190 7b 40 9f 3e b6 c0 f3 3d 46 71 95 3e b6 56 98 3e
       0.31103882 0.11901991 0.29187983 0.29753655
0001a0 55 40 9a 3e a7 09 f0 3d 9e 51 90 3e 10 f4 97 3e
       0.30127206 0.11720591 0.2818727 0.29678392
0001b0 03 93 99 3e 4d 82 e9 3d 75 1d 90 3e 34 d5 97 3e
       0.29994974 0.11401806 0.28147474 0.2965485
0001c0 03 93 99 3e 4d 82 e9 3d 75 1d 90 3e 34 d5 97 3e
       0.29994974 0.11401806 0.28147474 0.2965485

86 f4 [3]
000000 25 0d 84 40 64 69 e3 3b 1a 7d 43 41
       4.1266046 0.006940054 12.218042

action_model._continuous_distribution.log_sigma f4 [1, 2]
000000 d5 5d 1f 3b 13 71 ca b9
       0.0024317403 -0.0003861269

action_model._continuous_distribution.mu.bias f4 [2]
000000 4c 96 c1 39 e6 43 9e 3a
       0.00036923809 0.0012074679

action_model._continuous_distribution.mu.weight f4 [2, 256]
000000 7c 3d e1 3c 51 38 54 bc 67 32 ac ba 89 bd b6 bb
       0.027495138 -0.01295288 -0.001313758 -0.0055767936
000010 40 b1 e9 3b 62 8b 39 3b 4c 75 84 3c 96 00 3e 3a
       0.0071317255 0.0028311838 0.016169213 0.0007248012
000020 bd 66 b7 bc fa 4f a4 bc 46 9c 06 bc f2 b1 dc 3b
       -0.022387857 -0.020057667 -0.008215969 0.00673508
000030 55 54 33 bc 37 ae 53 3c 34 0e 57 bc 4f 89 b6 b8
       -0.010945399 0.012919954 -0.013125945 -8.704012e-05
000040 13 4a 43 bb 89 8e 16 b9 68 57 36 bc eb 62 df bc
       -0.002979879 -0.00014358213 -0.011129238 -0.027268847
000050 68 a7 43 bc 60 20 92 bb b4 96 19 bc ae 5a cc 3b
       -0.011941768 -0.004459426 -0.009374309 0.006236396
000060 af c4 84 3b a1 37 39 bc 11 cf a1 bc 50 4e 57 bb
       0.004051767 -0.011304767 -0.019752057 -0.0032853074
000070 a4 de a7 3c 08 cb 7d 3c f3 bc 34 bc 40 97 8f 3b
       0.020491906 0.015490301 -0.011031377 0.004382044
000080 84 82 b3 3c 4e ad ab 3c dd 00 09 bc 83 fb cf bb
       0.02191282 0.020956662 -0.008362022 -0.006347121
000090 b1 14 03 bc 2f 97 1f bb 72 94 72 bb 96 50 68 3c
       -0.008000539 -0.0024351587 -0.003701475 0.014179369
0000a0 cb 1e dc 3b 15 a9 88 3c 59 02 1b bd b9 ef 3c 3b
       0.006717538 0.016682187 -0.037844036 0.002882941
0000b0 4c 37 53 b9 ef 65 28 3d 43 46 16 3c 97 5c 98 3c
       -0.00020143128 0.041112836 0.009172025 0.018598838
0000c0 9b 7b 6e bb 69 00 1a bc ab b2 26 bc f8 e7 35 3c
       -0.0036389593 -0.009399512 -0.010174434 0.011102669
0000d0 63 70 8d 3a 01 2c 71 3c 9c 23 fc bb de cb 67 3c
       0.001079094 0.014719964 -0.0076946747 0.014147727
0000e0 b5 1e 8b bc 01 00 09 3c 46 e9 33 3b d1 5d bb 3c
       -0.016982416 0.008361817 0.0027452274 0.022871884
0000f0 cd f8 ea bc c6 9d 02 bc 48 df e7 3a c3 4e 89 bb
       -0.02868309 -0.007972186 0.0017690444 -0.0041902973
000100 1d 15 07 bc e7 69 64 ba 0f 18 18 bc 48 5d 96 bb
       -0.00824478 -0.00087132904 -0.00928308 -0.0045887567
000110 b5 65 0b bc 57 92 0c bc ff 56 70 bc 51 c6 c5 3a
       -0.008508136 -0.008579812 -0.014669179 0.001508901
000120 86 7d c9 bb 11 bd 35 bc 3c 70 b4 bc 41 f8 bc 3c
       -0.0061489968 -0.01109244 -0.022026174 0.023067595
000130 a6 93 02 bc af 7e ac 3c 6e 52 5f 3c 4f 45 02 3d
       -0.007969772 0.021056501 0.013630493 0.03180438
000140 1f ec 93 3b b6 e6 de bc 7b ae 12 3b eb 8f 27 bc
       0.004514232 -0.02720962 0.002238183 -0.010227184
000150 f4 11 02 bb 88 b5 b8 bc 8e 62 ce bb 5d a7 bc bb
       -0.0019847127 -0.022547498 -0.0062983697 -0.005757256
000160 7d 21 bb 3b ad 82 62 bb 6a df f5 3c c9 87 65 3a
       0.005710779 -0.0034562752 0.030013759 0.00087558903
000170 c9 f8 a4 3a aa 39 09 3c 63 d2 6f 3b fd e0 99 bc
       0.0012586351 0.008375565 0.0036593906 -0.01878404
000180 b9 dd 55 3b 50 e6 bc 3b 78 8f 87 3c f9 d7 32 bc
       0.0032633378 0.00576476 0.016547903 -0.01091575
000190 22 13 d2 37 9e 87 ac 39 31 ad 42 3c 4c 6f b8 3c
       2.504286e-05 0.0003290744 0.011882112 0.022514008
0001a0 2c f9 93 ba 94 73 a5 bb 33 f8 4e 3c 0f 7d ef bc
       -0.0011289469 -0.0050491784 0.0126324175 -0.029234437
0001b0 0f d4 84 bb 5b 67 8d bb 04 c9 96 ba e9 45 c2 3b
       -0.0040535997 -0.0043152994 -0.0011503999 0.005928744
0001c0 42 38 44 bc 1e 3c 19 bc d0 71 87 bc 6a 7a 68 bc
       -0.0119763035 -0.009352712 -0.016533762 -0.014189342
0001d0 91 05 96 3c 88 40 1d bc 7a ed d0 bb 85 45 df bb
       0.018313201 -0.009597905 -0.0063759657 -0.0068137073
0001e0 35 bf 15 3d dd 06 ca bc b8 02 73 3c 93 8b df 3b
       0.036559302 -0.024661476 0.014832191 0.0068220585
0001f0 95 59 dd 3c a2 06 fe 3a 11 6c d1 ba 9f 21 96 bb
       0.027020255 0.0019380639 -0.0015977641 -0.0045816447
000200 6a b6 a4 bc a0 6b ec 3a d9 12 8b b9 99 a4 37 3b
       -0.020106513 0.0018037446 -0.0002652619 0.0028021692
000210 7d 5e cf 3a 5c a9 48 3c 52 42 2d 3c 11 cb f3 bb
       0.0015821006 0.01224741 0.010574894 -0.007439979
000220 54 a1 a0 3b d8 03 d3 3c 14 70 d5 bb e5 df 8f 3c
       0.0049020443 0.025758669 -0.006513605 0.017562816
000230 c0 29 1d 3c a2 66 59 3c 3d 09 8d 3c cb c1 2a bc
       0.0095924735 0.0132690985 0.01721632 -0.01042218
000240 57 d9 68 bb 3b 03 3c 3c c6 4b 00 bb a0 41 c8 3a
       -0.0035529935 0.01147538 -0.0019576414 0.0015278347
000250 28 8b 0c 3c d5 12 b2 3b c3 cc e0 bc b5 80 e4 bb
       0.008578099 0.005434374 -0.027441388 -0.006973351
000260 07 3a d1 bb b7 ec 81 3c 24 df 5b bc 49 69 3a 3c
       -0.006385091 0.015859945 -0.0134199 0.011377641
000270 9e be 77 3c f8 2c cc 3b bd 3c 8a b8 da 63 48 bc
       0.01512113 0.0062309466 -6.591666e-05 -0.012230838
000280 73 0c 8f 3c 81 ff 92 3c f1 a2 6c 3a d0 f6 b3 bb
       0.017461991 0.0179441 0.00090269657 -0.005492069
000290 21 00 a3 3c 4f 32 a4 bc e1 1e 15 bc 46 e0 e4 bb
       0.019897522 -0.02004352 -0.0091016 -0.0069847433
0002a0 45 ff 4e bc 00 e7 2d bc a0 77 85 bc a4 50 36 bc
       -0.012634103 -0.010614157 -0.016292393 -0.011127625
0002b0 a4 3d ec 3b 66 48 21 3b b1 03 61 3c 07 a9 0d bc
       0.0072094966 0.0024609803 0.01373379 -0.008646256
0002c0 98 88 98 bb 55 c3 c8 bc b5 3f 93 3c 7a 7e f3 bc
       -0.004654955 -0.024507204 0.017974714 -0.029723395
0002d0 14 6b f6 3a 20 86 73 3b 8b 5b 81 3c fd e0 b7 bc
       0.0018800222 0.0037158802 0.015790721 -0.02244615
0002e0 76 0b 82 bc 11 37 a9 3b 55 32 40 bc 91 1b da 3c
       -0.015874606 0.005164035 -0.01173075 0.026624473
0002f0 04 7f 44 bb f9 6e 84 3a 81 c3 17 bc 35 7e 97 bb
       -0.0029982934 0.0010103873 -0.00926292 -0.0046231993
000300 03 62 d8 3a 4a 35 b4 bb de 4e 7c bb 36 de 0d 3b
       0.0016508702 -0.0054995166 -0.0038499157 0.002164734
000310 b0 89 94 bc 10 da 1b 3c d2 d3 7e 3c c8 c3 14 3c
       -0.01813206 0.009512439 0.015553432 0.009079881
000320 4e 96 8e 3c d6 ec 49 3c 7a dc 0c 3d c0 c1 9c 3c
       0.017405655 0.0123245325 0.03438995 0.019135356
000330 0b c6 96 3b 8e bd a5 bb 6a b3 0d 3c c7 c3 4b 3c
       0.0046012453 -0.005057997 0.008648733 0.012436814
000340 24 0b 42 3c 1b 57 c9 3c dc a7 09 ba 5a a0 24 bd
       0.011843476 0.024577668 -0.0005251148 -0.040191986
000350 b7 6f 14 3c 65 0f 4e ba b0 e6 1a bc 56 6e ac 3b
       0.009059838 -0.00078605703 -0.009454414 0.0052621765
000360 85 07 22 bd f1 c0 13 3b 93 a8 d9 bb 0c 76 1e 3c
       -0.039557952 0.0022545422 -0.00664241 0.009671699
000370 ac e0 11 3c 0a 71 07 bc 22 96 05 3d 1a 51 2d 3c
       0.008903664 -0.008266697 0.03261388 0.010578418
000380 7a 9b 0e bc 25 68 26 3c 3e 9b 4b bc 1a c3 a2 bc
       -0.008704061 0.010156666 -0.012427149 -0.019868422
000390 91 4e f6 bb b5 af bd bc 57 98 9d bc f9 c3 90 bc
       -0.00751669 -0.023155073 -0.01923768 -0.017671572
0003a0 fe c1 67 3c f8 47 9e 3a 89 e5 bc 3b 0c 98 26 bc
       0.014145372 0.0012075892 0.0057646674 -0.010168087
0003b0 a5 94 38 3a 44 8f e1 bb 2e 8f 35 bc 10 b0 00 bd
       0.0007041193 -0.0068835337 -0.0110815 -0.031417906
0003c0 ec 31 8c bc 99 a2 4f bc fc 3a 99 bc d3 32 fe bc
       -0.017113648 -0.012673044 -0.018704884 -0.031030094
0003d0 ff 4f 2f bc ad 29 8a 3b c4 8a da 39 85 61 82 3b
       -0.010700225 0.004216394 0.0004168359 0.0039789104
0003e0 18 1a 51 3c cf 87 96 bc c5 18 3d bc 85 b8 f3 3b
       0.012762569 -0.018375305 -0.01154155 0.007437768
0003f0 de f0 ba 3c e5 a3 af 3a 86 3a cc bb 82 82 b8 bb
       0.022819933 0.0013400285 -0.0062325625 -0.005630792

action_model._discrete_distribution.branches.0.weight f4 [1, 256]
000000 4b ec fb 3a 97 8d 4c 3a 3b bc 61 3a 85 9a 2d 3b
       0.0019220201 0.0007803081 0.00086111174 0.0026489806
000010 e8 a7 01 bc 11 80 04 3c 28 86 0e 3c a8 13 65 3b
       -0.007913567 0.008087174 0.0086989775 0.0034954343
000020 9a b3 e1 3b 41 68 ae 3b c1 8e 06 b9 12 b1 7f 39
       0.0068878653 0.0053224866 -0.00012832416 0.00024384659
000030 73 00 27 bc bd 84 46 3c 10 a1 50 38 be cf 2f bb
       -0.010192978 0.012116608 4.9741066e-05 -0.0026826705
000040 07 3d 35 3c e0 c9 03 3c 15 a2 4f 3b 27 9d 54 3a
       0.011061913 0.008043736 0.0031682302 0.0008110576
000050 c2 6d 06 3c 83 9f 63 bc e2 80 2d 3c f3 1b ce 3a
       0.008204879 -0.013893011 0.01058981 0.0015724882
000060 dd fa b9 bb 62 b0 ec ba c0 7a 35 3a f4 18 a9 bb
       -0.005675657 -0.0018057937 0.0006922893 -0.0051604453
000070 30 b6 e6 3b 52 a9 37 3b 3f 15 05 bc 5f 36 a9 ba
       0.0070407614 0.0028024507 -0.008122741 -0.0012909881
000080 87 0a 9a bb 4b cd a6 3b e6 76 a1 3b dd 06 00 bc
       -0.004700962 0.005090391 0.004927504 -0.007814136
000090 17 36 1c 3b 0b 65 3e bc d3 df a2 3b 22 a4 14 3b
       0.002383595 -0.01162077 0.0049705296 0.0022680839
0000a0 bb 57 cf 39 9f ad c1 b8 37 06 4f bc 67 04 35 3b
       0.0003954748 -9.2352966e-05 -0.012635759 0.0027621032
0000b0 d3 24 30 3c 07 41 b3 bb fa f7 a3 ba 34 a3 92 39
       0.010750967 -0.0054703983 -0.0012509816 0.00027968886
0000c0 2f 37 02 3c 07 0e 8a bb c8 fe f7 ba 1d 82 91 3a
       0.007947727 -0.004213098 -0.0018920535 0.0011101399
0000d0 75 68 ed 3b 6c 94 48 bb a2 a0 2d 3b 22 00 db 3b
       0.0072451183 -0.0030606044 0.002649345 0.0066833654
0000e0 a7 53 0b ba f7 95 ce 39 ca bb 71 ba ea f5 e6 bb
       -0.00053148944 0.00039403114 -0.0009221403 -0.007048358
0000f0 ff 6f 05 bc 77 45 20 ba 83 2f d0 3b 85 13 f0 ba
       -0.008144378 -0.00061138667 0.00635332 -0.0018316364
000100 3f dc bf bb 0f 4e fb 3b a8 4c 53 3b 8f ed 28 bb
       -0.005855113 0.0076692174 0.0032241736 -0.0025776362
000110 b4 ce af 3b 12 54 5b bc 57 55 2b 3b 92 3b a0 bb
       0.005365217 -0.013386743 0.0026143396 -0.004889914
000120 22 b9 a1 bb 7a 5e 3c ba dd b9 66 3b 32 08 32 3b
       -0.0049353996 -0.0007185709 0.0035205998 0.002716553
000130 c4 25 a4 3b 7f b7 8f 3b 95 41 03 3c 97 c1 35 3b
       0.005009385 0.004385888 0.008011241 0.0027733797
000140 f0 6a 1b 3c 1d c1 6a 38 48 ff 6f 3a ca f8 da bb
       0.009485945 5.59698e-05 0.00091551663 -0.00668249
000150 6b c9 fb 3a cf 52 f2 bb f7 24 01 bc 9f 4a 8b bb
       0.0019209808 -0.0073951255 -0.007882348 -0.004250839
000160 d0 3d e5 3a 17 d3 2c 3c ad 28 1f 3c cf 38 cd 3a
       0.0017489735 0.010548375 0.009714288 0.0015657189
000170 aa 42 58 bb 42 d6 9b bb 3f a3 1e 3c dd b4 98 ba
       -0.003299872 -0.004755766 0.009682476 -0.0011650581
000180 93 d6 57 bb 13 0a e4 38 61 42 1a 3c e4 ef 0e bc
       -0.0032934293 0.00010873764 0.00941524 -0.008724187
000190 8e 1f 84 ba ee ec 39 bc 40 82 e3 bb f0 fb 17 3c
       -0.0010080205 -0.011347992 -0.0069430172 0.009276375
0001a0 00 be d0 39 fd 86 63 bb 83 51 c5 3a 93 1a 4f 3b
       0.00039814413 -0.003471791 0.00150542 0.0031601533
0001b0 86 08 c8 3b 0b f6 d4 3b 22 c2 01 bc df 42 cf 3b
       0.0061045317 0.006499057 -0.00791982 0.0063251103
0001c0 3c d9 49 3b 8d 6b f6 3a ad 0f eb 3b a3 22 df 3b
       0.0030799648 0.0018800363 0.0071734996 0.006809549
0001d0 6e 5e 1d bc 1f c1 46 3b 77 e8 e8 bb 6b ce 90 bc
       -0.009605033 0.0030327511 -0.00710779 -0.017676553
0001e0 6f 63 1d b9 11 d6 b9 3b 33 66 e6 39 df 17 be ba
       -0.00015009729 0.0056712707 0.00043945163 -0.0014502964
0001f0 34 3b 29 3b fb d6 34 3c af 0c 6a 3c b8 33 ef bb
       0.0025822641 0.011037583 0.014285251 -0.0072998665
000200 e4 ef 87 bb a2 e7 13 bb 02 d1 78 bb 2f 5b 48 3a
       -0.0041484702 -0.0022568484 -0.0037966375 0.0007642982
000210 6b 0c 2c bb 63 c0 49 3c e1 c8 1c bc bc 45 01 bc
       -0.002625252 0.012313935 -0.009569378 -0.007890161
000220 5e 84 c7 ba a4 a1 98 3a 21 5f 39 bc c1 73 b4 b9
       -0.0015221944 0.0011644852 -0.011314184 -0.0003441852
000230 f7 5e 9a 3b 82 9f 5e 3b 35 ea 66 bc 7b 9b d1 bb
       0.0047110277 0.0033969586 -0.014093925 -0.0063967085
000240 83 61 d2 bb 43 d6 8d 3c bf 5e ea bb 2c dd af 3b
       -0.0064203157 0.017314082 -0.007152408 0.005366942
000250 07 1b c6 bb b2 90 fa bb 28 e5 bc bb 16 f4 29 bc
       -0.0060457024 -0.0076466436 -0.0057646222 -0.010373136
000260 72 4b 21 3b f0 80 cd 3b 67 37 72 bc 17 ae ac bb
       0.002461162 0.006271474 -0.014783717 -0.0052697766
000270 a4 53 b6 ba 5f 9c 1b 3b 60 b0 7d bc e9 a3 a9 ba
       -0.0013910425 0.0023744327 -0.015483946 -0.0012942526
000280 7d 0e 61 3b 32 74 22 bc e0 d7 5d 3c 97 03 33 bb
       0.003434091 -0.009915398 0.013540238 -0.0027315372
000290 a1 c5 46 bb 5f df c4 3b 6b bc a1 bb 3f b2 b6 b9
       -0.0030330198 0.006008073 -0.0049357913 -0.0003484655
0002a0 4d d3 05 3c 98 cd 04 3c ca 62 22 b9 db ee 0f 3b
       0.008168054 0.008105658 -0.00015486326 0.0021962437
0002b0 4c c8 9f bb ce 47 94 3b c8 46 77 bb 1b d3 ed 3a
       -0.004876172 0.0045251613 -0.0037731398 0.0018144579
0002c0 d1 da 23 3c cb 75 a4 3a f3 cb ee 3b b0 fd 0b 3c
       0.0100009 0.0012547312 0.0072874962 0.0085443705
0002d0 e5 5e 39 bc 23 a0 ef bb 4f e8 c2 3b df c9 07 bc
       -0.0113141285 -0.007312791 0.0059481035 -0.008287876
0002e0 85 39 d7 bb a3 c4 c6 ba c9 1b 45 3b e5 91 2d 3b
       -0.006568136 -0.0015164803 0.0030076376 0.0026484665
0002f0 f7 f2 42 bc c0 16 43 3a 00 4d a6 bc c9 af 9f bb
       -0.011898748 0.00074420497 -0.020300388 -0.00487325
000300 5f e5 62 3a be 07 45 bb ce 30 34 bc 5b 0b 42 bb
       0.0008655395 -0.003006443 -0.010997964 -0.002960882
000310 c3 3f 87 ba 32 3b be 3a 2d 85 42 bc 67 96 71 b9
       -0.0010318685 0.0014513491 -0.011872572 -0.0002303958
000320 1f 2e bd 3a 77 1c ef bb 4b 5a 18 3b 4e ff 12 3a
       0.0014433301 -0.0072970944 0.0023247178 0.00056075014
000330 a8 00 dc 3b f0 52 9f 3b eb 51 1b 3b d0 cc bd 3a
       0.0067139454 0.004862182 0.002369995 0.0014480595
000340 75 42 26 3a e5 fc 4d 3c bf da e6 bb b3 90 13 3c
       0.00063423003 0.012572502 -0.0070451195 0.009006667
000350 c5 6e fd bb 20 ca a5 b8 10 6a 75 3b bf b3 52 ba
       -0.007734152 -7.905462e-05 0.0037447251 -0.00080376485
000360 58 fe 81 3b 9f 59 1b 3b a7 ca 15 b9 1f 11 dd ba
       0.0039670877 0.0023704541 -0.00014285241 -0.0016866064
000370 a4 37 45 bc 01 15 c3 3a 95 7c c3 bb 1a 20 32 bb
       -0.012037192 0.0014883579 -0.005965779 -0.0027179779
000380 0e d7 00 bc 61 ab a5 bb fb 53 b3 3b 5e f2 ac 3a
       -0.007863773 -0.0050558303 0.0054726577 0.001319479
000390 3e 1e 0b ba d5 fd 42 3b d0 b0 dc 3a 83 35 d6 bb
       -0.00053069356 0.0029753346 0.0016837362 -0.006537141
0003a0 f7 0c 4e ba fa 7f 5d 3a f8 33 5b bc 68 49 cf bb
       -0.0007860208 0.0008449551 -0.0133790895 -0.0063258894
0003b0 83 41 5c ba af 03 50 bc 0d 28 c3 bb 7f 9f 0d bb
       -0.0008402096 -0.012696191 -0.005955702 -0.002160996
0003c0 78 3d 04 bb ed 0f 86 38 b0 79 ae bb d1 d5 bc 3a
       -0.002017824 6.392584e-05 -0.005324565 0.0014406984
0003d0 76 41 a0 3b 5d c6 bb 3b 07 9e c9 3b 2b 2b b3 b7
       0.004890616 0.005730434 0.0061528715 -2.1358564e-05
0003e0 2a 40 dc b9 3d 59 6d bb 8a 44 fc 3a b2 50 f8 bb
       -0.00042009476 -0.003621652 0.00192465 -0.007577979
0003f0 95 9d 80 3b db 43 0d 3b a2 99 00 bc 14 d7 31 3c
       0.0039250352 0.0021555338 -0.007849129 0.010854501

network_body._body_endoder.seq_layers.0.bias f4 [256]
000000 05 4b 17 3a 2c 2b bd 3a a9 f4 6f 39 04 35 c9 3a
       0.00057713717 0.0014432422 0.00022883959 0.0015350883
000010 44 52 0a 3b 1b 11 b5 3a 44 c6 cd ba ec 36 f2 3a
       0.0021106163 0.0013814302 -0.0015699347 0.0018479503
000020 54 8e f3 3a f1 fd a2 b9 ca a2 96 b9 8a d2 c9 3a
       0.0018581846 -0.0003108825 -0.00028731517 0.0015397829
000030 ba 6b fd ba ac 6d c7 3a e5 7f 5a 38 77 99 8e ba
       -0.0019334473 0.001521518 5.209436e-05 -0.0010879476
000040 c6 8e e0 3a 1b a6 36 ba da 44 aa ba 33 01 d7 ba
       0.0017132394 -0.00069675007 -0.001299049 -0.0016403556
000050 f4 37 ca 38 31 e7 b6 ba 08 73 22 3b 71 d9 09 3b
       9.642533e-05 -0.0013954398 0.0024787802 0.0021034146
000060 f3 3b 72 3a f0 54 0d 38 ac 69 c0 3a a7 0c 9a ba
       0.00092405005 3.3696124e-05 0.001467993 -0.0011753038
000070 69 23 49 3a 36 d2 85 3a 1c fe 5c ba b6 3e c7 b9
       0.0007672818 0.0010209742 -0.0008430199 -0.0003800296
000080 00 6a d7 3a 32 61 66 ba 5f a6 8c ba 31 c6 6c 3a
       0.0016434789 -0.0008788287 -0.0010730735 0.00090322184
000090 f1 86 01 bb 35 b1 b5 b9 f2 ac df b9 f0 c7 0b 39
       -0.001976427 -0.0003465504 -0.0004266273 0.00013330556
0000a0 ec ad 58 3a 8d ef 15 3a 34 3d 08 ba e5 e0 94 ba
       0.00082656625 0.0005719595 -0.0005197108 -0.0011358528
0000b0 44 86 a3 b9 f8 d3 6a b8 e9 a7 4a 3a 2e bb c6 b9
       -0.00031189818 -5.598736e-05 0.0007730709 -0.00037904963
0000c0 34 d5 6b 3a b6 b4 61 ba 83 6e fa 3a 07 88 15 b9
       0.00089963083 -0.0008609997 0.0019106421 -0.00014260421
0000d0 a6 de 21 bb 67 b0 9e 3a bb 3c 74 b9 21 ea c0 b6
       -0.002469936 0.0012107015 -0.00023292277 -5.749302e-06
0000e0 c0 fd 07 3b 34 04 f3 3a 35 62 db 3a b0 79 9e b9
       0.0020750612 0.0018540681 0.0016737642 -0.00030226773
0000f0 b6 8b 0f bb c4 07 01 3a 79 4c e1 3a 41 2b 16 39
       -0.0021903343 0.00049221166 0.0017188928 0.00014321228
000100 ca d3 66 3a f0 d3 78 3a 64 d2 12 3b 82 eb 05 3b
       0.0008805363 0.00094920304 0.0022403235 0.0020434563
000110 de 10 06 3b 23 e0 1a 3b af e7 09 3b 84 2a ea ba
       0.002045683 0.002363213 0.0021042635 -0.0017865454
000120 b9 d0 d6 b9 48 39 e3 39 97 c8 70 3a 01 b4 ba ba
       -0.0004097277 0.00043339492 0.00091851637 -0.0014244319
000130 26 e0 dc 39 fc d7 de ba b3 6d b9 b8 40 45 29 3b
       0.00042128674 -0.0017001624 -8.8419205e-05 0.002582863
000140 a8 80 ba b8 2b 1e 88 3a 30 4b a3 b5 e6 5d 0e ba
       -8.893135e-05 0.0010384967 -1.2166329e-06 -0.0005430862
000150 13 00 97 38 54 dc db b9 9b d6 49 3b 25 54 37 3a
       7.200255e-05 -0.00041935092 0.003079808 0.00069934345
000160 a9 ac 5b ba c3 27 04 ba 0b 5b 28 b8 2d 32 b9 ba
       -0.00083799154 -0.00050413253 -4.013911e-05 -0.0014129333
000170 1e 22 82 ba 45 1d f9 b9 72 d2 51 3b ab 64 8d 3a
       -0.0009928381 -0.00047514788 0.0032016304 0.0010787448
000180 b2 bb bb 3a a4 ed 12 3a 3c 02 7e 39 2e b7 80 ba
       0.0014322905 0.0005604869 0.0002422416 -0.0009820217
000190 91 d8 a5 ba 91 7a 0b b9 4e a9 f2 b9 7b 1e 04 ba
       -0.0012653043 -0.00013301733 -0.0004628398 -0.00050399423
0001a0 41 b3 3a 3a c3 10 0b 3a 7d 8d 0d 3a 75 11 7b bb
       0.0007122048 0.0005304927 0.00053998065 -0.0038309966
0001b0 97 52 37 3b f8 b8 35 3b 13 68 65 3a 71 0f 3d 3a
       0.0027972811 0.0027728658 0.0008751165 0.0007212079
0001c0 48 ed 89 38 16 a8 a8 3a 7b 76 2d 3a b6 06 27 ba
       6.576866e-05 0.0012867476 0.0006617081 -0.00063715444
0001d0 e7 70 55 bb 4b d8 22 3b ec f4 36 ba 82 dd 44 bb
       -0.0032568516 0.002484816 -0.0006979245 -0.0030039256
0001e0 5c 5e e8 39 0a 54 39 ba 0f 82 6e 3a 03 d9 f0 39
       0.00044320791 -0.0007069713 0.000909836 0.00045938054
0001f0 e1 2b 10 3b ac 94 42 ba 38 bd 81 ba 5a 6e 5d ba
       0.002199881 -0.00074226665 -0.000989831 -0.00084469246
000200 b8 8c e0 b9 ea e9 5b 3a ce fa 71 3a 07 2c 85 ba
       -0.00042829453 0.0008389043 0.0009230793 -0.0010160216
000210 fb f3 82 3a 64 01 00 3a cc 24 61 3b 98 12 d1 ba
       0.0009990925 0.000488302 0.0034354208 -0.0015950976
000220 e3 a1 16 ba f1 4e 68 ba ad 4b de 3a ff c6 2b ba
       -0.0005746169 -0.0008861861 0.0016959809 -0.0006552785
000230 55 4a 26 3a 77 f0 99 3a ba c0 64 ba cf 60 a0 ba
       0.0006343474 0.0011744638 -0.0008726228 -0.0012235882
000240 71 bc 91 3a cc 7d fa ba ab 70 e5 38 2d af bf 3a
       0.0011118782 -0.0019110977 0.00010940557 0.001462435
000250 92 9e 18 3a a0 b2 1e 3a 32 ee d6 b6 a2 62 ec ba
       0.00058219687 0.0006053839 -6.4054266e-06 -0.0018034766
000260 ff 01 e8 b9 c5 71 84 3a ba b8 32 3a 41 d5 90 3a
       -0.00044251975 0.0010104707 0.00068176875 0.0011049883
000270 d6 06 24 ba 8b 06 97 b9 b6 e2 a1 b8 78 94 e9 b9
       -0.0006257122 -0.0002880584 -7.7193064e-05 -0.0004455184
000280 b4 07 59 ba 85 2b 83 3a 76 e6 7d ba ad f2 95 3a
       -0.0008279041 0.0010007477 -0.00096855254 0.0011440121
000290 85 de ae 3a 11 7c de 3a a3 ee 17 3a 81 42 2c bb
       0.0013341462 0.001697423 0.00057957525 -0.0026284757
0002a0 20 57 e0 ba 60 d7 fe 3a b8 5e f2 b9 7c 1e 01 bb
       -0.0017115809 0.0019442849 -0.00046228408 -0.0019702008
0002b0 3e 58 b5 38 de 07 35 39 a4 1b c5 3a 43 6f f3 b9
       8.647189e-05 0.00017264436 0.0015038145 -0.00046431468
0002c0 88 54 c5 ba f8 0b af b9 32 d3 19 ba 43 b9 3d 39
       -0.00150551 -0.00033387518 -0.00058679574 0.0001809346
0002d0 88 de a0 3a c7 ec 93 3a 92 fa ce 39 90 4b c2 ba
       0.0012273351 0.0011285775 0.0003947807 -0.0014823545
0002e0 b3 df d2 3a ec 3d fa b9 d5 c6 b4 b8 86 9e c8 b9
       0.0016088396 -0.0004772985 -8.620104e-05 -0.00038265082
0002f0 ff c3 da b9 4c ab b6 ba 2e f6 15 39 5e 33 ee 39
       -0.0004172623 -0.0013936548 0.00014301456 0.0004543317
000300 9a 07 ec ba b1 b8 e9 39 79 19 9f 3a 75 56 98 b8
       -0.0018007637 0.0004457883 0.0012138329 -7.264029e-05
000310 96 ff 90 3a 49 1c 39 ba c2 71 96 ba d0 f7 57 b6
       0.0011062499 -0.0007061405 -0.0011477994 -3.2181742e-06
000320 75 1a 9c ba 3b 9b 05 bb 44 ae 57 b8 d7 66 59 39
       -0.001190974 -0.0020386714 -5.1422292e-05 0.00020733043
000330 c3 18 16 bb 45 13 86 3a d0 d2 dc b8 bd 41 a0 b8
       -0.0022902943 0.0010229131 -0.000105296844 -7.641639e-05
000340 d3 bb 08 3b 75 a6 30 3a 56 f3 26 3a a3 ce 27 39
       0.0020863905 0.0006738671 0.00063686573 0.00016003339
000350 97 af 27 3a 11 6a 7a 3a 30 8d 58 ba f9 04 05 3b
       0.00063967094 0.0009552548 -0.00082607847 0.0020297153
000360 b2 65 85 ba a6 79 46 3a 20 1d da b9 10 21 29 39
       -0.0010177402 0.00075712276 -0.000416019 0.00016129413
000370 9a ca 16 3a 1d 2d 23 ba eb 8c f1 b9 eb 03 c9 b9
       0.0005752236 -0.0006224679 -0.00046072094 -0.00038340627
000380 40 52 89 b8 bb 93 17 bb 04 3f 03 b8 21 5d 32 3a
       -6.547989e-05 -0.0023128826 -3.129152e-05 0.00068040384
000390 e0 d7 76 3a 43 da cf 3a 88 35 e5 b8 3a d5 cc b9
       0.0009416323 0.0015857894 -0.00010929542 -0.00039068778
0003a0 03 ed 38 ba e0 92 bb 3a b2 ae 49 39 1d ec a3 3a
       -0.00070543605 0.001431074 0.00019233933 0.001250628
0003b0 8b 4d 24 ba be 4b 63 ba 60 a1 40 ba 99 9a 80 3a
       -0.00062676583 -0.0008670649 -0.00073482655 0.0009811699
0003c0 cf f1 ae 39 f7 36 3d 3a 46 bf 02 3b d0 82 85 ba
       0.00033368028 0.0007217968 0.0019950434 -0.001018608
0003d0 4d f0 46 38 fb c4 87 3a 85 0f 61 3a bc 40 aa 39
       4.7430676e-05 0.0010358387 0.00085853814 0.00032473158
0003e0 26 23 c0 3a dc 28 32 3b f0 cb 8e 3a 7d 01 3b 3a
       0.0014658913 0.0027184999 0.0010894518 0.00071337057
0003f0 b2 84 5e ba 50 b2 c6 3a 7e 55 f3 3a 79 9f 59 ba
       -0.0008488401 0.0015159342 0.0018564907 -0.00083016563

network_body._body_endoder.seq_layers.0.weight f4 [256, 119]
000000 5d f6 0a 3d 35 b0 00 be f6 0d f0 bc c9 b2 f1 3d
       0.033926357 -0.12567218 -0.029303532 0.11801679
000010 82 51 58 3b bc 5c 2c be 54 61 c1 bd 15 aa 1d bd
       0.0033007567 -0.1683225 -0.09442392 -0.03849228
000020 d6 48 ef 3c 2a bb 15 bd 8b 87 26 3d 6b e5 db bc
       0.029209536 -0.036555447 0.040656608 -0.026842793
000030 16 ea 46 bd 58 2e 3e bd 70 8c 89 bc 8d 43 2e bd
       -0.048563085 -0.046430916 -0.016790599 -0.04254489
000040 8a 57 50 bd 4f d1 cd 3d 5e 07 a7 3c 5a d3 a4 bd
       -0.050864734 0.10049688 0.020389255 -0.080481246
000050 9d bb d1 3d 20 7c 93 3c ac 7e 4c bd 05 c5 6d bc
       0.102408625 0.018003523 -0.04992549 -0.014512305
000060 36 27 0e bd 33 34 72 bc a1 2d 9e 3c a2 b2 31 be
       -0.034705363 -0.014782953 0.019308867 -0.173533
000070 5a 12 72 3d 5a d5 e7 bd 95 c6 16 3d 45 c1 b3 3d
       0.059099533 -0.113199905 0.036810476 0.087770976
000080 11 93 d1 3d 5c 06 56 3d 8a 0d e9 3c da bc 51 3d
       0.10233129 0.05225216 0.028448839 0.051205494
000090 05 16 47 bc 78 10 32 bd 66 19 a2 3d a3 12 df 39
       -0.012151246 -0.043472737 0.079150006 0.0004254776
0000a0 7e 9d a9 3d e2 aa 08 be 0b 12 36 bd 20 98 ad 3c
       0.082819924 -0.13346437 -0.0444508 0.021190703
0000b0 1c 2c f1 3d 77 b1 b0 3d 0d f3 e0 bd 07 7e 20 3e
       0.11775991 0.08627599 -0.10983858 0.15673076
0000c0 c4 9f 16 bd 98 79 03 3d bf 75 70 3d 04 07 21 be
       -0.036773458 0.032098383 0.05870604 -0.15725332
0000d0 e8 71 01 3d 3d a8 c1 bd 7a 8c e0 3d d5 b8 ee 3c
       0.03160277 -0.09455917 0.10964294 0.02914087
0000e0 3d c8 b5 bc f6 61 96 3d 4d 0d ba 3c ab bd 23 3e
       -0.022190208 0.07342903 0.02271142 0.15990321
0000f0 1c 6d 87 3d f7 6b 50 bd 31 3f 29 bc 52 9f a7 3d
       0.06612608 -0.050884213 -0.010330007 0.08184685
000100 1a cb a6 bd 41 f9 c2 bc 44 30 00 3d 63 56 ba bd
       -0.08144207 -0.023800494 0.03129603 -0.09098508
000110 0f 39 1e 3e 83 49 b3 bc 53 ca a0 bd 27 26 0f 3e
       0.15451454 -0.021885639 -0.0785109 0.13979398
000120 0b 60 c7 bc 34 42 81 3d 62 03 c9 bd aa 7b b1 bb
       -0.024337789 0.06311455 -0.09815098 -0.0054163532
000130 35 e3 04 3e 06 e6 ba 3d f8 73 09 be a4 85 e0 bd
       0.12977298 0.09125905 -0.13423145 -0.1096299
000140 bd fa 37 be 0d 23 07 3e 4d 7a 7a 3d 15 e3 8b 3d
       -0.17966743 0.13196965 0.06115179 0.06830422
000150 f5 79 a6 bd 27 9c 9b bd de 1d b6 3c 86 8a 8c 3d
       -0.0812873 -0.07598143 0.022231039 0.06862359
000160 e7 2c 53 ba aa 40 42 3d 86 92 57 3d b3 81 51 3c
       -0.0008055702 0.04742495 0.05262997 0.01278727
000170 7f d4 12 3e 48 47 32 bc ab b7 c7 bc 76 cf e2 3c
       0.14338873 -0.010881253 -0.024379572 0.027686816
000180 3a 7c 0a bd 83 06 0e bc 01 09 aa 3c e7 39 62 b9
       -0.033809878 -0.008668545 0.020756247 -0.0002157461
000190 22 b2 a0 bd d7 db 1b bd 24 a8 1f 3e 99 14 0f 3d
       -0.07846476 -0.038051452 0.15591484 0.034931753
0001a0 8e e6 c3 bc c5 0d fc bc 46 8d 02 be 4c ba 25 3c
       -0.023913648 -0.030768285 -0.12749204 0.010115217
0001b0 3a 5e 93 bd ef 56 19 be 45 1d 1b bb e8 64 cf 3c
       -0.07195707 -0.14974569 -0.002366857 0.02531667
0001c0 fb 29 8f bd b0 89 df 3d dd 3c f6 ba 0c 1a e1 bd
       -0.06990429 0.10914934 -0.0018786449 -0.10991296
0001d0 70 e0 68 3d 2d 9a 84 bd fd d3 3d 3d fa 67 34 bc
       0.056854665 -0.06474719 0.046344746 -0.011011118
0001e0 7a 22 50 3e 34 2d be bd 42 12 55 ba 73 19 24 be
       0.20325652 -0.092859656 -0.0008128026 -0.16025333
0001f0 8c e1 c4 bd 54 c2 41 3e bd 78 27 3e d8 cc 65 3c
       -0.09613332 0.18921787 0.16354652 0.014025889
000200 9e 33 56 3e c5 f2 ce 3c 6a 3a b4 3d d4 07 0c be
       0.20918128 0.025262246 0.08800204 -0.13674861
000210 ac f0 ad bd 52 73 d6 3d 8f b3 d0 3d 6c c0 d0 bd
       -0.0849317 0.10471214 0.10190498 -0.101929516
000220 4b 54 41 3d b1 6b 8d 3d 47 3a 2d 3e 7a 37 83 3c
       0.04719953 0.06905306 0.16916762 0.016017664
000230 96 b4 c8 bd 2a 05 e4 3b 48 79 95 3b 8b 65 bf 3b
       -0.09800069 0.0069586234 0.004561577 0.0058409623
000240 a4 57 d6 bc ff d3 ea bd ea d0 1c 3d ad eb 7a bc
       -0.026164837 -0.11466216 0.038285173 -0.015314979
000250 f7 47 e1 bc 03 d2 26 3e 8d 6f 9a 3d 65 4f 92 bc
       -0.027500136 0.1629105 0.07540808 -0.017860124
000260 b8 08 73 bd a1 c3 1d 3e 11 ac 32 3d eb 5a f9 3d
       -0.059334487 0.15406658 0.043621127 0.12175544
000270 79 f8 95 bd 93 4c 39 bd 22 29 40 bc 64 68 98 3c
       -0.07322783 -0.045239042 -0.011728557 0.018604465
000280 28 84 bc bd 69 2d 3f 3e 4d fb 34 bd e1 b4 cf bc
       -0.09204894 0.18669666 -0.04418497 -0.025354804
000290 d9 be 12 3d 4e c1 3a 3e 36 20 37 bd 00 1c 91 bc
       0.035826538 0.18237802 -0.044708453 -0.017713547
0002a0 f4 0c e7 3d 80 ec 0e be df 6a 3e 3e 60 00 8b 3d
       0.112817675 -0.13957405 0.18595456 0.06787181
0002b0 30 0b 12 be 07 33 cb bd fc f6 01 3d 98 1f 96 3d
       -0.1426208 -0.09921842 0.031729683 0.07330245
0002c0 22 19 a8 3c b1 63 be 3b 1c 95 f2 bd 61 c2 08 3b
       0.020519797 0.005810224 -0.118448466 0.0020867812
0002d0 95 2e 1e bd 65 ae 6a 3c e3 03 a0 bd f8 ad 4c 39
       -0.038618643 0.014323805 -0.07813241 0.00019519764
0002e0 44 5e de bc 2d b8 8f bc 80 52 f0 3d 19 d7 de 3b
       -0.027144559 -0.017543877 0.117344856 0.006800544
0002f0 72 3a 18 3e 96 68 b7 bd aa ba 92 bd 58 c9 a2 3d
       0.14866045 -0.08955495 -0.071645096 0.079485595
000300 44 3a 1d bd 36 dc d3 bd 86 df 7a bc fe 83 81 3c
       -0.038385645 -0.10344736 -0.015312081 0.01581001
000310 e1 40 e3 bc d4 00 d8 bd 71 55 21 bd 9b 34 74 bd
       -0.027740898 -0.10547033 -0.039388124 -0.05962048
000320 11 15 89 bd e2 54 e4 3d a9 e7 76 bd c5 a8 5c bd
       -0.06693471 0.111490026 -0.060279522 -0.05387189
000330 51 e8 31 bd e2 bc da 3d ae c5 34 3e 05 fe 0a 3e
       -0.043434445 0.10680558 0.17653534 0.13573463
000340 2a a6 4b bb e7 2c 0d 3d 05 99 18 bb 56 1c 2c bd
       -0.0031074383 0.03446665 -0.0023284566 -0.04201921
000350 3e 3a 81 bc 64 aa 37 bc 15 6f 47 bd 9a 6a 99 3c
       -0.015774842 -0.011210058 -0.04868992 0.01872759
000360 e5 63 fc 3d 73 2c 9e bd 6f 2a 64 3b f1 45 8f 3d
       0.12323741 -0.07723322 0.0034815331 0.06995762
000370 a5 20 cd bc 5a 8d cd 3d 1a de 3f bd 5d 23 a2 bc
       -0.02503998 0.10036726 -0.046842672 -0.019792253
000380 cf 20 3a bc 00 d3 83 bd 23 d7 99 bd 8f 74 a6 3d
       -0.011360361 -0.064367294 -0.07511737 0.081277005
000390 d3 d7 48 bd ba b6 01 be 17 37 d6 bd 11 67 a6 bb
       -0.04903395 -0.12667361 -0.10459726 -0.0050782044
0003a0 bc db 6e bc 07 a2 97 ba 76 b5 24 be 5a 87 63 bd
       -0.014578756 -0.0011568674 -0.16084847 -0.055549003
0003b0 5c 15 f8 3c 84 69 0a 3e d0 37 f8 3b c7 ef 91 3c
       0.030283622 0.13516814 0.0075750127 0.01781453
0003c0 2d 5e 67 bd 2f 99 ba 3d 05 32 d7 3d a6 b1 c6 3c
       -0.056486297 0.09111249 0.10507587 0.024254631
0003d0 23 e9 af bd 95 16 37 3e 9c 57 07 be 9d 6d 0d be
       -0.08589389 0.17879708 -0.13217014 -0.13811345
0003e0 70 bc f2 bc cd aa 31 3e 89 a1 1f 3d c5 60 ae bd
       -0.02963087 0.17350312 0.03897241 -0.08514551
0003f0 39 bc 4f 3e 85 81 92 bd bf f2 df bc 13 8a 49 bd
       0.20286645 -0.0715361 -0.02733743 -0.049203943

network_body._body_endoder.seq_layers.2.bias f4 [256]
000000 fc 62 33 3a d8 3e d1 b9 9e 80 12 3a 55 e2 d3 3a
       0.0006843058 -0.0003991041 0.00055886235 0.0016165475
000010 45 ac 6f 3a c8 62 ba b6 f7 f8 7b b9 40 ba b9 3a
       0.00091427966 -5.5547316e-06 -0.00024029972 0.0014169887
000020 0b bd 55 b9 c1 33 90 39 5b 77 05 3b be 53 93 ba
       -0.00020383687 0.0002750438 0.002036533 -0.0011240167
000030 e2 a9 fa ba 57 0a 5f 3a 66 f5 43 3a 42 bf 8d b9
       -0.0019124115 0.00085083157 0.0007475227 -0.00027036114
000040 06 53 23 3b 28 8c b7 3a 51 bb 5a ba 1a d0 d2 b9
       0.0024921312 0.0014003562 -0.00083439524 -0.0004020937
000050 63 80 05 ba e0 cc bd 3a 7e 0a 0c 39 2a fa 01 ba
       -0.00050926785 0.0014480613 0.00013355349 -0.0004958237
000060 a4 f7 b7 b8 ce 6e fe b9 30 c1 95 b9 73 17 ba 3a
       -8.772247e-05 -0.0004852921 -0.0002856343 0.0014197662
000070 41 72 58 ba 0b 10 b9 b9 e8 d7 0f b9 b3 6a 0b 39
       -0.0008256771 -0.00035297903 -0.00013717974 0.00013295822
000080 69 ad fd b9 ec db 96 39 5c 5e 50 ba f2 f1 81 39
       -0.0004838512 0.00028774084 -0.0007948631 0.0002478506
000090 e8 d7 c0 b9 6a 84 ba ba 08 d3 e2 ba 6d d4 c4 3a
       -0.00036781956 -0.0014230136 -0.0017305324 0.0015016921
0000a0 68 c6 f3 b9 d0 28 27 3a a0 e7 92 3a 36 8f 12 3a
       -0.00046496396 0.0006376626 0.0011207946 0.0005590798
0000b0 20 8a 3a 3a 52 f7 93 3a 25 77 63 3a 9f a9 19 ba
       0.0007115919 0.0011288917 0.0008677117 -0.00058617623
0000c0 18 49 8f b9 51 ca 8f 3a c5 f8 94 ba e8 e0 49 39
       -0.00027329545 0.0010970329 -0.0011365643 0.00019252638
0000d0 93 0e a8 3a 09 6e a4 ba ec 85 b9 38 6f 4c 5a b9
       0.0012821726 -0.0012545 8.846432e-05 -0.00020818574
0000e0 25 d6 96 ba d2 84 6b 3a 85 f0 62 3a 4d 3a 69 ba
       -0.0011507912 0.00089843303 0.0008657056 -0.0008896932
0000f0 9e 7d e4 ba c5 28 41 3a 5b ba 09 3a b7 9b 5d 3a
       -0.0017432456 0.0007368441 0.00052539044 0.0008453684
000100 f5 cc 11 3a b8 ce 1f 3b a0 d1 72 3a 06 32 02 b9
       0.0005561852 0.0024384689 0.0009262804 -0.00012416401
000110 2c 0c e7 3a 2c 44 8b 3a 96 f5 12 ba 19 de 37 3b
       0.0017627529 0.0010625175 -0.0005606053 0.0028055965
000120 a8 c4 10 3a e2 f7 55 39 dd ea 26 37 db ad b8 b9
       0.0005522468 0.00020405606 9.949054e-06 -0.00035224747
000130 49 80 fd 3a 79 c9 95 b9 98 de a7 ba f7 b1 85 b9
       0.00193406 -0.00028569603 -0.0012807427 -0.0002550033
000140 65 cc 54 ba e3 f9 1a b9 b8 77 9a 38 2e ee b2 3a
       -0.00081176154 -0.00014779675 7.3655916e-05 0.0013651305
000150 6b ed 47 ba 59 06 69 3a f4 2a a8 39 34 36 54 ba
       -0.00076266256 0.00088891905 0.0003207546 -0.0008095235
000160 2e eb 31 3a ef c2 d9 39 70 40 05 3b da 5a 5a ba
       0.00067870587 0.00041534702 0.0020332597 -0.0008329578
000170 c9 69 81 3a c3 42 f5 b9 6d ba 8b 39 54 b3 ca 3a
       0.0009873445 -0.00046779783 0.00026651044 0.0015464821
000180 c3 27 00 b9 5a ff 78 ba 77 06 1e 3b 6c 58 8d 39
       -0.00012221844 -0.00094984996 0.002411274 0.00026959495
000190 6e cf 03 ba 08 1c 9c ba 49 4a 23 ba ab 25 8d 39
       -0.0005028163 -0.001191021 -0.0006229026 0.0002692168
0001a0 9a 07 c5 3a 0a bc 5f 39 ef 3d d9 ba 2a 20 0c 3b
       0.0015032173 0.00021336987 -0.0016574244 0.0021381476
0001b0 ca 97 10 3b 7f 00 a1 b9 83 3d b2 ba bf 88 99 b7
       0.002206313 -0.00030708683 -0.0013598654 -1.8302699e-05
0001c0 f0 a7 22 3b 04 2d 51 36 d3 91 b2 ba f6 97 ec b9
       0.0024819337 3.116963e-06 -0.0013623781 -0.00045126647
0001d0 83 0a d4 3a 5f d8 1b 3a 11 97 4a 3a aa af 45 ba
       0.0016177449 0.00059450226 0.0007728199 -0.00075411296
0001e0 c3 8b 68 3a 08 27 97 b8 15 d9 c2 b8 2c 3e e4 3a
       0.0008870924 -7.207511e-05 -9.2910755e-05 0.0017413548
0001f0 54 76 21 3a 9e 11 18 3a 07 ce 43 ba 46 2a bd ba
       0.0006159295 0.0005800965 -0.000746936 -0.0014432154
000200 eb 4b ab 3a 94 0f 7b 39 9d db 2d ba b0 84 d9 3a
       0.001306889 0.00023943029 -0.0006632151 0.001659533
000210 7d b8 83 ba 71 b6 15 b9 8f e6 a8 3a 20 64 87 ba
       -0.0010049489 -0.00014277712 0.0012886095 -0.0010329522
000220 75 8b 79 39 05 c3 52 ba 5b cc 18 3a f3 4a c0 38
       0.00023798442 -0.00080399244 0.0005828791 9.169234e-05
000230 82 ea 0a 3b 43 85 09 3a e2 95 09 ba dd 4f c1 3a
       0.0021196906 0.0005245993 -0.00052484695 0.0014748533
000240 80 00 34 ba 2b 13 9f ba e6 5c 93 39 91 6b 83 ba
       -0.00068665296 -0.001213645 0.0002810724 -0.0010026564
000250 4f 9a 1c 3a 14 3c 11 3b dd 4d 1d 39 88 03 88 b9
       0.00059739215 0.0022161053 0.00015001693 -0.00025942572
000260 46 78 d1 3a 73 87 a3 b9 01 74 27 b9 d2 31 ee 3a
       0.0015981279 -0.000311907 -0.00015969576 0.0018172807
000270 65 ec de 3a e0 81 fb b8 cd 95 13 ba 5f fe 04 ba
       0.0017007707 -0.00011992804 -0.0005629927 -0.00050733046
000280 2f 3a 87 ba 94 66 1f b9 0f 13 0c ba 02 6c a2 b7
       -0.0010317023 -0.00015201635 -0.0005343416 -1.93622e-05
000290 d9 fd 57 39 5c 1b 41 3b 20 36 53 39 e2 7e ae 39
       0.00020598563 0.002946577 0.00020142691 0.000332824
0002a0 7a 68 a4 38 6c 12 9f 3a ae 7c 88 3a cc 45 b8 b9
       7.83959e-05 0.0012136227 0.0010413134 -0.00035147218
0002b0 b4 9c 2d ba 26 d0 96 3a b8 e3 04 ba 3f 66 4c ba
       -0.0006622777 0.0011506125 -0.0005069333 -0.0007797218
0002c0 15 22 b7 3a d2 43 6d b9 ff ca 0a 3b 14 54 be 3a
       0.0013971949 -0.00022627346 0.0021178124 0.0014520907
0002d0 e2 02 88 ba f4 52 6f ba dc 86 ba 39 7f 93 f6 39
       -0.0010376836 -0.00091294874 0.00035577163 0.0004703067
0002e0 2a 69 15 ba 96 5c 04 3a 5e 8b 54 3a a4 e4 5e ba
       -0.00056995696 0.0005049197 0.00081079255 -0.0008502698
0002f0 1f 2d b2 b9 13 2d a2 ba 1f 2b b8 3a d0 67 ba 3a
       -0.00033984423 -0.0012373052 0.0014050937 0.0014221612
000300 d7 33 ef ba 41 22 88 39 14 c6 a9 b8 fe f8 3d 3b
       -0.0018249702 0.00025965463 -8.095443e-05 0.0028987522
000310 bc 68 98 ba 89 8f cd ba ac 01 06 ba 2c c7 bb 3a
       -0.0011627893 -0.0015683036 -0.00051119435 0.0014326326
000320 8d ee 93 b9 96 d4 93 3a da 45 c8 3a 78 e7 14 3b
       -0.0002821576 0.0011278566 0.0015279606 0.0022720974
000330 53 ba 63 ba c8 26 81 3a 6b 14 60 3a 4a 09 68 3a
       -0.0008687127 0.0009853477 0.00085479644 0.0008851482
000340 5b ae 9d ba a5 7c bb b9 21 46 17 bb 56 88 c4 b8
       -0.0012030111 -0.00035760287 -0.0023082572 -9.371403e-05
000350 10 84 cd 39 17 33 3c 3b c3 49 95 ba e8 a7 56 3a
       0.0003919904 0.0028716975 -0.001138978 0.0008188472
000360 7c 0a 1d ba 38 eb c0 b9 f0 e4 1f 3a 08 18 76 b9
       -0.0005990637 -0.00036796345 0.0006099483 -0.0002346934
000370 ac 2b 03 ba f4 fb e3 ba e2 ed f3 ba 10 27 a2 3a
       -0.0005003761 -0.0017393813 -0.0018610323 0.0012371261
000380 c9 15 be b9 93 05 17 3a cc d7 de 3a 71 72 ef b8
       -0.00036255855 0.00057610235 0.0017001568 -0.000114177245
000390 1e d5 0d 3b 80 d7 e0 3a 4d 72 4d b9 23 1a 66 39
       0.002164192 0.0017154068 -0.00019592904 0.00021944246
0003a0 6f ff cc 3a d7 c2 32 bb 51 29 33 3a 58 5a 5a 39
       0.001564009 -0.0027276778 0.0006834465 0.00020823756
0003b0 6a ee 86 ba 2f d5 12 3a 7d ed b7 3a 0a de 80 ba
       -0.0010294442 0.0005601225 0.0014032569 -0.0009831798
0003c0 c1 40 bd 3a e3 9e 45 3a cb e5 e7 3a ee 59 9a ba
       0.0014438854 0.00075386296 0.0017692385 -0.0011776069
0003d0 64 b0 e5 ba 47 60 09 b9 fa 4f 51 3a 80 61 d9 b8
       -0.0017523882 -0.00013101204 0.0007984635 -0.00010365527
0003e0 43 c8 3b ba e0 08 c2 b9 d8 95 0e ba 50 e4 9c 3a
       -0.0007163325 -0.00037009176 -0.00054391986 0.0011969898
0003f0 61 52 de ba ec 21 cd ba 52 f2 93 ba 5b d9 1a ba
       -0.0016961807 -0.0015650368 -0.0011287427 -0.0005907022

network_body._body_endoder.seq_layers.2.weight f4 [256, 256]
000000 96 37 8c bc 3e 14 e2 3d b0 fb b2 3d 94 96 e7 bc
       -0.01711635 0.11039017 0.08739412 -0.028270043
000010 50 ce cd bb 35 a5 26 3d f4 f0 82 3b 17 4d 8c bd
       -0.006280698 0.040684897 0.003996009 -0.06850641
000020 5f 2f 1f 3d 62 2e 99 bc eb 1b 85 3d 08 83 fe bc
       0.038863536 -0.018698875 0.064994656 -0.03106834
000030 ae 82 8e 3d 99 2d f7 bc 29 34 a0 3c 75 4a 8b bc
       0.06958519 -0.03017311 0.019556122 -0.017003277
000040 dc 6d 9c bd 50 33 2f be 7b 00 c5 bd 62 c5 1c bd
       -0.076381415 -0.17109418 -0.09619232 -0.038274176
000050 d6 62 6a 3d f5 ed 75 bd 8f 05 d2 3b 5c 7f 83 bd
       0.057223164 -0.060041387 0.006409354 -0.06420776
000060 dd 9c cd bc 0c 28 a3 bc 24 74 cb bd 8b 4f 8a 3d
       -0.025099212 -0.019916557 -0.099342614 0.06753453
000070 db a1 28 bc 65 89 00 3c d8 7f bb 3c c2 8a 16 bc
       -0.010292496 0.007845257 0.02288811 -0.009188356
000080 8d 68 2f be 8e 33 1d bc 41 9f 55 3c 30 5e e4 ba
       -0.17129727 -0.009594811 0.013038457 -0.001742309
000090 ac f6 f7 3d 17 6e 20 3e 07 c4 17 be 26 8f c8 3c
       0.12107596 0.15666996 -0.14820872 0.024482321
0000a0 67 c9 da bd ad 6a 47 3c d5 b7 dd 3d cc f3 79 bd
       -0.10682946 0.01217143 0.10826079 -0.06102352
0000b0 07 3f 4a bd ed ac 33 3d 92 d8 36 3d 32 de 56 bc
       -0.049376514 0.043866087 0.04464013 -0.013114499
0000c0 21 09 a6 bd 45 ea d3 bc 55 3f 41 bd e2 8b fd 3c
       -0.0810721 -0.025868544 -0.04717954 0.03095049
0000d0 44 32 9b bc 14 e4 f5 bc 92 64 9d bd d3 17 78 bd
       -0.018944867 -0.030015983 -0.07685198 -0.060569596
0000e0 4c 4c d7 bc 15 47 d4 bc a5 b5 c5 bc 42 63 83 3d
       -0.026281498 -0.0259128 -0.024134466 0.06415416
0000f0 c6 0b 0d 3c 4b bd 54 bd 97 4f d2 bc 06 58 07 bd
       0.008608764 -0.051938336 -0.025672717 -0.03304293
000100 74 27 5a bd ca 4b 7a 3d f4 4d 8a 3d 79 45 ca 3d
       -0.05326028 0.061107434 0.0675315 0.09876532
000110 e5 fc c3 3d be 8b 03 bd 1b a6 67 3d 18 78 be 3d
       0.0956972 -0.03211569 0.056554895 0.0930025
000120 c4 b4 80 bc b0 ca 5c bd 53 7b 17 bd 4e 76 a1 bb
       -0.015711196 -0.053904235 -0.036982846 -0.004927433
000130 13 bd 96 bd 60 53 34 bd 94 fa 64 3c 2c 4a 9b bd
       -0.07360282 -0.044024825 0.013975758 -0.075825065
000140 e5 15 9d 3c 23 04 cf 3b ca db 0d 3d 2a 58 dd 3c
       0.01917548 0.006317632 0.034633435 0.027019579
000150 15 93 8f bc 79 ae d1 bc a8 d7 a2 bd a5 08 1a bd
       -0.017526189 -0.02559589 -0.079512894 -0.0376059
000160 0b 38 03 be 61 3e 57 bd 7d d7 3e 3b 2d ae ce 3c
       -0.12814347 -0.052549724 0.002912014 0.025229538
000170 b9 8f b4 3d b8 62 96 bd a3 8b 51 bd da 37 3f 3d
       0.088164754 -0.07343048 -0.05115856 0.046684124
000180 9f c5 72 bd 80 99 d4 bc 77 1c 21 bd 81 8f bd bc
       -0.059270497 -0.0259521 -0.039333787 -0.023139717
000190 8c 11 2b bd 67 e2 96 bd a1 db d6 3c 5f 80 79 3d
       -0.04176478 -0.073674016 0.026227774 0.06091344
0001a0 55 7b 21 3e f4 11 1a 3d fa 74 80 bc 02 a5 c5 bd
       0.15769704 0.037614778 -0.015680779 -0.09650613
0001b0 78 64 a6 3d 59 db 53 bd f5 e1 df 3c 09 c6 23 bd
       0.08124632 -0.051722858 0.027329424 -0.039983783
0001c0 21 85 0f bd b7 f4 5e 3c a5 7d 4e 3d f8 ff b0 3d
       -0.03503907 0.013608149 0.050412793 0.08642572
0001d0 3a ea 06 3c e8 91 d1 bc 69 6c c0 3c 5b b8 00 3d
       0.008234555 -0.025582269 0.023489194 0.031425815
0001e0 34 15 b6 3d 3f 4a 3b bc bd 93 27 bd fa ca b6 bc
       0.08890763 -0.011431276 -0.04091238 -0.022313584
0001f0 fc 89 16 bd 43 66 9e bd ba 1c 02 3c 59 01 90 bd
       -0.036752686 -0.077343486 0.007941419 -0.07031507
000200 ef f6 e8 bc a8 84 01 bd 87 79 01 3d 32 0b 92 bd
       -0.02843806 -0.03162065 0.031610038 -0.071310416
000210 65 c4 5b 3b 4a aa 0b bd e7 34 f4 3d 44 c9 24 3c
       0.0033533808 -0.034097947 0.11924153 0.010057751
000220 a3 4a 9f bd bf 71 a1 3c 35 06 82 3d 89 bb 85 bd
       -0.07777908 0.019707559 0.0634884 -0.0652991
000230 1b ec ae 3c 30 b5 4d 3b 99 6d b9 ba 75 46 9e 3c
       0.021352818 0.0031388514 -0.0014147043 0.019320706
000240 e5 6b 5d 3d 18 cd f2 36 d0 92 6e 3d 7a 5c 9b 3c
       0.054057974 7.236038e-06 0.05824548 0.018964995
000250 0d 93 10 3b bf d7 17 bd 35 23 9e 3c 51 a7 24 bd
       0.0022060305 -0.037070986 0.019303897 -0.040198628
000260 81 f9 29 3b f5 2d a9 bd 6a 2a 99 3d 35 05 01 be
       0.002593607 -0.08260719 0.07478793 -0.12599643
000270 32 6f 94 3d a5 f1 66 bc bb 46 e0 bc 66 bd 09 3e
       0.07247771 -0.0140956985 -0.027377477 0.13451156
000280 9d 47 80 bd 46 75 33 bd 6d f0 52 bd 84 63 3c bd
       -0.06263659 -0.043813013 -0.05149882 -0.045993343
000290 a3 5a ed bc cf d7 89 bd ca 83 3b bc 11 14 fa 3b
       -0.028973883 -0.06730615 -0.011444995 0.0076317866
0002a0 4b b0 1f 3e 07 0c 66 bc 09 3a 61 bc 01 64 db bc
       0.15594594 -0.0140409535 -0.013746747 -0.026781084
0002b0 e5 36 d5 bc f6 3e 8c bd 7b b1 17 bc 85 e2 e2 bd
       -0.026027152 -0.06847946 -0.009258623 -0.110783614
0002c0 af 33 3c bc ed aa b5 bc 0b d3 71 3d d9 50 57 bd
       -0.011486932 -0.02217623 0.059039157 -0.052567337
0002d0 04 2c e5 3c e8 be f7 3d f0 82 ef 3c 38 31 5e bd
       0.02797509 0.12096959 0.02923724 -0.054246157
0002e0 b4 f1 01 3d 26 29 bd 3d f7 c8 b8 3d cb 57 ae bc
       0.031724647 0.09236364 0.09022706 -0.021282097
0002f0 8e 18 cc bc be 7f 30 3d 75 18 53 bd 5f cd 7c bd
       -0.024914052 0.043090574 -0.051536996 -0.061719295
000300 4a 83 00 3e bb 63 23 bd d7 11 15 bd c4 8a dc 3c
       0.12550083 -0.039890032 -0.036393967 0.026921637
000310 23 08 19 bc a3 de 3e 3c 52 fa d8 bd 83 72 f5 bd
       -0.009340319 0.01164976 -0.1059462 -0.11984732
000320 9f 52 ca bc 66 a3 7d 3c 68 1c 1e bd b9 c9 63 bc
       -0.0246976 0.015480852 -0.03860131 -0.013903075
000330 a4 11 7d bd dc 4f bd 3d 59 60 94 bc d3 1c 2f 3d
       -0.0617844 0.092437476 -0.018112348 0.0427521
000340 dc 0d 2a bc e5 c4 41 3d ea eb 11 be f7 5a 90 bc
       -0.010379281 0.047306914 -0.1425015 -0.0176215
000350 12 0a 21 bd 57 5d 77 bd 8c f6 e4 bd c0 c4 26 3d
       -0.039316244 -0.06039175 -0.111798376 0.04071498
000360 8f 0d 3c 3d 99 31 81 bd af 2b 6f 3d a6 df 55 3d
       0.045911368 -0.06308288 0.05839127 0.05221524
000370 f3 17 82 3d 7b 20 b4 bd 54 fb 83 bd 47 91 a9 3c
       0.06352224 -0.08795258 -0.064444214 0.020699156
000380 c5 7f 71 3d 73 d8 61 3d bd 8e 95 3c 88 03 ea bb
       0.05895974 0.055138063 0.01825654 -0.0071415342
000390 67 b2 c3 3d 6f a4 af 3d 15 96 87 bd 0c d6 06 be
       0.09555512 0.08576285 -0.06620423 -0.1316759
0003a0 7c f6 88 3c 31 11 c5 3b 35 4c d1 3d a2 a4 8c bc
       0.016719095 0.0060140123 0.102196135 -0.017168347
0003b0 ee 95 b8 bd 96 33 b0 3c b5 1a c0 bd 7d 22 b0 3c
       -0.09012972 0.021508973 -0.09380094 0.02150082
0003c0 bd 2f 2d 3d 58 3b 69 3d b2 42 e3 3d 41 30 a8 bd
       0.042281855 0.05694136 0.110967055 -0.08212329
0003d0 69 8a 15 3e ec 41 6d bd 88 54 95 3d 77 a7 84 bd
       0.1460358 -0.057924196 0.07291514 -0.06477254
0003e0 9e 4b 86 bd 16 34 a7 3c 74 ab 34 bc 5b ad ea 3c
       -0.065573916 0.020410579 -0.011027206 0.028647115
0003f0 7b 61 b3 bc 82 4e 4a bc 15 1a 48 bd 5d 19 4d 3d
       -0.021897068 -0.012347819 -0.048853 0.050073016
