results/R7/AgentController.onnx (onnx, 657373 bytes, 14 tensors)

83 f4 [116]
0	0x3e8ff610	0.28117418
1	0x3e1832db	0.1486315
2	0x3e7a8964	0.24466473
3	0x3e8a95a0	0.2706728
4	0x3e8ebe59	0.278796
5	0x3e1729f6	0.147621
6	0x3e7826af	0.24233507
7	0x3e8a69fb	0.27033982
8	0x3e8fe98b	0.28107867
9	0x3e185f65	0.1488014
10	0x3e7a5178	0.2444514
11	0x3e8ae75d	0.2712964
12	0x3e8dd8eb	0.27704558
13	0x3e1814f5	0.14851744
14	0x3e757337	0.23969732
15	0x3e8a637f	0.27029034
16	0x3e8d519d	0.27601328
17	0x3e18c189	0.14917578
18	0x3e73c829	0.23806824
19	0x3e8abcca	0.2709716
20	0x3e8d1f9a	0.27563173
21	0x3e191dcb	0.14952771
22	0x3e7319ec	0.23740357
23	0x3e8a9676	0.27067918
24	0x3e8a4e40	0.27012825
25	0x3e17ad50	0.14812207
26	0x3e6d05d1	0.2314675
27	0x3e8ab714	0.27092803
28	0x3e8ae093	0.27124462
29	0x3e1a579e	0.15072486
30	0x3e6cd7ca	0.23129192
31	0x3e8a5470	0.27017546
32	0x3e870e07	0.2637789
33	0x3e155260	0.14582205
34	0x3e666efa	0.22503272
35	0x3e8abd62	0.27097613
36	0x3e870a94	0.26375258
37	0x3e1b87ce	0.15188524
38	0x3e628410	0.2212069
39	0x3e89c25f	0.26906106
40	0x3e84cbab	0.25936636
41	0x3e13e825	0.14444025
42	0x3e61b55b	0.22041838
43	0x3e8aa6b9	0.27080324
44	0x3e82725c	0.25477874
45	0x3e1c9821	0.15292408
46	0x3e561d25	0.20909555
47	0x3e89046c	0.26761186
48	0x3e825402	0.25454718
49	0x3e1122a0	0.14173365
50	0x3e5d545f	0.21614216
51	0x3e8a499a	0.2700928
52	0x3e7c8c71	0.24662949
53	0x3e1c506e	0.15265056
54	0x3e4b6b4c	0.1986515
55	0x3e8831e0	0.26600552
56	0x3e7d493e	0.24734971
57	0x3e0f08e8	0.13968241
58	0x3e55829b	0.20850603
59	0x3e890ec2	0.26769072
60	0x3e762945	0.2403918
61	0x3e1dd355	0.15412648
62	0x3e41d9e6	0.18930778
63	0x3e870fdb	0.26379284
64	0x3e79e1b9	0.24402513
65	0x3e118071	0.14209153
66	0x3e4faad8	0.20280015
67	0x3e8747e3	0.26422033
68	0x3e73aabf	0.23795603
69	0x3e21426c	0.15747994
70	0x3e3bab2b	0.18327014
71	0x3e85b494	0.26114333
72	0x3e79a603	0.24379735
73	0x3e15d340	0.14631367
74	0x3e4c69de	0.1996226
75	0x3e85624c	0.26051557
76	0x3e742f91	0.2384627
77	0x3e28738f	0.16450332
78	0x3e361399	0.17780913
79	0x3e843176	0.25818986
80	0x3e7d3c12	0.24729946
81	0x3e1c3bb7	0.15257154
82	0x3e4c714c	0.19965094
83	0x3e83b37b	0.2572287
84	0x3e785a79	0.24253263
85	0x3e327b27	0.17429791
86	0x3e328ea4	0.17437226
87	0x3e8290c5	0.25501075
88	0x3e810dff	0.2520599
89	0x3e25359b	0.1613373
90	0x3e4c1662	0.19930413
91	0x3e823fbf	0.2543926
92	0x3e7c9cf1	0.24669243
93	0x3e3ab01a	0.1823124
94	0x3e308c79	0.17241086
95	0x3e8134cc	0.25235593
96	0x3e8238ff	0.2543411
97	0x3e2db605	0.16963966
98	0x3e48502a	0.1956183
99	0x3e80e475	0.251743
100	0x3e8139cc	0.25239408
101	0x3e40d842	0.18832496
102	0x3e32fcb7	0.17479216
103	0x3e80370c	0.25041997
104	0x3e82c2cd	0.25539246
105	0x3e37773d	0.1791658
106	0x3e412224	0.1886068
107	0x3e8014a6	0.25015754
108	0x3e82c395	0.25539842
109	0x3e3e5754	0.18588
110	0x3e3a5f5f	0.18200444
111	0x3e7fcc76	0.2498034
112	0x3e82c395	0.25539842
113	0x3e3e5754	0.18588
114	0x3e3a5f5f	0.18200444
115	0x3e7fcc76	0.2498034

86 f4 [3]
0	0x40f0229a	7.504224
1	0x3b995ea1	0.00468047
2	0x40fe3924	7.944475

action_model._continuous_distribution.log_sigma f4 [1, 2]
0	0x3b4e0fc2	0.0031442498
1	0xb9dccb8d	-0.00042113327

action_model._continuous_distribution.mu.bias f4 [2]
0	0xbaad682a	-0.0013229896
1	0xbb171f62	-0.0023059477

action_model._continuous_distribution.mu.weight f4 [2, 256]
0	0x3c6662ed	0.014061672
1	0x3c12e80e	0.008966459
2	0xbc12b5d4	-0.008954484
3	0xbb6e9de0	-0.0036410019
4	0x39f529ee	0.00046761282
5	0xbad2f170	-0.0016093682
6	0xbc18183e	-0.009283124
7	0xbcc225e9	-0.023699718
8	0xbc1b5995	-0.009481807
9	0xbab0fb3c	-0.0013502608
10	0x3ce91331	0.028451534
11	0xbc31a9ae	-0.010843677
12	0x3a6dddd6	0.00090738887
13	0x3c7b478b	0.015336881
14	0x3b7b0449	0.0038302115
15	0xbc83b3eb	-0.016077003
16	0x3ca4123d	0.020028228
17	0xbcc961fa	-0.024582852
18	0xbc72852f	-0.014802261
19	0xbcffbcbc	-0.031217925
20	0xbbf94c23	-0.007607953
21	0x3a0064fe	0.00048978615
22	0xbc098cfe	-0.008395432
23	0x3cd6f4d7	0.026239796
24	0x3cc00c0e	0.023443248
25	0x3b97005a	0.004608196
26	0xb9470ce2	-0.00018982918
27	0xbcdbe92c	-0.026844583
28	0x39a49387	0.00031390434
29	0x3c03ae7c	0.008037206
30	0x3a5e911c	0.0008490251
31	0x3c03402f	0.008010908
32	0x3cac6be9	0.02104755
33	0x3ba833ce	0.0051331287
34	0xbce1f0ac	-0.027580582
35	0xbc897faa	-0.016784508
36	0x3c173e44	0.009231154
37	0x3c14b98a	0.009077439
38	0xbc7966d3	-0.015222269
39	0xbc8cd162	-0.017189685
40	0xbc9b4e9f	-0.018958388
41	0x3caa4b08	0.02078773
42	0x3ad79308	0.0016447017
43	0x3b5ee529	0.0034011102
44	0x3c857e44	0.01629556
45	0xbc6608d8	-0.014040194
46	0xbd045266	-0.032305144
47	0xbcea576c	-0.02860614
48	0x3c24a7c7	0.010049767
49	0xbc35913c	-0.01108199
50	0x3c12e9e5	0.008966898
51	0xbbee52c9	-0.0072730524
52	0xbc956af7	-0.018239481
53	0x3b0beac0	0.0021349639
54	0x3c10d716	0.008840343
55	0xbb6d955d	-0.0036252358
56	0x3c7e9af0	0.01553987
57	0x3d02941b	0.031879526
58	0xbc0721bd	-0.00824779
59	0xbd1224e6	-0.03567972
60	0xb9aef80c	-0.00033372676
61	0xbcba116c	-0.022713386
62	0xbc6fc268	-0.014633752
63	0x3c2d2c82	0.0105696935
64	0x3b6026dc	0.003420285
65	0x3bda4bd1	0.00666187
66	0x3c56f7c2	0.0131205935
67	0x3be1864f	0.006882466
68	0xbc1ac43f	-0.009446203
69	0x3cd560be	0.026047107
70	0xbb315f56	-0.0027064881
71	0xbc784fd6	-0.015155753
72	0xbc4eca6a	-0.012621501
73	0x3a8d7032	0.0010790883
74	0xbc0426b1	-0.008065865
75	0x3c029672	0.007970439
76	0xbc944159	-0.018097566
77	0x3d030cda	0.031994678
78	0x3c75c461	0.015000434
79	0x3d043e72	0.032286115
80	0x3c9e4f52	0.019324932
81	0xbc4aeebe	-0.012386022
82	0x3bc23bd9	0.0059275446
83	0xbc298091	-0.010345594
84	0xbcf457b1	-0.02982697
85	0x3d232d98	0.039838403
86	0xbcadebc3	-0.021230584
87	0xbb30ffa0	-0.0027007833
88	0xbc7c4e7a	-0.01539957
89	0x3aa9763b	0.0012928912
90	0x3c578226	0.013153588
91	0xbc6e05e9	-0.014527776
92	0x3aa78f87	0.0012783863
93	0x3c0a6fc9	0.008449503
94	0x3be13bdd	0.0068735913
95	0xbc8e0124	-0.017334528
96	0x3ca27313	0.019830262
97	0xbd1c853c	-0.038213
98	0xbc06a76e	-0.008218629
99	0x3c0f8fe2	0.008762332
100	0xbc358b19	-0.011080527
101	0xbb42cec6	-0.0029725297
102	0x3cb36413	0.021898305
103	0x3be2cd50	0.006921448
104	0xbc3998f3	-0.01132797
105	0x3d0c377e	0.03423261
106	0xbc8f3892	-0.01748303
107	0x3caa7e0f	0.020812063
108	0xbc09281e	-0.008371381
109	0xbc910f70	-0.017707556
110	0x3bbe6726	0.005810636
111	0x3c7155bc	0.014729913
112	0x3a58fda3	0.0008277541
113	0xbc9ee359	-0.019395517
114	0x3c0f319b	0.008739854
115	0xbc2c919e	-0.010532765
116	0xbb0db255	-0.0021621187
117	0xbc88943f	-0.016672252
118	0xbceaf47d	-0.028681034
119	0xbc6a4ff9	-0.0143012935
120	0xbc7bc102	-0.015365841
121	0x3c02ec7d	0.0079909535
122	0x3ca071f5	0.019585589
123	0x3d04462f	0.032293495
124	0xbc658eff	-0.014011144
125	0x3c99a549	0.018755572
126	0xbd54a4f7	-0.051915135
127	0xbbe3663d	-0.006939678
128	0x3c671df4	0.0141062625
129	0x3c8a448c	0.016878389
130	0x3d0fe25f	0.035127994
131	0xbaf5a884	-0.0018742238
132	0x3b24ceaf	0.0025147607
133	0xbc97b13c	-0.01851713
134	0x3bdc65ba	0.006725994
135	0xbc088af6	-0.008333912
136	0x3b05e886	0.0020432784
137	0x3b66912e	0.0035181749
138	0xbc2f809f	-0.010711818
139	0x3c874f41	0.016517283
140	0x3c2003f4	0.0097665675
141	0xbc1302b2	-0.008972811
142	0x3ccbe3bc	0.024888866
143	0xbbf8739e	-0.007582142
144	0x3aad4a61	0.0013221019
145	0x3c8474ff	0.01616907
146	0x3c6b1ee3	0.014350626
147	0xbd3926c3	-0.04520298
148	0x3c088ecb	0.008334826
149	0xbcdb13e2	-0.02674288
150	0xbbc51c55	-0.0060153403
151	0x3cef6a95	0.029225627
152	0xbc122b64	-0.008921478
153	0xbb1c919a	-0.0023890496
154	0x3c8e28d6	0.017353456
155	0xbb93e5f1	-0.004513495
156	0x3b09ea5e	0.0021044235
157	0xbbbbee2a	-0.0057351785
158	0xbc46fe16	-0.01214554
159	0xbcf78145	-0.030213008
160	0xbbcc5d5e	-0.006236716
161	0xbc2af82b	-0.010435144
162	0x3c3b621a	0.011436963
163	0x3b6fecf8	0.003660975
164	0xbcc9074b	-0.02453961
165	0xbc327dab	-0.010894219
166	0x3bf7313d	0.0075437115
167	0xbcbdfe8a	-0.023192663
168	0x3a6d78c4	0.0009058828
169	0x3b08317b	0.0020781446
170	0x3c7147d2	0.014726596
171	0xbc7e7977	-0.015531889
172	0xbc2ea853	-0.010660249
173	0xbbb9d929	-0.0056716395
174	0xbca522cd	-0.020158196
175	0x3c0b3b1b	0.008497979
176	0x3c6222f7	0.013802282
177	0x3b8220d0	0.0039711967
178	0xbca6cbc1	-0.02036083
179	0x3bd99e55	0.006641189
180	0xbbf04dd2	-0.0073334957
181	0xbc881d43	-0.016615516
182	0xbbff8bd1	-0.00779865
183	0x3cad823d	0.021180267
184	0x3c8d6410	0.017259628
185	0x3cc8eb92	0.024526391
186	0xbc898cff	-0.016790865
187	0x3cacf097	0.021110816
188	0xbb55218f	-0.0032521223
189	0x3c11b1a4	0.0088924505
190	0xbc63d7f0	-0.013906464
191	0x3bd9b9e5	0.006644475
192	0xbbb37437	-0.0054765004
193	0x3c0371fc	0.008022781
194	0x3c917534	0.017756082
195	0xbc99205b	-0.018692186
196	0x3c81759e	0.015803155
197	0x3cad7a1c	0.02117639
198	0x3c2e5219	0.010639691
199	0x3ac0ac6a	0.0014699821
200	0xbc91f64e	-0.017817643
201	0x3cc509ec	0.024052583
202	0x3b8b0801	0.0042428975
203	0x3ca5c803	0.020236975
204	0xbbb5b1ab	-0.0055448613
205	0xbc1ec37e	-0.009690164
206	0x3ca36fce	0.019950774
207	0x3ba716df	0.005099162
208	0xbb91bb05	-0.0044473433
209	0xbc25c403	-0.010117534
210	0xbc81db68	-0.015851691
211	0x3cbcf47c	0.023065798
212	0xbc8bb7a2	-0.017055336
213	0x3cbab0a4	0.022789307
214	0x3ce8e6d3	0.028430378
215	0x3c9444b6	0.01809917
216	0x3a105dae	0.00055071234
217	0xbbb942fe	-0.005653738
218	0xbc056d3a	-0.008143717
219	0xbc0a61e3	-0.00844619
220	0x3d337ec1	0.043822054
221	0x3c80f37a	0.015741099
222	0x3c140abb	0.0090357615
223	0xbaa44238	-0.0012531942
224	0x3cc9ca58	0.024632618
225	0xbca3497e	-0.019932505
226	0x3c7c80be	0.015411554
227	0xbb42e571	-0.0029738809
228	0x3d0b390a	0.033989944
229	0xba05caf2	-0.00051037886
230	0x3bf4a0a3	0.0074654385
231	0xbc120cc9	-0.008914181
232	0xbc0fc3b7	-0.008774689
233	0xbc3b4519	-0.011430048
234	0xbbf4d8ea	-0.0074721472
235	0x3c4fc96d	0.012682301
236	0xbb00060e	-0.001953486
237	0xbc9e80e9	-0.019348579
238	0x3c393ea2	0.011306437
239	0x3c1c8267	0.009552575
240	0x3c6a5ad5	0.014303883
241	0xbba18764	-0.00492947
242	0x3d18c5ce	0.037298016
243	0x3c20c71f	0.009813099
244	0x3c9a5c39	0.018842803
245	0xbc79abd5	-0.015238722
246	0xbc912b4e	-0.017720845
247	0x3b6dfdd9	0.0036314635
248	0xbc0e6257	-0.008690438
249	0xbb4db931	-0.00313909
250	0xbc7a0b94	-0.0152615495
251	0x3cc8804d	0.024475241
252	0x3d0eca6a	0.034861006
253	0x3c5fe7ee	0.013666136
254	0x3c1440bf	0.00904864
255	0xbbf9bdea	-0.0076215165

action_model._discrete_distribution.branches.0.weight f4 [1, 256]
0	0x3b1612f9	0.0022899492
1	0x3c113ff6	0.008865347
2	0xbc5b40fa	-0.013382191
3	0xb93bec4c	-0.00017921737
4	0x3c01a117	0.007911942
5	0xbb76236f	-0.003755774
6	0x3c2f8e1f	0.010715037
7	0xbb58e4f3	-0.0033095449
8	0x3bf6b9bd	0.007529466
9	0xbbb85d76	-0.005626376
10	0x3c6b6133	0.014366436
11	0xbbec17ca	-0.0072049843
12	0x3c154043	0.0091095595
13	0xba07f0d3	-0.0005185727
14	0xbb226131	-0.002477717
15	0xbc294453	-0.010331231
16	0x3b725f13	0.0036982938
17	0xba6ced05	-0.0009038004
18	0x3abc5382	0.0014368149
19	0xba2d118c	-0.0006602041
20	0xbafe4af0	-0.0019400995
21	0xbb57bd17	-0.0032919103
22	0xbb25a2f7	-0.0025274137
23	0x3c070ac1	0.00824231
24	0x3b446d63	0.0029972426
25	0x3b10c055	0.0022087295
26	0xbc824ec9	-0.015906708
27	0x3aeddb3f	0.0018147005
28	0x3baef683	0.005339445
29	0xbb0c6988	-0.0021425206
30	0xb9d33ea5	-0.0004029173
31	0xbb159746	-0.0022825762
32	0x3c41f5b2	0.0118383635
33	0x3aa9f06f	0.0012965332
34	0x3b5504e5	0.0032504138
35	0xbb1cf38f	-0.0023948883
36	0xbbe58e23	-0.0070054694
37	0xbb519938	-0.0031982195
38	0x3a870278	0.0010300418
39	0x3b2e419d	0.0026589402
40	0xbbbf2169	-0.00583284
41	0x3b472fbf	0.003039345
42	0x3a25ee22	0.0006329735
43	0xbaf60938	-0.0018771058
44	0x3c6db970	0.014509544
45	0x3b9ff071	0.004880958
46	0x3c53e73d	0.0129335495
47	0xb99134ab	-0.00027695796
48	0xba52063b	-0.00080117927
49	0x3b8d6c26	0.004315871
50	0xbb0e28d3	-0.0021691814
51	0x3bbc785e	0.0057516536
52	0x3c0592ef	0.0081527075
53	0x3aa7563b	0.0012766788
54	0xbb3957f8	-0.0028281193
55	0x3b58695d	0.0033021786
56	0xbb34dc7b	-0.0027597237
57	0x3b0df4c8	0.0021660794
58	0x3a9cbeb7	0.0011958693
59	0x3b25eea3	0.002531924
60	0x39774b20	0.00023583742
61	0x3b92ffb4	0.0044860486
62	0x3bb7cdff	0.0056092734
63	0xbbbc7453	-0.0057511716
64	0x3aca4d1b	0.0015434356
65	0xbb595238	-0.0033160578
66	0x3b6e1358	0.0036327448
67	0x3b9c74cb	0.004774665
68	0xba9e1855	-0.0012061695
69	0x3c1abfaf	0.009445115
70	0xbb8ed32f	-0.004358671
71	0x3bb3e357	0.0054897475
72	0x3bf551b7	0.007486548
73	0xbaa0438c	-0.0012227162
74	0xbb0d8003	-0.0021591194
75	0x3bdb6ad0	0.0066960827
76	0xbb6ebcca	-0.0036428445
77	0x3b67c52b	0.0035365324
78	0xbbf2c4af	-0.0074087004
79	0x3aafe8d7	0.0013420832
80	0x3b1a06c3	0.0023502565
81	0xbc01569e	-0.007894186
82	0xb90d8f53	-0.000135002
83	0xbb42e219	-0.0029736815
84	0xbbcf71ea	-0.0063307183
85	0x3a8f16eb	0.0010916864
86	0xbb60d3e8	-0.0034305993
87	0xb98c3d77	-0.00026748676
88	0xba969833	-0.0011489451
89	0x39176523	0.00014438159
90	0x3acef23b	0.0015788743
91	0xba790160	-0.0009498801
92	0xbc0d4aee	-0.008623822
93	0xbb9d260a	-0.0047957944
94	0xbb90a6c0	-0.0044144094
95	0x3b8aa6b7	0.0042312997
96	0xbc67409f	-0.014114528
97	0xb9b207c3	-0.0003395659
98	0x3b236238	0.002493037
99	0x3a0af3f2	0.0005300633
100	0xbb2530a7	-0.0025206
101	0x3c06b36f	0.008221491
102	0x3bcbe777	0.006222661
103	0xbb2a4f01	-0.0025987031
104	0xba824785	-0.0009939527
105	0x39c40ccb	0.00037393565
106	0xbc010939	-0.007875734
107	0xbad00495	-0.0015870506
108	0xbbcebbcb	-0.0063090078
109	0xbbb73314	-0.005590806
110	0xba34a19e	-0.0006890538
111	0x3a8a74d7	0.0010563385
112	0xbc3ed1db	-0.011646713
113	0xbbd93eaf	-0.006629787
114	0xbbcf5e78	-0.0063284
115	0x3bf91d4f	0.007602371
116	0xbb9de346	-0.004818353
117	0xbafc1763	-0.0019233044
118	0xbacd52ca	-0.0015664932
119	0xbb7d0bc0	-0.003861174
120	0xbb1fe462	-0.0024397601
121	0xbbd6ae3d	-0.0065515325
122	0xbbb6d58a	-0.005579655
123	0x3b878bb5	0.0041365274
124	0x3b6ec22b	0.003643165
125	0x3a562c98	0.0008170097
126	0x3b8d2815	0.0043077567
127	0x3b123fe4	0.0022315914
128	0x3a3227f7	0.00067961164
129	0x3b0d16cc	0.002152848
130	0x3a0c7d3a	0.00053592364
131	0xbc1d72ca	-0.009609887
132	0xbbb378df	-0.0054770554
133	0xbc36f358	-0.011166416
134	0xbc7eb22b	-0.015545408
135	0x3c0e0907	0.0086691445
136	0xbc0837e7	-0.008314109
137	0x3a438643	0.0007458666
138	0xbb11200a	-0.002214434
139	0xb97c98c8	-0.00024089508
140	0xbc13dae4	-0.009024356
141	0xbb77b63f	-0.0037797836
142	0x3b48b461	0.0030625092
143	0xbc1ffeda	-0.009765351
144	0x3b856ee3	0.0040720566
145	0xbbf89f5a	-0.0075873556
146	0x3c0b2bcc	0.008494329
147	0x399e6a23	0.00030215186
148	0x3c4c478a	0.012468228
149	0xbb81c9a1	-0.0039608036
150	0x3b77352a	0.0037720897
151	0xbb6ade78	-0.0035838168
152	0x3c521227	0.012821711
153	0x3bc18f8f	0.005907006
154	0xbb1c2900	-0.002382815
155	0xbc03de4b	-0.008048604
156	0xbb5da5c3	-0.0033820726
157	0xbb2b973f	-0.002618268
158	0xbb39e8ad	-0.0028367445
159	0xbb869c83	-0.004108013
160	0x3b962547	0.0045820805
161	0x3b53f845	0.0032344025
162	0xbb292a67	-0.0025812627
163	0x3c2d3fb9	0.010574275
164	0xbb0f9c95	-0.0021913399
165	0x3b57a700	0.0032905936
166	0x3b8ffae4	0.004393922
167	0xbbd9615a	-0.0066339197
168	0xbb94a951	-0.0045367857
169	0x3bbf049f	0.0058294083
170	0xbaff0137	-0.0019455318
171	0x38f23133	0.00011548623
172	0xbb65ba15	-0.003505354
173	0xbbc5c4cf	-0.0060354243
174	0xba94d1ac	-0.0011353991
175	0xbbd1f1fb	-0.00640702
176	0x3b2a7a8f	0.0026012992
177	0xbb55dc88	-0.0032632668
178	0x3bd7ac2d	0.0065818042
179	0xbbffdd72	-0.0078083808
180	0x3c0afdf8	0.008483402
181	0x3c413f05	0.01179481
182	0x3bea32f0	0.0071471855
183	0xbbaf0a45	-0.0053418004
184	0xbc0cdb88	-0.008597262
185	0x3b999d5b	0.0046879477
186	0xbaca3e52	-0.001542995
187	0x3a0c9ed7	0.0005364245
188	0xbbb3d65b	-0.0054881996
189	0x3c0a2c3f	0.008433401
190	0xbb978d42	-0.0046249935
191	0x3b1a31cb	0.0023528214
192	0x3a5efd02	0.0008506329
193	0xba16c69f	-0.0005751643
194	0x3b14764f	0.0022653525
195	0x3bb3cdf6	0.005487199
196	0xba6d3342	-0.00090484705
197	0x3aad0578	0.0013200482
198	0x3b90f179	0.004423317
199	0xbc4d3d97	-0.012526891
200	0xbb57a457	-0.003290435
201	0xbbbf1f5f	-0.005832597
202	0x3af47bfb	0.0018652672
203	0x39a3cc67	0.00031242074
204	0xbb83dd05	-0.0040241503
205	0x3b6b0700	0.0035862327
206	0xbc0a20c8	-0.008430667
207	0x3c410c67	0.011782742
208	0xba7c3232	-0.0009620517
209	0xba15d58b	-0.00057157193
210	0x3b8798cc	0.004138088
211	0x3b6f645f	0.0036528332
212	0x3b28a1df	0.0025731248
213	0x3c1a531b	0.009419228
214	0xbbba84ea	-0.005692114
215	0xb988ff32	-0.00026130077
216	0x3bc7f6d2	0.0061024213
217	0xbb366961	-0.0027833807
218	0xbbd8b9a3	-0.0066139265
219	0x3bcfdead	0.0063436837
220	0x3b41e78b	0.0029587473
221	0x3c613048	0.013744421
222	0xba90c85b	-0.0011046039
223	0xbb1cea4f	-0.002394337
224	0xbc498f53	-0.012302238
225	0x3be950a3	0.0071202083
226	0x39ed21ef	0.00045229445
227	0x3b474eec	0.0030412031
228	0xb98d5aeb	-0.00026961355
229	0xbbb1f357	-0.0054306197
230	0x3bc8dd22	0.0061298767
231	0x3bcad654	0.0061901007
232	0xba6683d8	-0.000879345
233	0xbbc00f26	-0.005861181
234	0x3b8142c7	0.003944728
235	0xbc3bf8c6	-0.011472886
236	0xbc22fe34	-0.009948302
237	0xbc06b047	-0.008220739
238	0xbc09f529	-0.008420267
239	0x3b24b550	0.0025132485
240	0xbaeb8305	-0.0017968124
241	0x3bf82af7	0.007573481
242	0x3a0a1626	0.00052675826
243	0x3b9555ee	0.0045573628
244	0xba8ed58b	-0.0010897381
245	0xbc4bae6f	-0.012431725
246	0xbc0a558e	-0.008443249
247	0x3ae3b5bb	0.0017372885
248	0xbba27f48	-0.0049590208
249	0x3c50f29d	0.012753156
250	0x3b39643a	0.00282885
251	0x3b026153	0.0019894436
252	0xbbc67d21	-0.006057397
253	0xbba956bc	-0.0051678102
254	0x3c848d22	0.016180579
255	0xbacef475	-0.0015789407

network_body._body_endoder.seq_layers.0.bias f4 [256]
0	0x3c3f97bc	0.011693891
1	0xbb237790	-0.002494309
2	0x3b9aec17	0.004727851
3	0xba6a7e6a	-0.0008945229
4	0x3c2e6448	0.010644026
5	0x3bc81f13	0.00610722
6	0x3aebfcbd	0.0018004399
7	0x3bedbf72	0.007255488
8	0xbbcfad2d	-0.006337783
9	0x3ad20263	0.001602244
10	0x3bfdd4eb	0.007746329
11	0xbc05c549	-0.008164712
12	0x3c0e91f3	0.008701789
13	0x3bad3b56	0.0052866144
14	0x3b5c07d5	0.0033574004
15	0x3c8244ab	0.015901884
16	0xbae5c675	-0.0017530458
17	0x3bf00fe0	0.007326111
18	0x3beb5693	0.0071819513
19	0x3b85279d	0.00406356
20	0xbb6edc30	-0.003644716
21	0x3b7c5794	0.003850435
22	0x3c124f31	0.0089300135
23	0x3c686d3c	0.0141862
24	0x3b841783	0.004031123
25	0x3b386f29	0.0028142428
26	0x3bf36bea	0.007428636
27	0x3c09abeb	0.008402805
28	0xbaaffd40	-0.0013426915
29	0xbb96f21f	-0.0046065
30	0x3be120a4	0.006870346
31	0x3c0c191d	0.008550909
32	0x3bd316fd	0.0064419494
33	0x3bf9ad79	0.0076195565
34	0x3bfddf99	0.007747602
35	0x3a308223	0.0006733259
36	0xbb478798	-0.003044581
37	0xbb5103b0	-0.0031893067
38	0x3b5a8d8a	0.0033348524
39	0xbb355366	-0.0027668118
40	0x3aecfa93	0.0018080048
41	0xbbb021ad	-0.005375108
42	0x3a5b8d2c	0.0008375223
43	0x3afcf6bc	0.0019299607
44	0x3be843b6	0.00708815
45	0x3bbcb106	0.0057584075
46	0x3c11d222	0.008900197
47	0x3b85e017	0.0040855515
48	0x3b15ac87	0.002283843
49	0x3ac56329	0.0015059459
50	0x3bb3d69c	0.00548823
51	0x3a21275f	0.00061475293
52	0x3bd1ee07	0.006406549
53	0xbaf9e3a0	-0.001906503
54	0x3c7d83d7	0.015473328
55	0x3b372390	0.002794478
56	0x3b97d047	0.004632983
57	0x3c31a6d9	0.010843002
58	0x3bffb71f	0.007803812
59	0x3ba992e0	0.0051749796
60	0x3b69dcae	0.0035684514
61	0xbb44caef	-0.0030028184
62	0xbc74ba30	-0.014936969
63	0x3c1b8706	0.009492641
64	0xba84b31d	-0.0010124181
65	0x3b615a64	0.0034386152
66	0xbaef1a00	-0.0018242002
67	0x3bb784bf	0.0056005414
68	0xba6882e0	-0.00088695996
69	0x3bcfb465	0.0063386434
70	0x3af395a3	0.0018584024
71	0xbc35798e	-0.011076344
72	0xbaa5612b	-0.0012617459
73	0x3c0efcea	0.008727292
74	0xbb4c72e9	-0.0031196421
75	0x3b3aebcd	0.0028521896
76	0x3be49585	0.006975832
77	0x3c09db7d	0.0084141465
78	0x3ba8e020	0.005153671
79	0x3b3abf63	0.0028495423
80	0x3c3c6b5a	0.011500204
81	0x3c23d617	0.009999773
82	0x3a627443	0.000863854
83	0x3b840227	0.004028577
84	0x3ad04886	0.0015890754
85	0x3c2049b2	0.009783195
86	0x3b106e5b	0.0022038433
87	0x3bb41708	0.0054959096
88	0x3b24cebf	0.0025147644
89	0xbb8d485e	-0.0043116054
90	0xbbfbffaa	-0.0076903896
91	0xba1a9f5b	-0.00058983796
92	0x3bdcf238	0.006742742
93	0x3c5c4586	0.01344431
94	0x3b973571	0.004614525
95	0xb9fca813	-0.0004819041
96	0x3b8a1034	0.0042133573
97	0xbacbf1a6	-0.0015559688
98	0x3a2bb30d	0.0006549813
99	0x3ab1dd6d	0.0013570018
100	0xbaadc26d	-0.0013256796
101	0x3b354359	0.002765855
102	0x3c016427	0.007897413
103	0x3bdc39c7	0.006720755
104	0x3ab2b259	0.0013633474
105	0xbc156374	-0.00911795
106	0x3c0903b3	0.008362698
107	0x3aca25a1	0.0015422591
108	0xbb0397cb	-0.002007949
109	0x3b4361a1	0.002981283
110	0xbb81c611	-0.003960379
111	0x3b5ccfea	0.0033693262
112	0x3b93fd1e	0.004516258
113	0xbb84c15a	-0.0040513696
114	0xbb8567aa	-0.0040711956
115	0x3bcebe71	0.0063093235
116	0x3bebb2ea	0.007192959
117	0x3b5c7190	0.0033637024
118	0x3c2d75d6	0.010587176
119	0x39bacfdb	0.0003563155
120	0xbb82918d	-0.003984636
121	0xbb0e72b9	-0.002173586
122	0x3b5eda50	0.0034004636
123	0x3c49459f	0.012284665
124	0x3c183459	0.009289824
125	0x3bf32d5c	0.0074211787
126	0x3c247a72	0.010038959
127	0x3c2ddd9d	0.010611919
128	0x3c03d4c5	0.008046334
129	0xbb5681cb	-0.0032731171
130	0x3bb0a01e	0.005390181
131	0x3b36fc3d	0.0027921342
132	0x3bba0941	0.0056773727
133	0x3c82dee6	0.015975427
134	0x3c1b30fb	0.009472127
135	0x3bc928fd	0.0061389194
136	0x3bb616dc	0.0055569243
137	0xbc21fb6a	-0.009886602
138	0xbb845dd6	-0.0040395064
139	0x3a665f8d	0.0008788042
140	0xbb817478	-0.0039506517
141	0x38b37d4e	8.558725e-05
142	0x396890e6	0.00022179223
143	0x3a16eb8d	0.00057571457
144	0xbbb7062e	-0.0055854535
145	0x3b0d8e74	0.0021599801
146	0x3acd0f52	0.0015644825
147	0x3a870e3d	0.0010303926
148	0x3b4bf052	0.0031118584
149	0xbb931f1e	-0.0044897934
150	0x3bc5302e	0.0060177064
151	0x3b31fcc6	0.0027158721
152	0x3b928cff	0.0044723745
153	0x3abb71d3	0.001430089
154	0x3c122834	0.008920718
155	0x3c3981ae	0.011322422
156	0x3b0bf764	0.0021357173
157	0xba5ea546	-0.00084932556
158	0x3c6d6112	0.014488475
159	0xbb9d524a	-0.0048010694
160	0xbba1d8c2	-0.0049391696
161	0x3b886e31	0.0041635265
162	0xbba0a454	-0.004902402
163	0x3c1eba48	0.009687968
164	0x3b8ad96d	0.004237345
165	0xbb8c337a	-0.0042785974
166	0x3be236b8	0.0069034956
167	0xba1cb81a	-0.0005978361
168	0x3b296097	0.0025844926
169	0x3b97b120	0.0046292692
170	0x3c6438e7	0.013929582
171	0x3b81835a	0.003952426
172	0x39b61f32	0.00034736987
173	0x3b4df901	0.0031428935
174	0x3baac00f	0.0052108834
175	0x3b0b7ebc	0.0021285256
176	0x3c809391	0.015695365
177	0x3c129d2b	0.008948605
178	0x3b17758b	0.0023110833
179	0x3bd27efb	0.0064238287
180	0x3c5bf686	0.013425475
181	0x3b8f3088	0.004369799
182	0x3c207d97	0.009795568
183	0xbbf5d29b	-0.007501913
184	0x3c47e064	0.012199495
185	0xbb8f9b70	-0.0043825433
186	0x3becab0a	0.007222538
187	0x3c233b2e	0.00996284
188	0x3b2ad105	0.0026064527
189	0x3bf876ef	0.0075825374
190	0x3bb9c583	0.005669297
191	0xbb441223	-0.0029918037
192	0xbabcb7c8	-0.0014398033
193	0xbb44c255	-0.0030023057
194	0x3bae5ccf	0.0053211222
195	0x3b8d4b92	0.004311987
196	0x3bca8c5b	0.0061812825
197	0x3c375d3b	0.0111916615
198	0x3c1ea847	0.009683675
199	0xbb42176a	-0.0029616007
200	0x3b997d28	0.0046841092
201	0x3bb7a9db	0.005604965
202	0xbb8ad079	-0.0042362777
203	0x3aacfee4	0.0013198522
204	0x3b265642	0.0025381004
205	0xbab9a87a	-0.001416459
206	0xbb33b866	-0.0027423142
207	0x387856c5	5.9208618e-05
208	0x3bab4585	0.0052267932
209	0xba8f7e3d	-0.0010947656
210	0x38c955cb	9.600407e-05
211	0x3ab2faa2	0.0013655017
212	0x3b8678ca	0.0041037546
213	0x3b437b95	0.00298283
214	0x3b846a25	0.0040409737
215	0xbb20a680	-0.0024513304
216	0xbb837d39	-0.0040127304
217	0x3b1d5d15	0.002401178
218	0x3b2e6441	0.002661005
219	0xbb1bcd56	-0.0023773513
220	0x3c4d7f21	0.012542517
221	0x3af510be	0.0018697006
222	0xbb923cf8	-0.0044628344
223	0xba873e69	-0.0010318282
224	0xbb9e8f68	-0.0048388727
225	0x3c4364ae	0.011925859
226	0x3b8c6145	0.0042840564
227	0xbb73772f	-0.0037149896
228	0x3a4ecca9	0.0007888773
229	0x3b482974	0.0030542286
230	0xbb14ef69	-0.0022725707
231	0x3baa93cf	0.0052056084
232	0x3b3e4380	0.0029031932
233	0x3b93f86e	0.004515699
234	0x3c3cb6e8	0.011518218
235	0x39625cf3	0.00021587666
236	0x3bc86a8d	0.0061162175
237	0x3af908c4	0.0018999805
238	0x3c339dca	0.010962913
239	0x3b734d06	0.0037124767
240	0x3b52a8eb	0.003214414
241	0x3b4a6f26	0.0030889004
242	0x3be81516	0.0070825918
243	0x3c49580d	0.012289059
244	0x3c01f123	0.007931027
245	0x3bac08cb	0.0052500716
246	0x3c1fd955	0.009756406
247	0x3bb4f1d1	0.005521991
248	0x3b7ba165	0.003839576
249	0x3c25bfe5	0.010116552
250	0xba3f7ba3	-0.0007304495
251	0xb9afdfc7	-0.00033545328
252	0x3c27d746	0.010244196
253	0x3bf4d862	0.007472084
254	0x3c02a3e0	0.007973641
255	0x3be65faf	0.0070304493

network_body._body_endoder.seq_layers.0.weight f4 [256, 119]
0	0x3d0b7019	0.03404245
1	0xbdb2b407	-0.08725744
2	0xbe072018	-0.13195837
3	0xbd24954f	-0.040181454
4	0xbdb6d7ea	-0.08927901
5	0x3d548a99	0.05188999
6	0xbc14d7a2	-0.009084614
7	0xbd19a5c3	-0.0375116
8	0xbe69bf95	-0.22826989
9	0x3c184754	0.00929435
10	0xbcc25e88	-0.023726717
11	0xbd06ffa7	-0.032958653
12	0xbd22630e	-0.039645247
13	0x3c3d22bc	0.011543926
14	0xbe246783	-0.16055112
15	0x3ded3682	0.11582662
16	0x3cf545c9	0.029940503
17	0x3bee6362	0.007275031
18	0x3e2c5a05	0.16831215
19	0xbd8253a1	-0.06363607
20	0x3c9666e4	0.018359609
21	0xbe14b73b	-0.14523022
22	0x3d56642b	0.05234162
23	0x3e6767b1	0.22598149
24	0xbdc9cc77	-0.09853452
25	0x3d9ddac4	0.07707742
26	0x3d8e8d52	0.069605485
27	0xbde6bdcf	-0.11266672
28	0xbe1c3c32	-0.15257338
29	0xbe104536	-0.14088902
30	0xbd1563ac	-0.036472008
31	0xbd4a2e2a	-0.04936043
32	0xbe1daa36	-0.15396962
33	0x3e3446c6	0.17605123
34	0x3c5e9a77	0.013586632
35	0x3d901559	0.07035322
36	0x3c8158f1	0.01578948
37	0xbc022106	-0.007942444
38	0xbdaf9a8a	-0.08574398
39	0xbd2672ec	-0.04063694
40	0x3d3b0814	0.045662
41	0xbcfe0fe3	-0.031013435
42	0x3d2b4c81	0.041821007
43	0x3d780986	0.060555957
44	0xbd7a3642	-0.0610869
45	0xbc7761e3	-0.015099022
46	0xbbc6bb74	-0.0060648266
47	0x3d9e86b6	0.07740538
48	0x3dc25c91	0.09490312
49	0x3df0f528	0.1176551
50	0xbadfbf3b	-0.0017070541
51	0xbe0190be	-0.12652871
52	0x3d8ec2e4	0.06970766
53	0xbdbdf3c6	-0.09275012
54	0x3dae596a	0.08513148
55	0x3e16f106	0.1474038
56	0xbc0429ba	-0.008066589
57	0x3de163e4	0.11005381
58	0xbd14252b	-0.03616826
59	0x3d9b0ceb	0.07570823
60	0xbdbcb89d	-0.092149
61	0xbe32af52	-0.17449692
62	0xbd232d3d	-0.039838064
63	0xbd85fbb8	-0.06542152
64	0xbce89c63	-0.028394883
65	0x3cabf283	0.020989662
66	0x3d9e0b9b	0.07717057
67	0xbe023b83	-0.12718014
68	0xbb5b3049	-0.0033445528
69	0xbc76f308	-0.015072592
70	0xbd8c0ab3	-0.06837978
71	0x3dc2bc13	0.095085286
72	0xbd9d99de	-0.076953635
73	0xbd0c24dc	-0.03421484
74	0x3d431f86	0.047637485
75	0x3e1f46d9	0.1555437
76	0xbc12f535	-0.008969595
77	0x3d5d1e52	0.053983994
78	0x3e188f56	0.14898428
79	0xbd33159f	-0.04372179
80	0xbd00511f	-0.031327363
81	0x3def0dec	0.11672577
82	0x3c3b5864	0.011434648
83	0x3ccfb59d	0.025355155
84	0x3d86d028	0.065826714
85	0x3d99ef95	0.075164
86	0x3cca3530	0.024683565
87	0x3d1c3344	0.03813483
88	0xbe3b085e	-0.1826491
89	0xbd24c66b	-0.04022829
90	0x3d7b3a7f	0.061335083
91	0x3d724a22	0.05915273
92	0x3d812549	0.0630594
93	0x3d7a8092	0.06115777
94	0xbda11394	-0.07865062
95	0x3d9bd9e2	0.07609917
96	0x3d398914	0.045296744
97	0x3d6b2cb4	0.05741568
98	0x3ddcd1f4	0.10782233
99	0x3d5926d6	0.053015552
100	0xbd4a3f1d	-0.049376596
101	0x3e37a712	0.17934826
102	0x3ccdcd61	0.025122346
103	0x3e0f0721	0.13967563
104	0x3caffb96	0.02148227
105	0xbcdd3156	-0.027001064
106	0x3d196efd	0.037459362
107	0x3e480791	0.19534136
108	0xbd480b1a	-0.048838712
109	0xbd839c8e	-0.06426345
110	0x3e028561	0.12746193
111	0xbe0cb990	-0.13742661
112	0xbcc6f641	-0.024287345
113	0xbd4ae0d2	-0.04953081
114	0xbc9fe541	-0.019518496
115	0xbd7d0364	-0.06177081
116	0xbd92c97f	-0.071673386
117	0xbd451a71	-0.04812092
118	0x3e6b1d51	0.22960402
119	0xbd3935b7	-0.045217242
120	0x3decccda	0.1156251
121	0xbcdc33fb	-0.026880255
122	0x3d92b0a6	0.07162599
123	0x3db5377e	0.08848475
124	0x3d090078	0.033447713
125	0xbd83f407	-0.06443029
126	0x3d8274a3	0.06369903
127	0xbdbdc509	-0.09266097
128	0xbdbfdaa1	-0.09367872
129	0x3c84be28	0.016203955
130	0xbda86e4b	-0.08224162
131	0xbde60327	-0.1123107
132	0x3e3a9498	0.18220747
133	0xbe0ca105	-0.13733299
134	0x3cd0baa4	0.025479622
135	0xbddee5cd	-0.10883675
136	0x3cf537ce	0.029933836
137	0xbe0513c6	-0.12995824
138	0x3cc7dafd	0.024396414
139	0xbda751fc	-0.08169934
140	0x3d99456a	0.07483943
141	0x3c1d59c8	0.009603925
142	0x3dc7d764	0.097578794
143	0xbe5181ee	-0.2045972
144	0xbd5fdc66	-0.054653548
145	0x3d008608	0.031377822
146	0xbdb2497e	-0.08705424
147	0x3d057d6a	0.032590307
148	0x3d3bf77e	0.045890324
149	0xbde9e562	-0.114207044
150	0x3d1b7179	0.037950013
151	0x3cdee98a	0.02721097
152	0x3bd1f381	0.0064072018
153	0xbe2f01ac	-0.17090482
154	0x3bd77e1a	0.006576312
155	0x3d0c2a1b	0.034219842
156	0x3d6ac1b9	0.057313655
157	0xbcf7e20e	-0.030259158
158	0xbdae4c2f	-0.085106246
159	0xbd785e06	-0.060636543
160	0xbd253347	-0.040332105
161	0x3d421ad6	0.047388874
162	0x3dbaa6fd	0.09113882
163	0x3dddef50	0.10836661
164	0x3ad9d55a	0.001661937
165	0x3d514280	0.05108881
166	0x3e496b03	0.19669728
167	0x3aed65d5	0.0018112013
168	0x3d26d970	0.04073471
169	0x3c252d08	0.010081537
170	0x3cd5c414	0.026094474
171	0x3da3068a	0.079602316
172	0x3c35c2fa	0.011093849
173	0x3d5bb14e	0.053635888
174	0x3d9bb5b2	0.07603015
175	0x3d92cf5f	0.07168459
176	0xbb8e32df	-0.0043395604
177	0xbd87702f	-0.06613194
178	0xbdbdd1f1	-0.09268559
179	0xbc23aada	-0.009989465
180	0x3c8bc790	0.017062932
181	0x3deaab28	0.11458427
182	0xbcc8fa98	-0.024533555
183	0x3e004ab8	0.12528503
184	0x3cd333a2	0.025781456
185	0x3e18c801	0.14920045
186	0xbd1bd728	-0.038046986
187	0x3c0ea0dc	0.008705344
188	0xbe047276	-0.12934288
189	0x3daadbd0	0.08342707
190	0xbd217a54	-0.0394233
191	0xbd88a260	-0.066715956
192	0x3b219ebf	0.002466127
193	0x3e43dacc	0.19126433
194	0xbd0b1952	-0.033959694
195	0x3de02823	0.109451555
196	0xbc81b699	-0.01583414
197	0x3c41b653	0.011823255
198	0xbb599f92	-0.0033206684
199	0x3b9e34bd	0.0048280642
200	0xbd117694	-0.035513476
201	0xbd736f0f	-0.059432086
202	0xbd4cb71b	-0.04997931
203	0xbc9789ae	-0.018498268
204	0xbd102692	-0.035193034
205	0x3d07f72d	0.03319471
206	0xbdd325e7	-0.10309964
207	0x3de06cf4	0.10958281
208	0xbcb7f488	-0.022455469
209	0xbdcc9f3a	-0.099913076
210	0xbd47f6df	-0.04881942
211	0xbe0d678b	-0.1380903
212	0x3c66c466	0.014084911
213	0xbd3fc3b0	-0.04681748
214	0xbdf85383	-0.121253036
215	0xbd5cb336	-0.053881846
216	0xbdc0cac1	-0.09413672
217	0x3e48f69a	0.19625321
218	0x3d5d00b0	0.053955734
219	0x3cd73a37	0.026272876
220	0xbdcb41f4	-0.09924689
221	0xbe10a964	-0.14127117
222	0x3d177446	0.03697612
223	0xbcfe9892	-0.03107861
224	0x3cb3055f	0.021853147
225	0xbdeed479	-0.1166162
226	0xbd817e66	-0.06322937
227	0x3c9bf735	0.019038776
228	0x3c51b404	0.012799267
229	0xbe3b3b73	-0.18284397
230	0x3ce5d7f4	0.028057076
231	0x3d2ffccd	0.0429657
232	0x3da5c274	0.080937296
233	0x3df2ed47	0.11861663
234	0xbe0e5cd4	-0.13902599
235	0x3d441c6e	0.047878675
236	0xbd965560	-0.07340503
237	0x3e159800	0.14608765
238	0xbc7c3b92	-0.015395062
239	0x3d474e20	0.04865849
240	0x3bb02cf9	0.005376455
241	0x3b2f4031	0.0026741142
242	0x3e29be10	0.1657641
243	0xbdc241a7	-0.094851784
244	0xbe348f37	-0.17632757
245	0xbd97c299	-0.074101634
246	0x3d8b6db2	0.06808032
247	0xbdc372ab	-0.095433556
248	0xbcff41d2	-0.031159315
249	0xbe2ce780	-0.16885185
250	0xbe064772	-0.13113192
251	0x3d08e3db	0.033420425
252	0xbcb80242	-0.022462014
253	0xbd6cbf52	-0.057799645
254	0x3dd5e823	0.10444667
255	0xba853e1b	-0.0010165604

network_body._body_endoder.seq_layers.2.bias f4 [256]
0	0x3bebf304	0.0072006006
1	0x3b6f6149	0.0036526492
2	0x3c39d7d1	0.011342959
3	0x3b33c4a6	0.0027430444
4	0x3ad48796	0.0016214724
5	0x3bf1245d	0.007359071
6	0xbbb09df9	-0.0053899256
7	0x3ba02f48	0.004888449
8	0x3b52b49d	0.003215111
9	0x3b2e4f21	0.0026597457
10	0x3adda492	0.0016910008
11	0x3b3511c8	0.0027629007
12	0xbb04f692	-0.002028857
13	0x3c03c3f7	0.008042327
14	0xbb8cf12f	-0.0043012123
15	0x3bc9b5b4	0.006155694
16	0x3b241fec	0.002504344
17	0x3a98b05c	0.0011649239
18	0xbba0cf07	-0.004907492
19	0x3b9e5cd5	0.004832844
20	0xbbd907c6	-0.006623241
21	0x3c10a8f4	0.008829344
22	0xbb01e2f8	-0.0019819122
23	0x3b5182c0	0.0031968802
24	0x3ab423af	0.0013743545
25	0x3be28871	0.0069132377
26	0xba7f3fa6	-0.00097369624
27	0x393c03ae	0.00017930448
28	0xbb4fe5c4	-0.0031722644
29	0x3b364cff	0.002781689
30	0x3a941272	0.0011297001
31	0x3b5bb4eb	0.0033524584
32	0xbba2bb9f	-0.004966214
33	0xbacff4c0	-0.0015865788
34	0xbb09ca01	-0.0021024945
35	0x3a37bb2c	0.0007008787
36	0x3bad6268	0.005291272
37	0x3b30d14d	0.0026980222
38	0x3bcaaf97	0.0061854827
39	0x3abdcbed	0.001448033
40	0x3b6c9e42	0.0036105071
41	0x3bc7d902	0.0060988674
42	0x3af6a6f8	0.0018818071
43	0xbb5a0fbe	-0.0033273543
44	0xba3a5681	-0.0007108227
45	0xbc256bcd	-0.0100965025
46	0x3bbe1006	0.00580025
47	0xb9bed7f0	-0.0003640051
48	0x3ba8477d	0.005135475
49	0x3b537fe6	0.0032272278
50	0xb9803901	-0.00024456534
51	0x38ed54d6	0.000113168426
52	0x3bf09168	0.0073415525
53	0x3c0b2ef4	0.008495081
54	0x3aa860e6	0.0012846261
55	0x3a15ae50	0.00057098735
56	0x3bf56b31	0.007489585
57	0x3c07d8d6	0.008291444
58	0x3afee0e7	0.0019445688
59	0x3b7cbad7	0.0038563514
60	0x3b8f4206	0.0043718843
61	0x3c172333	0.009224701
62	0xbb806a7a	-0.003918943
63	0x3b88aff5	0.0041713663
64	0x3c355a6e	0.011068923
65	0x3c6e7368	0.014553882
66	0x3b87e83e	0.0041475585
67	0x3bcc38ea	0.0062323706
68	0x3b78d63c	0.003796949
69	0x3bbc3f07	0.005744818
70	0x3c452984	0.012033824
71	0xbbfaf179	-0.0076581803
72	0x3b7b3e3a	0.003833665
73	0x3b877d7a	0.004134831
74	0x3c39e940	0.011347115
75	0x3b1477ff	0.002265453
76	0x39cada02	0.0003869087
77	0xb7f4b09b	-2.9169305e-05
78	0x3b83a54d	0.004017508
79	0x3bb9eb08	0.00567377
80	0x3b0c7eaa	0.0021437802
81	0x3baf8c32	0.0053572888
82	0xbbb979d0	-0.005660273
83	0x3befa5e7	0.0073134783
84	0xbbad0f70	-0.0052813813
85	0x3bc37ffd	0.005966185
86	0x3bd7ff0f	0.0065916847
87	0xbade5713	-0.0016963206
88	0x3ae02f3d	0.0017103922
89	0x3b9fb14b	0.00487343
90	0xbb71b069	-0.003687883
91	0xba87d247	-0.001036235
92	0x3ba221c1	0.0049478714
93	0x3b976495	0.0046201446
94	0x3bdee21a	0.0068018558
95	0x3c3c016f	0.011474951
96	0x3b93a856	0.004506151
97	0x3b3083fc	0.0026934138
98	0x3ba1204f	0.0049171816
99	0x3bc48fa2	0.0059985677
100	0xb897d3c3	-7.239685e-05
101	0xba4e354b	-0.00078662176
102	0x3b8e2f43	0.00433913
103	0x3b9c1281	0.004762948
104	0x3b4b3578	0.0031007212
105	0x3c16ca9b	0.009203578
106	0x3b0dc49d	0.0021632083
107	0x3bea2f53	0.007146755
108	0x3ad0b557	0.0015923184
109	0x3b0ead49	0.0021770766
110	0x3baf6580	0.005352676
111	0x3c044256	0.008072456
112	0x3becc85f	0.0072260345
113	0x3b830533	0.0039984225
114	0x3b29f074	0.0025930675
115	0x3a9108f7	0.0011065294
116	0x3b9ad52b	0.0047251186
117	0x3b1364b8	0.0022490453
118	0x3b27a158	0.0025578346
119	0x3bafea61	0.0053685163
120	0xbbac6559	-0.005261105
121	0x3a891de9	0.0010461184
122	0x3c17da88	0.0092684105
123	0x3c25a630	0.010110423
124	0x3afefbf3	0.0019453749
125	0x3ba4f09a	0.0050335648
126	0x3c1cb422	0.009564431
127	0x3a0cdb2e	0.00053732365
128	0x3b973502	0.0046144733
129	0x3b89d4f6	0.004206295
130	0x3bb842f3	0.0056232153
131	0x39ab8537	0.00032714914
132	0x3af2230a	0.0018473577
133	0xbb70a066	-0.0036716699
134	0x3c1c6dd4	0.009547669
135	0x3b8442e4	0.0040362943
136	0x3bdb2e33	0.006688857
137	0x3a61adfa	0.00086089934
138	0xbadd0012	-0.0016860983
139	0x3b25279a	0.0025200606
140	0x3c267233	0.010159063
141	0xbade77a4	-0.0016972912
142	0x3ba98a16	0.005173932
143	0xbb7b34fd	-0.0038331144
144	0x3b457ff8	0.003013609
145	0x3b399372	0.0028316644
146	0x3a9603ec	0.0011445261
147	0xbbd3bafe	-0.0064615
148	0xbbc1d335	-0.0059150704
149	0x3b09d134	0.0021029236
150	0xbb1f17cd	-0.002427566
151	0x3c3056fc	0.010762926
152	0x3bbaf462	0.005705402
153	0xba7dc9b4	-0.000968124
154	0x3c23dafb	0.0100009395
155	0x3c303b34	0.010756303
156	0x3bb14674	0.00541001
157	0xbb911670	-0.0044277236
158	0xbb612a7a	-0.0034357593
159	0x3bb8c80f	0.005639083
160	0x3b9b2c85	0.0047355318
161	0x3a06cafc	0.00051419414
162	0x3bbe9c92	0.0058170045
163	0x3a09a2e7	0.00052504096
164	0x3c7a38cd	0.015272331
165	0x3ad35299	0.0016122638
166	0x3c1ff1f0	0.009762272
167	0x3bc7ab8f	0.0060934494
168	0xbbb1c518	-0.0054251067
169	0xbb199d0c	-0.0023439554
170	0xbb469dec	-0.003030653
171	0xb9e24e74	-0.0004316453
172	0x3c04f731	0.008115576
173	0x3c2483fe	0.010041235
174	0x3a333646	0.00068363955
175	0x39d9afee	0.00041520543
176	0xbab58964	-0.001385015
177	0xbb7f7866	-0.0038981675
178	0x3ba76a94	0.0051091406
179	0xbb797098	-0.0038061496
180	0x3bbcadc5	0.0057580196
181	0x3bc7ba3b	0.0060951984
182	0x3a80cb3f	0.0009826197
183	0x3bae25d8	0.00531457
184	0x3b9244da	0.004463774
185	0x3b4baa38	0.00310768
186	0x3bcd967e	0.0062740436
187	0x3bcadc70	0.006190829
188	0x3af57665	0.0018727301
189	0xbb43b344	-0.002986149
190	0x3afecba0	0.0019439347
191	0x3bbcb667	0.0057590487
192	0x3b2e56f9	0.0026602133
193	0x3c0ecad5	0.008715351
194	0x3b71fab7	0.003692312
195	0xbb5d9603	-0.0033811338
196	0xbc174051	-0.009231643
197	0x3c2287d2	0.009920077
198	0x3b664d22	0.003514119
199	0x3bcc22a8	0.0062297173
200	0x3b798788	0.0038075168
201	0x3a77ca83	0.0009452479
202	0xbaff615b	-0.001948397
203	0xbc74d97d	-0.014944431
204	0x3c079f91	0.00827779
205	0x3b94a732	0.004536533
206	0xbbbd8233	-0.005783343
207	0x3a9bec12	0.0011895916
208	0x3bf0e494	0.0073514674
209	0xbb7c4d88	-0.003849836
210	0x3c07be4a	0.008285115
211	0xba88fe08	-0.0010451684
212	0x3ba9d4d3	0.0051828413
213	0x3a2a42c3	0.00064949336
214	0x3bbbf11f	0.005735531
215	0x3b8f5f7b	0.004375396
216	0x3b85d9e5	0.004084813
217	0xb907bfab	-0.00012946005
218	0x3b2b351d	0.0026124187
219	0x3bf20fb0	0.007387124
220	0x3a962a10	0.0011456627
221	0xbbb6a2a7	-0.005573589
222	0x3c2db3e4	0.010601971
223	0x3c28a164	0.010292385
224	0x3c0037b5	0.007825782
225	0x3c594ca3	0.0132629005
226	0x3c025674	0.007955182
227	0x3b93ce90	0.004510708
228	0x3bb89687	0.0056331786
229	0x3ab53dbb	0.0013827601
230	0x39f51397	0.00046744637
231	0x39f92922	0.00047523627
232	0x3b78af56	0.0037946305
233	0x39257504	0.00015779218
234	0x3b74a9cf	0.003733266
235	0x3c36ed57	0.011164985
236	0x3c0f1860	0.008733839
237	0x3bc4709f	0.005994871
238	0x3bbe0161	0.005798504
239	0x3bc44138	0.00598922
240	0xbb90c0b6	-0.004417504
241	0x3b5ead75	0.00339779
242	0xba61587e	-0.0008596255
243	0xbadb932f	-0.0016752238
244	0xbb3ced77	-0.0028828064
245	0x3bf2c980	0.0074092746
246	0xba7ca2d0	-0.0009637298
247	0x3bd7f2b1	0.0065902104
248	0x3bffdd97	0.007808398
249	0xb9f4b65f	-0.00046675184
250	0x394be8b8	0.00019446283
251	0x3c09a02f	0.008400007
252	0xbbe89ee3	-0.007099019
253	0x3b5654d3	0.0032704368
254	0x3c2b27c4	0.010446493
255	0x3c252df6	0.010081759

network_body._body_endoder.seq_layers.2.weight f4 [256, 256]
0	0xbcdcd87c	-0.026958697
1	0x3c78821e	0.015167741
2	0x3be79fde	0.007068618
3	0x3d102fd3	0.03520186
4	0x3d8b2f99	0.06796188
5	0x3c84fc39	0.01623355
6	0xbcfaf8b5	-0.03063617
7	0x3d0cd3c2	0.034381635
8	0x3d38cb13	0.04511554
9	0xbc27438e	-0.010208977
10	0xbd411160	-0.04713571
11	0x3d8be65d	0.06831048
12	0xbd58b7e3	-0.052909743
13	0x3cb43b8a	0.022001047
14	0xbd897f15	-0.06713692
15	0xbb7117da	-0.0036787898
16	0xbe099f80	-0.1343975
17	0x3c4c8eaf	0.01248519
18	0xbcdd8091	-0.027038844
19	0xbd605deb	-0.054777067
20	0x3d8e8f89	0.06960971
21	0xbe046041	-0.12927343
22	0x3d344d2d	0.044018913
23	0xbc83343f	-0.016016124
24	0xbdaee892	-0.08540453
25	0x3dba7340	0.091040134
26	0xbceb812b	-0.028748116
27	0xbd1f0e00	-0.03883171
28	0x3dfb6c67	0.122765355
29	0xbd642863	-0.05570258
30	0x3e2337fa	0.15939322
31	0x3d151641	0.036398176
32	0x3c767d1c	0.015044477
33	0xbddb761f	-0.10715889
34	0xbdf068b9	-0.11738724
35	0x3c681f7f	0.0141676655
36	0xbc493701	-0.01228118
37	0xbb32225f	-0.0027181131
38	0xbda6cd6d	-0.081446506
39	0x3d585c13	0.052822184
40	0x3cf1bae7	0.029508067
41	0xbdc5e658	-0.09663075
42	0xbd6314ff	-0.055439945
43	0xbd4e9614	-0.050436094
44	0xbd01a47b	-0.031651
45	0x3d6d19f7	0.05788609
46	0xbd8af41f	-0.06784844
47	0x3da50db0	0.08059251
48	0xbd1a2def	-0.037641462
49	0xbd14832f	-0.03625792
50	0xbd3affcb	-0.0456541
51	0xbd8c2261	-0.06842495
52	0x3ddd42c6	0.10803752
53	0x3cfab2ef	0.0306029
54	0xbd7f0b72	-0.062266774
55	0xbdae2e9b	-0.08504983
56	0x3e0917a1	0.1338792
57	0x3da6cde5	0.0814474
58	0x3d3cbe56	0.046079956
59	0xbdcacf37	-0.09902804
60	0x38ebe503	0.0001124833
61	0xbd044c49	-0.032299314
62	0xbd1efb79	-0.03881404
63	0x3d704292	0.058657236
64	0xbd56a458	-0.052402824
65	0xbdbb0f96	-0.09133832
66	0xbdc479fc	-0.09593579
67	0xbd0127e9	-0.031532202
68	0xbd7bcdb7	-0.06147548
69	0x3e1d395f	0.15353917
70	0xbd2b15ba	-0.041768767
71	0xbd4bd18c	-0.049760386
72	0x3cf8ea26	0.030385088
73	0xbd1a5dd0	-0.037687123
74	0xbd047b23	-0.032343995
75	0xbc6299aa	-0.013830582
76	0xbdb5c942	-0.088762775
77	0xbdd9d08d	-0.10635481
78	0xbc7d5e8e	-0.015464438
79	0xbdc61e76	-0.09673779
80	0xbde60a9f	-0.112324946
81	0x3d588aab	0.05286662
82	0x3d6d97df	0.058006164
83	0xbd43f41e	-0.04784023
84	0xbd8548ca	-0.06508024
85	0xbd55ed9f	-0.052228566
86	0x3d043b07	0.032282855
87	0xbd37ad2a	-0.044842876
88	0xbb301b3b	-0.00268717
89	0x3d39527d	0.045244683
90	0xbc8dac2a	-0.017294008
91	0xbddae1e1	-0.10687614
92	0xbd51b16f	-0.051194604
93	0x3d4996e1	0.049216155
94	0x3c033199	0.0080074305
95	0xbd237cd8	-0.039913982
96	0x3c6031ab	0.013683717
97	0x3afe6f04	0.0019411747
98	0x3d235a52	0.039881058
99	0xbd8e0862	-0.06935193
100	0x3dcfd753	0.10148492
101	0xbdab6a98	-0.083699405
102	0xbe01cf0e	-0.12676641
103	0x3d5ae1ae	0.05343788
104	0x3cea3d30	0.02859363
105	0xbc180b02	-0.009279968
106	0xbda9ef2f	-0.08297574
107	0xbda3b2a7	-0.079930596
108	0xbdfaec1a	-0.12252064
109	0x3d641426	0.055683278
110	0xbdcb6036	-0.0993046
111	0xba595fe9	-0.0008292185
112	0xbd86b2d3	-0.06577077
113	0xbddc3338	-0.10751957
114	0xbd227198	-0.039659113
115	0x3aa4f396	0.0012584801
116	0xbd5b84b7	-0.053593364
117	0x3b5dd4d4	0.003384878
118	0x3d12fdb6	0.03588649
119	0xbdad2e39	-0.08456082
120	0xbe157222	-0.1459432
121	0x3d6848e5	0.056710143
122	0x3a0a82ae	0.0005283755
123	0xb8c6e3ce	-9.483808e-05
124	0xbd223c10	-0.03960806
125	0x3de16e8f	0.110074155
126	0xbd0972d2	-0.033556767
127	0xbd894b8a	-0.06703861
128	0xbd9b23b5	-0.0757517
129	0x3c7fba8b	0.01560844
130	0xbd780137	-0.060548034
131	0xbe402d49	-0.18767275
132	0x3d288588	0.04114297
133	0xbb80bbb3	-0.0039286255
134	0xbcddd036	-0.027076822
135	0x3c022d9d	0.007945445
136	0x3dce5105	0.10074047
137	0xbc47a252	-0.012184696
138	0xbbcbc292	-0.006218263
139	0xbdedde91	-0.11614717
140	0xbddb3f7d	-0.10705469
141	0xbdb90765	-0.090346135
142	0x3df300af	0.11865365
143	0x3d345925	0.044030327
144	0xbcd32659	-0.025775122
145	0x3ad256c2	0.0016047584
146	0x3d8f0524	0.06983402
147	0xbd13a608	-0.03604701
148	0xbce05def	-0.027388541
149	0xbd2b1edf	-0.041777488
150	0x3d1b8339	0.03796694
151	0x3d304341	0.04303289
152	0xbd3c2fb7	-0.045943942
153	0xbd9ab45d	-0.07553933
154	0x3d6f5197	0.05842742
155	0x3e35c8ab	0.1775233
156	0xbd66fcc3	-0.056393396
157	0xbd0f01b4	-0.034913734
158	0xbc6f11e9	-0.014591672
159	0xbd11497f	-0.035470482
160	0xbe26a407	-0.16273509
161	0xbd58c8fb	-0.052926045
162	0xbded15d9	-0.11576433
163	0xbdc4d9ef	-0.0961188
164	0xbcb313a5	-0.021859953
165	0x3d015844	0.031578317
166	0x3bdcb6d5	0.0067356625
167	0x3da3f3b8	0.0800547
168	0x3d4425e1	0.047887687
169	0x3d722e71	0.05912632
170	0xbd35707f	-0.044296738
171	0x3d12c88b	0.035835784
172	0x3d1642e5	0.03668489
173	0xbd232bb7	-0.03983661
174	0x3ddf76af	0.10911309
175	0xbca32b44	-0.019918092
176	0xbb3dea32	-0.0028978703
177	0x3da8ee73	0.082486056
178	0x3d1992dd	0.037493575
179	0x3bf07204	0.0073378105
180	0x3d473b1b	0.04864035
181	0xbd5c1d38	-0.053738803
182	0xbdc07a18	-0.093982875
183	0x3ceede50	0.029158741
184	0x3d82d007	0.06387334
185	0xbcf630aa	-0.030052502
186	0x3dc7fe91	0.097653516
187	0xba9eccfd	-0.0012115535
188	0xbe0ba519	-0.13637199
189	0x3b4f9d05	0.0031679284
190	0xbc73b85f	-0.0148755
191	0x3c63fb72	0.01391493
192	0xbd78e6bc	-0.06076692
193	0x3d9ec0d9	0.077516265
194	0xbdcf8c31	-0.10134161
195	0x3aa431c5	0.001252704
196	0x3de395dc	0.11112568
197	0x3d2f9915	0.0428706
198	0x3d7ce845	0.061744947
199	0x3ba12c83	0.0049186363
200	0x3dbd9db1	0.09258593
201	0xbc322ad4	-0.010874469
202	0xbdf5b472	-0.11997308
203	0xbd18dbec	-0.03731911
204	0xbd713a1b	-0.058893304
205	0x3beb35fd	0.0071780668
206	0xbd94e2d4	-0.072698265
207	0x3c7fea97	0.015619895
208	0xbd4866c7	-0.04892614
209	0xbe2ef206	-0.17084512
210	0x3d1113a3	0.035419118
211	0x3d0d1ff4	0.0344543
212	0xbdcb8222	-0.0993693
213	0xbdbec208	-0.09314352
214	0xbd9bd527	-0.07609015
215	0xbd5f90e1	-0.054581527
216	0x3d834ff1	0.06411732
217	0x3e24d1af	0.16095613
218	0x3dd30e2e	0.10305439
219	0xbd151df6	-0.036405526
220	0x3d62ca97	0.055368986
221	0x3d7adf71	0.061248247
222	0x3ccfc21b	0.025361111
223	0x3d1a1518	0.037617773
224	0xbcbcf98c	-0.023068212
225	0xbd35a296	-0.044344507
226	0xbd400374	-0.046878293
227	0xbcfe81cc	-0.031067751
228	0xbd69779b	-0.05699883
229	0x3dd4fb83	0.103995346
230	0x3b2a4614	0.0025981711
231	0xbd3f95ce	-0.046773724
232	0xbca73cfd	-0.020414824
233	0xbb903c41	-0.004401714
234	0xbdb371a0	-0.087619066
235	0xbb08e618	-0.00208891
236	0xbd9b03b7	-0.07569068
237	0x3cc64956	0.024204891
238	0x3cec943e	0.028879281
239	0x3dea40e1	0.11438156
240	0xbd8ead52	-0.06966652
241	0xbbd59425	-0.0065179043
242	0xbd2d14ed	-0.042256285
243	0xbdb7a5a6	-0.08967142
244	0xbcef025d	-0.029175932
245	0x3dad53de	0.08463262
246	0xbc953013	-0.0182114
247	0xbd6f756c	-0.05846159
248	0x3d34268b	0.04398207
249	0x3c6854ec	0.014180403
250	0xbbb165eb	-0.005413761
251	0x3e2bc0c2	0.1677275
252	0xbdaf1a84	-0.08549979
253	0xbc9a256a	-0.018816669
254	0x3e01721b	0.12641184
255	0x3dcab088	0.09896952
