results/H8/AgentController/AgentController-499996.onnx (onnx, 657373 bytes, 14 tensors)

83 f4 [116]
0	0x3e84895b	0.25886044
1	0x3e3f1e8c	0.18663996
2	0x3e3ef230	0.18647075
3	0x3e812a6d	0.2522768
4	0x3e82bee9	0.25536278
5	0x3e39f14a	0.1815845
6	0x3e3eb5de	0.18624064
7	0x3e8029a4	0.2503177
8	0x3e842c67	0.25815126
9	0x3e3fa0d4	0.18713695
10	0x3e3d555c	0.18489593
11	0x3e82736e	0.2547869
12	0x3e80a6eb	0.25127348
13	0x3e359e7e	0.17736241
14	0x3e3cb62d	0.1842887
15	0x3e803850	0.25042963
16	0x3e83d61a	0.25749284
17	0x3e400eee	0.18755695
18	0x3e3bdec5	0.18346699
19	0x3e83d24b	0.25746378
20	0x3e80233c	0.25026882
21	0x3e32a8b4	0.17447168
22	0x3e3e06ea	0.18557325
23	0x3e8146f3	0.25249442
24	0x3e84a47b	0.2590674
25	0x3e41eb4f	0.1893742
26	0x3e3c682f	0.18399118
27	0x3e859085	0.26086822
28	0x3e7e4c60	0.24833822
29	0x3e2f9f19	0.17150535
30	0x3e3dfdf5	0.18553908
31	0x3e82d4c8	0.25552964
32	0x3e86563b	0.26237664
33	0x3e426f7a	0.18987837
34	0x3e410d81	0.18852808
35	0x3e8769eb	0.26447996
36	0x3e7d9e58	0.24767435
37	0x3e2d20f2	0.16907099
38	0x3e3f429a	0.1867775
39	0x3e84ad29	0.2591336
40	0x3e87d220	0.265275
41	0x3e42e53a	0.19032755
42	0x3e45130c	0.19245547
43	0x3e88b0a2	0.2669726
44	0x3e7bf4b0	0.2460506
45	0x3e27ca62	0.16385797
46	0x3e419285	0.18903549
47	0x3e862be7	0.2620537
48	0x3e8920e5	0.2678291
49	0x3e401404	0.18757635
50	0x3e4ba68e	0.19887754
51	0x3e89940d	0.26870766
52	0x3e7d0c17	0.24711643
53	0x3e246c52	0.16056946
54	0x3e45ce26	0.1931692
55	0x3e878250	0.26466608
56	0x3e8bd55f	0.27311227
57	0x3e41e88a	0.18936363
58	0x3e51ca35	0.20487292
59	0x3e89906c	0.26867998
60	0x3e804b26	0.25057334
61	0x3e25cc73	0.16191272
62	0x3e498543	0.19679742
63	0x3e8816ac	0.26579797
64	0x3e90695d	0.28205386
65	0x3e4582dd	0.19288202
66	0x3e5bd277	0.21467005
67	0x3e894c9e	0.26816267
68	0x3e8313a4	0.25600922
69	0x3e290c7a	0.16508666
70	0x3e4e79a3	0.20163588
71	0x3e883ad6	0.26607388
72	0x3e9411fb	0.28919968
73	0x3e48aa45	0.19596203
74	0x3e6393b2	0.2222431
75	0x3e88662b	0.26640448
76	0x3e859a41	0.2609425
77	0x3e2cbef8	0.16869724
78	0x3e5260df	0.20544766
79	0x3e87f3e1	0.26553252
80	0x3e969dee	0.29417366
81	0x3e496598	0.19667661
82	0x3e6a3136	0.22870335
83	0x3e879302	0.26479346
84	0x3e8971e8	0.26844716
85	0x3e336ef2	0.17522791
86	0x3e578209	0.21045698
87	0x3e876274	0.264423
88	0x3e97f133	0.29676208
89	0x3e4a4e52	0.1975644
90	0x3e6d331a	0.23164025
91	0x3e86a5d2	0.26298386
92	0x3e8ed56d	0.27897206
93	0x3e3bf6d8	0.18355882
94	0x3e5f7534	0.21822053
95	0x3e86d5a0	0.26334858
96	0x3e982613	0.29716548
97	0x3e4baf61	0.1989112
98	0x3e6ca481	0.23109628
99	0x3e85e33c	0.2614993
100	0x3e9323ac	0.28738153
101	0x3e430379	0.19044293
102	0x3e65afaf	0.22430299
103	0x3e8620be	0.26196855
104	0x3e970f6e	0.2950396
105	0x3e4bbd9b	0.19896547
106	0x3e697e34	0.22802049
107	0x3e855da5	0.26048008
108	0x3e9579e4	0.29194558
109	0x3e46ebc8	0.19425881
110	0x3e6906ec	0.22756547
111	0x3e858ab5	0.26082388
112	0x3e957a3e	0.29194826
113	0x3e46ed06	0.19426355
114	0x3e6906ec	0.22756547
115	0x3e858aaf	0.2608237

86 f4 [3]
0	0x40c26d7a	6.075864
1	0x3b9b5578	0.0047404133
2	0x40f3dfff	7.6210933

action_model._continuous_distribution.log_sigma f4 [1, 2]
0	0x3ba24553	0.0049521117
1	0x3a7add21	0.0009569694

action_model._continuous_distribution.mu.bias f4 [2]
0	0xba3f2790	-0.0007291967
1	0x3a2e59f8	0.00066509796

action_model._continuous_distribution.mu.weight f4 [2, 256]
0	0xbc3a7567	-0.01138053
1	0xbc62e946	-0.013849562
2	0x3d053011	0.032516543
3	0x3c5c44fa	0.01344418
4	0x3cb2b49e	0.02181464
5	0xbceddc90	-0.029035836
6	0x3c1525d6	0.009103259
7	0x3c439c99	0.011939191
8	0xbcc4e48e	-0.024034765
9	0xbcf1e2f7	-0.02952717
10	0xbc4e404e	-0.012588574
11	0xbbef40d6	-0.00730143
12	0xbc7006af	-0.014650031
13	0x3c72eed6	0.014827451
14	0x3c8d08cd	0.01721611
15	0xbc182e14	-0.00928833
16	0xbc953b91	-0.01821688
17	0xbd274349	-0.040835653
18	0xbce84b0e	-0.028356101
19	0x3beab3f4	0.0071625654
20	0xbbd055d2	-0.006357887
21	0x3b62b0c3	0.0034590221
22	0xbca31a96	-0.019910138
23	0xbc6a84da	-0.014313901
24	0xbce9ff7f	-0.028564213
25	0x3cf9af6a	0.030479152
26	0x3c1e0615	0.009645005
27	0x3bd8b171	0.0066129495
28	0x3ce1a59d	0.02754479
29	0x3ca96895	0.020679751
30	0x3bfeb639	0.0077731875
31	0xba9c2ec5	-0.0011915794
32	0xbb5d91b2	-0.0033808765
33	0x3bbd58fd	0.0057784305
34	0xbcfb8ace	-0.030705836
35	0x3ac84e5a	0.001528214
36	0xbc88bfa4	-0.016692944
37	0xbcfc2203	-0.030777937
38	0x3b8e09f2	0.0043346817
39	0x3c00c864	0.007860277
40	0xbc5ce22f	-0.013481661
41	0xbc45f2d9	-0.012081825
42	0x3cd48f60	0.025947273
43	0xbca6e162	-0.020371143
44	0xbc96cc52	-0.018407974
45	0x3c102100	0.00879693
46	0xbc87eb45	-0.016591677
47	0x3c18742d	0.009305042
48	0xbce3cfb3	-0.027809
49	0x3b538b3e	0.003227904
50	0xbbbeea22	-0.0058262506
51	0xbc6e720f	-0.014553561
52	0xbcba45ae	-0.022738304
53	0x3b83ecd7	0.0040260362
54	0x3c04b069	0.0080987
55	0x3c68df69	0.014213421
56	0xbcd139e1	-0.025540294
57	0xbcab6634	-0.020922758
58	0xbcf697bc	-0.03010165
59	0x3c32b877	0.010908238
60	0xbcae79e0	-0.021298349
61	0xbc2afa1f	-0.01043561
62	0xbc9d3559	-0.019190477
63	0xbcf0563a	-0.029337991
64	0x3ae98674	0.0017816559
65	0xbd09c3af	-0.033633884
66	0xbc82a92b	-0.015949806
67	0xbd0cca00	-0.03437233
68	0xbb87dbcc	-0.004146075
69	0x3cb2c02d	0.021820152
70	0xbcec8d61	-0.028876008
71	0xbb5e6e58	-0.0033940282
72	0xbcb5c982	-0.022190813
73	0x3c6eddd7	0.014579258
74	0x3c1bcee1	0.009509773
75	0xbb287705	-0.0025705707
76	0x3d17c6f5	0.037054975
77	0x3c37e6ea	0.011224488
78	0xbafbfa47	-0.0019224369
79	0x3c4f8162	0.012665125
80	0xbc44348b	-0.011975418
81	0x3bad2ce0	0.0052848905
82	0xbc8fc51b	-0.017550042
83	0x3a10e352	0.00055270374
84	0xbca155d3	-0.019694244
85	0x3c4f84ce	0.01266594
86	0xbc32c999	-0.010912322
87	0xbb8bcbd1	-0.00426624
88	0xbb12d1d8	-0.0022402909
89	0xbc66dd6d	-0.014090878
90	0xbc9bf090	-0.019035608
91	0xbbc0136f	-0.0058616917
92	0xbc85b0ee	-0.016319718
93	0x3c002a55	0.007822593
94	0xbca324e1	-0.019915046
95	0x3b0cd5b8	0.002148969
96	0xbcb398bc	-0.021923415
97	0xbd1870b2	-0.03721685
98	0x3cf41398	0.0297945
99	0xbccaf576	-0.024775248
100	0xbcc5d569	-0.024149613
101	0x3bf34ea8	0.007425148
102	0x3b9e3a2d	0.0048287124
103	0xbbd567c4	-0.006512614
104	0xbc698345	-0.0142524885
105	0xbc670cce	-0.014102174
106	0x3c179c93	0.009253639
107	0xba5160a8	-0.000798712
108	0x3d194f2b	0.037429016
109	0x3b3b91aa	0.0028620758
110	0xbbaedaf8	-0.0053361617
111	0xbc726417	-0.014794371
112	0x3b9bc439	0.004753616
113	0xbcbe27c4	-0.023212321
114	0x3c7f69d8	0.0155892
115	0xbcdeb8af	-0.027187673
116	0x3d263a23	0.040582787
117	0xbc7c3f8a	-0.015396008
118	0x3cf71e4d	0.030165816
119	0xbc4f1c34	-0.0126410015
120	0x3b0818b5	0.002076668
121	0xbc46cde6	-0.012134051
122	0xbc99170b	-0.018687746
123	0x3b801ef1	0.0039099385
124	0xbb13f60d	-0.0022577078
125	0xbc8d3073	-0.017235016
126	0xbd04dcae	-0.03243702
127	0xbbcf8380	-0.0063328147
128	0xbb8d31ba	-0.0043089064
129	0x3ce9c193	0.028534686
130	0x3c7d7708	0.015470274
131	0xbcf23ecf	-0.029570965
132	0xbcdecae6	-0.027196359
133	0x3c79e656	0.01525267
134	0x3c657fbf	0.014007508
135	0xbd08d284	-0.03340389
136	0xbc746247	-0.014916009
137	0x3b2efcd5	0.0026700993
138	0x3c8eccdd	0.01743167
139	0xbb8f97ec	-0.004382124
140	0xbbb1dd69	-0.0054280055
141	0x3c446b42	0.011988463
142	0x3d07cb03	0.03315259
143	0x3c1e275a	0.009652937
144	0x3cf8ef3f	0.030387519
145	0x3c903d88	0.017607465
146	0xbbd60157	-0.0065309214
147	0xb88c9854	-6.7040935e-05
148	0x3c8fb01d	0.017540032
149	0x3b731bea	0.0037095495
150	0x3c946a3a	0.018117059
151	0xbc1eb336	-0.009686282
152	0x3c797bac	0.01522724
153	0xbd119ba8	-0.035548836
154	0xbcfb5417	-0.030679746
155	0x3c8c743f	0.017145274
156	0xbcacc44f	-0.021089701
157	0xbc504112	-0.0127108265
158	0x3c42d27f	0.0118910065
159	0x3c8db6d4	0.017299093
160	0x3c8cc85b	0.01718538
161	0xbc9052c8	-0.017617598
162	0xbb2a247d	-0.002596169
163	0x3c784f03	0.015155557
164	0xbcfbb66f	-0.03072664
165	0xbcc4a614	-0.024004973
166	0x3cd17644	0.025569089
167	0xbc11d963	-0.008901927
168	0x3bec0c98	0.0072036497
169	0xbc258ae2	-0.010103913
170	0x3af25405	0.0018488175
171	0xbc9de9f0	-0.01927659
172	0xbcde1b02	-0.027112488
173	0x3cbeada0	0.02327615
174	0x3a74c93b	0.0009337847
175	0x3c5bb2cd	0.013409329
176	0x3cda6447	0.026659144
177	0xbbd77b16	-0.0065759523
178	0xbbe84ad7	-0.0070889997
179	0xbb45f7b8	-0.0030207466
180	0x3cb5938c	0.022165082
181	0xbb8be84e	-0.0042696362
182	0xbaeae22b	-0.0017920187
183	0x3ce917f9	0.028453814
184	0x3bcfd7fd	0.0063428865
185	0x3cb36a70	0.02190134
186	0xbb86e71f	-0.0041169073
187	0xbc384a4b	-0.011248182
188	0x3aec5863	0.0018031712
189	0xbcd289b6	-0.025700431
190	0x3c2df081	0.010616423
191	0xbc230190	-0.009949103
192	0xbc629083	-0.0138284
193	0xbbcb7ded	-0.00621008
194	0xbb2dee72	-0.002653983
195	0xbaf31157	-0.0018544596
196	0xbc461666	-0.012090301
197	0xbcf19aa1	-0.029492678
198	0xbbfa2b12	-0.007634529
199	0x3c23b052	0.0099907685
200	0x3bc2148a	0.0059228586
201	0xbc3fce9b	-0.011706973
202	0x3d0b5c67	0.03402367
203	0x3cd7d494	0.026346482
204	0x3c400067	0.011718846
205	0xbd10e168	-0.035371214
206	0xb8b12932	-8.447691e-05
207	0x3d2f6eab	0.04283015
208	0x3bebc750	0.0071953908
209	0xbcd06266	-0.025437545
210	0xbca3b54a	-0.019983906
211	0x3cde5f1d	0.027144963
212	0xbc390f35	-0.01129513
213	0xbc91fa58	-0.017819569
214	0x3d1a2f25	0.037642617
215	0xbc351ae1	-0.011053772
216	0xbae9de7a	-0.0017842792
217	0x3cd84e94	0.026404656
218	0x3c8ffb99	0.017576026
219	0xbc0744d9	-0.008256161
220	0xbbf94f34	-0.0076083187
221	0x3d1d5b5d	0.03841721
222	0x3c200c7b	0.009768601
223	0x3ba3befb	0.004997132
224	0x3ba0e649	0.0049102646
225	0xbcf35e7f	-0.029708145
226	0x3c90279d	0.017597014
227	0xbca23ce5	-0.019804427
228	0xbcd1d096	-0.025612157
229	0xba815712	-0.0009867868
230	0x3cd60e08	0.026129737
231	0xbc1565f4	-0.009118546
232	0x3c8fa6aa	0.017535526
233	0xbcadb925	-0.021206448
234	0xbc5c454b	-0.013444255
235	0xbc36ee9f	-0.01116529
236	0xbcda3d10	-0.026640445
237	0x3c74f2d0	0.014950469
238	0xbc7242a8	-0.0147864
239	0x3c82c839	0.015964614
240	0x3c80d775	0.015727738
241	0xbc0eaf88	-0.008708842
242	0xbb730917	-0.0037084275
243	0xbd28be33	-0.041197013
244	0xbcc3c0ff	-0.023895739
245	0xbc3a08ca	-0.011354635
246	0x3c9dd1f0	0.019265145
247	0x3c48f8d9	0.012266361
248	0xba278a87	-0.00063911866
249	0x3ccd81a0	0.025086224
250	0xbacaf95d	-0.0015485693
251	0xbcaab18c	-0.020836614
252	0xbc7cbae2	-0.015425416
253	0x3cb3899e	0.021916207
254	0x3d468fb3	0.048476886
255	0x3a89c259	0.0010510191

action_model._discrete_distribution.branches.0.weight f4 [1, 256]
0	0xbc2a24d2	-0.010384755
1	0xbc32ec95	-0.010920663
2	0x3c1662d1	0.009178833
3	0x3bc1d45f	0.005915209
4	0xba91ac32	-0.001111394
5	0xbc263f0b	-0.010146867
6	0x3ae6ea10	0.0017617363
7	0x3b94e757	0.0045441794
8	0xbb8f4c4b	-0.0043731085
9	0xbc604333	-0.013687897
10	0xbb90af23	-0.004415409
11	0xbbb5fbb1	-0.0055536856
12	0xbb0ece28	-0.002179036
13	0xbab273f0	-0.0013614874
14	0x3a9c9a52	0.0011947847
15	0x3b10ced0	0.0022095926
16	0x39c34d9e	0.00037251128
17	0x3a05fff5	0.0005111688
18	0xbb5487d3	-0.003242959
19	0x3b339ff2	0.0027408567
20	0x3bacad6f	0.0052696983
21	0x3935a517	0.00017323006
22	0x3ae187e2	0.0017206634
23	0x3b26184e	0.0025344077
24	0xbc39d965	-0.011343335
25	0xbc74a477	-0.01493179
26	0xbc17301b	-0.009227778
27	0xba8785d9	-0.0010339572
28	0x3b46807b	0.0030288983
29	0x3b50ad7a	0.0031841681
30	0x3c001046	0.00781638
31	0x3ac4a603	0.0015003089
32	0xbb99f3ef	-0.0046982686
33	0x3b912f36	0.004430677
34	0x3bb1770b	0.0054158024
35	0xbafef448	-0.0019451464
36	0x3b311854	0.0027022557
37	0xbc8a4efe	-0.01688337
38	0x3bafadb2	0.0053612823
39	0xbacf327f	-0.0015807896
40	0xbbe3d76a	-0.0069531696
41	0xba850cb0	-0.0010150876
42	0xbaebf82f	-0.0018003042
43	0xbbe63042	-0.0070247957
44	0xbb1a8e57	-0.0023583376
45	0xbbc4a8a3	-0.0060015484
46	0x3ba39dc4	0.0049931724
47	0xbba25a52	-0.0049546147
48	0x3c041677	0.008061997
49	0xbb433db3	-0.0029791414
50	0xba1f39bb	-0.0006073971
51	0xbba686e2	-0.0050819973
52	0x3b1b3040	0.0023679882
53	0x3b20f853	0.0024562075
54	0x3bc87c23	0.006118314
55	0x394225d4	0.00018515374
56	0xbb3c51b2	-0.0028735218
57	0x3c57a780	0.013162494
58	0x3b352a38	0.0027643573
59	0x3ac9302a	0.0015349437
60	0x3c057513	0.008145588
61	0xbba2e7c7	-0.0049714777
62	0xbc3803f8	-0.011231415
63	0xbb07a295	-0.0020696272
64	0xba98eba7	-0.001166691
65	0x3c29bf24	0.010360513
66	0x3a26f4a9	0.00063688547
67	0xbc1a6995	-0.009424587
68	0x3bcf6e6f	0.0063303034
69	0xbb33e04f	-0.002744693
70	0xbbb637d8	-0.0055608563
71	0xbbd293ad	-0.0064262957
72	0xbb73c3c7	-0.003719555
73	0x3b906d95	0.0044075944
74	0x3bc0aebe	0.005880206
75	0xbc20b9d6	-0.009809932
76	0x3c75e052	0.015007095
77	0x3bd498c5	0.006487938
78	0xbbb9052e	-0.0056463694
79	0x3b6777b5	0.0035319154
80	0x3a83cc21	0.0010055342
81	0x3a1aa3b8	0.000589903
82	0xbb9472f8	-0.004530307
83	0x3923ba47	0.00015614285
84	0xbb7f9223	-0.0038997016
85	0x3bbfc1b4	0.0058519486
86	0xbb5ebfbf	-0.0033988801
87	0xbbe9ef42	-0.0071391175
88	0xbb73bb07	-0.0037190334
89	0x3c0e6183	0.008690241
90	0x3b8e6454	0.004345456
91	0xbbdd7908	-0.006758813
92	0xbbf9850d	-0.007614738
93	0xbbbfd917	-0.0058547365
94	0xbb854472	-0.004066997
95	0xbb2ba2b4	-0.0026189508
96	0xbb19df1c	-0.002347893
97	0x3b898b3a	0.0041975053
98	0xb9a8de51	-0.00032209096
99	0x3c37b138	0.011211686
100	0x3b519d2f	0.0031984558
101	0xbc1f6976	-0.009729734
102	0x3bd82ad0	0.0065969005
103	0xba1535be	-0.0005691907
104	0xbbe70dd2	-0.007051208
105	0x3bfc3f23	0.007697956
106	0xb997802a	-0.00028896454
107	0xbba251db	-0.0049536056
108	0x3b6888ff	0.0035482047
109	0x3af18b10	0.0018428285
110	0xbb401d5f	-0.0029314382
111	0xba6f54b0	-0.0009129746
112	0xbc09d7bb	-0.008413251
113	0xbc45b5b0	-0.012067243
114	0xbb18e690	-0.0023330785
115	0xbc427bae	-0.011870308
116	0x3b147a82	0.0022656028
117	0x3c164ee4	0.009174082
118	0x3b8cca7f	0.0042966004
119	0x3b04b59f	0.0020249856
120	0xbb100214	-0.0021973895
121	0x3ba665cc	0.005078053
122	0x3b823b25	0.0039743357
123	0x3b4552d9	0.0030109196
124	0xbc31cab3	-0.01085155
125	0x3ba98d8e	0.0051743453
126	0x3a86e4c0	0.0010291561
127	0x3a104e77	0.0005504856
128	0xba49087e	-0.0007668807
129	0x3c1d663c	0.009606894
130	0xbb5f0d47	-0.0034035014
131	0x3bb37115	0.005476127
132	0xbab1b6c4	-0.0013558497
133	0xbb75d04a	-0.0037508183
134	0x3b8b6649	0.0042541367
135	0xba05634f	-0.00050883455
136	0x3ba9b481	0.0051789884
137	0x3908f551	0.00013061358
138	0x3b979082	0.004625381
139	0xba2084cf	-0.00061233056
140	0x3b875d41	0.00413099
141	0xbba8f3e6	-0.005156028
142	0x3b8007ef	0.0039071958
143	0x38b259cf	8.5044296e-05
144	0x3c19a64c	0.009378027
145	0x3b4ac5a3	0.0030940555
146	0x3bb3340b	0.0054688505
147	0xbbf03175	-0.0073301145
148	0x3bcf3b38	0.006324198
149	0x39a311f8	0.0003110317
150	0xbc43595b	-0.0119231595
151	0x3b8d8dfa	0.0043199034
152	0xbc478bd4	-0.012179334
153	0x3bc2d670	0.005945973
154	0xbc0cbabb	-0.008589442
155	0xbae66b18	-0.0017579524
156	0x3c019154	0.007908184
157	0x39a12a3c	0.0003073978
158	0xbaac7c47	-0.0013159596
159	0xbb05172b	-0.0020307999
160	0xbc82367b	-0.015895119
161	0x3bb57b5b	0.0055383868
162	0x3b712c4f	0.0036800092
163	0x3c335d14	0.0109474845
164	0x3b3a6070	0.002843883
165	0x39c46bda	0.0003746439
166	0x3b9fed13	0.0048805564
167	0xbb8bc5b6	-0.0042655123
168	0x3bb65645	0.0055644833
169	0xbb34606b	-0.002752329
170	0x3c5bb37b	0.013409491
171	0x3bd94a52	0.006631174
172	0xbc410ebc	-0.011783298
173	0x3bcd5d47	0.006267223
174	0xbbe9d1ef	-0.0071356217
175	0x388f3d24	6.83016e-05
176	0xbb8452d8	-0.004038196
177	0xbbc1c586	-0.005913439
178	0x3bf91328	0.0076011606
179	0xbb1c72f2	-0.0023872224
180	0xbc9be6c8	-0.019030944
181	0x3aeb3cb7	0.0017947172
182	0x3c063ed6	0.008193692
183	0x3a570233	0.0008201927
184	0x3bd62fd5	0.0065364637
185	0xbc8daf9f	-0.017295657
186	0xbb4c03a9	-0.0031130111
187	0xbb8bef8f	-0.004270501
188	0xbb8bca05	-0.004266026
189	0xbaa3610f	-0.0012464839
190	0x3c700780	0.014650226
191	0x3a6425c8	0.00087031396
192	0xba9e99d0	-0.0012100283
193	0x3b8cd698	0.0042980425
194	0x399f58d9	0.0003039304
195	0x3c44411b	0.011978413
196	0x3bfd235a	0.0077251615
197	0xba5fa71b	-0.00085316756
198	0x3b15d8c9	0.002286481
199	0xbac7b794	-0.0015237206
200	0xbb7da7fd	-0.0038704865
201	0x3c197597	0.0093664145
202	0xb8a45f1d	-7.8378456e-05
203	0xbb8333d7	-0.0040039825
204	0x3b126b8f	0.0022341942
205	0x3accecb5	0.0015634509
206	0xba6810db	-0.00088526093
207	0x3bbe7d40	0.005813271
208	0xbbfec4db	-0.007774932
209	0xbc0535ba	-0.008130485
210	0x3bd1051a	0.006378782
211	0xb9b7fe12	-0.00035093777
212	0xbaa2072b	-0.0012361755
213	0x39cc3387	0.00038948303
214	0xbae49baf	-0.0017441417
215	0x3b8f7513	0.00437797
216	0x3bb2065a	0.005432886
217	0xbbfb94b8	-0.0076776408
218	0xbbc7ba8f	-0.0060952376
219	0xbb9188fb	-0.004441378
220	0x3b8c37c3	0.0042791083
221	0xbc333c47	-0.010939664
222	0xbbe28bdb	-0.0069136447
223	0x3c11918b	0.008884798
224	0xbbb2256f	-0.0054365913
225	0xbae82a95	-0.0017712886
226	0xbc50c905	-0.012743239
227	0x3b345b23	0.0027520142
228	0xbb50df10	-0.0031871237
229	0x3ca92ed9	0.020652222
230	0xbbb5ac92	-0.0055442536
231	0xbac567e9	-0.0015060875
232	0xbb9ac941	-0.0047236984
233	0xb9717978	-0.00023028802
234	0xbbc4204d	-0.005985296
235	0xbb8172f0	-0.003950469
236	0xbbc28609	-0.0059363884
237	0xba8b5e14	-0.0010632896
238	0x3b981e9e	0.0046423217
239	0x3c03a52f	0.008034988
240	0x3bab4fab	0.005228003
241	0xbc57daf8	-0.013174765
242	0x3b8b033c	0.004242329
243	0xbc0c76c6	-0.00857324
244	0x3c4744bd	0.012162385
245	0xbb8a3a1b	-0.0042183525
246	0xbc50c92a	-0.012743274
247	0x3ba08b00	0.0048993826
248	0xbc0e2e8a	-0.008678088
249	0xbc28db84	-0.010306243
250	0x3bcea120	0.0063058287
251	0xba567173	-0.00081803574
252	0x3b01433b	0.001972391
253	0xbbcc6584	-0.0062376875
254	0x3be83642	0.007086546
255	0x3ad4ee4a	0.0016245332

network_body._body_endoder.seq_layers.0.bias f4 [256]
0	0x386f8188	5.7102676e-05
1	0x3ba5a358	0.0050548725
2	0x3c0a3fee	0.008438094
3	0x3aea55e9	0.0017878386
4	0x3a479907	0.00076140504
5	0x3b686713	0.0035461828
6	0x3b072c09	0.0020625612
7	0x3bbe9051	0.0058155437
8	0xbb269d1c	-0.0025423234
9	0x3c24d490	0.0100604445
10	0x3c637746	0.0138834175
11	0xbb33a21c	-0.0027409857
12	0x3bbb37e9	0.005713452
13	0x3bb845d3	0.005623558
14	0xbb0ba8ed	-0.0021310404
15	0x3ad65b0c	0.0016354038
16	0xbab8b3e2	-0.0014091695
17	0x3b349e1d	0.0027560063
18	0x3c8119d2	0.015759382
19	0xbbb20a0d	-0.005433327
20	0x3b775b54	0.0037743645
21	0x3c8be279	0.017075764
22	0x3c38d56e	0.011281354
23	0x3ca3460c	0.019930862
24	0x3c208011	0.009796158
25	0x3c0bfd8d	0.008544338
26	0x3c382219	0.011238598
27	0x3cc4b9b6	0.024014335
28	0x3c5083f2	0.012726771
29	0x3c93af3d	0.018027896
30	0x3b9e9c98	0.004840445
31	0x3a1f7404	0.00060826563
32	0x3b556191	0.0032559375
33	0x3b87ff21	0.004150287
34	0x3b9fde12	0.0048787678
35	0x3ad0eb23	0.0015939217
36	0x3c437c6f	0.011931523
37	0x3bef64c6	0.0073057143
38	0x3c3305c5	0.0109266685
39	0x3b249359	0.002511224
40	0x3b2e5cb0	0.002660554
41	0x39e8a42b	0.00044372803
42	0xba3237f8	-0.0006798501
43	0x3b3e9eb2	0.002908629
44	0x3c1f6b7e	0.009730218
45	0xbb9e3f8a	-0.004829352
46	0x3b96a782	0.004597605
47	0xba93d945	-0.0011279961
48	0x3b83305b	0.004003567
49	0x38f748cd	0.00011791438
50	0x3c614981	0.013750435
51	0xbbb008ee	-0.0053721583
52	0xbb1479b9	-0.002265556
53	0x3c43ff6c	0.011962753
54	0x3a5fe23d	0.0008540487
55	0x3ae6ecc5	0.001761817
56	0xb8f2ae85	-0.00011571966
57	0x3a9d8fb6	0.0012020979
58	0x3c7767a2	0.015100392
59	0xba451492	-0.0007518019
60	0x3a52cdf2	0.00080415525
61	0x3c15b25a	0.009136761
62	0x3b002f9a	0.0019559623
63	0x3c3580ca	0.011078069
64	0xbac63e37	-0.0015124743
65	0xbafa1ec3	-0.0019082654
66	0x3b4830e8	0.0030546729
67	0x3c536802	0.012903215
68	0xbb86189a	-0.004092288
69	0x3b1dabcb	0.0024058695
70	0x3a963c92	0.0011462143
71	0xbc107000	-0.008815765
72	0x3bb0f0aa	0.005399783
73	0x3bc62dd6	0.0060479445
74	0xbb2a00ea	-0.0025940486
75	0x3baa7ff3	0.005203241
76	0x3c0e9a2d	0.008703751
77	0x3af1b762	0.0018441493
78	0x3ba580ac	0.0050507393
79	0x3bae2c42	0.0053153345
80	0x3c29e37b	0.010369177
81	0x3c18dee1	0.009330482
82	0x3bb4116f	0.0054952423
83	0x3bd5a5e5	0.0065200203
84	0x3aacf555	0.0013195673
85	0x3c2548bb	0.010088141
86	0x3bca9032	0.00618174
87	0x3c5ad9cc	0.013357591
88	0xba74cd13	-0.000933842
89	0x3c8088ff	0.015690325
90	0x3ba1f311	0.004942306
91	0x3bf5c6ed	0.0075005204
92	0xbac2aab6	-0.0014851901
93	0xbbc17350	-0.005903639
94	0x3c354edb	0.011066164
95	0x3bafc61d	0.005364193
96	0x3b990d5a	0.004670781
97	0xbbacd0ec	-0.005273929
98	0x3c00a11e	0.007850913
99	0x3c823dd6	0.015898626
100	0x3c72d24b	0.014820646
101	0x3bf6000f	0.007507331
102	0x3ba5998f	0.005053706
103	0x3a978b78	0.0011561951
104	0x3c82b4a9	0.015955286
105	0xbb0d9c6f	-0.0021608134
106	0xba525698	-0.0008023768
107	0x3b8b8c81	0.0042586927
108	0x3af8fa08	0.0018995414
109	0x3bff7b46	0.0077966778
110	0x3bba26a5	0.0056808763
111	0x3bd0a01c	0.006366743
112	0xbaed981c	-0.0018126997
113	0x3c4c87e8	0.012483574
114	0x3c21b08f	0.009868755
115	0x3c2d8808	0.010591514
116	0x3c1beece	0.009517385
117	0x3b214285	0.00246063
118	0x3ba94126	0.005165237
119	0x3c3d0b02	0.011538269
120	0x3b0e81c2	0.0021744822
121	0x3c1fcf4d	0.009754014
122	0x3b8dd54a	0.0043284046
123	0x37f60612	2.9328312e-05
124	0x3c668f34	0.014072228
125	0x3b8ff445	0.004393133
126	0x3b50d5ca	0.003186571
127	0x3ae6ace3	0.0017599132
128	0x3bbf3f47	0.0058364007
129	0xbaeaae3d	-0.001790471
130	0xbb311e03	-0.0027025945
131	0x3b8d0444	0.004303487
132	0xbc6655a3	-0.014058503
133	0x3c0b348b	0.008496414
134	0xbc012eb4	-0.00788467
135	0x3ba272f7	0.0049575525
136	0x3af620d0	0.001877809
137	0x3bce5f03	0.0062979474
138	0x3bd191d3	0.0063955574
139	0x3b7be2ae	0.0038434672
140	0x3b59e2e2	0.0033246805
141	0x3b9f9776	0.0048703505
142	0x3b7f8dc9	0.0038994423
143	0x3bc7c99d	0.006097032
144	0x3bb3f37d	0.0054916725
145	0xbb69f028	-0.0035696123
146	0x3ae81eaf	0.001770934
147	0x3b05027c	0.002029567
148	0xba9d4e4f	-0.0012001487
149	0xbb112fd5	-0.0022153754
150	0xbab6327b	-0.0013900542
151	0x3c1fbbc5	0.009749358
152	0xbaad0ce1	-0.0013202691
153	0x3b6f9e84	0.0036562989
154	0x3b2b3a6c	0.0026127351
155	0x3b2daf18	0.002650207
156	0x3bc654f2	0.0060526067
157	0x3ba56cdb	0.005048377
158	0x3be3b267	0.0069487575
159	0x3c59f962	0.013304086
160	0x3b303eb5	0.0026892845
161	0x3c609f0f	0.0137097975
162	0x3c133b7c	0.00898635
163	0x3c0358e4	0.008016799
164	0x3bf75142	0.0075475285
165	0x3b645f9e	0.0034847031
166	0x3bc58077	0.006027277
167	0x3bb7ba7a	0.0056069465
168	0x3c8aa53c	0.016924493
169	0x3be46583	0.006970109
170	0x398eac0e	0.0002721254
171	0x3bdd73ff	0.0067582126
172	0xbbc39956	-0.005969207
173	0x3b2ec8bb	0.0026669938
174	0x3b8d54fa	0.0043131085
175	0x3beb185c	0.0071745347
176	0x3acce24b	0.0015631405
177	0x3a435cdf	0.00074524985
178	0x3c96bdcc	0.01840105
179	0x3bca79a8	0.0061790533
180	0x3b8d5656	0.0043132706
181	0x3bbd47f5	0.0057764
182	0x3b09d246	0.0021029874
183	0xb8b4249f	-8.58989e-05
184	0x3bc30f1b	0.0059527284
185	0x3c29d8ad	0.010366601
186	0x3bc00eac	0.005861124
187	0x3cc53427	0.02407272
188	0x3c058a0b	0.008150588
189	0x3bebe3f1	0.0071988036
190	0x3bdb1de7	0.0066869142
191	0x3c27e748	0.010248013
192	0x3c1e55cb	0.009664009
193	0xbb986fb9	-0.0046519903
194	0xb82ccad3	-4.119689e-05
195	0xbb8e5a3d	-0.0043442533
196	0xbbac6170	-0.005260639
197	0x3b73245d	0.0037100532
198	0x3c655aea	0.013998726
199	0x3c6eb3fe	0.014569281
200	0x3b197ba8	0.0023419652
201	0x3c00c5be	0.007859645
202	0x3bb22b34	0.005437279
203	0xbb2ab4c0	-0.0026047677
204	0x3aa4e2d7	0.001257981
205	0xba8c2210	-0.0010691304
206	0x3bea1d65	0.0071446174
207	0x3bf98a40	0.0076153576
208	0x3c7db795	0.015485664
209	0x3c1fb748	0.0097482875
210	0x3bad7ee1	0.005294666
211	0x3c4897c7	0.012243218
212	0xba79c04f	-0.00095272524
213	0x3b54f87f	0.0032496748
214	0x3b5c6346	0.0033628508
215	0x3c9182fb	0.017762652
216	0x3bf3ed08	0.007444028
217	0xbacb782d	-0.0015523486
218	0x3b059e56	0.0020388565
219	0x3baa978f	0.0052060555
220	0x39611189	0.00021464204
221	0x3b698c1f	0.0035636497
222	0xbb4c141f	-0.0031139923
223	0x3a741194	0.00093104807
224	0xbbf44119	-0.0074540493
225	0x3b293cdc	0.0025823629
226	0x3b0f0e4c	0.002182859
227	0xbbf27516	-0.0073992116
228	0x3bcb6a94	0.0062077735
229	0xbbb752f6	-0.0055946065
230	0x3c08a7e1	0.008340807
231	0x3bc4aaf7	0.006001826
232	0x3c03003c	0.007995661
233	0x3c6ae1e9	0.014336088
234	0x3bacd70c	0.005274659
235	0x3ba9e596	0.0051848395
236	0xb8401bac	-4.580214e-05
237	0xb9b90a48	-0.0003529361
238	0x3bce7034	0.0062999967
239	0x3acb07e6	0.0015490025
240	0x3c03ce89	0.008044847
241	0x3b904914	0.004403243
242	0x3b881a77	0.0041535455
243	0x3a4c219b	0.000778699
244	0x3b835efd	0.004009126
245	0x3c1eeb34	0.0096996315
246	0x3bce8c42	0.006303341
247	0x3c339bb0	0.010962412
248	0x3b965329	0.00458755
249	0x3bf0d85d	0.0073500113
250	0x3c12f58f	0.008969679
251	0xbaff1d15	-0.0019463623
252	0x3b5b2c5a	0.0033443184
253	0x390318d7	0.00012502387
254	0x3c23a01c	0.0099869035
255	0x3c69087b	0.014223213

network_body._body_endoder.seq_layers.0.weight f4 [256, 119]
0	0xbdbecd17	-0.093164615
1	0x3de0d35e	0.10977815
2	0x3d836a62	0.06416775
3	0xbd88c61d	-0.06678412
4	0x3d2abdaf	0.041684803
5	0xbce87c01	-0.028379442
6	0xbdd9c92a	-0.10634072
7	0x3d93c40a	0.07215126
8	0x3e1d6987	0.15372287
9	0x3e52e331	0.20594479
10	0x3d461fbd	0.04837011
11	0xbbbf330a	-0.0058349418
12	0xbd40fbc9	-0.04711512
13	0xbdec8fcb	-0.11550864
14	0xbd993b46	-0.07482009
15	0x3cf4bffc	0.029876702
16	0x3e0ca08b	0.13733117
17	0x3cc782eb	0.024354419
18	0x3d3849e4	0.044992343
19	0xbd4ece8a	-0.05048994
20	0xbda8113d	-0.08206413
21	0x3d584f4e	0.052810006
22	0xbde1d4dd	-0.110269286
23	0x3d3a59ff	0.045495983
24	0xbde1fe43	-0.11034825
25	0x3d602d7f	0.05473089
26	0xbb965441	-0.0045876806
27	0xbde8caa7	-0.11366778
28	0xbd6ced7f	-0.05784368
29	0xbd73b191	-0.059495512
30	0x3ba76d56	0.0051094694
31	0x3c416b9b	0.01180544
32	0x3d84c31a	0.06482525
33	0xbe259226	-0.16169032
34	0x3bc836ff	0.0061100717
35	0x3df83484	0.121193916
36	0x3e2001a8	0.15625632
37	0x3d4da5f0	0.05020708
38	0xbe1ee86c	-0.1551835
39	0x3e512764	0.20425183
40	0xbd8a2235	-0.06744806
41	0x3c515094	0.012775559
42	0xbd326509	-0.043553386
43	0xbd1a9af4	-0.03774543
44	0x3c4abfc2	0.01237482
45	0x3de3c718	0.111219585
46	0xbd185960	-0.03719461
47	0x3d708db0	0.058728874
48	0xbdb3e5f9	-0.08784098
49	0x3ce7e0a7	0.028305365
50	0x3cb6f442	0.022333268
51	0xbdab8d84	-0.08376601
52	0xbdea7945	-0.114489116
53	0x3d93def3	0.072202586
54	0xbdc4356c	-0.09580502
55	0x3d87bd5f	0.066279165
56	0xbd31a140	-0.04336667
57	0x3c88d511	0.01670316
58	0xbcb6d205	-0.022316942
59	0xbd0819e9	-0.033227835
60	0xbd324ded	-0.043531347
61	0xbe146dac	-0.14494962
62	0x3d0c2657	0.03421625
63	0xbd85571b	-0.06510755
64	0x3bb35e38	0.0054738782
65	0xbd765bba	-0.06014607
66	0x3e30ac64	0.17253262
67	0x3deabf28	0.114622414
68	0x3c7f7432	0.015591668
69	0xbe114def	-0.14189886
70	0xbb84a63e	-0.004048138
71	0x3d15ae77	0.036543336
72	0xbe22562d	-0.15853186
73	0x3d27abce	0.04093533
74	0xbd9295cd	-0.071574785
75	0x3ae9f5b5	0.0017849716
76	0xbd843c57	-0.064568214
77	0x3cf2dbea	0.029645879
78	0x3c80e410	0.015733749
79	0xbe02587c	-0.12729067
80	0xbdbb1035	-0.091339506
81	0xbe3b2fbf	-0.18279932
82	0x3e61f871	0.22067429
83	0x3d321f79	0.043487046
84	0x3cfb63b5	0.030687192
85	0x3d817273	0.063206576
86	0xbd665c4a	-0.056240357
87	0xbdab68e2	-0.08369614
88	0xb99b5c20	-0.00029632542
89	0xbe18dfb2	-0.14929083
90	0x3e19588e	0.14975187
91	0xbbb484db	-0.0055090017
92	0x3b8e9fff	0.004352569
93	0x3d2ab343	0.041674864
94	0x3d37763e	0.0447905
95	0xbc82d446	-0.01597036
96	0xbdab4ece	-0.0836464
97	0x3d488c3d	0.048961867
98	0x3d37504d	0.044754315
99	0x3dc78d17	0.097437076
100	0xbdb76c54	-0.08956209
101	0xbd994bc7	-0.074851565
102	0xbd252ad1	-0.040324036
103	0xbdd0267d	-0.10163591
104	0xbd35f5c2	-0.044423826
105	0xbbfb96b4	-0.0076778773
106	0x3b8febb2	0.0043921107
107	0x3d706098	0.05868587
108	0xb8439620	-4.6631438e-05
109	0xbd5b5393	-0.0535465
110	0xbe19b738	-0.15011299
111	0xbdab06f6	-0.08350937
112	0xbdbc761f	-0.09202217
113	0xbe0bfcc3	-0.1367064
114	0xbd5dc7ac	-0.0541455
115	0xbd7ad42a	-0.06123749
116	0xbc612747	-0.013742275
117	0x3d71ea2f	0.059061226
118	0xba9d94a6	-0.001202245
119	0xbc453e46	-0.012038773
120	0xbc909171	-0.017647477
121	0xbe1a2a7c	-0.15055269
122	0xbd797ef8	-0.060912102
123	0x3e0c49c7	0.13700019
124	0x3cb2026c	0.02172967
125	0xbc8bd588	-0.017069593
126	0xbdd49bcc	-0.103812784
127	0xbdf7f1b0	-0.12106645
128	0xbdae756f	-0.085184924
129	0xbdebaf1d	-0.115080096
130	0x3d221c31	0.039577667
131	0x3cb9d914	0.022686519
132	0x3a0afe8b	0.0005302212
133	0x3c196f49	0.009364911
134	0xbbf12da2	-0.007360176
135	0xbc8a16d2	-0.016856585
136	0xbdc5b812	-0.09654249
137	0xbd127e9f	-0.035765287
138	0xbc979061	-0.018501462
139	0x3bebd1ff	0.0071966643
140	0xbd248674	-0.040167287
141	0xbdc498a7	-0.095994286
142	0x3d342a61	0.04398573
143	0x3caca0c1	0.021072747
144	0xbe024b96	-0.12724146
145	0x3e2ab652	0.16671112
146	0x3c39edca	0.011348197
147	0x3e1d19b9	0.15341844
148	0x3e06bd91	0.13158251
149	0xbde7cb68	-0.113180935
150	0xbe37dc76	-0.17955193
151	0xbcd60c3b	-0.026128879
152	0x3d944d64	0.072413236
153	0xba8282a6	-0.0009957149
154	0x3c5bdb58	0.013418995
155	0x3db21e5c	0.08697197
156	0xbd994e4b	-0.07485636
157	0xbe0dcbe1	-0.13847305
158	0x3d290ec7	0.04127386
159	0xbe0bd047	-0.1365367
160	0x3e53f2d4	0.206981
161	0xbe002eb5	-0.12517817
162	0x3c209d5a	0.009803141
163	0x3d2b35f4	0.0417995
164	0xbce5e04c	-0.028061055
165	0x3b902878	0.0043993555
166	0x3ca71975	0.020397881
167	0xbc8866d5	-0.016650597
168	0x3ded48a9	0.115861244
169	0xbd42cafa	-0.047556855
170	0xbdacf495	-0.08445088
171	0x3dd4396c	0.10362515
172	0xbcf02f53	-0.029319441
173	0xbe15dd61	-0.1463523
174	0xbe2c7b3f	-0.1684389
175	0x3ddd44df	0.10804152
176	0xbd989849	-0.07450921
177	0xbd46e7d3	-0.04856093
178	0x3c212047	0.009834356
179	0x3c1fca7b	0.009752865
180	0x3bfd3236	0.007726933
181	0x3bc5c603	0.0060355677
182	0xbd0d69a0	-0.03452456
183	0xbccbb3fc	-0.024866097
184	0xbe16938a	-0.14704719
185	0x3b9735b7	0.0046145576
186	0xbdb4d88a	-0.08830364
187	0x3caefb90	0.021360189
188	0x3dd9de2c	0.10638079
189	0xbdfd8baa	-0.123801544
190	0xbb0d314f	-0.0021544283
191	0x3bc915c1	0.0061366265
192	0x3d1287ec	0.035774156
193	0x3d9a2258	0.07526082
194	0x3c799e48	0.015235491
195	0x3e53cb80	0.20683098
196	0xbddf0aa4	-0.108907014
197	0x3cd4dc08	0.025983825
198	0xbda77ede	-0.08178495
199	0x3cedf661	0.029048147
200	0x3bf4da10	0.007472284
201	0xbd4c32c9	-0.04985312
202	0xbe0e89d7	-0.13919769
203	0x3ca28055	0.019836584
204	0x3c88e958	0.01671283
205	0x3e2ce032	0.16882399
206	0xbdd74aa9	-0.10512287
207	0xbcc6555b	-0.024210623
208	0xbdbd7654	-0.09251085
209	0x3e15b086	0.1461812
210	0x3d92830f	0.07153904
211	0xbd8d949c	-0.069131106
212	0xbd306279	-0.04306266
213	0x3cfee9c2	0.031117324
214	0x3dd36cd6	0.10323493
215	0xbe55ff36	-0.20898136
216	0x3ce1d88c	0.027569078
217	0x3dd331cb	0.10312232
218	0xbdced6c6	-0.100995585
219	0x3c1789c0	0.009249151
220	0x3dd6a1f4	0.10480109
221	0xbd44d816	-0.048057638
222	0xbdc81de9	-0.0977133
223	0x3ce640a6	0.028106999
224	0xbe238dc0	-0.15972042
225	0xbbf55165	-0.0074865096
226	0x3e5c00d5	0.21484692
227	0xbb8dd8bf	-0.0043288167
228	0x3d570bb9	0.052501414
229	0xbda92712	-0.08259405
230	0xbc276988	-0.010218032
231	0x3c25d18e	0.0101207625
232	0xbd8ec39d	-0.06970904
233	0x3cb4597b	0.022015324
234	0x3d9abce1	0.07555557
235	0xbd2e89c5	-0.042611856
236	0xbe29d6f9	-0.16585912
237	0x3e022d7a	0.1271266
238	0x3dfc73bb	0.12326761
239	0xbd5c96ca	-0.05385474
240	0x3d0c3c03	0.03423692
241	0xbd6d908b	-0.057999175
242	0x3e051ace	0.12998506
243	0x3dce9684	0.10087302
244	0x3d521462	0.05128897
245	0xbc0854c2	-0.008320989
246	0xbdd06701	-0.101758964
247	0x3c428617	0.01187279
248	0xbd3b0029	-0.04565445
249	0x3cdb4cd1	0.026770027
250	0x3e26a595	0.16274102
251	0xbddeebf1	-0.10884846
252	0xbd431ca4	-0.047634736
253	0x3e524d16	0.20537218
254	0x3e48ed9a	0.19621888
255	0xbdab431e	-0.08362411

network_body._body_endoder.seq_layers.2.bias f4 [256]
0	0x3a064611	0.0005122135
1	0x3b08fd6f	0.0020903011
2	0x3c5b84e3	0.013398382
3	0xbb4a649f	-0.0030882729
4	0x395451d3	0.00020248377
5	0xba0f94e3	-0.0005477203
6	0x3c36790f	0.011137261
7	0x3b814b00	0.0039457083
8	0xba18a5b0	-0.0005823029
9	0xba746078	-0.00093222363
10	0x3c024229	0.007950344
11	0x3c11f53c	0.008908566
12	0xba81b7ab	-0.0009896656
13	0x3b881327	0.0041526738
14	0x3bba5dc8	0.005687449
15	0x3b5426ef	0.003237184
16	0x3b7e16f5	0.0038771008
17	0x3bd8ffb9	0.0066222814
18	0x3c40f5c2	0.011777343
19	0xbac080d5	-0.0014686832
20	0x3bf62037	0.0075111645
21	0x3bff6ff3	0.007795328
22	0x3bd4fdce	0.0064999824
23	0x3b0db759	0.0021624176
24	0x3b0b1c47	0.0021226571
25	0x3b999060	0.0046864003
26	0x3bf13775	0.0073613473
27	0x3c0a8910	0.00845553
28	0x3b85feec	0.004089227
29	0xbb899b58	-0.0041994266
30	0x3bda17ad	0.0066556544
31	0x3bedb36a	0.007254054
32	0xbbab15da	-0.005221111
33	0xbbc579f7	-0.0060265022
34	0x3b412d94	0.002947663
35	0x3b0ae8aa	0.0021195807
36	0x3b35b39a	0.002772546
37	0x3cbd11c6	0.023079764
38	0xba0c35d2	-0.0005348596
39	0xb9de4297	-0.00042392753
40	0x3c250c69	0.01007376
41	0x3ba1fc9c	0.0049434435
42	0x3c1314a7	0.008977092
43	0x3b58bff8	0.0033073407
44	0x3b01f5e3	0.0019830398
45	0xbae960c0	-0.0017805323
46	0x3c12ec08	0.008967407
47	0xbb9f0386	-0.004852715
48	0x3b3bc637	0.002865208
49	0x3c1deb01	0.009638549
50	0x3c657744	0.014005486
51	0x3c9698b2	0.018383358
52	0x3968d749	0.00022205444
53	0x3a921aa9	0.0011146861
54	0x3b86f35b	0.0041183657
55	0x3b5c60e9	0.00336271
56	0xbb8ae4a3	-0.0042386814
57	0x3c52b12c	0.012859624
58	0x3bc992f0	0.0061515495
59	0x3b8a86df	0.0042275037
60	0x3bf9faf7	0.0076287943
61	0x3b27beaf	0.0025595834
62	0x3bc7c194	0.0060960744
63	0x3a72559d	0.0009244325
64	0x3beb6045	0.007183107
65	0xbbb9b39d	-0.0056671635
66	0x3b55d29a	0.003262675
67	0x3b487bcb	0.0030591364
68	0x3c4970c9	0.0122949565
69	0x3bc13915	0.0058966973
70	0x3ac37c46	0.0014914356
71	0x3bf9c43b	0.0076222694
72	0x3a6ab215	0.0008952928
73	0x3c0629e1	0.008188696
74	0xbab70325	-0.0013962729
75	0x3b23df07	0.002500476
76	0x3b2bd362	0.0026218523
77	0x3ccb34e7	0.0248055
78	0x3c26bee8	0.010177352
79	0x3b45f3ae	0.003020506
80	0x3b2f79bb	0.0026775438
81	0x3b3ee022	0.0029125293
82	0xb8e3b72a	-0.000108583205
83	0x3ad34130	0.001611745
84	0xbc78260c	-0.01514579
85	0x3bb4c4f7	0.005516644
86	0x3c0c2673	0.008554089
87	0x3bceac44	0.0063071568
88	0x3bd691cf	0.0065481435
89	0x3b639b3b	0.0034729976
90	0x3b3631da	0.002780071
91	0x3b3a564c	0.0028432785
92	0x3bba74c6	0.00569019
93	0x3b84cd61	0.0040528034
94	0xbb26278e	-0.0025353166
95	0x3bc732cf	0.006079055
96	0x3ae596a8	0.0017516213
97	0x3b477b66	0.0030438541
98	0x3a623c7d	0.0008630229
99	0x3b041023	0.002015122
100	0x3b0df7fb	0.00216627
101	0x3aed0635	0.0018083515
102	0x3c30f3c9	0.01080031
103	0x3bb2eed7	0.005460601
104	0x3bcd4a40	0.006264955
105	0xbb81b3d8	-0.0039582066
106	0xbb0551ad	-0.0020342872
107	0x3ad5b534	0.0016304613
108	0x3ab5bf9d	0.0013866309
109	0x3b0d2d50	0.00215419
110	0x3bd3fb9f	0.0064692046
111	0x3bb4b086	0.0055142073
112	0x3c0f6480	0.008751988
113	0x3b38f1a2	0.0028220196
114	0x3c458fab	0.012058179
115	0x3be8acb3	0.0071006655
116	0x3c1aac97	0.009440563
117	0x3b8ba562	0.0042616585
118	0x3bc8c17d	0.006126581
119	0x3b91ead9	0.004453045
120	0x3bf914da	0.0076013627
121	0x3bdd383d	0.006751089
122	0x3b54ef98	0.0032491442
123	0xbb275776	-0.0025534309
124	0xbb5c30b3	-0.0033598363
125	0x3c6c41c0	0.014419973
126	0x3bb688c4	0.005570503
127	0x3b8406c8	0.0040291287
128	0x3b8b9b0a	0.0042604255
129	0xb9e210bb	-0.00043118544
130	0xb98fc49e	-0.00027421577
131	0x3b5d6e24	0.0033787573
132	0x3be8052b	0.007080694
133	0xbab0e07c	-0.0013494636
134	0x3b27809c	0.0025558835
135	0xbb0403b5	-0.002014381
136	0xbb71c69b	-0.003689206
137	0xbb136a83	-0.0022493906
138	0x3bbedb61	0.005824492
139	0x3bee82f5	0.007278795
140	0x3b25380c	0.0025210408
141	0xb924ae81	-0.00015705267
142	0x3acc9ad1	0.0015610104
143	0x3ae79c6c	0.0017670519
144	0x3c3427e0	0.010995835
145	0x3b4e92e5	0.0031520661
146	0x3b52c436	0.0032160408
147	0x3b7907ea	0.0037999102
148	0x3a59d6a3	0.00083098764
149	0x3c0cf56b	0.008603434
150	0x3c03d227	0.00804571
151	0x3aeb97e9	0.001797435
152	0x3bb75a0a	0.0055954503
153	0x3b7981a4	0.0038071657
154	0xbb8e1843	-0.0043363883
155	0x3b05e476	0.0020430363
156	0x3c1740a0	0.009231716
157	0xbc3536f9	-0.01106047
158	0x3b7d08a9	0.0038609898
159	0x3c00e59d	0.007867244
160	0xbafecf0e	-0.0019440369
161	0x3c10e415	0.0088434415
162	0x3b71df4e	0.0036906782
163	0x3c47206b	0.012153725
164	0x3b9fd2f9	0.004877445
165	0x3b848436	0.004044081
166	0x3b16225a	0.0022908659
167	0x3bf1e551	0.007382073
168	0xba473216	-0.0007598711
169	0x39d5dd20	0.00040791277
170	0x3ae59c1f	0.0017517841
171	0x3b6a49f5	0.0035749648
172	0xba9b16f0	-0.0011832397
173	0xbb2d8ef9	-0.0026482923
174	0x39932a45	0.00028069518
175	0xbbbba9d4	-0.005727032
176	0x3c2c9312	0.010533111
177	0x3b5eb174	0.0033980282
178	0x3c63ba28	0.013899364
179	0x3b47b942	0.0030475412
180	0x3a0a9ca7	0.0005287625
181	0x3b36f99f	0.0027919782
182	0xbb6b0ff9	-0.0035867675
183	0x3b98de95	0.0046652057
184	0x3c78e6c6	0.015191739
185	0x3b5cb121	0.0033674913
186	0x3b3354ab	0.0027363698
187	0x3ba28b2b	0.004960438
188	0x3997d368	0.00028958474
189	0x3c17057f	0.009217619
190	0x3bf1f0e9	0.007383455
191	0xbbac80e9	-0.0052643907
192	0x3b3af403	0.002852679
193	0xbad397c5	-0.0016143253
194	0xbb53f8ef	-0.003234442
195	0x3afc861f	0.0019266045
196	0x3b4a9b66	0.0030915379
197	0x3c342261	0.010994525
198	0x3c055f62	0.008140417
199	0xba6558d1	-0.00087488914
200	0x3c21d4af	0.009877368
201	0xbaacdb96	-0.0013188
202	0x3b895293	0.004190752
203	0x3b02a0c3	0.0019932247
204	0x3aaf7f20	0.0013389327
205	0x3b80c57a	0.003929791
206	0x3bd8bad6	0.0066140695
207	0x3bf4e6f0	0.007473819
208	0x3bc58498	0.0060277693
209	0x3b20006c	0.0024414314
210	0xbae3f480	-0.0017391592
211	0x3c51e5cb	0.012811135
212	0x3b87019e	0.004120066
213	0xbc00653c	-0.007836636
214	0x3b426832	0.0029664156
215	0xbc1136d4	-0.00886317
216	0x3b7f566e	0.0038961428
217	0x3b8da6fe	0.0043228855
218	0x3bf9205a	0.0076027336
219	0x3b2bb646	0.0026201173
220	0x3c3deb24	0.011591706
221	0x3ba9421f	0.005165353
222	0xb8a65cea	-7.9328034e-05
223	0xbbbc87da	-0.0057534995
224	0x3c18ecc9	0.009333798
225	0x3aa9549a	0.001291889
226	0xbb24f3a4	-0.0025169635
227	0xb9eed8bf	-0.00045556386
228	0xbbaa18dc	-0.0051909517
229	0x3b6c616f	0.0036068817
230	0x3ba6931a	0.005083454
231	0x3bfd9896	0.007739137
232	0x3bb80306	0.005615595
233	0x3c48d653	0.01225813
234	0x3bfbb5c5	0.0076815807
235	0x3b9a68c9	0.0047121984
236	0x3ae32e74	0.001733257
237	0xbc33219c	-0.010933306
238	0xb6c0a1ec	-5.740896e-06
239	0x3c13e121	0.009025843
240	0x3ac20652	0.0014802909
241	0x3b3c1fa3	0.002870538
242	0x3b5f77fe	0.003409862
243	0xbb08cbf5	-0.002087352
244	0x3b9cef39	0.0047892598
245	0x3bedc5d2	0.007256248
246	0x3be8d094	0.0071049426
247	0xbbc89045	-0.006120714
248	0x3c0e1338	0.008671574
249	0x3b790c8b	0.003800186
250	0xbbb5b633	-0.0055454015
251	0x3a695b3d	0.000890184
252	0x3bdc2d13	0.0067192405
253	0x3c252d42	0.010081591
254	0x3c0ab756	0.008466562
255	0x3b6c40d4	0.0036049383

network_body._body_endoder.seq_layers.2.weight f4 [256, 256]
0	0x3d8e57fd	0.06950376
1	0x3dc3e8be	0.095658764
2	0xbc02a71f	-0.007974415
3	0x3d23de93	0.040007185
4	0xbd46bca7	-0.048519757
5	0xbd54335e	-0.0518068
6	0xbd22b1c4	-0.03972031
7	0xbd62a199	-0.055329893
8	0xbc6f81da	-0.014618361
9	0x3d9dea9b	0.07710763
10	0xbd12e7cd	-0.035865594
11	0xbc0a0f35	-0.008426477
12	0xbb3daec9	-0.0028943291
13	0x3df2970b	0.118452154
14	0xbdb50575	-0.088389315
15	0xbd243b9c	-0.04009591
16	0xbd295d63	-0.041348826
17	0xbd4abc91	-0.049496237
18	0xbd44219e	-0.047883622
19	0x3ca872c8	0.020562544
20	0xbdfe30a9	-0.12411625
21	0xbc74cb3f	-0.014941036
22	0xbcb29321	-0.021798672
23	0x3ccaeb73	0.024770474
24	0x3dcc39c0	0.099719524
25	0x3d3a270f	0.045447405
26	0xbcdf0dbe	-0.027228232
27	0xbc8d1bc6	-0.017225157
28	0x3d12489b	0.035713773
29	0xbb5229e2	-0.003206842
30	0x3c91c139	0.017792331
31	0x3db3fc9c	0.08788416
32	0xbcc4fbb9	-0.024045812
33	0x3ad793b4	0.0016447217
34	0xbce5d4e1	-0.02805561
35	0x3dc761c2	0.09735443
36	0xbd2394a6	-0.039936684
37	0xbc31cef9	-0.010852569
38	0xbcc7669c	-0.02434092
39	0x3cc7003a	0.0242921
40	0xbcf6a8ca	-0.030109782
41	0x3dd6f258	0.10495442
42	0x3d7436e2	0.059622653
43	0xbda29b18	-0.07939738
44	0x3d53463a	0.051580645
45	0xbd3978ad	-0.0452811
46	0xbc9eb2cf	-0.019372372
47	0x3d4148d5	0.0471886
48	0xbd83aa67	-0.06428986
49	0xbafab10a	-0.0019126248
50	0xbcf27ad6	-0.029599588
51	0x3d8f40eb	0.06994804
52	0x3d7095b6	0.058736525
53	0x3c7d456e	0.015458448
54	0x3d6b0e2c	0.057386562
55	0xbd4b0678	-0.049566716
56	0x3d40889b	0.047005277
57	0xbb79d0b6	-0.0038118786
58	0xbd3bd41f	-0.04585659
59	0x3c4e3b08	0.012587316
60	0xbcda9d93	-0.026686465
61	0x3dda3fda	0.1065671
62	0x3d2275df	0.039663192
63	0x3d7564de	0.059910648
64	0xbe045716	-0.12923846
65	0x3afba88b	0.001920001
66	0x3d1d53fe	0.03841018
67	0xbdca6fca	-0.09884603
68	0xbe00e495	-0.12587197
69	0xbd1096a4	-0.035299912
70	0x3c933b8b	0.017972728
71	0x3dc1d6d8	0.09464806
72	0x3dd23b2e	0.10265194
73	0xbd9e5fde	-0.07733129
74	0x3d0119a2	0.031518586
75	0x3bf12125	0.0073586875
76	0x3cd40087	0.025879158
77	0x3d0c50c7	0.034256723
78	0x3d5d32be	0.05400347
79	0x3d98c1ee	0.07458864
80	0xbda9a8e9	-0.0828417
81	0x3c8d943b	0.017282596
82	0xbdcde531	-0.100534804
83	0xbaae0a7b	-0.001327827
84	0x3bfb4c91	0.0076690395
85	0xbcbcace0	-0.023031652
86	0xbe296acf	-0.1654465
87	0xbd09450d	-0.033513118
88	0x3d594f82	0.05305434
89	0xbccf8b45	-0.025334964
90	0x3b89b8d5	0.004202942
91	0x3c0092bd	0.007847485
92	0xbdc9e1e8	-0.09857541
93	0x3dbcadec	0.092128605
94	0xbdfa8888	-0.122330725
95	0x3d1d1683	0.038351547
96	0xbcaf9f8c	-0.021438383
97	0x3d3cfa9d	0.04613744
98	0xbc37ed95	-0.011226078
99	0xbd629a55	-0.055322964
100	0x3d9a043e	0.075203404
101	0x3c9ebab0	0.019376129
102	0x3c2c4aaa	0.010515848
103	0xbd00bd00	-0.031430244
104	0xbda97ff2	-0.08276357
105	0x3c3f018a	0.011658082
106	0x3d816f34	0.063200384
107	0x3d78d463	0.060749423
108	0x3d0ce988	0.0344024
109	0xbd8b5476	-0.06803219
110	0xbd2e75db	-0.042592864
111	0xba2ad497	-0.00065166637
112	0x3cffbcfc	0.031218044
113	0xbc8eea20	-0.017445624
114	0x3d190533	0.037358474
115	0xbc357ab5	-0.011076619
116	0x3d22a9b0	0.039712608
117	0xbc9d0df7	-0.019171698
118	0xbbb26c9d	-0.0054450766
119	0xbdbc5cb2	-0.09197368
120	0x3b6e2d6d	0.0036342994
121	0xbd07a58f	-0.033116873
122	0xbd58328b	-0.052782577
123	0xbd5bb941	-0.05364347
124	0x3b803b59	0.003913325
125	0x3e26f022	0.16302541
126	0x3d008dc7	0.03138521
127	0x3bf747d7	0.007546406
128	0xbda47458	-0.08030003
129	0x3c0c75ba	0.00857299
130	0x3bcee187	0.006313506
131	0xbd060849	-0.032722745
132	0xbc99025f	-0.018677888
133	0xbc88afa8	-0.016685322
134	0xbd2b3ba7	-0.041804936
135	0xbdc6671a	-0.09687634
136	0xbd20b3e3	-0.039234053
137	0xbcfebd6f	-0.031096188
138	0x3d0416a5	0.032248158
139	0xbceeeffb	-0.029167166
140	0x3d19035e	0.037356727
141	0xbc0bcffe	-0.008533476
142	0xbda5a0bf	-0.080873005
143	0x3d94195d	0.072314
144	0x3c6dbc6d	0.014510256
145	0x3ddc49df	0.10756277
146	0xbd54c9e6	-0.051950358
147	0xbd117f51	-0.03552181
148	0xbd74e309	-0.05978683
149	0xbdeac0aa	-0.11462529
150	0xbd7e6416	-0.06210717
151	0xbc20388f	-0.00977911
152	0x3d35bb4c	0.044368073
153	0xbd4e884e	-0.05042296
154	0xbce84387	-0.028352512
155	0x3d9b0499	0.07569236
156	0x3c6b9bbc	0.014380392
157	0x3da9f7fd	0.08299253
158	0xbd926e06	-0.071498916
159	0xbd0d118c	-0.034440562
160	0xbcba184a	-0.02271666
161	0xbd0c4766	-0.03424778
162	0x3dc4efe2	0.096160665
163	0xbc927c71	-0.017881604
164	0xbd7377c4	-0.05944039
165	0xbd0cd358	-0.03438124
166	0x3a33acff	0.00068540865
167	0x3cd7bd0d	0.026335264
168	0xbaae4dac	-0.0013298295
169	0x3dd75ebb	0.10516115
170	0x3d8cbe1c	0.06872198
171	0xbe404782	-0.18777278
172	0xbd0a17af	-0.033713993
173	0x3c4d1f5b	0.012519683
174	0x3ca1631a	0.019700576
175	0xbd2dbad8	-0.042414516
176	0xbda3e841	-0.08003283
177	0x3d628f1d	0.055312265
178	0x3be48956	0.0069743795
179	0x3e101b7e	0.14072987
180	0x3e13ccd1	0.144336
181	0x3c8b6602	0.017016415
182	0x3d89d41b	0.06729909
183	0xbcd06ebc	-0.025443427
184	0x3c8b0315	0.016969243
185	0xbd28c016	-0.041198812
186	0x3dca9fa6	0.09893732
187	0xbbce538f	-0.006296582
188	0x3db5ff65	0.08886603
189	0x3dcbfd07	0.099603705
190	0xbbb02295	-0.0053752162
191	0x3bec9028	0.007219333
192	0xbd290190	-0.041261256
193	0x3cc9a039	0.024612533
194	0xbd37d955	-0.044885
195	0x3d3804fc	0.04492663
196	0x3bb6f032	0.0055828327
197	0x3df06118	0.11737269
198	0xbcf0a3bd	-0.029374951
199	0x3dbd7cd8	0.09252328
200	0x3d03c4aa	0.032169975
201	0x3d110751	0.035407368
202	0xbdbbec29	-0.09175903
203	0xbd477a5c	-0.048700675
204	0xbdbf78b1	-0.09349192
205	0x3d105d59	0.035245273
206	0x3cd616fb	0.026134005
207	0xbd338057	-0.043823566
208	0xbc129b81	-0.008948208
209	0x3da80ee4	0.08205965
210	0x3cd1a038	0.025589094
211	0x3cc69d7d	0.024245018
212	0xbd9f4503	-0.07776835
213	0xbd96bc5a	-0.07360144
214	0x3e2e5422	0.17024282
215	0x3db75a7b	0.08952805
216	0x3b071bc3	0.0020615913
217	0x3d737903	0.059441578
218	0x3bf2403f	0.0073929126
219	0x3c8399bb	0.016064515
220	0x3dcdd2ed	0.100499965
221	0xbd1549f7	-0.03644749
222	0x3cf3f70d	0.029780889
223	0x3d57e8b5	0.05271216
224	0x3cdfa7b4	0.027301647
225	0x3dd013c5	0.10160021
226	0x3cb7990d	0.022411847
227	0xbd76e38c	-0.0602756
228	0xbdab2ee9	-0.08358557
229	0xbc840529	-0.016115742
230	0x3d23253a	0.039830424
231	0xbb9fa74f	-0.0048722397
232	0xbbc33492	-0.0059571946
233	0x3d7c4039	0.061584685
234	0xbd4c9f14	-0.049956396
235	0x3ce03734	0.027370073
236	0xbd8781de	-0.06616567
237	0x3de9fa19	0.114246555
238	0x3c9aada1	0.01888162
239	0xbcf1d899	-0.029522227
240	0x3dcc2733	0.09968414
241	0xbccacc34	-0.024755575
242	0xbdd794d9	-0.10526437
243	0xba0aaa3e	-0.000528965
244	0xbdb156c1	-0.08659125
245	0x3d517d1a	0.051144697
246	0x3d280488	0.041019946
247	0xbd88c5b2	-0.066783324
248	0x3da5125b	0.08060142
249	0x399dbc8e	0.00030085858
250	0xbda54a4c	-0.08070812
251	0x3d1dc339	0.038516257
252	0x3c1af605	0.00945807
253	0xbc9ebf70	-0.019378394
254	0xbe042b28	-0.12907088
255	0xbceccef5	-0.028907279
