results/H2/AgentController.onnx (onnx, 657373 bytes, 14 tensors)

83 f4 [116]
0	0x3e8b30ec	0.27185762
1	0x3e065e06	0.13121805
2	0x3e787fed	0.2426755
3	0x3e86a7c2	0.26299864
4	0x3e8d7887	0.27631018
5	0x3e08b918	0.13351858
6	0x3e7ca982	0.24674037
7	0x3e86c531	0.2632232
8	0x3e86b85a	0.26312524
9	0x3e043e50	0.12914395
10	0x3e6f18f6	0.23349366
11	0x3e8725e3	0.26396093
12	0x3e8d4c94	0.27597487
13	0x3e0b0276	0.13575158
14	0x3e7b1f75	0.24523719
15	0x3e871889	0.26385906
16	0x3e8016c8	0.2501738
17	0x3e00feb5	0.12597163
18	0x3e612fe9	0.21990933
19	0x3e87ea10	0.26545763
20	0x3e8a333e	0.2699222
21	0x3e0b4bc8	0.13603127
22	0x3e73ad98	0.2379669
23	0x3e878fde	0.2647695
24	0x3e773638	0.24141777
25	0x3dff6d48	0.124720156
26	0x3e5742ae	0.2102153
27	0x3e88f2d5	0.26747766
28	0x3e852a3e	0.2600879
29	0x3e08ab2b	0.13346545
30	0x3e691dea	0.22765318
31	0x3e882ce2	0.26596743
32	0x3e6ffd86	0.23436555
33	0x3dfd9b78	0.12383169
34	0x3e4f26c3	0.2022963
35	0x3e899344	0.26870167
36	0x3e7b6a26	0.24552211
37	0x3e057a27	0.13034879
38	0x3e5905c6	0.21193609
39	0x3e87de58	0.26536822
40	0x3e6bc3a3	0.23023848
41	0x3dfacdbe	0.122462735
42	0x3e4ae3ca	0.19813457
43	0x3e89729b	0.2684525
44	0x3e6a5215	0.22882874
45	0x3e027996	0.12741694
46	0x3e460f5e	0.193418
47	0x3e86cb54	0.26327002
48	0x3e6bd1e3	0.23029284
49	0x3df7b895	0.12095753
50	0x3e4bda52	0.19907501
51	0x3e88d48a	0.26724654
52	0x3e62e1b5	0.22156413
53	0x3e070728	0.13186324
54	0x3e39b012	0.18133572
55	0x3e85a92f	0.2610564
56	0x3e702787	0.23452578
57	0x3df6b0a7	0.120454125
58	0x3e514387	0.20435916
59	0x3e87eaa7	0.26546213
60	0x3e612153	0.21985368
61	0x3e0e1586	0.13875398
62	0x3e32411d	0.17407651
63	0x3e849dd7	0.25901672
64	0x3e76a02f	0.24084543
65	0x3dfd17a2	0.12358023
66	0x3e573515	0.21016343
67	0x3e86d207	0.26332113
68	0x3e65fefa	0.22460547
69	0x3e16f781	0.14742853
70	0x3e319ba2	0.17344525
71	0x3e838ff5	0.25695768
72	0x3e7ec3ec	0.24879426
73	0x3e03b3e7	0.12861596
74	0x3e5e0a5f	0.21683644
75	0x3e85911b	0.2608727
76	0x3e6aba9e	0.22922751
77	0x3e1dfae0	0.15427732
78	0x3e321ead	0.17394514
79	0x3e825fa1	0.25463584
80	0x3e84ce84	0.2593881
81	0x3e1006ea	0.14065138
82	0x3e6412bc	0.22272772
83	0x3e8402ce	0.2578339
84	0x3e6e2c9b	0.23259203
85	0x3e21c98e	0.15799543
86	0x3e3392fc	0.17536539
87	0x3e81299e	0.25227064
88	0x3e8a67c0	0.2703228
89	0x3e1ddecb	0.1541702
90	0x3e697a82	0.2280064
91	0x3e829709	0.25505856
92	0x3e716d94	0.23576957
93	0x3e23819a	0.15967408
94	0x3e369aa7	0.17832433
95	0x3e80408b	0.25049242
96	0x3e8deb44	0.27718556
97	0x3e2b8a73	0.16752033
98	0x3e695f54	0.22790271
99	0x3e8167ad	0.2527441
100	0x3e78d779	0.24300946
101	0x3e267543	0.1625567
102	0x3e3e6381	0.18592645
103	0x3e7ed52c	0.24886006
104	0x3e8bc6ce	0.27300113
105	0x3e30d754	0.17269641
106	0x3e5fe1d1	0.21863486
107	0x3e8076b7	0.25090572
108	0x3e8443c5	0.25832954
109	0x3e2dcf10	0.1697352
110	0x3e4de0ba	0.20105258
111	0x3e7f3b5f	0.24924992
112	0x3e8443c5	0.25832954
113	0x3e2dcf10	0.1697352
114	0x3e4de0ba	0.20105258
115	0x3e7f3b5c	0.24924988

86 f4 [3]
0	0x40e5b9cb	7.17893
1	0x3b85b003	0.00407982
2	0x40e91cd4	7.284769

action_model._continuous_distribution.log_sigma f4 [1, 2]
0	0xbc15c290	-0.009140626
1	0xbb7e327f	-0.0038787422

action_model._continuous_distribution.mu.bias f4 [2]
0	0x3a2f21f2	0.00066807785
1	0xb9699a00	-0.00022277981

action_model._continuous_distribution.mu.weight f4 [2, 256]
0	0x3d0586ea	0.032599367
1	0xbbf80510	-0.007568963
2	0xbcdb05f2	-0.026736233
3	0x3c36c520	0.011155397
4	0x3c7d4094	0.015457291
5	0x3ced13a2	0.028940026
6	0x3cdbba24	0.026822157
7	0xbbe3be8b	-0.0069502047
8	0xbd016de9	-0.03159896
9	0xbcdfe3bd	-0.027330274
10	0xbc7c6527	-0.015404976
11	0xbbe9b7f2	-0.0071325237
12	0x3ba32195	0.0049783685
13	0xbcbf3b34	-0.02334366
14	0xbb1076a0	-0.0022043362
15	0xbcc9c0f5	-0.024628142
16	0xbc3b53ee	-0.011433585
17	0x3c9a9e28	0.018874243
18	0xbc33024c	-0.010925841
19	0xbc4d9d99	-0.012549781
20	0x3c3ad419	0.011403107
21	0xbbdfe28a	-0.0068324255
22	0x3caead40	0.021322846
23	0xbcaf3dfc	-0.021391861
24	0x3c87fc6a	0.016599853
25	0xbc1dde72	-0.009635555
26	0xbc5fd061	-0.013660521
27	0xbbdec654	-0.006798545
28	0x3c52319a	0.012829209
29	0x3cd44267	0.02591057
30	0x3cb77f6b	0.022399625
31	0xbbef8ab6	-0.007310237
32	0xbc02fe0a	-0.007995138
33	0xbc69e094	-0.014274735
34	0xbcec4bf2	-0.028844807
35	0x3be68114	0.0070344303
36	0xbcf7f08f	-0.030266074
37	0x3c1b5857	0.009481511
38	0xbcafd3d7	-0.021463318
39	0x3d108db0	0.035291374
40	0xbc9a8009	-0.01885988
41	0xbcf0c40e	-0.029390361
42	0xbb6df5cb	-0.0036309834
43	0x3cdc9029	0.02692421
44	0xbb661eea	-0.003511364
45	0x3bb7eb4e	0.0056127673
46	0xbbb1975d	-0.0054196552
47	0xbc33b648	-0.010968752
48	0x3c6817fe	0.014165876
49	0x3ba10b81	0.0049147015
50	0xbcab78df	-0.02093166
51	0x399a947e	0.00029483804
52	0x3d1bc6fd	0.038031567
53	0xbc896c6d	-0.016775334
54	0x3c111ddb	0.008857216
55	0xbd230109	-0.03979591
56	0xba07720a	-0.00051668345
57	0xbcacb256	-0.021081131
58	0x3c07246d	0.008248431
59	0xbc6953b7	-0.014241151
60	0x3b96ac54	0.00459818
61	0xbd0ee343	-0.034884702
62	0xbc917d1b	-0.01775985
63	0xbc965adc	-0.018353872
64	0x3ccfa3c1	0.025346639
65	0x3bd2d906	0.0064345626
66	0x3cac8955	0.021061579
67	0xbc475fd0	-0.01216884
68	0xbb5cd50f	-0.0033696329
69	0xbceb68bc	-0.028736465
70	0xbc1245fc	-0.008927818
71	0xbcd2b0b4	-0.025719024
72	0xbc6364d5	-0.013879021
73	0x3bceac9d	0.006307198
74	0xbc8b6c79	-0.017019497
75	0xbd12c88e	-0.035835795
76	0xbc285bf2	-0.010275828
77	0x3c0b47a9	0.008500972
78	0x3ac3c060	0.0014934652
79	0x3a894973	0.001047416
80	0xbb162a2d	-0.0022913322
81	0x3ba22dd7	0.004949312
82	0xbc9433a9	-0.01809104
83	0x3c1a3f47	0.009414501
84	0xbc3a85bc	-0.011384424
85	0x3c8c8f59	0.017158197
86	0x3d0ecc95	0.034863073
87	0xbc117f86	-0.008880502
88	0xbc7088bb	-0.014681037
89	0xbb4ba337	-0.0031072625
90	0xbcca4a04	-0.024693497
91	0x3bde1cd3	0.0067783385
92	0x3c6d448c	0.014481675
93	0x3cadf57e	0.021235224
94	0xbbd3e6ba	-0.0064667137
95	0x3c5de11d	0.013542441
96	0xbcc4c2ff	-0.024018763
97	0xbc1422e0	-0.009041518
98	0xbc9b1ef4	-0.018935658
99	0x3d406ad4	0.04697688
100	0x3c08e591	0.008355514
101	0xbc8d0688	-0.017215028
102	0xbd0eeb79	-0.034892533
103	0xbb9dc0c1	-0.004814238
104	0xbc1328c1	-0.008981884
105	0x3c1c07b4	0.009523321
106	0x3c47c50c	0.012192976
107	0xbbc0b8f6	-0.005881424
108	0xbc634c30	-0.013873145
109	0xbbaa83f1	-0.005203717
110	0xbc96d0dc	-0.018410139
111	0x3c9b085d	0.018924886
112	0xbab9be0c	-0.0014171018
113	0x3b3e7fd6	0.0029067895
114	0x3c2cb1ef	0.01054047
115	0x3c228ecf	0.009921744
116	0xbc9f6225	-0.019455979
117	0x3ccab3da	0.024743963
118	0x3c27c81c	0.010240581
119	0xbcd1f211	-0.025628122
120	0xbc1b63cc	-0.009484243
121	0x3c0eeaf8	0.008723013
122	0xbc3afa4e	-0.011412216
123	0xbc48dcea	-0.012259701
124	0x3c350abe	0.011049924
125	0x3bb33e9f	0.0054701115
126	0xbcd6c1b2	-0.026215408
127	0x3c5593be	0.013035713
128	0xbd03181c	-0.032005414
129	0x3bb5d612	0.005549201
130	0x3cf7478f	0.030185489
131	0x3cfc52e2	0.03080124
132	0xbcaf517c	-0.02140116
133	0xbd394e0d	-0.04524045
134	0x3c781858	0.015142523
135	0xbc7334ae	-0.014844103
136	0x3c422ef1	0.011852012
137	0xbcaa68c0	-0.020801902
138	0xbc45d6f9	-0.012075179
139	0xbc76b733	-0.015058327
140	0x3b1e9666	0.0024198531
141	0xbae5be47	-0.001752802
142	0xbca70afb	-0.020390978
143	0x3a374fbf	0.0006992779
144	0xbc320fc5	-0.010868018
145	0x3c16205d	0.009162989
146	0xb95cc812	-0.00021055367
147	0x39297a17	0.00016162578
148	0x3c337571	0.010953293
149	0x3c9ea69d	0.019366557
150	0x3cbff69a	0.023433018
151	0x3c7b2153	0.015327769
152	0x3c45af14	0.012065668
153	0x3b805f11	0.003917583
154	0x3b7f53f3	0.003895995
155	0x3a4a9665	0.0007728099
156	0xbbe1b5c0	-0.0068881214
157	0x3ce98d96	0.028509896
158	0x3c1cf5c7	0.009580082
159	0xbc895fb7	-0.016769273
160	0x39f0e484	0.00045946625
161	0xb91f66fe	-0.00015201789
162	0x3ce34001	0.02774048
163	0xbb67003a	-0.0035247938
164	0x3cac44bd	0.02102887
165	0xbc5c140f	-0.013432517
166	0x3c4c9fd4	0.012489278
167	0x3b2c33ac	0.0026275916
168	0x3c42cb05	0.011889224
169	0x3a0caeb5	0.00053666095
170	0xbd0521b0	-0.03250283
171	0xbcce6ee3	-0.02519936
172	0x3c967c5b	0.018369844
173	0x3ca159fd	0.01969623
174	0xbc2b7e6f	-0.010467156
175	0xbbd8ea36	-0.006619717
176	0xbcf04f8b	-0.029334804
177	0xbb61ddb0	-0.0034464411
178	0x3c09697b	0.008386965
179	0xbc83c950	-0.016087204
180	0x3ad81d9b	0.0016488315
181	0x3ca79e2c	0.020461164
182	0x3bb41d73	0.0054966747
183	0x3d29665b	0.04135738
184	0xbc8cadfa	-0.017172802
185	0x3c664786	0.014055138
186	0x3c8ba695	0.017047206
187	0x3c566c50	0.013087347
188	0xbc898e1a	-0.016791392
189	0xbcadb3b8	-0.02120386
190	0x3d5cf279	0.053942177
191	0x3b2dab12	0.002649967
192	0xbc0b1a75	-0.008490195
193	0xbc928030	-0.01788339
194	0xbc5ce1bc	-0.013481554
195	0x3ca9e151	0.020737322
196	0xbbe1a2a1	-0.006885842
197	0x3c96ba25	0.018399308
198	0xbc52a178	-0.01285588
199	0x3a5e6c12	0.00084847317
200	0x3c8ba79f	0.017047701
201	0x3ae96793	0.0017807357
202	0xbbed4b67	-0.0072416547
203	0xbcd412d6	-0.025887888
204	0x3c83bd68	0.016081527
205	0x3be289ed	0.0069134147
206	0xbcd68a5a	-0.026189018
207	0x3d01e0bb	0.03170846
208	0x3c1e4972	0.009661065
209	0x3c9323fe	0.017961498
210	0x3ca7b4fa	0.020472039
211	0xbd0cb175	-0.034348924
212	0xbaebb2ba	-0.0017982342
213	0x3ab54f52	0.0013832843
214	0xbd12c46d	-0.035831857
215	0x3bf43aef	0.0074533145
216	0x3c9a3513	0.018824136
217	0x3c3f8660	0.011689752
218	0xbb5db816	-0.0033831648
219	0x3bcdd4a6	0.006281453
220	0xbcaf2e65	-0.021384427
221	0xbc4588af	-0.012056514
222	0xbca68db0	-0.020331234
223	0x3c5e0450	0.013550833
224	0xbcaf0e85	-0.021369228
225	0x3c6e5c11	0.0145483175
226	0x3bb15f53	0.005412975
227	0xbd4b4b6a	-0.049632467
228	0xbc996d8c	-0.018728994
229	0xbc054690	-0.008134499
230	0x3c89525c	0.016762905
231	0x3c294de5	0.010333513
232	0x3bee76ef	0.0072773616
233	0x3ced866a	0.028994758
234	0xbc38080d	-0.011232388
235	0x3b4540e7	0.00300985
236	0xbcecbaed	-0.028897727
237	0x3c8083d8	0.015687868
238	0x3c9d4631	0.019198509
239	0xbc44e581	-0.012017609
240	0x3c6a2535	0.014291097
241	0xbba7d04e	-0.0051212674
242	0xbaa486f1	-0.0012552423
243	0xbc821a57	-0.0158817
244	0x3cb2c4df	0.021822391
245	0xbb566c4e	-0.0032718363
246	0x3c7033b5	0.014660765
247	0x3bd8c7e1	0.0066156243
248	0x3cf2afe8	0.029624894
249	0xbbc4b59b	-0.0060030944
250	0x3c558b04	0.013033632
251	0x3cab87db	0.020938804
252	0x38f97ebb	0.000118968506
253	0x3c4bee6f	0.012446984
254	0xbc5c0eac	-0.013431232
255	0xbcd017ba	-0.025401939

action_model._discrete_distribution.branches.0.weight f4 [1, 256]
0	0xbabb6fff	-0.0014300345
1	0xba0a6382	-0.000527911
2	0xbb53e603	-0.0032333143
3	0x3ba1b70e	0.004935152
4	0x3ab8e907	0.0014107533
5	0x3b2020ef	0.0024433692
6	0x3c0604a3	0.008179816
7	0x3b0fefaa	0.002196292
8	0xbbfc69b2	-0.0077030296
9	0xbc7c0c18	-0.015383743
10	0xbb9040be	-0.004402249
11	0xbc3a98a2	-0.01138893
12	0xb97d8bfa	-0.00024180106
13	0xbb95f833	-0.004576707
14	0xbb1b6db6	-0.0023716516
15	0xbbb9580c	-0.005656248
16	0xbb37a31b	-0.0028020802
17	0x3b2d5e1d	0.00264538
18	0x3b5d0cea	0.0033729621
19	0xbb81558b	-0.003946965
20	0xbc42db1c	-0.01189306
21	0xb95de27b	-0.00021160573
22	0x3b1c44b3	0.002384466
23	0xba8908e9	-0.0010454926
24	0xba88c628	-0.0010435032
25	0xb8d981fa	-0.00010371576
26	0x3b8acf9f	0.004236176
27	0x3b2898b8	0.0025725793
28	0xbad167db	-0.0015976386
29	0x3b2b89b0	0.0026174597
30	0xbb951427	-0.0045495215
31	0xbb67dffa	-0.0035381303
32	0x3c02653f	0.007958709
33	0xba8c178c	-0.001068817
34	0xbafc5e4b	-0.0019254176
35	0xbb54bf50	-0.0032462664
36	0xbae9549a	-0.0017801702
37	0x395ec5bf	0.00021245236
38	0xbb274b98	-0.0025527235
39	0x3a1f22ff	0.00060705835
40	0xbb997f00	-0.004684329
41	0xbc2bfa64	-0.0104967095
42	0x3bf46917	0.0074588167
43	0x3b5be450	0.0033552833
44	0x399967c2	0.0002925974
45	0xb92099a6	-0.00015316028
46	0xbc09a495	-0.008401056
47	0x3c9ca4a3	0.019121474
48	0xbc218bc7	-0.009859986
49	0x3b6f2edb	0.0036496434
50	0xbb7cf06f	-0.0038595458
51	0xbbc9bab4	-0.00615629
52	0xba58cf32	-0.00082706206
53	0x39e0b532	0.0004285961
54	0x39b226c7	0.00033979697
55	0xbbd62cfd	-0.0065361247
56	0x3c760baf	0.015017434
57	0xb576f410	-9.19973e-07
58	0x3c0b93b3	0.008519101
59	0x3b391e05	0.0028246653
60	0x3b5db460	0.0033829436
61	0x3be7e4e7	0.007076848
62	0x3c28c47c	0.010300752
63	0xbc0a1e3c	-0.00843006
64	0xbb73e757	-0.0037216747
65	0xb8b0dc16	-8.433328e-05
66	0xb9a5a23f	-0.00031592135
67	0x3b8f45d0	0.004372336
68	0x398d6dc9	0.00026975412
69	0x3b237995	0.0024944295
70	0x3c0ae5d4	0.008477647
71	0x3a2187d0	0.00061619
72	0x3ba2796b	0.004958322
73	0x3c66f58d	0.01409663
74	0xbc94b428	-0.018152311
75	0xbb9968f7	-0.0046817022
76	0xb9ff13ed	-0.00048652236
77	0x3bcb624e	0.006206787
78	0xbc1abebd	-0.00944489
79	0x3c30679b	0.010766889
80	0xbbde6505	-0.006786945
81	0x3b822a85	0.003972354
82	0x3b12787f	0.0022349653
83	0xba0ca183	-0.00053646433
84	0x3bbe7e79	0.0058134166
85	0xbc493e7b	-0.012282963
86	0xbbf6bec2	-0.0075300643
87	0xbbf44bad	-0.0074553103
88	0x3c5f81f7	0.013641826
89	0xbbcd7085	-0.006269517
90	0xba9e93b5	-0.0012098463
91	0xbab6396e	-0.0013902613
92	0xb99c5b23	-0.0002982254
93	0xbb67dfe0	-0.0035381243
94	0xba821973	-0.0009925797
95	0xbbd52e17	-0.0065057385
96	0xbb39c3e1	-0.0028345513
97	0x3b984ab5	0.0046475776
98	0x3b88876f	0.0041665356
99	0x3af60a80	0.001877144
100	0xbbb690a3	-0.0055714413
101	0xb8b55250	-8.6460845e-05
102	0xbb692d92	-0.003558014
103	0xbb3a1c6a	-0.0028398284
104	0x3aeaa467	0.0017901779
105	0x3bb11aac	0.005404791
106	0x3c30bfa7	0.010787881
107	0x3a65b80b	0.0008763081
108	0xbbd95190	-0.0066320375
109	0xbb26bde9	-0.0025442785
110	0xba25c3e8	-0.0006323443
111	0x3c46243b	0.012093599
112	0x3b6470b8	0.0034857225
113	0xbc00b452	-0.007855492
114	0xbbb51f89	-0.005527441
115	0xbbafd45b	-0.005365891
116	0x3c2c6f43	0.010524574
117	0x3a956faf	0.0011401082
118	0xbb394b14	-0.002827351
119	0x3bd953c5	0.0066323006
120	0xbbf47db8	-0.007461276
121	0x3ad6c9bb	0.0016387025
122	0xbae7afe3	-0.001767632
123	0x3b24d28e	0.0025149914
124	0xbaa2802c	-0.0012397817
125	0xbc0e77f6	-0.008695593
126	0xbbfd98e0	-0.0077391714
127	0x3b599d3b	0.003320529
128	0xbb54e50a	-0.003248515
129	0x39dddde0	0.00042317715
130	0xbc8337ab	-0.016017755
131	0xbb4335c0	-0.0029786676
132	0x3bb86bb1	0.005628072
133	0x3adc8a2d	0.0016825848
134	0xbbea6a5f	-0.0071537937
135	0xbbc76f36	-0.0060862554
136	0x3bbafb63	0.005706237
137	0x3988a0e1	0.00026059806
138	0xbb4230f3	-0.0029631227
139	0xba3fdbd3	-0.0007318828
140	0x3b926081	0.0044670706
141	0xbaf6fba3	-0.0018843304
142	0xbb9e78d0	-0.0048361793
143	0xb766adab	-1.37495035e-05
144	0x3ba3cc8b	0.0049987487
145	0x3a8462e5	0.0010100274
146	0x3aa8089e	0.0012819951
147	0xbba5bff1	-0.0050582816
148	0x3afc1fb5	0.0019235524
149	0xbb898cb6	-0.0041976823
150	0x3c45803d	0.0120545
151	0xbb5ade47	-0.0033396648
152	0xbc91a352	-0.017778073
153	0xbbf22e33	-0.0073907613
154	0xbc00e29d	-0.007866529
155	0x3aa16efd	0.0012316402
156	0x3b5b499d	0.0033460625
157	0x3ba21f78	0.004947599
158	0xbab81890	-0.0014045406
159	0x3c0d863b	0.00863796
160	0x3b97039b	0.004608584
161	0xbba35ae2	-0.0049851993
162	0x3bdd08ba	0.006745425
163	0xbc4d071a	-0.0125139
164	0xbbef1fb2	-0.0072974795
165	0x3bb7865c	0.0056007337
166	0xbb9fd081	-0.0048771505
167	0x3b8fd2c7	0.0043891403
168	0xbb672110	-0.003526751
169	0xbc10fed4	-0.008849818
170	0xbbcb07f5	-0.006196017
171	0x39e2bd67	0.00043247195
172	0xb9145cc7	-0.00014148942
173	0xbb85a7d7	-0.004078846
174	0xbc37fd4b	-0.011229823
175	0xbac514cc	-0.0015036105
176	0x3b23c177	0.002498714
177	0x3c29dd82	0.010367753
178	0x3a68d823	0.00088823045
179	0x3b738f67	0.0037164332
180	0x3b33744c	0.002738255
181	0xbb986003	-0.0046501174
182	0xbb8597df	-0.0040769423
183	0xbb11af1e	-0.0022229622
184	0xbb536d62	-0.0032261242
185	0xbb7871aa	-0.0037909546
186	0xbb986634	-0.0046508554
187	0x3b8d0c6d	0.00430446
188	0xbbb0bb65	-0.005393433
189	0x3b3c56f3	0.002873835
190	0x3abf3327	0.0014587388
191	0x3c035fc7	0.008018441
192	0x3b718aa2	0.0036856313
193	0x3b89c77f	0.00420469
194	0xba00e681	-0.000491716
195	0x3ca32b93	0.019918239
196	0xbbe79213	-0.007066974
197	0x3bb247ec	0.0054407027
198	0x3c0a28f1	0.008432613
199	0x3c37950e	0.011204971
200	0xbb918cee	-0.004441849
201	0xbbe50c57	-0.0069899964
202	0xba744b8b	-0.0009319118
203	0xbbbb8097	-0.005722116
204	0xbb318e6c	-0.0027092947
205	0xbac485ba	-0.0014993467
206	0xbb8c3027	-0.004278201
207	0x3bd3926d	0.0064566643
208	0xbb57aca0	-0.003290929
209	0xbb34f49b	-0.0027611617
210	0xbc3beae2	-0.011469575
211	0xbbc4aeab	-0.0060022674
212	0xbc180bc0	-0.009280145
213	0x3b0b0041	0.0021209868
214	0x3bf8da2d	0.007594368
215	0xbc26f806	-0.010190969
216	0x3ba27f34	0.0049590115
217	0x3b87fc9d	0.004149987
218	0xbb1cc788	-0.002392264
219	0xbbe09473	-0.006853634
220	0xbb1bee4f	-0.0023793166
221	0x3bca8560	0.0061804503
222	0x3b61a70a	0.0034431838
223	0xba981b47	-0.0011604809
224	0x3becd8a2	0.007227973
225	0xbc487ea0	-0.012237221
226	0xbbd7b1e7	-0.006582487
227	0x3aced64b	0.0015780417
228	0xbac09817	-0.0014693764
229	0x3bd42f30	0.0064753518
230	0xbb4e927a	-0.0031520412
231	0xba383d0b	-0.0007028139
232	0x3b4cdd1b	0.0031259719
233	0x3c14b608	0.009076603
234	0x3c653d12	0.013991611
235	0xb94747ae	-0.00019004822
236	0x3c75cf3f	0.015003025
237	0xbbec5927	-0.007212776
238	0xbb0209e3	-0.0019842319
239	0x3c24fda1	0.0100702355
240	0x3c3d6a14	0.0115609355
241	0x3c791577	0.0152028715
242	0xbb46c8d0	-0.0030332096
243	0x3bb4a55a	0.0055128755
244	0x3bd343b0	0.006447278
245	0xb966af6d	-0.0002199986
246	0xb9a8fbcf	-0.0003223107
247	0x3a509a5b	0.0007957571
248	0x3c11bdff	0.008895396
249	0xbc019233	-0.007908392
250	0xbb4aec9b	-0.0030963782
251	0x3b150549	0.0022738746
252	0x3c711cba	0.014716322
253	0x3bc70e1b	0.0060746795
254	0xbb748aed	-0.0037314252
255	0xbc65b5a7	-0.01402036

network_body._body_endoder.seq_layers.0.bias f4 [256]
0	0x3c1efb56	0.009703478
1	0x3becb3aa	0.007223566
2	0x3bcc19ff	0.006228685
3	0x3b75d72b	0.0037512283
4	0xbafcc5af	-0.0019284989
5	0xbc107f96	-0.008819481
6	0x3b2e29bd	0.002657517
7	0xbc2076e8	-0.009793974
8	0x3c46cc2f	0.012133642
9	0xbb658e41	-0.0035027417
10	0x3c640cb9	0.013919049
11	0xbb54c309	-0.0032464883
12	0xbb978ace	-0.004624701
13	0xb99b0e38	-0.00029574498
14	0x3bd92e8e	0.006627864
15	0x3b36f49d	0.0027916797
16	0xbaa366a8	-0.0012466507
17	0x3bb9fc37	0.0056758183
18	0x3c5774db	0.013150419
19	0xbacfd024	-0.0015854877
20	0xbb7dc50e	-0.003872219
21	0x3c02004c	0.007934641
22	0x3c0ec55d	0.008714047
23	0x3bb4ca55	0.005517284
24	0x3c540569	0.012940743
25	0x3bb8dab5	0.0056413063
26	0x3c004755	0.007829507
27	0xbb2c60dc	-0.002630285
28	0xba1ade76	-0.0005907783
29	0x3ba0104d	0.0048847557
30	0xbbb4a361	-0.0055126403
31	0x3bdaac5c	0.006673379
32	0xbbbb2838	-0.0057115816
33	0x3b97217e	0.004612147
34	0x3c77e4cb	0.015130232
35	0x3ad665ee	0.0016357282
36	0x3bb686c8	0.0055702664
37	0x3c0ead3d	0.008708295
38	0x3c435b17	0.011923573
39	0xb92a4109	-0.00016236691
40	0x3bae0bf8	0.0053114854
41	0x39d60c58	0.00040826458
42	0x3bcf6c8d	0.006330079
43	0x3c034098	0.008011006
44	0x3c844489	0.016145961
45	0x3c88eb2b	0.0167137
46	0xba373d3c	-0.00069900206
47	0x39b1cce6	0.00033912732
48	0x3b81391c	0.0039435755
49	0xbaa8e730	-0.0012886282
50	0xbaaf08b5	-0.0013354035
51	0x39f0a126	0.00045896432
52	0x3c1b442c	0.009476703
53	0x3c231ed4	0.0099560805
54	0x3b018750	0.001976449
55	0x3b6285cb	0.003456461
56	0x3bd281c7	0.006424162
57	0x3ae8709f	0.0017733759
58	0xbbdb9757	-0.0067013907
59	0x3c0dcf60	0.008655399
60	0x3acae08c	0.0015478297
61	0xb9e3b281	-0.0004342981
62	0x3c12b304	0.008953813
63	0xbbc51718	-0.006014716
64	0x3b912123	0.004428999
65	0x3b5f73a9	0.0034096038
66	0xbc5edc8c	-0.013602387
67	0x3c7e241d	0.01551154
68	0x3c0c5aa3	0.008566531
69	0x3bc4a22a	0.006000777
70	0x3bc1f2a6	0.0059188185
71	0x3c0f7edd	0.008758274
72	0x3be0d448	0.0068612434
73	0x3c05290e	0.008127464
74	0x3bf0b14a	0.0073453533
75	0x3ba7e7fc	0.0051240902
76	0x3a8e4823	0.0010855239
77	0x3c2430b8	0.010021381
78	0x3c52559c	0.012837794
79	0x3bae25bd	0.0053145573
80	0x3bf439d0	0.007453181
81	0x3c241466	0.010014629
82	0x3bc0c427	0.005882758
83	0x39e0feb5	0.0004291438
84	0xbbffba8b	-0.00780422
85	0xbaded0ba	-0.0016999461
86	0x3c25d28b	0.010120998
87	0x3c554c19	0.013018631
88	0xbbea9417	-0.007158767
89	0x3c1acf17	0.009448788
90	0x3ba58d27	0.005052227
91	0xb9c399fd	-0.0003730803
92	0x3b6760e2	0.003530555
93	0xba73fc26	-0.00093072874
94	0x3c88048d	0.016603732
95	0xbc100bee	-0.008791907
96	0x3b9c41d0	0.0047685876
97	0x3ba8a200	0.005146265
98	0x3bf110a7	0.0073567214
99	0xbc9af763	-0.018916791
100	0x3bff7a63	0.007796572
101	0x3c27d3bd	0.010243353
102	0x3b4944ed	0.003071125
103	0xbb315f85	-0.002706499
104	0xbc4a2200	-0.012337208
105	0x3ba74aa6	0.0051053343
106	0x3c5ba596	0.013406178
107	0x3994bccf	0.00028369433
108	0xbb2ae733	-0.0026077747
109	0x3b843a03	0.004035236
110	0x39d8e343	0.00041368054
111	0x3c448c82	0.01199639
112	0xbb9fa20c	-0.0048716124
113	0x3c54e50f	0.012994065
114	0x3c2ad2d6	0.010426244
115	0xbb74b796	-0.003734087
116	0x3c47b7fd	0.012189862
117	0x3bd9d08b	0.0066471747
118	0x3c064fcd	0.008197737
119	0xbb507a64	-0.0031811232
120	0x3a9e89fc	0.0012095566
121	0x3b114942	0.002216891
122	0x3c67274e	0.014108492
123	0x3bb1506b	0.005411198
124	0x3c4b059e	0.012391476
125	0x3c5b8bd4	0.013400037
126	0x3c322098	0.010872029
127	0x3c2b75ba	0.01046508
128	0x3c3d654a	0.011559794
129	0x3bc3d082	0.005975784
130	0x3c144e89	0.009051927
131	0x3c1c08bc	0.009523567
132	0x3c483928	0.012220658
133	0xba915653	-0.0011088349
134	0xba240fd1	-0.00062584603
135	0x3c2c44be	0.010514436
136	0x3c8724e7	0.016497089
137	0x3c900f3e	0.017585393
138	0x3ba8be25	0.00514962
139	0xbb2efb20	-0.0026699975
140	0x3ba495a6	0.0050227223
141	0xba15b928	-0.00057114894
142	0x3bb8e9f9	0.005643126
143	0x3a37a8d0	0.0007006051
144	0xbb372d3a	-0.002795054
145	0x3ba24656	0.0049522324
146	0x3c1097e1	0.008825273
147	0x3bd4404c	0.0064773913
148	0x3c25423b	0.010086591
149	0x3b2931d3	0.002581705
150	0x3af8a10b	0.0018968893
151	0x3bd18e82	0.006395162
152	0xba514fa7	-0.00079845864
153	0x3c343208	0.0109982565
154	0x3ba578e7	0.005049813
155	0x3c5bba1f	0.013411074
156	0x3bebc8c9	0.0071955663
157	0x3aedc780	0.0018141121
158	0x3b3253ad	0.002721052
159	0x3bd1a9e3	0.006398426
160	0x3c893e22	0.01675326
161	0x3c0ad7ba	0.008474285
162	0x3c00e9e2	0.007868262
163	0x3b77e85b	0.0037827704
164	0xbacf0400	-0.0015794039
165	0xbba7379e	-0.0051030656
166	0x3bef8601	0.0073096757
167	0xbb2bb13d	-0.0026198172
168	0x3b5c8fc1	0.003365502
169	0x3b5eaa54	0.0033976035
170	0x3bcf6a56	0.006329815
171	0x3ae463b1	0.001742473
172	0x3bfac2c9	0.0076526147
173	0x3bb608c2	0.005555243
174	0x3c22891d	0.009920386
175	0x3b8154a3	0.003946857
176	0xbadd0a27	-0.0016863988
177	0x3c269d87	0.010169393
178	0xbbc2ca5b	-0.005944533
179	0xba65d258	-0.00087670004
180	0xbbde0a69	-0.0067761433
181	0x3a80c4ea	0.000982431
182	0x3bf57e08	0.0074918307
183	0x3c0bf9e2	0.008543463
184	0x3a9f9b9e	0.0012177115
185	0xba62cf6b	-0.00086521235
186	0x3bc9790e	0.006148464
187	0xbaa17160	-0.0012317114
188	0x3b0ec992	0.0021787626
189	0x3c7de89f	0.015497356
190	0x3c35db1d	0.011099604
191	0x3c303577	0.0107549345
192	0x3c148558	0.009064995
193	0xbb091a66	-0.0020920276
194	0x3b989716	0.0046566827
195	0x3a463060	0.0007560309
196	0x3ac5fdf8	0.0015105596
197	0x3ca08012	0.019592319
198	0x3b53a444	0.0032293955
199	0xbbe7c6d9	-0.007073265
200	0xbb3e5a84	-0.002904565
201	0x3c2c045a	0.010499084
202	0xbbccb23d	-0.0062468336
203	0x3b163285	0.0022918296
204	0x3bec6fbf	0.0072154696
205	0x3c23cf4f	0.009998157
206	0x3c184ea1	0.00929609
207	0x3afd64c7	0.0019332402
208	0x3c08e95b	0.0083564175
209	0x3c1619bc	0.009161409
210	0xbbc60440	-0.006042987
211	0x3c013a9c	0.007887509
212	0x3c291d94	0.010321993
213	0x3bb4f3ca	0.005522226
214	0xbbb733a8	-0.0055908747
215	0x3c4fa289	0.012673029
216	0xb8a5216e	-7.87404e-05
217	0x3b8480c3	0.00404367
218	0xbb973abb	-0.0046151555
219	0x39fa30a1	0.00047719947
220	0x3c8137a4	0.015773602
221	0x3baeb341	0.0053314273
222	0x3bc769cd	0.0060856105
223	0x3bb82176	0.005619223
224	0x3b44162d	0.0029920444
225	0x3bed0dbb	0.007234303
226	0x3be3fb7f	0.006957471
227	0x3c0fbe83	0.008773449
228	0xbb8248a5	-0.003975945
229	0x3aa5eef9	0.001265972
230	0x3baf7e6c	0.005355647
231	0x3c4f60ea	0.012657383
232	0xbb9e4c25	-0.0048308545
233	0xba1f843f	-0.0006085075
234	0x3b9cfce8	0.004790891
235	0x3c077a26	0.008268869
236	0x3bac5d80	0.0052601695
237	0x3c28db2f	0.010306164
238	0x3b8f20e6	0.0043679355
239	0x3c0d1677	0.008611313
240	0xbbaad263	-0.0052130683
241	0xbbbff236	-0.005857731
242	0x3c077fc1	0.008270205
243	0x3b6816ba	0.0035413937
244	0x3c0a78f6	0.008451691
245	0x3afc7e39	0.0019263692
246	0xbbc59051	-0.0060291667
247	0x39eab837	0.0004476921
248	0x3b64df31	0.0034923072
249	0x3ba2cdfc	0.004968403
250	0x3c419ab8	0.011816673
251	0x3c4ce274	0.0125051625
252	0xbb572840	-0.0032830387
253	0x3ae9f779	0.0017850242
254	0x3888ec3f	6.5289896e-05
255	0x3c5e6336	0.013573458

network_body._body_endoder.seq_layers.0.weight f4 [256, 119]
0	0x3db240c7	0.087037615
1	0x3c68b268	0.014202692
2	0x3de2de92	0.11077608
3	0xbd96f537	-0.0737099
4	0xbd90c268	-0.0706833
5	0x3c1c736e	0.009549005
6	0xbdaa76a1	-0.08323408
7	0x3e2c943a	0.16853419
8	0xbd71e397	-0.059054937
9	0xbd29b69e	-0.041433923
10	0xbdc0b0a0	-0.094086885
11	0xbd81b93b	-0.06334158
12	0x3e30cb25	0.17264993
13	0xbd81a535	-0.06330339
14	0xbd474e18	-0.04865846
15	0xbda20c12	-0.079124585
16	0xbc03b77f	-0.008039354
17	0x3db4ae36	0.088222906
18	0xbe077be8	-0.1323086
19	0xbe08aa48	-0.13346207
20	0x3d843f5c	0.06457397
21	0xbc1fdf7f	-0.009757875
22	0xbe0d7002	-0.13812259
23	0xbdd1939f	-0.102332346
24	0x3cac5e61	0.021041097
25	0x3c8f7ce2	0.017515603
26	0x3e03b004	0.12860113
27	0xbe57545e	-0.21028277
28	0x3e03c2a3	0.12867217
29	0xbc1fd900	-0.009756327
30	0xbd7d77a2	-0.06188167
31	0x3dae7ad7	0.085195236
32	0xbbb5c301	-0.005546928
33	0x3cbddce1	0.023176612
34	0x3dfa9137	0.12234729
35	0xbd9c850c	-0.07642564
36	0x3d654cd5	0.055981476
37	0x3da98466	0.08277206
38	0x3da8a387	0.08234315
39	0xbd64395e	-0.055718772
40	0x3d7b241d	0.061313737
41	0x3c895ac8	0.01676692
42	0xbd8cd89a	-0.06877251
43	0x3e1a7f2d	0.15087576
44	0xbd275629	-0.040853653
45	0x3bdc668f	0.006726093
46	0x3cadb7a6	0.021205734
47	0x3bbdd944	0.0057937223
48	0x3da86d00	0.08223915
49	0xbd4415a4	-0.0478722
50	0xbe06398a	-0.13107887
51	0x3c9c9e70	0.019118518
52	0x3d0c8771	0.034308854
53	0x3b0e087f	0.0021672545
54	0x3cb18817	0.021671338
55	0xbd988c58	-0.074486434
56	0xbe0b7209	-0.1361772
57	0x3e46e1dc	0.19422096
58	0xbc3ca768	-0.011514522
59	0xbe2d73ae	-0.1693866
60	0xbce78a67	-0.028264238
61	0xbddd3d9d	-0.108027674
62	0x3df81fd8	0.12115449
63	0x3e3cf7f9	0.18453969
64	0xba453971	-0.0007523513
65	0x3cc255ee	0.023722615
66	0x3c90a5bb	0.017657151
67	0xbd35b9b3	-0.04436655
68	0xbd838211	-0.064212926
69	0xbe2bd00c	-0.16778582
70	0x3e1234ed	0.14278002
71	0x3c96beb3	0.01840148
72	0x3d7fbd17	0.06243619
73	0x3b19ea70	0.0023485683
74	0xbd7590a5	-0.059952397
75	0xbded210d	-0.115785696
76	0x3d335032	0.043777652
77	0x3b060afa	0.002045332
78	0x3d6773a9	0.056506786
79	0x3d48e85b	0.049049716
80	0x3d547088	0.05186513
81	0xbd2e75bd	-0.042592753
82	0xbd063f0f	-0.03277498
83	0x3cd1bf05	0.02560378
84	0xbd44024a	-0.047853746
85	0xb9c7f5d3	-0.0003813939
86	0x3db8fa0d	0.090320684
87	0xbd225441	-0.039631132
88	0x3ca9d99e	0.02073365
89	0x3d92471b	0.071424685
90	0xbd5dda07	-0.054163005
91	0x3e592559	0.21205653
92	0x3db33864	0.0875099
93	0x3e0fb71a	0.14034691
94	0xbd3511a7	-0.044206288
95	0x3d99c91d	0.075090624
96	0xbe40ba73	-0.18821125
97	0x3e33a89e	0.17544791
98	0xbe159fa8	-0.14611685
99	0x3e2ced56	0.16887411
100	0x3d89e256	0.06732623
101	0xbd22137c	-0.039569363
102	0x3e0febb0	0.14054751
103	0xbc135120	-0.00899151
104	0x3ccc1121	0.024910511
105	0x3e53ca84	0.20682722
106	0x3d925273	0.07144632
107	0x3a155c99	0.0005697697
108	0xbaf3f2a2	-0.0018611739
109	0xbd1c88cd	-0.0382164
110	0xbde57a03	-0.112049125
111	0xbe218b68	-0.15775836
112	0xbd889320	-0.06668687
113	0x3d8e2520	0.06940675
114	0xbdf1f4e3	-0.118142866
115	0x3d0f9973	0.03505845
116	0x3cc8aa4c	0.024495266
117	0xbe48522b	-0.19562595
118	0x3ca19ce4	0.019728132
119	0x3e0c7894	0.13717872
120	0xbcb46344	-0.02201999
121	0xbca8555b	-0.020548513
122	0xbd43f16e	-0.047837667
123	0xbd6eb214	-0.058275297
124	0xbcb09dce	-0.021559622
125	0xbdb99e50	-0.09063399
126	0xbdb30a3b	-0.08742186
127	0xbdab4e25	-0.08364514
128	0xbd0a00a5	-0.03369202
129	0x3db890c2	0.09011985
130	0x3dfd9b5b	0.12383147
131	0xbd7b520c	-0.061357543
132	0x3b9c20ca	0.004764651
133	0xbdca68b1	-0.098832496
134	0xbd4f2e49	-0.05058125
135	0xbc25d7ed	-0.0101222815
136	0x3c9d4d69	0.019201951
137	0x3bfc7c6f	0.0077052633
138	0xbd115c89	-0.03548864
139	0xbd04acaa	-0.032391228
140	0xbe06fc45	-0.1318217
141	0x3d3ca64c	0.04605703
142	0x3c4c46a8	0.012468018
143	0x3defa0d6	0.11700599
144	0xbe1089c9	-0.14115061
145	0x3c580e8d	0.013187063
146	0x3ddadfe9	0.10687239
147	0xbdcbbc40	-0.09948015
148	0xbe3cb1be	-0.18427178
149	0xbbb724fd	-0.005589126
150	0xbda4a159	-0.08038587
151	0x3e08c736	0.13357243
152	0xbdc637bb	-0.096785985
153	0xbd9aed4d	-0.07564793
154	0xbd9afd04	-0.0756779
155	0x3d90fd2e	0.0707954
156	0xbc289ef2	-0.010291802
157	0xbb58eb67	-0.0033099295
158	0xbd693574	-0.056935742
159	0xbd8d26ee	-0.06892191
160	0x3da3e9f5	0.08003608
161	0x3e503aa5	0.20334871
162	0xbce765f2	-0.028246854
163	0x3deed8ab	0.1166242
164	0xbd3154ad	-0.043293644
165	0xbcd7a961	-0.026325883
166	0xbd00631f	-0.03134453
167	0xbe3c1834	-0.18368608
168	0x3ce9b5ec	0.02852913
169	0xbe36c8ba	-0.17850009
170	0xbcaf6177	-0.02140878
171	0xbc39f80e	-0.011350645
172	0xbd5b2784	-0.053504482
173	0xbdc2df13	-0.09515204
174	0xbdf6601e	-0.12030052
175	0xbc9f1be8	-0.019422486
176	0x3d91299b	0.07088014
177	0x3e34f841	0.17672826
178	0x3c52f934	0.0128767975
179	0x3d445274	0.047930196
180	0x3be06531	0.0068480005
181	0x3b9c062a	0.004761477
182	0x3df7d185	0.121005096
183	0x3d922d0f	0.071375005
184	0x3d46e189	0.04855493
185	0x3d6d7f5f	0.0579828
186	0xbd82ad0b	-0.063806616
187	0xbb110eaa	-0.0022133985
188	0x3da7cce8	0.0819338
189	0xbd873116	-0.06601159
190	0x3a88b36e	0.0010429451
191	0x3d8a0992	0.06740107
192	0x3e2322b4	0.15931207
193	0x3e621a5f	0.22080372
194	0x3db8d8a3	0.09025695
195	0xbe05491a	-0.13016167
196	0x3dcbabb6	0.09944861
197	0xbd0a42cb	-0.033755105
198	0xbd9128f5	-0.0708789
199	0xbd89b766	-0.067244336
200	0x3d1eae96	0.038740717
201	0x3d9e711f	0.0773642
202	0xbd06a025	-0.03286757
203	0x3d04abb1	0.0323903
204	0xbd91e272	-0.07123269
205	0x3c7ed977	0.015554777
206	0x3df77ec9	0.12084729
207	0x3e2779d3	0.16355066
208	0xbd63c5f7	-0.055608716
209	0x3dee2cf9	0.116296716
210	0x3e1f6fa5	0.15569933
211	0xbdf8a0a7	-0.12140017
212	0x3cdd587b	0.02701973
213	0xbd994212	-0.07483305
214	0xbd847a57	-0.06468647
215	0xbd6fc342	-0.05853582
216	0x3d74fd6e	0.059812002
217	0x3d17077f	0.036872383
218	0x3bcf05ba	0.0063178213
219	0xbc509c1a	-0.01273253
220	0x3d946bb0	0.07247102
221	0xbe3d29f1	-0.1847303
222	0xbd5ce663	-0.05393065
223	0xbe22c322	-0.1589475
224	0x3d2db7fd	0.042411793
225	0x3dc06e02	0.09395982
226	0xbda62fa6	-0.08114557
227	0xbceb0e51	-0.02869335
228	0xbe24301d	-0.16033979
229	0xbdf62bb0	-0.120200515
230	0xbaf2de30	-0.0018529352
231	0x3dabfcd6	0.08397834
232	0xbac46567	-0.0014983834
233	0xbd5e48ec	-0.054268762
234	0x3c810fef	0.015754668
235	0xbde96abf	-0.11397313
236	0x3d8035a9	0.06260235
237	0x3b6d3c33	0.0036199212
238	0xbbcc79b2	-0.006240093
239	0x3e57970b	0.21053712
240	0x3d76fefd	0.06030177
241	0xbdb30f6c	-0.08743176
242	0xbe0a84c3	-0.13527207
243	0xbb88a13c	-0.0041696113
244	0xbdf5bb7e	-0.11998652
245	0xbc97abc7	-0.018514527
246	0x3dbe53af	0.09293305
247	0xbd1d0517	-0.038334932
248	0x3d46b9f5	0.048517186
249	0xbe358e6b	-0.1773011
250	0xbd4e923b	-0.050432425
251	0xbc3c7ebc	-0.011504825
252	0x3d3b2474	0.04568906
253	0xbcdea281	-0.027177097
254	0x3d8e5ebf	0.06951665
255	0xbe726b54	-0.23673755

network_body._body_endoder.seq_layers.2.bias f4 [256]
0	0xbc0e6369	-0.008690693
1	0x3c0e7d04	0.008696798
2	0x3be208f6	0.006898041
3	0x3bb7036f	0.005585126
4	0x3c2aa648	0.010415621
5	0x3be0bcb9	0.006858435
6	0x39901097	0.0002747818
7	0x3b981d38	0.004642155
8	0x3b69a4fb	0.0035651315
9	0xbb544518	-0.0032389816
10	0xbb5ce614	-0.0033706473
11	0x3a04ebe0	0.00050705485
12	0x3bfa36cb	0.0076359264
13	0xb95fa227	-0.00021327344
14	0x3aea80b4	0.001789114
15	0x3a051ad0	0.0005077543
16	0x3b5cbec6	0.0033683046
17	0x3bcd3b0e	0.0062631434
18	0x3a8688fb	0.0010264212
19	0xbb0b2462	-0.0021231403
20	0x3c61e527	0.013787544
21	0x3b25c385	0.002529354
22	0x3b192b74	0.0023371847
23	0x3bf9e5ac	0.007626256
24	0xbaf5a0db	-0.0018739955
25	0x3c412297	0.011788032
26	0x3c06f5cc	0.0082373135
27	0xbb457eab	-0.0030135314
28	0x3b3220ce	0.0027180198
29	0xbac00274	-0.0014649169
30	0x3b184ed3	0.0023240342
31	0x3a75479f	0.00093566807
32	0xbaa80fde	-0.0012822112
33	0x3a87f038	0.0010371273
34	0x3bec6ae3	0.0072148903
35	0xba5bb57b	-0.00083812297
36	0xb9c65ff4	-0.00037836994
37	0xb9883e00	-0.00025986135
38	0x3b9d5807	0.0048017534
39	0x3bd6d042	0.006555588
40	0x3a3256d5	0.00068031
41	0xbba72956	-0.005101363
42	0x3a910df8	0.0011066785
43	0x3b851112	0.004060873
44	0xba37a89c	-0.0007006021
45	0x3b6b3814	0.003589158
46	0x3c00aced	0.007853729
47	0x3aae1df0	0.0013284069
48	0xba91c6d2	-0.0011121875
49	0x3bdcf10d	0.0067426027
50	0x3b1d0847	0.0023961233
51	0x39f2c356	0.00046303374
52	0x3a9c4af1	0.001192419
53	0xbb0e88a7	-0.0021748932
54	0xbb0f5dbe	-0.0021875943
55	0x3b6c5009	0.0036058447
56	0x3ab2698c	0.0013611778
57	0x3b92ba2b	0.0044777594
58	0x3c03e24c	0.008049559
59	0xbba684db	-0.0050817556
60	0x3b26ef86	0.0025472357
61	0xbaa8c9b6	-0.0012877497
62	0x3a08b380	0.0005214736
63	0xbb24fdfc	-0.00251758
64	0x3a3182ac	0.0006771486
65	0x3ba0ba10	0.004904993
66	0x3b3ee4e5	0.002912813
67	0xbb237b6a	-0.0024945387
68	0x3c76598b	0.015035997
69	0x3b30f2bc	0.002700015
70	0x3b728a6b	0.0037008773
71	0x3ba59724	0.0050534178
72	0x3c21de29	0.009879627
73	0x3b914304	0.0044330377
74	0x3b3d7821	0.0028910714
75	0x3afc7298	0.0019260226
76	0xbadc9b33	-0.0016830921
77	0xbb3850c4	-0.0028124312
78	0x3c131507	0.008977181
79	0x3ac99638	0.0015379852
80	0x3b252685	0.0025199961
81	0xb9d87ecc	-0.00041293202
82	0x3abcf97f	0.0014417617
83	0x3ba9dabe	0.005183547
84	0xbbc43520	-0.0059877783
85	0x3b2f1a16	0.002671843
86	0xbac7ceb5	-0.0015244099
87	0x3b3c4258	0.0028726067
88	0xbc1968c5	-0.009363358
89	0xbb03354a	-0.0020020776
90	0xbbcadc1d	-0.0061907903
91	0x3b9e24d6	0.0048261685
92	0xbb760569	-0.0037539846
93	0x3bcf82b2	0.006332719
94	0xb9eb21e2	-0.00044847938
95	0x3b245aa2	0.0025078435
96	0xbbd7aa9d	-0.006581618
97	0x3c060e4f	0.008182122
98	0x3ba723d2	0.0051007057
99	0x3bf65512	0.0075174654
100	0x3c24ba80	0.010054231
101	0x3c002014	0.007820148
102	0x399760d2	0.000288731
103	0x39c2d5cb	0.00037161852
104	0x3c2f897c	0.010713931
105	0x3ba581dd	0.0050508813
106	0x3c447d74	0.011992801
107	0x3a77334a	0.0009429945
108	0xbb6f4a29	-0.0036512709
109	0x3c08be10	0.008346096
110	0x3a13d6e4	0.0005639626
111	0x3bb55d13	0.005534777
112	0x3bfd3057	0.00772671
113	0x3c2ddbad	0.010611457
114	0xb9fcf3c4	-0.00048246805
115	0x3bac0952	0.0052501345
116	0xbb045142	-0.0020190035
117	0x3c00a7ce	0.007852508
118	0x3c002526	0.007821357
119	0x3b48cdeb	0.0030640315
120	0x3be4df1d	0.006984605
121	0xbc0425c9	-0.008065649
122	0xbade1b97	-0.0016945478
123	0xbbe098b5	-0.0068541416
124	0x3ba853b1	0.00513693
125	0x3b9b3e6e	0.004737667
126	0x3b8189fd	0.003953217
127	0x3b3d7127	0.0028906555
128	0x3b1ad66a	0.0023626336
129	0x3b2522ae	0.0025197673
130	0x3b3d05fa	0.0028842674
131	0x3b977450	0.00462202
132	0x3bef653d	0.0073057697
133	0x3bae8a4a	0.005326544
134	0x3bfcd5d2	0.007715919
135	0xbb30ec7b	-0.0026996422
136	0x3b270afb	0.0025488723
137	0x3b99a06f	0.0046883146
138	0x3ace6bde	0.00157487
139	0x3c13a24d	0.0090108635
140	0x3b66d174	0.0035220059
141	0x3c209a14	0.00980236
142	0xbba7009f	-0.0050965096
143	0x3bc966a0	0.006146267
144	0x3ad86443	0.0016509373
145	0x3a646b51	0.0008713501
146	0x3bc08435	0.0058751353
147	0xba9bc98c	-0.0011885627
148	0x3b082a86	0.00207773
149	0x3bd9b4b1	0.0066438545
150	0x3b799975	0.0038085852
151	0x3b898c4f	0.0041976343
152	0x3c08f32d	0.008358759
153	0x3b2ddbef	0.0026528796
154	0x3a4a3f83	0.00077151525
155	0xbbd1cb8e	-0.0064024394
156	0x3bc3f9fc	0.005980728
157	0x3c232023	0.009956392
158	0x3b552fa5	0.003252962
159	0x3b058faf	0.0020379832
160	0x3b0c8b7d	0.0021445446
161	0x3bcac9fe	0.00618863
162	0x3b83ecb4	0.00402602
163	0x3a8aca23	0.0010588806
164	0x3b864ffe	0.0040988913
165	0x3bd1aed2	0.006399014
166	0x3b7309f2	0.0037084785
167	0x3be696ce	0.0070370203
168	0x3c502a24	0.01270536
169	0x3b2122c9	0.0024587384
170	0x3bc8125c	0.0061057042
171	0x3c093769	0.008375027
172	0x3c91f307	0.01781608
173	0x3c188758	0.009309612
174	0xbb05033c	-0.0020296117
175	0xba9e006f	-0.0012054573
176	0x3c24d11c	0.010059621
177	0x3c223d65	0.009902333
178	0x3b663c5d	0.0035131194
179	0x3af227af	0.0018474961
180	0x3b93232c	0.004490277
181	0xbae600be	-0.0017547829
182	0xbb3c9fb0	-0.0028781705
183	0x3bbc97ce	0.005755401
184	0xbbe2dd37	-0.0069233435
185	0x3b91f6cd	0.00445447
186	0x3a91cd4b	0.0011123804
187	0x3c1e1a8c	0.009649884
188	0xbb33c9c5	-0.0027433496
189	0x3c190c5b	0.009341325
190	0x3c4d030e	0.012512935
191	0x3bff2835	0.0077867755
192	0xbb075a8a	-0.002065333
193	0x3c00d5d8	0.007863484
194	0x3ae4b6e8	0.001744953
195	0xbc2c49a8	-0.010515608
196	0x3abea757	0.0014545721
197	0x3b97f50e	0.004637367
198	0x3ad60f77	0.0016331513
199	0x3ba95c48	0.0051684715
200	0x3c163ed4	0.009170253
201	0xb6bceda8	-5.6305034e-06
202	0x3b83ad9d	0.004018499
203	0xbb4bf67a	-0.0031122253
204	0x3bf0f444	0.0073533375
205	0x3b618e04	0.0034416923
206	0x3b476385	0.0030424308
207	0x3bb4cf7d	0.0055178986
208	0x3b7dfd0b	0.0038755562
209	0x3afd5dfa	0.0019330375
210	0x3c0a7d77	0.008452765
211	0x3c124895	0.008928438
212	0xbb24eca7	-0.002516547
213	0x3bc687b1	0.006058656
214	0x3c65360d	0.0139899375
215	0x3bae85c1	0.0053260033
216	0x3b392532	0.002825093
217	0x3c129275	0.008946051
218	0x3c4bfdaf	0.01245062
219	0x3ba0c96e	0.004906825
220	0x3bdd0705	0.0067452216
221	0x3a477c00	0.0007609725
222	0x3b1f6f84	0.0024327943
223	0x3b0d5f7e	0.002157181
224	0x3a82a067	0.0009966017
225	0xbb5e1e3f	-0.003389254
226	0x3ad3c577	0.0016156872
227	0xbb107be3	-0.0022046498
228	0x3b907115	0.0044080117
229	0xb9c0f102	-0.0003680066
230	0x3bda5a1b	0.0066635734
231	0xbac84372	-0.0015278889
232	0x3c1d63b5	0.009606292
233	0xbbf7fac3	-0.007567735
234	0x3bd88684	0.0066078324
235	0xbb74bcfc	-0.0037344089
236	0x3a8f651f	0.0010940171
237	0x3a387b85	0.0007037449
238	0x3bd32373	0.006443435
239	0x3b9e915b	0.004839105
240	0x3be54040	0.0069961846
241	0x3bf38da7	0.0074326578
242	0xbb233b67	-0.0024907233
243	0x3c27c36d	0.010239464
244	0x3c0bb663	0.008527371
245	0x3bea1e43	0.0071447208
246	0x3b9b0661	0.004730985
247	0x3c0a1ad5	0.008429249
248	0xbb286faa	-0.0025701323
249	0xbaf1ec65	-0.0018457292
250	0x3b1343a6	0.0022470742
251	0x3c43fe9a	0.011962557
252	0x3a10fdd6	0.00055309886
253	0x3a4917a5	0.0007671065
254	0x3be5e457	0.0070157456
255	0x3c3af370	0.011410579

network_body._body_endoder.seq_layers.2.weight f4 [256, 256]
0	0xbcc3998b	-0.023876926
1	0x3c8873d8	0.016656801
2	0xbd283628	-0.041067272
3	0xbcb18f0f	-0.021674661
4	0xbdd41588	-0.10355669
5	0x3bd3e9d4	0.0064670835
6	0x3e04462c	0.12917393
7	0xbc853656	-0.016261261
8	0xbdc3ad5a	-0.095545486
9	0xbe01dcbc	-0.1268186
10	0xbe0b19d9	-0.13584079
11	0x3d934be2	0.07192208
12	0xbd0a1577	-0.033711877
13	0x3b46aacd	0.0030314208
14	0x3d12751e	0.035756223
15	0xbc8c2e0e	-0.017111804
16	0x3d7d3a43	0.06182314
17	0x3e1b7f0a	0.1518518
18	0xbc7bda81	-0.01537192
19	0x3d70ad89	0.058759246
20	0x3d57e7b7	0.052711215
21	0xbdc08b7f	-0.09401607
22	0xbc6d70b8	-0.014492206
23	0x3df66845	0.120316066
24	0xbddf4a1b	-0.10902806
25	0x3d068015	0.032836992
26	0xbca7caeb	-0.020482501
27	0x3c89b87c	0.016811602
28	0x3d9b7e52	0.07592453
29	0xbdc411e3	-0.09573724
30	0xbd89c321	-0.06726671
31	0xbd827581	-0.06370068
32	0x3cd6a77c	0.02620291
33	0xbe11fafd	-0.142559
34	0x3a3e804f	0.0007267044
35	0xbd9ad375	-0.075598635
36	0x3e2ca5ae	0.16860077
37	0xbc205b72	-0.009787427
38	0xbcb26afd	-0.021779532
39	0x3d6966b8	0.056982726
40	0xbd57eca6	-0.05271592
41	0x39caa04a	0.00038647867
42	0xbb3d8ed2	-0.002892424
43	0xbe06f09d	-0.13177724
44	0x3d950d77	0.07277959
45	0xbbf3a547	-0.007435474
46	0x3d9c1ac9	0.07622296
47	0x3dacbd55	0.0843455
48	0x3ddf13c2	0.108924404
49	0xbc80b2f3	-0.01571033
50	0xbd08fd95	-0.03344496
51	0x3d019f04	0.03164579
52	0x3d0eb8c9	0.034844194
53	0x3c80e1c0	0.015732646
54	0xbd81c809	-0.06336982
55	0x3d6c8951	0.057748143
56	0x3db32520	0.087473154
57	0x3d64bd2a	0.055844463
58	0xbc000633	-0.007813978
59	0x398bec80	0.00026688352
60	0xbd3f0860	-0.046638846
61	0x3d4e7ad5	0.05041011
62	0xbd120a54	-0.03565438
63	0xbd23c131	-0.039979164
64	0xbbfe912d	-0.007768771
65	0x3ced0287	0.02893187
66	0xbd0d17e8	-0.034446627
67	0xbceb49f2	-0.028721783
68	0x3d29efb5	0.041488368
69	0xbc14fef2	-0.009093987
70	0xbbcef1f4	-0.006315464
71	0xbd3a398d	-0.04546504
72	0x3d878c92	0.066186085
73	0xbdb51575	-0.08841983
74	0x3b82ecc3	0.0039955094
75	0x3cdba593	0.02681235
76	0xbda9779c	-0.08274767
77	0xbcbc3c2b	-0.02297791
78	0xbd976ac8	-0.07393414
79	0xbc7d9f7b	-0.015479918
80	0x3d6e5511	0.058186594
81	0xbcf0481d	-0.029331261
82	0xbcebcb5c	-0.028783493
83	0x3d463fe4	0.048400775
84	0xbd54315f	-0.051804896
85	0x3c81b431	0.015832992
86	0xbd4a44e2	-0.049382098
87	0x3a4100df	0.00073624955
88	0x3d2af7df	0.041740295
89	0x3d3aa045	0.045563
90	0xbd303e2a	-0.043028034
91	0x3c770ff8	0.015079491
92	0x3cf2f010	0.029655486
93	0xbd9c61a2	-0.076358095
94	0xbe0a551a	-0.13509026
95	0x3ddd3194	0.10800472
96	0x3d913b4e	0.070913896
97	0x3df41812	0.119186535
98	0x3d517203	0.05113412
99	0x3d4bb2ea	0.049731173
100	0xbd2108cc	-0.03931503
101	0x3d00f15e	0.031480186
102	0xbd0d47a0	-0.034492135
103	0xbd08a59f	-0.033361074
104	0xbd8c3677	-0.06846326
105	0x3c001646	0.00781781
106	0x3ca2f1d4	0.019890703
107	0xbbd525fe	-0.006504773
108	0xbdc0b6da	-0.09409876
109	0xbd932eba	-0.07186647
110	0xbd67bfd4	-0.056579426
111	0xbd9c5292	-0.076329365
112	0xbd93ba4c	-0.07213268
113	0x3b78e5bb	0.0037978727
114	0x3ce95e13	0.02848724
115	0x3dc10d52	0.09426369
116	0x3d0ca356	0.034335457
117	0x3cef964b	0.02924647
118	0x3dbdf6d1	0.09275592
119	0x3d2d2c80	0.042278767
120	0xbce9d65b	-0.028544595
121	0xbdb143b5	-0.08655492
122	0x3c357f20	0.011077672
123	0x3d3bf206	0.04588511
124	0xbd2ff6d5	-0.042960007
125	0xbcaf086b	-0.021366319
126	0x3d83985b	0.06425544
127	0x3d9c396c	0.0762814
128	0x3c001b49	0.007819005
129	0x3d530424	0.05151762
130	0x3da40766	0.08009224
131	0xbd6a89d2	-0.057260342
132	0xbd62450e	-0.055241637
133	0x3c302d43	0.010752979
134	0x3d1ef4a6	0.038807534
135	0x3d0ec965	0.034860034
136	0x3d0d723a	0.034532763
137	0x3c989224	0.018624373
138	0x3ab895a4	0.0014082682
139	0xbd1e0cd2	-0.038586445
140	0x3cf0f07b	0.029411545
141	0x3d94af3d	0.072599865
142	0xbc157ace	-0.009123517
143	0x3d55b8ac	0.05217807
144	0xbde78a33	-0.11305656
145	0x3d2d7f19	0.042357538
146	0xbbaa058d	-0.00518865
147	0xbcd090b2	-0.025459621
148	0xbd014210	-0.031557143
149	0x3c9dff5f	0.01928681
150	0x3dd45fdd	0.10369847
151	0x3a31b828	0.00067794556
152	0x3d5f10d1	0.054459397
153	0xbd821cfd	-0.06353185
154	0x3d0675b8	0.03282711
155	0xbc7b646e	-0.0153437685
156	0xbda57f48	-0.080809176
157	0x3d658fde	0.056045406
158	0x3dd34551	0.103159554
159	0x3ce974b2	0.028498027
160	0xbe2c2f7e	-0.16814992
161	0x3ca5d3e7	0.020242644
162	0x3d068a69	0.032846842
163	0x3bd44aff	0.006478667
164	0xbc7ffc08	-0.015624054
165	0xbd04b6d5	-0.032400925
166	0x3d85ee35	0.06539575
167	0xbdc18ad3	-0.09450307
168	0x3d5ce9d9	0.053933952
169	0xbb58bdd6	-0.0033072135
170	0xbd20199c	-0.039086923
171	0x3e015d42	0.12633231
172	0x3d8f778b	0.07005223
173	0xbd8994d8	-0.06717843
174	0x3be8c903	0.0071040406
175	0x3c88ec92	0.016714368
176	0xbdd30bd3	-0.1030499
177	0xbd8ed377	-0.069739275
178	0xbca94801	-0.020664217
179	0xbc3ca69c	-0.011514332
180	0x3df5d0d0	0.120027184
181	0x3d51dc60	0.051235557
182	0x3dd1c454	0.10242525
183	0xbd20ca55	-0.03925546
184	0x3c841bb8	0.016126499
185	0x3e147d8f	0.14501022
186	0x3d32c182	0.043641575
187	0xbdc2d2a7	-0.09512835
188	0xbd2e09b3	-0.04248972
189	0xbd91d997	-0.0712158
190	0x3e335152	0.1751149
191	0xbd1740ab	-0.036926907
192	0xbdaf778b	-0.08567723
193	0x3e296e4f	0.16545986
194	0xbcc6117e	-0.024178263
195	0xbd3f808f	-0.046753462
196	0x3c5271a6	0.012844479
197	0x3cabdfb8	0.0209807
198	0x3c74f75b	0.014951552
199	0x3d57d40b	0.052692454
200	0xbcf0c8b7	-0.029392583
201	0x3ccb464c	0.024813794
202	0x3d850caa	0.06496556
203	0xbbadc240	-0.0053026974
204	0xbd5ab95e	-0.053399436
205	0xbdc0cab6	-0.09413664
206	0xbdaf2141	-0.085512646
207	0x39b50224	0.00034524605
208	0xbdefbea7	-0.11706286
209	0xbe14155b	-0.14461271
210	0xbc5785e6	-0.0131544825
211	0x3ca36c7e	0.019949194
212	0x3c877049	0.016533034
213	0xbc3c965b	-0.011510457
214	0xbd8b940f	-0.06815349
215	0x3aab97f3	0.0013091549
216	0xbc53ef97	-0.012935541
217	0xbd4c990a	-0.049950637
218	0x3ca64a98	0.020299241
219	0x3d3459a0	0.044030786
220	0x3dfcf3a7	0.123511605
221	0x3d0e8e71	0.03480381
222	0xbc2d5006	-0.010578161
223	0x3c868ff9	0.016426073
224	0xbd42cd8b	-0.047559302
225	0x3da41921	0.080126055
226	0xbc9707fd	-0.018436426
227	0xbc95b4dd	-0.018274719
228	0x3d93c985	0.07216171
229	0x3c8c3fd6	0.017120283
230	0xbb34e240	-0.0027600676
231	0x3d51b111	0.051194254
232	0x3d19d0a9	0.03755251
233	0x3c4b74c7	0.012417979
234	0x3c90294f	0.017597822
235	0x3db67543	0.08909085
236	0xbd695cf4	-0.056973413
237	0xbcf02452	-0.029314194
238	0xbd638f2c	-0.05555646
239	0x3ace7f5e	0.0015754511
240	0x3d296495	0.041355688
241	0xbe04fc66	-0.12986907
242	0x3d857d03	0.06517985
243	0x3c9d7749	0.019221919
244	0x3c4ff81f	0.012693434
245	0x3d917136	0.071016714
246	0x3d496d26	0.049176358
247	0x3d859354	0.06522241
248	0x3ddc6e8c	0.10763273
249	0xbd5afcb7	-0.053463664
250	0x3cb0b419	0.021570252
251	0xbdcbaa42	-0.099445835
252	0x3d5fe806	0.054664634
253	0x3d8e91b9	0.06961388
254	0x3da481bd	0.08032558
255	0xbcaf1338	-0.021371469
