results/H8/AgentController.onnx (onnx, 657373 bytes, 14 tensors)

83 f4 [116]
0	0x3e723ba5	0.23655565
1	0x3e2ac9ef	0.16678594
2	0x3e31137c	0.17292589
3	0x3e7ca350	0.24671674
4	0x3e6e8ec8	0.23296654
5	0x3e2461a9	0.1605288
6	0x3e31cbdf	0.17362927
7	0x3e78e863	0.24307398
8	0x3e70734e	0.23481485
9	0x3e2c0e98	0.16802442
10	0x3e2d3807	0.16915904
11	0x3e807c6b	0.25094923
12	0x3e68675c	0.22695678
13	0x3e1d6395	0.15370019
14	0x3e2f6c65	0.17131193
15	0x3e775e49	0.2415706
16	0x3e6cbf37	0.23119818
17	0x3e2addd9	0.1668619
18	0x3e28e8c9	0.1649505
19	0x3e829115	0.25501314
20	0x3e667c9f	0.22508477
21	0x3e1a0270	0.15039992
22	0x3e2fb974	0.17160589
23	0x3e788c19	0.24272193
24	0x3e6d1963	0.23154216
25	0x3e2b8bcb	0.16752546
26	0x3e28bcf2	0.16478327
27	0x3e84bcae	0.259252
28	0x3e678707	0.22610103
29	0x3e17b7fc	0.14816278
30	0x3e3318c2	0.17489913
31	0x3e7c2a3a	0.24625483
32	0x3e737e88	0.23778737
33	0x3e2e5f88	0.1702863
34	0x3e2f6d92	0.17131642
35	0x3e87062c	0.26371896
36	0x3e69ddb3	0.22838478
37	0x3e15d440	0.14631748
38	0x3e37c597	0.17946468
39	0x3e807a33	0.2509323
40	0x3e7990bd	0.2437162
41	0x3e2fd27b	0.17170136
42	0x3e36f36a	0.17866293
43	0x3e88b248	0.26698518
44	0x3e6a9958	0.22910058
45	0x3e11f027	0.14251767
46	0x3e3bc05f	0.18335102
47	0x3e829cb7	0.2551019
48	0x3e7f874a	0.24953952
49	0x3e2fb3bf	0.17158411
50	0x3e3fa96a	0.1871697
51	0x3e898376	0.2685811
52	0x3e6d533e	0.23176286
53	0x3e101715	0.14071305
54	0x3e409f08	0.18810666
55	0x3e848285	0.25880828
56	0x3e848ed4	0.2589022
57	0x3e34812e	0.17627403
58	0x3e48fa0a	0.19626632
59	0x3e895526	0.26822776
60	0x3e7167f3	0.2357481
61	0x3e1124f2	0.1417425
62	0x3e451fe6	0.1925045
63	0x3e85bbe7	0.2611992
64	0x3e89ebb5	0.26937643
65	0x3e392fd2	0.18084648
66	0x3e5411fa	0.20709983
67	0x3e889d6f	0.26682612
68	0x3e792fa4	0.2433458
69	0x3e166ac3	0.14689164
70	0x3e4b61ed	0.19861574
71	0x3e8660b5	0.26245657
72	0x3e8ed6c9	0.27898243
73	0x3e3d40bc	0.18481725
74	0x3e5e6e64	0.21721798
75	0x3e87a0c5	0.26489845
76	0x3e814d7e	0.25254434
77	0x3e1da9db	0.15396826
78	0x3e52607a	0.20544615
79	0x3e86a678	0.2629888
80	0x3e924573	0.2856861
81	0x3e3f2527	0.18666516
82	0x3e666b4e	0.22501871
83	0x3e86c18f	0.26319548
84	0x3e86c31d	0.26320735
85	0x3e280a0d	0.16410084
86	0x3e591ca6	0.21202335
87	0x3e8644aa	0.26224262
88	0x3e9466eb	0.2898477
89	0x3e413bf7	0.18870531
90	0x3e6aa4b2	0.22914389
91	0x3e85c02d	0.2612318
92	0x3e8e36d0	0.27776194
93	0x3e34b22f	0.17646097
94	0x3e637e4e	0.2221615
95	0x3e8613ff	0.2618713
96	0x3e9560ec	0.29175508
97	0x3e44a8ad	0.1920497
98	0x3e6a9ec7	0.22912131
99	0x3e84f79c	0.2597016
100	0x3e935886	0.28778476
101	0x3e3d3b90	0.18479753
102	0x3e6adce8	0.22935832
103	0x3e859bc0	0.2609539
104	0x3e95ba2d	0.29243603
105	0x3e45f0e0	0.19330168
106	0x3e6a8ec1	0.22906019
107	0x3e84aaad	0.25911465
108	0x3e959daf	0.29221866
109	0x3e43cfa3	0.19122176
110	0x3e6bf661	0.23043205
111	0x3e84fdfe	0.2597503
112	0x3e959dde	0.29222006
113	0x3e43d041	0.19122411
114	0x3e6bf661	0.23043205
115	0x3e84fdf3	0.25974998

86 f4 [3]
0	0x40aca505	5.395144
1	0x3b5ba763	0.0033516518
2	0x40cd9e40	6.4255676

action_model._continuous_distribution.log_sigma f4 [1, 2]
0	0xb900ea54	-0.00012294325
1	0xbbb728dc	-0.0055895876

action_model._continuous_distribution.mu.bias f4 [2]
0	0xba897675	-0.0010487573
1	0x3a8fc076	0.0010967392

action_model._continuous_distribution.mu.weight f4 [2, 256]
0	0xbc65761f	-0.014005213
1	0xbc7c7d5c	-0.015410747
2	0x3d145300	0.036211967
3	0x3c7ca6eb	0.015420656
4	0x3cb8734b	0.022515913
5	0xbceb8d5f	-0.028753934
6	0x3c11d811	0.008901612
7	0x3c978fef	0.01850125
8	0xbce968a3	-0.028492277
9	0xbd01a8fc	-0.031655297
10	0xbc7fa180	-0.015602469
11	0xbbbb38a2	-0.0057135383
12	0xbc8eb1e7	-0.017418815
13	0x3c93ab55	0.018026033
14	0x3c980082	0.01855493
15	0xbbf39343	-0.0074333264
16	0xbc8ac863	-0.016941255
17	0xbd3d8227	-0.0462667
18	0xbcc9fa02	-0.024655346
19	0x3c498ba8	0.012301363
20	0xbc1a409f	-0.009414821
21	0x3b6f2e7d	0.0036496215
22	0xbcb859d4	-0.02250377
23	0xbc86cf90	-0.016456395
24	0xbd02872e	-0.0318672
25	0x3d020b85	0.031749267
26	0x3c0f663f	0.008752405
27	0x3bcfbacf	0.006339408
28	0x3cffb66d	0.031214917
29	0x3cad1303	0.02112723
30	0x3c2d757a	0.010587091
31	0xbb01d142	-0.0019808565
32	0xbb652a92	-0.0034968
33	0x3be782cd	0.007065153
34	0xbd06d2a9	-0.032915745
35	0x3a6100f8	0.0008583213
36	0xbc9e98c2	-0.01935995
37	0xbd00caa4	-0.031443253
38	0x3bf5eb06	0.0075048236
39	0x3c071927	0.008245743
40	0xbc87100d	-0.016487146
41	0xbc4a638f	-0.012352838
42	0x3cd88822	0.0264321
43	0xbce6154f	-0.028086333
44	0xbcbcb2e9	-0.02303453
45	0x3c52fde5	0.012877916
46	0xbc990d2d	-0.01868304
47	0x3c46366b	0.012097935
48	0xbcefe53c	-0.029284112
49	0x3adda2fe	0.0016909537
50	0xbb023426	-0.0019867509
51	0xbc617920	-0.013761789
52	0xbcb61eb9	-0.022231447
53	0x3baebec3	0.005332799
54	0x3c1efb86	0.009703523
55	0x3c826016	0.015914958
56	0xbce7e646	-0.028308045
57	0xbcacc538	-0.021090135
58	0xbcf9f86a	-0.03051396
59	0x3c1dff85	0.00964344
60	0xbcbc7732	-0.023006056
61	0xbc1cd6a7	-0.0095726615
62	0xbcb0fd9f	-0.021605311
63	0xbcfa6938	-0.03056775
64	0x3bd69ba5	0.006549316
65	0xbd087f83	-0.03332473
66	0xbc875181	-0.016518356
67	0xbd196e2b	-0.03745858
68	0xbba1253c	-0.0049177688
69	0x3cc6081c	0.024173789
70	0xbd0b746f	-0.034046587
71	0xba1ea9bd	-0.00060525147
72	0xbcb57cb7	-0.022154195
73	0x3c81fd58	0.015867874
74	0x3c21f3f2	0.009884821
75	0x3a8ea4ee	0.0010882893
76	0x3d1c2b19	0.03812704
77	0x3c566923	0.01308659
78	0xbb25e621	-0.002531417
79	0x3c741c7f	0.014899372
80	0xbc473daa	-0.012160698
81	0x3b263326	0.0025360077
82	0xbc89f0be	-0.016838428
83	0xbb4c190d	-0.003114286
84	0xbca81b23	-0.020520752
85	0x3c70e433	0.014702844
86	0xbc4ad048	-0.01237876
87	0xbb1d7643	-0.0024026788
88	0xbaa6a0b7	-0.0012712692
89	0xbc81a31b	-0.015824845
90	0xbcbbab29	-0.022908764
91	0xbadcc87f	-0.001684442
92	0xbc94ff45	-0.018188128
93	0x3c6f03ce	0.014588309
94	0xbcaea4f9	-0.0213189
95	0x3b66f0ed	0.0035238818
96	0xbcd34b57	-0.02579276
97	0xbd2471a9	-0.040147457
98	0x3d043b02	0.032282837
99	0xbcea15c3	-0.02857483
100	0xbce0144c	-0.027353428
101	0x3c11cac1	0.008898438
102	0x3bbc8670	0.005753331
103	0xbba62368	-0.0050701387
104	0xbc614e59	-0.01375159
105	0xbca76333	-0.020433044
106	0x3c29e301	0.010369063
107	0x3b3144e2	0.0027049114
108	0x3d1989ab	0.037484806
109	0x3ba65ece	0.0050772196
110	0xbbd5658b	-0.006512349
111	0xbc9268b4	-0.017872192
112	0x3b399acf	0.0028321033
113	0xbcc22e35	-0.023703674
114	0x3c996ea5	0.018729517
115	0xbcdecdfb	-0.027197829
116	0x3d2df67d	0.042471398
117	0xbc74a06f	-0.0149308285
118	0x3d0b4ddb	0.034009796
119	0xbc38a883	-0.011270645
120	0x3a05384d	0.0005081937
121	0xbc5cf6d3	-0.013486582
122	0xbcabf702	-0.020991806
123	0x3b817fb1	0.0039519896
124	0xbb96af5e	-0.004598542
125	0xbcb13b55	-0.021634737
126	0xbce9ed9d	-0.028555686
127	0xbc115a13	-0.008871573
128	0xb8ed1506	-0.000113049566
129	0x3d0d3afd	0.034480084
130	0x3c7c17bb	0.015386517
131	0xbd00bcc6	-0.03143003
132	0xbd013c60	-0.03155172
133	0x3c886903	0.016651636
134	0x3c4ddead	0.012565297
135	0xbd11a3a2	-0.035556443
136	0xbc883bf4	-0.01663015
137	0x3b936b69	0.0044988883
138	0x3ca63704	0.020289905
139	0xbb64d9f9	-0.003491996
140	0xbb6d8a2d	-0.003624569
141	0x3c3d2520	0.011544496
142	0x3d0f715d	0.03502022
143	0x3c57381e	0.013135938
144	0x3d038426	0.03210845
145	0x3c94f1ea	0.01818176
146	0xbc02528b	-0.00795425
147	0xba4a0d53	-0.0007707674
148	0x3cad6ce1	0.021170082
149	0x3b8d20b2	0.004306876
150	0x3c9fec30	0.019521803
151	0xbc345663	-0.011006924
152	0x3c7dd915	0.015493651
153	0xbd190ad7	-0.037363853
154	0xbd1355fc	-0.035970673
155	0x3c90f147	0.017693175
156	0xbcd4813d	-0.025940532
157	0xbc4b8564	-0.0124219395
158	0x3c2b939d	0.0104722055
159	0x3c831ac6	0.016003978
160	0x3c9a9a08	0.018872276
161	0xbc8ff55b	-0.01757305
162	0xbb05df96	-0.0020427457
163	0x3c8f7649	0.017512457
164	0xbcf8df6d	-0.030379975
165	0xbcdedd8a	-0.027205247
166	0x3ced2d3f	0.02895224
167	0xbc0f03ec	-0.008728962
168	0x3b58b0f0	0.0033064447
169	0xbc3130b3	-0.010814833
170	0x3bb80613	0.0056159585
171	0xbc9e7f17	-0.01934771
172	0xbcd910e6	-0.026497316
173	0x3ccdc303	0.025117403
174	0x39951260	0.00028433185
175	0x3c76e5e6	0.0150694605
176	0x3ce15def	0.027510611
177	0xbbe01407	-0.006838325
178	0xbbdd7f16	-0.0067595346
179	0xbaecf874	-0.0018079416
180	0x3cc33720	0.023829997
181	0xbab7bf56	-0.0014018815
182	0xba26bc5d	-0.0006360466
183	0x3cf8c991	0.030369552
184	0x3bd9cd3b	0.00664678
185	0x3cd388d1	0.025822075
186	0xbbbae2ec	-0.0057033207
187	0xbc17de5c	-0.009269323
188	0x3bc68f21	0.0060595428
189	0xbcddefd9	-0.027091907
190	0x3c3bf4d7	0.011471949
191	0xbbc54885	-0.006020608
192	0xbc8ed7bc	-0.017436855
193	0xbbdd457a	-0.006752667
194	0xbb508580	-0.0031817853
195	0x3a675a88	0.0008825441
196	0xbc28fe9f	-0.010314613
197	0xbd0b203a	-0.03396628
198	0xbc080178	-0.008301131
199	0x3c37d93d	0.011221227
200	0x3bc88b59	0.006120127
201	0xbc6a3fa5	-0.014297401
202	0x3d059a7c	0.03261803
203	0x3cf0988d	0.029369617
204	0x3c659ee9	0.014014938
205	0xbd1713ba	-0.036884047
206	0xba255caa	-0.00063080585
207	0x3d38deed	0.045134474
208	0x3bd6a44a	0.0065503465
209	0xbcc53efa	-0.024077881
210	0xbc97ee78	-0.018546328
211	0x3cff9061	0.031196775
212	0xbc536acd	-0.012903881
213	0xbc977b9e	-0.018491562
214	0x3d31b3ef	0.04338449
215	0xbc750749	-0.01495535
216	0xbaac7b52	-0.0013159311
217	0x3cdb8843	0.026798373
218	0x3cabd248	0.020974293
219	0xbbf2915b	-0.0074025816
220	0xbc0bccaf	-0.008532687
221	0x3d277927	0.040887024
222	0x3c2b22aa	0.010445276
223	0x3c0b5a9a	0.008505488
224	0x3bb036e9	0.0053776396
225	0xbcff2827	-0.031147076
226	0x3c9bfb4f	0.019040732
227	0xbc9bcad2	-0.01901761
228	0xbd02d1a3	-0.031938206
229	0x3a5df215	0.0008466554
230	0x3cb73a17	0.022366567
231	0xbc18acd4	-0.009318549
232	0x3ca3dcb4	0.0200027
233	0xbcc3feec	-0.023925267
234	0xbc3dc296	-0.011582037
235	0xbc67109c	-0.014103081
236	0xbce22d4b	-0.027609488
237	0x3c7ba4e4	0.015359137
238	0xbc9ef737	-0.01940499
239	0x3c95cd06	0.01828624
240	0x3ca36610	0.019946128
241	0xbc2487e0	-0.010042161
242	0xbbc512cc	-0.0060142037
243	0xbd2f2982	-0.042764194
244	0xbcc01395	-0.023446837
245	0xbc3fc92a	-0.011705676
246	0x3c9de951	0.019276293
247	0x3c47fec7	0.01220674
248	0x39509354	0.0001989131
249	0x3cee3930	0.029080003
250	0xbb54b30a	-0.0032455348
251	0xbcb64f8b	-0.022254726
252	0xbc713b1c	-0.014723565
253	0x3cd7ec08	0.026357666
254	0x3d596e02	0.053083427
255	0x39b1034b	0.00033762524

action_model._discrete_distribution.branches.0.weight f4 [1, 256]
0	0xbc2a24d2	-0.010384755
1	0xbc32ec95	-0.010920663
2	0x3c1662d1	0.009178833
3	0x3bc1d45f	0.005915209
4	0xba91ac32	-0.001111394
5	0xbc263f0b	-0.010146867
6	0x3ae6ea10	0.0017617363
7	0x3b94e757	0.0045441794
8	0xbb8f4c4b	-0.0043731085
9	0xbc604333	-0.013687897
10	0xbb90af23	-0.004415409
11	0xbbb5fbb1	-0.0055536856
12	0xbb0ece28	-0.002179036
13	0xbab273f0	-0.0013614874
14	0x3a9c9a52	0.0011947847
15	0x3b10ced0	0.0022095926
16	0x39c34d9e	0.00037251128
17	0x3a05fff5	0.0005111688
18	0xbb5487d3	-0.003242959
19	0x3b339ff2	0.0027408567
20	0x3bacad6f	0.0052696983
21	0x3935a517	0.00017323006
22	0x3ae187e2	0.0017206634
23	0x3b26184e	0.0025344077
24	0xbc39d965	-0.011343335
25	0xbc74a477	-0.01493179
26	0xbc17301b	-0.009227778
27	0xba8785d9	-0.0010339572
28	0x3b46807b	0.0030288983
29	0x3b50ad7a	0.0031841681
30	0x3c001046	0.00781638
31	0x3ac4a603	0.0015003089
32	0xbb99f3ef	-0.0046982686
33	0x3b912f36	0.004430677
34	0x3bb1770b	0.0054158024
35	0xbafef448	-0.0019451464
36	0x3b311854	0.0027022557
37	0xbc8a4efe	-0.01688337
38	0x3bafadb2	0.0053612823
39	0xbacf327f	-0.0015807896
40	0xbbe3d76a	-0.0069531696
41	0xba850cb0	-0.0010150876
42	0xbaebf82f	-0.0018003042
43	0xbbe63042	-0.0070247957
44	0xbb1a8e57	-0.0023583376
45	0xbbc4a8a3	-0.0060015484
46	0x3ba39dc4	0.0049931724
47	0xbba25a52	-0.0049546147
48	0x3c041677	0.008061997
49	0xbb433db3	-0.0029791414
50	0xba1f39bb	-0.0006073971
51	0xbba686e2	-0.0050819973
52	0x3b1b3040	0.0023679882
53	0x3b20f853	0.0024562075
54	0x3bc87c23	0.006118314
55	0x394225d4	0.00018515374
56	0xbb3c51b2	-0.0028735218
57	0x3c57a780	0.013162494
58	0x3b352a38	0.0027643573
59	0x3ac9302a	0.0015349437
60	0x3c057513	0.008145588
61	0xbba2e7c7	-0.0049714777
62	0xbc3803f8	-0.011231415
63	0xbb07a295	-0.0020696272
64	0xba98eba7	-0.001166691
65	0x3c29bf24	0.010360513
66	0x3a26f4a9	0.00063688547
67	0xbc1a6995	-0.009424587
68	0x3bcf6e6f	0.0063303034
69	0xbb33e04f	-0.002744693
70	0xbbb637d8	-0.0055608563
71	0xbbd293ad	-0.0064262957
72	0xbb73c3c7	-0.003719555
73	0x3b906d95	0.0044075944
74	0x3bc0aebe	0.005880206
75	0xbc20b9d6	-0.009809932
76	0x3c75e052	0.015007095
77	0x3bd498c5	0.006487938
78	0xbbb9052e	-0.0056463694
79	0x3b6777b5	0.0035319154
80	0x3a83cc21	0.0010055342
81	0x3a1aa3b8	0.000589903
82	0xbb9472f8	-0.004530307
83	0x3923ba47	0.00015614285
84	0xbb7f9223	-0.0038997016
85	0x3bbfc1b4	0.0058519486
86	0xbb5ebfbf	-0.0033988801
87	0xbbe9ef42	-0.0071391175
88	0xbb73bb07	-0.0037190334
89	0x3c0e6183	0.008690241
90	0x3b8e6454	0.004345456
91	0xbbdd7908	-0.006758813
92	0xbbf9850d	-0.007614738
93	0xbbbfd917	-0.0058547365
94	0xbb854472	-0.004066997
95	0xbb2ba2b4	-0.0026189508
96	0xbb19df1c	-0.002347893
97	0x3b898b3a	0.0041975053
98	0xb9a8de51	-0.00032209096
99	0x3c37b138	0.011211686
100	0x3b519d2f	0.0031984558
101	0xbc1f6976	-0.009729734
102	0x3bd82ad0	0.0065969005
103	0xba1535be	-0.0005691907
104	0xbbe70dd2	-0.007051208
105	0x3bfc3f23	0.007697956
106	0xb997802a	-0.00028896454
107	0xbba251db	-0.0049536056
108	0x3b6888ff	0.0035482047
109	0x3af18b10	0.0018428285
110	0xbb401d5f	-0.0029314382
111	0xba6f54b0	-0.0009129746
112	0xbc09d7bb	-0.008413251
113	0xbc45b5b0	-0.012067243
114	0xbb18e690	-0.0023330785
115	0xbc427bae	-0.011870308
116	0x3b147a82	0.0022656028
117	0x3c164ee4	0.009174082
118	0x3b8cca7f	0.0042966004
119	0x3b04b59f	0.0020249856
120	0xbb100214	-0.0021973895
121	0x3ba665cc	0.005078053
122	0x3b823b25	0.0039743357
123	0x3b4552d9	0.0030109196
124	0xbc31cab3	-0.01085155
125	0x3ba98d8e	0.0051743453
126	0x3a86e4c0	0.0010291561
127	0x3a104e77	0.0005504856
128	0xba49087e	-0.0007668807
129	0x3c1d663c	0.009606894
130	0xbb5f0d47	-0.0034035014
131	0x3bb37115	0.005476127
132	0xbab1b6c4	-0.0013558497
133	0xbb75d04a	-0.0037508183
134	0x3b8b6649	0.0042541367
135	0xba05634f	-0.00050883455
136	0x3ba9b481	0.0051789884
137	0x3908f551	0.00013061358
138	0x3b979082	0.004625381
139	0xba2084cf	-0.00061233056
140	0x3b875d41	0.00413099
141	0xbba8f3e6	-0.005156028
142	0x3b8007ef	0.0039071958
143	0x38b259cf	8.5044296e-05
144	0x3c19a64c	0.009378027
145	0x3b4ac5a3	0.0030940555
146	0x3bb3340b	0.0054688505
147	0xbbf03175	-0.0073301145
148	0x3bcf3b38	0.006324198
149	0x39a311f8	0.0003110317
150	0xbc43595b	-0.0119231595
151	0x3b8d8dfa	0.0043199034
152	0xbc478bd4	-0.012179334
153	0x3bc2d670	0.005945973
154	0xbc0cbabb	-0.008589442
155	0xbae66b18	-0.0017579524
156	0x3c019154	0.007908184
157	0x39a12a3c	0.0003073978
158	0xbaac7c47	-0.0013159596
159	0xbb05172b	-0.0020307999
160	0xbc82367b	-0.015895119
161	0x3bb57b5b	0.0055383868
162	0x3b712c4f	0.0036800092
163	0x3c335d14	0.0109474845
164	0x3b3a6070	0.002843883
165	0x39c46bda	0.0003746439
166	0x3b9fed13	0.0048805564
167	0xbb8bc5b6	-0.0042655123
168	0x3bb65645	0.0055644833
169	0xbb34606b	-0.002752329
170	0x3c5bb37b	0.013409491
171	0x3bd94a52	0.006631174
172	0xbc410ebc	-0.011783298
173	0x3bcd5d47	0.006267223
174	0xbbe9d1ef	-0.0071356217
175	0x388f3d24	6.83016e-05
176	0xbb8452d8	-0.004038196
177	0xbbc1c586	-0.005913439
178	0x3bf91328	0.0076011606
179	0xbb1c72f2	-0.0023872224
180	0xbc9be6c8	-0.019030944
181	0x3aeb3cb7	0.0017947172
182	0x3c063ed6	0.008193692
183	0x3a570233	0.0008201927
184	0x3bd62fd5	0.0065364637
185	0xbc8daf9f	-0.017295657
186	0xbb4c03a9	-0.0031130111
187	0xbb8bef8f	-0.004270501
188	0xbb8bca05	-0.004266026
189	0xbaa3610f	-0.0012464839
190	0x3c700780	0.014650226
191	0x3a6425c8	0.00087031396
192	0xba9e99d0	-0.0012100283
193	0x3b8cd698	0.0042980425
194	0x399f58d9	0.0003039304
195	0x3c44411b	0.011978413
196	0x3bfd235a	0.0077251615
197	0xba5fa71b	-0.00085316756
198	0x3b15d8c9	0.002286481
199	0xbac7b794	-0.0015237206
200	0xbb7da7fd	-0.0038704865
201	0x3c197597	0.0093664145
202	0xb8a45f1d	-7.8378456e-05
203	0xbb8333d7	-0.0040039825
204	0x3b126b8f	0.0022341942
205	0x3accecb5	0.0015634509
206	0xba6810db	-0.00088526093
207	0x3bbe7d40	0.005813271
208	0xbbfec4db	-0.007774932
209	0xbc0535ba	-0.008130485
210	0x3bd1051a	0.006378782
211	0xb9b7fe12	-0.00035093777
212	0xbaa2072b	-0.0012361755
213	0x39cc3387	0.00038948303
214	0xbae49baf	-0.0017441417
215	0x3b8f7513	0.00437797
216	0x3bb2065a	0.005432886
217	0xbbfb94b8	-0.0076776408
218	0xbbc7ba8f	-0.0060952376
219	0xbb9188fb	-0.004441378
220	0x3b8c37c3	0.0042791083
221	0xbc333c47	-0.010939664
222	0xbbe28bdb	-0.0069136447
223	0x3c11918b	0.008884798
224	0xbbb2256f	-0.0054365913
225	0xbae82a95	-0.0017712886
226	0xbc50c905	-0.012743239
227	0x3b345b23	0.0027520142
228	0xbb50df10	-0.0031871237
229	0x3ca92ed9	0.020652222
230	0xbbb5ac92	-0.0055442536
231	0xbac567e9	-0.0015060875
232	0xbb9ac941	-0.0047236984
233	0xb9717978	-0.00023028802
234	0xbbc4204d	-0.005985296
235	0xbb8172f0	-0.003950469
236	0xbbc28609	-0.0059363884
237	0xba8b5e14	-0.0010632896
238	0x3b981e9e	0.0046423217
239	0x3c03a52f	0.008034988
240	0x3bab4fab	0.005228003
241	0xbc57daf8	-0.013174765
242	0x3b8b033c	0.004242329
243	0xbc0c76c6	-0.00857324
244	0x3c4744bd	0.012162385
245	0xbb8a3a1b	-0.0042183525
246	0xbc50c92a	-0.012743274
247	0x3ba08b00	0.0048993826
248	0xbc0e2e8a	-0.008678088
249	0xbc28db84	-0.010306243
250	0x3bcea120	0.0063058287
251	0xba567173	-0.00081803574
252	0x3b01433b	0.001972391
253	0xbbcc6584	-0.0062376875
254	0x3be83642	0.007086546
255	0x3ad4ee4a	0.0016245332

network_body._body_endoder.seq_layers.0.bias f4 [256]
0	0xb89607a9	-7.153984e-05
1	0x3b9d5116	0.004800926
2	0x3c29f3be	0.010373054
3	0x3a6f7bba	0.0009135563
4	0x38a57a23	7.890563e-05
5	0x3b9c07a5	0.0047616535
6	0xba1b166a	-0.0005916121
7	0x3bb1f9c3	0.0054313852
8	0xba1cd30b	-0.00059823756
9	0x3bda07a5	0.0066537433
10	0x3c652d68	0.0139878765
11	0xb81856a0	-3.63203e-05
12	0x3bc2c583	0.0059439554
13	0x3b6a68cd	0.0035768033
14	0xbb7a28fc	-0.0038171401
15	0x3b5fb846	0.0034136935
16	0xbb00cbfc	-0.0019652834
17	0x3b08aaf8	0.0020853858
18	0x3c89059b	0.016726306
19	0xba9f232e	-0.0012141222
20	0x3bf4fcb7	0.007476415
21	0x3c6909ba	0.01422351
22	0x3c2add06	0.010428673
23	0x3c9bd251	0.019021185
24	0x3c17be38	0.00926166
25	0x3c07cfd0	0.008289292
26	0x3c3354d0	0.010945514
27	0x3cd93d4a	0.026518483
28	0x3c5335ce	0.012891246
29	0x3cc08947	0.023502959
30	0x3c479075	0.012180437
31	0x3a4b8f16	0.0007765157
32	0x3b45282a	0.0030083754
33	0x3b855044	0.0040684063
34	0x3c0143e0	0.007889718
35	0x3adc83fe	0.0016824005
36	0x3c795657	0.015218339
37	0x3bbe7cfa	0.005813238
38	0x3c60ee63	0.013728711
39	0x3b9c59cd	0.0047714473
40	0x3b996fcd	0.004682517
41	0x3ab80fa9	0.0014042753
42	0xbaa057d7	-0.001223321
43	0x3b9de9f9	0.0048191515
44	0x3c455940	0.012045205
45	0xbbdc661e	-0.0067260405
46	0x3b35295f	0.0027643067
47	0xbaa2c996	-0.0012419696
48	0x3af9efc0	0.0019068643
49	0xb9ea2e1e	-0.00044666318
50	0x3c852fce	0.016258147
51	0xbbcaab86	-0.006184998
52	0xba7ef03e	-0.000972513
53	0x3c74a568	0.014932014
54	0x3a9c3881	0.0011918695
55	0x3b43afa5	0.002985933
56	0x3b105849	0.0022025278
57	0x3ba19750	0.004931368
58	0x3ca0c4ac	0.01962503
59	0xbb84136a	-0.0040306346
60	0xba3d92e2	-0.0007231665
61	0x3b6340ae	0.0034676003
62	0x3b3b4938	0.0028577577
63	0x3c505c74	0.012717355
64	0xba2f56ae	-0.00066886365
65	0xbb3b70f4	-0.002860126
66	0x3bdbfef0	0.0067137405
67	0x3c42ea63	0.011896702
68	0xbc0fdd9b	-0.008780862
69	0x3a69089a	0.00088895264
70	0x3a079d23	0.00051732565
71	0xbc0a3656	-0.008435806
72	0x3bc49fa8	0.006000478
73	0x3b91502c	0.004434606
74	0xba8f3424	-0.0010925573
75	0x3b91cb6e	0.0044492995
76	0x3c25c5ba	0.0101179425
77	0x3b13551c	0.002248115
78	0x3bc03274	0.0058653895
79	0x3c02146d	0.00793944
80	0x3c381d21	0.011237414
81	0x3c24de0f	0.0100627085
82	0x3bc3eac9	0.0059789163
83	0x3bb0bbc0	0.0053934753
84	0x3bb2aeb7	0.0054529565
85	0x3c1ec8ae	0.0096914
86	0x3b532363	0.0032217137
87	0x3c8c7f9b	0.01715069
88	0x3b40dcde	0.0029428522
89	0x3c9ff370	0.01952526
90	0x3b142b6c	0.002260889
91	0x3c470f9c	0.012149718
92	0xba846caa	-0.0010103185
93	0xbb93b2c0	-0.0045073926
94	0x3c23e8b6	0.010004213
95	0x3c02ae9d	0.007976201
96	0x3b989416	0.004656325
97	0xbc035ad5	-0.0080172615
98	0x3c2041cc	0.009781312
99	0x3c948777	0.018131
100	0x3c7de5e8	0.015496708
101	0x3be1a3f1	0.0068859984
102	0x3b6f8fee	0.0036554295
103	0x3b4c05f5	0.003113148
104	0x3ca05918	0.019573733
105	0xbb1d541f	-0.002400644
106	0xb70c3f08	-8.359326e-06
107	0x3b9885b9	0.004654613
108	0xbb0223fa	-0.001985787
109	0x3c0801ca	0.008301208
110	0x3c0f23a5	0.008736526
111	0x3bcdd0a4	0.0062809754
112	0xbba427e8	-0.00500964
113	0x3c5ed65c	0.013600912
114	0x3c1e498a	0.009661088
115	0x3c1b7f73	0.0094908355
116	0x3c2e2bd6	0.0106305685
117	0x3c0b413f	0.008499443
118	0x3b973814	0.0046148393
119	0x3c54e415	0.012993832
120	0x3b3afccc	0.0028532026
121	0x3c124dd5	0.008929689
122	0x3beb5ee4	0.0071829427
123	0x3b339db8	0.002740724
124	0x3c7de2ab	0.015495936
125	0x3c17dfdd	0.009269682
126	0x3b43131d	0.002976603
127	0xbb08c331	-0.0020868296
128	0x3bd0fa8c	0.0063775238
129	0x3990ccbe	0.00027618365
130	0xbb17287e	-0.0023064907
131	0x3bc6c56c	0.006066015
132	0xbc71d9b4	-0.014761377
133	0x3c14145b	0.009038056
134	0xbb5387d6	-0.003227701
135	0x3bd6205b	0.006534619
136	0x3ae837d4	0.0017716833
137	0x3bdd1d7b	0.006747899
138	0x3bf2c708	0.0074089803
139	0x3b5b538f	0.0033466553
140	0x3b8449c9	0.004037116
141	0x3b993695	0.004675696
142	0x3b9873ed	0.0046524913
143	0x3bbb0205	0.005707028
144	0x3bee55fe	0.0072734347
145	0xbb9a0ab5	-0.0047009834
146	0x3b3219b5	0.0027175967
147	0x3aed03d9	0.0018082812
148	0x39ea8698	0.00044732238
149	0x38515166	4.990529e-05
150	0xba2f2e17	-0.0006682588
151	0x3c2896f4	0.010289896
152	0x3ae3288d	0.0017330811
153	0x3ba02b4f	0.0048879753
154	0x3b1b9101	0.0023737552
155	0x3b6066d0	0.0034240969
156	0x3be099d9	0.0068542776
157	0x3ba8e33a	0.0051540406
158	0x3c09636c	0.00838552
159	0x3c45cc73	0.01207267
160	0x3bd098f8	0.0063658915
161	0x3c5c8bb0	0.0134610385
162	0x3c12da2f	0.008963152
163	0x3c1c6b2a	0.009547034
164	0x3c0715c4	0.008244935
165	0x3be79edb	0.0070684976
166	0x3bec0bf5	0.007203574
167	0x3b96322a	0.0045836167
168	0x3ca65cb4	0.020307876
169	0x3c1e2ca3	0.009654197
170	0x3a95158e	0.0011374222
171	0x3c015deb	0.007895927
172	0xbbc042d3	-0.005867341
173	0x3b958157	0.0045625377
174	0x3c0ead98	0.00870838
175	0x3be9ffd4	0.007141093
176	0x3a8b1dc3	0.0010613728
177	0x3b8e66a8	0.0043457337
178	0x3cb5b114	0.022179164
179	0x3bc0898a	0.005875771
180	0x3b8d0d38	0.0043045543
181	0x3bc3e3b8	0.005978074
182	0xba66dcf3	-0.0008806728
183	0xbacba5f7	-0.0015537132
184	0x3bb9e582	0.0056731114
185	0x3c454323	0.012039932
186	0x3bca9ce6	0.0061832545
187	0x3cd01985	0.025402794
188	0x3c210a39	0.009829097
189	0x3c1c0c62	0.009524437
190	0x3c521e53	0.012824613
191	0x3c1ad036	0.009449055
192	0x3c20d1b6	0.009815624
193	0xbbbf8aac	-0.0058453884
194	0x3ac69f29	0.0015153635
195	0xbb9ac850	-0.004723586
196	0xbbe92707	-0.007115248
197	0x3be24d82	0.0069062123
198	0x3c8d8051	0.0172731
199	0x3c89544f	0.016763834
200	0x3af6e01b	0.0018835099
201	0x3bdec13f	0.006797939
202	0x3bfacaeb	0.0076535842
203	0xbaba78dc	-0.0014226693
204	0x3b1d8b1c	0.0024039214
205	0xba8b10e2	-0.001060989
206	0x3bc863fb	0.006115434
207	0x3b859d9c	0.0040776264
208	0x3c945d36	0.018110853
209	0x3c5c3c13	0.013442057
210	0x3c20ce94	0.009814877
211	0x3c2d23ec	0.0105676465
212	0xbbac17f5	-0.0052518793
213	0x3b8246e1	0.0039757346
214	0x3b8c6b08	0.00428522
215	0x3cb13195	0.021630088
216	0x3c35bb26	0.011091983
217	0x3b76f87b	0.0037684727
218	0x3b5dcc00	0.0033843517
219	0x3c172181	0.009224297
220	0x3b03d145	0.0020113748
221	0x3b290893	0.0025792464
222	0xbb45f976	-0.0030208505
223	0x3b4d27e9	0.0031304306
224	0xbb5d96d2	-0.003381182
225	0x3b800da1	0.0039078747
226	0x3ba0c77a	0.004906592
227	0xbc45f99e	-0.012083439
228	0x3c154af7	0.009112111
229	0xbbc51366	-0.0060142754
230	0x3c1bcdd9	0.009509527
231	0x3be771ef	0.0070631425
232	0x3c19d9c3	0.009390297
233	0x3c9bc92c	0.019016825
234	0x3bd9fe37	0.006652619
235	0x39c7d48f	0.00038114606
236	0xbab914b8	-0.0014120555
237	0xbac9f1ca	-0.0015407142
238	0x3bb305d0	0.0054633394
239	0xbaacd140	-0.001318492
240	0x3be57f31	0.007003688
241	0x3b87b469	0.0041413796
242	0x3bcf5f90	0.0063285306
243	0x3b223d36	0.0024755723
244	0x3b8eb6b9	0.0043552783
245	0x3c29fdd0	0.010375455
246	0x3b8aa625	0.0042312318
247	0x3c580d77	0.013186804
248	0x3bc0704d	0.0058727623
249	0x3c117934	0.008878995
250	0x3c2c75bb	0.010526116
251	0x3aa5cdf1	0.0012649876
252	0x3b7c8136	0.0038529164
253	0xba7a2e0c	-0.00095436047
254	0x3c495f54	0.012290794
255	0x3c671677	0.014104477

network_body._body_endoder.seq_layers.0.weight f4 [256, 119]
0	0xbdc6a679	-0.09699721
1	0x3de8a715	0.11359993
2	0x3d858573	0.06519594
3	0xbd80ebd8	-0.062949836
4	0x3d2f4114	0.042786673
5	0xbcf238ce	-0.029568102
6	0xbddb7696	-0.10715978
7	0x3d929ecf	0.071591966
8	0x3e19cfd2	0.15020683
9	0x3e5214ea	0.2051579
10	0x3d831558	0.06400555
11	0xbb47ea0d	-0.0030504495
12	0xbd4c4ab1	-0.04987592
13	0xbde78d8d	-0.113062955
14	0xbd97f3d1	-0.07419551
15	0x3cfbdfe4	0.030746408
16	0x3e0c8d71	0.1372583
17	0x3caf4360	0.021394432
18	0x3d4daee4	0.050215617
19	0xbd5ef48d	-0.05443244
20	0xbda0f336	-0.07858889
21	0x3d51f9f0	0.05126375
22	0xbdea03f0	-0.11426532
23	0x3d484f3f	0.0489037
24	0xbde2edd4	-0.11080518
25	0x3d5e3c3c	0.054256663
26	0xbb61275c	-0.0034355735
27	0xbdf2f7bf	-0.1186366
28	0xbd732239	-0.05935881
29	0xbd825902	-0.06364633
30	0x3c56098a	0.013063798
31	0x3c8cd519	0.017191457
32	0x3d838a18	0.06422824
33	0xbe23d57f	-0.15999411
34	0x3b9c1a11	0.0047638495
35	0x3df09f3e	0.11749123
36	0x3e1f8c58	0.1558088
37	0x3d51301d	0.051071275
38	0xbe1e9ba3	-0.15489058
39	0x3e51904a	0.20465198
40	0xbd8b1476	-0.06791012
41	0x3c608ec8	0.013705917
42	0xbd326115	-0.043549616
43	0xbd231618	-0.039815992
44	0x3c47c670	0.012193307
45	0x3de57f5a	0.11205931
46	0xbd15247a	-0.03641174
47	0x3d6be769	0.057593737
48	0xbdb12777	-0.086501054
49	0x3cd183c1	0.02557552
50	0x3cce9aac	0.025220238
51	0xbda8c512	-0.08240713
52	0xbde8c9e2	-0.11366631
53	0x3d989b79	0.07451529
54	0xbdd1068c	-0.10206327
55	0x3d7eb5e6	0.06218519
56	0xbd368b57	-0.04456648
57	0x3ca074c4	0.019586928
58	0xbccee6e3	-0.02525658
59	0xbd022dab	-0.031781834
60	0xbd4572f1	-0.04820532
61	0xbe165253	-0.14679842
62	0x3d24f91e	0.04027664
63	0xbd7e985f	-0.06215703
64	0x3bc32425	0.0059552365
65	0xbd6fbdc3	-0.05853058
66	0x3e2dc39c	0.1696915
67	0x3df1c9e8	0.11806089
68	0x3c8fc313	0.017549073
69	0xbe12b286	-0.14325914
70	0xbbc696e2	-0.006060467
71	0x3d12aa43	0.035806905
72	0xbe22fc9d	-0.15916677
73	0x3d2667f8	0.040626496
74	0xbd8fc3c3	-0.070197605
75	0x3c45656b	0.012048106
76	0xbd79b53a	-0.060963847
77	0x3cca0951	0.024662646
78	0x3c77cefb	0.015125032
79	0xbe044db9	-0.12920274
80	0xbdb39e82	-0.08770467
81	0xbe3f2295	-0.18665536
82	0x3e602aaa	0.21891275
83	0x3d45af7e	0.048263066
84	0x3d024770	0.03180641
85	0x3d63994e	0.055566125
86	0xbd4fdbb3	-0.05074663
87	0xbdaf20b9	-0.08551163
88	0xbb87ed9d	-0.0041481988
89	0xbe1dc64b	-0.15407674
90	0x3e214a17	0.1575092
91	0xbc14e014	-0.0090866275
92	0x3b4ed4aa	0.0031559863
93	0x3d2feb69	0.042949114
94	0x3d3a0b1e	0.04542076
95	0xbc385fb0	-0.011253282
96	0xbda5d0db	-0.08096477
97	0x3d3c28f6	0.0459375
98	0x3d322139	0.043488715
99	0x3db3d246	0.08780341
100	0xbdb323f0	-0.08747089
101	0xbd9713e4	-0.07376841
102	0xbd367dad	-0.044553448
103	0xbdc8070d	-0.0976697
104	0xbd356e37	-0.044294562
105	0xbc0aafc5	-0.008464758
106	0x3b95384a	0.0045538293
107	0x3d3ce9a7	0.046121266
108	0xba2bde97	-0.0006556301
109	0xbd5c4b41	-0.053782705
110	0xbe18dbf6	-0.14927658
111	0xbdb5cb5d	-0.08876679
112	0xbdbdb57a	-0.092631295
113	0xbe0c3aad	-0.13694258
114	0xbd5a5b20	-0.05330956
115	0xbd882c2e	-0.066490516
116	0xbc3e754a	-0.011624644
117	0x3d7246bf	0.0591495
118	0xbb1a01c3	-0.0023499585
119	0xbc56176f	-0.01306711
120	0xbc95fc05	-0.018308649
121	0xbe144fb9	-0.14483537
122	0xbd71651f	-0.058934327
123	0x3e11d97b	0.14243118
124	0x3c960888	0.018314615
125	0xbcd0f110	-0.025505573
126	0xbddccecd	-0.107816316
127	0xbdfa4520	-0.12220216
128	0xbdacd1f3	-0.08438482
129	0xbde9c5b4	-0.11414662
130	0x3d33821c	0.043825254
131	0x3ccb9027	0.02484901
132	0xbb9b5b48	-0.004741106
133	0x3c4bf26b	0.012447934
134	0xbc2cb1fc	-0.010540482
135	0xbc87dd43	-0.016584998
136	0xbdc751e2	-0.09732415
137	0xbd0c9a0e	-0.034326605
138	0xbc09433c	-0.008377846
139	0x3c13acfc	0.009013411
140	0xbd1e7113	-0.038682055
141	0xbdd09730	-0.10185087
142	0x3d26233c	0.040560946
143	0x3cf6e9b9	0.030140745
144	0xbe02ab0d	-0.12760563
145	0x3e190995	0.14945062
146	0x3c6edf34	0.014579583
147	0x3e1c4a60	0.15262747
148	0x3e062735	0.13100894
149	0xbdded27e	-0.10879992
150	0xbe3848d1	-0.17996527
151	0xbcfb786e	-0.030697074
152	0x3d9d4ff3	0.07681265
153	0xba572b37	-0.00082080386
154	0x3c619100	0.013767481
155	0x3db5e576	0.08881657
156	0xbd99d079	-0.07510466
157	0xbe10e7af	-0.1415088
158	0x3d123405	0.03569414
159	0xbe074cb0	-0.13212848
160	0x3e4d769c	0.20064777
161	0xbdf7f0b7	-0.121064596
162	0x3c47525c	0.012165632
163	0x3d36b4e3	0.0446061
164	0xbcde6d0d	-0.027151609
165	0xba018f01	-0.0004942269
166	0x3c85302f	0.016258327
167	0xbc6287f0	-0.013826355
168	0x3dea9cf2	0.11455716
169	0xbd4f4727	-0.050604966
170	0xbdb50d8c	-0.088404745
171	0x3dd2ea45	0.102985896
172	0xbcef40fa	-0.029205788
173	0xbe147468	-0.1449753
174	0xbe2cf7dc	-0.16891426
175	0x3ddd14b7	0.10794967
176	0xbd9b6d5b	-0.07589217
177	0xbd36b11c	-0.0446025
178	0x3c1a3e4e	0.009414269
179	0x3c49c446	0.012314862
180	0x3c20a58b	0.0098050935
181	0x39898acc	0.00026234088
182	0xbd09fa10	-0.033685744
183	0xbcd80d13	-0.026373422
184	0xbe16456e	-0.14674923
185	0x3be4c567	0.00698154
186	0xbdb7cc36	-0.08974497
187	0x3c953103	0.018211847
188	0x3de487d0	0.11158717
189	0xbe02899b	-0.12747805
190	0xbc07ef85	-0.008296852
191	0x3bebf6b2	0.007201039
192	0x3d192c34	0.03739567
193	0x3d929441	0.071571834
194	0x3c68e994	0.014215846
195	0x3e54e897	0.20791851
196	0xbde93ced	-0.11388574
197	0x3ce072e6	0.027398538
198	0xbdad4aae	-0.0846151
199	0x3d07067c	0.03296517
200	0x3b53d5ef	0.003232356
201	0xbd4b2356	-0.049594246
202	0xbe0cfc39	-0.1376809
203	0x3c9a53ce	0.01883879
204	0x3b9ec3d4	0.004845122
205	0x3e327dce	0.17430803
206	0xbdce77f4	-0.10081473
207	0xbc9d9b4a	-0.019239087
208	0xbdc88244	-0.09790471
209	0x3e1466ec	0.14492387
210	0x3d8ec5ef	0.069713466
211	0xbd8f038e	-0.069831
212	0xbd3f6c64	-0.04673423
213	0x3d0736cd	0.033011246
214	0x3de00369	0.109381504
215	0xbe4f4226	-0.20240077
216	0x3c8a34e9	0.016870933
217	0x3dd6b4e4	0.10483721
218	0xbdc58739	-0.09644932
219	0x3bd6819e	0.0065462133
220	0x3dd77c45	0.105217494
221	0xbd36cfaf	-0.044631656
222	0xbdbfca72	-0.09364785
223	0x3cf07db8	0.029356822
224	0xbe237ae9	-0.15964855
225	0xbc177b9a	-0.0092457775
226	0x3e5c4d68	0.21513903
227	0xbbf2e11f	-0.0074120904
228	0x3d5a71bd	0.053331126
229	0xbda180f1	-0.07885922
230	0xbbacfa6a	-0.005278875
231	0x3be69a81	0.0070374613
232	0xbd8d10a6	-0.06887941
233	0x3cd2f207	0.025750173
234	0x3da4d8de	0.08049177
235	0xbd3ed111	-0.0465861
236	0xbe29fcc6	-0.16600332
237	0x3e06940d	0.13142414
238	0x3dfdca0f	0.12392055
239	0xbd70645d	-0.058689464
240	0x3d26d49e	0.04073011
241	0xbd676206	-0.056489967
242	0x3e056d0c	0.1302988
243	0x3dc8d765	0.09806708
244	0x3d60a6c4	0.05484654
245	0xbbd7af9c	-0.0065822136
246	0xbdc78db7	-0.09743827
247	0x3c1e5a50	0.009665087
248	0xbd4b586b	-0.04964487
249	0x3cc3e575	0.023913125
250	0x3e287aee	0.16453144
251	0xbde1ec46	-0.11031394
252	0xbd49100e	-0.049087577
253	0x3e554bb6	0.20829663
254	0x3e48c712	0.1960719
255	0xbda80d80	-0.082057

network_body._body_endoder.seq_layers.2.bias f4 [256]
0	0x3ab3f587	0.0013729789
1	0x3b0a127c	0.0021068146
2	0x3c6f14e6	0.014592385
3	0xbb3b1800	-0.002854824
4	0x3a72a88a	0.00092566817
5	0x3b1f76d7	0.0024332309
6	0x3c390b07	0.011294133
7	0x3c20de3f	0.009818613
8	0x3b0093c5	0.0019619328
9	0xba4eed4d	-0.0007893637
10	0x3bb2871f	0.0054482366
11	0x3c3db095	0.011577745
12	0x396ceff3	0.00022596102
13	0x3bc11ed6	0.0058935685
14	0x3bd47c60	0.006484553
15	0x3b592daf	0.0033138802
16	0x3bb338f4	0.005469436
17	0x3bfb7ec8	0.0076750256
18	0x3c2d763e	0.010587273
19	0xbb727d35	-0.0037000899
20	0x3c180be9	0.009280183
21	0x3bdd1ade	0.0067475876
22	0x3be1d478	0.0068917833
23	0x3b712d5e	0.0036800723
24	0x3aee7026	0.0018191382
25	0x3be9297d	0.0071155415
26	0x3c0079d1	0.007841543
27	0x3c2c2d93	0.010508913
28	0x3b80df9a	0.0039329054
29	0xbc011f72	-0.007881032
30	0x3c0e4ae6	0.008684849
31	0x3c0e326a	0.008679012
32	0xbb846193	-0.004039952
33	0xbc058dda	-0.008151496
34	0x3b446540	0.0029967576
35	0x3abb0e11	0.001427116
36	0x3bb083e7	0.0053868177
37	0x3cfd7008	0.03093721
38	0xbabcac3b	-0.001439459
39	0x3ac2b9b7	0.0014856373
40	0x3c406283	0.011742237
41	0x3bfb89fd	0.0076763616
42	0x3c1f5f28	0.009727277
43	0x3b83d26b	0.0040228865
44	0x3af624f2	0.0018779321
45	0xba032e0c	-0.0005004115
46	0x3c2d3fa4	0.010574255
47	0xbb94df13	-0.004543194
48	0x3b8a9277	0.0042288858
49	0x3c2d9914	0.010595579
50	0x3c7ee9e8	0.015558697
51	0x3ca6e869	0.020374494
52	0xb802c17e	-3.117462e-05
53	0x3b054e0c	0.002034071
54	0x3befe483	0.007320942
55	0x3b889345	0.0041679465
56	0xbbc1f5b4	-0.0059191827
57	0x3c5ab600	0.013349056
58	0x3c18b1d3	0.00931974
59	0x3b9a0444	0.0047002155
60	0x3bf6dd14	0.007533679
61	0x3b480e8b	0.0030526246
62	0x3c02032a	0.007935325
63	0x3afcf780	0.0019299835
64	0x3bc2776c	0.0059346464
65	0xbb9344a2	-0.0044942657
66	0x3b421c96	0.002961909
67	0x3b986f68	0.0046519525
68	0x3c594fcd	0.013263655
69	0x3be25216	0.006906758
70	0x3a443d6a	0.0007485958
71	0x3c2ef7b3	0.010679173
72	0xba549cef	-0.0008110543
73	0x3c3b6137	0.011436752
74	0xbb17b960	-0.0023151264
75	0x39f348d6	0.0004640284
76	0x3b25e7ee	0.0025315243
77	0x3cfe8d0b	0.031073114
78	0x3c53ce23	0.012927565
79	0x3acb38d3	0.0015504606
80	0x3b28832e	0.0025712955
81	0x3b44ce31	0.0030030126
82	0x3a6f026e	0.00091174885
83	0x3b364ed4	0.0027817981
84	0xbc1d561a	-0.009603048
85	0x3b86e8bd	0.0041171
86	0x3c28bb74	0.010298599
87	0x3c1415e1	0.009038419
88	0x3bd5c220	0.0065233856
89	0x3b8bc5a6	0.004265505
90	0x3b877e6b	0.0041349432
91	0x3b0c6c90	0.0021427013
92	0x3bebf729	0.0072010946
93	0x3bb17446	0.005415472
94	0xbb301216	-0.0026866249
95	0x3bc1b25b	0.005911154
96	0x3b8eeb0f	0.0043615173
97	0x3bcb09ea	0.00619625
98	0x3aabde35	0.0013112488
99	0x3b73cf8b	0.0037202563
100	0x3b35cc39	0.0027740134
101	0x3b1e2b0f	0.0024134552
102	0x3c7ce0e1	0.015434475
103	0x3c10ee83	0.008845928
104	0x3bd93fb8	0.0066299103
105	0xbbaa82ea	-0.0052035945
106	0xbb067956	-0.00205191
107	0x39fa9f60	0.0004780246
108	0x3a4bc45a	0.0007773094
109	0x3bfe478f	0.0077599953
110	0x3bcb5229	0.0062048626
111	0x3bccff26	0.006256002
112	0x3c1af259	0.009457194
113	0x3b5f2ec2	0.003405497
114	0x3c52f53f	0.012875854
115	0x3c0cfd03	0.008605245
116	0x3c3d4f40	0.011554539
117	0x3bd8525e	0.006601616
118	0x3c016b3f	0.007899105
119	0x3b40582e	0.0029349434
120	0x3bdf0171	0.0068055918
121	0x3bc46abb	0.0059941686
122	0x3bd23d43	0.0064159944
123	0xbb6f984e	-0.0036559287
124	0xbaa333ad	-0.0012451314
125	0x3ca45041	0.0200578
126	0x3bc07af4	0.005874032
127	0x3bd7c4eb	0.0065847537
128	0x3b3d597a	0.0028892444
129	0xbb909c31	-0.0044131507
130	0xb8d8489e	-0.000103132086
131	0x3a81673e	0.0009872688
132	0x3c0ed588	0.008717902
133	0xbae6d345	-0.0017610571
134	0x3b5aad4c	0.0033367453
135	0xbb1d4327	-0.0023996325
136	0xbb189c1e	-0.0023286412
137	0xbb4bd0a6	-0.0031099706
138	0x3bdd4d87	0.0067536267
139	0x3c2c80a0	0.010528713
140	0x3b581ddc	0.0032976782
141	0xbadb78bc	-0.0016744356
142	0x3a420930	0.0007401882
143	0x3b51dd88	0.0032022912
144	0x3c4aa909	0.012369403
145	0x3b94f008	0.0045452155
146	0x3bb457b4	0.005503619
147	0x3b76fb9c	0.0037686592
148	0x3a54e4a1	0.00081212266
149	0x3c2f16d1	0.010686592
150	0x3c119fb5	0.008888175
151	0x3ab8fe13	0.0014113806
152	0x3be7b202	0.0070707807
153	0x3b33a5b3	0.0027411997
154	0xbb974d89	-0.004617397
155	0x3bc744d5	0.0060812035
156	0x3bf0e036	0.007350947
157	0xbc531c4b	-0.012885164
158	0x3b955a67	0.004557896
159	0x3c384f4f	0.011249377
160	0x394e9b05	0.0001970344
161	0x3c293efa	0.010329956
162	0x3b80ba6e	0.003928474
163	0x3c4785d8	0.012177907
164	0x3ba3a5f7	0.00499415
165	0x3b270609	0.0025485775
166	0x3b9a441e	0.004707827
167	0x3c211040	0.009830534
168	0x3b835209	0.004007582
169	0x3b756ad7	0.0037447715
170	0x3b8b1793	0.0042447536
171	0x3b5ae40e	0.0033400091
172	0x3a4314e7	0.00074417744
173	0xbb7eaf87	-0.0038861947
174	0x3a57c762	0.00082313095
175	0xbbac486a	-0.005257656
176	0x3c392f8b	0.011302839
177	0x3b8eccc7	0.0043579075
178	0x3c653c1e	0.013991384
179	0x3b133a43	0.0022465147
180	0xb9e14ffb	-0.00042974934
181	0x3ae233cb	0.0017257867
182	0xbb23bb96	-0.0024983636
183	0x3bb4e295	0.0055201747
184	0x3ca00691	0.019534381
185	0x3bf7169c	0.007540537
186	0x3b13fee4	0.0022582347
187	0x3bab5793	0.0052289455
188	0xba3b530d	-0.00071458594
189	0x3c32c8f3	0.010912168
190	0x3c0c084d	0.008546901
191	0xbb260faa	-0.0025338926
192	0x3b6cdeeb	0.0036143612
193	0xbb5ced37	-0.0033710727
194	0xbb8dd27e	-0.004328071
195	0x3b5f2af7	0.0034052709
196	0x3b8f52e4	0.004373895
197	0x3c342925	0.010996138
198	0x3c1d5ef1	0.009605155
199	0xbb26268f	-0.0025352573
200	0x3c31b604	0.010846619
201	0xbad850b1	-0.001650354
202	0x3b9499e1	0.0045349454
203	0x3aa04548	0.0012227679
204	0x3b467d96	0.0030287257
205	0x3bb00b2b	0.005372425
206	0x3c06e0a9	0.008232274
207	0x3c3aa91c	0.011392858
208	0x3b962a4a	0.004582678
209	0x3b804e85	0.0039156103
210	0xbb5e226f	-0.0033895036
211	0x3c833832	0.016018007
212	0x3b7881b9	0.0037919118
213	0xbc1cc3fa	-0.009568209
214	0x3a9c9a6a	0.0011947874
215	0xbc2f7943	-0.010710063
216	0x3b969f2c	0.0045966115
217	0x3b6414de	0.0034802477
218	0x3c1b3bba	0.009474689
219	0x3af3b99b	0.0018594743
220	0x3c5b9660	0.013402551
221	0x3bb50750	0.0055245534
222	0xb9fddbd4	-0.00048419705
223	0xbbfa1f04	-0.007633092
224	0x3c187ace	0.009306623
225	0x3ad26144	0.0016050716
226	0xbae1cc8f	-0.0017227101
227	0x3a095ad2	0.00052396685
228	0xbbe88d3f	-0.007096916
229	0x3b4e93d4	0.0031521218
230	0x3bb001c3	0.0053713038
231	0x3c5eae3a	0.013591344
232	0x3b8dec4f	0.0043311487
233	0x3c3f4c33	0.011675882
234	0x3c107b4c	0.008818459
235	0x3bc2191f	0.005923405
236	0x3b206532	0.002447438
237	0xbc233388	-0.0099610165
238	0xbaff854f	-0.0019494685
239	0x3c1875a8	0.009305395
240	0x3b77c79f	0.0037808192
241	0x3b0c6594	0.002142285
242	0x3b2f75a5	0.0026773002
243	0xbb902fdb	-0.004400236
244	0x3b90a9a8	0.004414756
245	0x3c18db31	0.009329603
246	0x3c1bd751	0.009511785
247	0xbbbc751d	-0.0057512657
248	0x3c254328	0.010086812
249	0x3b8c2d1e	0.0042778393
250	0xbbad4a53	-0.005288401
251	0x3b8fab98	0.0043844692
252	0x3c22a2d2	0.009926515
253	0x3c4f51cc	0.012653779
254	0x3c0840f5	0.008316268
255	0x3b8092f0	0.0039237663

network_body._body_endoder.seq_layers.2.weight f4 [256, 256]
0	0x3d91adac	0.071132034
1	0x3dbf2fad	0.09335265
2	0xbc2a0717	-0.010377667
3	0x3d2b29db	0.041787963
4	0xbd42cf24	-0.047560826
5	0xbd518b30	-0.05115813
6	0xbd161c4b	-0.036648076
7	0xbd67df8b	-0.05660967
8	0xbc3df283	-0.011593464
9	0x3da21ed2	0.07916035
10	0xbd155e37	-0.036466803
11	0xbc2c84b7	-0.010529689
12	0xbb270629	-0.002548585
13	0x3df5b1b5	0.119967856
14	0xbdbd657d	-0.09247873
15	0xbd20778c	-0.03917651
16	0xbd33fc1b	-0.0439416
17	0xbd4e60d7	-0.050385322
18	0xbd3618f7	-0.044457402
19	0x3cc06c43	0.023489123
20	0xbe00f9b1	-0.1259525
21	0xbc75936b	-0.01498876
22	0xbca0a03e	-0.01960766
23	0x3cbe221f	0.02320963
24	0x3dc8dcfb	0.09807774
25	0x3d1fa462	0.038975127
26	0xbce2486a	-0.02762242
27	0xbca149c9	-0.019688504
28	0x3d118259	0.0355247
29	0xbbc39c1c	-0.0059695374
30	0x3c5adce1	0.013358326
31	0x3db22f09	0.087003775
32	0xbcc565a4	-0.024096318
33	0x392c78e1	0.00016448229
34	0xbce97147	-0.028496398
35	0x3dbdc200	0.09265518
36	0xbd2ef70f	-0.042716082
37	0xbc5bf967	-0.013426161
38	0xbcba00dc	-0.022705488
39	0x3cd3a68b	0.02583625
40	0xbcf8f797	-0.030391498
41	0x3dd848bd	0.10560749
42	0x3d7b8dfc	0.061414704
43	0xbda54bcd	-0.080710985
44	0x3d526111	0.0513621
45	0xbd34faa1	-0.04418433
46	0xbc83e764	-0.016101547
47	0x3d44c5b4	0.048040107
48	0xbd81db89	-0.06340701
49	0xbb69e6be	-0.0035690512
50	0xbd08cb19	-0.033396814
51	0x3d9281b5	0.07153646
52	0x3d807f8a	0.06274326
53	0x3c9f7f7f	0.019469975
54	0x3d729428	0.059223324
55	0xbd3a9f96	-0.04556235
56	0x3d41f2b0	0.047350585
57	0xbb47e3e8	-0.0030500833
58	0xbd380476	-0.04492613
59	0x3c520cfd	0.012820479
60	0xbccbdc70	-0.024885386
61	0x3ddad958	0.10685986
62	0x3d22f151	0.03978092
63	0x3d78c02c	0.060730144
64	0xbe042e18	-0.12908208
65	0x3a8f53db	0.0010935025
66	0x3d204082	0.03912402
67	0xbdca032d	-0.09863887
68	0xbdfa1759	-0.122114845
69	0xbd1567db	-0.036475997
70	0x3ca1b58b	0.019739887
71	0x3dc3c3e9	0.09558851
72	0x3dd00d57	0.101587944
73	0xbd9f6627	-0.07783156
74	0x3d07f9bb	0.033197146
75	0x3c396e2c	0.011317771
76	0x3cf93b1b	0.030423691
77	0x3d29a57d	0.041417588
78	0x3d4ff584	0.05077125
79	0x3d9485a1	0.0725205
80	0xbdab5dbb	-0.08367487
81	0x3c945b82	0.01811004
82	0xbdcf4742	-0.10121013
83	0x3aa92e63	0.0012907501
84	0x3c143035	0.009044697
85	0xbcc63265	-0.024193952
86	0xbe2a00ed	-0.16601916
87	0xbd0ca1df	-0.03433406
88	0x3d62c462	0.055363066
89	0xbcab4c92	-0.020910535
90	0x3b0d334e	0.0021545473
91	0x3c188876	0.009309879
92	0xbdcc39ea	-0.09971984
93	0x3dbcf135	0.09225694
94	0xbdf95183	-0.1217375
95	0x3d2f8c7f	0.042858597
96	0xbcc77cc6	-0.024351489
97	0x3d52e60d	0.051488925
98	0xbc5e1ac0	-0.013556182
99	0xbd6c04da	-0.057621814
100	0x3d9b5632	0.075848
101	0x3cc74e84	0.024329431
102	0x3c38a88e	0.011270655
103	0xbd00bd6c	-0.031430647
104	0xbdb3dc05	-0.087822
105	0x3c348619	0.0110182995
106	0x3d763ba8	0.060115486
107	0x3d78fce4	0.06078805
108	0x3d0c9ecb	0.034331124
109	0xbd8ac7a5	-0.067763604
110	0xbd3244be	-0.04352259
111	0xbb4b779b	-0.0031046632
112	0x3ceac95d	0.02866047
113	0xbc7caf66	-0.015422678
114	0x3d1dfac6	0.038569234
115	0xbc0dbbd6	-0.008650741
116	0x3d2065a6	0.03915944
117	0xbcacd5c0	-0.021098018
118	0xbb16f4c7	-0.0023034082
119	0xbdb683dc	-0.08911869
120	0xbaa5356a	-0.001260442
121	0xbd072c94	-0.033001497
122	0xbd58e674	-0.052954152
123	0xbd6199c4	-0.055078283
124	0x3b96f4e1	0.0046068286
125	0x3e2359df	0.15952252
126	0x3d16ad69	0.03678647
127	0x3c2efb52	0.010680037
128	0xbda24f86	-0.07925324
129	0x3c0723f2	0.008248316
130	0xba5660c1	-0.00081778696
131	0xbd0261bd	-0.03183149
132	0xbcac6c20	-0.021047652
133	0xbc5082f7	-0.012726537
134	0xbd194436	-0.037418567
135	0xbdc469bf	-0.09590482
136	0xbd207ece	-0.03918343
137	0xbcff7f7f	-0.031188725
138	0x3ce3deaa	0.027816135
139	0xbcdcca60	-0.026951969
140	0x3d24b7b1	0.040214244
141	0xbbbeb2d3	-0.0058196574
142	0xbda34b87	-0.0797339
143	0x3d8c8577	0.06861394
144	0x3c8fa8d7	0.017536564
145	0x3de61dc8	0.11236149
146	0xbd4b0bf3	-0.049571943
147	0xbd1beca0	-0.03806746
148	0xbd74221f	-0.059602853
149	0xbdfe243a	-0.124092534
150	0xbd854d37	-0.06508868
151	0xbc5231e0	-0.012829274
152	0x3d329013	0.04359443
153	0xbd6859d9	-0.05672631
154	0xbcd53254	-0.026024975
155	0x3da063b7	0.07831519
156	0x3ca186e8	0.019717649
157	0x3daec49c	0.08533594
158	0xbd903e55	-0.07043139
159	0xbd0981f2	-0.03357119
160	0xbc95c363	-0.018281644
161	0xbd0a4f08	-0.033766776
162	0x3dc3acf2	0.09554471
163	0xbc99ac43	-0.018758899
164	0xbd714642	-0.058904894
165	0xbd03e536	-0.032201014
166	0x3a8f8be8	0.001095173
167	0x3ce197a3	0.027538126
168	0xba438f97	-0.0007460056
169	0x3dde61e6	0.108585164
170	0x3d8db301	0.06918908
171	0xbe45df91	-0.19323565
172	0xbd06c93a	-0.03290675
173	0x3c729695	0.014806409
174	0x3c8fda92	0.017560277
175	0xbd2b42e2	-0.04181183
176	0xbd95dda4	-0.07317665
177	0x3d741172	0.05958695
178	0x3b8689e5	0.004105794
179	0x3e152af1	0.14567162
180	0x3e159aa2	0.14609769
181	0x3c653e4c	0.0139919035
182	0x3d8dc7a3	0.06922843
183	0xbcc7ed86	-0.024405252
184	0x3c9460e2	0.018112604
185	0xbd3c10af	-0.04591435
186	0x3dcdf2ff	0.100561135
187	0xbc314ff1	-0.010822282
188	0x3db69392	0.089148656
189	0x3dccffa7	0.10009699
190	0xbbf07db9	-0.007339206
191	0x3be62373	0.007023269
192	0xbd346b54	-0.04404767
193	0x3cd773e2	0.026300374
194	0xbd2f4a25	-0.04279532
195	0x3d3c8616	0.04602631
196	0x3bbc7eed	0.0057524354
197	0x3df117e7	0.11772137
198	0xbcde8211	-0.02716163
199	0x3dca6b8d	0.09883795
200	0x3d0663d6	0.032810055
201	0x3d0ddb39	0.034632895
202	0xbdbbcbdd	-0.09169743
203	0xbd49ab38	-0.049235553
204	0xbdc3a6f5	-0.09553329
205	0x3d0d613b	0.034516554
206	0x3cd983ab	0.026552042
207	0xbd30fb67	-0.043208506
208	0xbc0c4ee3	-0.00856373
209	0x3daa96e0	0.08329558
210	0x3cdae734	0.026721574
211	0x3ccabed7	0.024749203
212	0xbd9995f2	-0.07499303
213	0xbd8f9564	-0.07010916
214	0x3e3071ad	0.17230864
215	0x3dbfbed9	0.09362573
216	0x3bd34288	0.00644714
217	0x3d72433e	0.05914616
218	0x3c0e7238	0.008694224
219	0x3c3ca7f7	0.011514655
220	0x3dceeb25	0.10103444
221	0xbd14fb22	-0.03637231
222	0x3ccb069b	0.024783423
223	0x3d6076d9	0.054800842
224	0x3ceb5b22	0.028729979
225	0x3dd4cf59	0.10391111
226	0x3cb09dc5	0.021559605
227	0xbd7af703	-0.061270725
228	0xbda9e21b	-0.08295079
229	0xbc7c3639	-0.015393787
230	0x3d206a51	0.03916389
231	0xbbde2943	-0.006779821
232	0xbb777d66	-0.0037763952
233	0x3d844dc5	0.06460146
234	0xbd43d50e	-0.047810607
235	0x3ccb7609	0.024836557
236	0xbd848c0b	-0.064720236
237	0x3deaf357	0.11472195
238	0x3cab56ca	0.020915408
239	0xbd03f6f9	-0.032217953
240	0x3dc9e640	0.0985837
241	0xbce38ca4	-0.027777024
242	0xbdd7b030	-0.10531652
243	0xbb26b115	-0.002543514
244	0xbdb30ea5	-0.087430276
245	0x3d4a8645	0.049444456
246	0x3d2731cf	0.040818986
247	0xbd87dc18	-0.066337764
248	0x3d9cd14d	0.076571085
249	0x3a9547e8	0.0011389228
250	0xbda84e3a	-0.082180455
251	0x3d1e33b2	0.03862352
252	0x3c01c7b4	0.007921148
253	0xbca0f677	-0.019648774
254	0xbe047302	-0.12934497
255	0xbca7561a	-0.020426799
