results/H11/AgentController/AgentController-999977.onnx (onnx, 657373 bytes, 14 tensors)

83 f4 [116]
0.2275566 0.15684806 0.16930903 0.25200197 0.23519112 0.16048948 0.17681034 0.2472518
0.2291161 0.1564624 0.17187315 0.25636533 0.24479772 0.16116738 0.18957117 0.24351908
0.23663294 0.15856846 0.1805137 0.2607527 0.24862142 0.15767565 0.19753785 0.24027795
0.24611722 0.16218491 0.1905402 0.2644085 0.24564734 0.14876606 0.20025258 0.23912422
0.2556714 0.16567734 0.20071778 0.26628184 0.23961115 0.13958848 0.19892211 0.2405616
0.26773205 0.16845188 0.21479362 0.2676268 0.23189037 0.13337144 0.1933638 0.24264055
0.28056908 0.16825752 0.23180035 0.2689963 0.22219959 0.12772025 0.18499829 0.24372903
0.29452255 0.17255977 0.24690811 0.2698983 0.2152146 0.12447203 0.17849246 0.24343674
0.30438146 0.17735662 0.25651225 0.26997307 0.21519887 0.124740705 0.17829014 0.24281862
0.3033619 0.17735733 0.25518274 0.26780197 0.22279897 0.12775302 0.18575661 0.24265763
0.29430738 0.17304873 0.24633515 0.26371238 0.23273295 0.13157433 0.19558585 0.24239855
0.28389716 0.1675824 0.2365449 0.25887156 0.24218231 0.1357452 0.20461869 0.2417327
0.27687496 0.1621061 0.23116757 0.25425768 0.25078252 0.14106487 0.21190915 0.24239118
0.2699555 0.1557702 0.22650616 0.24943465 0.26171437 0.14830917 0.22093394 0.2452375
0.26171586 0.14830917 0.22093591 0.24523784
00000000: 9904 693e c79c 203e 595f 2d3e 6706 813e
00000010: f1d5 703e 5b57 243e c50d 353e 932f 7d3e
00000020: 699d 6a3e ae37 203e 84ff 2f3e 5142 833e
00000030: 41ac 7a3e 1009 253e f21e 423e 115d 793e
00000040: e84f 723e c55f 223e 95d8 383e 6181 853e
00000050: 9d96 7e3e ba75 213e 5d47 4a3e 6c0b 763e
00000060: 2706 7c3e cd13 263e f81c 433e 8d60 873e
00000070: fa8a 7b3e 2156 183e 030f 4d3e fbdc 743e
00000080: 5de7 823e 52a7 293e f688 4d3e 1856 883e
00000090: a05c 753e 48f0 0e3e 3db2 4b3e c855 763e
000000a0: 2d14 893e a67e 2c3e dcf2 5b3e 6106 893e
000000b0: ab74 6d3e 8692 083e 2901 463e c476 783e
000000c0: c0a6 8f3e b34b 2c3e 125d 6d3e e2b9 893e
000000d0: 4a88 633e 19c9 023e 3170 3d3e 1a94 793e
000000e0: a9cb 963e 82b3 303e 7bd5 7c3e 1c30 8a3e
000000f0: 3761 5c3e 31eb fe3d bac6 363e 7b47 793e
00000100: e3d7 9b3e f99c 353e 9355 833e e939 8a3e
00000110: 185d 5c3e 0e78 ff3d b191 363e 72a5 783e
00000120: 4052 9b3e 299d 353e 50a7 823e 571d 893e
00000130: 6a25 643e b0d1 023e fb36 3e3e 3e7b 783e
00000140: 75af 963e b033 313e 483f 7c3e 4f05 873e
00000150: 8c51 6e3e 6cbb 063e a847 483e 5337 783e
00000160: f85a 913e b89a 2b3e d438 723e d08a 843e
00000170: a4fe 773e ca00 0b3e 9087 513e c788 773e
00000180: 8ec2 8d3e 24ff 253e 31b7 6c3e 102e 823e
00000190: 9166 803e 4f73 103e b6fe 583e 6535 783e
000001a0: 9b37 8a3e 3982 1f3e 3bf1 673e cc6b 7f3e
000001b0: 6dff 853e 5cde 173e 823c 623e 8a1f 7b3e
000001c0: 9fff 853e 5cde 173e 063d 623e a11f 7b3e

86 f4 [3]
4.763997 0.0033655206 6.2650695
00000000: aa72 9840 1190 5c3b 737b c840

action_model._continuous_distribution.log_sigma f4 [1, 2]
0.012017235 0.001635982
00000000: f0e3 443c 726e d63a

action_model._continuous_distribution.mu.bias f4 [2]
-0.0020706598 -7.899881e-05
00000000: e8b3 07bb 2aac a5b8

action_model._continuous_distribution.mu.weight f4 [2, 256]
0.0017024297 -0.046673592 -0.021106306 -0.029864566 0.016716648 -0.0066451076 0.013935105 0.028164992
-0.025321139 -0.0039378395 0.024342299 -0.033792067 -0.041735243 0.007847951 -0.03635027 0.0057261307
-0.011483224 -0.0047807824 -0.0020494803 -0.011044652 -0.011509181 0.01615413 -0.010238816 -0.0050077867
0.0039885314 0.04251426 0.011083157 0.02621896 -0.017199863 0.019201543 0.017774053 0.02997445
-0.0060612694 -0.008730383 -0.029739246 -0.01929188 0.050271656 0.02388375 0.01683612 -0.0016369779
-0.015992355 -0.02865499 0.002714055 -0.021825634 -0.020857798 -0.009077055 0.02098995 0.026254313
0.00046488535 -0.017346598 -0.004394715 -0.034215637 -0.01503224 -0.009792431 -0.00835231 -0.012147441
0.03248705 0.022538321 0.011637359 -0.0012787337 0.006646675 0.04745941 0.01003837 -0.008284044
0.026726276 -0.034600705 -0.02360181 -0.013383961 -0.015372614 -0.034851342 0.015104692 -0.012907976
-0.037123926 0.014359597 0.028045531 -0.0070818802 0.0045550964 0.00014731703 0.03227306 0.017623033
0.010578418 0.019441593 -0.005025646 -0.027248584 -0.010837227 -0.0017907465 -0.034676135 0.03427974
0.012197184 0.009611585 0.0029847287 -0.01597709 -0.020694489 0.022261417 0.015358792 0.017383711
-0.025041671 0.004520883 0.018306298 0.0017902543 0.027548095 -0.015906556 -0.04259809 -0.013013242
-0.0069756643 0.024965923 0.00039222927 -0.00029994038 0.02281186 0.012348892 0.019169688 -0.034357868
0.016750557 -0.01135872 -0.029277153 -0.007941404 -4.8203765e-05 -0.027129216 -0.015775362 -0.027136773
0.00035738674 -0.0100434795 -0.03262188 -0.020702466 0.018495778 -0.010489235 0.015619539 0.035397753
-0.029976115 -0.026330108 -0.055635564 -0.019729739 0.020697854 0.008082413 0.004160276 -0.0059103756
0.005662947 0.01283008 -0.019532023 -0.030936137 0.004193647 0.03522817 0.016249727 0.019491313
0.017787777 0.00747586 0.03198045 -0.026527451 0.05058848 -0.009560531 -0.0047012293 0.004176453
-0.030666644 -0.038268268 -0.049343456 -0.0023405834 0.037895013 -0.005697246 0.016589647 0.011678786
-0.011859668 0.0037203964 -0.0124016525 -0.006655436 -0.025680125 -0.003499728 0.0035011047 -0.009158638
0.0039814147 -0.011194197 -0.017784404 0.006664373 -0.006189965 -0.0053441823 0.024511624 0.0025804245
-0.023398235 0.012468934 0.0044454914 -0.0019358501 0.025918834 -0.004839649 -0.014997819 0.0032486203
-0.029939717 -0.02643221 0.020698356 -0.013204399 0.00644406 -0.0152925765 -0.0102328565 -0.012643105
0.02256233 0.0021379918 -0.01678879 0.018821971 0.00047166456 0.00014003753 0.024406515 -0.008291396
-0.020843636 -0.01958295 0.024441188 0.011441139 -0.024867678 0.019084234 -0.01873307 -0.018578606
0.0055172723 0.029330878 -0.043324918 0.022840679 0.026533864 -0.012039449 -0.015853183 0.012973366
-0.0137369605 -0.01493621 -0.013683394 -0.0036271599 -0.021421287 0.0012936621 0.013579782 0.0033012524
-0.02952684 -0.021606313 -0.007101396 -0.031489547 0.009167326 -0.026974324 -0.03139775 0.021268765
-0.014632439 -0.02751402 -0.020918934 -0.040936094 -0.00237594 0.017753894 -0.016448835 -0.044867136
0.052878153 -0.010242104 0.0017801614 0.017581552 0.03275721 -0.0008069673 -0.01860019 -0.018209483
-0.012950758 -0.015442308 -0.03124267 -0.04717483 -0.017519822 -0.008664912 0.017445445 0.013258075
00000000: 1024 df3a cf2c 3fbd 22e7 acbc 89a6 f4bc
00000010: 5af1 883c 34bf d9bb 1150 643c 45ba e63c
00000020: 476e cfbc fe08 81bb 8069 c73c 8d69 0abd
00000030: 93f2 2abd b194 003c 05e4 14bd 44a2 bb3b
00000040: 2224 3cbc 1ca8 9cbb 9350 06bb a1f4 34bc
00000050: 0191 3cbc ab55 843c b5c0 27bc 5c18 a4bb
00000060: 3ab2 823b 6f23 2e3d 2196 353c 25c9 d63c
00000070: bae6 8cbc 8e4c 9d3c e49a 913c fa8c f53c
00000080: 9d9d c6bb e109 0fbc b89f f3bc 010a 9ebc
00000090: a7e9 4d3d dba7 c33c e7eb 893c dd8f d6ba
000000a0: 6602 83bc dfbd eabc 49de 313b accb b2bc
000000b0: f9dd aabc eeb7 14bc 1ef3 ab3c 4913 d73c
000000c0: dbbb f339 741a 8ebc 8b01 90bb b225 0cbd
000000d0: c949 76bc 6f70 20bc 21d8 08bc 0f06 47bc
000000e0: 2411 053d 49a2 b83c 9faa 3e3c 2f9b a7ba
000000f0: 5acc d93b cc64 423d fa77 243c cdb9 07bc
00000100: 10f1 da3c 78b9 0dbd 9558 c1bc 6748 5bbc
00000110: 6bdd 7bbc 48c0 0ebd ac79 773c fa7b 53bc
00000120: 420f 18bd 8444 6b3c bebf e53c 1e0f e8bb
00000130: eb42 953b 1d79 1a39 c230 043d 2e5e 903c
00000140: 1a51 2d3c fa43 9f3c 2dae a4bb 6c38 dfbc
00000150: a08e 31bc 7bb7 eaba 9008 0ebd ea68 0c3d
00000160: b3d6 473c e979 1d3c 709b 433b 63e2 82bc
00000170: 7d87 a9bc 935d b63c 71a3 7b3c 4968 8e3c
00000180: 3124 cdbc ea23 943b 17f7 953c f7a6 ea3a
00000190: 8bac e13c 774e 82bc 567b 2ebd 7e35 55bc
000001a0: 1d94 e4bb 5685 cc3c 1fa4 cd39 5141 9db9
000001b0: f0df ba3c 0253 4a3c c009 9d3c d6ba 0cbd
000001c0: 7738 893c ed19 3abc a4d6 efbc aa1c 02bc
000001d0: 662e 4ab8 173e debc 553b 81bc f04d debc
000001e0: a35f bb39 688d 24bc 859e 05bd 3898 a9bc
000001f0: 7584 973c 0adb 2bbc 18e9 7f3c 3cfd 103d
00000200: 7890 f5bc 3db2 d7bc 1ee2 63bd 43a0 a1bc
00000210: 8c8e a93c 196c 043c ed52 883b d3ab c1bb
00000220: 3e90 b93b 4235 523c 9f01 a0bc c86d fdbc
00000230: dc6a 893b 6a4b 103d 261e 853c 3fac 9f3c
00000240: acb7 913c 0ff8 f43b effd 023d 1950 d9bc
00000250: de35 4f3d c6a3 1cbc c50c 9abb a1da 883b
00000260: 9d38 fbbc 30bf 1cbd 5d1c 4abd 7964 19bb
00000270: cd37 1b3d f7af babb 03e7 873c 6158 3f3c
00000280: 0e4f 42bc e5d1 733b 4d30 4bbc d815 dabb
00000290: 205f d2bc b15b 65bb ca72 653b 1d0e 16bc
000002a0: 8776 823b de67 37bc 99b0 91bc d060 da3b
000002b0: 31d5 cabb 401e afbb 9acc c83c 571c 293b
000002c0: a8ad bfbc 804a 4c3c 7cab 913b 5abc fdba
000002d0: bc53 d43c eb95 9ebb 6ab9 75bc cee6 543b
000002e0: 2344 f5bc 5d88 d8bc 998f a93c 4357 58bc
000002f0: b128 d33b b78d 7abc b6a7 27bc 0725 4fbc
00000300: a3d4 b83c 8d1d 0c3b a588 89bc 8930 9a3c
00000310: bf49 f739 0ad7 1239 2cf0 c73c a3d8 07bc
00000320: 46c0 aabc 6c6c a0bc e338 c83c 9d73 3b3c
00000330: 4db7 cbbc 8a56 9c3c 1876 99bc 2932 98bc
00000340: 3cca b43b 4f47 f03c 7875 31bd 601c bb3c
00000350: 8c5d d93c 1c41 45bc 89de 81bc 3e8e 543c
00000360: fd10 61bc 01b7 74bc 5030 60bc a5b5 6dbb
00000370: b27b afbc 1990 a93a bc7d 5e3c d359 583b
00000380: 46e2 f1bc b9ff b0bc d4b2 e8bb 2ffb 00bd
00000390: 8d32 163c 42f9 dcbc ed9a 00bd d53b ae3c
000003a0: e6bc 6fbc 1565 e1bc 2f5e abbc 9bac 27bd
000003b0: a9b5 1bbb 9d70 913c b5bf 86bc 9ac6 37bd
000003c0: c396 583d 7fce 27bc 4e54 e93a 3007 903c
000003d0: 6d2c 063d a98a 53ba 6d5f 98bc 0e2c 95bc
000003e0: 6b2f 54bc bc01 7dbc a1f0 ffbc 653a 41bd
000003f0: bb85 8fbc 46f7 0dbc c0e9 8e3c 6638 593c

action_model._discrete_distribution.branches.0.weight f4 [1, 256]
-0.0052503156 -0.0005313646 -0.016206259 5.4669235e-05 0.0029747912 0.0024858012 -0.010030938 -0.0065408773
-0.017196395 -0.0026879173 0.0018975543 0.0038911 0.008876289 -0.0010015614 0.0011240394 -0.002812527
3.3280117e-05 0.0037398094 -0.0069307457 -0.017473033 0.004990991 -0.008670378 0.00012731872 0.00078639603
-0.003224194 -0.010353423 0.0012506747 -0.0014373065 0.005980664 -0.005216287 -0.011068512 -0.00682268
-0.0037449077 0.005628563 0.00010036033 -0.004728954 0.0044574672 -0.003726415 0.0057951626 0.003951516
-0.00030126504 -0.00051001547 -0.0052064504 0.00060987467 -0.0033514935 -0.0008663253 0.00093201315 -0.010231362
0.007689082 -0.007449881 -0.0038800368 0.004779177 -0.0014724698 -0.00091137487 0.0008606482 0.0054103318
-0.0064045484 -0.0057831686 0.00786537 -0.0013884393 -0.0069234893 -0.0022286614 0.00039647287 -0.008479575
0.009353912 0.0035204538 -0.0057473513 -0.007993144 -0.0024333752 0.0015565383 -0.0026630154 -0.00933279
-0.0006197551 -0.00031674287 -0.00085938716 -0.011159741 -0.009228853 -0.005200236 -0.01915204 2.154052e-05
-0.0054843104 0.0020725825 0.005857629 0.001001742 -0.008697714 -0.007977837 -0.009812714 -0.014988409
-0.0060474486 0.010653403 0.0057968367 0.0035704982 -0.0042323996 0.00805921 0.009121201 -0.0074293385
-0.001965861 0.0041406094 -0.006056263 -0.009203231 -0.0041155186 -0.0011854852 -0.0024529514 0.004009453
0.011627964 -0.0017758673 -0.0008035459 -0.0013064056 0.0020542264 -0.0040820707 -0.0014378004 -0.0049379277
-0.0042375685 0.00662432 0.0012817648 0.0012882293 -0.0045112628 0.0100793885 0.00577585 0.010592258
0.0117408745 0.015891934 -0.003598334 -0.0017957147 0.0022546386 -0.00078420155 -0.007702943 -0.0017473148
-0.0051507084 -0.003545651 0.00028393505 0.00072222267 0.0015127797 -0.0022722536 -0.0020096896 0.0018999735
-0.0012480379 0.00016718807 0.002716968 -0.0005941313 -0.0099473465 0.004229453 -0.0031291402 -0.0061049745
-0.005026599 -0.010066482 -0.0032483076 0.007815243 -0.0012088635 -0.004528741 0.0074419654 -0.011293306
0.0022406268 -0.0014852217 0.0038560869 0.005180978 0.010520467 -0.004535422 0.00852561 0.004020067
-0.012254628 -0.008764382 -0.0011643161 0.0010657707 0.006438996 -0.011193006 0.009970463 -0.012081204
0.0016906908 -0.0051538567 0.0068559945 0.00056564325 0.0030412646 -0.0073966878 -0.0002570339 -0.012263365
-0.010410242 -0.007546652 -0.012427492 -0.008088182 -0.003617474 0.00040916973 -0.0030869243 -0.005782731
0.0055818334 0.005867222 -0.0044387197 0.00021848307 -0.005409808 -0.011154979 0.0078033046 -0.0051046885
0.008722138 0.008505947 0.0009841439 -0.0011895659 0.011974358 0.0037910063 -0.00053231 -0.0061169243
-0.005872443 -0.0009863258 -0.0071742022 0.00011072207 -0.0097172 -0.0032304802 -0.008433614 0.0059401486
0.0036062722 0.0026178781 -0.0012071856 0.003306511 -0.003600534 0.0009784434 -0.0012709837 -0.002789198
0.0046905647 0.00071117503 -0.0020325044 0.0036286884 0.0054800063 0.0060068932 -0.008582237 0.0032288872
-0.0037316058 0.0042485227 -0.0019628264 0.0012336527 0.0007318539 0.008468649 0.0064726644 -0.004108577
-0.009098055 -0.005058817 0.0011114645 -0.0020039435 -0.0069628754 -0.00810296 0.0031015286 0.0001860758
-0.0036954277 0.0025641096 0.0154343145 0.00065519684 -0.0005487811 -0.00580258 0.0014523361 0.0033216667
0.0065956116 0.0021279228 0.0073926495 -0.00067172217 -0.0031191553 -0.00469886 -0.006106763 0.0011830234
00000000: d70a acbb 464b 0bba fdc2 84bc a54c 6538
00000010: b7f4 423b d3e8 223b ce58 24bc db54 d6bb
00000020: 74df 8cbc c527 30bb 5bb7 f83a d301 7f3b
00000030: db6d 113c d346 83ba 8154 933a 5f52 38bb
00000040: 4196 0b38 9717 753b 4f1b e3bb 9b23 8fbc
00000050: 788b a33b 330e 0ebc dc80 0539 2526 4e3a
00000060: 004d 53bb 67a1 29bc aeed a33a 0164 bcba
00000070: 72f9 c33b 63ed aabb b458 35bc ca90 dfbb
00000080: 206d 75bb cf6f b83b 8b78 d238 57f5 9abb
00000090: f20f 923b df36 74bb 59e5 bd3b b87b 813b
000000a0: 1cf3 9db9 8fb2 05ba df9a aabb ffdf 1f3a
000000b0: bba4 5bbb 1b1a 63ba 5852 743a 71a1 27bc
000000c0: b2f4 fb3b 221e f4bb 3748 7ebb a49a 9c3b
000000d0: e3ff c0ba 55e9 6eba 1f9d 613a 2749 b13b
000000e0: 3fdd d1bb bc80 bdbb c1dd 003c 4bfc b5ba
000000f0: 70de e2bb bc0e 12bb b0dd cf39 eaed 0abc
00000100: 2741 193c 6ab7 663b 4754 bcbb adf5 02bc
00000110: 4379 1fbb c204 cc3a fc85 2ebb 8fe8 18bc
00000120: 1077 22ba 8210 a6b9 7f48 61ba 59d7 36bc
00000130: 9d34 17bc be66 aabb bde4 9cbc eab1 b437
00000140: bbb5 b3bb 2ad4 073b 5af1 bf3b e24c 833a
00000150: db80 0ebc 79b5 02bc 81c5 20bc f291 75bc
00000160: ad29 c6bb 9c8b 2e3c 64f3 bd3b 05ff 693b
00000170: f1af 8abb c70a 043c 1771 153c cf71 f3bb
00000180: add5 00bb f3ad 873b 9e73 c6bb 26c9 16bc
00000190: 79db 86bb 4862 9bba b2c1 20bb bb61 833b
000001a0: 3783 3e3c 38c4 e8ba 0da5 52ba b33b abba
000001b0: 33a0 063b e4c2 85bb 9374 bcba 57ce a1bb
000001c0: 4ddb 8abb d310 d93b e400 a83a cdd9 a83a
000001d0: 37d3 93bb 0524 253c 5743 bd3b 268b 2d3c
000001e0: cc5c 403c cd2f 823c 07d2 6bbb 305e ebba
000001f0: 8fc2 133b e092 4dba f868 fcbb 2806 e5ba
00000200: 46c7 a8bb 275e 68bb 1edd 9439 8b53 3d3a
00000210: 7748 c63a 17ea 14bb ffb4 03bb 8808 f93a
00000220: 3495 a3ba 354f 2f39 290f 323b 7abf 1bba
00000230: 32fa 22bc 3997 8a3b 4312 4dbb 3d0c c8bb
00000240: 2bb6 a4bb e3ed 24bc 8fe1 54bb 810b 003c
00000250: ba72 9eba d565 94bb bbdb f33b 8f07 39bc
00000260: 7bd7 123b c5ab c2ba 67b6 7c3b 32c5 a93b
00000270: 095e 2c3c e19d 94bb 00af 0b3c c4ba 833b
00000280: a3c7 48bc 7c98 0fbc f79b 98ba 55b1 8b3a
00000290: 37fe d23b df62 37bc 275b 233c 3ef0 45bc
000002a0: 2b9a dd3a afe1 a8bb 40a8 e03b ad47 143a
000002b0: f44f 473b ea5f f2bb 82c2 86b9 48ec 48bc
000002c0: b88f 2abc e849 f7bb ae9c 4bbc 4b84 04bc
000002d0: 2513 6dbb d585 d639 ff4d 4abb 107d bdbb
000002e0: d0e7 b63b d341 c03b ae72 91bb 9a18 6539
000002f0: c244 b1bb 5fc3 36bc ddb2 ff3b 3b45 a7bb
00000300: 4ce7 0e3c 875c 0b3c 64fe 803a 35eb 9bba
00000310: 1930 443c 8872 783b b88a 0bba 7b70 c8bb
00000320: 9f6d c0bb 9a47 81ba 9215 ebbb 7533 e838
00000330: e434 1fbc 77b6 53bb 242d 0abc 94a5 c23b
00000340: 3557 6c3b b590 2b3b 6d3a 9eba 0db2 583b
00000350: f0f6 6bbb 1d3f 803a 2397 a6ba faca 36bb
00000360: 4fb3 993b 266e 3a3a c433 05bb 4acf 6d3b
00000370: a091 b33b 79d5 c43b 839c 0cbc bd9b 533b
00000380: f58d 74bb 3137 8b3b c3a2 00bb 84b2 a13a
00000390: e2d9 3f3a 17c0 0a3c a518 d43b 3ea1 86bb
000003a0: 0210 15bc 6fc4 a5bb 8fae 913a 9854 03bb
000003b0: d528 e4bb 47c2 04bc 0443 4b3b 581d 4339
000003c0: fd2e 72bb 9f0a 283b 35e0 7c3c 84c1 2b3a
000003d0: 14dc 0fba 9223 bebb 505c be3a 52b0 593b
000003e0: 0020 d83b 9f74 0b3b 0a3e f23b 8316 30ba
000003f0: be6a 4cbb e5f8 99bb 3e1b c8bb ae0f 9b3a

network_body._body_endoder.seq_layers.0.bias f4 [256]
0.0013569861 0.0007459124 0.0026484143 -0.0009240055 0.0011458759 0.0038762358 -0.0035648793 -0.0074472926
-0.0021297536 0.013777771 0.0036916863 0.0026927034 0.007401352 0.0019858791 0.0021408803 0.002877909
0.01098933 0.011978322 0.00076299167 0.004094785 -0.013837051 0.0064591398 0.01147695 0.005101896
0.008490571 0.0071216864 0.004086161 0.0034592287 0.0063502984 -0.0020512298 0.001023771 0.0061608064
0.010330174 0.0056064962 -0.004061283 -0.0025171533 0.005403106 0.0055302847 0.01966424 -0.00021204482
0.0052699614 -0.0019749596 -0.0063076904 0.0038495369 0.0033814244 0.013641192 0.023861863 0.008622428
0.009907832 0.008709967 0.003967976 -0.0064344145 0.0022681423 0.011487111 0.0036301296 -0.00067833666
-0.0070044403 0.0055604824 0.0052111144 0.0024937184 0.009358018 0.008808696 0.0032107444 0.01191905
-0.01440506 0.002879565 0.0023261188 0.008442649 0.021898707 0.0024099287 0.017976753 0.0052592964
0.0028206015 0.0041451016 0.0070775202 0.0037363057 0.008649396 0.012382578 0.0038054376 -0.002276186
0.0025928004 0.009703067 0.006403411 0.0039771 0.007648403 0.0009123593 0.005182042 0.004337593
0.011687528 0.007861286 0.0048061428 0.02011025 0.0065359347 0.018257128 0.006160889 -0.0020861507
0.012586165 0.007391047 0.005923274 -0.014195692 0.009283884 0.0048292126 0.0063905343 -0.009029475
0.012922731 0.008603479 0.015857778 0.0075630657 0.0058341627 0.010770901 0.003840973 0.006248645
0.014204438 0.014432873 -0.0023372448 -0.0073719556 -0.0021863042 0.009171673 0.008837999 0.0059405854
0.006407398 0.010074546 0.011685797 0.003976997 -0.012763146 -0.00028301895 0.016267354 0.012310465
0.00948673 -0.0013341004 0.004508318 0.008568439 0.010517379 0.0041428367 0.0028521416 0.002912275
-0.00087923097 0.0078270165 0.0132886665 0.0037957376 0.0016725976 0.01259913 -0.0047536623 -0.0011386919
0.016068175 -0.0040969416 -0.0044162516 -0.004218123 0.0009436041 0.0021564392 0.008804334 0.016297285
0.0022351132 0.006633665 -9.373411e-05 0.0074722776 0.008982746 0.0017212098 0.0044846223 0.010214124
0.006122797 0.008362521 -0.0044543473 0.008602446 0.013746133 0.009480175 -0.0077645867 0.0073810574
-0.0010766557 0.011423569 0.011343599 0.003669722 0.012633481 0.01115147 0.0010367273 0.006105701
0.005622953 0.019048778 0.017701825 0.0033765514 0.014476467 0.01505249 0.011680567 0.01185729
0.003965735 0.0054237056 0.0032078712 0.008052972 0.004573531 0.013419627 0.0013554054 0.013603597
0.0147046195 0.009821175 0.014940927 0.002261987 0.020867938 0.0043334863 0.017735938 0.0057433387
0.0042171883 0.012421265 0.00030769134 0.001108929 0.010693702 0.016748678 0.013852373 0.0059201173
0.009548287 0.010203158 -0.0006634476 -0.001983492 0.014281301 0.017877948 0.0047058086 0.0051225983
-0.0021676293 0.013180054 0.0018844339 0.0069081513 -0.0017998302 -0.001352575 -0.0025209794 0.011902273
0.0108225 0.0077315457 0.016372489 0.008213373 0.00781704 0.00419768 0.012255747 0.007079362
0.0072521535 0.012608717 0.006860197 0.01626971 0.0064907707 0.0013267715 0.0070945905 0.0012564923
0.018502567 0.009801338 -0.0030803396 0.005783612 0.0176853 0.013429124 0.0034824456 -0.0023084253
-0.00091127574 0.009921516 -0.01281649 0.006674274 0.011808568 0.0057885214 -0.0060054143 -0.00012019605
00000000: e6dc b13a 5589 433a 0591 2d3b f638 72ba
00000010: 3731 963a 7208 7e3b c0a0 69bb 6b08 f4bb
00000020: 5693 0bbb 29bc 613c 38f0 713b 1178 303b
00000030: 0a87 f23b 8625 023b 034e 0c3b 4d9b 3c3b
00000040: 970c 343c b940 443c 8103 483a 8c2d 863b
00000050: ccb4 62bc 31a7 d33b d109 3c3c ce2d a73b
00000060: 091c 0b3c 095d e93b 34e5 853b 3ab4 623b
00000070: 2a16 d03b ed6d 06bb 0e30 863a 97e0 c93b
00000080: e43f 293c b3b6 b73b 8314 85bb d3f6 24bb
00000090: 8a0c b13b 6437 b53b e616 a13c 5958 5eb9
000000a0: a4af ac3b 536e 01bb beb0 cebb 8348 7c3b
000000b0: e39a 5d3b 4e7f 5f3c f479 c33c 1645 0d3c
000000c0: 7654 223c 40b4 0e3c cc05 823b c8d7 d2bb
000000d0: 1da5 143b 7034 3c3c 78e7 6d3b 67d2 31ba
000000e0: 8185 e5bb b534 b63b ffc1 aa3b a76d 233b
000000f0: 5f52 193c 5952 103c 5a6b 523b 1e48 433c
00000100: 3303 6cbc 16b7 3c3b cc71 183b 0953 0a3c
00000110: eb64 b33c e5ef 1d3b fc43 933c 2d56 ac3b
00000120: d7d9 383b a2d3 873b 8bea e73b cfdc 743b
00000130: 32b6 0d3c 4ce0 4a3c a664 793b 102c 15bb
00000140: f9eb 293b 9df9 1e3c b4d3 d13b 5552 823b
00000150: 749f fa3b 652b 6f3a 1ece a93b 5e22 8e3b
00000160: 0c7d 3f3c a0cc 003c d97c 9d3b 40be a43c
00000170: 652b d63b f98f 953c 48e1 c93b cdb7 08bb
00000180: 3436 4e3c 9930 f23b 0618 c23b 0c95 68bc
00000190: 6f1b 183c 5f3e 9e3b b067 d13b 5df0 13bc
000001a0: ddb9 533c 9bf5 0c3c 2ce8 813c 98d3 f73b
000001b0: 812c bf3b 6f78 303c d5b8 7b3b 6fc1 cc3b
000001c0: bbb9 683c db77 6c3c 762c 19bb 7290 f1bb
000001d0: 1948 0fbb c944 163c 41cd 103c 3ea9 c23b
000001e0: 26f5 d13b b50f 253c c975 3f3c 7851 823b
000001f0: 841c 51bc 2962 94b9 1d43 853c d5b1 493c
00000200: 3b6e 1b3c fbdc aeba 83ba 933b a362 0c3c
00000210: 1651 2c3c a2c0 873b ffea 3a3b dedb 3e3b
00000220: 317c 66ba e33c 003c b5b8 593c e9c1 783b
00000230: 103b db3a 956c 4e3c 9cc4 9bbb 2940 95ba
00000240: 68a1 833c a33f 86bb 34b6 90bb 2e38 8abb
00000250: 335c 773a 0c53 0d3b 0e40 103c e281 853c
00000260: fa7a 123b 375f d93b 1e93 c4b8 02da f43b
00000270: 5e2c 133c 389a e13a bdf3 923b 2459 273c
00000280: bea1 c83b f502 093c c6f5 91bb 46f1 0c3c
00000290: 7637 613c bc52 1b3c 136e febb ccdc f13b
000002a0: 921e 8dba ec29 3b3c 81da 393c b87f 703b
000002b0: a9fc 4e3c a8b4 363c cce2 873a 5512 c83b
000002c0: c040 b83b 2f0c 9c3c 6b03 913c 2249 5d3b
000002d0: b42e 6d3c b89e 763c d95f 3f3c 1445 423c
000002e0: fff2 813b 57b9 b13b 263b 523b 9df0 033c
000002f0: 8fdd 953b ffdd 5b3c dca7 b13a 9fe1 5e3c
00000300: a5eb 703c fee8 203c caca 743c d83d 143b
00000310: 3df3 aa3c ebff 8d3b f54a 913c 9e32 bc3b
00000320: 5730 8a3b 9082 4b3c a251 a139 7c59 913a
00000330: a334 2f3c 8634 893c 10f5 623c 8bfd c13b
00000340: 6b70 1c3c 252b 273c 37eb 2dba 79fd 01bb
00000350: 1efc 693c c674 923c 2f33 9a3b 78db a73b
00000360: c90e 0ebb 27f1 573c 1cff f63a c65d e23b
00000370: 48e8 ebba e348 b1ba 0437 25bb c001 433c
00000380: db50 313c e858 fd3b 991f 863c 6291 063c
00000390: 0b13 003c b18c 893b 54cc 483c fef9 e73b
000003a0: 79a3 ed3b cb94 4e3c 81cb e03b 0e48 853c
000003b0: 88b0 d43b 10e7 ad3a bd79 e83b e3b0 a43a
000003c0: b292 973c cb95 203c 86df 49bb 7484 bd3b
000003d0: c3e0 903c d405 5c3c be39 643b f348 17bb
000003e0: aee2 6eba db8d 223c 41fc 51bc deb3 da3b
000003f0: b978 413c a3ad bd3b 11c9 c4bb c311 fcb8

network_body._body_endoder.seq_layers.0.weight f4 [256, 119]
-0.004124307 -0.16360864 0.03376035 -0.051202714 -0.09280209 0.01323174 0.09676511 -0.10050961
0.01760628 -0.05909632 -0.029665016 -0.10283181 0.07979685 0.10333771 -0.16006275 0.04524118
0.08219538 -0.09375103 0.05624839 0.037822213 0.056070965 -0.11589605 -0.024415236 0.04281519
0.04219869 -0.06346415 0.0820765 -0.12183537 -0.15526424 -0.019138321 -0.018865721 -0.10932674
-0.13039228 -0.027727067 -0.2076142 0.029085275 -0.022250729 -0.0148477005 -0.07791978 0.04772312
-0.03427725 -0.1923129 -0.10248908 0.097072124 -0.14310308 -0.024696479 0.10743453 -0.023728024
-0.15066223 -0.21326458 0.11461479 0.09160732 0.0022293036 0.012388686 0.11076977 0.13344689
0.080456 -0.03598283 -0.08713641 -0.002246542 -0.072127916 0.2253901 0.060101595 -0.18986247
-0.21418034 -0.09124153 0.053987656 0.06798875 -0.2067955 0.15253627 0.059881117 0.025398517
-0.01586347 0.052400824 0.021648152 0.07296984 0.06323322 0.1288197 -0.026070647 0.106927186
-0.035977796 0.09463668 -0.18658535 -0.23151046 -0.12019846 0.0001672658 -0.17132804 0.11568332
-0.053800877 -0.10818859 0.07458052 -0.029033618 0.06537076 -0.048441336 -0.03709171 -0.16358455
0.049406562 -0.014775006 -0.073935494 0.064486794 0.0056090844 0.05567048 0.07733141 0.035440814
0.057659343 -0.17441468 0.028488878 0.016387882 -0.047037084 0.045757122 -0.11182597 0.14613351
-0.11259484 0.019106401 0.048566766 0.06314214 0.030442921 -0.040202346 0.05553825 0.058499753
0.030931298 -0.123576105 -0.06190306 0.021464087 -0.055209972 -0.10738662 -0.012443352 -0.03697452
0.036614414 -0.028008664 0.02939031 0.16534172 -0.0035714612 -0.11236231 -0.08769986 0.051110752
-0.04537655 -0.06556864 0.0032896001 -0.007838562 -0.063759156 -0.090063006 -0.075418316 0.118887484
-0.027842592 -0.025259253 0.06324949 0.09318011 -0.13945487 -0.15638877 -0.055145618 -0.038308304
-0.04649814 0.09703002 0.073343985 0.0862936 -0.07122246 0.08174705 -0.0023491147 -0.039431047
-0.015614146 0.19966187 0.060125485 -0.10331158 0.10926075 -0.01745996 -0.05609422 0.06456003
-0.07874866 -0.1071757 -0.10908265 0.024875373 0.07399945 -0.061323434 0.058102652 0.08252536
-0.18084681 -0.05444123 -0.059909567 0.060421642 0.027116869 0.070703715 0.03291729 -0.057144597
0.11557737 0.04163291 0.070453614 0.0070977523 0.05550737 -0.050754886 0.17090677 0.15976155
0.06100553 -0.09643601 -0.008684968 0.107456535 -0.04028384 -0.083400935 -0.05427488 -0.15358493
0.02139382 -0.117185175 0.010640284 -0.009606734 0.20917478 0.057096586 -0.17933883 0.03995314
0.045133498 0.08119716 0.052908808 0.08062032 0.15051858 0.10043839 -0.0997791 -0.13787156
0.2922461 -0.053589907 0.047571953 0.076504976 0.02097741 -0.013070649 -0.0290735 -0.039496694
0.06871481 -0.0512823 0.096662484 -0.19330716 0.07734282 0.14982912 0.04500804 -0.11106068
0.066517934 0.13653591 -0.091819264 0.0623414 0.022357212 -0.20455384 -0.058809068 0.079828314
0.04272695 -0.02114997 0.07597149 0.08970132 -0.039827704 0.064535476 -0.024801897 -0.018784579
-0.031407367 -0.046106584 -0.0021104638 -0.059514884 -0.059408363 -0.14561449 -0.04645046 -0.010392808
00000000: 3225 87bb 0689 27be 4b48 0a3d f0b9 51bd
00000010: 060f bebd f1c9 583c c92c c63d fbd7 cdbd
00000020: 0c3b 903c fc0e 72bd 0c04 f3bc 7c99 d2bd
00000030: 886c a33d b9a2 d33d 7de7 23be d14e 393d
00000040: 0d56 a83d 8a00 c0bd b664 663d 77eb 1a3d
00000050: abaa 653d e95a edbd 7602 c8bc fb5e 2f3d
00000060: 89d8 2c3d 7ef9 81bd b917 a83d d384 f9bd
00000070: 97fd 1ebe f8c7 9cbc 498c 9abc b3e6 dfbd
00000080: 8e85 05be e023 e3bc d198 54be 3e44 ee3c
00000090: 2947 b6bc c543 73bc 6894 9fbd 5179 433d
000000a0: 4d66 0cbd aced 44be cbe5 d1bd c0cd c63d
000000b0: 9d89 12be 4550 cabc a306 dc3d 4661 c2bc
000000c0: 3347 1abe 0862 5abe 29bb ea3d 9e9c bb3d
000000d0: 8219 123b eaf9 4a3c 43db e23d 4da6 083e
000000e0: 1ec6 a43d bb62 13bd 9374 b2bd b83a 13bb
000000f0: cdb7 93bd aacc 663e 172d 763d 4f6b 42be
00000100: 1752 5bbe d7dc babd 2922 5d3d b03d 8b3d
00000110: 33c2 53be 7832 1c3e e745 753d 8d10 d03c
00000120: 1cf4 81bc 3fa2 563d 7757 b13c 3671 953d
00000130: 6b80 813d 50e9 033e 1c92 d5bc a4fc da3d
00000140: 745d 13bd e0d0 c13d 3b10 3fbe 1411 6dbe
00000150: 9c2a f6bd 1264 2f39 9e70 2fbe 60eb ec3d
00000160: 4f5e 5cbd fb91 ddbd acbd 983d e9d7 edbc
00000170: 1be1 853d 6c6a 46bd 7aed 17bd b582 27be
00000180: 895e 4a3d de12 72bc 7e6b 97bd a711 843d
00000190: 69cc b73b bb06 643d ee5f 9e3d 632a 113d
000001a0: 342c 6c3d c399 32be 8261 e93c e13f 863c
000001b0: f5a9 40bd d26b 3b3d 0405 e5bd 06a4 153e
000001c0: 2098 e6bd 0785 9c3c f2ed 463d ab50 813d
000001d0: 6f63 f93c 37ab 24bd 137c 633d 709d 6f3d
000001e0: a263 fd3c 7815 fdbd 108e 7dbd 74d5 af3c
000001f0: da23 62bd 84ed dbbd 33df 4bbc 9872 17bd
00000200: fff8 153d 6d72 e5bc f3c3 f03c 574f 293e
00000210: 2d0f 6abb 361e e6bd fc9b b3bd 8259 513d
00000220: c3dc 39bd da48 86bd 5596 573b 506d 00bc
00000230: 2994 82bd f472 b8bd eb74 9abd 487b f33d
00000240: 2616 e4bc 7eec cebc f388 813d 37d5 be3d
00000250: 42cd 0ebe 6124 20be 5fe0 61bd 2be9 1cbd
00000260: d574 3ebd adb7 c63d 5f35 963d b3ba b03d
00000270: 15dd 91bd ff6a a73d 9bf3 19bb 7382 21bd
00000280: 7ad2 7fbc 2974 4c3e 2446 763d 0695 d3bd
00000290: 1ac4 df3d 3108 8fbc 0ec3 65bd 0d38 843d
000002a0: fa46 a1bd ef7e dbbd b966 dfbd 70c7 cb3c
000002b0: 068d 973d 482e 7bbd 0cfd 6d3d 0e03 a93d
000002c0: e82f 39be c4fd 5ebd bc63 75bd af7c 773d
000002d0: 3224 de3c 1ccd 903d 48d4 063d 7410 6abd
000002e0: d4b3 ec3d 4587 2a3d fc49 903d 4394 e83b
000002f0: b25b 633d 5be4 4fbd 2f02 2f3e 8898 233e
00000300: efe0 793d 3e80 c5bd 654b 0ebc 2c12 dc3d
00000310: ab00 25bd 1cce aabd 564f 5ebd 5e45 1dbe
00000320: 1842 af3c c8fe efbd 9654 2e3c 9065 1dbc
00000330: ea31 563e 1cde 693d 99a4 37be e7a5 233d
00000340: e7dd 383d b24a a63d e8b6 583d 441c a53d
00000350: 8b21 1a3e a5b2 cd3d fc58 ccbd 342e 0dbe
00000360: 48a1 953e 1781 5bbd cfda 423d a4ae 9c3d
00000370: d1d8 ab3c 4626 56bc 8c2b eebc 49c7 21bd
00000380: 5aba 8c3d 640d 52bd fbf6 c53d 50f2 45be
00000390: ea65 9e3d ce6c 193e 5a5a 383d c873 e3bd
000003a0: 8e3a 883d 12d0 0b3e bd0b bcbd b259 7f3d
000003b0: 7926 b73c 9076 51be c7e1 70bd 077d a33d
000003c0: 7402 2f3d b442 adbc f196 9b3d 53b5 b73d
000003d0: 6022 23bd 2d2b 843d 592d cbbc 1ee2 99bc
000003e0: 03a5 00bd 42da 3cbd b54f 0abb e1c5 73bd
000003f0: 2f56 73bd f71b 15be d642 3ebd 9946 2abc

network_body._body_endoder.seq_layers.2.bias f4 [256]
0.0041941195 0.0061719767 -0.0013447087 0.014586926 0.0018383497 -0.0027471685 -0.0037555916 0.0026590547
0.007066006 0.009802159 -0.0070833643 0.010761574 -0.0032829368 -0.0009493007 0.005610285 0.007256735
0.0031159227 -0.00014062013 0.0044600917 -0.003818247 -0.0068493797 -0.0019854193 0.0052143615 0.0075428095
0.0065969136 -0.0060927193 0.015998082 -0.012240647 0.004676479 0.011259252 0.009026315 0.0031830694
0.012360492 -0.0009829958 -0.0017646803 0.003628319 -0.00059066765 -0.0056918315 -0.0023457047 0.0031663417
0.002714368 0.00277205 0.006638981 0.0038753923 -0.00423292 0.003860171 0.0021579121 0.0035652898
0.006429982 0.007430933 -0.0042063687 -0.0011884831 0.009679801 -0.0016947142 0.00057384797 0.0026338296
0.008505399 0.007990588 0.0015154417 0.008213735 -0.0004950929 0.007870089 0.011684251 0.0049084034
0.0037533464 0.010948043 0.004079375 0.017685922 0.0095833205 0.0028748394 -0.008165606 0.006384533
0.0039332956 0.006032092 0.002595768 0.012341372 0.009847429 0.0034330003 -0.005148572 0.0049394877
0.00619431 0.0036589652 0.0026877248 0.00023679358 -0.008094276 0.005826747 0.0009530785 -0.00082515914
-0.00013055261 -0.0032008698 0.0084433155 0.007597271 0.0057591097 0.008736213 0.0065916735 -0.00013183866
0.003667532 0.006730296 0.0011018133 -7.57506e-06 0.011520764 0.013930477 0.006182493 0.0010433187
-0.00046812126 -0.0028546716 0.0113568 0.011669136 -0.009477197 -0.00020974028 -0.0023537504 0.0097282
0.001997648 -0.002195062 -0.0033613578 -0.0011445009 0.007821724 0.0005216185 0.0043247254 0.008245193
-0.00012021365 -0.007303138 0.005558808 0.0053938422 0.0020634998 -0.0031470354 0.00802687 0.013765566
0.009650291 0.004161743 0.004463297 -0.0031126782 -0.0034948296 0.0015985734 0.007708505 0.005025248
0.0065969033 0.0059924177 0.0027331843 -0.0069770124 0.004795682 -0.0033566994 0.009559318 -0.0013965212
0.010212739 0.003705737 0.0054098903 -0.006339902 0.014523641 0.0074986676 -0.0060303416 -0.0038548457
0.00325848 0.0023337947 -0.0005939385 0.012328776 0.0026196982 0.010802177 -0.0012139762 0.0038627754
0.011505354 -0.004504836 0.0020878029 0.00556079 -0.003989259 0.0063863695 0.012912831 -0.0018401975
-0.0043081874 0.010892403 -0.0023758735 0.006704837 0.002983839 -0.000112203605 0.0009089511 -0.0033801415
0.0050543007 -0.001951408 -0.00024394238 0.0009662031 0.003988247 -0.0064801993 0.009905303 -0.0073933466
0.006323469 0.0003332541 0.00044256286 0.0045574615 -0.0024987233 -0.002638269 0.005253963 0.007594885
0.003343173 -0.0035064893 0.0025645418 0.010773595 0.00391056 0.0030171142 -0.006164656 -0.0010543256
-0.0019924638 0.007812318 0.009445245 0.00070378184 0.0022201017 0.0033069751 -0.0014983462 0.013899864
0.0096333595 0.0028451306 0.002118576 -0.0007122214 0.010672829 -0.0008212626 0.010986812 0.007622441
0.0052142465 0.003976501 0.02458425 -0.006159653 -0.0055549913 0.0052417507 0.009948387 0.0010930685
-0.0014185741 0.0014777719 0.020909028 0.0100546 0.0039858143 0.011427095 -0.0008261738 0.0019322189
0.008937141 0.02283914 -3.389321e-05 -0.0005349819 0.002060421 0.00046999572 0.0018723756 0.009487673
0.011665465 0.0042278073 0.0057609905 0.008608504 0.011991001 0.0012124483 -2.8315253e-05 0.009245219
0.0003384615 -0.0033178115 0.0004024316 0.0018950361 0.0013081143 0.010851668 0.016602831 0.02170477
00000000: d36e 893b 4b3e ca3b f040 b0ba 01fe 6e3c
00000010: c8f4 f03a d709 34bb 5f20 76bb 8943 2e3b
00000020: f489 e73b 3c99 203c 911b e8bb 5051 303c
00000030: 8a26 57bb 7eda 78ba 7bd6 b73b e8c9 ed3b
00000040: 8234 4c3b 6e73 13b9 f625 923b 8e3b 7abb
00000050: c370 e0bb cf1d 02bb 3cdd aa3b ac29 f73b
00000060: ec2a d83b 6fa5 c7bb 690e 833c ff8c 48bc
00000070: 263d 993b ba78 383c 1ce3 133c 0b9b 503b
00000080: a983 4a3c ded7 80ba d84c e7ba 17c9 6d3b
00000090: 09d7 1aba 8b82 babb 65ba 19bb 6682 4f3b
000000a0: 8ae3 313b 48ab 353b cf8b d93b 4bfa 7d3b
000000b0: 4eb4 8abb ecfa 7c3b c26b 0d3b a3a7 693b
000000c0: 99b2 d23b 2f7f f33b 94d5 89bb e0c6 9bba
000000d0: 0798 1e3c 2c21 deba 496e 163a 549c 2c3b
000000e0: 3b5a 0b3c f5ea 023c c9a1 c63a e792 063c
000000f0: 1fc9 01ba 8cf1 003c 4d6f 3f3c acd6 a03b
00000100: b4fa 753b 6c5f 333c 47ac 853b 11e2 903c
00000110: 5c03 1d3c cd67 3c3b 09c9 05bc 5835 d13b
00000120: e0e2 803b dba8 c53b c31d 2a3b 7733 4a3c
00000130: 1c57 213c 30fc 603b 5ab5 a8bb 6ddb a13b
00000140: a3f9 ca3b 40cb 6f3b 8a24 303b cb4b 7839
00000150: db9d 04bc 4cee be3b 04d8 793a 7e4f 58ba
00000160: f3e4 08b9 afc5 51bb d555 0a3c 87f2 f83b
00000170: eab6 bc3b 5522 0f3c f7fe d73b 2c3e 0ab9
00000180: fa5a 703b d189 dc3b b86a 903a 452d feb6
00000190: 96c1 3c3c a83c 643c 8396 ca3b f7bf 883a
000001a0: 2c6e f5b9 7115 3bbb df11 3a3c e72f 3f3c
000001b0: 3f46 1bbc baed 5bb9 6141 1abb 0763 1f3c
000001c0: f9ea 023b 08db 0fbb 3a4a 5cbb 1403 96ba
000001d0: b026 003c 3abd 083a 6db6 8d3b d916 073c
000001e0: 361b fcb8 294f efbb a926 b63b d4be b03b
000001f0: c83b 073b 7e3e 4ebb 2283 033c f888 613c
00000200: 411c 1e3c 3b5f 883b d940 923b 13fe 4bbb
00000210: 8309 65bb 3987 d13a a097 fc3b d6aa a43b
00000220: d62a d83b 0b5c c43b 391f 333b 6c9f e4bb
00000230: 1925 9d3b 12fc 5bbb b09e 1c3c 7a0b b7ba
00000240: 5553 273c f3db 723b 7345 b13b f4be cfbb
00000250: 91f4 6d3c 62b7 f53b 2c9a c5bb 94a1 7cbb
00000260: 398c 553b 94f2 183b 8ab2 1bba a2fe 493c
00000270: 3eaf 2b3b 9dfb 303c 481e 9fba 9e26 7d3b
00000280: f480 3c3c 4e9d 93bb 85d3 083b 4a37 b63b
00000290: 54b8 82bb c044 d13b 5790 533c c832 f1ba
000002a0: b22b 8dbb 0d76 323c 8bb4 1bbb 40b4 db3b
000002b0: 838c 433b da4e ebb8 ad46 6e3a 5d85 5dbb
000002c0: 8c9e a53b 63c6 ffba c9ca 7fb9 cb48 7d3a
000002d0: d7af 823b da57 d4bb da49 223c e343 f2bb
000002e0: 1a35 cf3b 9cb8 ae39 c807 e839 c256 953b
000002f0: 9fc1 23bb cfe6 2cbb 7029 ac3b 83de f83b
00000300: 2319 5b3b 21cd 65bb df11 283b bc83 303c
00000310: 2824 803b c7ba 453b e200 cabb 4c31 8aba
00000320: ff93 02bb 79fe ff3b 3bc0 1a3c 007e 383a
00000330: 207f 113b d6b9 583b 2864 c4ba 41bc 633c
00000340: 3dd5 1d3c 5f75 3a3b cfd7 0a3b 5eb4 3aba
00000350: 17dd 2e3c 004a 57ba 0802 343c abc5 f93b
00000360: 45dc aa3b 4f4d 823b e964 c93c ead6 c9bb
00000370: a506 b6bb fec2 ab3b 8ffe 223c 4b45 8f3a
00000380: 73ef b9ba ccb1 c13a 6949 ab3c 0dbc 243c
00000390: 6f9b 823b b638 3b3c 9693 58ba 8242 fd3a
000003a0: 166d 123c 2619 bb3c 8f28 0eb8 073e 0cba
000003b0: 2108 073b c269 f639 806a f53a 2f72 1b3c
000003c0: 8220 3f3c 6b89 8a3b b1c6 bc3b af0a 0d3c
000003d0: e775 443c 04eb 9e3a 8b86 edb7 4279 173c
000003e0: 8973 b139 a46f 59bb 74fd d239 dc62 f83a
000003f0: 0875 ab3a 32cb 313c a902 883c 34ce b13c

network_body._body_endoder.seq_layers.2.weight f4 [256, 256]
0.047548514 -0.014627344 0.15553263 0.034186635 -0.036500696 -0.0063750558 0.009224114 0.111123085
-0.00987258 0.03929227 -0.0020463422 0.06392653 -0.024432736 0.04826579 -0.023767494 0.090872824
-0.018791178 0.056533717 0.035266854 -0.031423002 0.015221144 0.035406694 0.010221674 -0.028049076
-0.03696322 0.016203277 -0.0838917 -0.026436014 0.10327065 -0.0143823 -0.065384395 -0.044248797
0.08940284 -0.021117367 -0.037331227 -0.0060699405 -0.01048465 -0.031005641 -0.08186546 0.017457178
-0.052589413 0.040444277 -0.040724613 0.050727203 0.064408615 -0.035889998 0.06524159 -0.02614636
0.043874674 -0.07138815 -0.056485508 -0.05661569 0.089841135 -0.041323874 0.21359329 -0.108798325
0.049391266 -0.051219888 -0.069643624 -0.0132817 -0.013327596 -0.10564204 -0.062007584 0.00024748736
-0.052129235 -0.10206675 0.03898475 0.04330532 -0.12587725 0.099073626 -0.0066334764 0.02122372
-0.015153221 0.048159085 -0.033597395 0.03719716 0.009802589 -0.02690718 0.00044770993 0.024208637
0.003917762 0.02578681 -0.025190992 -0.0724956 0.041014984 0.015965123 0.04558756 0.040514465
0.08717722 -0.057589397 -0.00376828 0.007192089 -0.01269509 -0.07080399 -0.03368261 -0.10924187
-0.06384784 0.12794793 0.03872908 -0.027162189 0.0013337414 -0.03592954 -0.010659179 0.007544975
-0.066379026 -0.042144336 0.041558493 -0.026855987 0.06210825 -0.043315053 -0.038653947 0.07926494
-0.042223923 -0.123271905 0.016488021 -0.07309384 0.0144349495 0.093551196 -0.06997433 -0.058063008
0.13733138 -0.015512882 0.0038254468 0.012841394 -0.011685976 -0.045200538 -0.031781286 0.04371309
-0.029527463 0.11566693 0.03489917 0.009710451 0.085052446 -0.100610696 0.094625846 -0.0702822
-0.04482482 -0.011465647 0.05270063 0.057193115 0.063186176 -0.03165533 0.08369098 0.037822578
0.0923477 0.05961603 -0.041827004 0.04667903 0.11162282 -0.10904843 -0.15230072 -0.03373612
-0.07649194 -0.0049726395 -0.023820883 0.070864424 0.010239691 0.04260295 0.004581317 0.056542415
0.020302352 -0.06255023 -0.08234056 -0.05449787 0.044644043 -0.009500177 0.026410675 0.02058043
-0.019095054 0.060104746 -0.103829786 0.037159204 -0.07592822 -0.054192256 0.052979965 -0.101901956
0.073644586 0.08443156 0.01630869 -0.09344196 0.06142964 -0.09287073 0.003808505 -0.026036318
0.005291442 -0.18459426 0.01140185 0.019056845 -0.036166556 0.1839543 -0.013769707 -0.12647565
-0.0715593 0.050451696 0.021603502 -0.035104394 0.10226967 -0.06326203 0.031265102 0.11860341
-0.076455116 -0.12239502 -0.050674554 0.015602944 -0.0067234836 0.008528459 0.018408816 -0.12616968
0.015552338 0.052694403 0.043950047 -0.0478652 0.07160937 -0.0053130044 -0.07107856 0.0057137497
-0.015461245 0.10055681 0.08996252 0.026318703 0.034404527 -0.020755429 -0.010191188 0.015187115
0.065361306 -0.09521207 -0.09541939 0.013700992 0.061496004 -0.055062227 0.05490078 -0.13199824
-0.026071824 0.04102839 0.015940338 0.01634241 0.008369265 0.037013594 0.08624019 0.08884607
-0.03346673 0.080979735 0.04595961 -0.013436279 -0.022762015 -0.031937346 -0.0362293 -0.042214416
0.07480501 0.034908976 -0.048153985 0.03579316 0.019193973 -0.16442198 0.001281309 0.06712623
00000000: 3bc2 423d 87a7 6fbc f243 1f3e 4907 0c3d
00000010: c181 15bd d8e5 d0bb bd20 173c 8094 e33d
00000020: 9ac0 21bc eef0 203d ed1b 06bb eaeb 823d
00000030: 2927 c8bc 59b2 453d 0cb4 c2bc 881b ba3d
00000040: f5ef 99bc e68f 673d fa73 103d 68b5 00bd
00000050: 1b62 793c 9c06 113d cf78 273c 2dc7 e5bc
00000060: bf66 17bd bcbc 843c 69cf abbd 5790 d8bc
00000070: 907f d33d bda3 6bbc 41e8 85bd 3a3e 35bd
00000080: d618 b73d 54fe acbc a1e8 18bd 5ae6 c6bb
00000090: cfc7 2bbc 8bff fdbc 14a9 a7bd 5b02 8f3c
000000a0: ff67 57bd e6a8 253d dace 26bd 54c7 4f3d
000000b0: aae8 833d 6401 13bd 629d 853d e430 d6bc
000000c0: eeb5 333d f333 92bd 595d 67bd dbe5 67bd
000000d0: a1fe b73d 3943 29bd 33b8 5a3e a8d1 debd
000000e0: 7f4e 4a3d f2cb 51bd 51a1 8ebd 7d9b 59bc
000000f0: fd5b 5abc db5a d8bd aafb 7dbd 31c1 8139
00000100: 7785 55bd 5f08 d1bd 79ae 1f3d eb60 313d
00000110: f7e5 00be 1de7 ca3d a25d d9bb 5edd ad3c
00000120: 3745 78bc 7642 453d 6c9d 09bd 0d5c 183d
00000130: 0a9b 203c 726c dcbc 9cba ea39 3151 c63c
00000140: 9260 803b dc3e d33c 575d cebc 9378 94bd
00000150: 54ff 273d 4ac9 823c 05ba 3a3d 7ff2 253d
00000160: f889 b23d dce2 6bbd 3ff5 76bb 9eab eb3b
00000170: 11ff 4fbc af01 91bd c7f6 09bd 34ba dfbd
00000180: a8c2 82bd c804 033e 62a2 1e3d 3d83 debc
00000190: efd0 ae3a da2a 13bd d6a3 2ebc d63b f73b
000001a0: baf1 87bd 8a9f 2cbd 3d39 2a3d 1601 dcbc
000001b0: 3865 7e3d 206b 31bd 9a53 1ebd a855 a23d
000001c0: fef2 2cbd fb75 fcbd e311 873c 39b2 95bd
000001d0: 9180 6c3c c597 bf3d b44e 8fbd 7ad3 6dbd
000001e0: 99a0 0c3e be29 7ebc 59b4 7a3b b664 523c
000001f0: 8976 3fbc 3324 39bd 182d 02bd 7f0c 333d
00000200: 94e3 f1bc c9e2 ec3d 6ff2 0e3d 9518 1f3c
00000210: fa2f ae3d fb0c cebd 32cb c13d 1df0 8fbd
00000220: 3b9a 37bd 69da 3bbc 9edc 573d 5443 6a3d
00000230: c167 813d 05a9 01bd 2d66 ab3d d9eb 1a3d
00000240: ca20 bd3d f02f 743d cb52 2bbd 8332 3f3d
00000250: 819a e43d c954 dfbd b8f4 1bbe e32e 0abd
00000260: cea7 9cbd 86f1 a2bb 0324 c3bc 5e21 913d
00000270: 60c4 273c 6e80 2e3d df1e 963b 0599 673d
00000280: 1e51 a63c 561a 80bd 2ba2 a8bd 2939 5fbd
00000290: acdc 363d a1a6 1bbc 335b d83c 4a98 a83c
000002a0: 3b6d 9cbc 6530 763d b6a4 d4bd 4034 183d
000002b0: 4180 9bbd b3f8 5dbd 8501 593d f9b1 d0bd
000002c0: f9d2 963d 74ea ac3d cd99 853c 805e bfbd
000002d0: a59d 7b3d 0233 bebd 1c98 793b 1e4a d5bc
000002e0: d563 ad3b 4706 3dbe d3ce 3a3c 1a1d 9c3c
000002f0: 6223 14bd 845e 3c3e 569a 61bc d582 01be
00000300: af8d 92bd 70a6 4e3d d4f9 b03c a0c9 0fbd
00000310: c372 d13d 868f 81bd d60f 003d 58e6 f23d
00000320: 8094 9cbd 3eaa fabd 1f90 4fbd 7ea3 7f3c
00000330: ab50 dcbb f3ba 0b3c 16ce 963c a032 01be
00000340: 3ccf 7e3c 16d6 573d f704 343d 4d0e 44bd
00000350: efa7 923d b618 aebb a391 91bd 683a bb3b
00000360: 2951 7dbc bbf0 cd3d 453e b83d 529a d73c
00000370: c3eb 0c3d 4a07 aabc f1f8 26bc 61d3 783c
00000380: 26dc 853d 8cfe c2bd 3e6b c3bd 207a 603c
00000390: 3ce3 7b3d ee88 61bd a4df 603d 8c2a 07be
000003a0: 9494 d5bc 630d 283d 5095 823c 85e0 853c
000003b0: 3e1f 093c 919b 173d b29e b03d eef4 b53d
000003c0: 6914 09bd b4d8 a53d 2540 3c3d d723 5cbc
000003d0: 6877 babc bcd0 02bd 2d65 14bd 06e9 2cbd
000003e0: 5e33 993d b7fc 0e3d 1d3d 45bd d99b 123d
000003f0: ae3c 9d3c 3c5e 28be 99f1 a73a 7a79 893d

network_body._body_endoder.seq_layers.4.bias f4 [256]
-0.0005008045 0.0066916062 0.0061270534 0.006102146 -0.0012556238 0.004560082 -0.0018947081 0.002894015
0.004737065 -0.00041862985 0.0018240291 0.0073351716 0.010967892 0.00041282238 0.004321044 0.003840968
0.0035949482 -0.0014677207 0.008224807 0.0058740177 0.0010840404 0.0027801592 0.006729656 0.007067961
0.0024812468 0.0046158363 0.0033595006 0.0093496265 0.009073558 0.0069200746 -0.0014461157 0.002224279
-0.0006338642 0.004560426 0.005854091 0.00820732 0.0051554115 0.0010410476 0.004128462 -0.0007144621
0.0038792905 0.008049605 0.006481591 0.007718208 0.002903496 0.00014868977 0.002217978 0.0046209027
0.0092550265 0.001521549 0.002439012 0.0042027924 0.0016838326 -0.0012268617 0.0014849685 0.007578569
0.003970408 0.0063733268 0.004328841 0.0022426825 0.001979861 0.0020175856 0.0037550288 0.0016408563
0.008298441 0.0048363935 0.011527405 0.0044882665 0.003531961 0.0068654995 0.0027699887 0.0022101323
0.008736398 0.0038980702 0.0015971266 0.0037446525 0.0009014586 0.005014396 0.0035769767 0.0023278294
0.002228498 0.00579862 0.0050473316 0.005671657 0.00053663476 0.0021970952 0.007899953 0.0032016283
0.0051093954 0.004997539 -0.003879692 0.0044704056 0.0027068804 0.0016103837 -0.0006050559 0.0036729102
0.0030750914 -0.0021846346 -0.0029945057 0.0059467163 -0.0019809552 0.0015743197 0.0047162757 0.006911451
0.0027356842 0.006804223 0.0069234786 0.0020796517 0.0024257423 0.0059364233 0.0051954472 0.010004807
0.00010507846 0.0027223895 0.006861194 0.0065920455 -0.0019859069 0.007174885 0.009478046 0.0048128595
-0.0013662687 0.0075282985 0.0069494224 0.003281904 0.001120087 0.0005085584 0.001809842 0.007900615
0.0074444558 0.0031484854 0.008190721 0.0030816325 0.0017079514 0.0046929703 0.004632604 -0.0008777551
-0.0014317338 0.0013661076 0.0070768734 0.009796647 0.0019237625 0.0022809021 -0.0005312769 0.0037508162
0.002026155 0.0016858646 0.0025928083 0.0069604777 0.008864055 0.004823204 0.0066824798 0.004697501
0.009483965 0.009039631 0.013294787 -0.0022735156 0.0014497277 0.0047841547 -0.0005250925 0.0031031368
0.0029176115 0.0021437944 0.0040238346 0.0049989987 0.014143538 0.0021594919 0.004831464 0.0027505571
0.003811272 -0.00031649534 0.005413529 -0.0013327244 0.002976755 0.0018815754 0.0024932816 -0.00035447243
0.003910373 -0.00020992888 0.0062734 0.0029899185 0.0011681414 -0.0015676155 0.0067153303 -0.0007311991
0.0052882456 0.008623946 0.0003875797 0.004153875 -0.0017416475 0.009880247 0.0037000058 0.0077635427
0.0023527485 0.0026267343 0.0052496055 0.0035351529 0.003837032 0.0055530383 0.004068613 0.0026894123
0.00528799 0.003590611 0.0049863206 -3.9048293e-05 0.0065051303 0.0006893042 0.004949689 0.0048422012
0.0052636494 0.00027391425 0.008929215 0.00052975566 0.004482293 -0.00078632013 0.006546134 0.00017534038
0.006060414 0.003302351 0.0038821283 0.0037916591 0.004948313 0.0058268397 -0.002988704 -0.00016565336
0.00947066 0.007447446 0.004875827 0.005578772 0.0048651514 0.00438079 0.006043529 0.003471191
0.0061569475 0.0027552417 0.008595847 0.008097363 0.0012749267 0.007982499 0.006633537 0.010808995
0.0034029798 0.00611043 0.0033674506 0.0027329968 0.0028137541 0.0004088123 0.0020202808 0.00063890417
0.0013687657 0.0072111073 0.007136329 0.008824139 0.0053310245 0.004185962 0.0029927702 0.0067268335
00000000: 6c48 03ba 4345 db3b 73c5 c83b 83f4 c73b
00000010: be93 a4ba be6c 953b db57 f8ba 84a9 3d3b
00000020: 6239 9b3b 8c7b dbb9 4314 ef3a e15b f03b
00000030: acb2 333c 1570 d839 8b97 8d3b c0b8 7b3b
00000040: 3999 6b3b 8960 c0ba 57c1 063c d57a c03b
00000050: 5c16 8e3a 5533 363b 7284 dc3b 5b9a e73b
00000060: 6a9c 223b 7140 973b 112b 5c3b 2d2f 193c
00000070: 43a9 143c cbc1 e23b 978b bdba 36c5 113b
00000080: e829 26ba a06f 953b add3 bf3b ff77 063c
00000090: baee a83b c373 883a 0d48 873b bd4a 3bba
000000a0: b23b 7e3b 7ee2 033c 8763 d43b 05e9 fc3b
000000b0: 9448 3e3b 9be9 1b39 7f5b 113b f16a 973b
000000c0: 65a2 173c b66e c73a d5d7 1f3b 94b7 893b
000000d0: 0cb4 dc3a a6ce a0ba 46a3 c23a a555 f83b
000000e0: 321a 823b 57d7 d03b f3d8 8d3b f8f9 123b
000000f0: 8ec0 013b 7839 043b ee16 763b 0012 d73a
00000100: 2ff6 073c 9c7a 9e3b 71dd 3c3c 4f12 933b
00000110: 7978 673b fcf7 e03b b388 353b ded7 103b
00000120: 1c23 0f3c c476 7f3b ad56 d13a d868 753b
00000130: dd4f 6c3a cd4f a43b b66b 6a3b 7f8e 183b
00000140: fe0b 123b 5a02 be3b 1664 a53b 4fd9 b93b
00000150: f3ac 0c3a 24fd 0f3b ce6e 013c 69d2 513b
00000160: b76c a73b 65c2 a33b 6e42 7ebb 7b7c 923b
00000170: eb65 313b 8313 d33a 9d9c 1eba 35b5 703b
00000180: 7987 493b 162c 0fbb 783f 44bb acdc c23b
00000190: ead2 01bb 6759 ce3a fd8a 9a3b 7479 e23b
000001a0: 2a49 333b f6f5 de3b 59de e23b c44a 083b
000001b0: 34f9 1e3b 5486 c23b 923e aa3b 34eb 233c
000001c0: 925d dc38 1e6a 323b ded3 e03b 1602 d83b
000001d0: fd25 02bb 4c1b eb3b ce49 1b3c 31b5 9d3b
000001e0: 5f14 b3ba f2af f63b fbb7 e33b 3615 573b
000001f0: e2cf 923a c750 053a 3838 ed3a 9571 013c
00000200: 9ff0 f33b d256 4e3b 6032 063c 37f5 493b
00000210: 57dd df3a 7dc7 993b 19cd 973b 2619 66ba
00000220: 04a9 bbba f70e b33a 1ee5 e73b 1e82 203c
00000230: c226 fc3a 307b 153b 6445 0bba 41d0 753b
00000240: 3dc9 043b 3bf8 dc3a 1bec 293b b814 e43b
00000250: 8b3a 113c f80b 9e3b b4f8 da3b 7fed 993b
00000260: a262 1b3c f61a 143c 61d2 593c 43ff 14bb
00000270: ca04 be3a 66c4 9c3b 5ca6 09ba ff5d 4b3b
00000280: 6635 3f3b e77e 0c3b 5fda 833b a4ce a33b
00000290: 4cba 673c 4386 0d3b 4251 9e3b b142 343b
000002a0: 89c6 793b 49ef a5b9 f963 b13b cfae aeba
000002b0: a915 433b 329f f63a 5366 233b 7cd8 b9b9
000002c0: 9622 803b 5b20 5cb9 1891 cd3b 82f2 433b
000002d0: 521c 993a 7378 cdba 460c dc3b f1ad 3fba
000002e0: 0549 ad3b 744b 0d3c 1134 cb39 3b1d 883b
000002f0: fe47 e4ba c2e0 213c cc7b 723b 5165 fe3b
00000300: 9230 1a3b 4a25 2c3b e204 ac3b 06ae 673b
00000310: b776 7b3b 43f6 b53b 0052 853b da40 303b
00000320: e046 ad3b 7550 6b3b 4a64 a33b c9c7 23b8
00000330: fd28 d53b 6cb2 343a 0031 a23b 54ab 9e3b
00000340: b17a ac3b 269c 8f39 d84b 123c 4ddf 0a3a
00000350: 33e0 923b 0d21 4eba f480 d63b 93db 3739
00000360: 7096 c63b 426c 583b 4e6b 7e3b 7c7d 783b
00000370: 7525 a23b 13ef be3b 22de 43bb 3cb3 2db9
00000380: d42a 1b3c b509 f43b 67c5 9f3b 22ce b63b
00000390: d96b 9f3b bb8c 8f3b cc08 c63b ec7c 633b
000003a0: 38c0 c93b 4991 343b 98d5 0c3c cdaa 043c
000003b0: 711b a73a 07c9 023c 245e d93b 3618 313c
000003c0: 8704 5f3b 013a c83b 72b0 5c3b 141c 333b
000003d0: f666 383b dc55 d639 b066 043b 227c 273a
000003e0: 2868 b33a 274b ec3b ded7 e93b 1f93 103c
000003f0: e0af ae3b 652a 893b 5a22 443b c56c dc3b
